notebooks/lightning_logs/version_93/checkpoints/epoch=999-step=1000.ckpt (torch, 22174 bytes, 30 tensors)

front_linear.weight f4 [8, 2]
1.1091031 -2.4877594 -1.839174 2.2436984 -1.9402096 -0.13599741 -0.04483901 0.049756788
-0.38826156 1.1399585 0.0038353545 0.9611352 0.58248997 -0.8422034 0.15038395 0.3187191
00000000: 17f7 8d3f 7337 1fc0 0e6a ebbf c198 0f40
00000010: ca58 f8bf e842 0bbe 1ca9 37bd c6cd 4b3d
00000020: 38ca c6be 29ea 913f 925a 7b3b f50c 763f
00000030: 101e 153f a49a 57bf 40fe 193e 262f a33e

front_linear.bias f4 [8]
0.6622397 -0.20484747 0.91207737 0.012228675 -0.4241364 -0.64900196 0.019973822 -0.06142885
00000000: 8a88 293f 89c3 51be e77d 693f c85a 483c
00000010: 6828 d9be fe24 26bf 24a0 a33c d19c 7bbd

transformer_encoder.layers.0.self_attn.qkv_proj.weight f4 [24, 8]
-0.04365309 0.1876659 0.7380531 -0.90894777 -0.050291985 0.5092351 0.60340667 -0.5026739
-3.4592452 2.3548987 -0.25448367 0.15265867 0.81129616 0.55559677 -0.42828187 0.18986744
-2.9496846 1.8545756 -0.16374205 0.40753198 0.5862569 0.5675647 -0.4451131 0.08644502
-0.56329674 -0.41388875 -0.12998535 0.9895087 0.096768856 -0.87706494 -0.4873632 0.42168856
-2.3964097 -0.07116945 0.85147595 -1.4777478 -1.0586675 -1.5617383 -0.93568444 -2.1239362
0.7065087 0.93165267 2.8393488 0.18942936 -0.19450122 -1.4077572 -1.1879184 0.70047224
0.98964804 0.8799805 2.0152376 0.57775515 -0.44515318 -1.0593779 -1.8101242 1.2507974
1.8359923 0.38290933 -0.4763084 1.3882575 0.5647721 0.5267666 -0.5953756 0.48592728
-2.173413 0.47747934 -0.6421216 0.10443184 0.41800064 0.4400613 -0.24312583 0.15833984
-2.0520163 0.829797 0.3238795 0.017817749 -0.024292655 -0.14725721 -0.41195044 0.29771256
-0.2049013 -0.17545502 0.23351121 0.13315445 0.009684747 0.107747756 -0.14053166 0.0064539835
0.2121165 0.11982163 -0.038665608 0.040365063 0.09433612 -0.18098582 0.15331833 0.13213536
-4.3125424 4.401606 2.0398297 -0.06283774 2.1673505 2.5966036 2.5500915 -2.3658147
-5.668087 4.016549 5.5551367 0.22032356 0.15249458 -0.683994 -1.3123376 0.3332632
-6.3490186 5.1184015 5.2412996 -0.7812655 1.1497684 -0.03017021 -1.0196043 -0.62648076
3.682123 -2.754585 -4.23449 0.0025313445 0.7955483 0.48659796 1.8638657 -0.29064983
-3.1149566 -0.39650303 -3.700285 -1.2113856 1.842205 3.6776748 0.49260885 0.10997415
-4.48702 2.033694 -2.5588846 0.60235065 2.527846 3.2857385 0.10431516 0.2566025
-3.8479881 1.5356206 -2.6579769 -0.28730333 2.8803914 3.8152208 0.31028146 -0.6950444
4.4465647 -1.4193866 1.8091173 -1.1565075 -2.161519 -2.4705877 -0.8162174 -1.2042947
0.7031747 -1.1602992 -1.1490374 0.016581861 -0.1769419 0.15687163 -0.020109765 -0.22577362
0.10472646 -0.033406015 0.03996602 -0.0073341904 0.07752955 0.07817108 -0.088363685 0.12119539
0.12428974 -0.002368154 -0.003134964 0.11427943 -0.029393349 0.12766224 -0.25717586 -0.047334254
0.180673 0.15466048 -0.03072102 0.09031315 -0.13612537 -0.019877568 0.1034313 0.25876698
00000000: 95cd 32bd 7d2b 403e 0cf1 3c3f cdb0 68bf
00000010: f8fe 4dbd 3b5d 023f dc78 1a3f 3daf 00bf
00000020: 4664 5dc0 a9b6 1640 af4b 82be 8e52 1c3e
00000030: 1bb1 4f3f 973b 0e3f c347 dbbe 9c6c 423e
00000040: a2c7 3cc0 bc62 ed3f ffab 27be 08a8 d03e
00000050: ef14 163f ec4b 113f dde5 e3be 160a b13d
00000060: 3734 10bf 3ae9 d3be e11a 05be 7150 7d3f
00000070: c02e c63d 5487 60bf ab87 f9be 90e7 d73e
00000080: c75e 19c0 4ac1 91bd 54fa 593f d726 bdbf
00000090: 6b82 87bf 0ae7 c7bf 0489 6fbf 92ee 07c0
000000a0: c1dd 343f ca80 6e3f e4b7 3540 c5f9 413e
000000b0: 542b 47be 6331 b4bf b60d 98bf 2652 333f
000000c0: 9359 7d3f 6746 613f a7f9 0040 c3e7 133f
000000d0: 1eeb e3be b299 87bf 26b2 e7bf 211a a03f
000000e0: cc01 eb3f b10c c43e b2de f3be 6cb2 b13f
000000f0: e894 103f 2dda 063f 896a 18bf 76cb f83e
00000100: 3319 0bc0 2c78 f43e 1562 24bf 5ce0 d53d
00000110: 2e04 d63e b74f e13e faf5 78be d723 223e
00000120: 3c54 03c0 946d 543f 89d3 a53e 87f6 913c
00000130: 6401 c7bc 98ca 16be 2beb d2be c86d 983e
00000140: a5d1 51be 7baa 33be 901d 6f3e a459 083e
00000150: c6ac 1e3c dbaa dc3d 88e7 0fbe f07b d33b
00000160: 1135 593e 0b65 f53d d45f 1ebd d655 253d
00000170: 4c33 c13d 5954 39be 7bff 1c3e 7e4e 073e
00000180: 5900 8ac0 f5d9 8c40 928c 0240 13b1 80bd
00000190: dfb5 0a40 c12e 2640 b334 2340 8269 17c0
000001a0: f860 b5c0 9287 8040 aec3 b140 809c 613e
000001b0: 8a27 1c3e 3b1a 2fbf aefa a7bf 79a1 aa3e
000001c0: 292b cbc0 f2c9 a340 bab8 a740 0401 48bf
000001d0: 9c2b 933f 8427 f7bc 6582 82bf 0b61 20bf
000001e0: e7a7 6b40 1f4b 30c0 f180 87c0 eae4 253b
000001f0: 0ea9 4b3f 5e23 f93e 2793 ee3f 0ed0 94be
00000200: 735b 47c0 7202 cbbe 78d1 6cc0 af0e 9bbf
00000210: 60cd eb3f 065f 6b40 3a37 fc3e 213a e13d
00000220: ab95 8fc0 0b28 0240 c4c4 23c0 a733 1a3f
00000230: 3bc8 2140 8a49 5240 30a3 d53d 6761 833e
00000240: 7045 76c0 378f c43f 4b1c 2ac0 6c19 93be
00000250: 5558 3840 942c 7440 36dd 9e3e 6eee 31bf
00000260: 424a 8e40 76ae b5bf 2891 e73f 7008 94bf
00000270: 5456 0ac0 1c1e 1ec0 a0f3 50bf 5426 9abf
00000280: 4203 343f af84 94bf a813 93bf afd6 873c
00000290: 4230 35be f5a2 203e 3cbd a4bc 3331 67be
000002a0: d47a d63d bfd4 08bd 69b3 233d a653 f0bb
000002b0: d0c7 9e3d 2918 a03d 05f8 b4bd 4a35 f83d
000002c0: 9f8b fe3d 0833 1bbb f873 4dbb 550b ea3d
000002d0: 52ca f0bc e4b9 023e 8eac 83be 90e1 41bd
000002e0: 5802 393e 515f 1e3e a6aa fbbc 1af6 b83d
000002f0: 7364 0bbe 48d6 a2bc cad3 d33d 1b7d 843e

transformer_encoder.layers.0.self_attn.o_proj.weight f4 [8, 8]
-0.62117404 2.0769496 0.53077286 0.14505196 0.67144126 -0.023169352 -0.01238581 0.38693666
1.4557438 0.7946714 0.077186055 0.018445402 0.79680866 0.01774011 -0.01353994 0.12615491
0.39778012 -0.20905113 -0.094704896 -0.017389603 -1.0511434 0.013152567 -0.07131078 0.41429654
-0.0077817906 0.19791324 -0.35102 0.041771464 0.0206464 0.0792334 -0.05194323 -0.3940203
-0.3114838 0.70314777 0.079814106 -0.35142753 0.119231954 -0.13775845 0.1410016 -0.7996532
0.2124779 0.23893075 0.14715633 0.23692545 -0.30504632 -0.14863756 0.0834409 -0.18574359
-0.4044483 -0.31674302 0.15131767 -0.17010483 0.28521514 -0.0019948639 0.09046536 -0.27851158
-0.16641186 -1.1383904 -0.06729064 0.24464223 0.82688135 -0.05527094 -0.04782735 0.30014995
00000000: 4305 1fbf beec 0440 bbe0 073f 8088 143e
00000010: 93e3 2b3f a7cd bdbc daed 4abc 901c c63e
00000020: d055 ba3f 966f 4b3f b913 9e3d d01a 973c
00000030: a7fb 4b3f b553 913c a0d6 5dbc c12e 013e
00000040: d6a9 cb3e 8011 56be a4f4 c1bd a474 8ebc
00000050: de8b 86bf dd7d 573c 630b 92bd ad1e d43e
00000060: 64fe febb c5a9 4a3e e5b8 b3be 8e18 2b3d
00000070: a422 a93c 1f45 a23d 6dc2 54bd 07bd c9be
00000080: ce7a 9fbe 7e01 343f 9475 a33d 4fee b3be
00000090: e22f f43d 8d10 0dbe b962 103e 12b6 4cbf
000000a0: ce93 593e 43aa 743e 26b0 163e 969c 723e
000000b0: 082f 9cbe 7234 18be 10e3 aa3d 9133 3ebe
000000c0: d913 cfbe 242c a2be 05f3 1a3e f62f 2ebe
000000d0: b807 923e 43bc 02bb e745 b93d 1299 8ebe
000000e0: df67 2abe c7b6 91bf adcf 89bd 7e83 7a3e
000000f0: 7fae 533f c863 62bd 9de6 43bd 41ad 993e

transformer_encoder.layers.0.self_attn.o_proj.bias f4 [8]
0.3572967 1.1674469 -0.31133294 0.06925432 0.7711048 0.753464 -0.563402 -1.7556461
00000000: 98ef b63e e66e 953f 0867 9fbe 35d5 8d3d
00000010: 2067 453f 04e3 403f 1d3b 10bf 03b9 e0bf

transformer_encoder.layers.0.linear_net.0.weight f4 [16, 8]
-0.40433252 -0.5816004 0.7106522 0.46099153 -0.4892417 0.01600656 0.6118569 1.5634874
0.69799805 -3.2922366 -2.2860715 0.18051952 0.04974299 -0.82739365 1.2530135 1.9952332
-0.2912324 -4.4060645 1.2413594 -0.061638184 -0.4344104 0.24149401 0.13790894 -0.99606866
0.53580433 -1.802771 -0.31249964 -0.88338804 -2.3256967 -1.2287712 1.0742422 2.9462059
-0.12273443 -0.27068195 0.34931904 0.37797117 -1.2018884 -1.4479486 1.2656927 3.791795
-0.61087304 -0.9589112 -0.18930341 -0.91991615 -2.2328665 -1.4204165 1.0934647 5.0033846
-0.13204636 0.07758679 0.2929995 -0.39990702 -0.6583561 -0.95790803 0.20382468 0.6987489
-0.13521922 -0.72166044 0.7371633 -0.31539002 -0.91982377 -0.7257201 0.25971377 0.93195474
-0.045301054 -0.87520975 3.1429977 0.00050936965 -3.1850486 -4.4690237 0.78505254 2.3024347
-0.8838054 -1.8074459 -2.1874568 -0.43943453 -1.1036788 -0.2834477 1.172423 2.8099482
0.13638276 -0.18199238 1.3257363 -0.662773 -4.404279 -0.23089653 -0.29699174 0.6441182
-1.3228505 -1.138781 0.0076998807 0.4952111 -0.76812315 -0.41709945 0.29636964 1.0324166
-1.6316928 -1.1756065 0.004473728 -0.77329946 -0.9341855 0.32864648 0.3720156 1.96449
0.29338056 -1.4567391 2.691742 0.4432562 -2.5527396 -2.6305218 0.5460219 0.6838455
-0.9798144 -0.54738426 -0.15625867 -0.43461132 -0.9429054 -0.13362134 0.47986272 0.4476799
-0.2319145 -0.63323057 1.068761 -0.48604658 -1.1403028 -0.6368419 0.42598802 0.8729991
00000000: ac04 cfbe c4e3 14bf 4ded 353f 1507 ec3e
00000010: e37d fabe 3020 833c a7a2 1c3f 5b20 c83f
00000020: 00b0 323f 01b4 52c0 ff4e 12c0 1cda 383e
00000030: 4ebf 4b3d 12d0 53bf bf62 a03f cd63 ff3f
00000040: 6a1c 95be 7bfe 8cc0 dde4 9e3f 5278 7cbd
00000050: 0a6b debe 354a 773e 0038 0d3e 5bfe 7ebf
00000060: 792a 093f 33c1 e6bf f4ff 9fbe b825 62bf
00000070: 37d8 14c0 6048 9dbf c580 893f a38e 3c40
00000080: 305c fbbd d396 8abe f2d9 b23e 7085 c13e
00000090: 7bd7 99bf 6156 b9bf 3802 a23f c5ac 7240
000000a0: 2d62 1cbf 347b 75bf c1d8 41be a07f 6bbf
000000b0: 49e7 0ec0 35d0 b5bf a7f6 8b3f ba1b a040
000000c0: 2937 07be d3e5 9e3d 0804 963e 9dc0 ccbe
000000d0: 068a 28bf 7639 75bf 6bb7 503e 35e1 323f
000000e0: e876 0abe bdbe 38bf bcb6 3c3f cd7a a1be
000000f0: 9279 6bbf cbc8 39bf 34f9 843e 9694 6e3f
00000100: 998d 39bd bf0d 60bf e026 4940 3887 053a
00000110: d6d7 4bc0 3e02 8fc0 34f9 483f 175b 1340
00000120: 1241 62bf 635a e7bf 4bff 0bc0 90fd e0be
00000130: 5945 8dbf 0f20 91be f511 963f 31d6 3340
00000140: eca7 0b3e 365c 3abe bab1 a93f 7eab 29bf
00000150: dbef 8cc0 2470 6cbe 4d0f 98be eee4 243f
00000160: 2a53 a9bf 93c3 91bf 484f fc3b 4f8c fd3e
00000170: b8a3 44bf 0f8e d5be c3bd 973e 3a26 843f
00000180: 4fdb d0bf 467a 96bf 5a98 923b f4f6 45bf
00000190: c826 6fbf 5a44 a83e d478 be3e 6974 fb3f
000001a0: fa35 963e 6d76 babf 8045 2c40 7af2 e23e
000001b0: 1660 23c0 785a 28c0 17c8 0b3f 8010 2f3f
000001c0: 1ed5 7abf 6021 0cbf 4602 20be 6085 debe
000001d0: 4062 71bf 08d4 08be 91b0 f53e 4d36 e53e
000001e0: ff7a 6dbe 661b 22bf 29cd 883f 19db f8be
000001f0: 71f5 91bf 1208 23bf 1a1b da3e de7c 5f3f

transformer_encoder.layers.0.linear_net.0.bias f4 [16]
-2.9770231 -3.169264 0.17907892 -2.405975 -3.3874063 -2.8985384 -1.3684217 -2.2172902
-1.4781916 -1.3535568 -5.428547 -2.063687 -2.0452647 -2.099885 -0.83819574 -2.2558417
00000000: 8c87 3ec0 39d5 4ac0 7760 373e 7ffb 19c0
00000010: 44cb 58c0 a781 39c0 7128 afbf 15e8 0dc0
00000020: 6235 bdbf 5941 adbf a8b6 adc0 7313 04c0
00000030: 9ee5 02c0 8464 06c0 ff93 56bf b65f 10c0

transformer_encoder.layers.0.linear_net.3.weight f4 [8, 16]
-1.2956191 -1.9808363 1.150619 -1.4936796 0.14331439 0.08545267 0.5934574 0.22955285
-5.085399 -2.053535 0.45498034 0.33178625 0.6326438 -2.0085125 1.0088186 0.30692238
-0.49733332 1.5771561 -0.41696966 0.8295248 -1.7128215 0.012165801 0.009041926 -0.6619803
1.92643 0.093625404 -0.67247516 -0.4069798 -0.6337255 1.81191 -0.23204222 -0.28266194
-1.1581401 1.8434111 -1.0237011 0.16732498 -1.608469 2.6596854 0.14995769 1.3013405
1.3398659 1.3711839 0.07078832 -0.4974459 -0.37796327 1.2558162 -0.18046783 0.78616905
0.5312031 0.6734143 -0.17481022 0.9113442 0.4914797 2.0876336 0.09665284 1.1737516
-0.14070141 0.9794052 -0.6801696 -0.067166075 -0.47338355 -1.3706592 0.15859169 0.909708
-0.08014064 -0.22283532 0.059112884 0.3550751 -1.1236769 1.0073073 0.047522344 0.38191563
0.43716514 0.34481922 -0.6673476 -0.865153 0.43153948 -0.19084363 0.076858275 0.6021409
-0.4322351 1.0327294 -0.12788607 -0.55583006 -3.5755196 -1.2180545 0.28002635 -0.568379
0.7096211 0.9984396 0.08819383 -0.66232836 -1.6992141 0.35450244 -0.9110369 -0.4110322
0.54244703 -0.92337066 0.12991227 -0.46970543 2.0760026 -0.14257799 -0.28362885 0.58526003
-0.6396492 0.30270216 0.12680073 0.6574977 0.6159866 0.020286711 0.16614847 0.086804524
1.4659966 -0.59255576 0.4881234 0.027724896 1.2073499 -1.717154 -0.17308259 -0.039734907
-0.4972684 -0.20832135 0.6195221 0.46858895 0.8025316 0.91107786 -0.0038221094 -0.10112127
00000000: d9d6 a5bf 0b8c fdbf 7c47 933f e530 bfbf
00000010: 02c1 123e cf01 af3d d3ec 173f e70f 6b3e
00000020: 97bb a2c0 1e6d 03c0 2ff3 e83e e3df a93e
00000030: f2f4 213f 788b 00c0 f820 813f ee24 9d3e
00000040: 79a2 febe 40e0 c93f 0c7d d5be bd5b 543f
00000050: bc3d dbbf 1153 473c 9624 143c 8a77 29bf
00000060: 4295 f63f adbe bf3d 5527 2cbf a85f d0be
00000070: d63b 22bf abec e73f 7a9c 6dbe 11b9 90be
00000080: ef3d 94bf e5f4 eb3f a308 83bf 3d57 2b3e
00000090: 50e2 cdbf 4938 2a40 828e 193e 5392 a63f
000000a0: ba80 ab3f f482 af3f 77f9 903d 3bb1 febe
000000b0: 6784 c1be 96be a03f 8fcc 38be 6042 493f
000000c0: edfc 073f e164 2c3f 7301 33be da4d 693f
000000d0: 3aa3 fb3e ca9b 0540 edf1 c53d 7e3d 963f
000000e0: 0814 10be 4dba 7a3f 981f 2ebf 5e8e 89bd
000000f0: 545f f2be c371 afbf dc65 223e a0e2 683f
00000100: c720 a4bd f12e 64be 5a20 723d 67cc b53e
00000110: a5d4 8fbf 72ef 803f caa6 423d 728a c33e
00000120: 1cd4 df3e 258c b03e 4bd7 2abf ab7a 5dbf
00000130: bef2 dc3e 836c 43be df67 9d3d e825 1a3f
00000140: eb4d ddbe 7a30 843f 91f4 02be e14a 0ebf
00000150: 50d5 64c0 36e9 9bbf 9d5f 8f3e 4981 11bf
00000160: baa9 353f bd99 7f3f f79e b43d 5a8e 29bf
00000170: d97f d9bf 5881 b53e b739 69bf d072 d2be
00000180: cfdd 0a3f 0562 6cbf b907 053e 3b7d f0be
00000190: 3add 0440 f7ff 11be cd37 91be 9ad3 153f
000001a0: 0dc0 23bf c7fb 9a3e 0dd8 013e c551 283f
000001b0: 4cb1 1d3f 5130 a63c d322 2a3e 92c6 b13d
000001c0: c7a5 bb3f bcb1 17bf 4feb f93e 521f e33c
000001d0: 718a 9a3f b4cb dbbf 903c 31be 12c1 22bd
000001e0: f799 febe 3152 55be 0099 1e3f e4ea ef3e
000001f0: b672 4d3f 663c 693f 5b7c 7abb ab18 cfbd

transformer_encoder.layers.0.linear_net.3.bias f4 [8]
-0.601465 -0.7783761 0.36919424 -0.095360085 -0.7975611 -0.6912423 0.867031 1.6565274
00000000: 9cf9 19bf a843 47bf 0707 bd3e 264c c3bd
00000010: f72c 4cbf 41f5 30bf bef5 5d3f 1709 d43f

final_linear.weight f4 [1, 8]
0.21750663 -0.09620719 -0.11838806 -0.010461995 -0.01878884 -0.033448644 0.0223197 0.036148418
00000000: 0fba 5e3e 4608 c5bd 7075 f2bd ca68 2bbc
00000010: 0eeb 99bc 7201 09bd ced7 b63c 5d10 143d

exp_avg f4 [8, 2]
0.000363276 0.00026975552 -0.00019172588 -0.00015643223 -6.7793735e-07 -9.212126e-06 2.4241313e-06 5.039667e-07
-5.875854e-05 -4.1616113e-05 -4.4768614e-05 -3.5208606e-05 7.7696095e-05 5.6717887e-05 -4.8752e-06 2.9599323e-06
00000000: 1476 be39 f96d 8d39 060a 49b9 f507 24b9
00000010: 80fb 35b5 c88d 1ab7 42ae 2236 5448 0735
00000020: 8073 76b8 f68c 2eb8 efc5 3bb8 f4ac 13b8
00000030: c6f0 a238 5ee4 6d38 a695 a3b6 40a3 4636

exp_avg_sq f4 [8, 2]
3.9439333e-06 3.157023e-06 1.3137376e-06 1.1535293e-06 1.1082033e-06 1.659147e-06 5.8603355e-08 5.7777644e-08
2.4152692e-07 2.041472e-07 3.3152955e-07 3.5460957e-07 3.707927e-07 3.6817954e-07 7.793482e-08 8.0434404e-08
00000000: 2156 8436 3edd 5336 ae53 b035 f7d2 9a35
00000010: 93bd 9435 dbaf de35 12b3 7b33 3127 7833
00000020: 35ab 8134 8e33 5b34 13fd b134 2b61 be34
00000030: 5c11 c734 36aa c534 1f5d a733 48bb ac33

exp_avg f4 [8]
0.00065611885 -0.00029272112 -2.7218106e-05 3.364826e-05 -9.4349285e-05 -0.00012302837 0.00010965795 2.458071e-05
00000000: 64ff 2b3a 5d78 99b9 7052 e4b7 8b21 0d38
00000010: 63dd c5b8 2d01 01b9 2af8 e538 ac32 ce37

exp_avg_sq f4 [8]
1.4244945e-05 3.822323e-06 5.7117977e-06 1.9855797e-07 9.081333e-07 1.4749753e-06 1.0703666e-06 2.420723e-07
00000000: 93fd 6e37 8141 8036 f8a7 bf36 3333 5534
00000010: 72c6 7335 c4f7 c535 84a9 8f35 2af6 8134

exp_avg f4 [24, 8]
-2.5684067e-06 -2.2433985e-06 -9.582773e-06 -4.5656503e-07 4.2194383e-06 8.867344e-06 3.0299454e-06 -3.0129468e-06
-5.7280795e-06 6.764393e-06 6.779919e-08 2.6938767e-07 4.2868223e-06 4.190394e-06 -7.555207e-07 2.4139172e-07
-4.4006483e-06 5.4345455e-06 5.337988e-07 1.9224001e-07 3.2498688e-06 3.0939746e-06 -6.54363e-07 1.4092734e-07
9.0160495e-07 2.7537521e-06 6.9365697e-06 3.530556e-07 -2.1679693e-06 -5.3295016e-06 -2.1169599e-06 2.003253e-06
-8.035233e-07 1.5479882e-06 1.5404103e-06 2.6896046e-08 3.0637665e-07 -1.2021269e-07 -4.583088e-07 3.0888714e-10
4.8308966e-06 6.039618e-07 1.1662159e-05 -5.032537e-08 -2.8910376e-06 -4.494934e-06 2.2315567e-07 -2.1036767e-06
3.828511e-06 6.803284e-07 9.700223e-06 -3.7195278e-08 -2.316766e-06 -3.6672573e-06 1.2134115e-07 -1.7223117e-06
8.241564e-06 -7.818782e-06 -4.4251493e-07 -1.7999743e-07 -3.7189989e-06 -2.978552e-06 2.8614159e-06 -8.943828e-07
-2.3170525e-05 3.0084964e-05 3.47967e-05 -1.6141103e-06 2.3676623e-05 4.0107632e-05 6.928525e-06 -2.9619427e-05
-1.9841562e-05 4.070913e-05 6.539964e-05 -2.5226786e-06 1.3197916e-05 1.6239776e-05 -3.7261977e-06 -3.0114974e-05
2.1626945e-06 7.507192e-07 6.606239e-06 -4.3802464e-07 -1.5341783e-06 -2.195633e-06 -5.1754512e-08 -2.3995558e-06
4.4538237e-06 -6.6139437e-06 -7.803373e-06 9.973211e-07 -3.0736355e-06 -4.775766e-06 1.8477043e-07 4.2299043e-06
1.0282226e-06 7.8344243e-07 3.2326982e-06 4.9956793e-07 -9.98087e-07 -2.7946091e-06 -3.3130812e-07 -9.567605e-07
-4.614887e-06 2.186609e-06 -4.2048578e-06 -8.144817e-07 2.4802712e-06 3.6064214e-06 -8.647195e-07 -3.2937396e-07
-3.5813023e-06 1.8952298e-06 -2.8918819e-06 -5.8204495e-07 1.8432908e-06 2.4559845e-06 -7.6352677e-07 -4.443534e-07
3.9879815e-06 -1.9137426e-06 3.5833884e-06 6.9947373e-07 -2.1454362e-06 -3.12386e-06 7.4941863e-07 2.6393073e-07
-5.5505693e-06 7.668227e-06 6.081072e-06 1.5006665e-07 2.2044387e-06 8.114394e-07 -2.6215666e-06 -1.2094407e-07
-2.277564e-07 -1.0299134e-06 -2.6908801e-06 -1.8372504e-08 4.682719e-07 1.0077977e-06 2.8065915e-07 3.3744158e-07
-2.693233e-06 2.6467003e-06 5.6283665e-07 5.707814e-08 1.3781962e-06 1.1770192e-06 -9.490992e-07 2.2060854e-07
-7.867e-07 2.2409567e-06 3.3831861e-06 4.4055426e-08 -7.618937e-09 -7.143191e-07 -6.995309e-07 -3.2066214e-07
-4.8770266e-06 -4.449541e-06 -2.3001056e-05 7.6479637e-07 4.1495996e-06 1.0345853e-05 4.161162e-06 -2.5520735e-06
3.114809e-07 2.5154296e-07 1.1745576e-06 1.8279039e-08 -2.0209957e-07 -4.264898e-07 -8.217003e-08 7.329321e-08
-1.917362e-06 1.4179456e-06 -8.517816e-07 1.4750663e-07 9.277976e-07 8.95359e-07 -4.6970456e-07 2.1578381e-07
1.3434029e-05 -9.311333e-06 6.2879008e-06 -3.825732e-07 -7.1951335e-06 -8.330963e-06 2.7247631e-06 -9.082972e-07
00000000: e45c 2cb6 4b8d 16b6 b2c5 20b7 d21d f5b4
00000010: b394 8d36 f4c4 1437 1156 4b36 0832 4ab6
00000020: d433 c0b6 b2f9 e236 0099 9133 5ca0 9034
00000030: 86d7 8f36 369b 8c36 fdce 4ab5 a098 8134
00000040: 48a9 93b6 645a b636 604a 0f35 886a 4e34
00000050: 5218 5a36 14a2 4f36 7ca7 2fb5 d051 1734
00000060: d205 7235 1acd 3836 aec0 e836 988b bd34
00000070: 6e7d 11b6 12d4 b2b6 1811 0eb6 a06f 0636
00000080: b3b1 57b5 78c4 cf35 18c0 ce35 0809 e732
00000090: 167c a434 d013 01b4 7b0d f6b4 00d0 a92f
000000a0: 1619 a236 f01f 2235 97a8 4337 5425 58b3
000000b0: a603 42b6 30d3 96b6 909c 6f34 e42c 0db6
000000c0: a976 8036 d09f 3635 24be 2237 a4c0 1fb3
000000d0: bd79 1bb6 001b 76b6 004a 0234 2e2a e7b5
000000e0: 3f45 0a37 6a2d 03b7 ca92 edb4 5145 41b4
000000f0: ea93 79b6 22e3 47b6 c006 4036 8515 70b5
00000100: 535e c2b7 f85e fc37 acf2 1138 68a4 d8b5
00000110: 299d c637 3e39 2838 947b e836 3c77 f8b7
00000120: 6e71 a6b7 18bf 2a38 2a27 8938 4a4b 29b6
00000130: 9e6c 5d37 a73a 8837 970f 7ab6 6a9f fcb7
00000140: cf22 1136 0885 4935 29ab dd36 a629 ebb4
00000150: f7e9 cdb5 b058 13b6 b048 5eb3 0e08 21b6
00000160: 0e72 9536 58ed ddb6 3beb 02b7 b1db 8535
00000170: a844 4eb6 843f a0b6 4f65 4634 9aee 8d36
00000180: 7601 8a35 c14d 5235 55f1 5836 0c1a 0635
00000190: 02f6 85b5 058b 3bb6 a4de b1b4 0a6a 80b5
000001a0: 94d9 9ab6 a8bd 1236 7417 8db6 c2a2 5ab5
000001b0: bc72 2636 d905 7236 121f 68b5 d0d4 b0b4
000001c0: 4e56 70b6 9a5f fe35 2712 42b6 d33d 1cb5
000001d0: fd66 f735 7ed1 2436 29f5 4cb5 778f eeb4
000001e0: 80d0 8536 d96d 00b6 257a 7036 78c3 3b35
000001f0: 50fa 0fb6 82a3 51b6 a82b 4935 5db2 8d34
00000200: 073f bab6 c9a6 0037 030c cc36 0222 2134
00000210: f8ef 1336 b1d1 5935 2cee 2fb6 dadc 01b4
00000220: 348d 74b4 8e3b 8ab5 f894 34b6 90d1 9db2
00000230: cd66 fb34 aa43 8735 80ad 9634 9e29 b534
00000240: 64bd 34b6 f79d 3136 d715 1735 1426 7533
00000250: 76fa b835 12fa 9d35 9ac5 7eb5 6ae0 6c34
00000260: 9d2d 53b5 5863 1636 b20a 6336 7437 3d33
00000270: 70e4 02b2 a3bf 3fb5 66c7 3bb5 7827 acb4
00000280: 57a5 a3b6 444d 95b6 64f2 c0b7 684c 4d35
00000290: ca3c 8b36 1a93 2d37 1ca0 8b36 4a44 2bb6
000002a0: 9c39 a734 cd0b 8734 7ea5 9d35 0804 9d32
000002b0: b500 59b4 50f8 e4b4 7475 b0b3 5e65 9d33
000002c0: 07ac 00b6 3d50 be35 fca5 64b5 5062 1e34
000002d0: c40d 7935 9a58 7035 b42b fcb4 34b2 6734
000002e0: b762 6137 df37 1cb7 a8fc d236 7664 cdb4
000002f0: ba6d f1b6 37c5 0bb7 13db 3636 b5d1 73b5

exp_avg_sq f4 [24, 8]
9.364851e-10 7.7133716e-10 2.7868077e-09 3.1921732e-10 6.0967226e-10 8.107038e-10 3.1333872e-10 3.3700556e-10
1.3507834e-09 4.459327e-09 1.705727e-08 1.67727e-09 1.5637577e-09 3.2851575e-09 1.4647964e-09 1.6352893e-09
1.2047189e-09 3.6388639e-09 1.3940126e-08 1.5582196e-09 1.3605594e-09 2.7070863e-09 1.2692114e-09 1.3232301e-09
2.1966588e-10 2.540275e-10 1.0804942e-09 1.1385243e-10 1.3579746e-10 1.8258334e-10 1.0115622e-10 8.804331e-11
6.154386e-09 3.1289435e-09 1.9293005e-09 9.0153995e-11 2.5905338e-09 2.745098e-09 5.9364635e-10 2.1589722e-10
1.9671264e-08 1.2757596e-08 8.4489443e-10 2.252922e-10 6.9960486e-09 6.1333925e-09 2.2984386e-09 5.892885e-10
1.6182245e-08 1.0438061e-08 7.2290907e-10 2.0569829e-10 5.9049934e-09 5.175685e-09 1.9168132e-09 5.2030513e-10
1.3645635e-09 7.197527e-10 4.7067705e-10 2.2944875e-11 5.9700184e-10 6.3460476e-10 1.3620972e-10 4.1633988e-11
2.9111197e-08 7.405098e-08 2.1000544e-07 3.4606042e-08 4.4891824e-08 5.6020784e-08 3.1337997e-08 4.1931507e-08
2.1810388e-08 4.8461775e-08 1.1743357e-07 1.6189855e-08 3.4690107e-08 3.3849247e-08 1.4125144e-08 1.6867794e-08
4.5317377e-09 6.1384684e-09 2.6964223e-08 3.3381393e-09 7.605018e-09 5.9885816e-09 3.4229e-09 2.9838656e-09
1.1234695e-09 1.578827e-09 5.797757e-09 9.869622e-10 2.1765745e-09 1.7942258e-09 9.549869e-10 1.4203148e-09
1.2838451e-10 1.7354994e-10 3.0780764e-10 1.2748828e-10 8.9719135e-11 1.4483031e-10 7.270923e-11 8.6716606e-11
1.10041226e-10 6.4768794e-11 3.3576744e-10 6.569754e-11 7.320468e-11 1.0899322e-10 4.511222e-11 5.7309896e-11
8.121915e-11 5.6357967e-11 2.469822e-10 6.125692e-11 6.22602e-11 9.741331e-11 3.6376104e-11 5.0251137e-11
1.2531154e-10 7.662716e-11 4.286969e-10 6.049925e-11 7.72683e-11 9.107625e-11 5.991085e-11 5.005152e-11
2.5717156e-10 8.1654905e-10 1.3723922e-09 9.742439e-12 3.0911676e-11 6.570786e-11 1.5054949e-10 2.3439667e-11
4.2730336e-10 1.147402e-09 2.4513072e-09 1.38086955e-11 4.7706967e-11 1.1002172e-10 3.308932e-10 3.2332755e-11
4.8230864e-10 1.4373708e-09 2.8822476e-09 1.5596571e-11 4.6010896e-11 1.1952707e-10 3.6610381e-10 4.1622136e-11
2.921494e-10 6.7184897e-10 1.6712237e-09 1.1476277e-11 4.4853444e-11 1.0178776e-10 2.48012e-10 1.9503807e-11
1.806611e-07 1.1893612e-07 2.806802e-07 2.101578e-08 6.5144114e-08 1.306829e-07 5.3472817e-08 3.3900996e-08
1.0734769e-08 4.2969357e-09 9.259237e-09 1.7615002e-09 3.9310457e-09 7.4439006e-09 4.3922963e-09 3.165099e-09
6.68402e-09 3.742918e-09 4.485243e-09 8.7559354e-10 2.9847225e-09 3.9943404e-09 1.6001378e-09 1.6175712e-09
1.2846954e-08 8.4460225e-09 1.2794598e-08 1.5469955e-09 5.8295186e-09 7.524171e-09 3.8298102e-09 3.936021e-09
00000000: a4b5 8030 0706 5430 0a82 3f31 d87d af2f
00000010: df95 2730 35d8 5e30 8142 ac2f 5145 b92f
00000020: 77a6 b930 a838 9931 5585 9232 b185 e630
00000030: d5eb d630 1ac1 6131 f151 c930 a1c0 e030
00000040: 4793 a530 920f 7a31 537d 6f32 fa28 d630
00000050: 6efe ba30 9107 3a31 6870 ae30 05dd b530
00000060: 7386 712f 31a7 8b2f 8380 9430 385d fa2e
00000070: 964f 152f a4c0 482f e471 de2e fa9b c12e
00000080: 8d76 d331 f504 5731 9d94 0431 3040 c62e
00000090: 2705 3231 46a4 3c31 262e 2330 aa61 6d2f
000000a0: 91f9 a832 802c 5b32 293e 6830 1eb6 772f
000000b0: e561 f031 e4bd d231 8ff2 1d31 7efb 2130
000000c0: 2201 8b32 1453 3332 34b6 4630 ec2a 622f
000000d0: dfe4 ca31 cfd5 b131 efb8 0331 3805 0f30
000000e0: 4f8b bb30 18d8 4530 f460 0130 44d3 c92d
000000f0: 451a 2430 5770 2e30 a1c3 152f b41b 372e
00000100: 3310 fa32 f505 9f33 db7d 6134 bfa1 1433
00000110: 15cf 4033 819b 7033 7e98 0633 2e18 3433
00000120: 8d59 bb32 4924 5033 ca2f fc33 de11 8b32
00000130: 2dfe 1433 a461 1133 0aab 7232 ace4 9032
00000140: 96b5 9b31 8aea d231 f49e e732 2b65 6531
00000150: 39a7 0232 1fc4 cd31 4b38 6b31 b80c 4d31
00000160: 9268 9a30 09fe d830 9c35 c731 a5a5 8730
00000170: b492 1531 b598 f630 9d40 8330 e234 c330
00000180: 0729 0d2f f7d1 3e2f 1338 a92f c32c 0c2f
00000190: 624b c52e 1c3e 1f2f a8e3 9f2e 1cb1 be2e
000001a0: b4fb f12e 976d 8e2e 1197 b82f 6d78 902e
000001b0: 92fa a02e baad ef2e d867 462e 350d 7c2e
000001c0: 519a b22e 6edd 772e a8c7 872f 95b4 862e
000001d0: 60e9 882e d136 d62e dafb 1f2e c001 5d2e
000001e0: 10c8 092f 4281 a82e baad eb2f 0d0a 852e
000001f0: 30ea a92e 5f47 c82e cfbe 832e 0021 5c2e
00000200: ae61 8d2f 8873 6030 c29e bc30 0b64 2b2d
00000210: 74f3 072e 3d7e 902e ea87 252f 702d ce2d
00000220: 9ae9 ea2f 9eb2 9d30 da73 2831 d6ec 722d
00000230: 45d1 512e b9f0 f12e 14e9 b52f 7233 0e2e
00000240: 7493 0430 fd8c c530 0911 4631 5b30 892d
00000250: aa5b 4a2e e16b 032f 8844 c92f 5c0e 372e
00000260: 5f9c a02f 2bad 3830 f5b0 e530 8fe4 492d
00000270: 7d44 452e 6ad5 df2e 9658 882f ab8e ab2d
00000280: bffb 4134 d369 ff33 65b0 9634 3086 b432
00000290: 5be5 8b33 d851 0c34 fca9 6533 8a9a 1133
000002a0: 036c 3832 3fa4 9331 8e12 1f32 4719 f230
000002b0: d811 8731 3ec5 ff31 0ceb 9631 0381 5931
000002c0: 43a9 e531 0e9b 8031 9d1c 9a31 6bae 7030
000002d0: cb1b 4d31 973e 8931 d8eb db30 3a51 de30
000002e0: 80b5 5c32 001a 1132 3dcf 5b32 119e d430
000002f0: fd4c c831 a743 0132 5e97 8331 9b3d 8731

exp_avg f4 [8, 8]
-1.5270294e-05 -3.7441591e-06 1.1120446e-06 9.399287e-07 -1.905797e-05 -3.2064708e-07 7.610366e-08 1.4126169e-06
2.020396e-06 1.1647642e-05 6.3143566e-06 -3.6432364e-06 5.5977027e-05 -8.725037e-07 1.1300087e-06 -4.498229e-06
4.7779857e-05 4.9365335e-05 3.6300196e-06 -6.6337825e-06 5.5320406e-06 4.133969e-07 -3.4099799e-07 -1.0731621e-06
-1.0318787e-06 3.3219444e-06 8.856293e-07 -5.829351e-07 -8.309413e-06 -1.7613648e-07 1.03255616e-07 -1.1854781e-06
-2.1074925e-06 9.833198e-06 3.0214414e-06 -1.5504205e-06 -1.5649957e-06 -4.822771e-07 2.6632068e-07 -2.6902717e-06
1.6047332e-05 2.2291842e-05 2.1850606e-06 -1.8433991e-06 8.904777e-06 -1.7878627e-07 -5.4698496e-08 -1.1369884e-06
-1.858875e-05 -2.4952158e-05 -2.9133832e-06 2.9694424e-06 -7.004469e-06 9.9007295e-08 -3.0086163e-08 1.1469263e-06
-4.259488e-05 -6.1149745e-05 -6.3993048e-06 6.916179e-06 9.71028e-06 2.1467946e-07 1.9239488e-07 3.0430833e-06
00000000: b518 80b7 2a44 7bb6 9041 9535 694f 7c35
00000010: aede 9fb7 6625 acb4 6e6e a333 2699 bd35
00000020: 2496 0736 3e6a 4337 e9df d336 537e 74b6
00000030: e0c8 6a38 ff35 6ab5 ceaa 9735 7eef 96b6
00000040: 3b67 4838 a00d 4f38 439b 7336 c297 deb6
00000050: de9f b936 d6f0 dd34 6812 b7b4 9209 90b5
00000060: 157f 8ab5 92ee 5e36 fbbb 6d35 ff7a 1cb5
00000070: a868 0bb7 0720 3db4 60bd dd33 b81c 9fb5
00000080: 726e 0db6 44f9 2437 f8c3 4a36 0b18 d0b5
00000090: d80c d2b5 d475 01b5 d6fa 8e34 848a 34b6
000000a0: 629d 8637 5eff ba37 0ea3 1236 b66a f7b5
000000b0: ba65 1537 65f8 3fb4 a2ed 6ab3 a09a 98b5
000000c0: 09ef 9bb7 5a50 d1b7 8b83 43b6 a246 4736
000000d0: ee07 ebb6 d69d d433 1638 01b3 16f0 9935
000000e0: e7a7 32b8 853d 80b8 9cb9 d6b6 8611 e836
000000f0: 56e9 2237 a482 6634 1a95 4e34 c637 4c36

exp_avg_sq f4 [8, 8]
1.4543439e-08 1.1411833e-08 6.402877e-09 1.0782139e-09 7.592764e-08 4.161192e-09 3.45995e-09 5.4145977e-09
8.6942244e-08 7.474609e-08 1.912282e-08 5.036714e-09 7.943764e-07 1.0211895e-08 1.1324642e-08 2.2590303e-08
6.8243494e-08 3.403018e-08 6.8389325e-09 1.8996125e-09 1.8590588e-07 4.832723e-09 5.3254e-09 6.573332e-09
6.2846053e-09 4.489908e-09 2.0399642e-09 4.4697643e-10 1.4077254e-08 1.1339732e-09 1.1358308e-09 1.7418944e-09
1.1854521e-08 8.169846e-09 2.2424171e-09 5.2762095e-10 3.1890696e-08 1.3331365e-09 1.6644265e-09 1.7369947e-09
1.4143995e-08 8.7238e-09 2.034206e-09 3.8852305e-10 2.4128802e-08 1.315607e-09 1.4926491e-09 1.6115409e-09
3.482255e-08 1.8612774e-08 4.098265e-09 1.1810307e-09 3.620624e-08 2.3827644e-09 3.2802288e-09 4.4899324e-09
4.5724608e-08 2.2848372e-08 3.851474e-09 9.0293295e-10 6.558025e-08 1.0870305e-09 1.4624393e-09 3.2402052e-09
00000000: b9da 7932 c60d 4432 4d00 dc31 4730 9430
00000010: a90d a333 3bfa 8e31 16c4 6d31 4e0b ba31
00000020: 01b5 ba33 1984 a033 8743 a432 680f ad31
00000030: 213d 5535 6470 2f32 4d8e 4232 9a0c c232
00000040: 428d 9233 9428 1233 e3fb ea31 568a 0231
00000050: 6b9d 4734 150d a631 b7fa b631 a4db e131
00000060: f9ef d731 a645 9a31 6e2f 0c31 57ba f52f
00000070: 6bd8 7132 23da 9b30 7e1b 9c30 7667 ef30
00000080: bca8 4b32 5d5b 0c32 0519 1a31 0608 1130
00000090: 31f8 0833 9239 b730 cdc1 e430 11bb ee30
000000a0: f3fd 7232 aedf 1532 21ca 0b31 c297 d52f
000000b0: cc43 cf32 ced0 b430 ec25 cd30 0e7d dd30
000000c0: cc8f 1533 ece1 9f32 b8d0 8c31 d351 a230
000000d0: 2f81 1b33 09be 2331 656a 6131 dd45 9a31
000000e0: bd62 4433 1a44 c432 ec55 8431 4232 7830
000000f0: 20d5 8c33 7c66 9530 02ff c830 4baa 5e31

exp_avg f4 [8]
1.5263973e-05 -7.909604e-05 -4.3385222e-05 -4.9003615e-06 -2.4193494e-05 -9.083716e-06 2.3843873e-05 4.0248764e-05
00000000: 220b 8037 5de0 a5b8 87f8 35b8 c96d a4b6
00000010: 22f3 cab7 4366 18b7 5404 c837 c8d0 2838

exp_avg_sq f4 [8]
2.2933811e-07 1.0005799e-06 3.1492044e-07 3.5730647e-08 6.0090066e-08 5.663193e-08 1.0181548e-07 9.515514e-08
00000000: fb3f 7634 aa4b 8635 5612 a934 4376 1933
00000010: dd0a 8133 773b 7333 a7a5 da33 1758 cc33

exp_avg f4 [16, 8]
-5.4755662e-09 -3.4546592e-09 -1.5224936e-09 -1.3592518e-09 -1.924851e-09 1.5554346e-09 2.5511118e-10 4.561766e-10
-1.7715916e-05 -2.5779389e-05 1.5612835e-05 -6.5732354e-07 -4.7565945e-06 -2.79648e-06 1.5747034e-06 -4.3092377e-06
5.6418e-06 1.9130173e-05 -6.850745e-06 1.8548066e-06 7.767795e-06 1.696802e-05 -1.3207178e-05 -2.764249e-05
-1.2361907e-06 -5.724521e-07 2.4877917e-07 -1.06206116e-07 -7.945601e-07 1.800327e-07 -1.6651292e-07 -3.0684873e-07
-5.065906e-08 4.0402032e-08 -9.43604e-08 -9.594652e-09 -2.9645959e-08 -2.1523654e-08 1.2570462e-08 5.577438e-08
-1.7768242e-06 -4.225199e-08 -2.379535e-06 -2.354158e-07 8.118657e-08 -7.499283e-08 8.743087e-08 7.8771495e-07
-3.2600103e-11 -2.3750515e-12 -2.1035439e-11 -5.9370226e-12 -1.721839e-11 -1.1062947e-11 6.0971063e-12 2.2174328e-11
-5.6143694e-11 -1.5532935e-10 -7.6782705e-11 -7.78921e-12 6.99435e-12 4.4243394e-11 3.2765336e-11 -2.1310086e-11
1.6692091e-07 -3.4564925e-07 -7.4363976e-07 1.7419595e-08 1.2928102e-07 9.537085e-08 1.2153092e-07 1.7988789e-07
-1.8050832e-05 3.1081445e-06 -1.9058018e-05 -4.1063007e-07 7.0746064e-06 7.4989352e-06 -3.108634e-06 -3.510568e-06
-2.840559e-09 -3.212602e-08 -6.665202e-09 -2.8108496e-09 6.707213e-10 1.0204373e-08 3.9636237e-09 -1.2783766e-08
6.012013e-06 6.1085016e-06 1.2965429e-06 3.048367e-07 -6.486666e-07 -9.302575e-07 -1.1074664e-07 8.985878e-07
7.186786e-06 8.688607e-06 1.2076242e-06 3.1198456e-07 -1.3298531e-06 -1.3112675e-06 -1.6779836e-07 1.4646369e-06
-5.4429825e-06 -5.3977155e-06 -4.55642e-07 -4.017827e-07 -1.0018176e-06 7.5280656e-07 -8.912242e-09 -7.9057077e-07
3.764859e-06 3.9668384e-06 -3.043878e-07 2.0460585e-07 3.3009186e-07 -1.3031386e-07 -4.422091e-07 -6.71363e-07
1.456296e-08 1.19340955e-08 -1.00858415e-08 1.4503501e-09 3.5371284e-09 1.5837032e-09 5.694851e-10 5.693472e-09
00000000: 9723 bcb1 0267 6db1 fb3f d1b0 6cd0 bab0
00000010: 5646 04b1 fdc6 d530 b53f 8c2f 26c9 fa2f
00000020: a49c 94b7 d140 d8b7 4ff8 8237 ee72 30b5
00000030: d69a 9fb6 29ab 3bb6 665a d335 1298 90b6
00000040: b14e bd36 bc79 a037 74df e5b6 abf2 f835
00000050: 6d52 0237 8c56 8e37 6694 5db7 cce1 e7b7
00000060: 30eb a5b5 9caa 19b5 f38f 8534 6e13 e4b3
00000070: c149 55b5 034f 4134 b9ca 32b4 f8bc a4b4
00000080: 3a94 59b3 8186 2d33 2ea3 cab3 bad5 24b2
00000090: 27a8 feb2 04e3 b8b2 7af5 5732 948c 6f33
000000a0: 377b eeb5 8e78 35b3 1ab0 1fb6 9ac6 7cb4
000000b0: ca58 ae33 bf0b a1b3 a1c1 bb33 5c73 5335
000000c0: 7460 0fae 2021 27ac 9907 b9ad f2e3 d0ac
000000d0: 5e74 97ad 169f 42ad da85 d62c 260c c32d
000000e0: 2eec 76ae 53c9 2aaf d2d8 a8ae 7c07 09ad
000000f0: 8117 f62c a295 422e 7d1a 102e 0c72 bbad
00000100: df3a 3334 ac91 b9b4 899e 47b5 18a2 9532
00000110: 7fd0 0a34 aece cc33 2a7e 0234 3527 4134
00000120: de6b 97b7 8495 5036 c8de 9fb7 9174 dcb4
00000130: 6862 ed36 5d9f fb36 ed9d 50b6 1997 6bb6
00000140: a433 43b1 effa 09b3 bd03 e5b1 fd28 41b1
00000150: d15d 3830 4f4f 2f32 6730 8831 999f 5bb2
00000160: ccba c936 a1f7 cc36 e004 ae35 70a8 a334
00000170: 0820 2eb5 cfb6 79b5 9cd3 edb3 7c36 7135
00000180: 0626 f136 48c5 1137 a715 a235 d57e a734
00000190: 687d b2b5 cffe afb5 102c 34b4 8a94 c435
000001a0: dda2 b6b6 061e b5b6 f69e f4b4 98b4 d7b4
000001b0: 3176 86b5 7914 4a35 741c 19b2 9c37 54b5
000001c0: c9a7 7c36 e21a 8536 be6a a3b4 a1b1 5b34
000001d0: 7b37 b134 67ec 0bb4 c268 edb4 b737 34b5
000001e0: 9330 7a32 b506 4d32 0046 2db2 a855 c730
000001f0: d211 7331 9aa9 d930 f489 1c30 4fa0 c331

exp_avg_sq f4 [16, 8]
2.6695595e-11 4.2028853e-11 2.4477712e-11 6.382786e-12 1.4047449e-11 1.8154112e-11 3.5080588e-11 4.5347413e-11
1.5815194e-08 1.8029736e-08 6.110848e-08 1.5184143e-09 3.2800287e-08 5.408557e-09 3.1693015e-09 1.706597e-08
1.4696544e-08 1.5622714e-08 2.2382554e-08 3.9829082e-09 3.0520397e-08 6.218529e-08 3.614018e-08 2.0232864e-07
3.9938158e-10 2.957092e-09 2.5723948e-10 9.131082e-11 2.798105e-10 2.553509e-10 2.709091e-10 7.217066e-10
6.8061135e-10 9.762385e-10 4.732979e-10 3.4120054e-10 5.354418e-11 1.4108881e-10 2.824744e-10 5.3090896e-11
2.3744584e-10 2.389695e-10 3.088879e-10 1.0801099e-11 1.1065909e-10 1.3552795e-11 2.7676764e-11 2.176676e-11
1.6184923e-11 5.179204e-11 2.4892172e-11 1.4861785e-11 2.8091536e-11 3.9271083e-11 8.159452e-11 6.0498745e-11
4.625628e-10 1.0280379e-10 1.621542e-10 3.1674607e-11 1.3622385e-10 4.3311146e-10 1.1774728e-10 9.760558e-12
2.314769e-10 9.433712e-10 1.849067e-10 3.1836495e-11 7.474892e-11 7.483137e-11 1.8397808e-10 3.713751e-10
8.833576e-10 2.1676771e-09 4.3205577e-09 8.1086894e-11 5.82804e-10 1.2949867e-09 2.9037234e-10 2.3560243e-10
1.9070694e-10 1.087388e-10 1.5668376e-10 5.5817958e-11 6.907319e-11 5.263767e-10 2.782718e-10 1.0641488e-09
4.217388e-10 4.3268752e-10 6.872628e-10 1.1252268e-10 1.8348004e-09 5.3249943e-10 8.168544e-10 1.2939004e-09
4.2929552e-10 3.0383202e-10 5.705173e-10 2.8219831e-11 7.811862e-11 2.0340007e-10 6.809125e-11 3.4586365e-11
1.3927557e-09 7.978635e-09 7.6659745e-09 5.2020027e-10 7.341967e-10 1.2514835e-09 8.092068e-09 2.4782397e-08
7.61223e-11 7.836699e-11 1.829361e-11 1.8459815e-11 7.8461605e-11 1.4988534e-10 1.1408845e-10 1.1123048e-10
8.998245e-10 1.9353347e-10 2.2777188e-10 5.8469084e-11 2.5760757e-10 9.822393e-10 1.6737758e-10 1.3690011e-11
00000000: 23d1 ea2d 48d8 382e e84e d72d 0693 e02c
00000010: 1620 772d 6daf 9f2d 3b49 1a2e a670 472e
00000020: fbd9 8732 cfdf 9a32 be3a 8333 74b0 d030
00000030: 4ce0 0c33 2cd6 b931 f1ca 5931 7798 9232
00000040: 167c 7c32 b632 8632 c243 c032 08da 8831
00000050: 8815 0333 ba8a 8533 8c38 1b33 ac3f 5934
00000060: f68f db2f b635 4b31 3d6b 8d2f 6ccb c82e
00000070: d4d3 992f 7261 8c2f 11ef 942f 9661 4630
00000080: c415 3b30 572c 8630 6119 0230 b593 bb2f
00000090: 637d 6b2e f820 1b2f bd4a 9b2f 097f 692e
000000a0: 8889 822f f85f 832f 1bd0 a92f d303 3e2d
000000b0: 8857 f32e 5d6c 6e2d 8872 f32d 6376 bf2d
000000c0: 355d 8e2d a7c8 632e 30f4 da2d c4b9 822d
000000d0: 8418 f72d 4fb7 2c2e a26d b32e c409 852e
000000e0: ed4b fe2f 6411 e22e 5a4a 322f 704e 0b2e
000000f0: 9bc7 152f 051b ee2f ea76 012f a5b5 2b2d
00000100: f482 7e2f eca7 8130 9c4e 4b2f b504 0c2e
00000110: e75f a42e 518e a42e 3a49 4a2f 662a cc2f
00000120: c4d0 7230 2ef6 1431 0774 9431 dd4f b22e
00000130: 3033 2030 4bfb b130 46a2 9f2f 1886 812f
00000140: 3baf 512f 811e ef2e 8f46 2c2f 6f7d 752e
00000150: c0e4 972e 78b0 1030 46fb 982f 6841 9230
00000160: 76da e72f 5bdf ed2f d2e9 3c30 a370 f72e
00000170: 4d2c fc30 515f 1230 0589 6030 13d5 b130
00000180: f901 ec2f 8e08 a72f 96d2 1c30 6939 f82d
00000190: e0c8 ab2e 08a4 5f2f f7bb 952e c91c 182e
000001a0: 3c6b bf30 6812 0932 50b3 0332 d7fd 0e30
000001b0: 80d0 4930 a900 ac30 4b05 0b32 11e1 d432
000001c0: 0c65 a72e b254 ac2e 8ce9 a02d cf5f a22d
000001d0: f589 ac2e f9cc 242f 16e2 fa2e 3299 f42e
000001e0: 8557 7730 d4ca 542f 1670 7a2f 2b93 802e
000001f0: 0b9f 8d2f 79ff 8630 9a08 382f 54d6 702d

exp_avg f4 [16]
2.371692e-09 4.983981e-06 7.1258346e-06 3.0183537e-07 6.683033e-08 2.0422654e-06 2.7279637e-11 7.583076e-12
-2.5628162e-07 1.6466493e-05 1.0623739e-08 -3.0262645e-06 -3.6411477e-06 2.0321727e-06 -3.035715e-07 -9.1340135e-09
00000000: 3ffb 2231 123c a736 741a ef36 f00b a234
00000010: 5d84 8f33 da0d 0936 48f4 ef2d 2367 052d
00000020: 1497 89b4 8621 8a37 b383 3632 d416 4bb6
00000030: 715a 74b6 7660 0836 8dfa a2b4 d1eb 1cb2

exp_avg_sq f4 [16]
2.502823e-11 2.1494127e-08 6.86702e-08 8.068048e-10 7.6159795e-10 1.6218686e-10 7.789334e-11 2.3377658e-10
3.628672e-10 1.7254834e-09 2.9346625e-10 7.4436357e-10 3.5928163e-10 1.072741e-08 1.1193102e-10 4.0316345e-10
00000000: 9026 dc2d 16a2 b832 d777 9333 d7c5 5d30
00000010: b158 5130 8b53 322f 0d4a ab2e 2185 802f
00000020: 057d c72f 0d26 ed30 b455 a12f ee9b 4c30
00000030: 6584 c52f a64b 3832 9023 f62e 36a4 dd2f

exp_avg f4 [8, 16]
-2.2642794e-09 -5.5352343e-06 -3.4409517e-05 -1.4934773e-07 1.0428453e-08 -1.1760452e-07 4.688084e-12 3.904429e-11
2.0447291e-07 -8.499529e-06 1.2842089e-09 -5.8197693e-06 -7.609618e-06 -2.5377727e-07 -4.566648e-06 5.0036064e-09
1.0048289e-09 2.359864e-06 1.2247342e-05 5.9826526e-08 -4.4977337e-09 5.544272e-08 -2.1083382e-12 -1.3250161e-11
-8.824536e-08 2.830711e-06 -1.2419075e-09 2.3883597e-06 3.140726e-06 1.0356259e-07 1.8994358e-06 -2.4999758e-09
1.0105821e-09 2.2391262e-06 1.2334541e-05 7.2511995e-08 -6.0616125e-09 5.703066e-08 -2.9843118e-12 -1.7496551e-11
-1.4118666e-07 3.994801e-06 -1.0988312e-09 3.0877693e-06 4.03581e-06 9.859738e-08 2.3331716e-06 -3.6632624e-09
4.6130144e-10 7.2518634e-07 -1.9254337e-06 9.40802e-09 -2.8294078e-10 5.6317415e-08 -3.6998125e-13 5.2311857e-12
2.8628211e-08 2.0190735e-06 -2.1035358e-09 1.9458344e-07 2.7985385e-07 4.3898872e-08 9.4176805e-08 3.5263814e-10
-9.9445015e-11 4.5913004e-07 1.9733086e-06 1.219763e-08 -1.6019958e-09 1.9863752e-08 -5.0675956e-13 -1.3842115e-12
-5.136975e-09 1.2445544e-06 -6.097382e-10 5.7841044e-07 8.0950133e-07 4.04143e-08 4.519112e-07 -6.102463e-10
1.616439e-09 9.092122e-07 6.1551286e-06 2.571071e-08 -6.598885e-11 4.9388714e-08 -5.955271e-13 -8.2575466e-12
3.961496e-08 1.969148e-06 -1.0487683e-09 6.7222095e-07 7.4650853e-07 8.9029484e-08 4.010286e-07 1.4725332e-09
5.0165795e-11 -8.52687e-08 -1.0155635e-06 -1.0037331e-08 1.5167676e-09 6.4694383e-09 7.563841e-13 3.648796e-12
4.7178684e-08 -2.1835055e-07 2.0049195e-11 -6.3353815e-07 -7.943877e-07 3.991012e-10 -4.503186e-07 1.1311716e-09
1.7696664e-10 5.903721e-07 4.672858e-06 -1.1980454e-08 2.0614823e-09 -1.3849398e-08 1.160965e-12 5.4453395e-12
8.544888e-08 -3.209728e-07 -1.3176348e-09 -7.6167817e-07 -1.0642216e-06 2.4989017e-08 -4.939341e-07 2.3309543e-09
00000000: a099 1bb1 4dbb b9b6 f052 10b8 645c 20b4
00000010: d228 3332 c58d fcb3 82f2 a42c f6b7 2b2e
00000020: 168d 5b34 3399 0eb7 1580 b030 7047 c3b6
00000030: 1f56 ffb6 e23e 88b4 353b 99b6 30ec ab31
00000040: 461a 8a30 285e 1e36 ef79 4d37 fb79 8033
00000050: 7c8a 9ab1 ea1f 6e33 725c 14ac 6c19 69ad
00000060: 6681 bdb3 3ff7 3d36 bcaf aab0 b547 2036
00000070: 43c5 5236 2366 de33 1ef0 fe35 0acc 2bb1
00000080: b2e4 8a30 e543 1636 73f0 4e37 e4b7 9b33
00000090: 8246 d0b1 e0f1 7433 9500 52ac bbe6 99ad
000000a0: 1899 17b4 140b 8636 b005 97b0 7937 4f36
000000b0: 586b 8736 7cbc d333 9593 1c36 cbbc 7bb1
000000c0: 689a fd2f 6daa 4235 b336 01b6 e9a0 2132
000000d0: 608c 9baf a7e1 7133 eb47 d0aa 550e b82c
000000e0: 1aea f532 6b7f 0736 cb8d 10b1 b0ee 5034
000000f0: d23e 9634 528b 3c33 3f3e ca33 68dd c12f
00000100: 91ae daae 5a7e f634 2f6d 0436 be8d 5132
00000110: 372d dcb0 daa0 aa32 e0a3 0eab 7acf c2ab
00000120: 4f81 b0b1 900a a735 839a 27b0 1044 1b35
00000130: 824c 5935 fe93 2d33 349e f234 44be 27b0
00000140: 6429 de30 9610 7435 2788 ce36 73da dc32
00000150: 6c1c 91ae 771f 5433 40a0 27ab af44 11ad
00000160: 1c25 2a33 b425 0436 4124 90b0 ac72 3435
00000170: ad63 4835 7a30 bf33 f34c d734 2862 ca30
00000180: aaa1 5c2e f71c b7b3 7f4e 88b5 a670 2cb2
00000190: 8476 d030 c849 de31 38e7 542b 6f61 802c
000001a0: 83a1 4a33 be73 6ab4 c65a b02d 6910 2ab5
000001b0: e83d 55b5 8068 db2f 51c3 f1b4 9077 9b30
000001c0: ae93 422f 107a 1e35 8bcb 9c36 98d2 4db2
000001d0: fba9 0d31 4cee 6db2 2c64 a32b 4297 bf2c
000001e0: 0580 b733 2a52 acb4 2718 b5b0 2076 4cb5
000001f0: 60d6 8eb5 6ea7 d632 e596 04b5 952e 2031

exp_avg_sq f4 [8, 16]
9.785288e-12 8.922711e-09 7.093743e-08 4.925869e-10 1.732881e-11 6.599865e-11 5.0848882e-12 2.5068945e-11
1.2688675e-11 3.2530562e-10 5.709131e-11 1.839599e-10 1.509379e-10 2.4655096e-09 6.908528e-11 7.0365644e-11
7.9053075e-12 3.6259633e-09 2.6365665e-08 3.4742123e-10 8.944431e-12 2.6072745e-11 3.773601e-11 3.73311e-11
1.7468723e-11 5.2730514e-10 3.1769445e-11 6.828211e-10 2.7635996e-10 1.1203933e-09 3.7018125e-10 1.2856072e-10
4.5924384e-12 1.1446571e-09 1.4189109e-08 4.5039843e-11 3.0707704e-12 1.8770175e-11 1.6988895e-11 5.4522246e-12
5.969341e-12 2.0206299e-10 1.596815e-11 3.4768294e-10 7.8951776e-11 1.4324907e-10 1.810261e-10 1.889299e-11
2.397524e-12 5.8844146e-10 4.361791e-09 5.7033996e-11 8.7990547e-13 5.2892287e-12 1.4904869e-11 3.0677006e-12
5.739249e-12 9.548196e-11 2.7292696e-11 1.3447263e-10 4.5254503e-12 1.7118325e-10 1.348337e-10 9.779057e-12
3.1140034e-12 8.3453894e-10 5.322306e-09 2.4251418e-10 2.5519953e-12 4.0565233e-12 4.8412132e-11 1.291811e-11
8.57193e-12 1.5360871e-10 8.785972e-12 8.5080124e-11 1.9296297e-11 3.0469957e-10 1.00578657e-10 2.7366802e-11
3.2711542e-12 6.0721905e-10 8.039486e-09 6.653546e-11 3.1076149e-12 1.6372643e-11 8.394115e-12 2.0519891e-11
9.81944e-13 8.031877e-11 4.3144433e-12 1.97513e-11 2.8832789e-11 3.0817218e-10 2.4989923e-11 5.6939942e-11
4.0777234e-12 5.896564e-10 5.217465e-09 6.529206e-11 6.0449376e-12 5.7889297e-12 2.5790623e-11 1.8354235e-11
8.538918e-12 4.3097756e-10 9.3736095e-12 7.027275e-10 2.5743735e-10 2.117116e-10 3.1108716e-10 7.459669e-11
8.13827e-12 6.7960865e-10 6.0730874e-09 2.1677467e-10 1.2406895e-12 4.977208e-13 5.4160215e-11 1.5739259e-11
9.452257e-12 1.8708257e-10 8.699538e-12 1.7204488e-10 3.0710365e-11 1.6909779e-10 1.3545572e-10 3.5735647e-11
00000000: 0525 2c2d 7f4a 1932 4456 9833 b966 0730
00000010: 036d 982d f021 912e 9ae8 b22c 3f82 dc2d
00000020: b638 5f2d b2d6 b22f 1a17 7b2e 1c44 4a2f
00000030: 3ef5 252f b46d 2931 8eeb 972e 56bc 9a2e
00000040: 5712 0b2d 9f2c 7931 b67a e232 31ff be2f
00000050: 235a 1d2d 9a56 e52d f8f6 252e 152f 242e
00000060: 11a8 992d cdf1 1030 37b9 0b2e 43b1 3b30
00000070: 35ee 972f 56fc 9930 6182 cb2f a05a 0d2f
00000080: 0295 a12c 0b52 9d30 5dc4 7332 5b16 462e
00000090: 1516 582c ad1a a52d 976f 952d 46d5 bf2c
000000a0: 0b07 d22c ad2b 5e2f 1475 8c2d 0624 bf2f
000000b0: e69d ad2e 0781 1d2f 510a 472f 3b2f a62d
000000c0: f4b5 282c e3bf 2130 b8de 9531 92d6 7a2e
000000d0: dfab 772b 2319 ba2c c81a 832d c8de 572c
000000e0: 8fee c92c 91f7 d12e b011 f02d aeda 132f
000000f0: a239 9f2c cd37 3c2f 5040 142f f508 2c2d
00000100: e620 5b2c 7565 6530 80df b631 d652 852f
00000110: a994 332c eab9 8e2c 37eb 542e ff41 632d
00000120: 8acc 162d 02e5 282f 8090 1a2d da17 bb2e
00000130: 66bb a92d a782 a72f c02c dd2e 8fb8 f02d
00000140: e02f 662c 3ee9 2630 091e 0a32 2250 922e
00000150: d0ad 5a2c ea03 902d bcab 132d b07e b42d
00000160: 4332 8a2b 739f b02e 0dcd 972c f9bb ad2d
00000170: ab9d fd2d 616b a92f 4ed0 db2d ad6c 7a2e
00000180: de78 8f2c 6115 2230 4f45 b331 2a94 8f2e
00000190: f5af d42c 0bae cb2c 52db e22d 1072 a12d
000001a0: de37 162d b3ee ec2f fce6 242d 0d2a 4130
000001b0: 1687 8d2f 85c7 682f a005 ab2f 340a a42e
000001c0: 822b 0f2d 35cf 3a30 71ab d031 a558 6e2f
000001d0: 8d9c ae2b 9018 0c2b fb32 6e2e a971 8a2d
000001e0: 2e49 262d 10b3 4d2f 3c0b 192d 542a 3d2f
000001f0: cc10 072e ccec 392f 65ef 142f c32a 1d2e

exp_avg f4 [8]
2.2020758e-05 -6.47231e-06 -7.797198e-06 7.586792e-07 -4.827103e-06 1.5451774e-06 -3.6748133e-08 -6.005454e-06
00000000: 38b9 b837 b82c d9b6 b6d0 02b7 0aa8 4b35
00000010: 80f8 a1b6 e463 cf35 00d5 1db3 7582 c9b6

exp_avg_sq f4 [8]
1.705169e-07 9.5192796e-08 3.305827e-08 1.0232421e-08 1.648514e-08 2.2680734e-08 3.5729933e-08 1.65097e-08
00000000: 5417 3734 cb6c cc33 f4fb 0d33 aaca 2f32
00000010: 359b 8d32 76d3 c232 7a75 1933 37d1 8d32

exp_avg f4 [1, 8]
-3.851489e-05 0.00010841104 0.00015613927 3.5688058e-06 -2.4555773e-05 4.966047e-05 -3.863023e-05 -0.0001630481
00000000: 0c8b 21b8 bc5a e338 51b9 2339 9e7f 6f36
00000010: 1ffd cdb7 864a 5038 e506 22b8 e4f7 2ab9

exp_avg_sq f4 [1, 8]
1.5368202e-06 3.336923e-06 1.9444392e-06 3.215841e-07 4.909813e-07 6.024664e-07 1.1395049e-06 1.0255576e-06
00000000: bd44 ce35 e7ef 5f36 367d 0236 2fa6 ac34
00000010: facb 0335 2db9 2135 17f1 9835 e4a5 8935
