notebooks/lightning_logs/version_33/checkpoints/epoch=99-step=600.ckpt (torch, 27115 bytes, 42 tensors)

front_linear.weight f4 [8, 2]
1.8792362 1.1914097 2.7601922 1.5464941 0.4687875 0.69689125 0.9853635 1.7191046
-4.6315556 -3.8944736 -0.1003609 -0.36305586 -1.5535274 -1.1722248 -1.7422893 -0.9317218
00000000: d08a f03f 1d80 983f fda6 3040 85f3 c53f
00000010: ea04 f03e 7767 323f c840 7c3f 9f0b dc3f
00000020: b435 94c0 0e3f 79c0 048a cdbd 75e2 b9be
00000030: fcd9 c6bf 760b 96bf 5603 dfbf 5285 6ebf

front_linear.bias f4 [8]
-1.0227877 -0.6903032 -0.10212195 -1.4363014 3.1948743 0.24533573 0.18429145 -0.22213973
00000000: b5ea 82bf b6b7 30bf 5025 d1bd b9d8 b7bf
00000010: d278 4c40 4a39 7b3e e6b6 3c3e 9978 63be

transformer_encoder.layers.0.self_attn.qkv_proj.weight f4 [24, 8]
0.22805025 0.9872713 1.2166519 -0.58907676 1.6546535 1.2661701 -1.141578 -1.4915425
-0.29050264 0.059081927 1.4956502 0.95844686 0.70515805 -1.4088221 -0.096134454 -0.24632461
-0.07261531 0.11079419 1.7702997 1.7088635 0.6753555 -1.0029137 -0.49412572 -0.43446702
-0.5713982 -1.0382167 -1.06464 0.3032706 -2.4036403 -0.8574934 1.4923481 1.5228748
1.1286005 0.86063784 -3.2465398 -1.16792 -0.4700981 2.1510677 -0.9293016 -1.3369212
0.38241976 0.4022301 -0.51377374 -0.77824026 0.104449965 0.50362366 -0.23504134 -1.0546697
0.16267845 -0.12781055 -0.69450825 -1.072279 -0.13289754 0.44723672 -0.14800256 -0.1777079
-0.71231264 -1.376697 2.4302955 0.40681294 0.6099808 -2.243938 1.4109781 1.156107
-0.8270165 -0.6627646 -0.03462411 -0.8953545 2.5234945 0.53035617 0.32768583 -0.029925779
-1.1850151 -0.900295 0.47428763 -1.0754703 -0.018724896 -0.7147568 0.14219348 0.060620368
0.93601716 0.46183673 -0.17948936 1.379342 -2.1400993 -0.48478535 0.024692426 0.054071378
-0.8544119 -0.13213989 -0.25434133 -0.92483115 1.9022326 0.06911184 0.510143 0.014377319
0.7760471 -1.5323809 0.4509661 1.4056263 0.0022142716 -0.058667954 1.9270136 2.3983648
-0.9588074 -0.7431567 -1.2304556 1.2829205 0.5319683 0.15799257 1.178403 0.7613423
0.26717147 2.406267 3.859576 -3.0073197 0.48656073 0.5204736 -2.8751612 -2.8250437
-0.37838563 -1.8195454 -3.1474116 1.895182 -0.06765014 -0.42921028 2.342962 2.210537
-0.60530317 1.465035 0.22191192 1.5239078 -1.6196296 -0.2900534 -0.9394717 -0.31577232
-2.0244448 1.455398 3.3962307 1.4590709 -0.4709062 0.10950594 -1.470683 -0.96724516
-0.36102864 -2.7954493 -2.0033183 -2.4016752 2.1523595 0.08070903 3.481568 2.8688722
-0.5343449 2.696568 2.2238045 1.8044957 -1.4747521 0.15410854 -2.7664526 -1.7006001
-1.4323949 -1.7216221 -0.32426608 -0.78800875 2.1023428 0.39651114 1.5595442 1.3652825
-1.6128937 -1.5065314 0.28293693 -1.5839866 2.5215693 -0.28678825 1.1533946 0.9861907
-0.20234612 0.1270691 -0.106073104 0.7485167 -1.6769676 -0.78356296 0.36027753 0.006051142
1.7603796 1.8038337 0.738386 1.2089654 -2.1435843 -0.012415538 -1.0934571 -1.56499
00000000: 0186 693e d0bd 7c3f 40bb 9b3f bccd 16bf
00000010: b0cb d33f dd11 a23f 3a1f 92bf ddea bebf
00000020: c3bc 94be e4ff 713d 7771 bf3f c65c 753f
00000030: 3d85 343f 4854 b4bf 24e2 c4bd 853c 7cbe
00000040: 56b7 94bd 10e8 e23d 2e99 e23f 0abc da3f
00000050: 19e4 2c3f 7a5f 80bf 0cfe fcbe 7672 debe
00000060: 2747 12bf 49e4 84bf 2046 88bf 4946 9b3e
00000070: 3ed5 19c0 b084 5bbf 4305 bf3f 90ed c23f
00000080: fb75 903f c352 5c3f 4fc7 4fc0 677e 95bf
00000090: b3b0 f0be 18ab 0940 b6e6 6dbf 3c20 abbf
000000a0: 86cc c33e 1bf1 cd3e ad86 03bf c13a 47bf
000000b0: dde9 d53d 7bed 003f adae 70be 6bff 86bf
000000c0: 2e95 263e c5e0 02be 4bcb 31bf 7040 89bf
000000d0: 4b16 08be 36fc e43e fc8d 17be 0ff9 35be
000000e0: 1f5a 36bf 9b37 b0bf f689 1b40 c949 d03e
000000f0: b427 1c3f ae9c 0fc0 ee9a b43f 50fb 933f
00000100: 5ab7 53bf f1aa 29bf 03d2 0dbd f435 65bf
00000110: ef80 2140 6cc5 073f 70c6 a73e e826 f5bc
00000120: 93ae 97bf bc79 66bf d4d5 f23e 03a9 89bf
00000130: f464 99bc 4dfa 36bf 2b9b 113e 104d 783d
00000140: d29e 6f3f dd75 ec3e 0fcc 37be 478e b03f
00000150: 63f7 08c0 c935 f8be c547 ca3c f379 5d3d
00000160: bdba 5abf ae4f 07be 0739 82be bcc1 6cbf
00000170: 5c7c f33f 828a 8d3d bb98 023f d98e 6b3c
00000180: 06ab 463f 0f25 c4bf 07e5 e63e 90eb b33f
00000190: 501d 113b cf4d 70bd 62a8 f63f cf7e 1940
000001a0: 6774 75bf 843f 3ebf 927f 9dbf bd36 a43f
000001b0: 132f 083f cec8 213e e9d5 963f 54e7 423f
000001c0: b3ca 883e 4700 1a40 4b03 7740 ed77 40c0
000001d0: 7d1e f93e c23d 053f a402 38c0 84cd 34c0
000001e0: c3bb c1be dde6 e8bf 316f 49c0 5395 f23f
000001f0: 288c 8abd 73c1 dbbe 17f3 1540 7079 0d40
00000200: 26f5 1abf 4486 bb3f e13c 633e 690f c33f
00000210: 0650 cfbf e181 94be 3881 70bf e9ac a1be
00000220: 8190 01c0 7b4a ba3f d85b 5940 d6c2 ba3f
00000230: 9e1a f1be a644 e03d 573f bcbf 619d 77bf
00000240: bfd8 b8be a4e8 32c0 5e36 00c0 0cb5 19c0
00000250: 42c0 0940 c74a a53d 03d2 5e40 9a9b 3740
00000260: d4ca 08bf 9294 2c40 d052 0e40 b7f9 e63f
00000270: adc4 bcbf a1ce 1d3e 8f0d 31c0 44ad d9bf
00000280: b758 b7bf 1d5e dcbf 3406 a6be f1ba 49bf
00000290: c98c 0640 8203 cb3e 259f c73f 94c1 ae3f
000002a0: 4d73 cebf 05d6 c0bf 1cdd 903e 13c0 cabf
000002b0: 6461 2140 e9d5 92be 6fa2 933f fe76 7c3f
000002c0: d233 4fbe 671e 023e db3c d9bd ca9e 3f3f
000002d0: e0a6 d6bf 9597 48bf 4c76 b83e a848 c63b
000002e0: 1e54 e13f 06e4 e63f dd06 3d3f 61bf 9a3f
000002f0: 7c30 09c0 8a6a 4bbc 67f6 8bbf 9851 c8bf

transformer_encoder.layers.0.self_attn.o_proj.weight f4 [8, 8]
-1.4640903 -0.0347869 1.842177 -1.2043228 0.46459553 -1.2557923 1.1379682 0.41268593
0.524795 0.986241 0.30274913 -0.115867086 -0.84552366 -1.4335045 -0.100225374 1.4645772
1.6278847 0.28091595 -1.7381138 1.41022 -2.3746932 -2.0399947 0.7372962 1.5821123
-1.4789495 -0.0696625 0.39899826 -1.2630253 -0.9545206 -0.765784 -0.27846223 1.3111081
1.2932348 -0.19772251 -1.1913929 0.4837102 0.26247266 2.7799397 -1.8875918 -0.06189621
0.12366537 0.17161576 -0.36488956 0.3808314 0.31756476 1.1325549 0.021723375 0.1754888
-1.2679738 -0.8324865 1.0280734 -0.56723887 1.7559152 1.246131 -0.4471622 -1.8719503
0.34897026 -1.0799603 -0.32246155 0.25159708 1.0331695 0.035215966 -1.2802668 -0.92244464
00000000: 5067 bbbf b57c 0ebd 75cc eb3f 4027 9abf
00000010: 77df ed3e cdbd a0bf f1a8 913f 924b d33e
00000020: f758 063f 4a7a 7c3f ef01 9b3e b94b edbd
00000030: 3d74 58bf 137d b7bf f642 cdbd 4477 bb3f
00000040: 875e d03f 37d4 8f3e 837a debf 1782 b43f
00000050: f9fa 17c0 468f 02c0 72bf 3c3f a882 ca3f
00000060: 384e bdbf 36ab 8ebd 8049 cc3e d0aa a1bf
00000070: 765b 74bf 6c0a 44bf 9a92 8ebe 64d2 a73f
00000080: b888 a53f c577 4abe 907f 98bf dda8 f73e
00000090: d162 863e 88ea 3140 9c9c f1bf e186 7dbd
000000a0: 4544 fd3d 0bbc 2f3e ced2 babe 55fc c23e
000000b0: d997 a23e 8ff7 903f 38f5 b13c 56b3 333e
000000c0: f74c a2bf d61d 55bf e997 833f 9136 11bf
000000d0: d4c1 e03f 3881 9f3f 72f2 e4be 119c efbf
000000e0: 3bac b23e 243c 8abf ae19 a5be 55d1 803e
000000f0: e63e 843f 9e3e 103d c8df a3bf 5525 6cbf

transformer_encoder.layers.0.self_attn.o_proj.bias f4 [8]
-0.99404275 0.58800447 1.2613488 1.5594927 0.80661184 0.5429651 -1.3192364 -0.5416128
00000000: 9679 7ebf 7687 163f e173 a13f 759d c73f
00000010: 1d7e 4e3f c3ff 0a3f bddc a8bf 23a7 0abf

transformer_encoder.layers.0.linear_net.0.weight f4 [16, 8]
0.4298025 -0.6951899 0.37861592 -0.83332354 -0.8406746 -0.3770671 0.45416933 0.75258785
-0.028121945 -0.06851895 -0.24986605 -0.667677 -0.06707616 0.53047335 0.15757315 0.49733713
0.97927463 -0.17734042 -3.7839885 1.1471652 -0.08704534 -0.99978703 0.8497933 -0.6169903
-0.13850865 0.62965405 1.7662753 -0.04318713 -0.57751966 -0.16463846 -1.0154917 -0.59993684
-3.672151 -0.92316425 -0.33835953 0.56639725 4.142857 -0.4138664 -1.125148 0.15629882
0.50237495 0.13374884 0.31161925 -0.10334782 -0.22962536 -0.13118975 0.5618034 0.60815704
-0.19164476 0.40211025 0.029397298 0.3213086 0.32522285 -0.10937109 -0.9037947 -0.2312607
-0.086503565 -0.72058356 0.3064706 -0.6396355 -0.07761293 0.23166727 0.3693732 1.4108509
-0.0699348 -0.8301746 -0.13101444 -0.85248417 0.09567638 -1.0587927 -0.26898828 1.0464846
-0.7653315 -1.417427 0.7986525 -1.2860148 0.620494 0.1879404 -0.38550594 1.9446348
3.7608707 1.1350102 -3.4666405 1.0077213 -1.9563037 -0.09994852 -0.07744375 -0.5310813
-0.8216665 -1.4531194 -4.77553 -0.50052184 1.5080318 0.19113442 2.1608927 -0.16396737
-1.3192023 -1.5306418 0.79688966 -1.4242424 1.1154763 0.6870661 -0.5097387 1.7688556
1.8408719 -1.1735828 -2.385167 -0.10760514 -0.7390947 0.95867074 4.181967 0.63857806
-0.39484185 0.4196215 -0.07322506 0.1481613 -0.3006368 0.09470302 -0.89959407 -0.8301005
-0.16426778 -1.022838 0.7104079 -1.2195373 -0.2516824 0.19948159 -0.124608755 1.6927052
00000000: 130f dc3e f7f7 31bf f2d9 c13e b154 55bf
00000010: 7336 57bf f00e c1be e288 e83e 99a9 403f
00000020: fe5f e6bc aa53 8cbd e3dc 7fbe e1ec 2abf
00000030: 3a5f 89bd 1acd 073f db5a 213e f9a2 fe3e
00000040: beb1 7a3f ba98 35be de2c 72c0 4fd6 923f
00000050: d444 b2bd 0bf2 7fbf 0e8c 593f 14f3 1dbf
00000060: 36d5 0dbe 0231 213f 4f15 e23f fde4 30bd
00000070: 54d8 13bf fc96 28be a2fb 81bf 7695 19bf
00000080: 8604 6bc0 7e54 6cbf 763d adbe 69ff 103f
00000090: 4992 8440 4ce6 d3be da04 90bf cc0c 203e
000000a0: a59b 003f 75f5 083e 8f8c 9f3e 06a8 d3bd
000000b0: e922 6bbe 9b56 06be 59d2 0f3f 2eb0 1b3f
000000c0: 863e 44be 65e1 cd3e 9ad2 f03c 9082 a43e
000000d0: 9c83 a63e f3fd dfbd 175f 67bf 9bcf 6cbe
000000e0: c828 b1bd 2a78 38bf b7e9 9c3e 27bf 23bf
000000f0: 87f3 9ebd 2f3a 6d3e 7c1e bd3e c396 b43f
00000100: fa39 8fbd 5386 54bf a628 06be 673c 5abf
00000110: faf1 c33d 8586 87bf d5b8 89be 35f3 853f
00000120: c4ec 43bf 3f6e b5bf 7e74 4c3f 229c a4bf
00000130: b2d8 1e3f 7373 403e 0961 c5be cbe9 f83f
00000140: 1bb2 7040 0448 913f 70dd 5dc0 03fd 803f
00000150: 2968 fabf cfb1 ccbd d49a 9ebd f2f4 07bf
00000160: bc58 52bf d1ff b9bf 24d1 98c0 3322 00bf
00000170: 3007 c13f beb8 433e 114c 0a40 10e7 27be
00000180: 9fdb a8bf 12ec c3bf f600 4c3f 934d b6bf
00000190: edc7 8e3f 90e3 2f3f 3c7e 02bf dc69 e23f
000001a0: b1a1 eb3f f637 96bf 93a6 18c0 1560 dcbd
000001b0: 4f35 3dbf 726b 753f acd2 8540 da79 233f
000001c0: b628 cabe a1d8 d63e 05f7 95bd 99b7 173e
000001d0: 11ed 99be a8f3 c13d cc4b 66bf 7781 54bf
000001e0: d035 28be 5bec 82bf 4bdd 353f cc19 9cbf
000001f0: 84dc 80be e744 4c3e e032 ffbd 90aa d83f

transformer_encoder.layers.0.linear_net.0.bias f4 [16]
-1.3801113 -1.5051649 0.7823852 0.5676595 0.64870757 -0.6606943 1.4889573 -1.131341
-0.13868545 -0.32692137 0.07182748 0.058990445 -0.5482041 -1.4210165 0.61521715 -1.3446226
00000000: 7da7 b0bf 3ea9 c0bf 654a 483f 2252 113f
00000010: b311 263f 4323 29bf 2796 be3f c8cf 90bf
00000020: 8f03 0ebe 3d62 a7be 491a 933d f79f 713d
00000030: 1b57 0cbf dee3 b5bf df7e 1d3f 981c acbf

transformer_encoder.layers.0.linear_net.3.weight f4 [8, 16]
-0.3884536 -1.3418072 -0.68406224 -0.062380023 -3.8136635 0.36753306 -0.4159219 -0.8397926
-0.25516737 -1.1637204 -0.2324348 -0.8384547 -2.6621466 2.0745082 -0.0571264 -0.45380652
-0.2627462 0.3276455 -1.1779536 0.7561371 0.2897082 0.25181487 0.19323984 0.50284827
0.23480375 0.38846812 -0.17341834 -1.7900286 0.6559773 -1.9802972 0.037443504 0.41098922
0.20089103 -0.6360867 -1.8042556 0.7945597 0.24207169 0.6010935 0.58522356 0.19586796
-0.15606698 0.22189303 0.016306568 -1.8692876 0.49718383 -3.3830602 0.5303378 0.47400677
0.49031284 0.014022068 0.28992355 -0.16052018 1.9048064 0.3112223 0.8215763 0.65129703
-0.21985453 1.0386667 3.8773036 0.7874133 2.0761583 -4.5908055 0.53610283 0.7617456
0.50057775 0.8914146 0.95846224 0.36580625 3.1441667 -0.2802888 0.54719615 0.5568588
0.3637008 0.65081936 0.48405266 1.0473019 1.4089707 0.028481508 0.13112809 0.66467476
0.1938068 1.2219368 0.42781726 0.042105883 2.2824254 -0.2873829 0.56162053 0.52601373
0.35519105 0.7850354 -0.17111376 0.98138946 1.55477 0.2778837 -0.053402595 0.63241196
-0.15802118 -0.023156287 1.6931647 -0.9945131 -0.0889923 -0.34324846 -0.75616753 -0.5484279
-0.030857958 -0.35795483 0.38087097 2.1555 -0.6315893 2.4911106 -0.25843596 -0.67460394
-0.6488606 -0.65252334 -1.2470894 0.067328736 -3.7813783 0.38250464 -0.6856419 -0.39486918
-0.4586524 -0.8576757 -2.6154308 -0.74977636 -1.2500027 2.147645 -0.51483554 -0.46376905
00000000: 64e3 c6be 57c0 abbf b41e 2fbf 3282 7fbd
00000010: 1013 74c0 4b2d bc3e b7f3 d4be a6fc 56bf
00000020: 4ca5 82be caf4 94bf 6303 6ebe f8a4 56bf
00000030: 9c60 2ac0 bec4 0440 5ffd 69bd 5459 e8be
00000040: ac86 86be 27c1 a73e 2fc7 96bf 3392 413f
00000050: a254 943e e1ed 803e aae0 453e aaba 003f
00000060: 6570 703e 4be5 c63e 9494 31be a81f e5bf
00000070: 21ee 273f 617a fdbf 5c5e 193d 2e6d d23e
00000080: 61b6 4d3e 94d6 22bf d9f1 e6bf 4468 4b3f
00000090: a4e1 773e 43e1 193f 36d1 153f 9c91 483e
000000a0: 06d0 1fbe ed37 633e 5a95 853c d144 efbf
000000b0: e18e fe3e 0f84 58c0 38c4 073f 04b1 f23e
000000c0: 490a fb3e d1bc 653c dc70 943e 675f 24be
000000d0: b2d0 f33f 8858 9f3e d352 523f 67bb 263f
000000e0: 8c21 61be 08f3 843f be25 7840 eb93 493f
000000f0: c7df 0440 e1e7 92c0 093e 093f c201 433f
00000100: dd25 003f bf33 643f c85d 753f f54a bb3e
00000110: 073a 4940 0382 8fbe 0c15 0c3f 4c8e 0e3f
00000120: fe36 ba3e 199c 263f c0d5 f73e fd0d 863f
00000130: 2759 b43f 0d52 e93c 7146 063e 2028 2a3f
00000140: 4a75 463e 6d68 9c3f dd0a db3e 3877 2c3d
00000150: 4213 1240 da23 93be 5dc6 0f3f d6a8 063f
00000160: 9adb b53e 14f8 483f 7238 2fbe 573c 7b3f
00000170: b402 c73f c646 8e3e aebc 5abd c0e5 213f
00000180: 4ed0 21be 41b2 bdbc 9fb9 d83f 6998 7ebf
00000190: 9841 b6bd 43be afbe 3294 41bf c565 0cbf
000001a0: d4c9 fcbc db45 b7be 8501 c33e b6f3 0940
000001b0: d6af 21bf 5b6e 1f40 b851 84be d8b2 2cbf
000001c0: ba1b 26bf c50b 27bf a0a0 9fbf a6e3 893d
000001d0: 1a02 72c0 a6d7 c33e 3a86 2fbf 4b2c cabe
000001e0: 7dd4 eabe a290 5bbf 3863 27c0 58f1 3fbf
000001f0: 1700 a0bf 0473 0940 43cc 03bf 2373 edbe

transformer_encoder.layers.0.linear_net.3.bias f4 [8]
-0.68660885 0.74847484 0.5685869 1.4685919 1.1136826 0.9547184 -0.721678 -0.7740735
00000000: 99c5 2fbf 0c9c 3f3f e98e 113f d2fa bb3f
00000010: 278d 8e3f 6d68 743f e4bf 38bf ae29 46bf

transformer_encoder.layers.0.norm1.weight f4 [8]
2.0229933 1.5138792 3.3012824 0.56310135 1.7170173 0.23830281 2.3786287 1.0383542
00000000: b978 0140 cbc6 c13f 3648 5340 6927 103f
00000010: 39c7 db3f a705 743e 743b 1840 cae8 843f

transformer_encoder.layers.0.norm1.bias f4 [8]
0.5774969 0.6482271 0.5048831 0.5074746 0.37358588 -0.034773923 -1.058271 -0.58479154
00000000: d6d6 133f 36f2 253f 0540 013f dbe9 013f
00000010: a646 bf3e 1a6f 0ebd 6d75 87bf e6b4 15bf

transformer_encoder.layers.0.norm2.weight f4 [8]
0.10779087 1.4600805 1.785797 0.5939473 -0.117712036 -0.1301759 1.7556976 -0.09546568
00000000: 76c1 dc3d ebe3 ba3f ff94 e43f ee0c 183f
00000010: 0213 f1bd d54c 05be b3ba e03f 8383 c3bd

transformer_encoder.layers.0.norm2.bias f4 [8]
0.1677742 0.12901519 0.2224205 -0.24086565 0.13973002 0.11491491 -0.23272331 -0.13858041
00000000: 00cd 2b3e 8f1c 043e 33c2 633e 7ca5 76be
00000010: 6315 0f3e 8258 eb3d 054f 6ebe 06e8 0dbe

final_linear.weight f4 [1, 8]
0.0022598899 -0.4748871 -0.73474896 -0.07759855 -0.00043058422 0.0012962662 0.8142329 0.00023022668
00000000: a91a 143b 6724 f3be 8218 3cbf fdeb 9ebd
00000010: 09c0 e1b9 7ae7 a93a 9171 503f 0169 7139

exp_avg f4 [8, 2]
0.00021993779 0.00021328276 0.0002587803 0.0002886795 0.00019563266 0.00011743017 0.00027095104 0.00029867422
-0.00049909716 -0.00074206514 -0.00017981847 -0.00018136762 -0.00015214844 -0.00016462756 -0.00019153804 -0.00020172913
00000000: 1a9f 6639 a8a4 5f39 e7ac 8739 e859 9739
00000010: be22 4d39 d844 f638 6f0e 8e39 6097 9c39
00000020: d8d5 02ba 2687 42ba a78d 3cb9 802d 3eb9
00000030: 098a 1fb9 e09f 2cb9 9ad7 48b9 4087 53b9

exp_avg_sq f4 [8, 2]
1.2732306e-05 8.852939e-05 5.64532e-06 0.00011107027 1.333796e-05 3.5367044e-05 2.1349158e-05 8.008152e-05
3.081121e-05 0.0001324355 1.07751375e-05 2.4603754e-05 9.814101e-06 0.00010075024 1.0177561e-05 0.00013123243
00000000: d69c 5537 dba8 b938 ee6c bd36 66ee e838
00000010: 1ac6 5f37 1357 1438 f816 b337 70f1 a738
00000020: 493b 0138 62de 0a39 ddc6 3437 2964 ce37
00000030: 3ea7 2437 e049 d338 4bc0 2a37 709b 0939

exp_avg f4 [8]
0.0011040859 0.0012382139 0.00018526742 0.0011962331 -0.0027787015 -0.00038258368 -0.00083665317 -0.0008133999
00000000: fab6 903a 904b a23a 5844 4239 ecca 9c3a
00000010: e01a 36bb 8395 c8b9 d852 5bba 583a 55ba

exp_avg_sq f4 [8]
0.0004923863 0.0006936493 0.00014655897 0.00041693717 0.0007338042 0.000108851884 0.0005986062 0.0007601065
00000000: 7c13 013a 04d6 353a a0ad 1939 5c98 da39
00000010: c45c 403a 6947 e438 c8eb 1c3a e241 473a

exp_avg f4 [24, 8]
4.2868287e-06 -1.1963741e-05 -9.615733e-06 1.4200086e-05 -2.3043067e-05 -2.177947e-06 1.6292932e-05 2.4812281e-05
-3.9758743e-07 -6.487151e-06 -3.872414e-06 2.8840823e-06 -2.2285312e-06 -3.7268865e-07 7.001824e-06 9.739104e-06
-7.178414e-06 2.206043e-07 2.6984349e-06 -1.2090155e-05 2.4064764e-05 1.891593e-06 -4.5159723e-06 -9.480809e-06
-1.5639509e-05 1.1678592e-05 1.4111778e-05 -3.3472927e-05 6.27928e-05 5.299525e-06 -2.307917e-05 -3.9227372e-05
-5.9452534e-05 -8.732022e-05 -2.3182256e-05 -4.369593e-05 0.00015775402 7.940382e-06 5.3314172e-05 5.5972683e-05
-9.12577e-06 -1.3477469e-05 -3.4777163e-06 -6.400237e-06 2.3894685e-05 1.1517675e-06 8.1451435e-06 8.662717e-06
-1.1660624e-05 -1.8017232e-05 -2.91471e-06 -3.9097995e-06 2.686925e-05 3.2467665e-07 9.669651e-06 1.1741142e-05
6.862876e-05 0.000100198115 2.7556405e-05 5.3093398e-05 -0.00018435926 -9.826174e-06 -6.190177e-05 -6.405979e-05
0.00018189152 0.00013349258 4.0611078e-05 0.00020378592 -0.00045789458 -2.589183e-05 -4.6895177e-05 1.1715689e-05
6.243349e-05 0.00013240064 5.6391174e-05 2.9111601e-05 -0.0001170226 -8.694864e-06 -0.00011278204 -0.0001350161
-0.00016973697 -9.637617e-05 -2.6478869e-05 -0.00020603833 0.00044295395 2.455324e-05 1.3419485e-05 -5.61364e-05
0.00014492658 0.0001286229 4.0979445e-05 0.00014844118 -0.00035378174 -1.9592102e-05 -5.9982995e-05 -2.5068643e-05
1.4038803e-06 2.9352211e-06 9.618866e-07 1.8160517e-07 -2.4586598e-06 -3.555641e-08 -2.2029558e-06 -2.801311e-06
8.7922285e-07 2.021703e-06 7.14067e-07 1.3472345e-08 -1.4184902e-06 -1.2125895e-08 -1.5864587e-06 -2.0496054e-06
-3.1848804e-06 -6.842809e-06 -2.252792e-06 -2.99372e-07 5.5439086e-06 6.286086e-08 5.1747147e-06 6.621589e-06
2.311885e-06 4.9710256e-06 1.6399135e-06 2.159777e-07 -4.0174136e-06 -4.580943e-08 -3.7622694e-06 -4.8142865e-06
-1.7908424e-06 -2.6338134e-06 -5.96169e-07 -1.1384818e-06 4.507723e-06 1.844324e-07 1.550517e-06 1.684271e-06
-1.4019369e-06 -2.066211e-06 -4.030117e-07 -7.8910364e-07 3.4683399e-06 1.0758612e-07 1.1792227e-06 1.311692e-06
3.1268664e-06 4.58214e-06 1.0845349e-06 2.094158e-06 -7.961975e-06 -3.5136054e-07 -2.7294745e-06 -2.9287762e-06
-2.609891e-06 -3.8298895e-06 -8.627653e-07 -1.6736863e-06 6.5966724e-06 2.6812074e-07 2.2554323e-06 2.4428723e-06
-9.846053e-05 -0.00018992121 -7.24101e-05 1.8033898e-05 5.361403e-05 -6.8928784e-06 0.00015094614 0.00019679987
-8.1957725e-05 -0.00036437777 -0.00016324586 0.00011417584 -6.225612e-05 -5.0884773e-06 0.00035756914 0.0004981656
4.003002e-05 0.00020418175 9.043304e-05 -6.321346e-05 3.4081982e-05 -2.4381006e-07 -0.00020404885 -0.00028526701
6.9730944e-05 0.00017341669 7.383991e-05 -2.5712303e-05 -2.1950807e-05 3.1995733e-06 -0.00015356275 -0.00020379096
00000000: 94d7 8f36 e0b7 48b7 4253 21b7 e83c 6e37
00000010: 9c4c c1b7 d828 12b6 ceac 8837 f823 d037
00000020: 0074 d5b4 34ac d9b6 c8ef 81b6 288c 4136
00000030: e08d 15b6 f015 c8b4 36f1 ea36 2265 2337
00000040: 1bde f0b6 40df 6c34 c216 3536 d2d6 4ab7
00000050: b0de c937 a4e2 fd35 e887 97b6 c40f 1fb7
00000060: 9731 83b7 2cef 4337 a0c1 6c37 4865 0cb8
00000070: a1af 8338 93d2 b136 249a c1b7 1288 24b8
00000080: ac5c 79b8 b01f b7b8 8477 c2b7 2646 37b8
00000090: c66a 2539 ae37 0537 a89d 5f38 36c4 6a38
000000a0: e21a 19b7 4a1d 62b7 b662 69b6 9ec1 d6b6
000000b0: 7271 c837 6e96 9a35 20a7 0837 1656 1137
000000c0: 00a2 43b7 b623 97b7 569a 43b6 ec30 83b6
000000d0: 4665 e137 384f ae34 d63a 2237 d2fb 4437
000000e0: c9ec 8f38 7421 d238 ee28 e737 9ab0 5e38
000000f0: 9050 41b9 19db 24b7 42d1 81b8 d657 86b8
00000100: 22ba 3e39 24fa 0b39 d055 2a38 5eaf 5539
00000110: 9211 f0b9 4832 d9b7 50b1 44b8 808e 4437
00000120: baee 8238 07d5 0a39 9085 6c38 b034 f437
00000130: 086a f5b8 28e0 11b7 6685 ecb8 1c93 0db9
00000140: 6cfb 31b9 901d cab8 f01e deb7 fe0b 58b9
00000150: 463c e839 aef7 cd37 4024 6137 0074 6bb8
00000160: 6ff7 1739 f2de 0639 58e1 2b38 e0a6 1b39
00000170: c87b b9b9 b859 a4b7 4096 7bb8 804a d2b7
00000180: f66c bc35 b7fa 4436 2c1a 8135 40ff 4234
00000190: 74ff 24b6 b0b6 18b3 7ed6 13b6 28fe 3bb6
000001a0: bc03 6c35 98ac 0736 50ae 3f35 0074 6732
000001b0: f462 beb5 4052 50b2 4eee d4b5 f48b 09b6
000001c0: d4bb 55b6 489b e5b6 ac2e 17b6 60b9 a0b4
000001d0: d005 ba36 20fe 8633 76a2 ad36 042f de36
000001e0: e225 1b36 c9cc a636 001b dc35 80e7 6734
000001f0: 52cd 86b6 00c0 44b3 4c7b 7cb6 688a a1b6
00000200: e05c f0b5 92c0 30b6 6c08 20b5 f0cd 98b5
00000210: 0c41 9736 6408 4634 5c1b d035 1c0f e235
00000220: 2f2a bcb5 3ca9 0ab6 825d d8b4 cad2 53b5
00000230: a0c1 6836 180a e733 c945 9e35 650d b035
00000240: 28d7 5136 48c0 9936 5690 9135 5c89 0c36
00000250: 6c94 05b7 a0a2 bcb4 042c 37b6 fe8b 44b6
00000260: 9625 2fb6 8082 80b6 c898 67b5 6ca3 e0b5
00000270: fc58 dd36 3cf2 8f34 085c 1736 3af0 2336
00000280: 987c ceb8 9625 47b9 e0da 97b8 8047 9737
00000290: a0df 6038 6049 e7b6 4c47 1e39 105c 4e39
000002a0: b8e0 abb8 f509 bfb9 fa2c 2bb9 b071 ef38
000002b0: 808f 82b8 b0bd aab6 1e78 bb39 5497 023a
000002c0: e8e5 2738 9f19 5639 dea6 bd38 7891 84b8
000002d0: 40f3 0e38 00e5 82b4 f2f5 55b9 e48f 95b9
000002e0: 843c 9238 30d7 3539 80da 9a38 c0b0 d7b7
000002f0: 0023 b8b7 40b8 5636 b005 21b9 b8b0 55b9

exp_avg_sq f4 [24, 8]
1.6940484e-07 3.3438022e-07 3.0928184e-08 1.0122206e-07 2.2999069e-07 6.819342e-08 2.7690913e-07 5.10975e-07
1.3212178e-07 3.2734928e-07 5.0054245e-09 2.6683752e-08 1.559235e-07 6.5634566e-08 2.1936857e-07 3.8805447e-07
1.3467618e-07 3.469573e-07 1.4915816e-08 3.429273e-08 1.8330464e-07 6.600537e-08 2.3747641e-07 4.2152453e-07
3.3010687e-07 7.222144e-07 8.068015e-08 1.984368e-07 4.996852e-07 1.290432e-07 5.7995715e-07 1.0733784e-06
5.43671e-07 7.818064e-07 4.2498232e-08 3.338494e-07 3.535805e-06 1.7763375e-08 2.5152698e-07 2.9179571e-07
1.6087617e-07 1.8904214e-07 4.7593605e-09 1.0991973e-07 9.913473e-07 1.0086805e-08 5.748376e-08 7.7267934e-08
1.6790193e-07 1.9564182e-07 4.786942e-09 1.1669156e-07 1.0303555e-06 9.684776e-09 6.0328645e-08 7.986456e-08
5.643325e-07 7.7994326e-07 4.02875e-08 3.5217488e-07 3.590299e-06 1.9387986e-08 2.5187677e-07 2.9471155e-07
4.2260544e-05 6.606278e-05 1.7536304e-05 3.234838e-05 4.8074235e-05 1.5831685e-05 6.766151e-05 0.000122020916
3.9588754e-06 6.0438897e-06 4.0059795e-06 3.4357172e-06 3.848672e-06 1.7554618e-06 5.988637e-06 1.1274641e-05
4.054189e-05 6.5234744e-05 1.6180773e-05 2.8780569e-05 4.5153836e-05 1.4544602e-05 6.715219e-05 0.00011929082
2.3219274e-05 3.818058e-05 2.6724543e-05 2.186355e-05 3.1285606e-05 1.4024257e-05 4.0837313e-05 7.5336684e-05
1.3042755e-08 3.291714e-08 1.0767313e-08 3.4466815e-08 4.9553993e-08 6.867027e-09 2.7607882e-08 7.240857e-08
1.7774502e-08 1.1224158e-07 2.6304315e-08 5.1887998e-08 1.3543364e-07 8.622508e-09 5.688212e-08 1.5957757e-07
8.8145555e-08 6.688459e-07 1.5492222e-07 1.9291659e-07 8.6029064e-07 3.7251716e-08 2.894705e-07 8.198797e-07
4.0425302e-08 3.1064587e-07 6.86878e-08 8.6754305e-08 3.867413e-07 1.9152878e-08 1.3677979e-07 3.8007838e-07
3.0241353e-08 3.859951e-08 1.2039504e-09 1.17943815e-08 2.3457116e-07 5.170051e-10 8.034423e-09 1.1084199e-08
1.09162336e-07 9.4091135e-08 5.2238094e-09 3.0993395e-08 5.914983e-07 2.2350966e-09 1.772297e-08 2.940532e-08
3.0689452e-07 2.8033676e-07 1.2730484e-08 7.609117e-08 1.7216285e-06 3.648174e-09 5.00189e-08 8.111112e-08
1.8051581e-07 1.5759466e-07 7.52758e-09 4.5557194e-08 9.736091e-07 2.4541331e-09 2.8418539e-08 4.6761727e-08
3.0992072e-05 4.386231e-05 2.2327791e-05 5.027173e-05 0.00014622754 1.9156198e-05 6.6031476e-05 0.00012745507
1.7920489e-05 2.8351327e-05 1.1864727e-05 2.766371e-05 7.410615e-05 7.1705845e-06 4.049752e-05 7.935458e-05
2.1815624e-06 3.0219433e-06 3.9604797e-06 6.2318018e-06 9.597036e-06 1.2811552e-06 4.3404953e-06 1.0743187e-05
2.0675732e-05 3.0033178e-05 1.0039658e-05 2.7834052e-05 8.438497e-05 1.0744689e-05 4.3077678e-05 8.037223e-05
00000000: a6e5 3534 de84 b334 e6d5 0433 6a5f d933
00000010: 5cf3 7634 bb71 9233 1aaa 9434 ef29 0935
00000020: 5cdd 0d34 8bbe af34 2efc ab31 3136 e532
00000030: ed6b 2734 fcf2 8c33 938b 6b34 cd55 d034
00000040: 829b 1034 7345 ba34 3a20 8032 4149 1333
00000050: 65d2 4434 d6be 8d33 05fd 7e34 e44d e234
00000060: 8b39 b134 32de 4135 6242 ad33 e411 5534
00000070: 1b22 0635 208f 0a34 5aae 1b35 0011 9035
00000080: c9f0 1135 54dd 5135 4d87 3633 ea3b b334
00000090: ab48 6d36 1396 9832 9b09 8734 19a8 9c34
000000a0: 4ebd 2c34 82fb 4a34 c787 a331 030d ec33
000000b0: 6f0e 8535 3d4a 2d32 10e4 7633 7fee a533
000000c0: 8848 3434 9d11 5234 637a a431 dd97 fa33
000000d0: bf4a 8a35 1862 2632 068e 8133 0282 ab33
000000e0: a27c 1735 4b5d 5135 9308 2d33 8c12 bd34
000000f0: def0 7036 a28a a632 ae39 8734 d938 9e34
00000100: ea40 3138 2f8b 8a38 ed1a 9337 cfad 0738
00000110: 51a3 4938 49ce 8437 7fe5 8d38 7be5 ff38
00000120: 7bd6 8436 9ecc ca36 1a6b 8636 2c91 6636
00000130: d723 8136 359d eb35 00f2 c836 3728 3d37
00000140: 860b 2a38 a3ce 8838 f2bb 8737 cd6d f137
00000150: 9063 3d38 9704 7437 0fd4 8c38 c52b fa38
00000160: 03c7 c237 1624 2038 852e e037 9e67 b737
00000170: aa38 0338 ba49 6b37 bb48 2b38 13fe 9d38
00000180: a512 6032 c760 0d33 25fb 3832 aa08 1433
00000190: 31d5 5433 02f3 eb31 6026 ed32 087f 9b33
000001a0: 8bae 9832 7609 f133 cdf3 e132 75db 5e33
000001b0: b76b 1134 3122 1432 8d4e 7433 5958 2b34
000001c0: 884a bd33 be8a 3335 b258 2634 8224 4f34
000001d0: b9ee 6635 b2fe 1f33 8668 9b34 b415 5c35
000001e0: 17a0 2d33 d8c6 a634 8481 9333 af4d ba33
000001f0: 52a1 cf34 a085 a432 bedd 1234 930d cc34
00000200: b8e2 0133 9cc8 2533 3d78 a530 3da0 4a32
00000210: 6ede 7b34 001d 0e30 c407 0a32 d36c 3e32
00000220: a16c ea33 260f ca33 1d7d b331 991d 0533
00000230: 74c7 1e35 3c98 1931 393d 9832 fc96 fc32
00000240: 43c3 a434 3181 9634 43b5 5a32 9067 a333
00000250: b412 e735 5bb3 7a31 5dd4 5633 4f2f ae33
00000260: cfd3 4134 4a37 2934 a652 0132 aaaa 4333
00000270: f4ac 8235 91a5 2831 071d f432 10d7 4833
00000280: 7cfd 0138 ccf8 3738 914c bb37 dcda 5238
00000290: a854 1939 9fb1 a037 617a 8a38 76a5 0539
000002a0: f553 9637 03d4 ed37 9d0e 4737 5d0f e837
000002b0: 7069 9b38 da9a f036 e2db 2938 2a6b a638
000002c0: f566 1236 97cc 4a36 43e4 8436 c51a d136
000002d0: f502 2137 28f4 ab35 92a4 9136 a33d 3437
000002e0: cc70 ad37 c2ef fb37 0170 2837 2c7d e937
000002f0: d6f7 b038 1644 3437 4eae 3438 838d a838

exp_avg f4 [8, 8]
7.6917175e-05 -1.4830282e-06 -0.00010725855 6.0902934e-05 -0.00014403634 -5.106889e-05 -7.254768e-05 0.0001361297
-4.9968803e-06 -1.0219941e-05 -1.1912809e-05 -3.9413353e-06 -8.900606e-05 -5.145892e-05 -1.7753027e-05 8.756332e-05
-0.000634069 -0.0002029525 0.00053637184 -0.0004904737 -0.00034593648 -0.0003119005 7.9326215e-05 0.0003549473
9.0057605e-05 3.0669104e-05 -7.611721e-05 6.8721936e-05 3.5631783e-05 3.1523392e-05 -6.5271015e-06 -3.5849625e-05
9.8628385e-05 6.066744e-05 -3.6314537e-05 7.4643845e-05 0.0002622256 0.00014849773 5.7797748e-05 -0.0002560169
3.9909897e-05 1.4653818e-05 -3.061634e-05 3.0795294e-05 3.8080856e-05 2.8750714e-05 -9.918294e-07 -3.8279126e-05
0.00030449507 9.0783724e-05 -0.0002650282 0.0002370743 0.00015479718 0.00015479897 -5.7578203e-05 -0.00016197684
2.9057514e-05 1.7881375e-05 -9.124327e-06 2.2276541e-05 8.8243585e-05 5.0855982e-05 1.8274633e-05 -8.6517844e-05
00000000: 984e a138 760c c7b5 ffef e0b8 0772 7f38
00000010: 7608 17b9 ce32 56b8 bd24 98b8 0abe 0e39
00000020: e0aa a7b6 5076 2bb7 20dd 47b7 d03f 84b6
00000030: c4a8 bab8 98d5 57b8 56ec 94b7 33a2 b738
00000040: a637 26ba a6cf 54b9 4e9b 0c3a 2293 00ba
00000050: cf5e b5b9 9486 a3b9 f05b a638 3818 ba39
00000060: 4fdd bc38 b3a2 0038 1ea1 9fb8 cf1e 9038
00000070: 5673 1538 fc37 0438 6003 dbb6 3e5d 16b8
00000080: b6d6 ce38 2b75 7e38 7050 18b8 1c8a 9c38
00000090: 537b 8939 0eb6 1b39 dc6b 7238 023a 86b9
000000a0: ed64 2738 abd9 7537 0b6a 00b8 322a 0138
000000b0: 02b9 1f38 b02d f137 001f 85b5 e68d 20b8
000000c0: a3a4 9f39 2463 be38 7cf3 8ab9 2697 7839
000000d0: 0d51 2239 8851 2239 2080 71b8 54d8 29b9
000000e0: 89c0 f337 f6ff 9537 b014 19b7 82de ba37
000000f0: 6a0f b938 324e 5538 7a4c 9937 ea70 b5b8

exp_avg_sq f4 [8, 8]
1.689719e-06 4.525561e-07 2.1872704e-06 1.5377068e-06 2.3148623e-06 2.5727265e-06 2.4778853e-06 3.94457e-06
6.380797e-06 8.749207e-07 4.9987448e-06 5.2172613e-06 6.225115e-06 4.553587e-06 1.2716475e-06 8.596125e-06
7.4712356e-05 8.781001e-06 7.225516e-05 5.558979e-05 6.2331994e-05 7.4202435e-05 3.277796e-05 7.392299e-05
2.501888e-06 3.3526092e-07 2.4605995e-06 1.7830497e-06 2.042412e-06 2.541481e-06 1.5084654e-06 2.5680645e-06
2.7094115e-06 7.260993e-07 3.405676e-06 3.3311783e-06 3.2655444e-06 2.500201e-06 1.6169656e-06 7.865829e-06
3.49001e-07 1.9095008e-07 5.228289e-07 7.096233e-07 3.989395e-07 3.067458e-07 2.0856562e-07 1.8484942e-06
7.444827e-05 8.117962e-06 6.6094864e-05 5.564771e-05 6.8601265e-05 6.597662e-05 1.8752253e-05 7.961e-05
4.2181778e-06 1.4036981e-06 4.68737e-06 6.3831853e-06 4.5805564e-06 2.869248e-06 7.0173604e-07 1.43947445e-05
00000000: 4eca e235 d6f6 f234 05c9 1236 3463 ce35
00000010: 0859 1b36 1ba7 2c36 bf49 2636 995b 8436
00000020: a11a d636 18dc 6a35 e4ba a736 ef0f af36
00000030: 55e1 d036 04cb 9836 7aad aa35 1338 1037
00000040: e4ae 9c38 1d52 1337 b287 9738 1529 6938
00000050: 3cb8 8238 219d 9b38 117b 0938 1a07 9b38
00000060: 1ce6 2736 e9fd b334 c720 2536 1f51 ef35
00000070: 5f10 0936 508e 2a36 7a76 ca35 0357 2c36
00000080: 56d3 3536 2ae9 4235 118d 6436 358d 5f36
00000090: a025 5b36 20c9 2736 8406 d935 7af7 0337
000000a0: 555e bb34 f507 4d34 8758 0c35 f17c 3e35
000000b0: d42d d634 d2ae a434 15f2 5f34 c719 f835
000000c0: 1c21 9c38 6232 0837 699c 8a38 4667 6938
000000d0: 06de 8f38 ee5c 8a38 284e 9d37 4bf4 a638
000000e0: df89 8d36 b366 bc35 3448 9d36 252f d636
000000f0: aeb2 9936 4e8d 4036 ef5e 3c35 f580 7137

exp_avg f4 [8]
7.644993e-05 2.9788198e-05 5.6964345e-06 5.4351403e-08 -8.649692e-05 -6.1390238e-06 8.585339e-06 -2.7938257e-05
00000000: be53 a038 abe1 f937 0024 bf36 0070 6933
00000010: ae65 b5b8 d0fd cdb6 c009 1037 f35c eab7

exp_avg_sq f4 [8]
4.1438884e-06 9.090841e-06 1.1922038e-05 6.0582056e-07 1.4730725e-05 4.7769854e-06 1.2267106e-05 3.3552158e-05
00000000: bb0b 8b36 dd84 1837 c304 4837 ac9f 2235
00000010: fb23 7737 fe49 a036 d2ce 4d37 5bba 0c38

exp_avg f4 [16, 8]
9.9810497e-26 1.7390971e-25 2.7592133e-25 1.00968446e-25 -8.7886704e-26 -1.7929221e-26 -2.7952692e-25 -1.5742739e-25
2.5313847e-07 -1.7508081e-07 -1.6893799e-06 1.3802543e-07 3.8384275e-07 2.1984266e-09 6.6843313e-07 -3.3476045e-08
3.2989734e-05 -7.190041e-06 5.9836955e-05 -2.4201066e-05 -8.879678e-05 9.83907e-08 3.0878662e-05 1.9848874e-05
0.00011424345 0.0001075842 0.00017092444 6.8856e-05 -0.00012994057 -8.909712e-06 -0.00021552554 -8.3496845e-05
4.5948487e-05 -0.00012791174 -0.0003985403 -5.4915225e-05 -1.50532e-05 4.3347636e-06 0.00034757372 8.61013e-05
1.0449996e-09 1.5398502e-10 -1.2136028e-09 3.340031e-10 -4.691071e-10 -3.5278842e-11 2.2888907e-10 -2.8132155e-10
6.3584885e-05 3.713081e-05 4.320904e-05 2.47012e-05 -5.84643e-05 -3.47464e-06 -5.9315425e-05 -2.8564928e-05
-5.7698825e-25 1.0967967e-26 -1.068423e-25 5.2325477e-26 7.5947253e-25 1.3001874e-26 -1.906519e-25 9.6404725e-26
-1.4428802e-05 -7.3941146e-07 1.1061466e-06 3.3242938e-07 2.0241594e-05 4.042962e-07 -4.7976814e-06 -2.2168993e-07
2.7669004e-05 -2.1615237e-05 -8.419258e-05 -8.412127e-06 -2.4294102e-05 2.7947272e-07 6.936777e-05 1.4684501e-05
-3.5732148e-05 -5.30167e-06 3.557565e-06 -8.6170985e-07 3.6327285e-05 7.896356e-07 -1.166849e-05 2.2860804e-06
-0.00030299474 5.8039222e-06 0.00018503382 -1.0035533e-05 0.0003843744 1.0591226e-05 -0.00015471994 -6.9027546e-06
4.8642483e-05 -4.0809253e-05 -0.00019911678 -6.78091e-06 -2.5242363e-05 2.5135978e-07 0.00013026991 2.1653419e-05
6.5639965e-06 1.4641729e-05 2.2479217e-05 6.242082e-06 -2.2056247e-05 -7.3505674e-07 -2.7531516e-05 -8.051013e-06
4.9823284e-05 2.8889175e-05 5.2255666e-05 1.5691263e-05 -6.153087e-05 -2.8286222e-06 -4.9070397e-05 -1.9934683e-05
-1.7510208e-27 1.5976397e-27 -2.4486825e-26 2.3364026e-27 4.7272817e-27 1.6965981e-27 1.3596571e-26 -7.695982e-27
00000000: 6b1e f715 304a 5716 7bc9 aa16 5bfc f915
00000010: d198 d995 fa8f b194 cf04 ad96 bbe2 4296
00000020: 16e7 8734 d9fd 3bb4 a7be e2b5 2434 1434
00000030: f212 ce34 2113 1731 606e 3335 4dc7 0fb3
00000040: 755e 0a38 fb41 f1b6 71f9 7a38 6503 cbb7
00000050: 6938 bab8 dc4a d333 b683 0138 2281 a637
00000060: fc95 ef38 d49e e138 2e3a 3339 c966 9038
00000070: a840 08b9 ec7a 15b7 b2fe 61b9 071b afb8
00000080: d0b8 4038 0c20 06b9 2cf3 d0b9 c654 66b8
00000090: 008d 7cb7 5673 9136 8e3a b639 4991 b438
000000a0: a89f 8f30 ee4e 292f dacb a6b0 c29e b72f
000000b0: 7af2 00b0 7228 1bae 8caa 7b2f 7da8 9aaf
000000c0: e058 8538 e7bc 1b38 5a3b 3538 6c35 cf37
000000d0: 9037 75b8 dc2d 69b6 74c9 78b8 b79e efb7
000000e0: b891 3297 333e 5914 ad43 0496 368d 8115
000000f0: 9d0b 6b17 abc3 8014 0004 6c96 c1af ee15
00000100: 3c13 72b7 f87b 46b5 e876 9435 bf78 b234
00000110: 7ecc a937 0c0e d934 c5fb a0b6 aa09 6eb4
00000120: bc1a e837 5e52 b5b7 8c90 b0b8 cf21 0db7
00000130: 30cb cbb7 700a 9634 8a79 9138 745d 7637
00000140: 1adf 15b8 00e5 b1b6 80be 6e36 4050 67b5
00000150: 205e 1838 58f7 5335 c8c3 43b7 906a 1936
00000160: 44db 9eb9 50bf c236 a305 4239 495e 28b7
00000170: dc85 c939 f8b0 3137 513c 22b9 369e e7b6
00000180: 7805 4c38 9a2a 2bb8 01ca 50b9 9387 e3b6
00000190: 90bf d3b7 a0f2 8634 1099 0839 5da4 b537
000001a0: 4d40 dc36 bfa5 7537 c091 bc37 1373 d136
000001b0: 6e05 b9b7 b750 45b5 7bf3 e6b7 d612 07b7
000001c0: 58f9 5038 0857 f237 182d 5b38 bba0 8337
000001d0: 220a 81b8 5cd3 3db6 f0d0 4db8 6839 a7b7
000001e0: ecba 0a93 f727 fd12 7a81 f294 e01b 3913
000001f0: 5544 bb13 196b 0613 67a7 8614 446f 1894

exp_avg_sq f4 [16, 8]
1.2279683e-09 6.9547887e-09 4.1985957e-09 2.2879993e-09 4.3741166e-09 3.0468261e-09 1.806496e-08 1.8087535e-08
2.9184247e-07 1.9641176e-07 1.2162594e-06 1.3101565e-07 4.7114523e-07 5.5732295e-07 5.4148546e-07 1.5315952e-07
5.611169e-07 1.1949505e-06 5.0336246e-07 5.888591e-07 1.3735796e-06 1.8539176e-07 1.613639e-06 4.0498367e-06
3.632306e-06 1.3469622e-06 2.083328e-06 4.843478e-07 5.8402115e-06 1.5426787e-07 2.7693368e-06 3.1620639e-06
1.3817762e-06 8.9494233e-07 6.6072234e-06 2.76073e-07 1.9855852e-06 2.9224937e-08 5.9389886e-06 5.529555e-07
2.2043395e-08 2.6266232e-08 1.0838229e-07 1.13860786e-07 2.1804465e-07 4.7787704e-08 5.1118704e-08 1.1425265e-06
2.659215e-06 1.8477698e-06 1.1599996e-06 5.4107807e-07 5.4412617e-06 2.1582288e-07 1.5676686e-06 3.840773e-06
1.5860617e-07 4.6506102e-08 7.179234e-07 7.2252504e-08 1.4728492e-07 3.153025e-07 3.2403403e-07 4.3944723e-08
5.481797e-08 4.7748694e-07 1.0255204e-06 6.97708e-08 9.4086346e-08 7.383101e-10 1.2224031e-06 9.515642e-07
2.633327e-07 8.7202615e-08 3.534626e-07 2.2645859e-08 5.6285654e-07 8.402877e-08 1.7841607e-07 3.896388e-08
1.3273198e-07 1.2664486e-07 1.3397812e-07 9.024254e-08 1.1280305e-07 3.186941e-08 3.6769336e-07 2.7737718e-07
7.045726e-06 3.4163162e-07 7.1668325e-07 2.2765897e-07 1.2529424e-05 7.919482e-08 1.825033e-06 1.7088324e-06
7.626466e-07 2.211024e-07 1.3378248e-06 1.02227e-07 1.4817983e-06 3.843511e-07 7.0482656e-07 9.989636e-08
1.581033e-07 3.776854e-06 1.2029127e-06 5.2925867e-07 1.3346215e-06 5.7380415e-08 2.184238e-07 3.0952685e-06
9.475827e-07 3.5488372e-07 5.534958e-07 1.6535901e-07 1.6375512e-06 3.8284004e-08 6.088208e-07 1.3259056e-06
2.6372737e-08 7.758605e-09 1.9877872e-07 1.2352392e-08 2.619286e-08 5.036203e-08 7.75473e-08 1.5468242e-08
00000000: 4bc5 a830 f8f6 ee31 3d43 9031 e93a 1d31
00000010: 234b 9631 5560 5131 442d 9b32 e95e 9b32
00000020: 86ae 9c34 41e5 5234 5b3e a335 4fad 0c34
00000030: b5f1 fc34 f19a 1535 995a 1135 2b74 2434
00000040: a99f 1635 3062 a035 ce1e 0735 1712 1e35
00000050: d65b b835 1910 4734 3794 d835 d5e3 8736
00000060: 8bc2 7336 45c9 b435 4dcf 0b36 2104 0235
00000070: 09f7 c336 d4a4 2534 d8d8 3936 d833 5436
00000080: 7875 b935 f83b 7035 9eb3 dd36 2f37 9434
00000090: 1840 0536 510a fb32 8647 c736 d06e 1435
000000a0: f059 bd32 0ea0 e132 cbbf e833 a183 f433
000000b0: a81f 6a34 233f 4d33 9c8d 5b33 e958 9935
000000c0: f774 3236 e300 f835 48b1 9b35 9a3e 1135
000000d0: 1594 b636 f1bc 6734 af68 d235 fddf 8036
000000e0: 554d 2a34 00be 4733 52b7 4035 3c29 9b33
000000f0: 5f25 1e34 d846 a934 e6f6 ad34 bcbd 3c33
00000100: ff70 6b33 a72c 0035 9da4 8935 e7d4 9533
00000110: 840c ca33 f4f1 4a30 7311 a435 fe6e 7f35
00000120: 2c60 8d34 2544 bb33 88c3 bd34 c586 c232
00000130: 3517 1735 4e73 b433 a392 3f34 3d59 2733
00000140: 1785 0e34 e0fb 0734 a0db 0f34 5ccb c133
00000150: 223e f233 c9e0 0833 6467 c534 6eea 9434
00000160: 536a ec36 7e69 b734 1962 4035 6c72 7434
00000170: 7735 5237 d011 aa33 a8f3 f435 095b e535
00000180: adb8 4c35 2a68 6d34 4f8f b335 e387 db33
00000190: 34e2 c635 d058 ce34 5033 3d35 9b86 d633
000001a0: 1bc3 2934 dc75 7d36 c473 a135 6112 0e35
000001b0: 3f21 b335 6f72 7633 e187 6a34 4fb8 4f36
000001c0: 635d 7e35 d986 be34 f193 1435 8a8d 3134
000001d0: d5c9 db35 b56d 2433 d96d 2335 c5f5 b135
000001e0: 438a e232 b54a 0532 e16f 5534 6536 5432
000001f0: b5fe e032 a34d 5833 1488 a633 06df 8432

exp_avg f4 [16]
8.554705e-26 2.6472102e-07 -3.8749782e-05 2.1472675e-05 -4.5496752e-05 2.9234007e-10 1.4021774e-05 2.8879044e-25
5.3834656e-06 -1.1948985e-05 -1.9003674e-06 0.00010571205 -1.39568e-05 -4.7554418e-06 -1.9026629e-07 6.816705e-27
00000000: e2cd d315 fb1e 8e34 4387 22b8 3820 b437
00000010: c4d3 3eb8 35b7 a02f 103f 6b37 acc0 b216
00000020: 9ea3 b436 8078 48b7 2010 ffb5 bab1 dd38
00000030: 0028 6ab7 ef90 9fb6 004c 4cb4 cd04 0714

exp_avg_sq f4 [16]
4.1000088e-09 7.491769e-07 1.0947604e-06 1.2473042e-06 8.367392e-07 1.05526276e-07 2.637914e-06 2.2257792e-07
1.4252302e-07 3.1851118e-07 5.7924765e-08 1.2274502e-06 7.5019943e-07 2.672475e-06 3.3263336e-07 4.1964803e-08
00000000: 0fe0 8c31 0b1b 4935 aeef 9235 0c69 a735
00000010: 489c 6035 af9d e233 0407 3136 c1fd 6e34
00000020: 6e08 1934 d8ff aa34 f4c8 7833 debe a435
00000030: 5061 4935 c558 3336 c894 b234 ca3c 3433

exp_avg f4 [8, 16]
-2.3832322e-27 -6.8450134e-11 -1.2712108e-05 9.5577285e-05 4.9020957e-05 9.046792e-13 5.1445e-05 1.5628984e-27
-1.3327303e-06 1.031845e-05 8.632898e-06 -2.8685441e-05 1.711044e-05 1.5498791e-06 4.5227272e-05 -1.22085136e-29
-1.1459039e-27 -5.106738e-10 2.7829014e-05 0.0001668164 -0.00010976149 -9.280986e-13 6.38833e-05 3.3473972e-26
-6.928325e-06 -2.9256073e-05 2.6211592e-05 3.513595e-05 -4.6403467e-05 2.7765743e-06 7.4018404e-05 1.7243883e-27
-4.6402574e-27 4.1843462e-10 5.853392e-05 0.0003258994 -0.00021670596 2.8815218e-11 0.00012854408 5.2150097e-26
-1.4388283e-05 -5.986757e-05 5.63889e-05 7.071237e-05 -9.344524e-05 1.010391e-05 0.0001467474 2.7778339e-27
3.9016097e-27 3.4896974e-10 2.400227e-06 -7.9540194e-05 -1.2199598e-05 3.935388e-11 -4.1174288e-05 -5.3662113e-27
1.6490139e-06 -1.6880986e-06 -2.8189386e-05 1.2614864e-05 -3.3287652e-06 1.0222311e-05 -3.9430346e-05 5.0372394e-28
6.645684e-27 1.3445952e-09 9.611265e-06 -0.00010871832 -2.808767e-05 3.206008e-11 -6.0604616e-05 -1.2466877e-26
2.367576e-06 -4.0177547e-06 -2.9695857e-06 1.6476535e-05 -6.823371e-06 3.6043193e-06 -5.533026e-05 -5.0946163e-28
3.4920265e-27 8.500622e-10 5.8532355e-06 -8.237097e-05 -1.2051954e-05 1.255223e-11 -4.1798397e-05 -9.7942736e-27
2.0022514e-06 -1.445922e-06 -7.190624e-07 1.0779757e-05 -2.327397e-06 -1.7315609e-08 -3.9438255e-05 -5.191573e-28
7.38168e-28 -1.067908e-09 -7.413929e-05 -0.00039478182 0.0002786715 -5.007117e-11 -0.00014891359 -6.065073e-26
1.7666396e-05 7.5707736e-05 -7.2805225e-05 -8.755637e-05 0.0001183179 -1.5438585e-05 -0.0001738349 -3.6567875e-27
-6.608081e-27 -1.3150305e-09 -1.7376255e-05 7.711669e-05 5.1110987e-05 -6.268683e-11 4.8619193e-05 1.0911012e-27
-1.0358737e-06 1.0249555e-05 1.3449915e-05 -2.9477644e-05 1.6896518e-05 -1.2801091e-05 4.204051e-05 -3.083343e-28
00000000: b1d1 3c93 0086 96ae 1746 55b7 aa70 c838
00000010: da9b 4d38 02a5 7e2b a6c6 5738 b1a6 f712
00000020: 44e0 b2b5 681d 2d37 04d6 1037 84a1 f0b7
00000030: 6488 8f37 7105 d035 6ab2 3d38 3a9e 778f
00000040: 6293 b592 795f 0cb0 5a72 e937 70eb 2e39
00000050: c02f e6b8 479e 82ab 16f9 8538 4dc1 2515
00000060: dc79 e8b6 f06a f5b7 f7e0 db37 f05e 1338
00000070: 58a1 42b8 2f55 3a36 543a 9b38 c09e 0813
00000080: cdd1 b793 7009 e62f 5182 7538 7add aa39
00000090: 903b 63b9 1a76 fd2d cac9 0639 0d1e 8115
000000a0: 3465 71b7 501a 7bb8 1f83 6c38 6a4b 9438
000000b0: 08f8 c3b8 f783 2937 35e0 1939 2a15 5c13
000000c0: 068f 9a13 20d9 bf2f 9613 2136 d1ce a6b8
000000d0: e0ac 4cb7 8814 2d2e 8eb2 2cb8 d993 d493
000000e0: b053 dd35 a092 e2b5 3f78 ecb7 6ea4 5337
000000f0: c063 5fb6 7e80 2b37 0362 25b8 f1a2 1f12
00000100: 9fa1 0314 bdcc b830 1240 2137 b4ff e3b8
00000110: d09d ebb7 7100 0d2e b631 7eb8 94ee 7694
00000120: a5e2 1e36 40d0 86b6 1849 47b6 1737 8a37
00000130: 50f4 e4b6 bce1 7136 6a12 68b8 7074 2192
00000140: 5b55 8a13 cfa9 6930 e966 c436 94be acb8
00000150: c032 4ab7 38d2 5c2d b050 2fb8 defe 4194
00000160: 6b5e 0636 8011 c2b5 9805 41b5 b4da 3437
00000170: 6030 1cb6 6dbd 94b2 816a 25b8 0b87 2492
00000180: 4eef 6912 acc5 92b0 3a7b 9bb8 b8fa ceb9
00000190: a81a 9239 2037 5cae b025 1cb9 f829 9695
000001a0: 4c32 9437 48c5 9e38 02af 98b8 789e b7b8
000001b0: 7021 f838 1c82 81b7 7347 36b9 3bdc 9093
000001c0: f4e2 0294 86bc b4b0 39c3 91b7 b5b9 a138
000001d0: 0160 5638 8cd9 89ae 76ec 4b38 53e4 ac12
000001e0: 5908 8bb5 81f5 2b37 f2a6 6137 c246 f7b7
000001f0: ffbc 8d37 44c4 56b7 a754 3038 1a6e c391

exp_avg_sq f4 [8, 16]
3.01348e-07 1.816985e-08 4.141711e-07 4.8276897e-06 6.067493e-07 1.5007481e-08 3.2925298e-06 3.1023902e-07
7.559917e-08 3.3312307e-07 5.966067e-07 4.1988082e-07 1.3634762e-07 3.6738086e-09 9.507654e-06 3.0530765e-07
2.3186918e-07 5.1357564e-08 9.2575374e-07 4.0816026e-06 2.1582595e-05 5.4402552e-08 3.2484904e-06 5.930564e-07
1.03361096e-07 1.9759034e-06 5.398707e-07 1.2308843e-06 3.02041e-06 4.6822848e-08 5.876386e-06 5.796049e-07
7.60904e-08 5.3926726e-08 1.4767322e-06 9.067693e-06 6.6809735e-05 1.0134175e-07 9.552345e-06 3.9647404e-08
4.0611687e-07 4.2038423e-06 4.4325864e-07 2.8547754e-06 8.830137e-06 6.0032825e-08 1.1821858e-05 3.783475e-08
8.94921e-09 7.774754e-09 8.78764e-08 1.1635026e-06 1.0807289e-06 5.081869e-09 7.299601e-07 6.8812724e-08
3.8085304e-08 1.4263595e-07 6.556097e-08 1.04629606e-07 1.6715053e-07 1.1763655e-08 7.9376923e-07 6.673646e-08
3.357248e-07 8.757551e-08 7.899565e-07 1.1310674e-05 3.2715177e-06 4.6040117e-08 5.19292e-06 2.4524873e-06
1.5818468e-07 2.6317916e-06 5.4900926e-07 8.5899956e-07 9.819913e-07 1.4060322e-07 1.0874518e-05 2.4060898e-06
3.3248452e-07 1.8282247e-08 5.7319994e-07 5.2282903e-06 2.0008392e-06 4.0563414e-08 3.5341995e-06 4.2364104e-07
1.2588072e-07 5.5703276e-07 6.249923e-07 6.9628004e-07 3.74307e-07 5.5236846e-08 1.0261936e-05 4.1688256e-07
2.2367605e-07 1.7048974e-07 3.3056056e-06 1.3423977e-05 9.5057665e-05 1.893886e-07 1.3024482e-05 7.365542e-07
4.2462617e-07 6.4708847e-06 9.914605e-07 4.9706246e-06 1.2502681e-05 3.352357e-07 1.8425142e-05 7.169088e-07
6.6844024e-08 1.5116304e-07 7.4491663e-07 1.3212923e-05 8.113118e-07 1.1233127e-08 3.7806712e-06 4.1225726e-06
1.47778e-07 4.0888017e-06 9.7991276e-08 4.715661e-07 9.791689e-07 2.412857e-07 4.8177785e-06 4.0372865e-06
00000000: f4c8 a134 ec13 9c32 3e5b de34 8afd a136
00000010: 7fdf 2235 cde9 8032 3bf5 5c36 ed8e a634
00000020: 1559 a233 16d8 b234 8026 2035 fb6b e134
00000030: f366 1234 5376 7c31 1083 1f37 2ae9 a334
00000040: b7f7 7834 3d94 5c33 5081 7835 b3f4 8836
00000050: 450c b537 3da8 6933 a400 5a36 8732 1f35
00000060: 5df7 dd33 c399 0436 a2eb 1035 dd34 a535
00000070: 40b2 4a36 441a 4933 c52d c536 2596 1b35
00000080: 2467 a333 109d 6733 2234 c635 7221 1837
00000090: 341c 8c38 37a1 d933 0243 2037 c848 2a33
000000a0: 4708 da34 bb0e 8d36 01f9 ed34 ab94 3f36
000000b0: 2625 1437 65eb 8033 7e56 4637 bf7f 2233
000000c0: 0bbf 1932 bb91 0532 90b6 bc33 a529 9c35
000000d0: 900d 9135 989c ae31 7af2 4335 32c6 9333
000000e0: 3c93 2333 7927 1934 86ca 8c33 bcb0 e033
000000f0: fd79 3334 1a19 4a32 6813 5535 c250 8f33
00000100: aa3d b434 2511 bc33 660d 5435 fac2 3d37
00000110: 3f8c 5b36 a5bd 4533 d83e ae36 6995 2436
00000120: 79d9 2934 d69d 3036 a15f 1335 0096 6635
00000130: f7cc 8335 b8f8 1634 b371 3637 4f78 2136
00000140: 5380 b234 160b 9d32 00de 1935 ac6e af36
00000150: 2846 0636 f237 2e33 162d 6d36 c870 e334
00000160: d429 0734 0087 1535 25c5 2735 00e8 3a35
00000170: 5df4 c834 8e3d 6d33 ae2a 2c37 e7cf df34
00000180: 9b2b 7034 dd0f 3734 dfd5 5d36 8b37 6137
00000190: b259 c738 be5a 4b34 b983 5a37 9fb7 4535
000001a0: 2df8 e334 7a20 d936 5312 8535 57c9 a636
000001b0: 9bc2 5137 72fa b334 b18f 9a37 9971 4035
000001c0: e48b 8f33 614f 2234 48f6 4735 12ad 5d37
000001d0: ecc8 5935 d1fb 4032 70b7 7d36 a154 8a36
000001e0: e8ac 1e34 8a32 8936 466f d233 8d2b fd34
000001f0: fd6b 8335 0e8a 8134 67a8 a136 0778 8736

exp_avg f4 [8]
4.490562e-06 5.478818e-06 1.0025207e-05 -4.398754e-06 -4.7100984e-06 -3.268663e-06 -1.1725242e-05 4.1081757e-06
00000000: a2ad 9636 b0d6 b736 f031 2837 0299 93b6
00000010: 700b 9eb6 345b 5bb6 88b7 44b7 f6d8 8936

exp_avg_sq f4 [8]
7.152861e-07 1.1635884e-06 6.323109e-07 1.2952097e-07 3.6525898e-06 9.3531696e-07 2.087371e-06 5.661507e-06
00000000: 1602 4035 982c 9c35 13bc 2935 7412 0b34
00000010: 041f 7536 7e12 7b35 c314 0c36 faf7 bd36

exp_avg f4 [8]
-5.7166675e-05 0.0002161877 -0.00021594696 3.0724295e-05 0.00033111544 1.3454432e-05 -0.00010326501 9.361247e-05
00000000: 40c6 6fb8 72b0 6239 d26f 62b9 f6dd 0038
00000010: 9099 ad39 58ba 6137 fb8f d8b8 d051 c438

exp_avg_sq f4 [8]
9.612893e-06 1.2455753e-05 2.6383694e-05 5.8842465e-06 3.278598e-05 2.2917086e-06 2.1476495e-05 2.7516076e-06
00000000: 1047 2137 0df9 5037 8d52 dd37 4b71 c536
00000010: ae83 0938 41cb 1936 6c28 b437 42a8 3836

exp_avg f4 [8]
1.0965799e-05 -2.5490706e-05 -0.00025933213 -7.6401804e-05 -9.985582e-06 5.2268275e-05 0.00014464825 -7.185608e-05
00000000: c0f9 3737 e0d4 d5b7 f8f6 87b9 e839 a0b8
00000010: c087 27b7 a23a 5b38 b8ac 1739 70b1 96b8

exp_avg_sq f4 [8]
9.188548e-06 2.3300448e-05 0.00011347405 5.2664973e-06 1.722367e-05 2.7144715e-06 7.557209e-05 7.9879155e-06
00000000: 8328 1a37 5575 c337 ebf8 ed38 deb6 b036
00000010: 8d7b 9037 442a 3636 757c 9e38 d603 0637

exp_avg f4 [8]
-1.0173626e-06 3.4042954e-05 0.00014452648 3.054252e-05 -1.9902382e-07 1.3631293e-06 0.00018766045 -1.0124313e-07
00000000: 508c 88b5 58c9 0e38 088c 1739 c81a 0038
00000010: 40b3 55b4 c4f4 b635 b8c6 4439 006b d9b3

exp_avg_sq f4 [8]
1.9399557e-05 3.9564733e-05 7.512819e-05 7.206706e-05 7.0731153e-06 8.066673e-06 0.0002357331 3.003141e-06
00000000: 3bbc a237 4ff2 2538 248e 9d38 b522 9738
00000010: 9955 ed36 1956 0737 1f2f 7739 9289 4936

exp_avg f4 [8]
2.3671873e-07 -9.1902446e-05 -0.00018825242 3.4492754e-05 -4.020785e-08 1.4247266e-06 0.00025154278 6.2254685e-08
00000000: c02c 7e34 c0bb c0b8 a065 45b9 50ac 1038
00000010: 00b1 2cb3 3c39 bf35 80e1 8339 e0b0 8533

exp_avg_sq f4 [8]
2.4216943e-05 0.00022250903 0.00039452536 4.297325e-05 1.4480469e-05 3.59384e-05 0.0004374261 6.0994544e-06
00000000: 7d25 cb37 5051 6939 4cd8 ce39 2d3e 3438
00000010: 24f1 7237 90bc 1638 5656 e539 eaa9 cc36

exp_avg f4 [1, 8]
-2.380164e-05 -0.00024668686 -0.00049084704 -2.1734275e-05 -1.3174191e-05 -2.489292e-05 0.0005598306 -5.5812905e-07
00000000: a2a9 c7b7 c055 81b9 30ac 00ba 0052 b6b7
00000010: b806 5db7 23d1 d0b7 98c1 123a 56d2 15b5

exp_avg_sq f4 [1, 8]
0.00029656428 0.0005408064 0.00086791196 0.0012087033 0.00022089315 0.00023404942 0.0020905037 0.0003804208
00000000: 2f7c 9b39 e7c4 0d3a 9684 633a 5a6d 9e3a
00000010: 8e9f 6739 2a6b 7539 d500 093b 3773 c739
