notebooks/lightning_logs/version_72/checkpoints/epoch=149-step=900.ckpt (torch, 22619 bytes, 30 tensors)

front_linear.weight f4 [8, 2]
0	0xbdbaa662	-0.09113766
1	0x3d8ae012	0.06781019
2	0x40632a64	3.5494623
3	0x401626af	2.346111
4	0x40263a8f	2.5973241
5	0xbf342469	-0.7036806
6	0x3fc28f2c	1.5199943
7	0x4045526f	3.0831563
8	0x3f831b6c	1.0242743
9	0xbb2f593d	-0.002675607
10	0xbf890a25	-1.0706221
11	0x3e39fba0	0.18162394
12	0xc0753837	-3.831556
13	0xc0153088	-2.331087
14	0xc0a52d82	-5.161805
15	0x3cb90d84	0.022589453

front_linear.bias f4 [8]
0	0xbf66cfb8	-0.90160704
1	0xbfe28bb5	-1.7698885
2	0x3e2e89b1	0.17044713
3	0xbfcefada	-1.6170304
4	0x3f7c9ec7	0.98679775
5	0x3f70663d	0.93906003
6	0x3fb8c613	1.4435447
7	0x3f0fce86	0.56174505

transformer_encoder.layers.0.self_attn.qkv_proj.weight f4 [24, 8]
0	0xc017be0c	-2.3709745
1	0x3ff517b2	1.9147856
2	0xbe2d2228	-0.16907561
3	0x3fbb22aa	1.4619954
4	0xbfff7cc8	-1.9959955
5	0x3fa54b4d	1.2913605
6	0xbf40746d	-0.7517765
7	0x3f0e64a7	0.55622333
8	0x4053e438	3.3108044
9	0x3f862a84	1.0481725
10	0xbfdc386a	-1.7204716
11	0x3f3be05d	0.73389226
12	0xbf90e1a7	-1.1318864
13	0xbfc48ebd	-1.535606
14	0xbf883212	-1.064028
15	0x3f9acb99	1.2093383
16	0x405fee0f	3.498905
17	0x3eff84b0	0.4990592
18	0xbff737a8	-1.931386
19	0x3f3cf603	0.73812884
20	0xbf8e4f9b	-1.1118044
21	0xbfa8070c	-1.312715
22	0xbf19b790	-0.6004572
23	0x3f9caed5	1.2240855
24	0x4058ca15	3.387334
25	0x3f81e53e	1.0148084
26	0xbf9daa93	-1.231768
27	0x3f5b0cde	0.8556651
28	0xbf51e2c5	-0.8198665
29	0xbfa0ab83	-1.2552341
30	0xbfb5ff81	-1.4218599
31	0x3fda4f04	1.7055364
32	0x407fed3a	3.9988542
33	0x3e5787ac	0.21047848
34	0xbfe2e9a7	-1.7727555
35	0x3e9e2b26	0.30892295
36	0xbf90fc68	-1.1327028
37	0xbfe89d4d	-1.8173004
38	0xbed21c6e	-0.41037315
39	0x40110ed0	2.266529
40	0x4051adb3	3.2762268
41	0x3d3ceaed	0.04612248
42	0xbfc34c3f	-1.5257643
43	0x3f3801e9	0.71877915
44	0xbf142a7f	-0.57877344
45	0xbfded511	-1.7408773
46	0xbf25bc4c	-0.64740443
47	0x3feedba3	1.8660778
48	0x40668f86	3.60251
49	0x3ec19839	0.3781145
50	0xbfd58f42	-1.6684344
51	0x3e19ed3d	0.15031905
52	0xbf62e713	-0.8863384
53	0xbfd5185d	-1.664806
54	0xbf290c82	-0.6603471
55	0x4010e707	2.2641008
56	0x407d82bb	3.9611042
57	0xbf08cfcd	-0.5344208
58	0xc029c4e1	-2.6526415
59	0xbf31125a	-0.6916863
60	0xc006c318	-2.1056576
61	0xbffbcf73	-1.9672683
62	0x3f19e4d6	0.601148
63	0x4036eed5	2.8583272
64	0x40095092	2.1455426
65	0xc08816bf	-4.2527766
66	0x3ed76c6f	0.42074916
67	0xc06bb593	-3.6829574
68	0xbefbb6d2	-0.49162918
69	0x3f25fdec	0.6484058
70	0x40d06a7e	6.5129995
71	0x3f97efc6	1.1870048
72	0xbf8b7d2b	-1.0897573
73	0xc00885fb	-2.1331775
74	0x3dc38b3b	0.095480405
75	0xbf09f1f8	-0.5388484
76	0xbe129d13	-0.14317732
77	0x3f699ddb	0.91256493
78	0x403cb7d0	2.948719
79	0x3f306044	0.6889689
80	0x3fc94f57	1.5727338
81	0xc0ffb6b2	-7.9910517
82	0xc04fc5dc	-3.2464514
83	0xc0c9350b	-6.287725
84	0xc06ae534	-3.6702394
85	0xbf553242	-0.8327981
86	0x4158785f	13.529387
87	0x40d3c2a4	6.61751
88	0x3e349706	0.17635736
89	0xbf16cbe7	-0.5890488
90	0x3f429834	0.76013494
91	0xbf37b723	-0.7176382
92	0xbd9bc590	-0.076060414
93	0xbf668c60	-0.90057945
94	0x3f7935ee	0.97347915
95	0xbea66e36	-0.3250596
96	0x40a50cf9	5.1578336
97	0x40678d75	3.6180089
98	0xc010d37c	-2.262908
99	0x40dc7785	6.88959
100	0xc01bd542	-2.4348912
101	0xc0925e35	-4.574
102	0xc0a15d67	-5.0426517
103	0x4006c656	2.1058555
104	0x409b010f	4.843879
105	0x40703cd0	3.7537117
106	0xbffae039	-1.9599677
107	0x40d10c13	6.532724
108	0xc0111d9f	-2.267433
109	0xc090b574	-4.52215
110	0xc07b0e45	-3.922746
111	0x3fe26869	1.7688113
112	0x40297e40	2.6483307
113	0x4039e71e	2.9047313
114	0xc01a77bb	-2.4135578
115	0x4094fce5	4.655871
116	0xbf71f5ed	-0.9451588
117	0xbe9750cc	-0.2955383
118	0xc05967e9	-3.3969672
119	0x4022d48a	2.5442224
120	0xbf047261	-0.5173703
121	0xc083c401	-4.1176763
122	0xbe540253	-0.20704012
123	0xc08c390b	-4.3819633
124	0xbf42f38e	-0.76152885
125	0xbe0f331b	-0.13984339
126	0x40cd6b20	6.419327
127	0x3ec6e179	0.38843897
128	0xbec7a5cf	-0.3899369
129	0x3e83e699	0.2576187
130	0xbdd5d958	-0.10441846
131	0xbe870994	-0.26374495
132	0x3f52d78b	0.8236014
133	0x3f4db1b0	0.80349255
134	0xbe1db4d7	-0.15401016
135	0x3d61ee99	0.055159185
136	0xbf14b7d6	-0.5809301
137	0xc03a98e5	-2.915582
138	0xbe626585	-0.22109039
139	0xc0140468	-2.312769
140	0x3fe87464	1.816052
141	0x3fe87071	1.8159314
142	0x4048c23f	3.1368558
143	0x3f7c03fb	0.98443574
144	0x3ef9bd60	0.48777294
145	0xc020aa98	-2.5104122
146	0xbf7ef3c4	-0.99590707
147	0xc00fdd27	-2.247873
148	0xbd31a6f5	-0.043372113
149	0x3ee041b3	0.43800125
150	0x4078e897	3.8891962
151	0x401f3a74	2.4879427
152	0xbf96bfa8	-1.1777239
153	0x3f3ff33e	0.74980533
154	0x3fc5f05b	1.5463976
155	0x3f98468d	1.189653
156	0x40664a59	3.5982878
157	0x402dedec	2.7176466
158	0xc0787bf9	-3.8825667
159	0xbf84dc81	-1.0379792
160	0xbf854794	-1.0412469
161	0xbf2ceec2	-0.67551816
162	0x3e584e4a	0.21123615
163	0xbe5c2337	-0.21497808
164	0x3ded6c90	0.11592972
165	0x3f103fd0	0.5634737
166	0x3ece72fe	0.40322107
167	0x3aecf1ee	0.0018077472
168	0xbe764c17	-0.24052463
169	0xbe8b3907	-0.27191946
170	0xbf35f27a	-0.71073115
171	0xbf4fd931	-0.8119078
172	0xbf09480b	-0.53625554
173	0xbece6b14	-0.4031607
174	0x3eb94eea	0.3619302
175	0x3ead555c	0.33854187
176	0x3f77bcbe	0.9677237
177	0x3ffcb95e	1.974407
178	0xbf9dfbc5	-1.2342459
179	0x401c8f80	2.4462585
180	0x3f11b44d	0.5691574
181	0xbdcc2db4	-0.09969655
182	0xc007b637	-2.1204965
183	0x3e8d165b	0.27556118
184	0x3f2ccb31	0.67497545
185	0xbf9cbadc	-1.2244525
186	0xbb0074af	-0.00196008
187	0xbe6148dc	-0.2200045
188	0x3eef84e9	0.4678109
189	0x3f7565d8	0.95858526
190	0x3f957fc9	1.1679622
191	0x3ce88421	0.028383316

transformer_encoder.layers.0.self_attn.o_proj.weight f4 [8, 8]
0	0xbffe9bb5	-1.9891268
1	0x3da8a289	0.08234126
2	0x3f0f7f32	0.5605346
3	0x3e920b20	0.28524113
4	0x3f27ea7b	0.65592164
5	0xbd90d9ed	-0.07072816
6	0xbbfa90af	-0.007646642
7	0x3f87ca2d	1.0608574
8	0xbfcea164	-1.6143003
9	0x3ee017a6	0.43768042
10	0x3f632cda	0.88740313
11	0x3f68da76	0.90958345
12	0x3fbe3b9c	1.4861941
13	0x3f6002ab	0.8750407
14	0x3fe16357	1.7608441
15	0x3fb3cba4	1.4046521
16	0x40361cb6	2.8455024
17	0xbf494134	-0.7861512
18	0xbf92fcf4	-1.1483445
19	0xbd82fbc4	-0.06395677
20	0xbf5ad67b	-0.8548352
21	0xbf841790	-1.0319691
22	0xbf2465d0	-0.64217854
23	0x3f98ccdf	1.1937522
24	0xbe2d4112	-0.16919354
25	0xbe973fec	-0.29540956
26	0xbe6f1ecb	-0.2335159
27	0xbeb6b7d6	-0.3568713
28	0x3f04d88f	0.5189294
29	0x3e286d34	0.16447908
30	0x3eeb3d4b	0.459452
31	0x3fc0bc9f	1.5057563
32	0x40796a78	3.8971233
33	0xbd265ee3	-0.040617835
34	0xbfa369d6	-1.2766674
35	0xc009a62d	-2.1507676
36	0xc009c4f5	-2.1526463
37	0xc01acb17	-2.4186456
38	0xc010637b	-2.2560718
39	0xbf088d1d	-0.5334032
40	0xbfe9efe9	-1.827634
41	0xbf27cbe0	-0.65545464
42	0x3ee7d9c3	0.45283327
43	0x3e49f518	0.19722402
44	0xbe18e775	-0.14932044
45	0xbe3e26af	-0.18569444
46	0x3f8792e6	1.0591705
47	0x400c4405	2.1916516
48	0xbf8474a1	-1.0348092
49	0x3d7d614a	0.06186036
50	0x3f176a1d	0.5914629
51	0x3ee2694b	0.44220957
52	0x3ef435c6	0.47697276
53	0x3ea5918e	0.32337612
54	0xbef7c9c8	-0.48396134
55	0xbfc1c0e4	-1.513699
56	0xbf8817d3	-1.063227
57	0x3dff3dee	0.12462984
58	0xbdd49d90	-0.10381615
59	0x3f1362c5	0.57572585
60	0x3ed8cae8	0.42342305
61	0xbed8ee37	-0.42369244
62	0xbf7c987c	-0.9867017
63	0xbfe358fd	-1.7761532

transformer_encoder.layers.0.self_attn.o_proj.bias f4 [8]
0	0xbeb3c836	-0.35113686
1	0xbf8170c8	-1.0112543
2	0x3f1584ce	0.5840577
3	0xbe9b3b54	-0.303187
4	0x3f725bc2	0.9467126
5	0xbf2534d8	-0.6453376
6	0xbeee7553	-0.46573886
7	0xbe068341	-0.13136007

transformer_encoder.layers.0.linear_net.0.weight f4 [16, 8]
0	0x3e67f184	0.22650725
1	0xbe30947f	-0.17244147
2	0xbfaec8a1	-1.3654977
3	0xbf30f8d4	-0.6912968
4	0xbf9594c3	-1.1686023
5	0xbea11b53	-0.3146616
6	0x3f9f81e0	1.246151
7	0x3fda0e95	1.70357
8	0x400c4a05	2.1920178
9	0xbdc0af62	-0.094084516
10	0xbf5410d6	-0.8283819
11	0x3f38633f	0.7202644
12	0x3edae18e	0.4275021
13	0xbf7549b2	-0.95815575
14	0xbeeca39b	-0.4621857
15	0x3f91ad62	1.1381037
16	0x400cc4f9	2.1995223
17	0xbf80e5fc	-1.0070186
18	0xbecce36e	-0.40017265
19	0xbebc1d21	-0.36740974
20	0x3f576eee	0.8415364
21	0x3f3df49f	0.7420139
22	0xbd030f6d	-0.031997133
23	0x3e86f41e	0.26358122
24	0x3eb510ad	0.35364285
25	0xbf296793	-0.66173667
26	0xbed562e8	-0.41677022
27	0xbf3991a9	-0.72487885
28	0xbefb1fa2	-0.4904757
29	0x3e21bf40	0.15795612
30	0x3f64811e	0.8925952
31	0x3f5051bb	0.8137471
32	0xbf9f6c6f	-1.2454966
33	0xbfb8da9e	-1.4441717
34	0xc000d64f	-2.0130804
35	0xbfa81f8a	-1.3134625
36	0xbfd41b8c	-1.6570907
37	0xbff51c0d	-1.9149185
38	0x3fc61d2e	1.5477655
39	0x401ca0ea	2.4473214
40	0x3f804052	1.0019629
41	0xbfb445d9	-1.4083816
42	0xbfc29541	-1.5201799
43	0xbfbf3f29	-1.494115
44	0x3f10ce25	0.5656455
45	0xbeee3809	-0.46527126
46	0x3f99b9b1	1.2009794
47	0x406e5840	3.7241364
48	0x3f9846f3	1.1896652
49	0xbf407c90	-0.7519007
50	0xbe8af412	-0.27139336
51	0xbd25831c	-0.04040824
52	0x3ebb1480	0.36539078
53	0xbefff0d3	-0.49988422
54	0x3e2522e3	0.1612659
55	0x3f4722a7	0.7778725
56	0x3f7884cb	0.97077626
57	0xbf41bb1b	-0.75676125
58	0xbf0b50e5	-0.5442031
59	0x3f7bb61a	0.9832474
60	0xbccc033a	-0.024903882
61	0xbf72de38	-0.9487033
62	0xbcfba5de	-0.03071874
63	0x3f9ef73b	1.2419199
64	0x3fc22105	1.5166327
65	0xbfaea894	-1.3645196
66	0xbf55d526	-0.83528364
67	0xbf1ddb49	-0.6166273
68	0xbdd2684a	-0.10273798
69	0xbfbfa557	-1.4972333
70	0x3fc87c33	1.5662903
71	0x3fdab0b5	1.7085177
72	0x3fc70514	1.5548425
73	0xbf9d286c	-1.2277961
74	0xbe9c73c1	-0.30557063
75	0xbf1e0c9a	-0.6173798
76	0x3ea76dea	0.32701045
77	0xbf1fefe7	-0.62475437
78	0x3f2dd749	0.67906624
79	0x3f1c67f3	0.61096114
80	0x40105b24	2.2555628
81	0xbead58a3	-0.33856687
82	0xbf834542	-1.0255511
83	0xbd19ed2d	-0.037579704
84	0xbf3caf10	-0.73704624
85	0xbf75c1bd	-0.95998746
86	0x3f63b4ad	0.88947564
87	0x3f588bbf	0.84588236
88	0x4019cafd	2.4030144
89	0xbf82ff17	-1.0234097
90	0xbf4635d1	-0.7742587
91	0x3d9e6b34	0.07735291
92	0xc0122729	-2.2836401
93	0x3f161851	0.58630854
94	0xbda0c9a5	-0.07850961
95	0x402179b4	2.5230532
96	0x3f905da4	1.1278577
97	0xc00aad44	-2.1668253
98	0xbfec6502	-1.8468325
99	0x3e647361	0.22309639
100	0x3e9fc7a0	0.3120699
101	0xbfa8e458	-1.3194685
102	0x3f36102c	0.71118426
103	0x405bc294	3.433751
104	0x3ed54ba5	0.41659275
105	0xbf5911c1	-0.84792715
106	0xc0265934	-2.5991945
107	0x3ebca90b	0.3684772
108	0xbf96f514	-1.1793542
109	0xbed164a5	-0.40897098
110	0x3fc9dd6b	1.5770696
111	0x3f86f397	1.0543088
112	0x3f3cda3f	0.7377052
113	0xbf3fb2a4	-0.7488196
114	0xbf7c373e	-0.9852179
115	0xbedfeda0	-0.4373598
116	0xbf2db14a	-0.67848647
117	0x3f32350c	0.69612193
118	0x3fafdc75	1.3739153
119	0x3f641aed	0.89103585
120	0x3f960611	1.1720601
121	0x3e83e4bf	0.25760457
122	0xbf0f2b69	-0.55925614
123	0x3f227fb2	0.634761
124	0xbce2826d	-0.027650082
125	0xbf6c1592	-0.92220414
126	0x3c28e5ec	0.010308724
127	0x3f8a0a84	1.0784459

transformer_encoder.layers.0.linear_net.0.bias f4 [16]
0	0xbf883a76	-1.0642841
1	0xc00203c3	-2.0314796
2	0xc03aed22	-2.9207234
3	0xbe3f34f9	-0.18672551
4	0x402f5614	2.7396288
5	0xc038e487	-2.8889482
6	0xbf0870f6	-0.53297365
7	0xc0177c73	-2.3669708
8	0xbf44fd49	-0.7694898
9	0xbf9d4b26	-1.2288558
10	0xc03a5316	-2.9113212
11	0xc09af99f	-4.8429713
12	0xbff63871	-1.9235975
13	0xbf9b9ae2	-1.2156641
14	0xbf05cc6b	-0.5226504
15	0xc0135ff3	-2.3027313

transformer_encoder.layers.0.linear_net.3.weight f4 [8, 16]
0	0xbee69257	-0.45033523
1	0xc00b8a8a	-2.1803308
2	0x3ee798b3	0.45233688
3	0xbf5bca93	-0.8585598
4	0xbf9ca452	-1.2237647
5	0xbf5eaf4e	-0.86986244
6	0xbf67940c	-0.90460277
7	0xbf49de9d	-0.78855306
8	0x3ee0bb98	0.43893123
9	0xbf89194f	-1.0710849
10	0xbfe1dbdd	-1.7645222
11	0xbeba6ec3	-0.3641263
12	0x3eee6f12	0.46569115
13	0xbd33a329	-0.043856774
14	0xbead6ffe	-0.33874506
15	0xbfa32b33	-1.2747558
16	0xbfa92559	-1.3214523
17	0xbf7de4df	-0.99177355
18	0xbe09562c	-0.13411778
19	0xbe515e06	-0.20446023
20	0xbffa3097	-1.9546078
21	0xbf14a170	-0.58058834
22	0xbf94055f	-1.1564139
23	0x3f70b4ff	0.9402618
24	0x3f8bb175	1.091353
25	0xbf6789c6	-0.904446
26	0xbe653c73	-0.22386341
27	0xbec0d395	-0.37661424
28	0xbdd458d5	-0.10368506
29	0xbf2bc53b	-0.67097825
30	0xbee1cad2	-0.44100052
31	0xbed501fc	-0.41603076
32	0xbf8d862d	-1.1056572
33	0x3ed7a9f6	0.42121857
34	0xbf44128b	-0.76590794
35	0xbf0a7c15	-0.54095584
36	0xbf6c94b0	-0.9241438
37	0x3fddad21	1.731846
38	0xbf596f42	-0.8493539
39	0x3f135e24	0.5756552
40	0xbf91d6db	-1.1393694
41	0xbf166a6b	-0.5875613
42	0xbed6d395	-0.419583
43	0x40157916	2.3355155
44	0xc004d357	-2.0753992
45	0xbf473258	-0.77811193
46	0xbed4f6fe	-0.4159469
47	0xbcd7cccd	-0.026342774
48	0xbf8a6c3a	-1.0814278
49	0xbf72f447	-0.9490399
50	0xbf039c13	-0.51410025
51	0xbf1ca24f	-0.61185163
52	0xbfcb75b8	-1.58953
53	0xbdfde54b	-0.1239725
54	0xbf652849	-0.89514595
55	0xbf4a6269	-0.7905641
56	0xbf282e6c	-0.65695834
57	0xbf0918df	-0.53553575
58	0xbf8df8d9	-1.1091567
59	0xbc202c2b	-0.009776155
60	0xbe9f2f13	-0.31090602
61	0xbf643b32	-0.89152825
62	0xbf141604	-0.57846093
63	0xbd9cc1c0	-0.076541424
64	0xbf8a8781	-1.0822603
65	0xbed37707	-0.41301748
66	0xbfc3475c	-1.5256152
67	0x3f2a8f8c	0.66625285
68	0x3f2ab2c5	0.6667903
69	0x3fdd07a3	1.7267956
70	0xbdcf7ae7	-0.10130864
71	0x3e5ab925	0.2135969
72	0xbfdb929b	-1.7154115
73	0x3e3df81c	0.18551677
74	0x3e3ee153	0.18640642
75	0x3fb038db	1.3767351
76	0xbfb87cc4	-1.4413075
77	0xbec1904d	-0.37805405
78	0xbf3031b4	-0.6882584
79	0xbd071a31	-0.032983962
80	0xbebf1a61	-0.37324813
81	0x3eeb9f5c	0.4602002
82	0x3ea6fa4a	0.3261283
83	0x3efa867e	0.48930734
84	0xbfdccf97	-1.7250851
85	0xbf8bfaab	-1.0935873
86	0x3f89c753	1.0763954
87	0x3e9c8797	0.30572197
88	0xbee59c9d	-0.4484605
89	0x3f53ddf8	0.8276057
90	0x3f64630b	0.8921363
91	0xbf7e1496	-0.9925016
92	0x3ff04d64	1.8773618
93	0xbe215382	-0.15754512
94	0x3e767262	0.24067071
95	0x3f869700	1.0514832
96	0x3f89a141	1.0752336
97	0x3e1cdbe7	0.15318261
98	0x3eb4f834	0.35345614
99	0x3e35eda5	0.17766435
100	0x3fc85903	1.5652164
101	0x3f188b7a	0.59587824
102	0x3f34cc7e	0.7062453
103	0xbf29077d	-0.6602705
104	0x3e81c834	0.25348055
105	0x3f341ac2	0.7035333
106	0x3f3eff5a	0.74608386
107	0x3ed03f63	0.4067336
108	0x3f9f8918	1.2463713
109	0x3f1e988e	0.6195153
110	0x3f0edec6	0.55808675
111	0x3d912140	0.0708642
112	0x3fac1d10	1.3446369
113	0x3ef1cd03	0.47226724
114	0x3f5a5ad3	0.85294837
115	0x3ee08a46	0.43855494
116	0x3f9e2514	1.2355065
117	0x3f26ac1e	0.6510638
118	0x3f58ac0a	0.8463751
119	0xbf379910	-0.7171793
120	0xbe0c4c67	-0.1370102
121	0x3eaa3197	0.3324096
122	0x3ce0bfd7	0.027435226
123	0x3e80d392	0.25161415
124	0x3f881ab9	1.0633155
125	0x3f12d5f9	0.57357746
126	0x3ec2021b	0.3789223
127	0x3ea0026a	0.31251842

transformer_encoder.layers.0.linear_net.3.bias f4 [8]
0	0x3f731168	0.94948435
1	0xbf07e2b3	-0.5308029
2	0xbf52f64b	-0.82407063
3	0xbebea27b	-0.37233338
4	0x3e9c2069	0.30493477
5	0xbf881ad9	-1.0633193
6	0x3f812653	1.0089821
7	0x3f8434ce	1.0328615

final_linear.weight f4 [1, 8]
0	0xbd0ac0a9	-0.03387514
1	0xbf1b001a	-0.6054703
2	0x3dcb8dbc	0.09939143
3	0xbd2affc6	-0.04174783
4	0x3faa8c9e	1.3324163
5	0x3daea525	0.085275926
6	0x3d303efb	0.043028813
7	0x3dfc10fa	0.123079255

exp_avg f4 [8, 2]
0	0xb94cf01e	-0.00019544407
1	0xb9682a60	-0.0002214103
2	0xb9583a4e	-0.00020621085
3	0xba292e7a	-0.0006453764
4	0xb9aa3ebc	-0.00032471668
5	0x39b4e4a8	0.00034502638
6	0x3a07924a	0.000517164
7	0xb9eddb67	-0.0004536763
8	0x39395c9c	0.00017677475
9	0x387bb100	6.0007907e-05
10	0x3a07305d	0.0005157048
11	0x39295840	0.00016149972
12	0x39815ac4	0.00024672423
13	0x3a96514c	0.001146832
14	0x39ee45f7	0.00045447025
15	0xb8a00ee2	-7.632167e-05

exp_avg_sq f4 [8, 2]
0	0x380f1bd7	3.4119785e-05
1	0x38b8633d	8.792288e-05
2	0x3864031f	5.4362343e-05
3	0x39b17226	0.00033845118
4	0x38163085	3.5807974e-05
5	0x393ccd1a	0.00018005483
6	0x3877319e	5.89356e-05
7	0x394c3f3c	0.00019478513
8	0x37e25ee4	2.6985486e-05
9	0x39b1c93e	0.00033910008
10	0x38b3682a	8.554787e-05
11	0x3a7fa5ab	0.00097521645
12	0x38dea801	0.00010617078
13	0x39fdd41c	0.00048413954
14	0x37a30974	1.9435516e-05
15	0x3907d972	0.00012955608

exp_avg f4 [8]
0	0xb910d250	-0.00013811258
1	0xb9ad1b68	-0.0003301755
2	0x39625250	0.00021583703
3	0x3a3e781e	0.00072658237
4	0xba099760	-0.0005248692
5	0xb95e3f40	-0.00021195132
6	0x3a9c020f	0.0011902469
7	0x3983c1af	0.00025130573

exp_avg_sq f4 [8]
0	0x39d8e36f	0.00041368182
1	0x3acb119b	0.0015492918
2	0x3a588beb	0.00082605955
3	0x3a67de66	0.00088450906
4	0x3ac7563a	0.0015208193
5	0x3b936281	0.0044978266
6	0x3b134124	0.0022469247
7	0x3a1b9c0d	0.0005936034

exp_avg f4 [24, 8]
0	0xb954a206	-0.00020278254
1	0xb82764c8	-3.9909763e-05
2	0x385faed2	5.3330157e-05
3	0xb7a44601	-1.9582922e-05
4	0x397513fa	0.00023372463
5	0x393bc2ae	0.00017906234
6	0xb7e484cc	-2.7241556e-05
7	0xb8409248	-4.5912602e-05
8	0x379b11bc	1.8485698e-05
9	0x367153d0	3.5960584e-06
10	0xb62f91d2	-2.616191e-06
11	0xb339e480	-4.328149e-08
12	0xb7bbb56c	-2.2376618e-05
13	0xb792b270	-1.7487648e-05
14	0x362cc8c4	2.5746858e-06
15	0x3627d720	2.5010158e-06
16	0x37d175f4	2.4969668e-05
17	0x357fb980	9.526484e-07
18	0xb7046767	-7.891888e-06
19	0xb3ee3280	-1.10919245e-07
20	0xb8048fcc	-3.1605174e-05
21	0xb7b4ee38	-2.1568601e-05
22	0x3700da72	7.680255e-06
23	0x373c5dfe	1.12275575e-05
24	0x37b45a48	2.1499713e-05
25	0x35760900	9.165524e-07
26	0xb6fc12a7	-7.5123567e-06
27	0x3639ecb4	2.7704928e-06
28	0xb7de4d20	-2.6500376e-05
29	0xb78e0068	-1.6927908e-05
30	0x36b86030	5.494825e-06
31	0x375130e6	1.2468756e-05
32	0x373825f0	1.0976088e-05
33	0x35b772f0	1.3668014e-06
34	0xb63b2f10	-2.7892565e-06
35	0x3570a5b8	8.964812e-07
36	0xb762b670	-1.3513127e-05
37	0xb71f69e4	-9.501793e-06
38	0x3610541a	2.1506626e-06
39	0x36810eac	3.8462076e-06
40	0xb6d77e60	-6.4222113e-06
41	0x386bf83f	5.6259563e-05
42	0x37cc1e5f	2.4332838e-05
43	0x3853739e	5.0413997e-05
44	0x37bef380	2.2763154e-05
45	0x35a7e480	1.2508972e-06
46	0xb88a387a	-6.590872e-05
47	0xb8587c7d	-5.1614352e-05
48	0x3789ed54	1.6442187e-05
49	0xb5733980	-9.060823e-07
50	0xb6cd2380	-6.113609e-06
51	0x35a66070	1.2396031e-06
52	0xb7acf0f8	-2.0616208e-05
53	0xb751c880	-1.2504053e-05
54	0x36c21d0a	5.785031e-06
55	0x37335744	1.06895495e-05
56	0x348f1180	2.6648559e-07
57	0xb60037a0	-1.9105864e-06
58	0xb5cb6c87	-1.5156264e-06
59	0x35256154	6.160892e-07
60	0xb4e37d00	-4.2372994e-07
61	0x35a945e0	1.2611818e-06
62	0x35d10868	1.557416e-06
63	0x367ec1a8	3.7961672e-06
64	0xb9926b88	-0.00027927407
65	0xb8f11700	-0.000114960596
66	0xb8a76299	-7.981546e-05
67	0x381b6508	3.7048972e-05
68	0x399fe294	0.00030495657
69	0x39a500c0	0.0003147181
70	0x380ae374	3.3113596e-05
71	0x3922a5e2	0.0001551132
72	0xb8828920	-6.2244246e-05
73	0x3a055052	0.0005085516
74	0x3a023534	0.00049670343
75	0x3979e9f1	0.0002383364
76	0x393c78c0	0.0001797406
77	0xb92674b0	-0.00015874463
78	0xba1a0862	-0.0005875883
79	0xba6d1a6a	-0.00090447685
80	0xb933b73c	-0.0001713903
81	0xb8621188	-5.3898926e-05
82	0x378fc277	1.7137483e-05
83	0xb7bae4a8	-2.2279404e-05
84	0x395b10b4	0.0002089169
85	0x392dbcf4	0.00016568956
86	0x34802c00	2.3873872e-07
87	0xb6fb3740	-7.486815e-06
88	0x3a2e57d8	0.0006650663
89	0xb9d9e48f	-0.00041559755
90	0xb9dfc3b8	-0.00042679696
91	0xb9a8fba9	-0.00032230958
92	0xba6090a8	-0.00085664773
93	0xb9ddee38	-0.00042329892
94	0x3a29a6e0	0.00064717047
95	0x3a6a3f11	0.0008935789
96	0x388d1b7c	6.728523e-05
97	0xb8ba5066	-8.8841465e-05
98	0xb8249895	-3.924275e-05
99	0xb8bdfcee	-9.059334e-05
100	0xb8ca723d	-9.653389e-05
101	0xb85fac39	-5.3327738e-05
102	0x38f7a766	0.00011809058
103	0x38b444fb	8.5959175e-05
104	0x37d07bc2	2.4853161e-05
105	0xb752ce93	-1.2565072e-05
106	0x386af390	5.6016783e-05
107	0xb894696b	-7.0768256e-05
108	0xb73ee31f	-1.1377763e-05
109	0xb843d6ac	-4.669155e-05
110	0x377e40d8	1.5154677e-05
111	0xb8a3e3ad	-7.8148536e-05
112	0xb981f1ce	-0.00024784956
113	0x38abc2ff	8.190236e-05
114	0x3949b5c3	0.00019236565
115	0x382ae7cc	4.0747036e-05
116	0x39b8ac72	0.00035223697
117	0x393f375c	0.00018235802
118	0xb949ce90	-0.00019245804
119	0xb99b2762	-0.00029593246
120	0xb925b928	-0.00015804602
121	0xb90fe4ac	-0.0001372273
122	0xb91a6f02	-0.00014727938
123	0x3486ba00	2.5094778e-07
124	0x39083fd0	0.00012993743
125	0x39513258	0.00019950548
126	0x38f4893e	0.0001166039
127	0x396befb1	0.00022500638
128	0x3a091b8e	0.0005230241
129	0x398fd81e	0.00027436105
130	0x35307680	6.573755e-07
131	0x38dd85cd	0.000105630235
132	0xba20e3ca	-0.0006137459
133	0xba0e2954	-0.00054230285
134	0xb8d391e6	-0.0001008844
135	0xb8f83b80	-0.00011836644
136	0x3a112b30	0.00055377465
137	0x3a0ccb92	0.00053709105
138	0x396ae296	0.00022400389
139	0x398205b7	0.0002479979
140	0xba094288	-0.0005236049
141	0xba1f65fc	-0.00060805655
142	0xb9dcb8ca	-0.00042099349
143	0xb9ea2be7	-0.00044664668
144	0x39c30934	0.00037200155
145	0x39505d1c	0.00019871112
146	0x3637c060	2.7381102e-06
147	0x38bb3486	8.926638e-05
148	0xb9e3be50	-0.00043438608
149	0xb9c7f5d4	-0.00038139394
150	0xb8a55af6	-7.884756e-05
151	0xb8b0a3e0	-8.422858e-05
152	0x399935b1	0.00029222437
153	0x382a7e84	4.0648985e-05
154	0xb8a989db	-8.0842256e-05
155	0xb6dc98a6	-6.5742815e-06
156	0xb9bca6dc	-0.00035982474
157	0xb98a9be8	-0.0002643757
158	0x38881996	6.489751e-05
159	0x38d4e5f7	0.00010151782
160	0x38223cec	3.8680548e-05
161	0x38b20437	8.4884865e-05
162	0x37417aa2	1.1532249e-05
163	0x387d9800	6.046146e-05
164	0xb8252182	-3.9370272e-05
165	0xb84f9cb3	-4.9498583e-05
166	0xb895762e	-7.126886e-05
167	0xb862ed78	-5.410376e-05
168	0x382ec547	4.166856e-05
169	0x38a111c4	7.680387e-05
170	0x36cc47a5	6.0880143e-06
171	0x3867d0ee	5.5269273e-05
172	0xb83c6ca3	-4.492387e-05
173	0xb852cb24	-5.025709e-05
174	0xb881155d	-6.1551786e-05
175	0xb835b860	-4.3325475e-05
176	0x38e62a13	0.000109750916
177	0x38abeea7	8.198368e-05
178	0xb75ab48c	-1.3035849e-05
179	0x3836a851	4.354894e-05
180	0xb90ad3cb	-0.00013239605
181	0xb8f3200a	-0.00011593111
182	0xb821be54	-3.8562648e-05
183	0xb7b823fc	-2.1951266e-05
184	0x3a2750a0	0.00063825585
185	0x39c16258	0.000368851
186	0x37f7bad8	2.95317e-05
187	0x392587f8	0.00015786279
188	0xba406ff4	-0.0007340901
189	0xba2dce14	-0.00066301343
190	0xb930ca94	-0.00016860134
191	0xb9401730	-0.00018319185

exp_avg_sq f4 [24, 8]
0	0x3709a7db	8.204918e-06
1	0x368675cd	4.007225e-06
2	0x36ae472a	5.1938887e-06
3	0x36a396ff	4.875357e-06
4	0x3646bc21	2.9613805e-06
5	0x368c1242	4.1744506e-06
6	0x368403bc	3.9343413e-06
7	0x363e37af	2.8344618e-06
8	0x34307354	1.6433233e-07
9	0x32fddaa3	2.9552501e-08
10	0x33cb6a7b	9.472293e-08
11	0x3316a524	3.507479e-08
12	0x33af9781	8.176631e-08
13	0x338ca46b	6.5491655e-08
14	0x328f6032	1.6691136e-08
15	0x33bf20e8	8.900116e-08
16	0x34931bf8	2.7401234e-07
17	0x3385767b	6.2148466e-08
18	0x33da6518	1.0169805e-07
19	0x3334be08	4.208235e-08
20	0x34705e2e	2.2386004e-07
21	0x3448581c	1.8658505e-07
22	0x32f6bc29	2.8723735e-08
23	0x33addc57	8.09602e-08
24	0x34583429	2.0135543e-07
25	0x332ca606	4.0197868e-08
26	0x33d7d877	1.00510924e-07
27	0x33264e89	3.8721314e-08
28	0x340ca557	1.3098666e-07
29	0x33df8358	1.0408138e-07
30	0x32ad5d8a	2.0182387e-08
31	0x33b30078	8.335422e-08
32	0x3421696e	1.5032649e-07
33	0x332c4385	4.010828e-08
34	0x33ca9070	9.432631e-08
35	0x3320042c	3.7256697e-08
36	0x33d68b8e	9.9905364e-08
37	0x33b0c551	8.23153e-08
38	0x32ec1bcb	2.7486655e-08
39	0x3397a132	7.060807e-08
40	0x34b34622	3.3392377e-07
41	0x33c9d922	9.399288e-08
42	0x3410cc16	1.3485291e-07
43	0x336e3a90	5.5466955e-08
44	0x349025a7	2.6849486e-07
45	0x34606351	2.0897757e-07
46	0x3364aa42	5.3240235e-08
47	0x340e99f6	1.3280791e-07
48	0x3506e06f	5.0245484e-07
49	0x33efb1f9	1.1161678e-07
50	0x33ee6dab	1.1102687e-07
51	0x337458c8	5.6891423e-08
52	0x3504dcf4	4.949536e-07
53	0x34d7aec8	4.017404e-07
54	0x337adf0f	5.841053e-08
55	0x33e2ba3c	1.0557821e-07
56	0x3479962a	2.3244561e-07
57	0x340dfecd	1.3224344e-07
58	0x34057126	1.2427753e-07
59	0x33db75c3	1.0219403e-07
60	0x341d6d9c	1.466164e-07
61	0x33a57b31	7.7058196e-08
62	0x343db33f	1.7667206e-07
63	0x345a59e9	2.0335541e-07
64	0x37e8972c	2.772695e-05
65	0x36aeb190	5.206275e-06
66	0x361dee30	2.3533466e-06
67	0x360da7d9	2.1108337e-06
68	0x37994c20	1.827447e-05
69	0x378ff4e0	1.7160957e-05
70	0x3568461b	8.652875e-07
71	0x35284802	6.268966e-07
72	0x396a9996	0.00022373194
73	0x378f8aff	1.7111654e-05
74	0x38400ca4	4.578814e-05
75	0x36f0003a	7.1525837e-06
76	0x3962e3f7	0.00021637963
77	0x38fff94c	0.00012205783
78	0x3803b14a	3.1397947e-05
79	0x38408388	4.5898865e-05
80	0x3830ab66	4.2121297e-05
81	0x36f632c3	7.3372807e-06
82	0x36b5c060	5.4166157e-06
83	0x36718856	3.5991156e-06
84	0x37aced6c	2.0614556e-05
85	0x37aca347	2.058003e-05
86	0x35d60c21	1.5947772e-06
87	0x35a6e93a	1.2435842e-06
88	0x3a0ae266	0.0005298018
89	0x37a0cbd0	1.9168394e-05
90	0x393b7c33	0.00017879978
91	0x3737bc49	1.0951489e-05
92	0x3a16d16d	0.0005753253
93	0x3981734f	0.0002469071
94	0x38e9ccf9	0.00011148485
95	0x393ca95a	0.00017992166
96	0x35e9f2ef	1.7430556e-06
97	0x352c9acc	6.430025e-07
98	0x35da51ae	1.6266038e-06
99	0x34b65b6a	3.3966654e-07
100	0x35c81b29	1.4909066e-06
101	0x3429619f	1.5774866e-07
102	0x35957c1f	1.1137489e-06
103	0x360c345b	2.08921e-06
104	0x370ded7f	8.459551e-06
105	0x36483f23	2.9839073e-06
106	0x3711240a	8.6510645e-06
107	0x35e25279	1.6862315e-06
108	0x3706d060	8.0355385e-06
109	0x35883aa7	1.014986e-06
110	0x36ca088a	6.021063e-06
111	0x37283d9a	1.0027923e-05
112	0x372d92bd	1.0345769e-05
113	0x3621793b	2.4061435e-06
114	0x3706d8c4	8.037492e-06
115	0x35ba8bc9	1.3898763e-06
116	0x37244905	9.792163e-06
117	0x36020359	1.9373458e-06
118	0x36c4a936	5.860954e-06
119	0x371d7d2f	9.387076e-06
120	0x38456e77	4.707134e-05
121	0x36fa436b	7.458429e-06
122	0x36962604	4.474774e-06
123	0x3637c13f	2.738161e-06
124	0x381558dc	3.5607125e-05
125	0x37ff1a53	3.0410627e-05
126	0x357886fb	9.258362e-07
127	0x3610e24d	2.1589397e-06
128	0x38ca0086	9.632208e-05
129	0x378683cc	1.6035418e-05
130	0x371ddeb8	9.409785e-06
131	0x36e7350b	6.8905115e-06
132	0x387bc2f4	6.0024628e-05
133	0x386ebfb8	5.6922174e-05
134	0x36308363	2.630252e-06
135	0x3665bfdf	3.4235343e-06
136	0x3a4d95e8	0.0007842467
137	0x38bbc4a5	8.953483e-05
138	0x38e3f57b	0.00010869928
139	0x38459b16	4.7112895e-05
140	0x39e76ada	0.00044139364
141	0x39c1dc17	0.00036975808
142	0x37ad895c	2.068717e-05
143	0x37ff30f7	3.042117e-05
144	0x39628525	0.0002160264
145	0x3802aafa	3.115365e-05
146	0x381d4db6	3.750409e-05
147	0x37a307dc	1.9434774e-05
148	0x38a6df1b	7.9570535e-05
149	0x38ad6afe	8.269212e-05
150	0x372892bd	1.00477455e-05
151	0x36e95af7	6.954531e-06
152	0x389a115c	7.346526e-05
153	0x36003618	1.9104973e-06
154	0x37f9ee9c	2.9794224e-05
155	0x35fe78f4	1.8959677e-06
156	0x3825036c	3.9342252e-05
157	0x37a37662	1.948624e-05
158	0x368fe1ec	4.288033e-06
159	0x37b26d2e	2.1270094e-05
160	0x36b3aa5b	5.3544477e-06
161	0x35c33ccc	1.4546326e-06
162	0x365d85ae	3.3009378e-06
163	0x35a326e2	1.2155763e-06
164	0x361f1c89	2.3709456e-06
165	0x3596d6a2	1.1238337e-06
166	0x35a8e9b2	1.258499e-06
167	0x36b2b43a	5.3257945e-06
168	0x370d9ece	8.4412295e-06
169	0x36141b54	2.2069626e-06
170	0x36bd2dd1	5.6379727e-06
171	0x35df205b	1.6624211e-06
172	0x3695f07f	4.4685435e-06
173	0x35d8acf0	1.6143586e-06
174	0x3606e77e	2.0102302e-06
175	0x3709b2e3	8.207487e-06
176	0x37426c9e	1.15885905e-05
177	0x35bf8370	1.4268862e-06
178	0x36ae9544	5.202981e-06
179	0x3577ffed	9.238709e-07
180	0x36a79d6f	4.9953155e-06
181	0x35efaf74	1.7857951e-06
182	0x36015b5b	1.9275674e-06
183	0x37202afc	9.546751e-06
184	0x3958fcac	0.00020693493
185	0x38040f00	3.1485222e-05
186	0x37b8cea5	2.2030736e-05
187	0x3769d4cd	1.3937429e-05
188	0x390074c5	0.00012250531
189	0x38eed498	0.00011388323
190	0x36add26c	5.180298e-06
191	0x37662742	1.3718209e-05

exp_avg f4 [8, 8]
0	0x3962647c	0.00021590473
1	0x39712a27	0.00022999254
2	0x394cbe94	0.00019525952
3	0x39503754	0.00019857037
4	0x39502420	0.00019849883
5	0x396378fc	0.00021693477
6	0x3900b4d6	0.00012274398
7	0x37f1fb58	2.884648e-05
8	0xb91ea870	-0.00015130802
9	0xb8da91c0	-0.00010422198
10	0xb98af758	-0.00026505697
11	0xb97e7f80	-0.00024270825
12	0xb98d3ba0	-0.0002693804
13	0xb96e4c08	-0.00022725773
14	0xb9a505f0	-0.00031475676
15	0xb956bfa0	-0.00020480016
16	0x39faa207	0.00047804436
17	0x3a015e2d	0.0004934993
18	0x39f54c28	0.00046786782
19	0x39f58d4a	0.0004683531
20	0x39f9545c	0.00047555834
21	0x3a03221a	0.0005002335
22	0x39a9181e	0.0003225216
23	0x389ebf1c	7.569624e-05
24	0x3979e69f	0.00023832404
25	0x39853aac	0.0002541145
26	0x3960cd4d	0.00021438785
27	0x3965209b	0.00021851288
28	0x396481ed	0.00021792176
29	0x3979548c	0.00023777987
30	0x39093758	0.00013085955
31	0x37b67958	2.1752596e-05
32	0x3ab8e554	0.0014106431
33	0x3ab20702	0.0013582411
34	0x3ad0f5ec	0.0015942431
35	0x3acbdef0	0.0015554111
36	0x3ad429c2	0.0016186761
37	0x3ad10d66	0.0015949428
38	0x3ab2c2da	0.0013638393
39	0x3a21cf28	0.0006172531
40	0x39e0dff0	0.00042891456
41	0x39e96f56	0.00044524175
42	0x39db23b5	0.0004179754
43	0x39dbbb44	0.0004191046
44	0x39deb400	0.0004247725
45	0x39eb1eb6	0.00044845574
46	0x39956900	0.00028497726
47	0x3888dc90	6.526068e-05
48	0xb99e3168	-0.0003017292
49	0xb9a7ef15	-0.00032030852
50	0xb98f8788	-0.00027376064
51	0xb991f9b6	-0.00027842604
52	0xb991be71	-0.00027798445
53	0xb99e1132	-0.0003014892
54	0xb930b050	-0.0001685035
55	0xb7cd9430	-2.450691e-05
56	0xb9e9b8c9	-0.000445789
57	0xb9fa7cbf	-0.0004777666
58	0xb9ce3eb2	-0.00039338093
59	0xb9d2ec63	-0.00040230443
60	0xb9d141ef	-0.0003991271
61	0xb9e5cb18	-0.000438296
62	0xb9756264	-0.00023401674
63	0xb8126f48	-3.491275e-05

exp_avg_sq f4 [8, 8]
0	0x368fb91f	4.283283e-06
1	0x36837c97	3.9186084e-06
2	0x368e5de5	4.2428605e-06
3	0x36961f48	4.47399e-06
4	0x369367a4	4.3930067e-06
5	0x3691196c	4.3242962e-06
6	0x368d3519	4.208309e-06
7	0x368a5d30	4.123569e-06
8	0x38cd8eae	9.801738e-05
9	0x38c48d71	9.372354e-05
10	0x38c0c43f	9.191827e-05
11	0x38c25938	9.267259e-05
12	0x38c145be	9.215948e-05
13	0x38c0f713	9.2012946e-05
14	0x38be99b2	9.088534e-05
15	0x38c0f8e1	9.201631e-05
16	0x3785dd8a	1.5957998e-05
17	0x377f9586	1.5233998e-05
18	0x377af815	1.4958922e-05
19	0x377bd185	1.5009548e-05
20	0x377a3d1d	1.491539e-05
21	0x37798451	1.4872364e-05
22	0x37785243	1.4801105e-05
23	0x377c31f5	1.5032002e-05
24	0x36fb50b1	7.4897766e-06
25	0x36fbd081	7.504656e-06
26	0x3703d123	7.856902e-06
27	0x3707c4dd	8.092463e-06
28	0x3707c2e6	8.092005e-06
29	0x37068df9	8.020078e-06
30	0x37031837	7.813846e-06
31	0x37001488	7.634175e-06
32	0x39f35ad2	0.00046416238
33	0x39e8be4c	0.0004439227
34	0x39e37744	0.00043385674
35	0x39e51c62	0.0004369943
36	0x39e3decc	0.0004346281
37	0x39e39f89	0.00043415677
38	0x39e20b6b	0.00043114586
39	0x39e759da	0.00044126698
40	0x3731a40e	1.0588219e-05
41	0x37294b7f	1.0090763e-05
42	0x37283ef6	1.002824e-05
43	0x3728bdfc	1.00578145e-05
44	0x37298ee5	1.0106455e-05
45	0x3728977f	1.0048853e-05
46	0x372628c6	9.903864e-06
47	0x3725536f	9.854192e-06
48	0x36f272e5	7.2255375e-06
49	0x37023ed5	7.763233e-06
50	0x3712ecf1	8.757445e-06
51	0x371be7cf	9.292692e-06
52	0x371ce0a3	9.350627e-06
53	0x371b8daa	9.271704e-06
54	0x3717ac04	9.040352e-06
55	0x37141a4b	8.827609e-06
56	0x375a5b18	1.3015022e-05
57	0x375d157b	1.3177628e-05
58	0x37655c74	1.367099e-05
59	0x376b55ea	1.4027095e-05
60	0x376b49c0	1.4024263e-05
61	0x3769cef8	1.3936071e-05
62	0x376399b8	1.3566045e-05
63	0x375e3508	1.3244578e-05

exp_avg f4 [8]
0	0x39dbefff	0.00041949746
1	0xba076d20	-0.0005166102
2	0x3a7f62b3	0.00097421854
3	0x39ef7909	0.0004567581
4	0x3b56fb54	0.0032803612
5	0x3a645ee8	0.0008711652
6	0xba182a44	-0.0005804638
7	0xba5d59ce	-0.0008443863

exp_avg_sq f4 [8]
0	0x380e903c	3.3989767e-05
1	0x3a09b65f	0.00052533107
2	0x391b5759	0.00014814491
3	0x38cbb156	9.712826e-05
4	0x3b0cb8b3	0.0021472394
5	0x38b6b675	8.7124215e-05
6	0x38f31035	0.00011590162
7	0x393bd1ba	0.00017911839

exp_avg f4 [16, 8]
0	0xae296e12	-3.8523913e-11
1	0xae516561	-4.761114e-11
2	0x2cfea36f	7.237259e-12
3	0xadf83702	-2.8218764e-11
4	0x2e5b02c6	4.9797298e-11
5	0xae0ad0ca	-3.156301e-11
6	0x2d432546	1.1092743e-11
7	0x2db37261	2.0400738e-11
8	0x919a6fda	-2.436585e-28
9	0x915fd496	-1.7657106e-28
10	0x1202cf9f	4.127668e-28
11	0x8f0fcaee	-7.089527e-30
12	0x121955f9	4.8384257e-28
13	0x9185fa10	-2.1137813e-28
14	0x915009d2	-1.6411333e-28
15	0x909dcaa5	-6.2237804e-29
16	0xb3954d3b	-6.952401e-08
17	0xb4174790	-1.4089005e-07
18	0x34247c91	1.5319007e-07
19	0xb13eb62c	-2.7752192e-09
20	0x34aca64a	3.2158488e-07
21	0x31ad18b5	5.0377715e-09
22	0xb3a20c17	-7.545912e-08
23	0xb33d8d26	-4.4133365e-08
24	0x3331d06f	4.1400593e-08
25	0x3371edb0	5.632836e-08
26	0xb2ecc307	-2.7562704e-08
27	0x33124ed4	3.4064968e-08
28	0xb37fe45e	-5.9579513e-08
29	0x31a42541	4.7772635e-09
30	0xb1a9ec43	-4.945407e-09
31	0x303b1e4b	6.807325e-10
32	0x3a08ccd2	0.0005218509
33	0xb9b921f3	-0.00035311244
34	0xb8913547	-6.9240625e-05
35	0x375ad3d7	1.3043135e-05
36	0x39823372	0.00024833862
37	0x38c78db9	9.515457e-05
38	0x3971dcc9	0.000230658
39	0x39c61762	0.00037782924
40	0x344692a7	1.8493539e-07
41	0x3486b3af	2.5090182e-07
42	0xb413223d	-1.3702898e-07
43	0x33e1bb0d	1.0511403e-07
44	0xb4b97a3d	-3.4547875e-07
45	0x34064267	1.250388e-07
46	0xb102fcfd	-1.9061297e-09
47	0xb33075ba	-4.1085265e-08
48	0x352d565f	6.457321e-07
49	0x358db14c	1.0556919e-06
50	0xb5800607	-9.538497e-07
51	0x34393311	1.7248045e-07
52	0xb5fd0b08	-1.8853179e-06
53	0x3406f1c5	1.2567678e-07
54	0x34a90710	3.1483842e-07
55	0xb1debbc8	-6.4823986e-09
56	0x8a00474d	-6.176386e-33
57	0x0dbb93ef	1.15603785e-30
58	0x8baa9cb4	-6.57174e-32
59	0x0cb3bf26	2.769436e-31
60	0x8d34a9ed	-5.5671323e-31
61	0x0c92044a	2.2497443e-31
62	0x8d08438b	-4.1989537e-31
63	0x8cc610c6	-3.0516825e-31
64	0xb4983315	-2.8349373e-07
65	0xb4d050c4	-3.8801784e-07
66	0x3481d676	2.4184163e-07
67	0xb4314a59	-1.6511457e-07
68	0x350f59c9	5.3402306e-07
69	0xb474c182	-2.2794669e-07
70	0x321f7485	9.281512e-09
71	0x3385c11d	6.228422e-08
72	0xb55c3f03	-8.204808e-07
73	0xb5ae83e0	-1.3002391e-06
74	0x355ebe3e	8.2978283e-07
75	0xb585e7c6	-9.976727e-07
76	0x35aeae39	1.3014716e-06
77	0x34af7f4e	3.2688916e-07
78	0x332011c7	3.726907e-08
79	0xb5203c64	-5.9692525e-07
80	0x832b6f00	-5.0379805e-37
81	0x849004c7	-3.3858625e-36
82	0x83879aa0	-7.970087e-37
83	0x83af572e	-1.0305591e-36
84	0x03ca7282	1.1898783e-36
85	0x84324ec5	-2.0959969e-36
86	0x03be3066	1.1178308e-36
87	0x82206583	-1.1784076e-37
88	0x09c8c909	4.83373e-33
89	0x0c3a8cef	1.437133e-31
90	0x8b07df33	-2.616797e-32
91	0x0b1c804d	3.014103e-32
92	0x8c07fd6d	-1.0476284e-31
93	0x0bb11d0c	6.8221625e-32
94	0x8acc3417	-1.966408e-32
95	0x8b3c5e48	-3.6278412e-32
96	0xb50295f3	-4.864698e-07
97	0xb53b23f3	-6.971524e-07
98	0x34f9871c	4.647817e-07
99	0xb45c54d4	-2.0519957e-07
100	0x358bfa9d	1.0429245e-06
101	0xb43a3830	-1.7343041e-07
102	0xb3e2594e	-1.05401895e-07
103	0x33e1388d	1.04876655e-07
104	0x0251faed	1.5426907e-37
105	0x043ac118	2.195286e-36
106	0x0365c975	6.7528313e-37
107	0x039c9d25	9.2049346e-37
108	0x83d7c0d7	-1.2680838e-36
109	0x03e59239	1.3492981e-36
110	0x83844c39	-7.775763e-37
111	0x82cce4f5	-3.010652e-37
112	0x916ea160	-1.8824617e-28
113	0x1152e833	1.6637631e-28
114	0x0f86df6d	1.329948e-29
115	0x90a1b8f0	-6.3788244e-29
116	0x912219be	-1.2787479e-28
117	0x119a7fdd	2.4375718e-28
118	0x0fd6b630	2.1172205e-29
119	0x904bf61a	-4.022428e-29
120	0x11436dbc	1.5416602e-28
121	0x11c09e96	3.0389995e-28
122	0x111591a4	1.1798906e-28
123	0x11a71dd3	2.6366335e-28
124	0x913581c9	-1.4318376e-28
125	0x10b8e9b8	7.2935304e-29
126	0x91946786	-2.3414084e-28
127	0x91c30691	-3.0769622e-28

exp_avg_sq f4 [16, 8]
0	0x347b37f4	2.3396552e-07
1	0x32eb2bb9	2.7377483e-08
2	0x351678fe	5.605542e-07
3	0x345116dc	1.9472958e-07
4	0x355def6d	8.2677326e-07
5	0x33b6481d	8.488153e-08
6	0x342a2308	1.5845228e-07
7	0x343c0794	1.7511621e-07
8	0x3581d00a	9.671796e-07
9	0x349f3689	2.9655737e-07
10	0x3577ecfd	9.2359534e-07
11	0x353211e2	6.633619e-07
12	0x36629706	3.3764532e-06
13	0x35498e00	7.508497e-07
14	0x34fc6916	4.7015118e-07
15	0x358df2a2	1.0575934e-06
16	0x34c3edc7	3.6494586e-07
17	0x35b0476b	1.3133807e-06
18	0x35dbd0a1	1.637749e-06
19	0x34aa0267	3.1666715e-07
20	0x35e5e11e	1.7127347e-06
21	0x35695fc3	8.6938616e-07
22	0x35a36f6d	1.2176876e-06
23	0x35992959	1.1411422e-06
24	0x357db043	9.450634e-07
25	0x3592b0e0	1.0929325e-06
26	0x35b2ac86	1.3312244e-06
27	0x3503dd46	4.91233e-07
28	0x359c90b3	1.1665019e-06
29	0x34d13792	3.8969716e-07
30	0x35436251	7.278623e-07
31	0x35b94818	1.3804556e-06
32	0x36213a76	2.4024898e-06
33	0x351a7b8c	5.7549255e-07
34	0x3588430d	1.0152304e-06
35	0x3518df94	5.694976e-07
36	0x361fe23e	2.3824537e-06
37	0x352de4a9	6.4780266e-07
38	0x35319e62	6.6168116e-07
39	0x358a64d0	1.0311142e-06
40	0x325ca65a	1.2843509e-08
41	0x3500d585	4.799443e-07
42	0x33f77623	1.1523323e-07
43	0x339b0c71	7.220013e-08
44	0x33763193	5.7321426e-08
45	0x343e2a1c	1.7710448e-07
46	0x3453c7e6	1.9723629e-07
47	0x33aea643	8.132749e-08
48	0x3468441a	2.1631459e-07
49	0x33083e9b	3.1721907e-08
50	0x359c9619	1.166659e-06
51	0x3518d8b4	5.6939757e-07
52	0x34f6c3ab	4.5963438e-07
53	0x34923bc7	2.7238113e-07
54	0x33de5059	1.0352296e-07
55	0x34469452	1.8494146e-07
56	0x381230b0	3.4854456e-05
57	0x35672db9	8.612074e-07
58	0x3781ce21	1.5473985e-05
59	0x361829ea	2.2674162e-06
60	0x38174406	3.6064557e-05
61	0x36bc494c	5.6113695e-06
62	0x361236e3	2.1787644e-06
63	0x375c0ea7	1.3116433e-05
64	0x36ae0a0c	5.1867737e-06
65	0x373df550	1.1322394e-05
66	0x362907e5	2.5187558e-06
67	0x35f55e76	1.8281414e-06
68	0x3740fe67	1.15033245e-05
69	0x369625d9	4.4747544e-06
70	0x362199b8	2.4080346e-06
71	0x371f56cc	9.4973475e-06
72	0x3543d7ae	7.2957016e-07
73	0x330f0028	3.3294924e-08
74	0x35d68e6c	1.5985693e-06
75	0x34ba88d1	3.4744747e-07
76	0x36493089	2.9979585e-06
77	0x348eab91	2.6574392e-07
78	0x35224c0d	6.046037e-07
79	0x3518c43a	5.690996e-07
80	0x354e1e87	7.6785403e-07
81	0x35a39af2	1.2189541e-06
82	0x371fc45b	9.522856e-06
83	0x35f70996	1.8405724e-06
84	0x3680b2b8	3.835503e-06
85	0x3507318d	5.0363525e-07
86	0x367f42a8	3.803676e-06
87	0x36b56674	5.4061475e-06
88	0x31db5764	6.383674e-09
89	0x3414c875	1.38565e-07
90	0x32254ec2	9.6221715e-09
91	0x326297ae	1.3189419e-08
92	0x32df8e30	2.6025276e-08
93	0x3366a218	5.369847e-08
94	0x328121dc	1.5032974e-08
95	0x31c7934b	5.8084075e-09
96	0x3715b65b	8.92355e-06
97	0x36c7ab08	5.950573e-06
98	0x357d55f1	9.4374906e-07
99	0x359ab4b9	1.1526491e-06
100	0x3699de72	4.5856514e-06
101	0x375bceb8	1.3101548e-05
102	0x34c01470	3.5777657e-07
103	0x35485d5e	7.4641673e-07
104	0x35c1988f	1.4424021e-06
105	0x356f2d9f	8.9100826e-07
106	0x3533bafa	6.6954783e-07
107	0x33931c3b	6.850356e-08
108	0x365c8cd6	3.2864532e-06
109	0x35af2f24	1.3052236e-06
110	0x357a5824	9.326052e-07
111	0x36948c7b	4.427098e-06
112	0x35af303d	1.3052555e-06
113	0x3576a8d4	9.188782e-07
114	0x3615f2d8	2.2344084e-06
115	0x356a6fcc	8.733448e-07
116	0x362e1e24	2.5945565e-06
117	0x3583c5f7	9.817876e-07
118	0x356fa294	8.927102e-07
119	0x3642a7e3	2.9005976e-06
120	0x371e1841	9.423181e-06
121	0x34788cff	2.3148094e-07
122	0x36a7cfed	5.0011936e-06
123	0x35b04d95	1.3135601e-06
124	0x37893004	1.6354032e-05
125	0x35a00032	1.1920986e-06
126	0x363e5040	2.8358918e-06
127	0x36364730	2.716155e-06

exp_avg f4 [16]
0	0x2d9d066d	1.7851687e-11
1	0x0d917a33	8.965733e-31
2	0x337f1560	5.9391255e-08
3	0xb3078bd6	-3.1559317e-08
4	0xb9d03677	-0.0003971343
5	0xb40fcb83	-1.339195e-07
6	0xb51b1bb7	-5.778233e-07
7	0x0c5c2dc7	1.6961959e-31
8	0x3476e9c7	2.2995583e-07
9	0x35341c64	6.709654e-07
10	0x02f0023b	3.526611e-37
11	0x0ab1eab2	1.7132763e-32
12	0x34b694ea	3.400849e-07
13	0x81d1e519	-7.7103214e-38
14	0x1127c5a2	1.3234877e-28
15	0x0fcf1ea3	2.0423577e-29

exp_avg_sq f4 [16]
0	0x3398d988	7.11762e-08
1	0x35d708b9	1.6021287e-06
2	0x3491d535	2.7163483e-07
3	0x35d9e032	1.6233009e-06
4	0x3516792b	5.6055677e-07
5	0x322c27a3	1.002073e-08
6	0x345381b0	1.9698086e-07
7	0x3702047a	7.749646e-06
8	0x3797a03c	1.8075218e-05
9	0x34834cfd	2.4456668e-07
10	0x35e110dd	1.6768714e-06
11	0x3144580f	2.857181e-09
12	0x3690c304	4.3142372e-06
13	0x36e38d4c	6.7815763e-06
14	0x368e00b9	4.232014e-06
15	0x35f29565	1.8073885e-06

exp_avg f4 [8, 16]
0	0x2ab7b432	3.2632366e-13
1	0x10307359	3.479874e-29
2	0x2fcb1e00	3.69468e-10
3	0x2e9eafbf	7.216227e-11
4	0x364a9955	3.0189597e-06
5	0x30497762	7.3293027e-10
6	0x31de4dbb	6.4698873e-09
7	0x8bbd22d0	-7.285253e-32
8	0x30b8bc10	1.3441213e-09
9	0x310f150f	2.082121e-09
10	0x04338e31	2.110664e-36
11	0x877ea151	-1.9156243e-34
12	0x3164190b	3.3192602e-09
13	0x04b8bb7d	4.3430373e-36
14	0x908d5357	-5.57431e-29
15	0x0f86f967	1.3309486e-29
16	0x2d0b3c5f	7.91464e-12
17	0x1176dbc5	1.94737e-28
18	0x31e2942e	6.5943118e-09
19	0x310c6ad3	2.0433404e-09
20	0x385c6a0d	5.2550855e-05
21	0x32d69e32	2.4984818e-08
22	0x34032288	1.2212888e-07
23	0x8c9ec5d9	-2.446283e-31
24	0x3343722c	4.5505814e-08
25	0x3363f9e0	5.3079816e-08
26	0x058999df	1.2939941e-35
27	0x8884ffef	-8.004631e-34
28	0x33b68953	8.5000146e-08
29	0x060ab1e5	2.6085612e-35
30	0x91a6e1ef	-2.6329424e-28
31	0x10ff2bae	1.00647065e-28
32	0xac1dd758	-2.2430582e-12
33	0x90cc750f	-8.064417e-29
34	0xb0a1b6fe	-1.1766301e-09
35	0xafe7389e	-4.2058884e-10
36	0xb718f6bc	-9.117353e-06
37	0xb1b8b8da	-5.37612e-09
38	0xb2becc18	-2.2211722e-08
39	0x0c2e4b11	1.3427062e-31
40	0xb2293058	-9.848087e-09
41	0xb2399796	-1.0802884e-08
42	0x83beec15	-1.1221398e-36
43	0x07fb7b2c	3.7838676e-34
44	0xb293ed4c	-1.7220962e-08
45	0x844bfe02	-2.397917e-36
46	0x110abccb	1.0944457e-28
47	0x908dc823	-5.5923053e-29
48	0xaa506fcb	-1.8512897e-13
49	0x1036a103	3.601721e-29
50	0x30011ef8	4.6973936e-10
51	0x2ec72c66	9.057359e-11
52	0x367ded63	3.7838115e-06
53	0x30778f8b	9.0062063e-10
54	0x320a680f	8.056317e-09
55	0x8b93f6cb	-5.6993673e-32
56	0x30dab1d0	1.5912125e-09
57	0x312995f0	2.4677966e-09
58	0x0409bb67	1.6190324e-36
59	0x8766ea41	-1.7372118e-34
60	0x318bcd71	4.0687884e-09
61	0x047cf06d	2.9732856e-36
62	0x90928363	-5.778928e-29
63	0x8f3545af	-8.9374096e-30
64	0xad98bf54	-1.7365366e-11
65	0x9202edc6	-4.1313845e-28
66	0xb278ff8a	-1.4493603e-08
67	0xb19b4860	-4.519322e-09
68	0xb8f20baa	-0.00011541632
69	0xb36da1e3	-5.5328098e-08
70	0xb4902b40	-2.685356e-07
71	0x0d353d53	5.5848748e-31
72	0xb3d8671a	-1.0077038e-07
73	0xb3fb61b1	-1.1705868e-07
74	0x853a79d5	-8.768055e-36
75	0x091462e9	1.786136e-33
76	0xb4498824	-1.8769111e-07
77	0x85bea21c	-1.7927064e-35
78	0x1231719a	5.5991377e-28
79	0x91917c4a	-2.2953565e-28
80	0xabd371dd	-1.5024055e-12
81	0x10d0a857	8.23009e-29
82	0xb06ddca2	-8.6533636e-10
83	0xafbfd3d7	-3.489322e-10
84	0xb6ea1e6e	-6.977286e-06
85	0xb19dbf80	-4.5910724e-09
86	0xb293e483	-1.7216967e-08
87	0x8c4efd87	-1.5945956e-31
88	0xb2105ca1	-8.4029645e-09
89	0xb21b21c4	-9.029865e-09
90	0x053ccc6b	8.877263e-36
91	0x87eea358	-3.5906265e-34
92	0xb272eeb0	-1.4140525e-08
93	0x05bfe8f8	1.8047133e-35
94	0x90e66125	-9.086868e-29
95	0x107f8c20	5.039783e-29
96	0xa8c63c7a	-2.2008643e-14
97	0x0edb3075	5.403433e-30
98	0xaffd578d	-4.608264e-10
99	0xaee321f2	-1.0328795e-10
100	0xb67a3a86	-3.7286968e-06
101	0xb099e83a	-1.1198218e-09
102	0xb20ab839	-8.074545e-09
103	0x8b6ce268	-4.5622276e-32
104	0xb109d331	-2.0056172e-09
105	0xb1415cd9	-2.8137974e-09
106	0x84406cdb	-2.2619476e-36
107	0x86d41604	-7.9777886e-35
108	0xb19b9519	-4.528044e-09
109	0x84b816cf	-4.327914e-36
110	0x8e23b7ae	-2.017974e-30
111	0x0feb8e5c	2.3227624e-29
112	0xaba53ac4	-1.1740266e-12
113	0x0e2b59e8	2.1120666e-30
114	0xb0b59ba7	-1.3213722e-09
115	0xafce791f	-3.7557243e-10
116	0xb7331ef7	-1.0676441e-05
117	0xb199f905	-4.4811963e-09
118	0xb2d0d77d	-2.431238e-08
119	0x8b6b989d	-4.5374167e-32
120	0xb20c3e3b	-8.163222e-09
121	0xb22bfe61	-1.0011349e-08
122	0x83fe6e93	-1.4954165e-36
123	0x86b53ff7	-6.817862e-35
124	0xb28899b1	-1.5902375e-08
125	0x846cbad6	-2.7827458e-36
126	0x8ed20cbc	-5.178126e-30
127	0x0f3b7b57	9.243566e-30

exp_avg_sq f4 [8, 16]
0	0x33f783cb	1.1525807e-07
1	0x316c938d	3.4426393e-09
2	0x32916537	1.6926249e-08
3	0x332200de	3.7719353e-08
4	0x331aa7d2	3.600855e-08
5	0x304d7cb6	7.475579e-10
6	0x3408c459	1.2737418e-07
7	0x34b0a4af	3.2902378e-07
8	0x342ee165	1.6287011e-07
9	0x34632bc5	2.1156946e-07
10	0x3532b8e3	6.6579213e-07
11	0x31b8fd9a	5.383936e-09
12	0x34b12e34	3.3002436e-07
13	0x34fc370e	4.6978715e-07
14	0x344fedef	1.9364937e-07
15	0x34cacd50	3.7774817e-07
16	0x35a7045f	1.2443742e-06
17	0x33b24adb	8.302387e-08
18	0x348d3e1b	2.6308484e-07
19	0x35c51449	1.4683548e-06
20	0x350389e4	4.900196e-07
21	0x32d1900c	2.4396307e-08
22	0x35aa006a	1.2666108e-06
23	0x36ec5f87	7.044469e-06
24	0x36924e75	4.3602727e-06
25	0x3621b69b	2.409716e-06
26	0x36075710	2.0167245e-06
27	0x345ea522	2.0735436e-07
28	0x36959b7d	4.4586473e-06
29	0x36b9fcd0	5.542861e-06
30	0x364cdd95	3.0527347e-06
31	0x368acc61	4.1365133e-06
32	0x35177a5c	5.642994e-07
33	0x32c33019	2.272286e-08
34	0x33b401b1	8.382211e-08
35	0x352d134a	6.447559e-07
36	0x342ed490	1.6282343e-07
37	0x2f8d816c	2.573971e-10
38	0x35159604	5.5725127e-07
39	0x36155120	2.2249951e-06
40	0x359257b4	1.0903373e-06
41	0x3585e388	9.975493e-07
42	0x34b08c40	3.28846e-07
43	0x30db4f9f	1.5956977e-09
44	0x35945180	1.1050579e-06
45	0x3627a8d1	2.4983203e-06
46	0x35c022bd	1.4315225e-06
47	0x35faa011	1.8673037e-06
48	0x357a050b	9.3139596e-07
49	0x328a7a04	1.61208e-08
50	0x341beee8	1.4522413e-07
51	0x35122eaa	5.4457144e-07
52	0x348dfc68	2.6446946e-07
53	0x3006ad9c	4.899563e-10
54	0x356e4bcd	8.8772214e-07
55	0x35e19157	1.6806106e-06
56	0x35a03145	1.1935268e-06
57	0x35c387b4	1.4568127e-06
58	0x35976b2f	1.1281571e-06
59	0x317f9ac1	3.7195351e-09
60	0x35775897	9.2143586e-07
61	0x367dc30e	3.7813475e-06
62	0x35bcfd04	1.4080729e-06
63	0x364e3cc3	3.073176e-06
64	0x34765e53	2.294485e-07
65	0x347d7c6d	2.3607727e-07
66	0x3343053e	4.5406743e-08
67	0x351e1e7d	5.8903953e-07
68	0x3482a9f3	2.433804e-07
69	0x32484d1f	1.16590675e-08
70	0x34cd37c4	3.82248e-07
71	0x35a5e080	1.2358796e-06
72	0x373a3920	1.1099764e-05
73	0x3622bdee	2.4250435e-06
74	0x3499b82b	2.863247e-07
75	0x33c9d107	9.397814e-08
76	0x3779e224	1.4894209e-05
77	0x358819f3	1.0140342e-06
78	0x351d1255	5.8513734e-07
79	0x3553992d	7.8826525e-07
80	0x33abdc01	8.0028265e-08
81	0x32a8f828	1.9670622e-08
82	0x3328f68f	3.9339792e-08
83	0x34767f26	2.2956792e-07
84	0x33a50546	7.6843705e-08
85	0x323ff73a	1.1173876e-08
86	0x33f3f116	1.13594226e-07
87	0x35ba35c8	1.3873732e-06
88	0x34e2af7d	4.2223465e-07
89	0x34c7cc3b	3.7215236e-07
90	0x34f1db19	4.5049163e-07
91	0x33d046f1	9.698659e-08
92	0x3506d9a6	5.023561e-07
93	0x352e5d84	6.4956134e-07
94	0x34b4974e	3.36377e-07
95	0x3494e669	2.7734794e-07
96	0x3573e870	9.0862795e-07
97	0x32a5c0e1	1.929624e-08
98	0x341c49a7	1.4555427e-07
99	0x358877b2	1.0167626e-06
100	0x348badd5	2.6017247e-07
101	0x30550a6f	7.7503776e-10
102	0x3570f9f2	8.9770685e-07
103	0x3635ddb4	2.710015e-06
104	0x35c089b0	1.4345187e-06
105	0x35ce1c53	1.535644e-06
106	0x3511246f	5.406973e-07
107	0x31ebd12c	6.8631802e-09
108	0x35671425	8.608352e-07
109	0x36827007	3.8873436e-06
110	0x3610f44f	2.1599878e-06
111	0x36499ad1	3.004145e-06
112	0x36059c1f	1.9909419e-06
113	0x336a7e11	5.4597027e-08
114	0x34a39df9	3.0476056e-07
115	0x360fb18c	2.1412006e-06
116	0x3517a00e	5.6484794e-07
117	0x2ffb1f4b	4.567887e-10
118	0x360b070e	2.071672e-06
119	0x377b2a7c	1.49706575e-05
120	0x3668771c	3.4640025e-06
121	0x3681e804	3.8715098e-06
122	0x36728c97	3.6142644e-06
123	0x316c4b55	3.4385341e-09
124	0x360dc09e	2.1122755e-06
125	0x3715acd0	8.921328e-06
126	0x3695248b	4.4448e-06
127	0x36deadee	6.6363637e-06

exp_avg f4 [8]
0	0xb8046da0	-3.157335e-05
1	0xba96082e	-0.001144653
2	0x392fbe60	0.00016760221
3	0xb883b66c	-6.2805455e-05
4	0x3b2d1e7c	0.0026415875
5	0x3902bf24	0.00012468972
6	0x3892b5d8	6.9956935e-05
7	0x39332c60	0.00017087301

exp_avg_sq f4 [8]
0	0x37a06853	1.9122066e-05
1	0x3a071471	0.00051528873
2	0x38a0815d	7.65349e-05
3	0x38a4122b	7.8235134e-05
4	0x3b054a22	0.0020338376
5	0x3869cae0	5.574047e-05
6	0x387d97f9	6.0461436e-05
7	0x390a973e	0.00013217048

exp_avg f4 [1, 8]
0	0xb9abd5d3	-0.00032774973
1	0x3a2ab730	0.00065122824
2	0xba4225e4	-0.0007406159
3	0xba2e561f	-0.0006650406
4	0xba54ea3c	-0.0008122062
5	0xbaa657ed	-0.0012690999
6	0x3a43c474	0.00074679335
7	0xb800cc00	-3.0707568e-05

exp_avg_sq f4 [1, 8]
0	0x3ac7f9cd	0.0015256942
1	0x3b8f6ea9	0.0043772054
2	0x3b3a6871	0.00284436
3	0x3ac0a7f8	0.0014698496
4	0x3ac9d951	0.0015399848
5	0x3a6dcc91	0.0009071315
6	0x3b1eb3ea	0.0024216124
7	0x3bcc35db	0.006232006
