lightning_logs/version_12/checkpoints/epoch=399-step=400.ckpt (torch, 22555 bytes, 30 tensors)

front_linear.weight f4 [8, 2]
000000 92 e6 ab 3f f1 1b f5 bf 00 14 a5 3d 48 dd 4a bd
       1.342974 -1.9149152 0.08060455 -0.049527436
000010 34 8e 93 bf 45 1e be be 18 49 c0 bf 1a 1a 41 3f
       -1.1527772 -0.3713247 -1.5022306 0.7543045
000020 cd 56 75 3f ee 77 8e 3d ea 62 1b 3f 53 ec 44 3f
       0.9583557 0.069564685 0.60697806 0.769231
000030 b6 1f 7c 3e 2a 9e cd 3d f9 2c c6 3d c6 a4 69 3f
       0.24621472 0.10039933 0.096765466 0.9126705

front_linear.bias f4 [8]
000000 d7 71 de 3e 98 96 32 bd 9d 38 e1 3e 67 2f 21 3e
       0.43446228 -0.04360065 0.43988505 0.15740739
000010 a1 61 f6 be 55 1e 5c bf 91 b8 a0 be 14 ff 3a bf
       -0.4812136 -0.85983783 -0.31390813 -0.7304547

transformer_encoder.layers.0.self_attn.qkv_proj.weight f4 [24, 8]
000000 89 84 73 c0 cd 55 6b 3e 8a 6f 41 40 15 f1 de 3f
       -3.8049643 0.22981949 3.0224328 1.7417322
000010 81 d6 e0 3d 82 2f 3b 3d 44 ea 13 bf 6d d2 3e 3f
       0.109784134 0.045699604 -0.57779336 0.74539834
000020 1a 5c 99 40 22 0f ae 3f bd 34 87 40 bd 3e 3f 40
       4.792493 1.3598368 4.225188 2.9882042
000030 ab 24 2e c0 e5 79 8e c0 85 06 f8 bf 70 d9 4a c0
       -2.720988 -4.4523797 -1.937699 -3.1695213
000040 2d a8 9d c0 59 75 4c 3f 2e 58 58 40 00 b2 91 40
       -4.9267793 0.7986656 3.380382 4.5529785
000050 d2 59 a0 bf a7 cc 77 bd b9 b3 4f be 57 1f d8 3f
       -1.2527411 -0.060497906 -0.20283403 1.6884564
000060 99 8e 52 c0 37 4e 6c 3f 12 1d 43 40 b9 b0 1a 40
       -3.2899535 0.92306846 3.0486493 2.4170363
000070 2b 03 99 bf c0 48 a5 bc d8 47 57 bf 12 5c 5b 3f
       -1.1954092 -0.020176291 -0.84094 0.85687363
000080 69 e1 4e bf ea 08 a9 3f d1 4f 4a 40 0d 5d 35 40
       -0.808127 1.3205845 3.1611216 2.8338044
000090 02 a5 f5 3d 3f da c4 bf d7 be 83 bf ea 14 19 c0
       0.11994363 -1.5379103 -1.0292615 -2.3919015
0000a0 0b be 8c c0 9e 6b 10 bf 20 61 8d 3f 6f 32 ed 40
       -4.3981986 -0.5641421 1.1045265 7.4124064
0000b0 ab bf 01 c0 c2 cf aa be 1b dd 22 c0 79 2a 39 be
       -2.0273235 -0.33361632 -2.5447452 -0.18082608
0000c0 0b 6a 16 bf fb 98 00 40 cf 30 89 40 36 af 9e 40
       -0.5875556 2.0093372 4.287208 4.958888
0000d0 c5 f0 e9 bf 09 5e 1f c0 98 22 2a c0 07 1c 3b c0
       -1.8276602 -2.4901145 -2.6583614 -2.9235857
0000e0 5b 55 5e bf b4 76 82 3f a9 4a 3e 40 ad 46 69 40
       -0.8684899 1.0192475 2.973307 3.6449387
0000f0 58 ea b2 bf b0 7f 05 c0 68 56 63 bf 32 26 d7 bf
       -1.3977766 -2.0859184 -0.8880372 -1.6808531
000100 6c 39 1b c0 98 d7 5d be 6e c1 41 bf 7b 21 ca 3e
       -2.4253798 -0.21664274 -0.75685775 0.3947867
000110 6c 01 c4 3e 02 9a 81 3f 7c dd 4c 3e 1c 01 47 3f
       0.38282335 1.0125124 0.20006365 0.7773607
000120 80 d8 94 3e 9e 5d 0d bf 03 2b c8 3d f2 35 cd be
       0.29071426 -0.55220973 0.09773829 -0.4008022
000130 2c 01 9c bb 9b ff 8c be a5 b4 3f bd 0e 71 4b 3e
       -0.004760882 -0.27538761 -0.046803135 0.19867346
000140 67 51 13 bf 36 01 39 be f9 0f a6 3c 5c ab 29 be
       -0.57546085 -0.18066868 0.020271288 -0.16569275
000150 6c 8b b3 be 84 ac 0c bd 80 02 48 3d e8 da 07 be
       -0.35067308 -0.03434421 0.04883051 -0.132671
000160 12 2d 93 3e eb ec 63 3e 07 57 a1 be 1f db d0 3e
       0.28745323 0.22258346 -0.3151171 0.40792176
000170 1d 50 7d 3e 57 87 89 bd 2a ea 3f 3e fb a3 1d 3e
       0.24737592 -0.06715267 0.1874167 0.15394585
000180 6d 62 f7 c0 16 47 38 3f 9d d5 6a 3f b4 da 40 40
       -7.730765 0.7198347 0.917322 3.0133486
000190 85 3b d0 3e 6c ee b8 3f b8 3e b5 3e 30 12 86 40
       0.4067041 1.444776 0.35399413 4.18972
0001a0 19 ce 98 c0 b2 d8 c0 be d7 cb a4 3f c4 02 e9 3f
       -4.7751584 -0.37665325 1.2874707 1.8203969
0001b0 44 41 c3 3f 44 72 b3 3f 9b 42 62 3f ab 53 90 3f
       1.5254292 1.4019246 0.8838288 1.1275533
0001c0 d8 43 bd c0 80 0d f5 3d 8c 54 49 3e d4 26 d6 3f
       -5.9145317 0.119654655 0.19661158 1.6730599
0001d0 20 0f 2d 3f 70 6f 5c 3f 6b 50 94 3e e9 ae cd 3f
       0.67601204 0.8610754 0.28967604 1.6069003
0001e0 61 8e e9 40 d4 9b 07 40 84 2f a2 40 73 f9 53 40
       7.29863 2.118886 5.0683002 3.3121002
0001f0 81 a0 8b bf 88 bf 99 bf 8b 82 26 3f 88 8f ad 3f
       -1.0908357 -1.2011576 0.6504294 1.3559427
000200 99 f5 de c0 68 cb 6d bf 97 c0 0b bf 1e dd bb 3f
       -6.96748 -0.928885 -0.54590744 1.4676855
000210 4f d6 9d 3f ca 42 07 40 10 47 22 3f 12 ea 57 40
       1.2331027 2.1134515 0.6338968 3.3736615
000220 7d 30 5f c0 70 90 e6 3e 0e 19 f9 bd dd 7a fb 3f
       -3.4873345 0.45032072 -0.12162982 1.964687
000230 73 fe 67 3e 31 23 76 3f d0 7d 90 bf e6 e1 03 3f
       0.22655658 0.9614745 -1.1288395 0.5151657
000240 a6 58 86 c0 9f 71 18 3e 67 34 51 bf d4 4c aa 3f
       -4.1983213 0.14887093 -0.81720585 1.3304696
000250 c5 a4 65 3f ed 90 e3 3f 15 44 ce bd ca bd b9 3f
       0.89704543 1.7778603 -0.10071579 1.4511044
000260 9f 71 52 c0 0a 88 e8 3f c0 b2 21 40 82 57 62 40
       -3.288185 1.8166516 2.526535 3.536591
000270 cb 9a b8 bf c4 a7 be bf a6 a6 3f c0 d1 67 00 be
       -1.4422239 -1.4894948 -2.9945464 -0.12539603
000280 ea d7 d7 be b2 1b 1b be 32 d4 6b bf 31 9b c7 be
       -0.42156917 -0.15147284 -0.9212066 -0.3898559
000290 a6 5b 47 3f a1 76 89 3f 3f 64 06 3c 25 96 98 3e
       0.7787422 1.0739328 0.0082026115 0.2980205
0002a0 54 4e b5 3f 8f b1 32 3e 62 34 2c be 7a 62 1e bf
       1.4164529 0.17450546 -0.16816857 -0.61869013
0002b0 0b 53 16 3f fe 3c de 3e f0 59 59 bb 1b 3a a8 3e
       0.58720464 0.43405908 -0.003316518 0.3285683
0002c0 e0 ff c6 bf 54 25 ba be f2 02 c7 3d d8 8f c5 bd
       -1.5546837 -0.36356604 0.09717359 -0.09646577
0002d0 63 8e 01 3e 69 3b 42 be ea d2 f4 3d a3 e5 a0 be
       0.12651972 -0.18967976 0.11954291 -0.314252
0002e0 af d8 e3 3e 01 ea 8d 3d 24 6a 0a 3f 09 d0 84 3e
       0.44501254 0.06929398 0.5406821 0.25939968
0002f0 73 32 9d be e0 6f 3a bf 02 50 0a 3e a1 60 ac be
       -0.30702552 -0.7282696 0.13507083 -0.33667472

transformer_encoder.layers.0.self_attn.o_proj.weight f4 [8, 8]
000000 72 de cd 3e c7 0e 47 bd 06 77 41 3e ce b9 a4 be
       0.40208775 -0.048598077 0.1889306 -0.32173008
000010 af 2a 66 3f 9a 82 c9 be ef d3 99 3e 61 72 1d bf
       0.8990888 -0.39357454 0.30044505 -0.61502653
000020 6a b3 5f 3f b0 67 7d 3e 24 9f 4c 3b 76 22 97 3d
       0.8738314 0.24746585 0.0031222785 0.0737962
000030 56 cb 80 3d e3 cf 66 bf 05 5b 32 3f 18 99 da bb
       0.06288783 -0.9016096 0.69670135 -0.006671082
000040 3a d3 1e 3f 55 8d eb be 04 eb 39 3d 8d 58 74 3d
       0.62041056 -0.46006265 0.045390144 0.05965476
000050 04 f7 4c bf d4 61 5a bf 64 9e bf 3e 4e aa 11 be
       -0.80064416 -0.85305524 0.3742553 -0.14225122
000060 9a 18 43 bf a3 69 f3 3d 6e ea 36 bd 5b 2f c5 bd
       -0.76209414 0.11885383 -0.044657163 -0.09628173
000070 56 c4 12 3f 82 bd 92 be 4a 79 4d 3e 21 09 1a be
       0.57330835 -0.28660208 0.200658 -0.15042545
000080 5c 8c f1 3d e4 8c 18 3e 4c 9d f6 3e 3a cb eb be
       0.117943496 0.14897496 0.48166883 -0.46053487
000090 d4 61 03 bf 0b 22 1e be 09 5f 0c bf d5 b1 ec 3e
       -0.5132115 -0.15442674 -0.5483251 0.46229425
0000a0 90 2d 42 3f 60 d3 bf be c5 49 5c bc 73 4f d7 bd
       0.7585077 -0.37465954 -0.013445322 -0.105132006
0000b0 e8 95 a1 be 7a e4 f1 be 30 ac 5c be 54 df 4a 3d
       -0.31559682 -0.47244626 -0.2155006 0.04952939
0000c0 f6 f9 45 bf a4 6f 27 bd ba 1a 42 3e 66 c0 a7 bd
       -0.77334535 -0.040877953 0.18955508 -0.08190994
0000d0 25 12 fa 3e 00 dc 1b 3e e4 9a 01 be 6c 2d f2 be
       0.48841968 0.15220642 -0.12656742 -0.4730028
0000e0 da 77 4d bf de 9a e1 3d 0d f3 d6 be 6c d0 17 3e
       -0.80261004 0.11015867 -0.41982308 0.148256
0000f0 75 35 48 3e 24 15 8f bf e8 5b fe 3e e4 04 36 be
       0.19551642 -1.1178327 0.49679494 -0.17775303

transformer_encoder.layers.0.self_attn.o_proj.bias f4 [8]
000000 b8 80 f0 3e 79 01 8e 3f b1 ce 4b 3f c9 9e a8 3e
       0.46973205 1.10942 0.7961226 0.32933643
000010 57 13 be 3e ed da 16 3f f1 8c 10 bf 20 56 90 be
       0.3712413 0.58927804 -0.5646506 -0.28190708

transformer_encoder.layers.0.linear_net.0.weight f4 [16, 8]
000000 08 09 99 bf 6c 12 d1 be f0 75 be bd 29 80 a6 bd
       -1.1955881 -0.40834367 -0.092998385 -0.08129913
000010 7d 63 53 bf 82 dc dd be 74 79 4f 3f b5 bd 00 40
       -0.8257368 -0.43332297 0.810447 2.0115788
000020 ac dd e2 be fc 07 86 c0 45 8e bf bf 64 0c 42 3e
       -0.44309747 -4.1884747 -1.4965292 0.18950039
000030 9a 6b 12 bf b4 95 b6 bf be 9e 02 40 57 48 eb 3d
       -0.57195437 -1.4264436 2.0409389 0.11488407
000040 e6 a9 95 bf 02 3e 00 bf dd 5f 40 3f 9a dd 0d bf
       -1.1692474 -0.50094616 0.75146276 -0.5541626
000050 7f af fd 3e 53 83 c5 3d 33 a8 26 bf 33 fd 67 be
       0.49547955 0.09644189 -0.651004 -0.22655182
000060 1e 46 7f bf 1a 56 f8 be 8f 69 df 3d f8 4c 01 bf
       -0.99716365 -0.4850319 0.109088056 -0.5050807
000070 52 f3 3b bf 13 3f d4 be e1 ad 9d 3e a1 18 3d 3f
       -0.7341815 -0.41454372 0.30796722 0.73865706
000080 31 b8 33 be d3 d2 25 bf 44 34 9e 3e c8 48 30 3f
       -0.17550732 -0.6477482 0.3089925 0.68861055
000090 88 3d fe 3b 0d 20 d2 be 07 66 67 be 11 bf af 3e
       0.0077588 -0.41040078 -0.22597514 0.3432546
0000a0 be 0a 5f be 23 ae 86 bf ff b3 bc 3d 6e d8 5d bf
       -0.21781442 -1.0521892 0.09214019 -0.8665837
0000b0 16 6a d9 be 3b f4 42 3e 8c 36 46 3f a4 a4 bf 3f
       -0.4246375 0.19038479 0.7742698 1.4972119
0000c0 03 a0 05 c0 96 86 3e 3e ae fe 1c 3d 77 f0 19 3f
       -2.0878913 0.18606028 0.03832882 0.60132545
0000d0 da a8 08 bf d2 69 12 bf 9b ca 08 3f e6 c4 10 40
       -0.5338265 -0.5719272 0.5343415 2.2620177
0000e0 ab 77 2a bf c1 7c 33 be 51 b9 e1 3d 18 57 03 be
       -0.6658885 -0.17528059 0.110216744 -0.12826192
0000f0 ee a5 1c 3f 9b 5a 31 3e 21 83 1e 3f 96 27 2d 3f
       0.6119069 0.1731972 0.61918837 0.6763853
000100 29 76 2e bf 73 88 4f bf 1b 1b 6a be 73 2c 2f bf
       -0.6814905 -0.8106758 -0.22861902 -0.684272
000110 8a 53 8b bf 8b ae 46 bf 38 5d 25 3f 06 32 cc 3f
       -1.0884869 -0.7761008 0.64595366 1.5952766
000120 72 86 37 be 21 86 4b bf 9e 0f 0c be a0 c8 ce bd
       -0.1792238 -0.7950154 -0.13677832 -0.1009686
000130 e0 af 06 be 43 d2 14 be 25 9a 79 3f 8d 6a 39 3f
       -0.13153028 -0.14533333 0.9750083 0.7242821
000140 0c 7f 84 bd 96 66 37 3f 70 9a a3 3f 7b e1 fe 3f
       -0.06469545 0.7164091 1.2781506 1.9912561
000150 be aa b7 be 69 20 19 3f fe 20 f2 3e 3b d1 99 3f
       -0.35872453 0.5981508 0.47290796 1.2016977
000160 a9 21 db 3e 6e 18 6b bf 02 3b fa be 9b 56 b7 be
       0.42799118 -0.9183415 -0.48873144 -0.35808262
000170 71 c3 73 3e 35 ce 83 be 1c 4e f9 ba cb 9d 22 bf
       0.23805024 -0.2574326 -0.0019020471 -0.6352202
000180 5c 28 87 3e 03 f8 78 bf 9b dc 1c bf b5 6f 62 bf
       0.2639798 -0.97253436 -0.6127412 -0.884517
000190 a8 1c a5 be b3 af 90 3e e2 98 4f 3f ba cc e8 3f
       -0.32248425 0.28259048 0.81092656 1.8187478
0001a0 8e 4b 11 3e 05 69 da be 61 21 14 bf d6 0a 7d 3f
       0.14188978 -0.4265825 -0.5786343 0.9884466
0001b0 d1 c8 d4 bf 67 bf 98 bf 59 e8 d0 3f 06 4a b5 3f
       -1.6623784 -1.1933411 1.6320907 1.4163215
0001c0 e9 55 07 c0 fe fa e5 3e df e1 cb 3f 0b 03 41 bf
       -2.1146185 0.44918054 1.5928305 -0.7539527
0001d0 a0 bb 11 bf d5 db f5 3e e4 f7 99 be 19 e7 a2 3f
       -0.5692692 0.4801928 -0.30071938 1.2726775
0001e0 fc 57 52 3e d1 25 16 bf e2 59 16 3f 2a ed e3 3d
       0.20541376 -0.58651453 0.587309 0.1112922
0001f0 bf 75 8a be c6 71 71 be 0a 10 09 3f 10 56 2b 3f
       -0.27042958 -0.23578557 0.535401 0.66928196

transformer_encoder.layers.0.linear_net.0.bias f4 [16]
000000 b6 e5 1b c0 38 60 1c c0 b8 80 69 bf 9b aa 68 bf
       -2.4358954 -2.4433727 -0.91212034 -0.90885323
000010 f6 39 e5 bf 2b bf 01 c0 10 74 44 bb e5 66 98 bf
       -1.7908313 -2.027293 -0.0029976405 -1.1906401
000020 8d 77 96 be 6b 94 15 bf a2 84 ef be 21 eb 1a bf
       -0.29388085 -0.5842959 -0.46780878 -0.6051503
000030 11 86 01 c0 58 5e dc bf 94 69 18 c0 2d 75 13 c0
       -2.0238078 -1.7216291 -2.381444 -2.3040268

transformer_encoder.layers.0.linear_net.3.weight f4 [8, 16]
000000 40 35 bc bf e0 7d 9b 3e 10 a1 1f 3f a5 86 4c bf
       -1.4703751 0.30369473 0.62355137 -0.7989295
000010 18 ea 34 3f 26 6b b6 3f a8 02 89 3e b5 20 83 bf
       0.706697 1.4251449 0.2675984 -1.0244356
000020 9f 95 33 3e 80 88 e3 be 67 ca a5 bd da c8 8f be
       0.17537545 -0.4444008 -0.08095246 -0.28082925
000030 a5 06 89 bf 7a 56 84 be 23 98 a8 be ad 6a 0c bf
       -1.0705153 -0.25847226 -0.3292857 -0.54850274
000040 07 91 63 bf 3a 89 91 3f 28 d9 15 3f b5 6d fb 3e
       -0.8889317 1.1370003 0.5853448 0.49107137
000050 8d d3 d4 bc f4 da 6c bf d7 11 0c 3f 7b 6d f7 3e
       -0.025979782 -0.92521596 0.5471472 0.48325714
000060 a5 e0 fa 3e 05 8c 07 3e 30 cb f9 be e9 02 18 be
       0.48999515 0.13237007 -0.48787832 -0.1484486
000070 af 97 a1 bf 4d dc 2a bf f7 23 18 bf 2a ae d3 3e
       -1.2624415 -0.667424 -0.5942988 0.41343814
000080 52 83 8d be 03 58 04 40 98 89 95 3e 70 ef b0 be
       -0.27639252 2.0678718 0.29206538 -0.34557676
000090 a9 14 24 3e 00 bb 23 bf 25 c0 74 3f 6e c4 8a 3e
       0.16023506 -0.63957214 0.9560569 0.2710299
0000a0 31 a1 29 be 87 75 4c 3e ef 80 ea be bd da 24 3e
       -0.16565396 0.19966708 -0.45801494 0.16099067
0000b0 86 9f 39 c0 68 51 88 bf 53 6c 93 bf 40 a9 19 3f
       -2.9003615 -1.0649843 -1.1517433 0.6002388
0000c0 7e a7 ac 3f d6 f8 5f be 71 28 64 be e7 3a b0 3e
       1.3488615 -0.21872267 -0.22281052 0.3441994
0000d0 d9 ce e2 3e 47 a5 94 3f 3e 39 22 bf bb 34 f4 3e
       0.44298437 1.1612939 -0.63368595 0.4769648
0000e0 7e d8 97 bf 46 b7 46 3f 44 6f 05 bd 8d 7d cd 3e
       -1.1862943 0.77623403 -0.032576814 0.4013485
0000f0 44 60 20 3f d1 90 30 3f e7 a1 f5 3e 17 5a 36 3f
       0.6264689 0.6897097 0.47975084 0.71231216
000100 0e c8 87 bf b7 49 6e 40 2c e9 8f 3e b5 e8 30 3f
       -1.0607927 3.7232492 0.28107584 0.6910508
000110 d7 30 40 bf f6 3e f7 3e 0a 00 3b 3f 8e 23 0f 3f
       -0.75074524 0.48290223 0.73046935 0.5591363
000120 eb 7a ba 3e d1 2f b1 3e a8 ea 83 bd 25 87 36 bf
       0.36421904 0.34606794 -0.064412415 -0.71299964
000130 13 f5 7f bf 9e 7a 27 c0 d6 07 6f bf 6c 3b 2d 3f
       -0.9998333 -2.616859 -0.9337133 0.67668796
000140 27 b4 33 c0 33 81 0e 3f 7f 0a 64 bc d7 e8 d4 3e
       -2.8078706 0.5566589 -0.013918518 0.41583893
000150 92 a2 62 be d1 7a ad 3d 69 37 4b 3f e3 22 e2 3e
       -0.22132328 0.08470691 0.79381424 0.4416724
000160 22 12 22 3e be be 39 3e db da df bd ea a4 83 be
       0.1582723 0.18139169 -0.10930415 -0.25711757
000170 76 76 33 bf f5 46 30 3e 36 9e 88 bf b3 76 14 3f
       -0.7010263 0.17214568 -1.0673282 0.5799362
000180 56 51 9e 3f 76 8e b7 bf fc 2e 7f be c3 7b 1a be
       1.2368572 -1.4340351 -0.24920267 -0.15086274
000190 ec f5 d8 3e b5 79 7d 3f ef 62 5d bf fa 89 12 bf
       0.42375124 0.99013835 -0.86479086 -0.57241786
0001a0 66 bc bd bd a8 c0 d0 bb c5 db 94 3e 1f 15 c3 3e
       -0.0926445 -0.0063706227 0.2907392 0.38102052
0001b0 3c 84 86 3f fa c7 07 3f e3 74 67 3f 23 30 2a bf
       1.0509105 0.53039515 0.9041273 -0.664797
0001c0 8c ef 89 3f 97 9c 86 bf fd 47 09 3f 19 a8 1a be
       1.0776229 -1.0516537 0.5362547 -0.15103187
0001d0 de e9 ae 3e 95 ef c8 bc 34 1e a4 be 1a b2 c5 be
       0.34162802 -0.024528304 -0.32054293 -0.38612443
0001e0 d9 a8 c3 3d 57 0a 00 bf d8 c8 ba bd e6 58 21 3f
       0.095536895 -0.5001578 -0.09120339 0.63026273
0001f0 6c 98 03 3e e9 22 08 bf 50 33 64 3e b0 fc e5 be
       0.12851113 -0.5317827 0.22285199 -0.44919348

transformer_encoder.layers.0.linear_net.3.bias f4 [8]
000000 b8 a6 b4 be 26 b6 9a be 21 1a b6 bc 50 f0 5d 3a
       -0.35283446 -0.30217093 -0.022229256 0.00084662903
000010 32 d3 51 bd cb 69 ab be 42 2e 10 3e af 79 40 3f
       -0.051226802 -0.3347915 0.14080146 0.75185674

final_linear.weight f4 [1, 8]
000000 ad ee 36 be 2f ae 25 be c8 53 06 be 68 32 c9 bc
       -0.17864485 -0.16179727 -0.13117898 -0.024560168
000010 31 0f f9 bd 09 3a 2d bd c9 77 d9 3c 22 b9 cb bd
       -0.12161101 -0.042291675 0.026546376 -0.09947421

exp_avg f4 [8, 2]
000000 b7 87 c6 ba 65 16 2b ba d9 6c 97 b8 97 58 8b b8
       -0.0015146647 -0.00065264694 -7.2205155e-05 -6.644538e-05
000010 e5 f9 56 39 1e b5 0f 39 9d e3 77 3a 64 a0 ca 39
       0.00020501723 0.00013705014 0.0009456219 0.00038647943
000020 37 34 0f b9 25 86 3c 38 ac b2 22 b9 98 6f 25 b9
       -0.00013656994 4.4947625e-05 -0.00015516084 -0.00015777198
000030 3e ac 83 37 4c a4 9e 39 7d a1 47 b9 d3 d1 98 38
       1.5696623e-05 0.0003025852 -0.00019038278 7.2870076e-05

exp_avg_sq f4 [8, 2]
000000 c7 c8 7d 38 c6 1d 90 38 d5 de 8e 35 f9 d3 eb 35
       6.050689e-05 6.872001e-05 1.0644677e-06 1.7570557e-06
000010 73 ca ca 36 5f f2 12 37 2e 47 2e 37 d1 92 89 37
       6.0436373e-06 8.75871e-06 1.0387781e-05 1.640004e-05
000020 9c 68 bd 35 64 1b d1 35 f4 ee 77 36 03 37 9b 36
       1.4112043e-06 1.5579685e-06 3.6944957e-06 4.625764e-06
000030 48 25 86 35 b2 35 07 36 ae 29 3f 36 fa 54 be 36
       9.994628e-07 2.0147822e-06 2.8485479e-06 5.672334e-06

exp_avg f4 [8]
000000 85 1c c6 ba 3c 33 53 b8 6e 7c 71 39 55 47 96 3a
       -0.0015114701 -5.0354036e-05 0.00023029905 0.001146535
000010 02 3e 2d 38 d9 35 1a b9 57 db c3 39 9d 80 53 38
       4.1304163e-05 -0.00014706644 0.0003735672 5.04261e-05

exp_avg_sq f4 [8]
000000 0b 91 50 39 b7 3f 64 36 4f 50 cc 37 48 a1 08 38
       0.00019890458 3.4011734e-06 2.4356092e-05 3.257513e-05
000010 a3 64 c0 36 70 c4 72 37 78 25 44 36 1d 93 6f 37
       5.7337616e-06 1.4470061e-05 2.9228086e-06 1.4279763e-05

exp_avg f4 [24, 8]
000000 85 07 49 b6 7d ff f9 36 20 78 67 37 02 a3 be 36
       -2.995571e-06 7.450521e-06 1.3796642e-05 5.681418e-06
000010 8e 37 30 36 9c 4d dd 37 4c fb 1e 37 cf 9b ab 37
       2.625838e-06 2.6381393e-05 9.4760435e-06 2.0457343e-05
000020 fa a7 42 37 c3 c2 40 37 be 00 2a b8 be 1e 19 b8
       1.1602411e-05 1.1489438e-05 -4.053185e-05 -3.6506673e-05
000030 ed 89 02 38 39 61 f8 37 e0 34 81 34 31 0c fb 37
       3.112287e-05 2.9609177e-05 2.4066594e-07 2.9927209e-05
000040 07 c0 93 b6 c1 69 53 37 d1 3f c6 37 ae c1 1c 37
       -4.4032963e-06 1.2601203e-05 2.3633156e-05 9.343419e-06
000050 ab f6 95 36 4c 59 3a 38 42 5b 86 37 45 c2 10 38
       4.469262e-06 4.442902e-05 1.601654e-05 3.4513203e-05
000060 d3 1a 08 b6 4d 6b 19 37 75 17 49 37 2a 75 53 36
       -2.0281193e-06 9.144494e-06 1.1985995e-05 3.1509649e-06
000070 71 66 b4 36 54 4e 03 38 a2 50 2e 37 84 46 d0 37
       5.376344e-06 3.1305783e-05 1.0389982e-05 2.4828369e-05
000080 b7 64 38 38 16 0f 0a 36 83 91 86 37 17 db 45 b7
       4.3962817e-05 2.0572384e-06 1.6041804e-05 -1.1793126e-05
000090 6a e8 0b b7 9d 43 c7 b7 54 95 d3 b6 12 a2 cb b7
       -8.339159e-06 -2.3754134e-05 -6.305674e-06 -2.4274956e-05
0000a0 36 2e 60 38 d3 a2 8d 36 1e 34 78 b7 be db 13 b8
       5.34488e-05 4.2210827e-06 -1.4794086e-05 -3.5252182e-05
0000b0 e6 b0 74 37 a0 62 98 36 ad aa 46 b6 72 4e 1b b7
       1.4584721e-05 4.5414345e-06 -2.9603646e-06 -9.256984e-06
0000c0 8f a2 94 38 30 c4 61 36 b3 ac c8 37 be ee a9 b7
       7.087469e-05 3.3641809e-06 2.3922277e-05 -2.0257543e-05
0000d0 94 f7 4b b7 95 72 1a b8 0e c6 25 b7 55 31 20 b8
       -1.2157387e-05 -3.6823174e-05 -9.88088e-06 -3.8192917e-05
0000e0 1f 53 59 38 68 39 2b 36 fc 9a 8e 37 e5 33 7b b7
       5.1814244e-05 2.55144e-06 1.699989e-05 -1.49728485e-05
0000f0 33 7e 0d b7 32 3d da b7 e2 f5 f4 b6 57 a0 e5 b7
       -8.433638e-06 -2.6016121e-05 -7.300391e-06 -2.7373591e-05
000100 75 ce a6 39 0b 58 23 b7 5a 07 5c b9 c4 5e 9f b9
       0.0003181581 -9.736056e-06 -0.00020983574 -0.0003039745
000110 a5 a1 5a 39 f8 de e3 38 2c fb 64 38 b4 61 2e b8
       0.00020850317 0.00010865735 5.4593358e-05 -4.1575826e-05
000120 40 57 c0 b7 d4 7a 9e b6 68 58 c9 b6 e3 32 e2 37
       -2.2928813e-05 -4.723066e-06 -6.0005586e-06 2.6964995e-05
000130 b2 47 05 b8 79 7d 35 b8 18 45 13 b8 e7 47 21 b8
       -3.1776442e-05 -4.327062e-05 -3.511188e-05 -3.8452356e-05
000140 b2 eb 0f 37 1c 97 43 37 11 17 f6 37 09 7c d2 36
       8.578341e-06 1.1658089e-05 2.9336226e-05 6.2729273e-06
000150 1d f5 b1 37 c0 47 1b 38 0b b7 53 37 4d a4 10 38
       2.1214184e-05 3.7021702e-05 1.2619198e-05 3.4485292e-05
000160 a0 96 73 b7 cc c2 96 b6 db f4 df 37 44 be 96 37
       -1.4518999e-05 -4.4930257e-06 2.6697691e-05 1.7969993e-05
000170 0e fd 9a b7 9b 12 10 b7 d8 10 32 37 53 9a 07 b6
       -1.8476068e-05 -8.587401e-06 1.06135485e-05 -2.0206396e-06
000180 71 37 35 b7 77 1c d2 b4 db 4d 81 37 b3 b9 a9 37
       -1.0801349e-05 -3.913626e-07 1.5414253e-05 2.0232843e-05
000190 4e e4 54 b7 a7 59 cb b7 0e b6 61 b7 01 5e 99 b6
       -1.2689341e-05 -2.4241233e-05 -1.3453433e-05 -4.570699e-06
0001a0 c5 af 96 b7 20 62 8a b5 f3 f5 7e b6 20 f4 6d 37
       -1.7963242e-05 -1.0310359e-06 -3.799211e-06 1.4183141e-05
0001b0 0b dc 32 b7 d8 32 a5 b7 02 f0 43 b7 94 df 36 b7
       -1.06608595e-05 -1.9693209e-05 -1.1678787e-05 -1.0900101e-05
0001c0 26 eb 47 b7 dd 6d f1 b4 4e 1e 42 37 6d 41 8d 37
       -1.1916074e-05 -4.4969684e-07 1.1570357e-05 1.6838976e-05
0001d0 6b b0 33 b7 9f 39 87 b7 22 0e 0f b7 f2 f2 5e b6
       -1.0710307e-05 -1.6120086e-05 -8.526755e-06 -3.322199e-06
0001e0 b3 4b 02 b8 27 22 4a b6 a7 80 42 b8 91 5d bf 36
       -3.1064916e-05 -3.0120225e-06 -4.637302e-05 5.703136e-06
0001f0 65 25 32 b7 5a 27 11 b8 98 51 c6 b7 ed a3 0c b8
       -1.0618333e-05 -3.4607343e-05 -2.3641434e-05 -3.353127e-05
000200 b5 c2 c7 b6 d3 7c 39 b4 05 00 86 b6 03 fd e2 34
       -5.953329e-06 -1.7274878e-07 -3.9935135e-06 4.227987e-07
000210 ea 52 13 34 58 13 e3 35 8b db 09 b6 46 c7 b2 36
       1.3720606e-07 1.6918448e-06 -2.0542382e-06 5.328012e-06
000220 12 c1 8d b6 c6 05 b5 b4 9a a3 22 b5 e0 56 e6 35
       -4.224604e-06 -3.3718078e-07 -6.0587774e-07 1.7161619e-06
000230 f1 24 c3 b5 9c 42 38 b4 ca 47 fb b5 7c 73 23 36
       -1.4539384e-06 -1.7160568e-07 -1.8721851e-06 2.4356113e-06
000240 e5 09 09 b7 a9 35 2f b5 b6 90 c3 36 b9 53 0b 37
       -8.16814e-06 -6.5270666e-07 5.8282994e-06 8.304539e-06
000250 00 fb d4 b6 6f b4 a1 b6 ea f1 67 b6 44 02 70 35
       -6.3473126e-06 -4.819179e-06 -3.4562495e-06 8.9410264e-07
000260 06 fe 0a 37 34 69 10 36 17 a7 4d b8 e8 ff 23 b8
       8.284585e-06 2.1518908e-06 -4.9031423e-05 -3.910056e-05
000270 27 34 0e 38 67 a8 25 38 1e a3 3a 37 ad a8 a9 37
       3.390401e-05 3.9495902e-05 1.1124443e-05 2.0224916e-05
000280 36 15 34 39 45 46 38 37 d0 70 8c b7 dc fd 18 b8
       0.0001717404 1.09836155e-05 -1.6741833e-05 -3.647605e-05
000290 ec 37 18 b8 a6 39 1a b9 f2 6b dc b8 32 67 22 b9
       -3.6291705e-05 -0.0001470806 -0.00010510524 -0.00015487967
0002a0 c2 71 ea b8 fc 10 bc 38 c3 f0 54 3a a4 79 f1 39
       -0.000111791785 8.967702e-05 0.00081230345 0.0004605773
0002b0 bf 02 3d b9 c3 1f dd 38 29 d9 fc 38 c7 7c 85 39
       -0.00018025468 0.00010544017 0.000120567456 0.00025460703
0002c0 d3 4f 93 35 76 3d 1d b8 a2 7c d0 b9 63 59 49 b9
       1.0975585e-06 -3.7488957e-05 -0.0003976571 -0.00019202153
0002d0 3c 8d c8 38 42 01 07 b7 f2 e8 84 b8 4d 3e aa b8
       9.56305e-05 -8.04692e-06 -6.33764e-05 -8.117836e-05
0002e0 e6 ea 01 b9 84 43 b9 36 27 fd 02 39 1c e0 df 38
       -0.00012389905 5.5212895e-06 0.00012492073 0.00010675212
0002f0 eb 96 f4 b7 51 63 72 38 75 73 50 38 16 31 bc 38
       -2.9157343e-05 5.778979e-05 4.9698592e-05 8.9736815e-05

exp_avg_sq f4 [24, 8]
000000 60 c1 d8 31 70 49 73 31 5e 87 32 32 0f fe a0 30
       6.3084116e-09 3.5402898e-09 1.0391743e-08 1.171374e-09
000010 35 6c ed 30 f2 31 5e 31 5f 70 54 30 68 ab 1c 31
       1.7274774e-09 3.2333642e-09 7.728484e-10 2.279842e-09
000020 d8 52 48 32 e4 52 c1 30 2f 29 12 32 b3 f0 1a 32
       1.1660369e-08 1.4066157e-09 8.507683e-09 9.0187084e-09
000030 cd ed 5a 30 27 f7 27 31 60 c7 81 30 54 1a b3 31
       7.9645873e-10 2.4442188e-09 9.442651e-10 5.212579e-09
000040 fa 73 71 32 7a 7b fb 31 b9 02 be 32 ec 26 2b 31
       1.4054416e-08 7.319099e-09 2.212015e-08 2.49059e-09
000050 f7 8c 88 31 5a 55 f9 31 89 13 e6 30 f3 ba b6 31
       3.974147e-09 7.256557e-09 1.6740255e-09 5.318151e-09
000060 af 20 ef 31 89 e3 6c 31 80 0d 2d 32 1a b0 a7 30
       6.959531e-09 3.4471859e-09 1.0072995e-08 1.22009e-09
000070 d0 66 fb 30 ab 75 6c 31 79 a1 59 30 ec 44 35 31
       1.8291875e-09 3.4409406e-09 7.9173607e-10 2.6378144e-09
000080 be c3 a7 32 99 5e d0 2f 79 c7 8b 30 af 14 6f 31
       1.9530372e-08 3.7902195e-10 1.0170275e-09 3.4790835e-09
000090 82 8d 49 2f e0 24 83 31 61 bf d6 2e 59 12 90 31
       1.8331117e-10 3.816794e-09 9.765589e-11 4.1930375e-09
0000a0 00 f6 42 33 0b a2 3f 31 5e 8e db 32 91 6b 8b 30
       4.539288e-08 2.7886269e-09 2.5559697e-08 1.0144153e-09
0000b0 a3 0e eb 31 98 03 06 33 6f df 6a 31 c5 7a b3 32
       6.841064e-09 3.1202575e-08 3.417849e-09 2.0894172e-08
0000c0 e7 45 3c 33 6a 03 72 30 6a eb 23 31 77 5a 04 32
       4.3835737e-08 8.804394e-10 2.385344e-09 7.703981e-09
0000d0 ab 11 f3 2f 49 1c 15 32 69 a7 85 2f ea 31 23 32
       4.4213996e-10 8.679373e-09 2.431151e-10 9.499198e-09
0000e0 72 5d cb 32 a6 b6 0f 30 ce e9 e7 30 b7 99 87 31
       2.3674804e-08 5.2282656e-10 1.6873913e-09 3.9464925e-09
0000f0 22 8e a6 2f ea d2 af 31 4d 74 4a 2f d9 0b b8 31
       3.0296216e-10 5.1171485e-09 1.8413111e-10 5.3564517e-09
000100 f8 0b fb 34 d2 d5 29 35 a4 0c 51 36 d3 d3 07 36
       4.6761102e-07 6.3268556e-07 3.1150785e-06 2.0239866e-06
000110 c4 14 1f 35 ec 8c ba 34 66 b6 53 34 18 cb 2d 35
       5.9262334e-07 3.4747734e-07 1.9717262e-07 6.474306e-07
000120 d2 ea 7d 32 3f 20 1c 33 30 53 ed 33 5b 6f 3b 33
       1.477993e-08 3.6350908e-08 1.1051304e-07 4.3640608e-08
000130 c1 ce 8f 33 60 b5 18 33 58 cf e3 32 36 a6 82 33
       6.696565e-08 3.5555217e-08 2.6520567e-08 6.08383e-08
000140 d6 2d c1 32 9d 24 bc 33 6b 7b 7a 34 3d 46 ab 33
       2.2489e-08 8.761092e-08 2.3327964e-07 7.975584e-08
000150 cc a7 48 33 c7 50 ee 32 0a b5 88 32 b2 3c 2f 33
       4.671874e-08 2.774358e-08 1.591481e-08 4.0800565e-08
000160 5f 6a f6 32 aa 62 18 34 98 d7 ae 34 ee 46 e2 33
       2.8686541e-08 1.4191997e-07 3.256689e-07 1.0536847e-07
000170 c6 01 9a 33 a1 74 61 33 d2 95 d0 32 85 74 9f 33
       7.1715064e-08 5.2492968e-08 2.4282517e-08 7.425209e-08
000180 db 1a 9c 31 2e fe b1 31 25 4c 82 32 12 4e 91 31
       4.5432507e-09 5.180275e-09 1.5168618e-08 4.228931e-09
000190 b8 b7 d0 31 ba c9 10 32 bb 0d 35 31 a5 12 b4 31
       6.074483e-09 8.4277705e-09 2.6346771e-09 5.240809e-09
0001a0 97 f4 bd 30 21 bf 83 30 32 64 34 31 f2 55 10 30
       1.3821077e-09 9.585827e-10 2.6250402e-09 5.250903e-10
0001b0 a1 91 6b 30 41 f7 a8 30 fa 91 e0 2f ee 7a 2d 30
       8.5699453e-10 1.2293883e-09 4.0849085e-10 6.3111727e-10
0001c0 dd 86 07 31 a9 e1 26 31 0d e3 fb 31 9e b8 12 31
       1.9721746e-09 2.4284452e-09 7.330874e-09 2.135074e-09
0001d0 16 0a 51 31 8a e0 91 31 a4 d2 c4 30 65 e4 2f 31
       3.0419236e-09 4.2455826e-09 1.4320745e-09 2.559568e-09
0001e0 79 51 85 31 49 d1 af 30 e1 36 b4 31 0e d1 5a 31
       3.880072e-09 1.2792408e-09 5.2449285e-09 3.184201e-09
0001f0 7c a3 ab 30 b7 74 b6 30 67 37 16 30 8c 04 f5 30
       1.2488353e-09 1.3275415e-09 5.4648414e-10 1.7827388e-09
000200 2d 96 00 31 d4 98 8c 2f c1 01 05 32 89 4d 91 31
       1.8711817e-09 2.5574443e-10 7.742018e-09 4.22887e-09
000210 72 cb 4f 31 0b 3e 97 31 ab f5 54 30 3e 24 8a 30
       3.023811e-09 4.401732e-09 7.7474266e-10 1.0051122e-09
000220 e0 9a 74 30 1a 88 58 2f 7a d7 84 31 63 f4 fc 30
       8.8986774e-10 1.9693439e-10 3.8662025e-09 1.8404872e-09
000230 73 df c4 30 e6 54 19 31 ff 7e db 2f c3 82 11 30
       1.4324385e-09 2.231269e-09 3.9926104e-10 5.2936516e-10
000240 19 a3 cb 30 53 31 e1 2e 55 35 4b 31 23 12 0e 31
       1.4816549e-09 1.0240577e-10 2.9570704e-09 2.067403e-09
000250 8a bc a7 30 9f 41 e3 30 c9 ec 9a 2f ad 63 f1 2f
       1.2204435e-09 1.6535074e-09 2.8180683e-10 4.3908469e-10
000260 f1 3d 73 32 a9 87 26 31 68 ef 85 32 48 d2 a4 31
       1.41585454e-08 2.4233293e-09 1.5592107e-08 4.7969344e-09
000270 34 81 92 31 89 99 4b 32 53 22 f7 30 b3 b1 a3 31
       4.263848e-09 1.1851065e-08 1.7981371e-09 4.7641264e-09
000280 a2 ed f3 34 8a 31 d9 34 3e 1e 8a 35 cd 6f 14 35
       4.5435178e-07 4.0455444e-07 1.0290603e-06 5.529699e-07
000290 ef 49 0b 34 46 ae 24 34 9b 5a 93 33 ff d5 f8 34
       1.297228e-07 1.533709e-07 6.861702e-08 4.6349302e-07
0002a0 09 9d 66 35 8b fb 12 35 6a 6b e1 35 12 b7 c2 35
       8.5910193e-07 5.475528e-07 1.6795068e-06 1.4507407e-06
0002b0 eb 04 94 34 0b b8 51 34 c4 d3 e8 33 d2 a8 51 35
       2.7570727e-07 1.9531596e-07 1.0841862e-07 7.8104233e-07
0002c0 11 e8 ad 34 36 d5 16 34 b5 93 1a 35 16 97 00 35
       3.2392612e-07 1.4047404e-07 5.758441e-07 4.7903575e-07
0002d0 c2 50 d0 33 57 ad a6 33 cb 9e 50 33 65 f4 98 34
       9.7004445e-08 7.761508e-08 4.8573195e-08 2.8490027e-07
0002e0 ab b3 69 34 ab 6f 07 35 ed 51 48 35 a0 72 66 34
       2.1765179e-07 5.045392e-07 7.4625024e-07 2.146212e-07
0002f0 67 55 3f 34 fc 18 c9 33 15 2a aa 33 2e c3 60 34
       1.781933e-07 9.3643365e-08 7.9238966e-08 2.0932632e-07

exp_avg f4 [8, 8]
000000 fd 8e e7 37 f6 27 13 38 5d be 83 b7 50 54 09 37
       2.760393e-05 3.5084748e-05 -1.5705062e-05 8.185467e-06
000010 be 32 28 b8 b8 3a 89 39 6d 93 5b b9 f0 8d a5 38
       -4.010158e-05 0.00026174425 -0.00020940388 7.894251e-05
000020 17 eb a0 b9 5f 45 ab 38 74 2a ca b7 1e 1d dc 36
       -0.00030692734 8.166837e-05 -2.4100045e-05 6.5599006e-06
000030 fc 74 04 3a 29 0e 14 39 0f 01 cc 38 12 c9 9b b9
       0.00050528324 0.00014119655 9.727675e-05 -0.00029713713
000040 d3 0c 5c b9 f9 12 b0 38 2e 25 a2 b8 e2 c3 42 38
       -0.00020985612 8.395868e-05 -7.731687e-05 4.6435634e-05
000050 39 c9 63 39 c3 0a 27 39 8c 59 a2 b7 d0 58 f9 b8
       0.00021723368 0.0001593037 -1.9353603e-05 -0.00011889788
000060 13 d6 ea 38 bd 6d d1 37 cc 81 5f 38 b0 a2 0c b7
       0.00011197864 2.4965842e-05 5.3288226e-05 -8.382529e-06
000070 77 43 6f b8 e4 00 e6 37 66 b5 b8 b7 c5 33 8b 38
       -5.7044872e-05 2.7418551e-05 -2.201898e-05 6.637679e-05
000080 71 6b 6b b9 22 b2 4e 38 4a dd 78 b8 a1 b2 e3 37
       -0.00022451371 4.9280126e-05 -5.93339e-05 2.714369e-05
000090 50 fb b0 b8 26 aa 19 b6 58 65 a6 b7 b3 c8 90 38
       -8.4391446e-05 -2.2897816e-06 -1.9835934e-05 6.903838e-05
0000a0 3f 19 f2 b8 6e 77 2a 38 1f f0 16 b8 40 73 c4 37
       -0.00011544162 4.0642386e-05 -3.5986417e-05 2.3418688e-05
0000b0 6c c6 8a 39 4b 7f 2c 39 3e 14 93 b7 05 66 17 b9
       0.00026469247 0.00016450619 -1.7533192e-05 -0.00014438487
0000c0 ff 12 4c 39 98 ef 07 b8 67 eb 75 38 7a 3b d0 b7
       0.00019462033 -3.2409647e-05 5.8631787e-05 -2.4823228e-05
0000d0 ac 4a 44 b9 38 e8 2a 37 8c 9b ad b8 c1 b6 00 39
       -0.00018719834 1.0186857e-05 -8.278256e-05 0.00012275112
0000e0 3f b4 43 b9 d1 89 74 38 f1 0b d0 36 71 bb 0e b6
       -0.00018663796 5.8302485e-05 6.200273e-06 -2.1268754e-06
0000f0 76 ea f5 38 41 1a 88 38 66 8c 1b 36 a7 5d 81 b8
       0.00011726182 6.4898755e-05 2.3178522e-06 -6.1686434e-05

exp_avg_sq f4 [8, 8]
000000 04 4c e8 34 6d 99 7a 33 48 d8 ae 33 76 13 87 33
       4.3268676e-07 5.83472e-08 8.141848e-08 6.289967e-08
000010 04 08 7b 34 73 00 93 34 96 f0 5d 34 c6 5a 43 34
       2.3379113e-07 2.738121e-07 2.0669754e-07 1.8193813e-07
000020 f4 60 bc 35 59 e8 1e 34 da 37 bb 34 0c 8c 6e 34
       1.4035309e-06 1.4799424e-07 3.4872102e-07 2.2216426e-07
000030 2d 7d 38 35 ff 2d a5 35 ce 54 70 35 91 61 03 35
       6.8727496e-07 1.2306845e-06 8.9530374e-07 4.894328e-07
000040 dd a3 fc 34 e9 f9 83 33 8f 95 ff 33 81 c9 ad 33
       4.7057884e-07 6.145621e-08 1.19015674e-07 8.0925936e-08
000050 74 e4 92 34 57 54 ec 34 d3 c6 b0 34 9c 73 4f 34
       2.736084e-07 4.401979e-07 3.2927218e-07 1.9320436e-07
000060 5f 30 69 34 42 4e a3 32 d8 51 9b 33 1e 3c 0a 33
       2.1717413e-07 1.9011285e-08 7.232637e-08 3.2185305e-08
000070 e9 c6 8d 34 90 54 40 34 f4 0e 2e 34 fc e0 12 34
       2.6408023e-07 1.7912157e-07 1.6210453e-07 1.3679158e-07
000080 8f 98 7e 34 03 25 c8 32 66 35 84 33 ac 6a 0f 33
       2.3711094e-07 2.3299895e-08 6.156442e-08 3.33918e-08
000090 cc 26 8f 34 80 e1 42 34 b1 07 28 34 a0 77 32 34
       2.6664054e-07 1.8149694e-07 1.5649017e-07 1.6621061e-07
0000a0 5e 31 76 34 b4 c7 9e 32 42 2d 8f 33 8a 33 c0 32
       2.2928495e-07 1.8484435e-08 6.667189e-08 2.2375179e-08
0000b0 7a 3e 26 34 37 b0 01 34 cc 1e 0d 34 55 95 cb 33
       1.5482684e-07 1.2078168e-07 1.3142852e-07 9.4800875e-08
0000c0 53 e9 69 35 ea 9e a9 33 ca 29 93 34 cd 1b ca 33
       8.7138795e-07 7.898582e-08 2.741129e-07 9.411415e-08
0000d0 54 13 2e 35 df 48 c6 34 68 fe fc 34 d1 40 e6 34
       6.484818e-07 3.6933395e-07 4.7123763e-07 4.2887999e-07
0000e0 42 bc 72 34 55 eb bf 32 0b d7 18 33 3c 75 05 33
       2.2606494e-07 2.2342343e-08 3.558584e-08 3.10731e-08
0000f0 52 3e 79 34 c4 76 ee 33 47 be bf 33 82 b0 7a 34
       2.3212604e-07 1.1104342e-07 8.928742e-08 2.3347278e-07

exp_avg f4 [8]
000000 81 20 85 39 52 59 00 3a 5a 49 b2 39 00 4c 18 3a
       0.00025391954 0.0004896122 0.00034005457 0.0005809665
000010 56 9d 51 39 a6 8b 67 39 6a cf 10 38 2c 14 0b 3a
       0.00019990405 0.000220819 3.4525445e-05 0.0005305435

exp_avg_sq f4 [8]
000000 f5 08 dc 35 a1 9a ac 36 86 4b 3b 36 d0 14 07 36
       1.6393884e-06 5.1440006e-06 2.7909132e-06 2.0128682e-06
000010 c0 8e cb 35 f4 cd 31 35 b6 23 23 36 4e f7 a7 35
       1.5166224e-06 6.623734e-07 2.430968e-06 1.2514445e-06

exp_avg f4 [16, 8]
000000 53 33 c9 36 eb 09 30 b8 e7 12 5d b8 93 b7 2a 38
       5.9962417e-06 -4.1970907e-05 -5.270811e-05 4.0702125e-05
000010 03 ad 6b b7 fb a6 15 b8 14 0b 10 38 fa 00 1e b7
       -1.4047374e-05 -3.567988e-05 3.4342593e-05 -9.417761e-06
000020 b3 b7 05 b9 22 f5 04 b8 2d b8 04 39 4e dc 38 b9
       -0.00012752302 -3.169955e-05 0.00012657112 -0.00017629677
000030 3b 4e 0d 39 76 03 56 38 40 90 f4 b8 3e bb f1 b8
       0.00013475951 5.10248e-05 -0.00011661695 -0.00011526652
000040 4b 5a 0d b9 15 95 71 b8 12 ca 0c b9 fc 2c fa 38
       -0.00013480445 -5.759772e-05 -0.00013426717 0.00011929308
000050 07 f6 93 b8 a1 22 1d b8 f3 b9 08 39 3a 7b a2 39
       -7.0553324e-05 -3.7463968e-05 0.00013039242 0.0003099086
000060 17 cf cd 33 00 82 a0 35 76 91 b5 35 39 d1 d2 34
       9.583726e-08 1.1958764e-06 1.3527886e-06 3.9267778e-07
000070 30 d9 1f b4 0d 67 85 b3 8f 84 1d b5 89 2f d0 34
       -1.4887041e-07 -6.21204e-08 -5.8679956e-07 3.8777605e-07
000080 6e 82 15 b7 41 b4 e2 36 af 8c 80 37 f8 e0 9f 36
       -8.91146e-06 6.756309e-06 1.53243e-05 4.764759e-06
000090 91 b0 f4 36 81 a7 ee 34 38 ad fe b6 bb 3c dc 36
       7.2923217e-06 4.445283e-07 -7.589955e-06 6.563581e-06
0000a0 e1 46 86 32 a9 34 9e 31 1c d1 98 b2 aa 11 e3 32
       1.5631885e-08 4.604392e-09 -1.779022e-08 2.643431e-08
0000b0 94 25 4e b2 23 dd 1f b2 76 85 99 32 1e e7 ce 32
       -1.1999322e-08 -9.305299e-09 1.7872235e-08 2.4086656e-08
0000c0 d4 bf 0b 38 a2 79 7a 39 c3 9d 5a 39 58 08 cf 38
       3.3318836e-05 0.0002388717 0.00020848871 9.872083e-05
0000d0 af 69 f2 37 f6 c7 4a 38 ac bd f1 b8 1e 4d d6 38
       2.889786e-05 4.834678e-05 -0.00011527105 0.000102186794
0000e0 eb c3 e3 35 23 5d 5c 37 5a ee 2f 37 9b 47 49 37
       1.6969838e-06 1.3134707e-05 1.0486308e-05 1.1997206e-05
0000f0 a9 55 18 b6 da 0d 3b 35 0e 5c 47 b6 4a ce 32 37
       -2.2699626e-06 6.9683085e-07 -2.9706894e-06 1.0657657e-05
000100 4f b2 f8 34 c9 d8 b4 37 46 17 dd 37 21 b1 30 b6
       4.6323336e-07 2.155862e-05 2.635609e-05 -2.6329146e-06
000110 43 20 fa 36 57 18 18 37 cb ed 65 b7 89 a4 fe 36
       7.4543364e-06 9.065573e-06 -1.3704829e-05 7.5889443e-06
000120 d1 69 04 36 af d0 5a b5 ae 6a 7b b6 61 2f 88 36
       1.9731126e-06 -8.1515003e-07 -3.746401e-06 4.0586315e-06
000130 4a 8c f7 b5 d7 04 fe b5 d0 2d 36 36 da b4 02 35
       -1.8443764e-06 -1.8925883e-06 2.714678e-06 4.869195e-07
000140 37 5b 1e 39 ec 45 53 39 8a e2 ed 37 7e 3a 1e 37
       0.00015102034 0.00020148576 2.8358092e-05 9.431153e-06
000150 73 97 88 38 86 00 eb 38 b5 58 fe b8 0a e8 38 b9
       6.513195e-05 0.00011205771 -0.00012128187 -0.00017634049
000160 14 cc 69 37 cf 8a 81 38 be 56 4c 36 47 af 4b b8
       1.3935398e-05 6.1770545e-05 3.044886e-06 -4.856221e-05
000170 de a5 08 38 10 84 9d 38 cb ec 23 b8 0a 9f c7 b6
       3.2579403e-05 7.510942e-05 -3.908276e-05 -5.9491767e-06
000180 b3 36 1e 37 26 45 e0 b7 7d 5e 51 b8 c4 14 86 38
       9.4302695e-06 -2.673508e-05 -4.9917482e-05 6.393486e-05
000190 d9 0a c5 b7 b3 82 29 b8 07 2c 29 38 b5 65 9f 37
       -2.3489281e-05 -4.0414463e-05 4.0333744e-05 1.9001638e-05
0001a0 0e ff 9f b7 e6 d3 8c b7 e4 e2 25 37 4a 13 17 b8
       -1.9073046e-05 -1.6787973e-05 9.8875935e-06 -3.601917e-05
0001b0 cb 08 a6 b7 6f 24 15 37 9f cc bc b7 df 7b 4b b8
       -1.9792837e-05 8.889575e-06 -2.250663e-05 -4.8514336e-05
0001c0 95 14 03 39 0b 06 37 b9 b5 82 23 b9 e2 2d 17 b8
       0.00012500801 -0.00017454491 -0.00015593584 -3.6043937e-05
0001d0 e1 90 ff b8 04 5f f4 b8 27 b6 12 39 32 1b ce b8
       -0.00012186333 -0.00011652525 0.00013991502 -9.827911e-05
0001e0 2d 5f b2 32 d5 a5 d3 31 ef 6e ca b2 6d 88 16 33
       2.0765208e-08 6.159761e-09 -2.3566342e-08 3.5048675e-08
0001f0 21 c0 88 b2 e2 6e 53 b2 df 8e cb 32 0b 52 09 33
       -1.5919854e-08 -1.2307028e-08 2.369728e-08 3.1972416e-08

exp_avg_sq f4 [16, 8]
000000 7d 8e 70 32 d3 7e 6d 32 fe ac 4d 33 26 cb 05 33
       1.4002237e-08 1.3824052e-08 4.7887617e-08 3.1151238e-08
000010 a0 a1 d1 32 e2 e3 9e 32 50 ba 8f 32 19 6b bd 32
       2.44043e-08 1.849725e-08 1.6732116e-08 2.2051198e-08
000020 d1 cc bd 32 9f a9 2c 33 df 67 03 34 49 d1 3f 33
       2.2095636e-08 4.020114e-08 1.2238114e-07 4.4660997e-08
000030 ba f1 a4 33 58 1c f1 32 51 96 ee 32 6b 9a 8d 34
       7.680815e-08 2.8068982e-08 2.7775203e-08 2.637565e-07
000040 18 06 f6 32 30 8c 27 33 8f 72 14 34 6d 15 2e 34
       2.864094e-08 3.9010217e-08 1.382525e-07 1.6212807e-07
000050 23 af fa 34 ef 5a 2f 34 f2 b4 c3 33 68 66 61 35
       4.6693557e-07 1.6331227e-07 9.113309e-08 8.396805e-07
000060 94 32 e8 2f 0c 85 af 31 21 df 16 31 b0 db 34 31
       4.2236492e-10 5.108296e-09 2.1954707e-09 2.6318325e-09
000070 17 b8 80 31 ea 44 a7 31 9a 0c 2a 32 fa 0b 0a 32
       3.746219e-09 4.8681743e-09 9.898168e-09 8.03538e-09
000080 7f 3d 30 31 18 a0 2b 31 fb 0b 93 31 65 85 5c 31
       2.5646327e-09 2.4974778e-09 4.279625e-09 3.209004e-09
000090 28 89 50 31 d8 d6 0f 31 a5 d8 89 30 c0 91 66 30
       3.0345948e-09 2.0931363e-09 1.0029636e-09 8.3880636e-10
0000a0 11 07 12 30 9c 71 cb 2f 29 6d cd 30 65 3f 93 30
       5.312453e-10 3.700621e-10 1.4946738e-09 1.0713676e-09
0000b0 07 fc 93 30 6a 71 0e 30 31 23 27 30 79 de 95 30
       1.0767288e-09 5.182047e-10 6.0804256e-10 1.0904407e-09
0000c0 60 d6 ec 31 78 86 e9 32 8c dd d6 32 f1 7c b6 32
       6.8928756e-09 2.718592e-08 2.5013627e-08 2.1244405e-08
0000d0 53 62 69 32 bd 41 28 32 9b 19 aa 32 da ad 91 32
       1.3584741e-08 9.793834e-09 1.9802249e-08 1.695928e-08
0000e0 b9 f1 98 30 52 d3 54 30 73 3c 48 31 4c 13 1f 30
       1.1128157e-09 7.7425455e-10 2.9138192e-09 5.7871286e-10
0000f0 70 e8 6f 30 12 6c b3 30 d6 e7 f0 30 b2 d6 4b 30
       8.7278007e-10 1.305468e-09 1.752819e-09 7.415607e-10
000100 36 fe ae 31 0a fb a6 32 ca 2a a5 32 0d 1a 51 32
       5.092967e-09 1.9439103e-08 1.9227986e-08 1.2171324e-08
000110 7f 73 2f 32 1f ae 16 32 84 04 8e 32 21 ff 4f 32
       1.0212601e-08 8.77074e-09 1.653303e-08 1.2106995e-08
000120 67 8b 94 31 7d ec 21 32 84 19 87 32 a3 3b 6c 32
       4.323215e-09 9.425205e-09 1.5727672e-08 1.3750568e-08
000130 67 ff 17 33 db 92 8c 32 b4 5b 3d 32 5a c5 dd 32
       3.5389714e-08 1.6364927e-08 1.1022099e-08 2.5817531e-08
000140 02 b7 a7 33 f5 55 72 34 3f 11 26 34 ec ec b5 32
       7.8098324e-08 2.2569277e-07 1.5466229e-07 2.1178913e-08
000150 c4 a7 bf 32 22 41 2f 33 2a 30 b9 33 03 47 6b 33
       2.2311617e-08 4.08046e-08 8.623495e-08 5.4779786e-08
000160 f3 1c 30 34 9c 28 e6 33 77 39 7d 34 d0 02 85 34
       1.6401809e-07 1.07175964e-07 2.3583367e-07 2.4775227e-07
000170 98 98 68 35 f4 be 00 35 90 a4 53 34 69 3c f1 35
       8.664879e-07 4.796159e-07 1.9710774e-07 1.7973481e-06
000180 ab 37 e0 31 73 de 9e 32 c6 20 05 33 79 81 f0 32
       6.5255867e-09 1.8494779e-08 3.0996283e-08 2.7998555e-08
000190 44 8d a6 32 a3 eb ee 31 76 41 0d 32 e3 22 fa 31
       1.9389184e-08 6.9535004e-09 8.222164e-09 7.2799238e-09
0001a0 2f 34 42 33 e0 cc ce 33 d7 fe d7 33 bf 54 43 34
       4.5216606e-08 9.629889e-08 1.0058073e-07 1.819162e-07
0001b0 c5 b8 2b 33 41 ad 4d 33 8e 16 ca 32 b4 df 71 33
       3.9982087e-08 4.7887855e-08 2.3526152e-08 5.6315642e-08
0001c0 4d 7a 20 32 05 bf 52 33 cc 32 aa 33 81 9d 6f 32
       9.341034e-09 4.9068166e-08 7.925482e-08 1.3947443e-08
0001d0 af 85 cc 32 c9 f3 aa 32 84 f6 7b 33 2a 5b e4 32
       2.3809518e-08 1.9901465e-08 5.8664696e-08 2.658415e-08
0001e0 67 39 11 2e d8 c7 74 2e d3 a3 20 2f 11 8e 3c 2f
       3.3020166e-11 5.5656674e-11 1.4610117e-10 1.7148973e-10
0001f0 72 6c 87 2f a1 dc 9a 2f eb 8d 6d 2e bc 12 d6 2e
       2.4633412e-10 2.8169203e-10 5.401361e-11 9.734921e-11

exp_avg f4 [16]
000000 69 26 9a 37 e3 e8 49 b7 a9 86 66 b8 a7 fa 60 35
       1.8376117e-05 -1.2034757e-05 -5.4961685e-05 8.381125e-07
000010 80 5e ae 36 74 84 25 32 e7 72 c9 38 b0 d8 8e 36
       5.1966053e-06 9.63438e-09 9.605829e-05 4.2571555e-06
000020 72 ed ea 36 f4 3b 04 36 c6 32 53 39 e5 d2 e5 36
       7.0013857e-06 1.970443e-06 0.00020141443 6.849283e-06
000030 ba b3 ee 37 20 b2 d6 b7 1b f7 7f b8 c0 56 5b 32
       2.8455503e-05 -2.5593734e-05 -6.1026873e-05 1.2767202e-08

exp_avg_sq f4 [16]
000000 d8 0a 74 33 02 da 2b 34 cf ad 15 35 83 a6 d7 31
       5.682054e-08 1.6004927e-07 5.575975e-07 6.2762537e-09
000010 94 b6 04 32 f3 0c 1a 31 d5 dc ed 32 14 32 05 32
       7.724925e-09 2.241731e-09 2.7690854e-08 7.753005e-09
000020 49 cd 1c 33 55 3c 52 33 4f 40 52 34 d8 eb a5 35
       3.6508286e-08 4.8949307e-08 1.958117e-07 1.2362098e-06
000030 19 98 8b 33 91 83 0a 34 3d 52 16 33 42 f2 8b 2f
       6.500358e-08 1.2900115e-07 3.4999392e-08 2.5456087e-10

exp_avg f4 [8, 16]
000000 02 65 0d b7 50 d6 86 b8 2d 00 a3 38 32 be 09 b5
       -8.427773e-06 -6.429537e-05 7.7724784e-05 -5.131325e-07
000010 1d 31 ab 35 b5 18 ec 30 da de 28 39 11 4b 99 37
       1.2754787e-06 1.7178282e-09 0.00016104747 1.8273977e-05
000020 a0 da 8f b7 9f 56 84 b7 78 4e 8a b8 6d 59 06 39
       -1.7148734e-05 -1.5775962e-05 -6.594969e-05 0.0001281255
000030 41 63 9f b6 aa b9 87 37 21 14 19 39 aa 16 7f 31
       -4.750124e-06 1.617971e-05 0.00014598716 3.7120267e-09
000040 a0 e4 00 b7 e3 2c 61 b8 53 f3 a9 38 c3 07 9b b4
       -7.682625e-06 -5.3685984e-05 8.103871e-05 -2.8876647e-07
000050 e1 0e 88 35 1a a0 ce 30 7e 36 0c 39 05 1c 83 37
       1.013712e-06 1.5033976e-09 0.0001337174 1.5629465e-05
000060 1e dd 79 b7 b6 9f 78 b7 bd 05 82 37 ed b5 b2 38
       -1.4893039e-05 -1.48191375e-05 1.549988e-05 8.521588e-05
000070 2b 1b 88 b6 30 bf 36 37 f8 61 0f 39 30 c3 5e 31
       -4.0562786e-06 1.089256e-05 0.00013674039 3.2416203e-09
000080 fa ea 0f b7 7e 27 2f b8 fe 3c fb 37 61 71 5a b4
       -8.578174e-06 -4.176003e-05 2.9949933e-05 -2.0344079e-07
000090 ae e6 0f 35 64 50 a3 30 ed 2a c1 38 3a 16 51 37
       5.3607334e-07 1.1882659e-09 9.210953e-05 1.2462546e-05
0000a0 b7 30 57 b7 4b 9f 79 b7 c2 e6 02 38 6d 66 3c 38
       -1.2826341e-05 -1.4878645e-05 3.1209325e-05 4.4918084e-05
0000b0 f5 8e 58 b6 c0 78 96 37 fd aa 16 39 6d cd 2f 31
       -3.226972e-06 1.7937622e-05 0.00014368813 2.5582623e-09
0000c0 b4 58 1c b5 ac e0 fa b6 0d 7b 5e 37 97 c0 92 b4
       -5.824361e-07 -7.476736e-06 1.3260881e-05 -2.7334747e-07
0000d0 1f 03 8f 34 a7 b6 95 2f 52 97 06 38 2f 1c 56 36
       2.6638097e-07 2.7232724e-10 3.2089018e-05 3.190489e-06
0000e0 bb cf 4f b6 12 a7 cb b5 fd 2f 3f b8 e9 2c 23 38
       -3.0966319e-06 -1.5173302e-06 -4.558264e-05 3.8904054e-05
0000f0 eb 48 30 b5 4f 24 a2 36 1e 5f bc 36 2b 22 23 30
       -6.567122e-07 4.832203e-06 5.6139097e-06 5.934761e-10
000100 6a a1 e8 b6 aa 57 23 b8 4e ff 25 38 fc b1 69 b0
       -6.93293e-06 -3.8943872e-05 3.9576837e-05 -8.5017837e-10
000110 c8 2e 28 35 85 69 9d 30 88 73 ce 38 b7 38 48 37
       6.265295e-07 1.1453244e-09 9.844365e-05 1.1934134e-05
000120 cc 0a 3f b7 b2 76 59 b7 89 8f b4 37 bc 2f 4c 38
       -1.1387001e-05 -1.2961844e-05 2.152451e-05 4.8681846e-05
000130 f9 89 53 b6 bb 97 27 37 8a 80 fc 38 a6 0d 29 31
       -3.152176e-06 9.989303e-06 0.00012040239 2.4600495e-09
000140 d4 60 a9 b5 f7 9d 06 b7 03 92 91 37 e4 34 1d b4
       -1.2619662e-06 -8.0238015e-06 1.7353339e-05 -1.4641006e-07
000150 59 91 53 34 3e 1b b5 2f 21 5f d0 37 cf 74 64 36
       1.9703783e-07 3.2943065e-10 2.483983e-05 3.404264e-06
000160 e7 0c 22 b6 0e ca 4c b6 6a dd 1b 37 7d 9b 25 38
       -2.4147391e-06 -3.051598e-06 9.290272e-06 3.9483875e-05
000170 8e 4f 68 b5 c2 5b 3d 37 fe ae 85 37 75 1c 41 30
       -8.65425e-07 1.1286642e-05 1.5936323e-05 7.025343e-10
000180 52 68 48 36 47 74 08 37 e6 ad 82 36 b1 3d 92 b3
       2.9863045e-06 8.133305e-06 3.8945464e-06 -6.8098764e-08
000190 af 39 dd b0 5a 7a 92 af 34 bf 45 b7 5b a3 34 b6
       -1.6096261e-09 -2.664418e-10 -1.1786633e-05 -2.6917176e-06
0001a0 26 be 37 36 18 d4 8b 36 7a 62 ff b7 5c 3f 49 b7
       2.7379806e-06 4.167214e-06 -3.0444226e-05 -1.1995286e-05
0001b0 91 84 43 35 5a 88 2f b7 ba 00 39 b8 1d 4d 1b b0
       7.283607e-07 -1.046256e-05 -4.4108114e-05 -5.6498256e-10
0001c0 1c 05 98 b6 54 65 3d b8 32 20 9e 38 d0 87 25 b4
       -4.530548e-06 -4.515548e-05 7.540024e-05 -1.5416231e-07
0001d0 86 fa 76 35 1c dc 9a 30 81 65 ed 38 c7 54 4f 37
       9.20067e-07 1.1267534e-09 0.00011319947 1.23579e-05
0001e0 0f 2c 37 b7 9b 30 45 b7 f1 b1 df 36 5e 5f 2e 38
       -1.0917908e-05 -1.1753432e-05 6.666633e-06 4.157365e-05
0001f0 14 93 63 b6 c9 54 93 36 1a b9 d0 38 90 9a 27 31
       -3.3911247e-06 4.3908117e-06 9.952691e-05 2.4389557e-09

exp_avg_sq f4 [8, 16]
000000 54 3f ed 2f f6 72 53 33 89 21 fd 33 9d 33 98 30
       4.3155046e-10 4.9231822e-08 1.17873306e-07 1.1074125e-09
000010 ad c7 a5 31 c9 4b 6c 2d f9 cd ee 31 7b 88 c0 2e
       4.8248325e-09 1.34318745e-11 6.950128e-09 8.755393e-11
000020 e3 af e3 31 ba 10 28 32 47 59 e3 33 62 0d 45 34
       6.6265655e-09 9.78269e-09 1.0586751e-07 1.8351923e-07
000030 6e 85 4b 31 f2 cd 69 31 6b 2e 4a 32 e6 62 13 2f
       2.9616234e-09 3.4023029e-09 1.1768502e-08 1.3404708e-10
000040 40 e7 6a 30 e5 d7 2f 33 2f 34 e9 33 31 b4 76 32
       8.545733e-10 4.0941718e-08 1.08594e-07 1.4360055e-08
000050 93 97 d8 30 a5 8f c1 2e 57 d9 4b 32 80 0a 7e 30
       1.5759148e-09 8.80214e-11 1.18655725e-08 9.2419583e-10
000060 73 f1 91 31 46 8b 9d 32 be 35 77 34 fc 1e 7d 34
       4.247505e-09 1.834054e-08 2.3023219e-07 2.3573733e-07
000070 19 c6 19 31 81 a3 0e 32 a0 77 4e 33 31 6c f6 30
       2.2377036e-09 8.302664e-09 4.807191e-08 1.7929606e-09
000080 f8 89 85 30 61 59 16 33 cb 5a 95 34 67 fb bb 31
       9.716237e-10 3.5005886e-08 2.7819473e-07 5.4709974e-09
000090 41 6f e9 30 cc 94 12 30 b1 1a 83 32 30 65 9e 2f
       1.6984602e-09 5.3325944e-10 1.5262545e-08 2.881193e-10
0000a0 a6 2c 15 32 ca 6f 3b 32 e9 ab 1d 35 c5 f6 fb 34
       8.683093e-09 1.09102505e-08 5.873722e-07 4.6931942e-07
0000b0 6f 6b c8 30 bd 22 21 32 08 e0 34 33 de 1d 16 30
       1.458245e-09 9.379332e-09 4.211327e-08 5.4612126e-10
0000c0 ad fe 84 30 c7 2f 28 33 e2 47 ff 34 5b b6 ba 31
       9.676647e-10 3.9159e-08 4.7549753e-07 5.434044e-09
0000d0 ca 61 60 30 7c 76 7e 2e 1b 2c f9 31 3c 73 98 2f
       8.162969e-10 5.785815e-11 7.251868e-09 2.7730518e-10
0000e0 25 f1 c4 31 11 cc de 31 d0 c8 62 34 07 24 d2 34
       5.7317657e-09 6.48425e-09 2.1120945e-07 3.9141761e-07
0000f0 d5 2b ee 31 b0 c6 38 31 e8 bf c2 32 1e 64 13 30
       6.9316948e-09 2.6888465e-09 2.2671841e-08 5.3620564e-10
000100 a2 2e 28 30 e4 51 2f 32 64 85 9a 34 cc 2c 0d 33
       6.1184313e-10 1.020496e-08 2.878179e-07 3.2869863e-08
000110 83 a1 95 2f 60 56 d2 2d 7a fd 91 32 1c 5c 24 31
       2.7217703e-10 2.3912594e-11 1.699549e-08 2.39175e-09
000120 20 86 8b 31 ad 2b bf 32 00 bf f6 34 f9 9a dc 34
       4.0606807e-09 2.2255188e-08 4.5960041e-07 4.109095e-07
000130 29 78 36 31 68 3a 16 32 aa 0b ff 32 75 69 a1 31
       2.6552789e-09 8.744429e-09 2.9691211e-08 4.697706e-09
000140 93 54 8a 2e 76 f3 95 32 8d ac 8d 33 ef c7 d1 31
       6.290537e-11 1.7456596e-08 6.597211e-08 6.1054304e-09
000150 b5 de 09 2f 94 f3 e1 2d 23 3c 18 31 c3 a0 f9 2f
       1.2539199e-10 2.5687709e-11 2.2153095e-09 4.5407064e-10
000160 2d e2 2b 30 1b 3b 06 32 ef c2 5b 33 c1 2f d7 33
       6.253085e-10 7.813266e-09 5.1167202e-08 1.0020404e-07
000170 79 4c 1f 30 85 12 c5 30 b7 10 2d 31 60 9a 75 30
       5.7952537e-10 1.43389e-09 2.5184315e-09 8.934986e-10
000180 4b 38 87 30 49 82 90 33 bc 94 a2 34 b2 cc 1f 32
       9.838542e-10 6.729221e-08 3.028307e-07 9.30156e-09
000190 6f ba ac 31 52 5a 65 2f b1 17 30 32 c9 d2 18 30
       5.027054e-09 2.0859517e-10 1.0249935e-08 5.559682e-10
0001a0 0f f9 19 32 61 c0 ab 32 79 9c 98 34 39 97 ce 34
       8.9624015e-09 1.9994504e-08 2.8426055e-07 3.848052e-07
0001b0 a0 14 c3 31 ca c7 47 32 38 5f 1d 33 00 fa 95 30
       5.6775917e-09 1.1628751e-08 3.6641012e-08 1.0912231e-09
0001c0 3a 2d f4 2f f3 2c cc 31 f2 68 03 34 c6 27 19 33
       4.4415477e-10 5.9422915e-09 1.2238505e-07 3.5659262e-08
0001d0 2f 27 15 2f 8b 46 84 2f 82 dd 4c 32 8a cb 34 31
       1.3565392e-10 2.4060784e-10 1.1924728e-08 2.6309146e-09
0001e0 fe d4 2b 31 f1 9f d5 32 aa 13 a8 33 e2 28 0d 34
       2.5004847e-09 2.4869196e-08 7.8266865e-08 1.3146521e-07
0001f0 d2 49 25 31 de 63 2f 31 95 96 c4 32 65 a5 b1 31
       2.4052622e-09 2.552262e-09 2.288588e-08 5.170181e-09

exp_avg f4 [8]
000000 0e 8b 8b 39 0d e2 80 39 1e 96 27 39 f8 4e 86 38
       0.0002661575 0.00024582483 0.00015982284 6.404327e-05
000010 4e d6 47 39 4a 10 a9 38 8c 90 68 b8 a7 9e 1d 39
       0.00019057954 8.061582e-05 -5.544773e-05 0.0001503179

exp_avg_sq f4 [8]
000000 38 16 d8 34 3f 08 36 35 6f 62 ad 35 28 d3 7b 35
       4.0249301e-07 6.7812283e-07 1.2918152e-06 9.381206e-07
000010 a9 28 92 35 b1 c2 84 34 6a 5a a2 35 61 0f ed 34
       1.0889681e-06 2.4728573e-07 1.2096255e-06 4.415588e-07

exp_avg f4 [1, 8]
000000 20 b0 ba b8 8e f3 dd 39 9e 66 1f 3a 99 63 b1 b9
       -8.901977e-05 0.00042333867 0.000608066 -0.00033834277
000010 30 2a 75 39 84 20 4c 3a 54 7e ac 38 06 6c cf ba
       0.00023380737 0.00077868276 8.2251296e-05 -0.001582504

exp_avg_sq f4 [1, 8]
000000 a3 6e 2d 37 d0 ce ff 37 ed e9 d2 37 12 e1 ae 37
       1.0337363e-05 3.0494673e-05 2.5142881e-05 2.0847223e-05
000010 2a 56 21 38 6f ac fa 37 b7 74 ee 37 db fd c0 37
       3.8465638e-05 2.9882618e-05 2.842616e-05 2.3006394e-05
