notebooks/lightning_logs/version_149/checkpoints/epoch=99-step=100.ckpt (torch, 25027 bytes, 36 tensors)

front_linear.weight f4 [8, 2]
0.28416333 -0.8942161 -0.099246465 0.32244515 -0.37047365 -0.089554 -0.11654585 -0.039878372
0.15121688 0.47036552 -0.44611102 0.91746694 -0.25774196 -0.07453926 0.10190709 0.79629296
00000000: db7d 913e 59eb 64bf bb41 cbbd 8817 a53e
00000010: b9ae bdbe 1668 b7bd 97af eebd 8157 23bd
00000020: 99d8 1a3e c0d3 f03e aa68 e4be 1ddf 6a3f
00000030: c1f6 83be 0aa8 98bd aab4 d03d dbd9 4b3f

front_linear.bias f4 [8]
0.23828089 -0.2202198 0.3154637 -0.11327526 -0.26650026 -0.69091064 0.08370198 -0.29513285
00000000: e8ff 733e 4d81 61be 7584 a13e dcfc e7bd
00000010: b972 88be 85df 30bf f26b ab3d a71b 97be

transformer_encoder.layers.0.self_attn.query_mat.weight f4 [8, 8]
3.5683596 5.9580326 -2.5913136 -2.035843 -2.9779186 4.580445 -2.524522 -4.790058
4.4200053 6.1183214 -3.048652 -2.6807466 -3.6686983 5.065371 -3.0414028 -4.749542
-4.520761 -6.1851435 1.0830238 3.2338624 2.4906893 -3.546329 2.696395 4.530997
-5.0519257 -5.9283104 2.3747387 2.8496683 2.0560703 -4.3086247 3.0737662 4.2268724
3.834711 4.260951 -0.13760428 -2.6911197 -1.6758176 2.2011945 -1.2509826 -3.0553503
-4.722892 -5.625243 1.8408458 2.7006567 2.809604 -4.1039777 1.3499839 3.6943715
-4.724173 -5.767477 2.536912 1.4000738 2.6751304 -4.723167 1.3224522 5.1786475
-4.061701 -5.7001143 1.6236843 2.5939767 1.8788906 -4.140235 1.6899762 3.7747033
00000000: 0160 6440 34a8 be40 15d8 25c0 404b 02c0
00000010: 3896 3ec0 0193 9240 c591 21c0 2848 99c0
00000020: af70 8d40 4ac9 c340 1d1d 43c0 5a91 2bc0
00000030: f4cb 6ac0 8517 a240 58a6 42c0 40fc 97c0
00000040: 13aa 90c0 b2ec c5c0 86a0 8a3f 9af7 4e40
00000050: 7467 1f40 0ef7 62c0 bc91 2c40 edfd 9040
00000060: 60a9 a1c0 b8b4 bdc0 b8fb 1740 f760 3640
00000070: a896 0340 41e0 89c0 96b8 4440 8a42 8740
00000080: e86b 7540 b659 8840 23e8 0cbe 4e3b 2cc0
00000090: 3181 d6bf 5fe0 0c40 3320 a0bf dc8a 43c0
000000a0: ee21 97c0 fe01 b4c0 d6a0 eb3f 8fd7 2c40
000000b0: 8dd0 3340 c953 83c0 46cc ac3f 9570 6c40
000000c0: 6d2c 97c0 2c8f b8c0 c45c 2240 9e35 b33f
000000d0: 5635 2b40 2f24 97c0 1d46 a93f 7bb7 a540
000000e0: 74f9 81c0 5667 b6c0 e3d4 cf3f b703 2640
000000f0: 7d7f f03f ce7c 84c0 2451 d83f bd94 7140

transformer_encoder.layers.0.self_attn.key_mat.weight f4 [8, 8]
-5.0793824 -0.6099854 1.1690911 3.9354331 4.1741 4.6541758 0.29768223 5.217493
-5.7516046 -1.0849298 0.76986825 3.8356776 4.2217503 4.2192802 0.33993003 5.233942
5.0947466 -0.07683195 -1.3461369 -3.6140332 -3.1061707 -4.1870065 -0.20528474 -4.5039186
5.2758546 -0.132548 -0.20839207 -4.070915 -3.9324884 -4.869842 0.55580455 -4.8970785
3.055742 0.5219845 0.00057946704 -2.1725442 -3.192089 -3.2527738 1.066109 -3.5118687
-3.8980975 -0.05450996 0.7181176 3.124117 4.576936 3.9658444 -0.4249147 4.995399
-5.154584 1.4864047 0.0727569 3.0589957 5.1920233 4.3729277 -1.7632244 4.746118
-4.026956 0.53339446 0.16239268 3.8490474 4.3712983 3.5570111 -0.41446817 4.9609303
00000000: 4d8a a2c0 0128 1cbf c7a4 953f 23de 7b40
00000010: 3a92 8540 02ef 9440 ce69 983e b4f5 a640
00000020: 250d b8c0 fbde 8abf 1616 453f be7b 7540
00000030: 9418 8740 5804 8740 4f0b ae3e 747c a740
00000040: 2a08 a340 125a 9dbd 374e acbf 524c 67c0
00000050: 80cb 46c0 f5fb 85c0 2a36 52be 1a20 90c0
00000060: cdd3 a840 aaba 07be bb64 55be f044 82c0
00000070: e4ad 7bc0 bfd5 9bc0 3549 0e3f deb4 9cc0
00000080: 4791 4340 c7a0 053f 60e7 173a f70a 0bc0
00000090: 304b 4cc0 722d 50c0 4276 883f 75c2 60c0
000000a0: 6e7a 79c0 d645 5fbd 8ed6 373f 88f1 4740
000000b0: 4276 9240 65d0 7d40 6b8e d9be 4fda 9f40
000000c0: 5af2 a4c0 8242 be3f 9201 953d 96c6 4340
000000d0: 0e25 a640 06ef 8b40 56b1 e1bf 33e0 9740
000000e0: d3dc 80c0 8a8c 083f 444a 263e cb56 7640
000000f0: ade1 8b40 12a6 6340 2c35 d4be f1bf 9e40

transformer_encoder.layers.0.self_attn.value_mat.weight f4 [8, 8]
0.6277301 -0.1967417 0.20485768 -0.20216137 -0.9294271 -0.10832135 0.54368186 -0.4334705
-0.032524068 0.22263907 0.23415582 -0.44773027 -0.10989692 0.005968649 -0.24737315 -0.19875397
-0.5670474 0.031225398 0.052660596 -0.12169035 -0.38266966 -0.30084848 -0.2235415 0.7059425
0.43709892 0.22638355 0.122578636 0.44250864 -0.120221026 -0.21767747 -0.11365592 -0.30601737
0.5222897 -0.48710853 0.1489745 0.30658212 0.46831334 -0.69396585 0.2105775 -0.36257952
0.18809597 -0.07001918 0.2362762 0.15141822 -0.09162465 -0.5507835 -0.2799963 0.2409882
0.12785946 -0.32152563 -0.47175467 0.05583804 0.0058564893 -0.68503577 0.12797628 -0.46098292
-0.43527582 0.4975569 0.65448356 -0.0886846 0.018384952 0.7065859 0.22562723 0.20989983
00000000: ebb2 203f a876 49be 36c6 513e 6403 4fbe
00000010: efee 6dbf 95d7 ddbd bc2e 0b3f d8ef ddbe
00000020: f537 05bd 7ffb 633e 8bc6 6f3e e73c e5be
00000030: a311 e1bd a894 c33b 634f 7dbe 2986 4bbe
00000040: 052a 11bf 68cc ff3c a3b2 573d ca38 f9bd
00000050: 47ed c3be d008 9abe 10e8 64be a6b8 343f
00000060: 6ecb df3e 17d1 673e 820a fb3d 7e90 e23e
00000070: 7136 f6bd d8e6 5ebe 6fc4 e8bd 4fae 9cbe
00000080: c7b4 053f 4a66 f9be c58c 183e 55f8 9c3e
00000090: c4c6 ef3e bfa7 31bf a1a1 573e 06a4 b9be
000000a0: 3b9c 403e 3766 8fbd 63f2 713e 610d 1b3e
000000b0: b4a5 bbbd 2600 0dbf ad5b 8fbe 9cc5 763e
000000c0: 97ed 023e 029f a4be d489 f1be 6eb6 643d
000000d0: cbe7 bf3b 815e 2fbf 370c 033e f405 ecbe
000000e0: 79dc debe c7bf fe3e 3c8c 273f 46a0 b5bd
000000f0: 0a9c 963c d0e2 343f d30a 673e fbef 563e

transformer_encoder.layers.0.self_attn.o_proj.weight f4 [8, 8]
-0.51163644 0.46518326 0.08410255 -0.290501 -0.3477649 0.014070645 0.524671 -0.0013557589
-0.14569841 -0.49943927 0.73516303 -0.47046053 1.2334917 0.29592958 0.1851291 -0.020638274
0.12884624 -0.120865695 -0.1131522 -0.17277312 -0.7102577 -0.5479507 -0.67869383 0.6063869
0.064480126 0.46936217 0.016575806 -0.20999052 -0.44306168 -0.2440359 -0.51650554 -0.017683528
0.10094878 -0.315886 0.02020094 0.15803875 -0.029807057 0.09326122 0.16257401 -0.37474802
-0.9093833 -0.8584001 0.45660394 -0.29684082 -0.001012906 0.25669283 0.37523782 -0.73085755
-0.26539433 0.061551724 -0.22820714 0.13464227 -0.22828218 -0.40688828 -0.1761654 -0.082004204
-0.2862726 0.2816193 -0.17374374 -0.36185026 0.22780919 -0.110099845 0.47895476 0.00070809084
00000000: 9bfa 02bf 802c ee3e f53d ac3d 8cbc 94be
00000010: 3e0e b2be 9088 663c d750 063f b8b3 b1ba
00000020: f731 15be 81b6 ffbe a533 3c3f 34e0 f0be
00000030: 0ee3 9d3f 1584 973e 7c92 3d3e 9911 a9bc
00000040: 45f0 033e 6f88 f7bd 57bc e7bd 70eb 30be
00000050: 73d3 35bf 7f46 0cbf e1be 2dbf 2c3c 1b3f
00000060: 280e 843d 3d50 f03e fcc9 873c c107 57be
00000070: fbd8 e2be 8ce4 79be b539 04bf 0cdd 90bc
00000080: 3cbe ce3d cfbb a1be 717c a53c e9d4 213e
00000090: ee2d f4bc bdff be3d cd79 263e f9de bfbe
000000a0: 58cd 68bf 1cc0 5bbf fec7 e93e 85fb 97be
000000b0: 7cc3 84ba 3e6d 833e 2c1f c03e 7b19 3bbf
000000c0: c4e1 87be a91d 7c3d 22af 69be aadf 093e
000000d0: cec2 69be a953 d0be b464 34be d2f1 a7bd
000000e0: 5292 92be 6830 903e e1e9 31be 7044 b9be
000000f0: d046 693e 077c e1bd 8f39 f53e 2c9f 393a

transformer_encoder.layers.0.self_attn.o_proj.bias f4 [8]
0.09503352 -0.030595515 -0.54045534 -0.035068963 -0.27730918 -0.003475253 0.66511476 0.24920028
00000000: efa0 c23d 72a3 fabc 485b 0abf 79a4 0fbd
00000010: 78fb 8dbe 12c1 63bb f644 2a3f 5c2e 7f3e

transformer_encoder.layers.0.linear_net.0.weight f4 [16, 8]
0.33429104 0.029352436 -0.45292997 0.2412206 0.21848515 1.5951567 0.3035842 -0.10960322
-0.16397184 0.24986196 1.165495 -0.017125705 0.63125366 0.04148645 -1.0286484 -1.1687636
-0.4421173 -0.06556393 1.7862904 0.38363308 0.055777606 -0.48481062 -1.0022256 -1.8320463
0.39089507 0.67617804 0.61748 -1.15406 0.4545067 0.42545858 -0.5585991 0.7974705
0.2184688 0.25448233 1.0354905 0.22915475 -0.8061557 -0.43673444 -0.5740979 0.59613705
-0.47937408 0.5483643 0.7634575 -0.40168342 -0.52036524 -0.040007472 -0.9144198 -0.4205664
0.013103976 0.9782408 0.30052796 -0.24613884 0.020309998 0.39260644 -0.756125 0.559181
-0.15021637 0.5798317 -0.025759786 -0.24608283 0.42251125 0.23989093 -0.6545395 -0.28792745
0.2875687 -0.32233953 -0.31682587 -0.13558817 -0.041520678 -0.06281857 0.28201318 -0.3603512
0.15803142 1.2940638 1.0927536 0.12985808 0.08337556 0.28799787 -1.2902701 -0.07968413
-0.0784638 0.6561546 1.1087528 -0.16984211 -0.55209744 -0.064276755 -0.9784562 -1.2653589
-0.08861497 1.0662805 1.1849865 -0.3003309 -0.37556934 -0.08381563 -1.7195455 -1.1572438
0.5997232 0.40957612 1.656736 0.5875277 -0.21676932 -0.25394797 -0.7311441 -1.0251043
0.488771 -0.16295536 -0.029528003 0.006600935 0.011746232 0.011867503 -0.3492642 -0.4422064
-0.111304685 0.711045 0.7202442 -0.69473237 -0.05509827 0.667363 -0.16419978 -0.039851252
0.13366418 0.03676228 0.3400597 -0.45597106 -0.16981293 -0.18351288 -0.07505541 -1.1580254
00000000: 3228 ab3e 8574 f03c 70e6 e7be 8802 773e
00000010: 92ba 5f3e 182e cc3f 636f 9b3e a777 e0bd
00000020: 3ce8 27be d0db 7f3e f12e 953f 354b 8cbc
00000030: d799 213f b2ed 293d c0aa 83bf 0c9a 95bf
00000040: 335d e2be 6246 86bd 2aa5 e43f 8e6b c43e
00000050: 0f77 643d 1939 f8be ee48 80bf 7e80 eabf
00000060: 6623 c83e 011a 2d3f 2b13 1e3f 3db8 93bf
00000070: 1ab5 e83e b5d5 d93e 5a00 0fbf 0727 4c3f
00000080: 49b6 5f3e 824b 823e f48a 843f 8ba7 6a3e
00000090: 3860 4ebf a89b dfbe 14f8 12bf 709c 183f
000000a0: 8570 f5be 9a61 0c3f f371 433f 73a9 cdbe
000000b0: a836 05bf e0de 23bd 6a17 6abf 7b54 d7be
000000c0: 0fb2 563c fd6d 7a3f cdde 993e d20b 7cbe
000000d0: 2761 a63c b603 c93e 6891 41bf 7c26 0f3f
000000e0: 52d2 19be da6f 143f 3006 d3bc 23fd 7bbe
000000f0: 6553 d83e f8a5 753e e78f 27bf 3a6b 93be
00000100: 343c 933e b009 a5be 0037 a2be a0d7 0abe
00000110: 9611 2abd 06a7 80bd 0864 903e f47f b8be
00000120: fdd2 213e e2a3 a53f 5adf 8b3f 84f9 043e
00000130: cec0 aa3d 7574 933e 9227 a5bf 6f31 a3bd
00000140: a1b1 a0bd bff9 273f 9deb 8d3f 17eb 2dbe
00000150: 4256 0dbf 88a3 83bd 1b7c 7abf 48f7 a1bf
00000160: c47b b5bd e17b 883f a3ad 973f f9c4 99be
00000170: a04a c0be 87a7 abbd 111a dcbf 9120 94bf
00000180: 7687 193f f6b3 d13e ed0f d43f 3768 163f
00000190: c7f8 5dbe 7805 82be 422c 3bbf 9e36 83bf
000001a0: 3140 fa3e c5dd 26be b6e4 f1bc a84c d83b
000001b0: 4573 403c ea6f 423c c2d2 b2be e168 e2be
000001c0: b6f3 e3bd 0c07 363f ed61 383f fbd9 31bf
000001d0: b9ae 61bd 4dd8 2a3f fd23 28be 113b 23bd
000001e0: 43df 083e 0b94 163d 4e1c ae3e 0a75 e9be
000001f0: 71e3 2dbe cdea 3bbe a7b6 99bd 2d3a 94bf

transformer_encoder.layers.0.linear_net.0.bias f4 [16]
-0.104037896 -0.30048472 -0.7091941 -0.9861401 -0.27412754 -1.2571907 -0.9423583 -0.64370346
-0.03675001 0.3422744 -0.74140966 -0.7594736 -0.92286557 -0.7154062 -1.3594729 -1.2032819
00000000: d211 d5bd 22d9 99be bf8d 35bf ad73 7cbf
00000010: 725a 8cbe a0eb a0bf 653e 71bf c0c9 24bf
00000020: 2e87 16bd 973e af3e 06cd 3dbf dd6c 42bf
00000030: eb40 6cbf dc24 37bf 3503 aebf 2405 9abf

transformer_encoder.layers.0.linear_net.3.weight f4 [8, 16]
-0.61223805 -0.345539 0.42002618 -0.33383745 -0.29785955 -0.68640673 -0.14472619 -0.7107154
-0.05188691 -0.5012886 0.17322385 0.46158832 -0.19840464 0.66848326 0.13411243 -0.4024374
-0.110946536 -0.77715576 0.1935838 0.38357237 0.39307982 -0.86708665 0.25154665 0.64220893
0.19918665 -0.35820132 -0.7305902 -0.41254586 -0.7112228 0.31967515 -0.6054254 0.4204713
0.7397075 -0.68583095 -0.930155 -0.23284183 0.076246396 1.0881776 0.19662769 -0.33203012
0.31098372 -1.0067275 0.4579718 0.12940606 -0.24685279 0.4171831 -0.63932467 -0.32341224
-0.4437763 -1.0580025 -0.84812355 -0.7012545 0.3198365 -0.80198056 0.31733957 -0.09841602
0.24172513 -0.32860747 -0.4862671 -0.26456445 -0.6057428 0.2933516 -0.63229865 -0.2565785
0.23151356 -0.50506896 0.6581806 0.22738758 0.18780823 -0.8206057 -0.20851171 0.44118524
-0.10733145 -0.08860664 -0.81172353 -0.88789034 -0.56612176 -0.0824903 -0.5856622 0.61255187
-0.5087444 -0.11373783 0.37744468 0.3165689 0.4812274 -0.5079669 0.7548013 0.23108642
0.3608949 0.2812839 -1.0443299 -0.6554386 -0.83022743 0.47871885 -0.12227538 0.54782754
-0.08504096 0.46323505 0.5562698 -0.3118928 -0.05706477 0.69311184 -0.6491904 -0.68333143
0.06920849 0.42160472 0.4697541 0.4164853 0.5349208 -0.5616274 0.6219447 -0.70299906
-0.2921571 0.82181215 1.0683242 0.23917335 -0.27950147 -0.66125524 0.20222838 -0.42912832
-0.17470269 0.28574944 0.06086831 0.24369726 0.30431664 0.69854724 0.60969156 -0.43309
00000000: a2bb 1cbf 7dea b0be ac0d d73e beec aabe
00000010: 0c81 98be 5ab8 2fbf 1a33 14be 72f1 35bf
00000020: 5e87 54bd 7354 00bf 9861 313e 4e55 ec3e
00000030: 962a 4bbe b821 2b3f c554 093e 460c cebe
00000040: f037 e3bd aef3 46bf d53a 463e 9963 c43e
00000050: c241 c93e 64f9 5dbf b9ca 803e ce67 243f
00000060: 96f7 4b3e 2a66 b7be f607 3bbf 3639 d3be
00000070: b312 36bf 76ac a33e 29fd 1abf 0448 d73e
00000080: 795d 3d3f 9e92 2fbf a31e 6ebf 176e 6ebe
00000090: 1227 9c3d 6749 8b3f c558 493e daff a9be
000000a0: 4239 9f3e 72dc 80bf 487b ea3e 0683 043e
000000b0: fac6 7cbe 0699 d53e c8aa 23bf 4a96 a5be
000000c0: a636 e3be a06c 87bf a01e 59bf 6a85 33bf
000000d0: 9cc1 a33e 994e 4dbf 557a a23e 578e c9bd
000000e0: cb86 773e 3d3f a8be 00f8 f8be fe74 87be
000000f0: f611 1bbf 2e32 963e 53de 21bf 425e 83be
00000100: e411 6d3e 334c 01bf 867e 283f 4ad8 683e
00000110: cd50 403e 3713 52bf 1884 55be 08e3 e13e
00000120: 97d0 dbbd 6677 b5bd 1dcd 4fbf c84c 63bf
00000130: 5bed 10bf adf0 a8bd f5ed 15bf 33d0 1c3f
00000140: 133d 02bf 61ef e8bd 6e40 c13e 5215 a23e
00000150: 7063 f63e 1e0a 02bf a83a 413f eba1 6c3e
00000160: 37c7 b83e 7104 903e 9aac 85bf d3ca 27bf
00000170: c989 54bf a31a f53e 846b fabd 6d3e 0c3f
00000180: f429 aebd 252d ed3e b367 0e3f 6ab0 9fbe
00000190: c0bc 69bd c76f 313f 5831 26bf cfee 2ebf
000001a0: 2ebd 8d3d 93dc d73e 9c83 f03e 903d d53e
000001b0: 92f0 083f d0c6 0fbf c537 1f3f bff7 33bf
000001c0: 9e95 95be 4862 523f d9be 883f dce9 743e
000001d0: d11a 8fbe 0648 29bf f514 4f3e b5b6 dbbe
000001e0: 43e5 32be c04d 923e 0d51 793d c68b 793e
000001f0: 64cf 9b3e fed3 323f bf14 1c3f f9bd ddbe

transformer_encoder.layers.0.linear_net.3.bias f4 [8]
0.11826401 0.30225343 0.24925949 0.04432855 0.077488676 0.2126268 -0.33363754 0.036922455
00000000: 6734 f23d f6c0 9a3e e13d 7f3e db91 353d
00000010: 62b2 9e3d d7ba 593e 8ad2 aabe 003c 173d

final_linear.weight f4 [1, 8]
-0.011479812 -0.05018444 0.020490598 0.059161056 -0.036177944 -0.105418 0.06300995 0.044885978
00000000: d215 3cbc 338e 4dbd e6db a73c dd52 723d
00000010: 532f 14bd 64e5 d7bd 5c0b 813d 5cda 373d

exp_avg f4 [8, 2]
9.7422606e-05 8.158881e-05 -1.17279005e-05 -8.31891e-05 -9.573424e-06 8.770215e-06 1.9012006e-05 5.2260002e-05
-2.7100228e-05 -1.4183179e-05 -3.415099e-05 -0.00012403935 -1.9103174e-05 -9.2929795e-06 -6.3992156e-05 -6.9828835e-05
00000000: 5d4f cc38 a91a ab38 f3c2 44b7 cf75 aeb8
00000010: 8b9d 20b7 c923 1337 f97b 9f37 c031 5b38
00000020: 4c55 e3b7 4af4 6db7 593d 0fb8 8f10 02b9
00000030: c13f a0b7 0be9 1bb7 8733 86b8 1271 92b8

exp_avg_sq f4 [8, 2]
7.081432e-09 8.7253405e-09 1.1840479e-08 1.04096705e-08 6.1701044e-09 7.179874e-09 4.22097e-09 4.932963e-09
8.286383e-09 8.42571e-09 8.027249e-09 1.1595966e-08 1.250383e-08 1.2810242e-08 1.4109336e-08 1.5036658e-08
00000000: ef50 f331 74e6 1532 fa6a 4b32 37d6 3232
00000010: d000 d431 d7b2 f631 0b08 9131 cd7e a931
00000020: e65b 0e32 aac0 1032 37e8 0932 9937 4732
00000030: 6dd0 5632 0a14 5c32 8465 7232 f629 8132

exp_avg f4 [8]
7.401206e-05 -3.218529e-05 -5.2789082e-06 6.306236e-05 -3.3231263e-05 -1.5485876e-06 -2.0476878e-05 -5.373102e-05
00000000: ec36 9b38 b1fe 06b8 7a21 b1b6 5940 8438
00000010: cc61 0bb8 11d9 cfb5 c3c5 abb7 3e5d 61b8

exp_avg_sq f4 [8]
2.7651211e-08 3.4273565e-08 2.4114945e-08 1.6483074e-08 2.8671769e-08 2.7766397e-08 4.1230873e-08 5.0700965e-08
00000000: a885 ed32 2f34 1333 5325 cf32 aa96 8d32
00000010: e349 f632 f482 ee32 d315 3133 4dc2 5933

exp_avg f4 [8, 8]
3.9845403e-07 -2.9733292e-07 7.619444e-08 -5.734772e-08 -1.331155e-07 -7.6363256e-07 -5.1570584e-08 -2.3368655e-07
3.9870912e-07 -3.1031362e-07 7.928081e-08 -5.7670924e-08 -1.2871394e-07 -7.8080876e-07 -5.1374798e-08 -2.312778e-07
-3.6694763e-07 2.857477e-07 -7.351294e-08 5.3215818e-08 1.1854623e-07 7.1787167e-07 4.6897814e-08 2.1290073e-07
-4.0740358e-07 3.194814e-07 -8.1141586e-08 5.8937893e-08 1.3043031e-07 8.0097175e-07 5.252668e-08 2.3573186e-07
3.477025e-07 -4.959741e-07 1.1760013e-07 -1.0556459e-07 -2.4121281e-08 -1.2464452e-06 -1.7749417e-07 -6.000267e-08
-4.1424516e-07 6.997917e-07 -1.6875187e-07 1.3425152e-07 -7.6363085e-09 1.6653735e-06 2.268904e-07 4.5121467e-08
-4.438918e-07 8.641642e-07 -2.1044467e-07 1.5450023e-07 -4.785852e-08 1.9723611e-06 2.6057646e-07 2.0100854e-08
-4.017772e-07 6.9275706e-07 -1.6726307e-07 1.3096276e-07 -1.1870154e-08 1.639102e-06 2.2198238e-07 3.9873072e-08
00000000: 1beb d534 20a1 9fb4 56a0 a333 7c4e 76b3
00000010: 83ee 0eb4 6efc 4cb5 757e 5db3 45eb 7ab4
00000020: 2a0e d634 2e99 a6b4 1641 aa33 dab1 77b3
00000030: 9e34 0ab4 c598 51b5 30a7 5cb3 2855 78b4
00000040: e600 c5b4 dd68 9934 2bde 9db3 698f 6433
00000050: 7b93 fe33 c4b3 4035 b16c 4933 b599 6434
00000060: 1fb9 dab4 3085 ab34 0f40 aeb3 e622 7d33
00000070: 690c 0c34 5c02 5735 b299 6133 7b1d 7d34
00000080: deab ba34 1523 05b5 5b8b fc33 bfb2 e2b3
00000090: 4233 cfb2 884b a7b5 3a95 3eb4 d1da 80b3
000000a0: 6c65 deb4 52d9 3b35 2932 35b4 c726 1034
000000b0: d730 03b2 cc85 df35 299f 7334 94cb 4133
000000c0: 0650 eeb4 e9f8 6735 97f6 61b4 b3e4 2534
000000d0: 008d 4db3 e85c 0436 5be5 8b34 3faa ac32
000000e0: d7b3 d7b4 e7f5 3935 ec98 33b4 c59e 0c34
000000f0: 7ded 4bb2 1eff db35 0d5a 6e34 e840 2b33

exp_avg_sq f4 [8, 8]
3.5833336e-14 1.2547643e-14 2.2408487e-15 1.2741832e-15 1.0561922e-14 7.382817e-14 1.7302556e-15 1.4682147e-14
3.79712e-14 1.546096e-14 2.5535411e-15 1.7141211e-15 1.195079e-14 7.6684956e-14 3.3437792e-15 1.6741723e-14
3.2167984e-14 1.34012174e-14 3.680662e-15 1.5059316e-15 1.0508957e-14 6.5719104e-14 3.0170113e-15 1.430678e-14
4.0440273e-14 1.782799e-14 4.10307e-15 2.142413e-15 1.3556011e-14 8.141637e-14 5.152776e-15 1.889554e-14
4.669666e-14 2.3541021e-14 4.301102e-15 5.498075e-15 1.718316e-14 1.1737918e-13 4.7569963e-15 1.7071653e-14
8.8769175e-14 4.9030306e-14 7.700202e-15 1.0706984e-14 3.6726542e-14 2.0421829e-13 6.84195e-15 3.3575854e-14
1.3201505e-13 8.03938e-14 1.0860435e-14 1.6405609e-14 5.963943e-14 2.818344e-13 7.880526e-15 5.1522985e-14
8.7019245e-14 4.8535726e-14 8.246606e-15 1.0629283e-14 3.687067e-14 1.9761418e-13 7.230627e-15 3.3675174e-14
00000000: 0661 2129 ca09 6228 5d78 2127 10a1 b726
00000010: 4544 3e28 0b3f a629 2a5b f926 ba3e 8428
00000020: d001 2b29 8c42 8b28 8500 3827 e807 f726
00000030: 4b49 5728 dead ac29 d7f1 7027 c9cb 9628
00000040: 29df 1029 356a 7128 1d9c 8427 1207 d926
00000050: 0350 3d28 7cfc 9329 0966 5927 30dd 8028
00000060: 7620 3629 8c94 a028 24d4 9327 8b60 1a27
00000070: 1134 7428 5855 b729 f8a5 b927 2632 aa28
00000080: 954d 5229 e609 d428 aaf6 9a27 cb16 c627
00000090: abc5 9a28 3f28 042a 8c63 ab27 8dc4 9928
000000a0: f2e3 c729 18d0 5c29 eab6 0a28 40e1 4028
000000b0: d266 2529 eaed 652a da81 f627 5336 1729
000000c0: bfa2 142a df07 b529 eba4 4328 c2c4 9328
000000d0: ca4b 8629 9ea8 9e2a 83f6 0d28 f509 6829
000000e0: 2ef3 c329 e295 5a29 c28e 1428 ea7a 3f28
000000f0: fd0c 2629 697e 5e2a 6241 0228 d5a8 1729

exp_avg f4 [8, 8]
1.18332004e-07 -1.1986383e-08 5.221739e-09 -1.8527276e-08 -4.2622244e-08 -7.270723e-08 1.5836317e-08 -8.222884e-08
1.3008443e-07 -1.1068479e-08 4.863973e-09 -2.1602798e-08 -4.4227125e-08 -7.600334e-08 1.6861204e-08 -8.7687575e-08
-5.4651693e-08 -6.3514416e-09 2.1779067e-10 1.501835e-08 5.0585767e-09 7.541955e-09 -6.0047456e-09 2.0709825e-08
-8.999171e-08 2.4114097e-09 -1.9782984e-09 1.7669956e-08 2.410612e-08 4.1334015e-08 -1.090826e-08 5.3407597e-08
-2.7079338e-07 2.937404e-08 -3.1803193e-08 4.4425573e-08 1.15061624e-07 1.762332e-07 -4.166667e-08 1.9707204e-07
6.60171e-07 -1.0476117e-07 6.576704e-08 -8.314785e-08 -3.031284e-07 -4.9555524e-07 9.716138e-08 -5.1742177e-07
7.67339e-07 -1.3038564e-07 7.656575e-08 -9.047501e-08 -3.5923367e-07 -5.913374e-07 1.12516986e-07 -6.099405e-07
6.4502234e-07 -1.11175396e-07 6.369352e-08 -7.687786e-08 -3.0329136e-07 -4.9980537e-07 9.3044555e-08 -5.14347e-07
00000000: b51d fe33 acec 4db2 e76a b331 e925 9fb2
00000010: a70f 37b3 3923 9cb3 6e08 8832 c895 b0b3
00000020: 56ad 0b34 af27 3eb2 f51f a731 0e91 b9b2
00000030: 3df4 3db3 4737 a3b3 2ed6 9032 c14e bcb3
00000040: 2cba 6ab3 df3b dab1 a076 6f2f b301 8132
00000050: b6cf ad31 de91 0132 4d52 ceb1 63e5 b132
00000060: 7741 c1b3 f8b5 2531 98f2 07b1 a5c8 9732
00000070: eb11 cf32 3b87 3133 0967 3bb2 4662 6533
00000080: 8f61 91b4 3252 fc32 fb97 08b3 6fce 3e33
00000090: cc17 f733 9d3a 3d34 fdf4 32b3 c09a 5334
000000a0: 9b36 3135 10f9 e0b3 d03b 8d33 048f b2b3
000000b0: a6bd a2b4 4c06 05b5 09a7 d033 f4e4 0ab5
000000c0: 22fb 4d35 2200 0cb4 776c a433 2a4b c2b3
000000d0: b3dc c0b4 66bc 1eb5 dea0 f133 cbba 23b5
000000e0: 9925 2d35 52bf eeb3 e2c7 8833 0d18 a5b3
000000f0: 0cd4 a2b4 5d2a 06b5 c9cf c733 a811 0ab5

exp_avg_sq f4 [8, 8]
1.0775363e-14 1.7738997e-16 1.236654e-16 5.717542e-16 1.5179703e-15 4.3933905e-15 2.8483847e-16 5.7293664e-15
1.7898245e-14 2.540131e-16 1.7781796e-16 1.2348717e-15 2.4852292e-15 7.136193e-15 5.3898676e-16 9.938535e-15
1.665035e-14 3.9494118e-16 2.1481355e-16 1.3374999e-15 2.5100475e-15 7.070347e-15 5.2454977e-16 9.262177e-15
1.6189617e-14 6.689738e-16 3.4175146e-16 1.2031203e-15 2.33847e-15 7.1020646e-15 5.0981187e-16 9.0845495e-15
4.8275626e-14 1.0348158e-15 1.2654329e-15 1.7925993e-15 1.0526297e-14 2.436531e-14 1.1968003e-15 2.7994344e-14
1.2214654e-13 2.2326414e-15 2.6386688e-15 3.631262e-15 2.4582882e-14 5.926783e-14 3.155262e-15 6.853556e-14
1.393363e-13 2.4634918e-15 2.8220544e-15 3.780799e-15 2.7969292e-14 6.796519e-14 3.654474e-15 7.8222124e-14
9.685464e-14 2.00326e-15 2.134612e-15 2.9806433e-15 1.9860961e-14 4.8312686e-14 2.4457507e-15 5.4716523e-14
00000000: 971c 4228 4784 4c25 9593 0e25 03cc 2426
00000010: 38c3 da26 e049 9e27 bd32 a425 146c ce27
00000020: 8b36 a128 b86d 9225 9902 4d25 b9f6 b126
00000030: 6314 3327 e28d 0028 345a 1b26 6709 3328
00000040: 18f9 9528 08ab e325 c5a9 7725 09c1 c026
00000050: 34de 3427 71bc fe27 f130 1726 41da 2628
00000060: b7d2 9128 8ed1 4026 9d01 c525 4e63 ad26
00000070: 2881 2827 fce0 ff27 7af1 1226 17a7 2328
00000080: 026a 5929 f721 9526 3c5e b626 9f2b 0127
00000090: fa9f 3d28 9476 db28 237a ac26 9026 fc28
000000a0: 5886 092a f7e0 2027 d922 3e27 7bd4 8227
000000b0: 446c dd28 9475 8529 505c 6327 0f54 9a29
000000c0: f4e0 1c2a 6783 3127 b759 4b27 b737 8827
000000d0: ccec fb28 440b 9929 93aa 8327 fc23 b029
000000e0: e618 da29 a059 1027 a4d0 1927 2ac7 5627
000000f0: 42e4 b228 bc94 5929 233c 3027 db6b 7629

exp_avg f4 [8, 8]
3.0448102e-05 -1.0223697e-05 -4.4563235e-06 -5.3516346e-06 -4.2599117e-06 -2.623411e-05 -9.119006e-06 -4.565181e-06
-2.4453066e-05 1.3466948e-07 -9.2551363e-07 5.8755822e-06 1.3041155e-05 1.0159495e-05 -3.7769846e-07 2.3073739e-05
1.4424224e-05 1.2431938e-05 -8.144823e-06 -1.0817346e-05 -7.714293e-06 2.2696609e-06 3.0347674e-06 -1.750824e-05
2.620866e-05 -2.1558528e-05 7.6163433e-06 4.1730523e-06 -7.837417e-06 -3.9283463e-05 -9.471624e-06 -4.949544e-06
-1.7936385e-05 3.633921e-05 -1.3585712e-05 -2.3780422e-05 1.0734582e-05 4.3842083e-05 -8.293708e-06 1.5975329e-05
-1.1026181e-05 8.180403e-06 -7.827221e-06 -8.247612e-06 1.3724104e-05 1.01203295e-05 -1.2964132e-05 2.1293836e-05
-9.976565e-06 1.103296e-05 1.7728555e-05 -7.952021e-06 -9.132719e-06 2.9931455e-06 -1.16983665e-05 3.9774027e-06
7.209802e-06 3.8705937e-07 -2.5659208e-05 5.925167e-07 1.2206271e-05 7.3337646e-06 1.355869e-05 -3.4653524e-06
00000000: cd6a ff37 7286 2bb7 8787 95b6 3192 b3b6
00000010: 5df0 8eb6 5211 dcb7 d5fd 18b7 9b2e 99b6
00000020: 8f20 cdb7 aa99 1034 d070 78b5 de26 c536
00000030: 56cb 5a37 b372 2a37 7bc6 cab4 7a8e c137
00000040: 92ff 7137 c492 5037 c0a5 08b7 267c 35b7
00000050: a36c 01b7 7a50 1836 e8a8 4b36 a9de 92b7
00000060: abda db37 96d8 b4b7 e48f ff36 3f06 8c36
00000070: 737d 03b7 4cc4 24b8 51e8 1eb7 4214 a6b6
00000080: 1876 96b7 ee6a 1838 30ee 63b7 117c c7b7
00000090: ae18 3437 14e3 3738 3425 0bb7 c202 8637
000000a0: 16fd 38b7 903e 0937 a951 03b7 395f 0ab7
000000b0: 9440 6637 7cca 2937 8680 59b7 2aa0 b237
000000c0: 0561 27b7 341a 3937 c8b7 9437 ac69 05b7
000000d0: bb38 19b7 d9dd 4836 1a44 44b7 a175 8536
000000e0: baeb f136 09cd cf34 bb3e d7b7 700d 1f35
000000f0: 89c9 4c37 8f14 f636 217a 6337 4d8e 68b6

exp_avg_sq f4 [8, 8]
3.0069194e-09 2.239762e-09 2.226329e-09 9.99516e-10 1.905511e-09 2.5804099e-09 1.3446982e-09 2.088566e-09
7.469131e-10 1.9869275e-09 8.620116e-10 6.7675743e-10 5.459562e-10 1.1783787e-09 1.4395554e-09 1.2438574e-09
1.1725623e-09 6.313671e-10 8.8969837e-10 5.467674e-10 7.680532e-10 1.0613755e-09 5.2921584e-10 7.866093e-10
1.4601277e-09 1.4839648e-09 1.7506993e-09 8.6837315e-10 1.1773479e-09 1.995902e-09 9.894799e-10 1.5322119e-09
2.4874838e-09 1.1116185e-09 1.5499431e-09 6.37749e-10 1.2013872e-09 1.3273619e-09 6.340693e-10 1.7037239e-09
1.3095016e-09 8.0382245e-10 7.095696e-10 9.622804e-10 6.821439e-10 1.3724043e-09 6.366039e-10 8.848603e-10
4.9583284e-09 1.619038e-09 1.2998802e-09 1.6824806e-09 2.9381113e-09 1.4465331e-09 4.792514e-10 3.3086767e-09
4.5990824e-09 1.3600009e-09 1.2855667e-09 1.1978298e-09 2.5658722e-09 9.898219e-10 3.6989808e-10 2.9354423e-09
00000000: 49a2 4e31 4fea 1931 fefd 1831 585f 8930
00000010: 1bf2 0231 0d53 3131 5dd0 b830 7186 0f31
00000020: 564f 4d30 668a 0831 acf2 6c30 9206 3a30
00000030: 4112 1630 84f4 a130 dad9 c530 57f4 aa30
00000040: de27 a130 838c 2d30 f58e 7430 564b 1630
00000050: f01e 5330 d5df 9130 4178 1130 b538 5830
00000060: adad c830 5ff4 cb30 419d f030 54b2 6e30
00000070: 3fd0 a130 4828 0931 3bfe 8730 ea95 d230
00000080: 47f0 2a31 99c7 9830 c605 d530 994d 2f30
00000090: 0e1e a530 656e b630 a94a 2e30 7528 ea30
000000a0: fef9 b330 faf3 5c30 860b 4330 3b41 8430
000000b0: 9c81 3b30 2f9f bc30 04fd 2e30 823a 7330
000000c0: eb5d aa31 d684 de30 78a7 b230 063d e730
000000d0: cde7 4931 5ccf c630 52bc 0330 db5e 6331
000000e0: f505 9e31 c7ea ba30 dbaf b030 e4a0 a430
000000f0: 4d53 3031 430a 8830 875a cb2f d9b8 4931

exp_avg f4 [8, 8]
1.384066e-05 -1.046755e-06 -9.042761e-07 1.2774387e-05 4.577552e-07 7.038308e-06 7.538028e-07 -5.9424024e-06
3.1769532e-06 5.0904646e-06 2.8411334e-06 -1.0215273e-05 -1.7903587e-05 -1.848453e-05 -2.8401173e-05 3.7712998e-05
2.15592e-05 -2.0368882e-06 -1.0313544e-05 2.3842542e-05 3.276948e-05 2.5470868e-05 4.8683698e-05 -6.0095586e-05
-1.9132462e-05 1.0819314e-06 7.845823e-06 -7.882047e-06 1.0904518e-05 7.992176e-06 2.0931182e-05 -2.1760128e-05
8.960809e-06 -1.7792726e-06 -5.5191886e-06 6.751423e-06 -9.699144e-06 -4.9893715e-06 -1.4843526e-05 1.2875733e-05
2.3057946e-05 1.5186757e-06 -4.381482e-06 1.0270961e-05 -7.204578e-06 -2.6771327e-06 4.413337e-06 -2.165986e-06
-4.4300883e-05 1.8206246e-06 1.5690663e-05 -2.7911881e-05 1.8781611e-05 5.2614387e-06 2.9240682e-05 -2.546672e-05
-5.9012113e-05 9.596991e-06 1.8109089e-05 -4.7582194e-05 9.287565e-07 -1.3825768e-05 8.087283e-06 4.697085e-06
00000000: 2f35 6837 3a7e 8cb5 61bd 72b5 9351 5637
00000010: 65c1 f534 9b2a ec36 ef58 4a35 d964 c7b6
00000020: a433 5536 c2ce aa36 4daa 3e36 4362 2bb7
00000030: a92f 96b7 3a0f 9bb7 0e3f eeb7 062e 1e38
00000040: 08da b437 79b1 08b6 5608 2db7 7801 c837
00000050: f671 0938 46aa d537 b931 4c38 250f 7cb8
00000060: a67e a0b7 e136 9135 8ea1 0337 223d 04b7
00000070: 8cf2 3637 2216 0637 5f95 af37 8589 b6b7
00000080: 6256 1637 57cf eeb5 7831 b9b6 488a e236
00000090: 82b9 22b7 606a a7b6 7508 79b7 da04 5837
000000a0: 906c c137 4dd5 cb35 a504 93b6 7151 2c37
000000b0: dbbe f1b6 caa8 33b6 4716 9436 5b5b 11b6
000000c0: b6cf 39b8 2f5c f435 719f 8337 4f24 eab7
000000d0: 348d 9d37 6a8b b036 e349 f537 5da1 d5b7
000000e0: c683 77b8 c302 2137 f9e8 9737 fe92 47b8
000000f0: a94f 7935 39f5 67b7 9eae 0737 a79b 9d36

exp_avg_sq f4 [8, 8]
6.0399435e-10 3.7436076e-10 1.6321189e-09 7.023075e-10 2.6597008e-10 1.3218321e-09 2.6409375e-10 1.0906849e-09
8.66502e-10 2.4778718e-10 6.752788e-10 6.9660605e-10 2.6330343e-10 6.3018e-10 5.4933713e-10 1.8013859e-09
1.518277e-09 1.8868451e-10 5.6348254e-10 7.02954e-10 4.2514853e-10 7.047418e-10 5.980327e-10 8.7226176e-10
9.426939e-10 2.6987718e-10 1.0967766e-09 4.37183e-10 3.4767475e-10 6.3270506e-10 3.7533235e-10 8.0446955e-10
9.231394e-10 4.5733933e-10 1.3792253e-09 8.9971935e-10 4.1228237e-10 9.315743e-10 6.546927e-10 2.485016e-09
4.472237e-09 2.2546576e-10 2.357325e-09 2.0874111e-09 1.2638862e-09 1.1841348e-09 2.2452955e-09 2.8604477e-09
9.543352e-10 2.214386e-10 8.500092e-10 5.103337e-10 3.7068246e-10 5.895376e-10 3.963318e-10 7.844066e-10
8.516809e-09 7.391102e-10 3.5322656e-09 4.544403e-09 1.8063585e-09 4.197265e-09 3.855717e-09 9.326033e-09
00000000: 5306 2630 98ce cd2f 1451 e030 7f0c 4130
00000010: f637 922f d5ab b530 e42f 912f 10e7 9530
00000020: a82e 6e30 f238 882f 859e 3930 4b7b 3f30
00000030: aac0 902f fa38 2d30 2a00 1730 a294 f730
00000040: 9fab d030 f875 4f2f 8fe3 1a30 fd39 4130
00000050: 56ba e92f ccb7 4130 cf62 2430 f7c3 6f30
00000060: 1890 8130 d65d 942f 65bd 9630 0a58 f02f
00000070: df22 bf2f a9ea 2d30 5557 ce2f 8321 5d30
00000080: 29c0 7d30 ca6c fb2f 2d8f bd30 1f50 7730
00000090: 96a7 e22f db08 8030 e7f5 3330 ddc4 2a31
000000a0: 36aa 9931 f8e6 772f 80fe 2131 2072 0f31
000000b0: 0bb5 ad30 0abf a230 a84b 1a31 8791 4431
000000c0: af29 8330 6d79 732f 14a6 6930 8b47 0c30
000000d0: ebc8 cb2f 050d 2230 bee2 d92f b59d 5730
000000e0: 5251 1232 422a 4b30 46bc 7231 fe24 9c31
000000f0: 9743 f830 8937 9031 3f7b 8431 5438 2032

exp_avg f4 [8]
2.3664956e-05 -5.85927e-05 3.0445042e-05 2.2996932e-05 -7.125014e-06 -3.6548998e-05 1.5520372e-05 -5.103567e-05
00000000: 1b84 c637 6fc1 75b8 3b64 ff37 89e9 c037
00000010: 6713 efb6 304c 19b8 bf31 8237 220f 56b8

exp_avg_sq f4 [8]
1.0490949e-08 7.2431736e-09 1.0445935e-08 7.507355e-09 1.083862e-08 2.6433026e-08 7.300021e-09 5.9047977e-08
00000000: af3b 3432 a1df f831 b575 3332 b2f9 0032
00000010: c134 3a32 d70e e332 aad3 fa31 f09b 7d33

exp_avg f4 [16, 8]
3.1431935e-06 9.99949e-06 -1.8128692e-05 -2.713958e-05 -3.2799924e-06 -2.5771249e-05 -9.333023e-06 -3.1495776e-05
-5.1061903e-08 -4.1737513e-07 4.62446e-08 -1.8186373e-08 7.963377e-08 -1.2205214e-07 1.2627581e-07 -9.9748064e-08
-1.0958588e-07 -2.6024876e-05 -2.4244987e-06 -3.905202e-06 -7.61911e-07 -1.21429275e-05 1.1596639e-05 -4.1869826e-06
-8.2839796e-10 -1.4095766e-09 -1.6117918e-09 7.129298e-10 -1.7362539e-09 -1.3004385e-09 1.704029e-09 -4.4475748e-10
-2.9311468e-07 1.722335e-07 3.0105383e-07 3.8317515e-07 -1.5279101e-06 -2.504335e-07 2.2613856e-06 1.3356837e-06
-4.0899496e-07 -8.4982537e-07 -6.821285e-07 -8.1613265e-08 -1.8031396e-07 -1.9517636e-06 1.337626e-07 -5.4170397e-07
-2.6079933e-10 -2.8000975e-09 -1.846818e-09 5.5735133e-10 -4.743043e-10 -1.8278846e-09 4.1288084e-09 -3.3236802e-10
-4.30112e-09 -8.068801e-11 -1.7851871e-08 -4.481758e-09 -2.098981e-10 1.7010704e-09 1.0655256e-08 7.648096e-09
-4.802144e-07 -1.599748e-05 -2.7861428e-05 -7.4643594e-06 8.728041e-06 -2.5897678e-05 -2.7633112e-06 -1.6646403e-05
-1.6582492e-09 -5.065971e-09 1.1115889e-09 1.83694e-10 -2.2075852e-09 -3.2977485e-09 9.498083e-09 -1.5555118e-09
-4.0730853e-07 -1.0890859e-06 8.1996646e-08 -1.1737002e-07 -3.3757493e-07 -2.1888693e-06 1.3328251e-07 -7.787257e-07
-9.3241425e-07 -2.884203e-06 -1.313296e-07 -5.7280573e-07 -3.431121e-07 -4.732822e-06 3.0974456e-07 -1.6786684e-06
-4.8064347e-08 -2.7517157e-07 5.2980376e-08 -2.5710456e-08 -3.098852e-08 -3.5874896e-07 4.3373916e-08 -1.6801215e-07
2.2234632e-08 -3.0204453e-07 2.4164233e-08 -5.8968574e-08 -6.4374945e-09 -3.0666553e-07 4.79594e-08 -1.8019131e-07
-2.4300197e-09 5.0631725e-09 -6.7348918e-09 -1.58785e-09 7.92163e-09 5.863096e-09 -7.809366e-09 3.5380099e-09
1.3213347e-07 6.6172527e-07 -2.1202602e-08 1.8226376e-07 2.3441538e-07 1.377643e-06 -9.855396e-08 5.222867e-07
00000000: a7ef 5236 7cc3 2737 1213 98b7 cea9 e3b7
00000010: d71d 5cb6 562f d8b7 0795 1cb7 551a 04b8
00000020: 284f 5bb3 9a13 e0b4 7a9e 4633 4238 9cb2
00000030: 2103 ab33 700d 03b4 6e96 0734 1435 d6b3
00000040: 7a55 ebb3 ff4f dab7 92b4 22b6 6e09 83b6
00000050: 2086 4cb5 7ab9 4bb7 2f8f 4237 e87d 8cb6
00000060: 53b5 63b0 11bb c1b0 e285 ddb0 faf7 4330
00000070: 01a1 eeb0 1dbb b2b0 3133 ea30 0d82 f4af
00000080: 605d 9db4 2fef 3834 86a0 a134 31b7 cd34
00000090: 9712 cdb5 5173 86b4 4fc2 1736 be45 b335
000000a0: d793 dbb4 8e1f 64b5 831b 37b5 5e43 afb3
000000b0: 539c 41b4 0bfb 02b6 62a0 0f34 9d69 11b5
000000c0: 3e60 8faf d66b 40b1 22d3 fdb0 1d34 1930
000000d0: 3360 02b0 f938 fbb0 62dd 8d31 a4b8 b6af
000000e0: 0dc9 93b1 506f b1ae ae58 99b2 f6fd 99b1
000000f0: 10c9 66af 18cb e930 500e 3732 af64 0332
00000100: 15e8 00b5 5432 86b7 f6b7 e9b7 5c76 fab6
00000110: a76e 1237 d73e d9b7 5371 39b6 e1a3 8bb7
00000120: 75e8 e3b0 c110 aeb1 8fc6 9830 44f9 492f
00000130: 40b4 17b1 9b9e 62b1 032d 2332 b5c9 d5b0
00000140: 0fac dab4 b52c 92b5 2216 b033 da0c fcb3
00000150: f23b b5b4 7de4 12b6 6b1c 0f34 9f09 51b5
00000160: 054b 7ab5 3b8e 41b6 9b03 0db4 e9c2 19b5
00000170: f834 b8b4 a2ce 9eb6 f84a a634 9b4e e1b5
00000180: 4f6f 4eb3 4bbb 93b4 8a8c 6333 e4d9 dcb2
00000190: 3d18 05b3 159a c0b4 204a 3a33 d466 34b4
000001a0: 79fe be32 af28 a2b4 b691 cf32 a244 7db3
000001b0: cd30 ddb1 caa3 a4b4 ebfb 4d33 9c7a 41b4
000001c0: 5cfd 26b1 23f8 ad31 bc68 e7b1 813b dab0
000001d0: b217 0832 5674 c931 f429 06b2 5421 7331
000001e0: 92e0 0d34 6aa1 3135 0421 b6b2 48b4 4334
000001f0: 9cb3 7b34 74e7 b835 9da4 d3b3 4533 0c35

exp_avg_sq f4 [16, 8]
6.494891e-10 3.822674e-09 2.611408e-08 8.834064e-10 1.8702975e-09 7.956855e-10 1.19481705e-08 4.5536526e-09
5.0866894e-11 4.1266494e-11 4.597793e-11 1.5707725e-10 1.409732e-10 8.1546825e-11 5.340568e-11 8.828551e-11
2.6687216e-10 4.68313e-10 1.6309089e-10 1.3311911e-10 1.967727e-10 4.4786877e-10 3.263155e-10 4.2558197e-11
2.2522291e-11 3.547164e-11 3.1757968e-11 2.0364968e-11 4.2261472e-11 4.4708102e-11 3.138826e-11 1.7197646e-11
2.0772252e-10 9.008558e-11 4.6261978e-10 8.8232574e-11 3.5371905e-10 5.948897e-11 2.2658579e-10 3.201482e-10
8.431876e-12 7.6046965e-13 1.6523383e-11 6.0719893e-12 9.172278e-12 1.4565795e-11 2.6438363e-12 2.6090608e-12
2.4999615e-11 2.5698407e-11 6.703985e-11 4.812018e-11 8.3201446e-11 2.5465262e-11 3.8786255e-11 2.4756216e-11
3.761926e-11 9.9080306e-11 3.0087996e-10 3.3461865e-11 2.3257818e-10 1.4500716e-10 1.3383322e-10 8.589659e-11
6.579084e-10 2.7161973e-09 3.4098267e-08 4.3269863e-10 5.316314e-09 1.1728142e-09 2.0649676e-08 4.932197e-09
1.0490495e-10 4.37068e-11 1.1954285e-10 6.267943e-11 1.5246461e-10 8.5236505e-11 5.0338962e-11 1.4241082e-10
1.2332958e-11 3.4322073e-13 2.0951223e-11 9.554438e-12 1.2887052e-11 1.7371271e-11 3.2104337e-12 3.3739728e-12
3.6684106e-12 7.6989603e-13 7.171472e-12 3.6858997e-12 5.777478e-12 7.890477e-12 1.17683e-12 1.4220813e-12
2.307408e-11 2.2791637e-11 6.085479e-11 6.162323e-11 6.035884e-11 4.2436516e-11 5.9547686e-11 7.013789e-11
1.1944634e-10 3.4200094e-11 2.638249e-11 4.8201023e-11 1.8729322e-10 6.481782e-11 3.0717182e-11 1.5474814e-11
1.875612e-11 2.0650722e-11 2.0913448e-11 2.070397e-11 4.898685e-11 2.8023887e-11 2.2789654e-11 6.6321584e-12
1.6641032e-11 2.9599146e-11 8.617087e-11 2.8204508e-11 7.6900646e-11 4.4766937e-11 1.8762087e-11 2.3623506e-11
00000000: bb87 3230 9958 8331 7851 e032 33d4 7230
00000010: 9f86 0031 64b7 5a30 9c44 4d32 5a76 9c31
00000020: 08b7 5f2e f17d 352e 8c36 4a2e 51b5 2c2f
00000030: 6e00 1b2f c852 b32e 73e1 6a2e 5324 c22e
00000040: ebb6 922f 99ba 0030 0152 332f b35d 122f
00000050: 975a 582f ed37 f62f d364 b32f 452c 3b2e
00000060: b11b c62d 8401 1c2e 4bac 0b2e d521 b32d
00000070: 30de 392e d9a0 442e 0a0c 0a2e a845 972d
00000080: b164 642f ac19 c62e f253 fe2f 8606 c22e
00000090: 8875 c22f 50d1 822e 3b22 792f db00 b02f
000000a0: cb55 142d 9d0d 562b 5a57 912d 9ea3 d52c
000000b0: 455c 212d 411f 802d 1f0b 3a2c a998 372c
000000c0: 21e6 db2d ab0b e22d 156c 932e 82a2 532e
000000d0: 40f6 b62e acfe df2d 7195 2a2e 0bc2 d92d
000000e0: 8573 252e 41e1 d92e 1769 a52f b62a 132e
000000f0: f0b8 7f2f e36f 1f2f b426 132f 7be3 bc2e
00000100: 30d8 3430 d9a7 3a31 7173 1233 ebe0 ed2f
00000110: cbaa b631 bb30 a130 1e61 b132 1078 a931
00000120: 3db0 e62e 7b39 402e 5270 032f 62d5 892e
00000130: f9a2 272f e36f bb2e a264 5d2e 1595 1c2f
00000140: b4f6 582d 5237 c12a f649 b82d 5d15 282d
00000150: 1fb6 622d a0cc 982d 08ea 612c 176c 6d2c
00000160: 1b12 812c dbb4 582b e152 fc2c a2af 812c
00000170: e546 cb2c 8dcf 0a2d c59f a52b e123 c82b
00000180: 36f6 ca2d 347a c82d 34d2 852e cb82 872e
00000190: 02bb 842e 45a3 3a2e 5ef2 822e 1f3c 9a2e
000001a0: 2855 032f e269 162e 1610 e82d 87fd 532e
000001b0: 5bee 4d2f 3089 8e2e 7918 072e 2f1e 882d
000001c0: 07fb a42d 4ba5 b52d e6f4 b72d 321d b62d
000001d0: 4a72 572e 2f80 f62d bd75 c82d 2c59 e92c
000001e0: 4660 922d ad2d 022e e37d bd2e e816 f82d
000001f0: 371b a92e 17e3 442e 7708 a52d 68cb cf2d

exp_avg f4 [16]
1.4807996e-05 2.5431498e-07 2.6577722e-05 2.5908915e-09 3.2953367e-06 1.0445998e-06 1.1178126e-09 5.5269753e-09
1.14321465e-05 -4.0927186e-09 1.046718e-06 2.614241e-06 2.3565909e-07 1.7377e-07 1.5984442e-08 -6.7103946e-07
00000000: dc6f 7837 c988 8834 39f3 de37 720b 3231
00000010: 7425 5d36 2d34 8c35 89a1 9930 cae7 bd31
00000020: b2cc 3f37 ef9f 8cb1 f57c 8c35 5270 2f36
00000030: 7a09 7d34 8995 3a34 294e 8932 7b21 34b5

exp_avg_sq f4 [16]
1.5852702e-08 2.569745e-10 2.0104591e-09 7.135131e-11 1.6781848e-09 1.9998688e-11 1.5575642e-10 8.210115e-10
1.922175e-08 9.415995e-10 2.8515993e-11 1.2404867e-11 3.4683445e-10 2.8833896e-10 9.08002e-11 1.8815717e-10
00000000: 762c 8832 f245 8d2f 5f28 0a31 37e7 9c2e
00000010: e1a5 e630 0be9 af2d 8941 2b2f 8cad 6130
00000020: 131d a532 9669 8130 4fd4 fa2d 8e3a 5a2d
00000030: 9cac be2f 1a84 9e2f f8ab c72e 89e1 4e2f

exp_avg f4 [8, 16]
-9.235784e-06 3.1643207e-08 -2.4309609e-06 2.0818098e-09 1.4997782e-07 -2.5527081e-08 -1.2051073e-09 -3.2770497e-09
1.558938e-05 9.666315e-09 -1.2538437e-09 -4.8217913e-08 1.8199286e-08 -3.694326e-09 7.921086e-09 -1.3160266e-08
-1.8919593e-05 -9.026717e-08 3.5859605e-07 2.1416863e-10 1.958639e-07 1.697381e-09 -1.5730715e-09 -3.1232872e-09
-4.8825677e-06 2.51798e-09 -1.5818901e-07 -3.7179146e-07 -3.0031664e-08 5.2949227e-09 3.501674e-09 2.1469585e-08
1.9553305e-05 1.4609955e-07 -4.710525e-07 1.463046e-09 -1.9939809e-07 -1.1401425e-09 -1.637558e-09 -6.2797163e-09
-1.2183214e-05 1.1105062e-08 2.388621e-07 5.6315486e-07 5.4496187e-08 -8.945465e-09 9.281692e-09 -3.505428e-08
2.0046704e-05 2.6910303e-08 3.032485e-06 1.27451e-09 -2.8764626e-07 -1.7379904e-08 -1.9805961e-09 -5.1207976e-09
-1.9284924e-05 5.0782134e-09 4.5732328e-08 7.0885875e-08 6.977027e-09 -4.07199e-10 5.0359117e-09 1.9314314e-08
-1.3905032e-05 -4.5666063e-08 -1.6553997e-06 -1.909191e-09 2.2179624e-07 3.017159e-08 3.128729e-10 2.2468873e-09
1.996989e-05 -1.0984766e-08 -5.7685632e-08 -8.561149e-08 -1.5043058e-08 1.4965311e-09 -7.7918125e-09 -1.3386177e-09
-3.3396085e-05 -1.006445e-07 2.3502497e-07 -2.4868043e-09 5.2751653e-07 -1.869278e-07 -2.0409947e-09 4.0965116e-09
-8.776972e-05 -1.5239848e-08 -1.8245774e-07 -7.8112146e-07 -4.803303e-08 5.6080403e-09 -1.081455e-08 5.9822696e-08
4.0595984e-05 5.5866195e-08 3.0948609e-06 -1.3625794e-10 -5.282348e-07 -9.586729e-08 1.9879725e-09 9.0339386e-10
-6.0579176e-05 -2.312083e-09 1.1022126e-07 8.50565e-08 6.8532233e-09 -5.8882843e-10 -3.377992e-09 3.2261863e-08
2.2919758e-05 -8.9972794e-08 4.703036e-06 -5.3878907e-10 -3.8734723e-07 -1.4017868e-07 -2.438402e-09 5.5831704e-09
-9.046346e-05 -7.2195783e-09 -1.4246962e-07 -6.114799e-07 -4.369605e-08 4.4810973e-09 -5.039716e-09 7.757318e-08
00000000: 64f3 1ab7 13e8 0733 9723 23b6 960f 0f31
00000010: 9709 2134 a546 dbb2 f2a0 a5b0 7832 61b1
00000020: f0c5 8237 e710 2632 b453 acb0 2818 4fb3
00000030: a754 9c32 45df 7db1 4e15 0832 7617 62b2
00000040: 84b5 9eb7 e7d8 c1b3 1185 c034 1c7b 6b2f
00000050: a94e 5234 4949 e930 8833 d8b0 73a1 56b1
00000060: f0d4 a3b6 c608 2d31 aada 29b4 a19a c7b4
00000070: 2afc 00b3 a2ee b531 1aa2 7031 1e6c b832
00000080: 6706 a437 8adf 1c34 f6e4 fcb4 5b14 c930
00000090: 211a 56b4 33b3 9cb0 7310 e1b0 f8c4 d7b1
000000a0: 8166 4cb7 94c8 3e32 f53c 8034 b52b 1735
000000b0: 310f 6a33 92ae 19b2 5075 1f32 978e 16b3
000000c0: f829 a837 6228 e732 b281 4b36 d62a af30
000000d0: cd6d 9ab4 d04a 95b2 041b 08b1 03f3 afb1
000000e0: 0fc6 a1b7 707c ae31 3a6b 4433 ec39 9833
000000f0: 94ba ef31 2adc dfaf 5908 ad31 a0e8 a532
00000100: a849 69b7 5e22 44b3 1a2f deb5 d832 03b1
00000110: e326 6e34 0496 0133 f200 ac2f a967 1a31
00000120: 0385 a737 83b7 3cb2 06c2 77b3 6ad9 b7b3
00000130: 0938 81b2 82ae cd30 c1dc 05b2 6cfa b7b0
00000140: c612 0cb8 e621 d8b3 2c5b 7c34 53e4 2ab1
00000150: a99a 0d35 53b6 48b4 8f41 0cb1 4cc1 8c31
00000160: 0211 b8b8 c8e8 82b2 9ae9 43b4 42ae 51b5
00000170: e04c 4eb3 d8b0 c031 e5ca 39b2 e077 8033
00000180: 9b45 2a38 88f1 6f33 4eb1 4f36 33d1 15af
00000190: 05cc 0db5 9adf cdb3 c89c 0831 b152 7830
000001a0: 6516 7eb8 98e2 1eb1 c7b2 ec33 4ea8 b633
000001b0: 9779 eb31 1edb 21b0 4422 68b1 4b90 0a33
000001c0: ce43 c037 1137 c1b3 c6ce 9d36 e919 14b0
000001d0: 99f4 cfb4 0684 16b4 d290 27b1 16d6 bf31
000001e0: 33b7 bdb8 1510 f8b1 c0f9 18b4 9424 24b5
000001f0: 51ac 3bb3 26f8 9931 d029 adb1 4f96 a633

exp_avg_sq f4 [8, 16]
1.9790933e-09 7.71985e-11 8.097668e-11 1.462024e-10 9.433626e-11 1.2414221e-11 2.386309e-10 1.5014742e-10
2.9525906e-09 1.2122277e-10 6.147526e-11 1.228351e-11 2.309564e-10 1.1239692e-10 2.9349755e-11 6.417953e-11
7.2441644e-09 7.893451e-11 2.2075418e-11 3.8276358e-11 1.4275054e-11 8.0068683e-13 6.526268e-11 2.192981e-11
6.2387215e-09 6.647683e-11 6.263444e-12 2.8823378e-12 6.0194176e-11 8.4922624e-11 8.5524594e-11 8.963137e-12
4.5120028e-09 7.4110676e-11 3.8968925e-11 3.9702245e-11 5.1833378e-11 4.88466e-13 7.838283e-11 2.2636464e-11
7.124421e-09 6.310734e-11 3.5382723e-12 1.2843717e-12 4.1356342e-11 1.3716198e-10 5.5918183e-11 1.2996005e-12
3.9454155e-09 4.8569634e-11 2.975526e-11 8.2254654e-12 2.1109954e-11 2.0030744e-12 4.4057074e-11 1.2402882e-11
3.4988301e-09 3.9499747e-11 1.3770801e-11 3.8731093e-12 6.8269265e-11 1.0368703e-11 3.5221073e-11 1.1054432e-12
2.4994693e-09 2.2203758e-10 2.6149199e-11 1.8269468e-10 5.8626346e-12 1.5344396e-13 1.9735806e-10 1.6046582e-10
4.0098147e-09 2.1108389e-10 8.2430585e-13 3.2181783e-12 9.879101e-11 6.31056e-11 2.3950333e-10 6.9676855e-11
7.465574e-09 1.2606305e-10 1.5654827e-10 3.2085168e-11 7.409109e-12 1.3703273e-11 3.9351314e-11 1.669293e-11
2.5572367e-08 8.72281e-11 6.0530775e-11 1.0809172e-11 2.6728791e-10 1.6054116e-10 7.63628e-11 6.412062e-13
2.1235185e-09 4.9002746e-11 1.4395112e-11 2.4359919e-11 2.1799564e-11 1.5547488e-13 5.372339e-11 3.1611564e-12
5.8032747e-09 4.1044054e-11 3.7994837e-12 2.0789633e-12 3.8196248e-11 8.946935e-11 5.2261542e-11 1.1692875e-12
3.968359e-09 2.9859704e-10 2.3545646e-10 2.0825393e-10 2.872907e-10 3.30238e-11 6.013927e-10 1.8087665e-10
1.6598568e-08 3.2679848e-10 1.6143878e-10 3.4678028e-11 6.883595e-10 1.4507752e-10 2.438965e-10 8.1408234e-11
00000000: 9400 0831 e4c2 a92e d111 b22e 51c0 202f
00000010: 9872 cf2e ae64 5a2d 5030 832f be16 252f
00000020: 86e6 4a31 2d49 052f 7f2f 872e 0318 582d
00000030: 73f0 7d2f d729 f72e e314 012e dd21 8d2e
00000040: 58e8 f831 2e94 ad2e 6c2d c22d 5957 282e
00000050: 2121 7b2d 915f 612b 9f83 8f2e 8be5 c02d
00000060: 605c d631 212f 922e 1760 dc2c 95d3 4a2c
00000070: 4f5e 842e 30bf ba2e 1112 bc2e 61ae 1d2d
00000080: ff07 9b31 9af8 a22e 1c63 2b2e c19c 2e2e
00000090: 32f7 632e af7d 092b 9c5d ac2e c91c c72d
000000a0: 12cb f431 46c6 8a2e d9fb 782c 5ec2 b42b
000000b0: 1ae3 352e aacf 162f 47ee 752e 0be7 b62b
000000c0: 3e90 8731 8c9c 552e 72dd 022e 34b4 102d
000000d0: 64af b92d 2ef4 0c2c dbc3 412e 9d31 5a2d
000000e0: 1270 7031 c3b8 2d2e 2d42 722d de45 882c
000000f0: 2e20 962e 7d68 362d 67e7 1a2e ca93 9b2b
00000100: 21c3 2b31 0622 742f c302 e62d fbdf 482f
00000110: eb45 ce2c 36c3 2c2a 5bff 582f 1d6f 302f
00000120: b4c6 8931 d516 682f 7f05 682b 8c75 622c
00000130: 653e d92e 4bc5 8a2e 19ab 832f 9538 992e
00000140: f141 0032 989b 0a2f 6c20 2c2f b01c 0d2e
00000150: a957 022d 0e12 712d a411 2d2e 23d5 922d
00000160: 3baa db32 0ed1 bf2e cc1b 852e 2f28 3e2d
00000170: 6ef1 922f 5284 302f 6fec a72e c77b 342b
00000180: 55ed 1131 3084 572e d23d 7d2d a945 d62d
00000190: 41c0 bf2d 950c 2f2a 2947 6c2e 5572 5e2c
000001a0: 2566 c731 7f83 342e b5ae 852c 464b 122c
000001b0: 27fd 272e c4be c42e 44d9 652e 0690 a42b
000001c0: 0e5a 8831 cc27 a42f 8d71 812f 45fa 642f
000001d0: 92f0 9d2f 7e3d 112e 404f 2530 40e0 462f
000001e0: a394 8e32 cca8 b32f fa80 312f fd83 182e
000001f0: fe36 3d30 b183 1f2f 6115 862f c304 b32e

exp_avg f4 [8]
2.6933118e-05 -3.5352885e-05 -3.7461925e-06 1.6504942e-05 -4.6834734e-06 -3.281498e-05 2.9333103e-05 1.7356997e-06
00000000: 6eee e137 df47 14b8 1967 7bb6 1874 8a37
00000010: bb26 9db6 d1a2 09b8 5c10 f637 30f6 e835

exp_avg_sq f4 [8]
6.7763595e-09 8.7006695e-09 1.2731223e-08 5.849531e-09 7.01166e-09 3.999954e-08 1.0006422e-08 3.4859802e-08
00000000: 7dd5 e831 f379 1532 83b8 5a32 05fd c831
00000010: 37eb f031 f6cb 2b33 b6e8 2b32 c2b8 1533

exp_avg f4 [1, 8]
-0.00012534247 0.0005387069 9.983818e-05 -0.00053868536 0.00015288382 0.00057934807 4.7479796e-05 6.7042056e-05
00000000: 5d6e 03b9 0238 0d3a 3760 d138 9036 0dba
00000010: 704f 2039 64df 173a 0b25 4738 ee98 8c38

exp_avg_sq f4 [1, 8]
3.628833e-07 4.391598e-07 5.675888e-07 5.052617e-07 3.1925444e-07 2.2245268e-07 3.903072e-07 7.763392e-07
00000000: 4dd2 c234 aac5 eb34 685c 1835 52a1 0735
00000010: ff65 ab34 54db 6e34 6a8b d134 a065 5035
