notebooks/lightning_logs/version_131/checkpoints/epoch=299-step=600.ckpt (torch, 25027 bytes, 36 tensors)

front_linear.weight f4 [8, 2]
0	0x3e2a8a3e	0.16654298
1	0xbfeabbba	-1.833854
2	0xbef0824d	-0.46974412
3	0x3feaf7a2	1.8356822
4	0xbfeca505	-1.848786
5	0x3ed93374	0.42422068
6	0xc0079950	-2.1187325
7	0xbf3d6e9c	-0.739969
8	0x3f9952ce	1.1978395
9	0x3e6cc952	0.23123673
10	0x3f9e9462	1.2389033
11	0xbd778aa5	-0.060434956
12	0x3f41e6dd	0.75742894
13	0xbf545acd	-0.8295105
14	0x3f27dc67	0.6557068
15	0xbe8f5c7d	-0.2800025

front_linear.bias f4 [8]
0	0x3f482507	0.781815
1	0xbf34cabd	-0.70621854
2	0x3f0e31a7	0.55544513
3	0x3f7867b4	0.9703324
4	0xbebe7a60	-0.3720274
5	0xbf079752	-0.5296527
6	0x3de18964	0.11012533
7	0xbe82384c	-0.25433576

transformer_encoder.layers.0.self_attn.query_mat.weight f4 [8, 8]
0	0xc0696d27	-3.6472871
1	0xbeaa2c35	-0.33236852
2	0x3f7fcc86	0.99921453
3	0xc0806317	-4.012096
4	0x407d69fa	3.9595933
5	0xbfdc7bcd	-1.7225281
6	0x404f3aa7	3.2379549
7	0xc109d3e8	-8.614235
8	0x4028b199	2.6358397
9	0xc04998f3	-3.1499603
10	0xc034f0c1	-2.8271945
11	0x3fc8b44c	1.5680022
12	0xbffb1207	-1.9614877
13	0x4035781c	2.835456
14	0x3efd5baa	0.49483997
15	0x4060b95f	3.5113142
16	0x40320ca8	2.7820225
17	0xc082150b	-4.0650687
18	0xc04ded6b	-3.2176158
19	0x3fbd1a59	1.4773666
20	0xbf1860fc	-0.59522986
21	0x4073116d	3.7979386
22	0x3f85cb08	1.0452585
23	0x3f9d1ce0	1.2274437
24	0x3fe31e80	1.7743683
25	0xc0ca6f6d	-6.326102
26	0xc03caae2	-2.9479299
27	0x3e3c2fa0	0.18377542
28	0xbf5fb380	-0.8738327
29	0x4078ff6a	3.8905892
30	0x402f602a	2.7402444
31	0xbdbc70a4	-0.09201172
32	0x3fb808a4	1.4377637
33	0xc065c75d	-3.5902932
34	0xc04bfb02	-3.1871953
35	0x3f55d3df	0.83526415
36	0xbf1dfdf6	-0.6171564
37	0x4063b220	3.557747
38	0x3c896ac5	0.016774544
39	0x3f62aa3d	0.88541013
40	0xc01bd0ed	-2.4346268
41	0x3fab4a7e	1.3382108
42	0x3ff0d858	1.8816023
43	0xbffac212	-1.9590476
44	0x401d2e33	2.4559448
45	0xc0306d44	-2.756669
46	0x3fe97777	1.8239583
47	0xc01389d5	-2.3052876
48	0x3fb9af85	1.4506689
49	0xc02ebdca	-2.7303338
50	0xc01cb795	-2.448705
51	0x3fd3a587	1.653489
52	0xbfe01ebb	-1.7509378
53	0x4034a955	2.8228352
54	0xbfb0ff2c	-1.3827872
55	0x4028de6b	2.6385753
56	0x4018c987	2.3873003
57	0xbedd9ece	-0.4328522
58	0xbfc2a208	-1.5205698
59	0x3ff90c0d	1.9456803
60	0xc01b68c4	-2.4282694
61	0x3fd5a79a	1.6691773
62	0xc01536ba	-2.3314652
63	0x40050692	2.078526

transformer_encoder.layers.0.self_attn.key_mat.weight f4 [8, 8]
0	0x4131ccba	11.112482
1	0xc16b9e7b	-14.7261915
2	0xc021af38	-2.5263195
3	0xbfcb9b72	-1.5906813
4	0x401a7ad5	2.413747
5	0x400e0b49	2.2194388
6	0x407eaa69	3.979151
7	0x3fc0c768	1.5060854
8	0xc06a8b15	-3.664739
9	0x40c9999f	6.3000026
10	0x4058c45a	3.3869843
11	0x4035c5b9	2.840193
12	0xc022bfb5	-2.5429509
13	0xc029fc50	-2.656025
14	0xc06dcbf9	-3.7155745
15	0xc01d45ac	-2.4573774
16	0x3f8d7610	1.1051655
17	0x3f47fb33	0.78117675
18	0x403df090	2.9678078
19	0x408689e1	4.204331
20	0xc06ac3ec	-3.6682081
21	0xc072bde1	-3.7928393
22	0xc03503df	-2.8283613
23	0xc0045d08	-2.0681782
24	0x40a49e4f	5.144325
25	0xc109a966	-8.603857
26	0x40067350	2.100788
27	0x400f8bfa	2.2429185
28	0xc0378df2	-2.8680387
29	0xc045f4bb	-3.0930622
30	0x3f28a4d1	0.6587649
31	0xbf3e5bc7	-0.7435879
32	0x40b5934f	5.674232
33	0xc083e344	-4.1214924
34	0x3fda2d5e	1.7045095
35	0x3fadf435	1.3590151
36	0xbfbe8e4c	-1.4887176
37	0xbfc3972a	-1.5280507
38	0xbf0ef8a5	-0.5584815
39	0xbe46dd9b	-0.19420473
40	0x41043f6c	8.265484
41	0xc10ca8d0	-8.791214
42	0xbfce23ff	-1.6104735
43	0xbfc57479	-1.542617
44	0x3ffc25bf	1.9699019
45	0x3fe8c867	1.8186158
46	0x403ab121	2.917061
47	0x3fd6e310	1.6788044
48	0xc091cf12	-4.556527
49	0x40aa124c	5.3147335
50	0x3fd252d7	1.6431531
51	0x3f4bf93a	0.79677165
52	0xbf92817b	-1.1445764
53	0xbfc1fc0d	-1.5155045
54	0xc006e077	-2.1074502
55	0xbfdac321	-1.7090799
56	0xc10a4dca	-8.643991
57	0x411f5065	9.957128
58	0x3ff1beaf	1.8886317
59	0x3fd97d1f	1.6991309
60	0xbf34b6a5	-0.70591193
61	0xbfb8df76	-1.4443195
62	0xc00445db	-2.0667636
63	0xbfb305ad	-1.3986107

transformer_encoder.layers.0.self_attn.value_mat.weight f4 [8, 8]
0	0xbe0cde5f	-0.13756703
1	0x3efee55b	0.4978436
2	0xbfc19bb5	-1.5125643
3	0xbf369712	-0.71324265
4	0xbe10f5f7	-0.14156328
5	0x3f91591c	1.1355319
6	0xbe3115cb	-0.1729347
7	0x3caabf01	0.02084303
8	0x3f100951	0.56264216
9	0x3eecc2ff	0.4624252
10	0x3f1d0169	0.61330277
11	0x3e20cff2	0.15704325
12	0xbe67fd9f	-0.22655343
13	0xbce51c51	-0.027967604
14	0xbeb54df7	-0.35411045
15	0xbec2d413	-0.38052425
16	0x3e717c7d	0.23582645
17	0x3dff1dbb	0.124568425
18	0x3f5908a4	0.8477881
19	0xbdf63ced	-0.120233394
20	0x3d9a5380	0.075354576
21	0x3da63352	0.08115257
22	0x3f0a0fef	0.5393056
23	0x3ea08fa1	0.3135958
24	0x3d6c179c	0.057639703
25	0x3f25ddfa	0.64791834
26	0xbf14ab98	-0.5807433
27	0x3e6c461b	0.23073618
28	0x3e7f3f79	0.24926557
29	0x3e85629d	0.26051798
30	0xbf505aac	-0.81388354
31	0xbdc5f09b	-0.096650325
32	0x3e97a397	0.29616997
33	0xbf521f1c	-0.8207872
34	0x3cccaea9	0.024985628
35	0x3e2e5d67	0.17027818
36	0x3f49df30	0.7885618
37	0xbe9fdb4d	-0.31222
38	0x3e846105	0.2585527
39	0xbe0e8854	-0.13919193
40	0x3ea0e8c2	0.3142758
41	0xbe5f751f	-0.21822022
42	0x3eef3ce7	0.46726152
43	0xbe488a19	-0.1958393
44	0x3db0e774	0.08637896
45	0xbd8e47fa	-0.06947322
46	0x3e5752bf	0.21027659
47	0x3e210de4	0.15727955
48	0x3e64b8b3	0.22336082
49	0x3f57621f	0.84134096
50	0xbcc5177a	-0.024059046
51	0x3e5f0230	0.21778178
52	0xbda5e44f	-0.08100187
53	0x3e184cea	0.1487309
54	0xbf02be39	-0.51071507
55	0xbe9fab0a	-0.3118518
56	0xbf2d2187	-0.67629284
57	0x3d9eaa97	0.07747381
58	0x3e017d0f	0.12645362
59	0x3dffb6b9	0.124860235
60	0xbe88b3c1	-0.2669964
61	0x3eb9d24f	0.36293265
62	0x3f3b511c	0.7317064
63	0x3d61abc8	0.055095464

transformer_encoder.layers.0.self_attn.o_proj.weight f4 [8, 8]
0	0x3f6e0f1b	0.929918
1	0xbecaedb2	-0.39634472
2	0x3ea277cf	0.31732032
3	0x3eb4fa3f	0.35347173
4	0x3f22139a	0.6331116
5	0x3d8a0a55	0.06740252
6	0xbe8c0e99	-0.27354887
7	0xbcf245a5	-0.029574225
8	0x3f261351	0.64873224
9	0xbe3902af	-0.1806743
10	0x3db3ff44	0.087889224
11	0xbc63f52a	-0.013913432
12	0x3ee17332	0.440332
13	0xbd573cbc	-0.052548155
14	0xbcf3bbb0	-0.029752582
15	0x3d197e8d	0.037474204
16	0x3f22cc4c	0.6359298
17	0xbe914cdd	-0.28378955
18	0xbe7a211a	-0.2442669
19	0x3d95e097	0.07318228
20	0xbf53c16f	-0.8271703
21	0xbe9a50be	-0.30139726
22	0xbca52abc	-0.020161979
23	0xbe8534c1	-0.2601681
24	0x3f03fbc4	0.5155604
25	0xbf225b90	-0.63420963
26	0xbebecc28	-0.37265134
27	0xbe9b8065	-0.30371395
28	0x3e2edea0	0.17077112
29	0x3d184b47	0.037181165
30	0xbe938cfc	-0.288185
31	0xbc79e45c	-0.015252199
32	0xbde2907a	-0.11062713
33	0xbded805c	-0.11596748
34	0xbcbabf2d	-0.022796238
35	0x3d55bd4c	0.05218248
36	0x3b9295aa	0.0044734078
37	0xbe4a46fa	-0.19753638
38	0xbf4abcf0	-0.79194546
39	0xbd0b9ba2	-0.03408397
40	0xbf8903bd	-1.0704266
41	0xbe9c1366	-0.3048355
42	0x3eb2c755	0.34917703
43	0x3e18e4b9	0.14931001
44	0x3f03174a	0.5120741
45	0x3eac9f09	0.33715084
46	0x3e0d10a9	0.13775887
47	0xbe44e994	-0.19229728
48	0xbecc43c6	-0.39895457
49	0xbd9fcc03	-0.07802584
50	0x3e32625c	0.17420334
51	0xbe1d1ca2	-0.15342954
52	0xbda0569f	-0.07829022
53	0xbedb258c	-0.42802083
54	0xbdd79446	-0.10526328
55	0xbe3946c9	-0.18093409
56	0xbe996910	-0.2996297
57	0x3f7e59b8	0.9935565
58	0x3e8d58ec	0.27606905
59	0xbd214ca8	-0.039379746
60	0xba2c71f0	-0.00065782573
61	0xbea85fac	-0.32885492
62	0x3ebdd026	0.37072867
63	0xbda3a465	-0.0799034

transformer_encoder.layers.0.self_attn.o_proj.bias f4 [8]
0	0xbeb751ff	-0.35804746
1	0x3e94023b	0.28907952
2	0xbcc99737	-0.024608238
3	0xbd253814	-0.040336683
4	0x3e2b2a66	0.16715392
5	0x3e84bc4e	0.25924915
6	0xbda8555f	-0.08219408
7	0xbef79dce	-0.48362583

transformer_encoder.layers.0.linear_net.0.weight f4 [16, 8]
0	0x3d92d085	0.07168678
1	0x3ee76806	0.4519655
2	0x3d240499	0.040043447
3	0x3f1740b5	0.5908311
4	0xbf65b6b5	-0.89731914
5	0x3ef9c21c	0.48780906
6	0xbe82c035	-0.25537267
7	0x3f1d6366	0.61479795
8	0x3f66adbf	0.90108865
9	0xbfa5f60c	-1.2965713
10	0xbdae517a	-0.08511634
11	0x3e877eb8	0.26463866
12	0xbedfa92f	-0.43683764
13	0xbea02308	-0.31276727
14	0x3d9a1053	0.07522645
15	0x3f0b68f9	0.5445705
16	0xbe85d55d	-0.26139346
17	0xc006614c	-2.0996885
18	0xbecf7df3	-0.4052578
19	0xbe183226	-0.1486288
20	0xbf35e19f	-0.71047395
21	0x3f25b355	0.64726764
22	0x3e9b4623	0.30326948
23	0x3f2b1a5a	0.66837084
24	0x3f4ebaeb	0.80753964
25	0xbf45cd5b	-0.7726647
26	0xbe9f293e	-0.31086153
27	0x3d235398	0.039874643
28	0xbf54199d	-0.8285158
29	0xbf158711	-0.5840922
30	0x3e8abe93	0.27098522
31	0x3e42509e	0.18976066
32	0x3e6ac304	0.22925955
33	0xbd394925	-0.04523577
34	0x3e47ba23	0.195046
35	0xbe72e7ee	-0.23721287
36	0x3e3b46d5	0.18288739
37	0xbe39b7d9	-0.18136539
38	0x3e52471e	0.20534942
39	0x3eb61486	0.35562533
40	0x3fb1cb3c	1.3890147
41	0xbf166de1	-0.5876141
42	0xbdb59883	-0.0886698
43	0x3e15252d	0.14564963
44	0xbf53af20	-0.82689095
45	0xbf980daa	-1.187917
46	0xbea1dbb6	-0.3161294
47	0x3fb7bee2	1.4355128
48	0x3f87f64a	1.0622036
49	0xbf1a8c00	-0.60369873
50	0xbe87bf39	-0.2651308
51	0x3eb569e2	0.35432345
52	0xbf3ebdf0	-0.7450857
53	0xbee30995	-0.44343248
54	0x3e79dc57	0.24400459
55	0x3f74e5b7	0.9566302
56	0x3eff610d	0.4987873
57	0xbf75d011	-0.9602061
58	0x3ea80b89	0.328213
59	0x3f5d67c1	0.8648644
60	0xbf445ef3	-0.7670738
61	0x3e0db867	0.13839875
62	0xbf73ddf1	-0.9526053
63	0x3ff1e4a9	1.8897907
64	0x3f0387f6	0.51379335
65	0xbf277327	-0.65410084
66	0xbecfaa1f	-0.4055948
67	0x3f0fc0ea	0.5615374
68	0xbfa5035d	-1.2891651
69	0xbf5832c0	-0.8445244
70	0x3f14465b	0.57919854
71	0x3fbeb903	1.4900211
72	0x3efb7436	0.491121
73	0xc039f17f	-2.9053648
74	0xbe507eed	-0.20360918
75	0x3cb0239f	0.02150136
76	0xbfbaa995	-1.4583002
77	0xbf02f2b7	-0.51151603
78	0x3f16a34b	0.58842915
79	0x3f9c47ef	1.2209452
80	0x3ed5a446	0.41726893
81	0x3eb64068	0.35596013
82	0x3ddef09c	0.10885736
83	0x3e96a921	0.2942591
84	0xbf4dc9b4	-0.803859
85	0x3ef83862	0.48480517
86	0x3eb297e9	0.34881523
87	0x3f2f6e7a	0.6852795
88	0x3e5a4cd2	0.21318367
89	0xbf08375b	-0.53209466
90	0xbdc276fb	-0.0949535
91	0x3c1b8efb	0.009494538
92	0xbf2b21fc	-0.6684873
93	0xbe3e90bd	-0.18609901
94	0xbd5ce167	-0.053925898
95	0x3ed89285	0.42299286
96	0x3f62b6f1	0.88560396
97	0xbfb7c591	-1.4357167
98	0x3d09f688	0.033682376
99	0x3ebc04bf	0.3672237
100	0xbefa3aa6	-0.4887287
101	0xbfb888ce	-1.441675
102	0xbe470511	-0.19435526
103	0x3f58d70f	0.84703153
104	0xbda0a7a7	-0.07844477
105	0xbe4ef85f	-0.20211934
106	0xbdfa6ba2	-0.122275606
107	0x3e572ef4	0.21014005
108	0xbee93b0b	-0.4555286
109	0xbe244843	-0.1604319
110	0xbec739a8	-0.38911176
111	0xbdfd37f9	-0.123641916
112	0x3ecf0bd1	0.40438703
113	0xbf99fad7	-1.2029675
114	0x3f6f2aed	0.93424875
115	0x3e63a15a	0.2222952
116	0xbfadac4c	-1.3568206
117	0x3e7c814d	0.246587
118	0xbeae1281	-0.33998492
119	0x3f92ec93	1.1478447
120	0x3eda8c58	0.426852
121	0xbe71eedd	-0.23626275
122	0x3efd383f	0.49456975
123	0xbbe7ee13	-0.007077941
124	0xbf79f31d	-0.97636586
125	0x3d1e01e5	0.038576026
126	0xbe2ba9be	-0.1676397
127	0x3f0a75bb	0.5408589

transformer_encoder.layers.0.linear_net.0.bias f4 [16]
0	0xbf8c9bee	-1.0985086
1	0xbf941e07	-1.1571664
2	0xbede23fe	-0.43386835
3	0xbef85c59	-0.48507956
4	0xbdd0579d	-0.10172961
5	0xbff727f8	-1.9309072
6	0xbf154f1c	-0.58323836
7	0xbff491da	-1.910701
8	0xc0025bb2	-2.0368466
9	0xbf9278a8	-1.1443071
10	0xbf87bc97	-1.0604428
11	0xbf5ad8a1	-0.854868
12	0xbfb64e49	-1.4242641
13	0xbf276a87	-0.6539692
14	0xbfee08c3	-1.8596424
15	0xbf100d18	-0.5626998

transformer_encoder.layers.0.linear_net.3.weight f4 [8, 16]
0	0x3f0a9f2c	0.54149127
1	0xbea37b61	-0.31930068
2	0x3e92b4a9	0.28653458
3	0xbf082325	-0.53178626
4	0xbd6f49d4	-0.058420017
5	0x3f138087	0.5761799
6	0xbfb649e4	-1.42413
7	0x3e6d01de	0.23145244
8	0x3f3b200e	0.73095787
9	0xbf3ea9f2	-0.74478066
10	0xbed6f750	-0.4198556
11	0xbe56ecb7	-0.20988737
12	0xbdc9581f	-0.09831261
13	0x3e681cd8	0.22667253
14	0x3e1fd53b	0.15608685
15	0xbdeaa466	-0.11457138
16	0x3e99049c	0.2988633
17	0x3e5cbc8e	0.21556303
18	0xbe5c91ac	-0.21539944
19	0x3e989b86	0.29806155
20	0xbd23326c	-0.039843008
21	0xbf591ae1	-0.8480664
22	0x3e97052f	0.29496142
23	0xbef8e885	-0.48614898
24	0xbf9a7e48	-1.2069788
25	0x3f0299ac	0.51015735
26	0x3ee91276	0.45521897
27	0x3e10d489	0.14143576
28	0x3ef8d955	0.4860331
29	0x3ec38eb6	0.38194817
30	0xbf002793	-0.50060385
31	0xbf10cf3c	-0.56566215
32	0x3f04bde9	0.5185228
33	0x3efcabd6	0.4934985
34	0x3b951040	0.0045490563
35	0xbdc88f43	-0.0979295
36	0x3e0b4b9a	0.13603058
37	0x3f4bdfb7	0.79638237
38	0xbe89e6b7	-0.26933834
39	0x3ed0ecf4	0.4080578
40	0x3efd9b3f	0.49532506
41	0x3e120be2	0.14262345
42	0x3f54fbe3	0.8319685
43	0x3eafdc19	0.3434761
44	0x3f1f6727	0.62266773
45	0x3e367366	0.17817459
46	0xbe4e8a59	-0.20169963
47	0xbe3f5836	-0.18685994
48	0x3ef08298	0.46974635
49	0x3e71d517	0.23616444
50	0x3ea743cd	0.32668915
51	0xbc8f61b8	-0.01750265
52	0xbddf75a9	-0.10911114
53	0x3ee2f722	0.44329172
54	0xbf2c6d7c	-0.6735456
55	0x3f0a1e1e	0.53952205
56	0x3ecf7fa0	0.40527058
57	0xbe49d144	-0.19708735
58	0x3f49bcd1	0.78803736
59	0x3e4fa696	0.20278391
60	0x3f933842	1.1501544
61	0x3ea01098	0.3126266
62	0x3ed5923c	0.4171313
63	0xbd9ecd3e	-0.077539906
64	0x3ed74de8	0.42051625
65	0x3e34c866	0.17654571
66	0xbebc97ba	-0.36834508
67	0x3e911867	0.2833893
68	0xbcc24d15	-0.023718396
69	0xbefcaf2e	-0.49352401
70	0x3e370a17	0.17874943
71	0xbe9824ea	-0.29715663
72	0xbfdc50df	-1.721218
73	0x3f2a09ca	0.66421187
74	0x3f4a88eb	0.7911517
75	0xbccbda60	-0.024884403
76	0x3ef5c159	0.47999075
77	0x3eb67a11	0.35640004
78	0xbf2bee74	-0.67160726
79	0xbeb4aa24	-0.35286057
80	0x3e90f71b	0.28313527
81	0x3eb09e1f	0.34495637
82	0xbebae066	-0.36499327
83	0xbccd3cfa	-0.02505349
84	0xbed71e1f	-0.42015168
85	0xbefbf4b6	-0.49210137
86	0x3f2e2815	0.6802991
87	0xbef60243	-0.480486
88	0xbfcfb5ce	-1.6227357
89	0x40012185	2.0176709
90	0x3ee0256e	0.43778557
91	0x3e7885a0	0.24269724
92	0x3e742c43	0.2384501
93	0x3e98414a	0.29737312
94	0xbf54675f	-0.8297023
95	0x3db057a4	0.08610466
96	0xbf02a758	-0.51036596
97	0xbef0caa9	-0.47029617
98	0x3d8062c1	0.06268836
99	0xbdea8be8	-0.11452466
100	0x3ee17981	0.44038013
101	0x3f410bbe	0.7540854
102	0xbd3ab02d	-0.04557817
103	0xbf1ac902	-0.60462964
104	0x3f45ac79	0.772163
105	0xbead314d	-0.33826676
106	0xbebb6498	-0.36600184
107	0xbd46b02c	-0.048507854
108	0xbeda61e3	-0.42652807
109	0xbecf5617	-0.4049537
110	0x3ef4ebdc	0.47836196
111	0x3e3b6169	0.18298878
112	0xbe6cd18d	-0.23126812
113	0xbe12267d	-0.14272495
114	0x3e630265	0.22168882
115	0x3cf569ea	0.02995773
116	0x3e574bbd	0.21024986
117	0x3f21e44a	0.63238966
118	0xbe034764	-0.12820202
119	0xbea3cda2	-0.31992823
120	0x3e780ad0	0.24222875
121	0xbef1ce9c	-0.47227943
122	0xbf101f41	-0.5629769
123	0xbe846bc0	-0.25863457
124	0xbf020cf3	-0.5080101
125	0xbeae920d	-0.34095803
126	0x3ea1a28e	0.31569332
127	0x3ef3c49a	0.47610933

transformer_encoder.layers.0.linear_net.3.bias f4 [8]
0	0x3e196166	0.14978561
1	0xbed4d6d5	-0.41570154
2	0xbe000ca5	-0.12504824
3	0x3e172c0b	0.14762895
4	0xbe853519	-0.26017073
5	0xbe0e8986	-0.13919649
6	0x3e200158	0.15625513
7	0x3f2e64d2	0.6812259

final_linear.weight f4 [1, 8]
0	0xbf05c29c	-0.52250075
1	0x3d83315a	0.064058974
2	0xbd2e3877	-0.042534318
3	0xbeef39d0	-0.46723795
4	0x3da2c97a	0.07948585
5	0x3e40b202	0.18817905
6	0xbc53a16c	-0.012916904
7	0x3c128372	0.008942472

exp_avg f4 [8, 2]
0	0x362ffa25	2.6222635e-06
1	0x37f04dff	2.864655e-05
2	0x36d5370e	6.354304e-06
3	0xb7b30cf6	-2.1344498e-05
4	0xb906320f	-0.00012797884
5	0xb93e36ba	-0.00018140199
6	0xb80cf35f	-3.3605258e-05
7	0xb78b8a59	-1.6634514e-05
8	0x37749c21	1.4579885e-05
9	0x369ca7bb	4.6686887e-06
10	0x3847de12	4.7652116e-05
11	0x388e02f3	6.771637e-05
12	0xb678b770	-3.7061654e-06
13	0xb574e287	-9.1226724e-07
14	0x3721c543	9.642276e-06
15	0x37bdedc4	2.2641274e-05

exp_avg_sq f4 [8, 2]
0	0x33341ca5	4.1935568e-08
1	0x33bbfbaf	8.753647e-08
2	0x3300c5eb	2.9982328e-08
3	0x332ea684	4.0663977e-08
4	0x3611b0a9	2.1709513e-06
5	0x3684a51c	3.953128e-06
6	0x340276ff	1.2150484e-07
7	0x33af7a9c	8.171375e-08
8	0x33d9af67	1.01367554e-07
9	0x33d345a8	9.8381236e-08
10	0x34c11931	3.596738e-07
11	0x35417f8a	7.2083697e-07
12	0x32dafe52	2.5494192e-08
13	0x33075c4d	3.1516084e-08
14	0x3377e1df	5.7714598e-08
15	0x3413853c	1.3738912e-07

exp_avg f4 [8]
0	0x36727e93	3.6134486e-06
1	0x3782b791	1.5582687e-05
2	0xb9a1c7d0	-0.00030857185
3	0xb869e530	-5.5764976e-05
4	0x378ce628	1.6796475e-05
5	0x38eeb337	0.00011382106
6	0xb779577c	-1.4861926e-05
7	0x37e12f4b	2.6844113e-05

exp_avg_sq f4 [8]
0	0x343e414c	1.7718884e-07
1	0x33dac986	1.0188073e-07
2	0x3748acae	1.1961134e-05
3	0x348a2050	2.5728013e-07
4	0x34995fc7	2.8568158e-07
5	0x360f3cf4	2.134414e-06
6	0x33a546cb	7.6962884e-08
7	0x34d18929	3.902908e-07

exp_avg f4 [8, 8]
0	0x34ca0e4f	3.7635843e-07
1	0x34364ca3	1.6977951e-07
2	0xb21b6381	-9.044812e-09
3	0x356db4a7	8.8552264e-07
4	0xb52f44ff	-6.529298e-07
5	0xb2c8a602	-2.3358556e-08
6	0x333813e7	4.285894e-08
7	0x3408f914	1.2756601e-07
8	0xb44ec9ec	-1.9258704e-07
9	0xb51d0efb	-5.8508857e-07
10	0x3581a982	9.660582e-07
11	0x35a84bc2	1.2539024e-06
12	0xb57e4bde	-9.4732775e-07
13	0xb4d01b6b	-3.8762968e-07
14	0xb4accdec	-3.2187324e-07
15	0x3402cac5	1.218096e-07
16	0xb3c3ad4c	-9.1119176e-08
17	0xb5755487	-9.1392616e-07
18	0x35d466f6	1.5825196e-06
19	0x3630d053	2.6347304e-06
20	0xb605bd7e	-1.9928843e-06
21	0xb52b28b6	-6.3761706e-07
22	0xb5026efc	-4.859028e-07
23	0x34a1c4f6	3.0131895e-07
24	0x3404a648	1.2353951e-07
25	0xb547d965	-7.444963e-07
26	0x35c65b51	1.4778726e-06
27	0x36454047	2.9392702e-06
28	0xb61430d8	-2.208215e-06
29	0xb5257c80	-6.164846e-07
30	0xb4eaa8f6	-4.3708832e-07
31	0x34b75027	3.4144725e-07
32	0x33939bc5	6.873555e-08
33	0xb32a8cf7	-3.9709416e-08
34	0xb3912b60	-6.7599785e-08
35	0x335c1b07	5.1247323e-08
36	0xb377d9f4	-5.7707396e-08
37	0x337daca7	5.906318e-08
38	0x32d92838	2.5280414e-08
39	0x33acc894	8.045859e-08
40	0xb389cd66	-6.4169214e-08
41	0x3325c030	3.859185e-08
42	0xb37edc3f	-5.9339296e-08
43	0xb444d0d8	-1.83299e-07
44	0x340b7a62	1.2989906e-07
45	0x33106e27	3.3627796e-08
46	0x32868e84	1.5664462e-08
47	0xb2c76c33	-2.3215852e-08
48	0x336372ca	5.2956956e-08
49	0xb30940e1	-3.1956805e-08
50	0x32fb1191	2.9228234e-08
51	0x340a1abf	1.2861982e-07
52	0xb3ca8fe7	-9.432534e-08
53	0xb26a296c	-1.3630011e-08
54	0xb1df4f83	-6.4991936e-09
55	0x32e8eb98	2.711549e-08
56	0x3363c98d	5.3035865e-08
57	0xb30a2bfa	-3.2170625e-08
58	0x3393ab7c	6.876414e-08
59	0x343a0bcc	1.7326892e-07
60	0xb40061aa	-1.1956459e-07
61	0xb334d1eb	-4.2100435e-08
62	0xb2a5671c	-1.9255417e-08
63	0x32399df5	1.08043325e-08

exp_avg_sq f4 [8, 8]
0	0x2e751bec	5.573135e-11
1	0x2cc3ce17	5.565114e-12
2	0x2e820923	5.9133386e-11
3	0x2f7c06fd	2.2921749e-10
4	0x2f0de1fd	1.2904162e-10
5	0x2dde1f45	2.5252364e-11
6	0x2dab8e7d	1.9503727e-11
7	0x2c17d800	2.1578295e-12
8	0x2f12ea92	1.3361959e-10
9	0x2cfd5075	7.199625e-12
10	0x2f269247	1.514958e-10
11	0x30415fe9	7.034929e-10
12	0x2fda4ce2	3.9708598e-10
13	0x2e8bc123	6.355296e-11
14	0x2e4acf79	4.6113755e-11
15	0x2c0556dc	1.8948653e-12
16	0x2f2f4baf	1.5943045e-10
17	0x2d0688a5	7.647359e-12
18	0x2f69fa13	2.1280071e-10
19	0x308ffc44	1.0476318e-09
20	0x302284b2	5.912383e-10
21	0x2ebfe4e7	8.7263356e-11
22	0x2e83d7a0	5.995493e-11
23	0x2c4a0d95	2.8713466e-12
24	0x2f5693cf	1.9515699e-10
25	0x2cc8a095	5.70217e-12
26	0x2f1b8864	1.4145624e-10
27	0x306124ba	8.1906715e-10
28	0x3005a18f	4.8614707e-10
29	0x2e80149b	5.8244264e-11
30	0x2e36bb9b	4.1548636e-11
31	0x2c7223cf	3.4410146e-12
32	0x2d669729	1.3107551e-11
33	0x2aeb9549	4.1847973e-13
34	0x2cccb691	5.8182977e-12
35	0x2dfc8226	2.870688e-11
36	0x2dad24f9	1.9684242e-11
37	0x2c2a6383	2.4213693e-12
38	0x2befe3f1	1.7045238e-12
39	0x2a3edc40	1.6951805e-13
40	0x2ce829b2	6.5984657e-12
41	0x2a55410d	1.894077e-13
42	0x2c17bd5d	2.1563508e-12
43	0x2d71159e	1.3704064e-11
44	0x2d299e72	9.64172e-12
45	0x2b7d64af	9.002338e-13
46	0x2b4bf16b	7.245512e-13
47	0x2a212bb5	1.4314836e-13
48	0x2cfd11ee	7.192683e-12
49	0x2a6709df	2.0520346e-13
50	0x2c395c3a	2.6341277e-12
51	0x2d87b3e5	1.5427612e-11
52	0x2d3c140b	1.0691013e-11
53	0x2b9aa2dc	1.0987561e-12
54	0x2b6e32c6	8.462505e-13
55	0x29f0dbbd	1.06962596e-13
56	0x2c8aee96	3.9486843e-12
57	0x2a054912	1.1838124e-13
58	0x2ba54fe4	1.1746129e-12
59	0x2d0e44ba	8.087026e-12
60	0x2cc8b0fc	5.703991e-12
61	0x2b0b58af	4.9505793e-13
62	0x2ae7b6e0	4.1160738e-13
63	0x2a024c9b	1.1572897e-13

exp_avg f4 [8, 8]
0	0xb56d1e0e	-8.8333115e-07
1	0x354a94b1	7.546724e-07
2	0xb5a20d02	-1.2073726e-06
3	0xb60d3621	-2.1042144e-06
4	0x359735a0	1.1265984e-06
5	0x3570f4f0	8.97634e-07
6	0x3401eb95	1.2099765e-07
7	0x348ecad7	2.6597147e-07
8	0x34a0ed12	2.9974814e-07
9	0xb483fe9b	-2.45859e-07
10	0x34ced542	3.8525656e-07
11	0x35362f02	6.786869e-07
12	0xb4be4c35	-3.5445706e-07
13	0xb4a00e95	-2.9812932e-07
14	0xb2ee28de	-2.772543e-08
15	0xb3e3de30	-1.0610927e-07
16	0x340cdc90	1.3118756e-07
17	0xb3da35b9	-1.0161188e-07
18	0x341e17de	1.472358e-07
19	0x348f7e42	2.672769e-07
20	0xb40e1f4f	-1.323617e-07
21	0xb404bc54	-1.2361971e-07
22	0xaf33c6b0	-1.6350543e-10
23	0xb377f154	-5.7728656e-08
24	0x327d0a3e	1.4728867e-08
25	0x3279a894	1.4532038e-08
26	0x330cab1b	3.275191e-08
27	0x332b6fcf	3.991573e-08
28	0xb200ca03	-7.496513e-09
29	0xb32e296c	-4.0550205e-08
30	0xaf43dbb8	-1.7813206e-10
31	0xb3552481	-4.9626127e-08
32	0x331c98d1	3.6460566e-08
33	0xb2abeffc	-2.0016152e-08
34	0x33a845ea	7.835827e-08
35	0x33fe9f6c	1.18567954e-07
36	0xb3858908	-6.218221e-08
37	0xb37b0e17	-5.8453306e-08
38	0xb28f4633	-1.6679314e-08
39	0xb2d88166	-2.5204553e-08
40	0xb2c73a8a	-2.319327e-08
41	0x2ff6d2b0	4.4896842e-10
42	0xb4025371	-1.2137549e-07
43	0xb42d891c	-1.616176e-07
44	0x33bc928f	8.781091e-08
45	0x33b822f7	8.574528e-08
46	0x332457a2	3.8263927e-08
47	0x332bf838	4.0039794e-08
48	0x32fab28c	2.9185024e-08
49	0xb208019c	-7.916608e-09
50	0x33ec22ad	1.0995914e-07
51	0x342307d1	1.5183402e-07
52	0xb3af5308	-8.164176e-08
53	0xb3a95a35	-7.886084e-08
54	0xb307bc67	-3.1603488e-08
55	0xb31ac41a	-3.6034272e-08
56	0x32796ba7	1.4518185e-08
57	0x31bd33d9	5.5065184e-09
58	0x33eb5b77	1.09596776e-07
59	0x34181e8c	1.4167216e-07
60	0xb3a6bca6	-7.764292e-08
61	0xb3a449e3	-7.650285e-08
62	0xb31eb72b	-3.6953832e-08
63	0xb31c27ab	-3.6357658e-08

exp_avg_sq f4 [8, 8]
0	0x2e236701	3.7153395e-11
1	0x2cde2582	6.3137837e-12
2	0x2ff3ce21	4.4347906e-10
3	0x304eadb6	7.518922e-10
4	0x2f849763	2.4118227e-10
5	0x2f8156f7	2.3526756e-10
6	0x2e41d77f	4.407452e-11
7	0x2e4b8718	4.6276843e-11
8	0x2c83a89d	3.7419638e-12
9	0x2bcaa1bd	1.4397855e-12
10	0x2d9e7a8b	1.801694e-11
11	0x2e0df193	3.227425e-11
12	0x2d384f68	1.0476821e-11
13	0x2d2c4055	9.791353e-12
14	0x2bd95cbc	1.5444516e-12
15	0x2bff9e78	1.8162824e-12
16	0x2b6f3d91	8.49953e-13
17	0x2b4805fb	7.1062573e-13
18	0x2c5dfac5	3.1545194e-12
19	0x2c87fc67	3.864953e-12
20	0x2be3fec1	1.6200029e-12
21	0x2bcb9a34	1.4466818e-12
22	0x2b21faf9	5.7546985e-13
23	0x2ab7b576	3.2633244e-13
24	0x2b709fff	8.548717e-13
25	0x2ab2fb8a	3.1793692e-13
26	0x2e124f99	3.3267254e-11
27	0x2e5cdb09	5.021675e-11
28	0x2d9385e4	1.6771425e-11
29	0x2d93bf8c	1.6797029e-11
30	0x2c98552f	4.329557e-12
31	0x2c7b3229	3.569709e-12
32	0x29a9bd89	7.537987e-14
33	0x28f874a3	2.7584114e-14
34	0x2b32c956	6.3517713e-13
35	0x2b70f741	8.560826e-13
36	0x2ac4b208	3.4940128e-13
37	0x2ab00453	3.126688e-13
38	0x299a432f	6.850628e-14
39	0x298332d6	5.826387e-14
40	0x290bbab7	3.102615e-14
41	0x291df606	3.5074394e-14
42	0x2c319063	2.5233364e-12
43	0x2c49387b	2.859517e-12
44	0x2ba76dc8	1.1896534e-12
45	0x2ba11dcd	1.1448009e-12
46	0x2acd8c19	3.6512527e-13
47	0x2a8ffb65	2.5576343e-13
48	0x2901c3e0	2.881365e-14
49	0x290d9323	3.143591e-14
50	0x2b608bd7	7.9774853e-13
51	0x2b4f45d1	7.3638063e-13
52	0x2ad513d5	3.7850162e-13
53	0x2aba7877	3.3123826e-13
54	0x2a0cbaa8	1.2499257e-13
55	0x29ac2600	7.6449264e-14
56	0x2916c5d9	3.3478296e-14
57	0x28ef0310	2.6535658e-14
58	0x2c60934c	3.191408e-12
59	0x2c8c50ae	3.9879966e-12
60	0x2bd3a3a1	1.5037868e-12
61	0x2bd50921	1.5137094e-12
62	0x2afa6cf8	4.4484533e-13
63	0x2abacc17	3.3181853e-13

exp_avg f4 [8, 8]
0	0xb7dc15dd	-2.6236225e-05
1	0x37cc5aa6	2.4360907e-05
2	0xb74e09dc	-1.2280852e-05
3	0xb89c8702	-7.463807e-05
4	0x386d8e57	5.6637768e-05
5	0x36808b0c	3.8308845e-06
6	0xb640a66d	-2.8707102e-06
7	0xb795742f	-1.7816286e-05
8	0x374d348a	1.2231185e-05
9	0xb73e1324	-1.1329339e-05
10	0x36b0f5b6	5.2738133e-06
11	0x380dfebf	3.385427e-05
12	0xb7d998b6	-2.5939527e-05
13	0xb5e823a7	-1.7295723e-06
14	0x35acbe2d	1.2870347e-06
15	0x3708fd77	8.165246e-06
16	0x3682acc8	3.8944163e-06
17	0xb63e1cf1	-2.8329052e-06
18	0x3619b7c8	2.2905751e-06
19	0x373cc3e7	1.1251285e-05
20	0xb70bd78e	-8.335233e-06
21	0xb56be137	-8.787205e-07
22	0xb35aa8ca	-5.0910593e-08
23	0x362532dd	2.4616522e-06
24	0xb5bc3fe5	-1.4025687e-06
25	0x35f7d877	1.8465934e-06
26	0xb5493da2	-7.496802e-07
27	0xb680c70b	-3.837869e-06
28	0x363d9bee	2.8253958e-06
29	0x348776b2	2.5232072e-07
30	0xb4feafed	-4.743919e-07
31	0xb56091a2	-8.3658426e-07
32	0xb6f776c0	-7.374998e-06
33	0x36f4933d	7.2889075e-06
34	0xb602cc43	-1.9490406e-06
35	0xb78a1ad5	-1.6463377e-05
36	0x3750fc29	1.2456477e-05
37	0x35568bcf	7.992466e-07
38	0xb5d1093b	-1.55744e-06
39	0xb685976a	-3.981336e-06
40	0xb4ce5bd6	-3.843731e-07
41	0x34f356ad	4.5325342e-07
42	0x35931701	1.0959048e-06
43	0x35d4830e	1.5833373e-06
44	0xb5930a6b	-1.0955386e-06
45	0xb50279c3	-4.860596e-07
46	0xb516f0ae	-5.622959e-07
47	0xb3334f81	-4.1748994e-08
48	0x36a6ecc3	4.974748e-06
49	0xb6a14afb	-4.806903e-06
50	0x36a708d4	4.9780156e-06
51	0x3790b8fe	1.7252281e-05
52	0xb752f3c1	-1.2573729e-05
53	0xb6318f1a	-2.6458351e-06
54	0xb4c86156	-3.7323724e-07
55	0x361e0eb8	2.3552402e-06
56	0x3597d0a3	1.1311098e-06
57	0xb57d7d5c	-9.4432266e-07
58	0xb56fd362	-8.934204e-07
59	0x35629522	8.440858e-07
60	0xb54b6cd4	-7.578176e-07
61	0x352e7e81	6.500414e-07
62	0x35443af8	7.31015e-07
63	0x35662b8d	8.574505e-07

exp_avg_sq f4 [8, 8]
0	0x34880995	2.5338946e-07
1	0x3221d1e2	9.419155e-09
2	0x31f0e879	7.0113484e-09
3	0x34983141	2.8348043e-07
4	0x3483948d	2.4508736e-07
5	0x3135947d	2.6423372e-09
6	0x31ddd375	6.4559864e-09
7	0x32d75e80	2.5072268e-08
8	0x33b5e4b0	8.470067e-08
9	0x31774612	3.598306e-09
10	0x310e0617	2.0667181e-09
11	0x33b4d99a	8.421485e-08
12	0x33a4e398	7.678244e-08
13	0x30817dc6	9.421732e-10
14	0x30f37808	1.7714692e-09
15	0x32254478	9.619832e-09
16	0x330e488c	3.3127932e-08
17	0x309caf86	1.1400381e-09
18	0x307c6fe0	9.183605e-10
19	0x32d193bc	2.4397984e-08
20	0x32cfa3ce	2.4172461e-08
21	0x2ffa2e1e	4.5507503e-10
22	0x30387603	6.7106515e-10
23	0x312e0c7c	2.532743e-09
24	0x3303d653	3.069574e-08
25	0x30b768c7	1.3344782e-09
26	0x313f56fd	2.7843605e-09
27	0x32b44b68	2.0989049e-08
28	0x32d98add	2.5325273e-08
29	0x3061ad8b	8.210114e-10
30	0x30f3704e	1.7712496e-09
31	0x31301358	2.5622366e-09
32	0x33448fa5	4.576545e-08
33	0x30ffe103	1.8617644e-09
34	0x311d412c	2.2883553e-09
35	0x332a9b3f	3.9722405e-08
36	0x333b0022	4.353945e-08
37	0x308623c7	9.759952e-10
38	0x31189f1a	2.220935e-09
39	0x31965ef3	4.376369e-09
40	0x30aa4825	1.2389633e-09
41	0x2f476e96	1.8138233e-10
42	0x3097514e	1.1009804e-09
43	0x310b1bc3	2.0242943e-09
44	0x311914ec	2.2276323e-09
45	0x2f5fdac9	2.035946e-10
46	0x2fce21a1	3.7495076e-10
47	0x2ff553b1	4.4624707e-10
48	0x3395f722	6.9833064e-08
49	0x3145334d	2.8696434e-09
50	0x31521e6c	3.0576315e-09
51	0x3362b0c3	5.278049e-08
52	0x33727c7a	5.6458227e-08
53	0x30aecba3	1.2718043e-09
54	0x3101c6cc	1.8884974e-09
55	0x31d1235e	6.0867213e-09
56	0x2f805a4d	2.3347227e-10
57	0x2ef59669	1.1168028e-10
58	0x303b48ed	6.813384e-10
59	0x2f5e3ac4	2.021166e-10
60	0x2f67e296	2.1089827e-10
61	0x2ebcaa48	8.579498e-11
62	0x2efcdb09	1.1498542e-10
63	0x2fb4a59e	3.2859487e-10

exp_avg f4 [8, 8]
0	0x38070edc	3.2200347e-05
1	0xb7504f7d	-1.2416273e-05
2	0xb67a4704	-3.729424e-06
3	0x3760206e	1.3358991e-05
4	0x35fba140	1.8747887e-06
5	0xb6237c32	-2.4361184e-06
6	0x3636d3d1	2.7243407e-06
7	0xb65bcb44	-3.275186e-06
8	0x37901058	1.7173748e-05
9	0xb70a4b4b	-8.2429715e-06
10	0xb61f4d43	-2.3737819e-06
11	0xb62b2edc	-2.5508261e-06
12	0x368b90c3	4.1593753e-06
13	0x355e42ee	8.279884e-07
14	0xb6e57091	-6.8378363e-06
15	0x35affa80	1.3111421e-06
16	0x371093ec	8.61751e-06
17	0xb66a3b8c	-3.4903378e-06
18	0xb59791db	-1.1292826e-06
19	0x35d027d0	1.5508795e-06
20	0x359f4346	1.1866002e-06
21	0xb49f48de	-2.9669076e-07
22	0xb57ea267	-9.48587e-07
23	0xb4a6b530	-3.105174e-07
24	0x37f412ad	2.9095763e-05
25	0xb747bc00	-1.19050965e-05
26	0xb65e7798	-3.315019e-06
27	0x374e5237	1.2297699e-05
28	0x360d203d	2.1029402e-06
29	0xb60e4a22	-2.12028e-06
30	0x363b9939	2.7954359e-06
31	0xb6472636	-2.9675552e-06
32	0x35f31f67	1.811405e-06
33	0xb5c48167	-1.4640799e-06
34	0xb4a8f973	-3.1473937e-07
35	0xb62dff2a	-2.5927534e-06
36	0x3596ec42	1.1244631e-06
37	0x35331bcd	6.672315e-07
38	0xb634585a	-2.6873518e-06
39	0x35844668	9.855257e-07
40	0xb7a6ed97	-1.9899378e-05
41	0x3704c500	7.913681e-06
42	0x3627dd38	2.5013705e-06
43	0xb6abf527	-5.1247366e-06
44	0xb643c2fe	-2.9170765e-06
45	0x357c6bdb	9.4034266e-07
46	0x35983542	1.1340383e-06
47	0x35be79c8	1.4191546e-06
48	0xb6777bf9	-3.687803e-06
49	0x35d5ff13	1.5943973e-06
50	0x350bfb8b	5.214758e-07
51	0xb4047317	-1.2335327e-07
52	0xb4f83c5d	-4.623752e-07
53	0xb2ea45f3	-2.7272995e-08
54	0x3552d17b	7.853593e-07
55	0xb3a0d18b	-7.488696e-08
56	0xb6eee716	-7.1198547e-06
57	0x366e2206	3.5484568e-06
58	0x35769a3b	9.1866576e-07
59	0x33a04bce	7.4643694e-08
60	0xb5bf9130	-1.4272864e-06
61	0xb4459326	-1.8400587e-07
62	0x3603b047	1.9623128e-06
63	0xb4dc7cd1	-4.106901e-07

exp_avg_sq f4 [8, 8]
0	0x3288adb3	1.5911473e-08
1	0x32bee316	2.2222178e-08
2	0x320dfc95	8.264711e-09
3	0x3138675d	2.683428e-09
4	0x32809bba	1.4971977e-08
5	0x319814f6	4.426165e-09
6	0x3233ce5f	1.0466095e-08
7	0x31e1cf3d	6.571922e-09
8	0x3309c5d0	3.2077708e-08
9	0x320b6fb3	8.116262e-09
10	0x310e8eec	2.0744961e-09
11	0x30484621	7.2859235e-10
12	0x30d3ce48	1.5410899e-09
13	0x3011e2b6	5.307287e-10
14	0x31a85dcf	4.9001083e-09
15	0x30ccc293	1.4898255e-09
16	0x317e4887	3.7003092e-09
17	0x314a791f	2.9463718e-09
18	0x30a8c35f	1.2279137e-09
19	0x2f959ac8	2.721292e-10
20	0x305553a0	7.7607787e-10
21	0x3043624c	7.1080275e-10
22	0x307e9fe1	9.2631863e-10
23	0x3051aa68	7.627592e-10
24	0x321de35d	9.190299e-09
25	0x32352690	1.0544355e-08
26	0x316c09ea	3.4348155e-09
27	0x30c3ada4	1.4237469e-09
28	0x31d7ef86	6.284554e-09
29	0x310219a8	1.8932074e-09
30	0x316cc8df	3.4456702e-09
31	0x3121402b	2.3465059e-09
32	0x31ba7441	5.426529e-09
33	0x314a231a	2.9414822e-09
34	0x3099011c	1.113253e-09
35	0x3010c867	5.2671684e-10
36	0x311919a5	2.2279008e-09
37	0x303f7a7a	6.9659445e-10
38	0x311160bd	2.1155266e-09
39	0x310dea99	2.0651554e-09
40	0x3266d436	1.3436013e-08
41	0x3216c09d	8.774944e-09
42	0x312ec06f	2.5429718e-09
43	0x3043c8f5	7.1226164e-10
44	0x3187f8c1	3.957297e-09
45	0x307fd4d8	9.307093e-10
46	0x3172fca3	3.5359242e-09
47	0x3114c827	2.1650608e-09
48	0x30dca484	1.6053865e-09
49	0x305e5f0a	8.089819e-10
50	0x2fbbf91c	3.4192105e-10
51	0x2f72632d	2.2045006e-10
52	0x2fedf08d	4.328097e-10
53	0x2f660d45	2.0923092e-10
54	0x2ffe3b94	4.6244664e-10
55	0x301686e6	5.4761384e-10
56	0x321794b9	8.823172e-09
57	0x31626204	3.2943044e-09
58	0x307641df	8.9587887e-10
59	0x307a48dc	9.105301e-10
60	0x310b50d5	2.027311e-09
61	0x3038114e	6.69634e-10
62	0x312397aa	2.3805833e-09
63	0x3101c67f	1.8884803e-09

exp_avg f4 [8]
0	0x38b3da7d	8.576082e-05
1	0xb82573eb	-3.9447023e-05
2	0x370f5985	8.544307e-06
3	0x38c35060	9.3132956e-05
4	0xb7db8427	-2.6168373e-05
5	0xb81f4605	-3.7973765e-05
6	0x3662ff96	3.3825395e-06
7	0x36e3a10c	6.7838755e-06

exp_avg_sq f4 [8]
0	0x35d8b99d	1.6147275e-06
1	0x33ce0667	9.593787e-08
2	0x340ec685	1.3297002e-07
3	0x359112a2	1.0808765e-06
4	0x34368b12	1.7000664e-07
5	0x34b8c9d1	3.4419512e-07
6	0x320b2f19	8.101574e-09
7	0x32265479	9.681679e-09

exp_avg f4 [16, 8]
0	0x8ae868c7	-2.23802e-32
1	0x88bea3fe	-1.1473763e-33
2	0x8ad42ea8	-2.0432408e-32
3	0x8aeaf018	-2.2623694e-32
4	0x09eddecf	5.7265203e-33
5	0x8a814385	-1.2447646e-32
6	0x0a34c5d8	8.703895e-33
7	0x8a7c9d1b	-1.2162907e-32
8	0xad6abe86	-1.3343665e-11
9	0xac29b832	-2.4118593e-12
10	0x2b39f42f	6.6064076e-13
11	0xac897e2c	-3.907782e-12
12	0xac0f1e1d	-2.0338238e-12
13	0x2cb6685f	5.1843386e-12
14	0x2afc24fa	4.478985e-13
15	0x2c54d7e3	3.0246853e-12
16	0xb7e0b676	-2.6787846e-05
17	0x3600a12c	1.91673e-06
18	0xb45c47de	-2.0515242e-07
19	0xb74461fd	-1.1705325e-05
20	0xb59765de	-1.1280024e-06
21	0x37164ef0	8.959076e-06
22	0xb5d29319	-1.568903e-06
23	0x34f0c499	4.4846527e-07
24	0xadd07dea	-2.370278e-11
25	0x2ac72cfc	3.5380715e-13
26	0x2cd11afc	5.943133e-12
27	0xaca2200a	-4.607874e-12
28	0xacf3fd37	-6.934588e-12
29	0x2c727473	3.445491e-12
30	0x2becd27d	1.6827231e-12
31	0xabcf05c9	-1.470984e-12
32	0xacd55bd1	-6.0640178e-12
33	0xac9c8fc9	-4.44975e-12
34	0xacb8dda5	-5.254202e-12
35	0xacd70ad8	-6.1118714e-12
36	0xabbe1509	-1.350615e-12
37	0x2caae483	4.8570605e-12
38	0x2cb14b47	5.039e-12
39	0x2c888a0e	3.8806796e-12
40	0xaffb05c2	-4.5660725e-10
41	0xb01be256	-5.6710314e-10
42	0xb02a0510	-6.1852834e-10
43	0xb0200601	-5.8216193e-10
44	0x2f76eb9e	2.2457278e-10
45	0x3045676e	7.1815165e-10
46	0x2fe3c9b4	4.1434378e-10
47	0xaca32816	-4.637189e-12
48	0x2ce69991	6.5540425e-12
49	0x2d08fe41	7.787161e-12
50	0x2cc37d3d	5.5561376e-12
51	0x2cb25ed3	5.069592e-12
52	0xac7ee7c4	-3.6224227e-12
53	0xad324138	-1.013261e-11
54	0x2b65fba5	8.170637e-13
55	0xad30381a	-1.0016899e-11
56	0xac1d4555	-2.2349529e-12
57	0xac36134d	-2.587447e-12
58	0xac9994c9	-4.36504e-12
59	0xac834372	-3.730732e-12
60	0xab3ec5c6	-6.7776026e-13
61	0x2c48d7cc	2.85415e-12
62	0x2cabddfb	4.884757e-12
63	0x2b8a3b54	9.821957e-13
64	0xad6319eb	-1.2909211e-11
65	0xad1ddb9b	-8.973179e-12
66	0xad312fdc	-1.0071912e-11
67	0xad615b3f	-1.281003e-11
68	0xac5c9c56	-3.1350664e-12
69	0x2d366aa4	1.0369181e-11
70	0x2d3e4ef5	1.0817782e-11
71	0x2d157b0f	8.496994e-12
72	0x33e448f3	1.0630347e-07
73	0x35bd61ee	1.4110099e-06
74	0x34945471	2.7628587e-07
75	0xb4c8026f	-3.7254674e-07
76	0x350fcc4a	5.356893e-07
77	0xb5448169	-7.3204006e-07
78	0xb4c09112	-3.586834e-07
79	0xb528f044	-6.293451e-07
80	0x8606a51d	-2.5323905e-35
81	0x8466c4a5	-2.7126665e-36
82	0x8624c7b6	-3.0991696e-35
83	0x85e444c1	-2.1466273e-35
84	0x0591efc5	1.3723812e-35
85	0x856f2a43	-1.1245488e-35
86	0x0506be0c	6.335556e-36
87	0x861c2928	-2.9370576e-35
88	0xac1da301	-2.2401527e-12
89	0xab3c1777	-6.682358e-13
90	0x2a83c3e3	2.3406198e-13
91	0xab2d32f4	-6.153266e-13
92	0xaaf03b28	-4.2673612e-13
93	0x2b871871	9.599111e-13
94	0xa98f72c6	-6.370386e-14
95	0x2b5b5558	7.792287e-13
96	0xb087c8eb	-9.879647e-10
97	0xad928aec	-1.6659972e-11
98	0xaf9197e4	-2.648327e-10
99	0xb007a050	-4.934053e-10
100	0xaf3bc64c	-1.7078e-10
101	0x2fa4c495	2.9971106e-10
102	0x2f592f1d	1.9752773e-10
103	0x2f327de8	1.6233737e-10
104	0xab353288	-6.4374244e-13
105	0xaa4bd3de	-1.8103528e-13
106	0x29deed26	9.899919e-14
107	0xaa2b2ef4	-1.5204141e-13
108	0xaa213669	-1.431855e-13
109	0x2a8c9cf0	2.4977893e-13
110	0xa937e0d0	-4.0829156e-14
111	0x2a72e97e	2.1574927e-13
112	0xae00f13d	-2.9318093e-11
113	0x2ee58621	1.04375404e-10
114	0xae9a4105	-7.014659e-11
115	0xaeb122a1	-8.0551794e-11
116	0x2c07ac48	1.928029e-12
117	0xada27df0	-1.8473195e-11
118	0x2ee93f7a	1.0606889e-10
119	0xaf046c72	-1.2043858e-10
120	0x243c6dea	4.0859103e-17
121	0x22744e71	3.3109693e-18
122	0x24837d6c	5.702467e-17
123	0x2407426b	2.9329717e-17
124	0xa17ba47e	-8.525981e-19
125	0xa32069a0	-8.695984e-18
126	0xa4279375	-3.6337254e-17
127	0xa4440397	-4.2503766e-17

exp_avg_sq f4 [16, 8]
0	0x2eabd448	7.8138884e-11
1	0x2a688ed5	2.0655294e-13
2	0x2e8f2fd0	6.51138e-11
3	0x2eafc4b7	7.993022e-11
4	0x2cb397d8	5.104344e-12
5	0x2dd4ae77	2.4179088e-11
6	0x2d504a9b	1.1839997e-11
7	0x2dca4a98	2.2997867e-11
8	0x2f9b1ecb	2.8216215e-10
9	0x2d84a189	1.5078399e-11
10	0x2e8a2753	6.282499e-11
11	0x2f36e76d	1.6635023e-10
12	0x2e573b53	4.893803e-11
13	0x2eb72e5a	8.33011e-11
14	0x2e9a7eee	7.0256564e-11
15	0x2f20e45a	1.4633042e-10
16	0x3373c412	5.675617e-08
17	0x3081ac70	9.434995e-10
18	0x31394d2a	2.6964906e-09
19	0x3243d5ce	1.1399107e-08
20	0x3072f0b5	8.838115e-10
21	0x3253309a	1.2292867e-08
22	0x307f59fb	9.289633e-10
23	0x3100d8b3	1.874963e-09
24	0x309b1cc6	1.1285912e-09
25	0x30211dc2	5.8613747e-10
26	0x303cd0a1	6.869048e-10
27	0x308ad567	1.0101474e-09
28	0x302d03bb	6.2942335e-10
29	0x3057d3cd	7.851753e-10
30	0x308c8e06	1.0226706e-09
31	0x2fdf5426	4.0623255e-10
32	0x2f42cd95	1.7717235e-10
33	0x30201062	5.823094e-10
34	0x3077d9e7	9.0167734e-10
35	0x2f75203d	2.2294074e-10
36	0x30702aef	8.7372504e-10
37	0x2f4d0a58	1.8648316e-10
38	0x2ede50f0	1.01097686e-10
39	0x2f451985	1.7926112e-10
40	0x2b068e77	4.7804073e-13
41	0x2bc8079f	1.421297e-12
42	0x2b83e9aa	9.372965e-13
43	0x2b69def2	8.308763e-13
44	0x2c48ffbb	2.8563668e-12
45	0x2b5c0652	7.816847e-13
46	0x2b110468	5.1520463e-13
47	0x2b95c2b9	1.0641133e-12
48	0x31c4c04b	5.726212e-09
49	0x316f7ca7	3.4849934e-09
50	0x310e8e52	2.074462e-09
51	0x30dc209b	1.6016374e-09
52	0x318af0f6	4.0437227e-09
53	0x2fba5652	3.3894537e-10
54	0x312d3b24	2.520843e-09
55	0x3076b43f	8.9750424e-10
56	0x2b6a962b	8.33419e-13
57	0x2a85d940	2.3776293e-13
58	0x2ae34b10	4.0375385e-13
59	0x2ad0d143	3.7093427e-13
60	0x2a285a55	1.4952738e-13
61	0x2ac0b17e	3.422921e-13
62	0x2ac268e7	3.4534113e-13
63	0x2a5c7754	1.9581325e-13
64	0x2f40cb81	1.7534597e-10
65	0x2c115dce	2.0657811e-12
66	0x2e61333b	5.120458e-11
67	0x2d723627	1.3768132e-11
68	0x2e4b50bd	4.6228566e-11
69	0x2d7aca2a	1.4255744e-11
70	0x2e4783fa	4.536458e-11
71	0x2f1d92db	1.433124e-10
72	0x3181fc16	3.783053e-09
73	0x2f228b12	1.4783222e-10
74	0x2fdeb802	4.051231e-10
75	0x30b388f3	1.3062887e-09
76	0x2eaf9979	7.985341e-11
77	0x308cfd68	1.0258363e-09
78	0x2f73e467	2.2181866e-10
79	0x2fae0ced	3.16596e-10
80	0x251a8bfe	1.3404802e-16
81	0x2280b812	3.488936e-18
82	0x256846e0	2.0146806e-16
83	0x2563edf9	1.976974e-16
84	0x23c4bea6	2.1331105e-17
85	0x2403dfd2	2.859568e-17
86	0x244e26ea	4.470209e-17
87	0x24dc511b	9.554719e-17
88	0x30b68e65	1.3282714e-09
89	0x2d55a292	1.2143746e-11
90	0x3067d5ba	8.4341034e-10
91	0x308a25a0	1.0051515e-09
92	0x300a437c	5.030001e-10
93	0x2fcba8a3	3.7045308e-10
94	0x2f9cdf28	2.8534797e-10
95	0x30922da1	1.0635867e-09
96	0x2f338b1f	1.6329381e-10
97	0x2c54c791	3.0237794e-12
98	0x2db63b5b	2.0717364e-11
99	0x2ea29d3c	7.3948375e-11
100	0x2d5103fd	1.188116e-11
101	0x2da7b1e9	1.906471e-11
102	0x2dda8097	2.4840836e-11
103	0x2e37cb44	4.178992e-11
104	0x30007726	4.673545e-10
105	0x2d0d3475	8.02657e-12
106	0x2fc7b7e7	3.632856e-10
107	0x2febf723	4.2921852e-10
108	0x2eab66cc	7.79444e-11
109	0x2f0cf83d	1.2821118e-10
110	0x2e97ab8a	6.8971565e-11
111	0x2f5bc534	1.9987995e-10
112	0x2fd2bef6	3.8334463e-10
113	0x2fbf7ecb	3.483279e-10
114	0x2dc145c4	2.1972542e-11
115	0x2e6a8339	5.332199e-11
116	0x2f6b56eb	2.1404005e-10
117	0x2f892841	2.4948757e-10
118	0x2f24f956	1.5004295e-10
119	0x305bcafe	7.9960205e-10
120	0x2d850644	1.5123132e-11
121	0x2c8110b6	3.668256e-12
122	0x2dd82d06	2.4576351e-11
123	0x2e5987aa	4.946058e-11
124	0x2cbf7eb0	5.4426116e-12
125	0x2e2cd1f0	3.9294734e-11
126	0x2e2795f3	3.8104585e-11
127	0x2d45296b	1.120735e-11

exp_avg f4 [16]
0	0x0a99ae04	1.4798821e-32
1	0x2ce563ba	6.5196433e-12
2	0x372e0cac	1.0374159e-05
3	0x2dbe8443	2.1659235e-11
4	0x2c967ae9	4.276902e-12
5	0x308130c5	9.399846e-10
6	0x2d298513	9.636086e-12
7	0x2ca4f34c	4.6881717e-12
8	0x2d1d64cd	8.946799e-12
9	0x35b51592	1.3491829e-06
10	0x062d7412	3.262296e-35
11	0x2b49a723	7.1641494e-13
12	0x30121327	5.314171e-10
13	0x2a70d690	2.1390723e-13
14	0x2f836d86	2.3906582e-10
15	0x2454bcde	4.613015e-17

exp_avg_sq f4 [16]
0	0x2e15c69b	3.4055075e-11
1	0x2f5cc82f	2.0080003e-10
2	0x32899d6e	1.602049e-08
3	0x314ab0aa	2.949529e-09
4	0x30734fe9	8.8516444e-10
5	0x2c266b37	2.3649535e-12
6	0x31c6bdca	5.784135e-09
7	0x2b97bfac	1.0782395e-12
8	0x2f37f6a7	1.6731382e-10
9	0x3084b832	9.656616e-10
10	0x250ab35c	1.2030361e-16
11	0x30662079	8.371966e-10
12	0x2eaa9880	7.7577944e-11
13	0x2f696f58	2.1230784e-10
14	0x2fee8bd6	4.3391307e-10
15	0x2e914ee5	6.607851e-11

exp_avg f4 [8, 16]
0	0x8b0c436f	-2.701375e-32
1	0xac839b67	-3.740497e-12
2	0xb4998897	-2.8597853e-07
3	0xacc200f3	-5.513917e-12
4	0x2c992aaf	4.3532604e-12
5	0x2f187de3	1.3869043e-10
6	0x2b78da46	8.8410214e-13
7	0x2aba86c7	3.3133758e-13
8	0xa982b208	-5.804043e-14
9	0x35a89093	1.2559052e-06
10	0x06e80a47	8.72838e-35
11	0x2b5e45d8	7.896717e-13
12	0xaf891219	-2.4933014e-10
13	0x2825b653	9.198875e-15
14	0xaec05551	-8.7463044e-11
15	0xa418bb13	-3.3118204e-17
16	0x8a0ab12e	-6.677782e-33
17	0x2b20adf8	5.708485e-13
18	0xb56f6c33	-8.919189e-07
19	0x2b59e13b	7.7406457e-13
20	0xaadaea37	-3.8887098e-13
21	0xad7aa994	-1.4248509e-11
22	0xa9f46334	-1.0852986e-13
23	0xa8e5938c	-2.5488096e-14
24	0x283c5729	1.0454996e-14
25	0xb4159c88	-1.3933652e-07
26	0x87d4eaf5	-3.203631e-34
27	0xaa1dafab	-1.4005348e-13
28	0x2ddb6f74	2.4946913e-11
29	0xa6f6652c	-1.7097102e-15
30	0x2d4d1b0b	1.1658906e-11
31	0x22c03c39	5.2105467e-18
32	0x8a9e8d1a	-1.5267923e-32
33	0xab2ccf12	-6.1394043e-13
34	0x35c6b40a	1.4804548e-06
35	0xab7d471f	-8.9982356e-13
36	0x2afc1daf	4.478479e-13
37	0x2d9239de	1.6623977e-11
38	0x2a11a98c	1.293741e-13
39	0x29163475	3.335219e-14
40	0xa899d7fa	-1.7080077e-14
41	0x340593dd	1.2440383e-07
42	0x876a6dde	-1.763649e-34
43	0x2a4a9046	1.7991259e-13
44	0xaddd0c6f	-2.5130313e-11
45	0x271cbede	2.1752818e-15
46	0xad7536e3	-1.3938825e-11
47	0xa311f406	-7.91214e-18
48	0x8ac14cc3	-1.8614099e-32
49	0xac68e43f	-3.3095885e-12
50	0x36a66ca5	4.9598334e-06
51	0xacaa568f	-4.8413005e-12
52	0x2c86c060	3.829867e-12
53	0x2f0ba46f	1.2700395e-10
54	0x2b536610	7.51039e-13
55	0x2a9c0549	2.7714834e-13
56	0xa96bf289	-5.2390848e-14
57	0x3599b418	1.1451802e-06
58	0x8768610d	-1.7482261e-34
59	0x2b50c6c2	7.4172276e-13
60	0xaf6f8f5d	-2.1787856e-10
61	0x281b16c4	8.609165e-15
62	0xaea06dd9	-7.2954705e-11
63	0xa408b40d	-2.9642808e-17
64	0x8a60d3a8	-1.0825016e-32
65	0x2b88eb88	9.728754e-13
66	0xb591bba8	-1.0857957e-06
67	0x2bc48286	1.3962865e-12
68	0xab96dc32	-1.0719258e-12
69	0xadf433c0	-2.776257e-11
70	0xaa718396	-2.1450753e-13
71	0xa9c0390c	-8.536409e-14
72	0x28a9513f	1.8798004e-14
73	0xb45efc56	-2.076716e-07
74	0x882c60de	-5.1873234e-34
75	0xaa821d4f	-2.3112976e-13
76	0x2e816cea	5.885588e-11
77	0xa746333a	-2.750579e-15
78	0x2db4754d	2.0515723e-11
79	0x23390c5e	1.0031489e-17
80	0x89b08a61	-4.250059e-33
81	0x2bd77439	1.5308927e-12
82	0xb6881682	-4.055736e-06
83	0x2c192a49	2.176608e-12
84	0xac15a80f	-2.1267465e-12
85	0xae852806	-6.0552494e-11
86	0xaabc53c0	-3.3453622e-13
87	0xaa33ae5f	-1.5958891e-13
88	0x28e3d47a	2.529421e-14
89	0xb5016030	-4.8196216e-07
90	0x8796586c	-2.2621461e-34
91	0xaac67ef1	-3.525995e-13
92	0x2f021e3e	1.1834175e-10
93	0xa793323a	-4.085515e-15
94	0x2dfa0521	2.8423987e-11
95	0x238972f4	1.4902254e-17
96	0x0a45e12d	9.527556e-33
97	0xaa1ecd94	-1.4104543e-13
98	0xb49b90f5	-2.897647e-07
99	0xaa30ab11	-1.5691291e-13
100	0x29e7d112	1.0294729e-13
101	0x2bce9593	1.4678696e-12
102	0x28fd3989	2.8113594e-14
103	0x28ed26db	2.6329137e-14
104	0xa6dee33d	-1.5465938e-15
105	0x318a1389	4.0185495e-09
106	0x07a5bea6	2.4938494e-34
107	0x288324bf	1.4559858e-14
108	0x2b57177a	7.6415924e-13
109	0x25123d1c	1.2684186e-16
110	0xab8b720d	-9.9082e-13
111	0xa19c8a8c	-1.0607644e-18
112	0x0ab7563a	1.7654694e-32
113	0x2a004b45	1.1394798e-13
114	0x3524d959	6.1411043e-07
115	0x2a5a98aa	1.9415256e-13
116	0xaafaee11	-4.4574113e-13
117	0xacdbdd98	-6.248956e-12
118	0xa92f1a5a	-3.8880662e-14
119	0xa922c580	-3.614253e-14
120	0xa7170e9c	-2.096338e-15
121	0xb2de5c64	-2.5886216e-08
122	0x0834cecb	5.4409864e-34
123	0xa8797917	-1.3848534e-14
124	0x2d84de3f	1.510536e-11
125	0xa4a86873	-7.303533e-17
126	0x2bffd702	1.8178516e-12
127	0x20c26a69	3.2935295e-19

exp_avg_sq f4 [8, 16]
0	0x2efa31a0	1.1377499e-10
1	0x2fd7d192	3.925718e-10
2	0x33513c08	4.8716203e-08
3	0x3003c115	4.793191e-10
4	0x309f94a6	1.1611021e-09
5	0x2ed67639	9.752594e-11
6	0x30746c5f	8.892069e-10
7	0x2a12f2aa	1.3051596e-13
8	0x2e85a94d	6.0782136e-11
9	0x310b287c	2.0250175e-09
10	0x274441ce	2.7236137e-15
11	0x2f745e08	2.2225077e-10
12	0x2ceee802	6.790125e-12
13	0x2f16174d	1.3650699e-10
14	0x2f445d9b	1.7859351e-10
15	0x2ce4e35b	6.5053913e-12
16	0x2cf4c992	6.957276e-12
17	0x2ea06a4b	7.294839e-11
18	0x304c6a52	7.436586e-10
19	0x2e82c8ae	5.9473634e-11
20	0x2ef3ec95	1.1092386e-10
21	0x2d8591d4	1.518511e-11
22	0x2f1c2d79	1.4204272e-10
23	0x2787674f	3.7582034e-15
24	0x2c3f2171	2.7161296e-12
25	0x2e819f4e	5.894539e-11
26	0x2926d9d2	3.7048333e-14
27	0x2dc97c25	2.2906186e-11
28	0x2dcf1550	2.354264e-11
29	0x2d142fd3	8.423445e-12
30	0x2fecafcc	4.305306e-10
31	0x29c2e66c	8.6553025e-14
32	0x2e1fe03b	3.635157e-11
33	0x2f15ad3f	1.361302e-10
34	0x306e42b9	8.6678714e-10
35	0x2e99fed1	7.002899e-11
36	0x2e00e875	2.9310294e-11
37	0x2a8a1c58	2.4533392e-13
38	0x2e6e0734	5.4121332e-11
39	0x284537e4	1.0947816e-14
40	0x2cb2503f	5.0679734e-12
41	0x2ffe8e63	4.6303503e-10
42	0x284aa84d	1.1249747e-14
43	0x2ea5f715	7.547222e-11
44	0x2cfd093d	7.191718e-12
45	0x2e3fdd36	4.3624847e-11
46	0x2f831a68	2.3847524e-10
47	0x2bae4583	1.2382737e-12
48	0x2e6da064	5.4030017e-11
49	0x2f627686	2.0596688e-10
50	0x3329b814	3.9515797e-08
51	0x2f3ed8f1	1.7357472e-10
52	0x2f3673db	1.6593964e-10
53	0x2d19a956	8.734643e-12
54	0x2f991220	2.7843416e-10
55	0x2924f942	3.6631512e-14
56	0x2e55207c	4.8459445e-11
57	0x306d3882	8.63004e-10
58	0x28473ec1	1.1060327e-14
59	0x2ef5c77a	1.1176744e-10
60	0x2d401ceb	1.09203575e-11
61	0x2e8e92a2	6.4834596e-11
62	0x2fb3eec0	3.2729552e-10
63	0x2c2830ae	2.3901259e-12
64	0x2da0d040	1.8282376e-11
65	0x2f43b643	1.7799899e-10
66	0x31162e90	2.185434e-09
67	0x2ee76867	1.05232094e-10
68	0x2f2cb134	1.5706264e-10
69	0x2dab600e	1.9483106e-11
70	0x2f692142	2.1203042e-10
71	0x276f9b70	3.3252176e-15
72	0x2d0940ea	7.801962e-12
73	0x2f36d009	1.6626713e-10
74	0x29dab9d1	9.713379e-14
75	0x2e6467b9	5.1933322e-11
76	0x2e87f680	6.1828764e-11
77	0x2dc20ad6	2.2060059e-11
78	0x3069459c	8.4863827e-10
79	0x2a52b11f	1.8713198e-13
80	0x2c4652ef	2.818353e-12
81	0x2e1fce2e	3.633554e-11
82	0x3216ade6	8.770689e-09
83	0x2e848c86	6.027627e-11
84	0x2f98637c	2.7719327e-10
85	0x2dff02dc	2.8991413e-11
86	0x2f373ad7	1.6664657e-10
87	0x283ca63d	1.0472144e-14
88	0x2d58829d	1.23071804e-11
89	0x2e4804d0	4.547901e-11
90	0x28a65ff6	1.8471319e-14
91	0x2d34654e	1.02543096e-11
92	0x2d62878d	1.2876711e-11
93	0x2c728d42	3.4468682e-12
94	0x2f9fa6bc	2.9040403e-10
95	0x2a3bad33	1.6669027e-13
96	0x2d791334	1.4158275e-11
97	0x2eaf9e9e	7.986255e-11
98	0x2f4d515d	1.8673547e-10
99	0x2e14a5a5	3.3798426e-11
100	0x2e12082a	3.3203808e-11
101	0x2cc2ac4e	5.5329413e-12
102	0x2e4c2263	4.641477e-11
103	0x250a71e2	1.2008177e-16
104	0x2be22800	1.6069368e-12
105	0x2ef94e6d	1.133714e-10
106	0x28ca5163	2.2461801e-14
107	0x2e1e8ce5	3.605018e-11
108	0x2d7a4eff	1.4228395e-11
109	0x2d95f6c1	1.704892e-11
110	0x2fb56c46	3.300064e-10
111	0x2a5d2eff	1.9645048e-13
112	0x2e55d2bd	4.8617766e-11
113	0x2fa345cd	2.9699124e-10
114	0x30290174	6.1483907e-10
115	0x2f06640b	1.2222771e-10
116	0x2e0d5dd4	3.2143024e-11
117	0x2d38f8fb	1.0514474e-11
118	0x2f2ab4e0	1.552567e-10
119	0x2742a7bf	2.7013844e-15
120	0x2c9bcd77	4.428176e-12
121	0x300dfe60	5.165699e-10
122	0x29f0b8cb	1.06901975e-13
123	0x2f030676	1.1916676e-10
124	0x2e94f9d3	6.7746385e-11
125	0x2e809904	5.847947e-11
126	0x3083270d	9.542603e-10
127	0x2b8bfd36	9.946824e-13

exp_avg f4 [8]
0	0x38bd2c15	9.020433e-05
1	0xb731ef2c	-1.0605709e-05
2	0x37746ee2	1.456935e-05
3	0x38cae437	9.674619e-05
4	0xb7877b17	-1.6150572e-05
5	0xb84337e4	-4.6543675e-05
6	0xb5b334f5	-1.3351952e-06
7	0xb62e3030	-2.595607e-06

exp_avg_sq f4 [8]
0	0x35e3822d	1.6950704e-06
1	0x3302f475	3.0490316e-08
2	0x341436cc	1.3803509e-07
3	0x3596ac9a	1.1226105e-06
4	0x341dd0a2	1.4697665e-07
5	0x34d37e38	3.939365e-07
6	0x31d45cbb	6.1805543e-09
7	0x31ee0bfd	6.9280746e-09

exp_avg f4 [1, 8]
0	0x37ae6193	2.0787853e-05
1	0xb888fc83	-6.532019e-05
2	0xb8573b65	-5.131531e-05
3	0xb789c9d4	-1.6425656e-05
4	0xb725e71c	-9.888576e-06
5	0x3881a5d8	6.18209e-05
6	0x380d4134	3.3677745e-05
7	0x381cc4d5	3.7376612e-05

exp_avg_sq f4 [1, 8]
0	0x36830120	3.904235e-06
1	0x347043e2	2.2376437e-07
2	0x33f1d5fc	1.12613606e-07
3	0x3402ab90	1.2169608e-07
4	0x351d266d	5.8542975e-07
5	0x348bda27	2.6049494e-07
6	0x33678cb7	5.3911858e-08
7	0x34315fef	1.651931e-07
