lightning_logs/version_13/checkpoints/epoch=999-step=1000.ckpt (torch, 22555 bytes, 30 tensors)

front_linear.weight f4 [8, 2]
1.8222398 -3.17026 -0.7131411 -0.03601554 -3.2438645 0.58533597 -1.7583085 0.16496818
1.4871707 -0.36776403 0.51876545 -0.47669497 0.98953503 0.24555147 -0.0344139 0.8386386
00000000: 273f e93f 8ae5 4ac0 6a90 36bf 0885 13bd
00000010: 7a9b 4fc0 94d8 153f 4110 e1bf 6bed 283e
00000020: 9c5b be3f 914b bcbe d0cd 043f 5d11 f4be
00000030: 2b52 7d3f d871 7b3e 97f5 0cbd 05b1 563f

front_linear.bias f4 [8]
0.7531921 0.1572144 1.6678259 1.060218 -0.6254564 -0.15134981 -0.9097766 -0.5895357
00000000: 33d1 403f d0fc 203e 527b d53f 39b5 873f
00000010: e91d 20bf 72fb 1abe 1fe7 68bf d0eb 16bf

transformer_encoder.layers.0.self_attn.qkv_proj.weight f4 [24, 8]
4.8838296 -0.51240236 -3.2338657 -2.6292322 5.290444 -0.25979066 -2.9288783 0.21438277
-0.69402486 -0.7200331 -7.076339 -2.6153364 3.70257 -0.9612404 0.859209 0.82033163
-2.0426908 -0.68680334 -7.696609 -2.3815176 2.774671 1.3176048 1.7838424 1.2585937
2.9678438 -0.18919496 3.0376456 -0.23745579 3.3306825 0.5880019 -3.4336648 -1.4762903
-2.515683 0.36966625 7.071654 2.6090426 -3.1335602 -2.781132 -1.3995532 0.16081111
0.16358407 0.9969799 7.996818 3.4595327 -2.62528 -1.7084423 -2.5414357 -1.719695
1.1115123 1.9528545 7.3574767 3.6909478 -2.526923 -0.9735131 -4.15753 -1.9521245
-3.0928702 -1.5446914 0.80849916 -0.9323336 -0.6398458 -2.5579715 1.4685946 1.2618672
-1.6625285 -0.3056583 0.6818253 0.3842831 0.3544412 -0.030491697 -0.48139554 0.026907656
-0.49261442 -0.08010346 -0.05622442 0.11810236 0.057347726 -0.3116408 0.07820767 -0.2437444
-1.0990874 -0.5339666 -0.15172914 -0.23866247 0.00372693 -0.31443506 0.04108198 0.7398853
0.106445655 -0.31437618 0.10655239 0.22030015 -0.054082964 0.32931176 0.09860181 0.00834531
-8.400997 1.0049958 6.557552 1.851693 -1.4860939 0.046861663 -1.3723795 0.4672326
-1.0635183 -1.522751 6.3678646 3.0477123 -0.9747823 -1.7203155 -1.5182351 0.18615775
-6.8558655 0.729203 6.3501763 1.6364871 -1.5782996 -0.41094476 -1.506685 -0.16694653
-3.0169241 1.8777382 -2.0228727 -1.8732449 1.5384135 1.4328034 1.5366639 0.20099531
-11.264077 -2.3029037 -1.8529419 -2.5652828 -2.12056 -1.8080313 3.1232824 6.4017334
-6.4069796 -0.26771295 0.68261963 -0.21144009 -0.9538239 -0.58833003 0.014294345 2.2964797
-9.199832 -1.2352567 -1.511686 -1.2055044 -1.8606672 -0.7658338 2.255129 4.997119
3.387455 0.4582045 -1.6678627 -0.21865432 -0.24168766 0.3812824 0.47462174 -0.6415814
0.16012992 -0.049799226 0.36731085 0.45220336 -0.0654463 -0.061054867 -0.34219494 -0.47738558
0.19583046 -0.104313 0.2610037 0.19523646 -0.17205974 -0.031402357 -0.13803346 -0.008789074
0.44609824 -0.58949715 -1.0315084 -0.65061045 0.11319103 -0.25898272 0.23590901 -0.2416599
0.6973542 -0.40137726 0.42019483 -0.02900111 0.06862158 -0.3852724 0.41084936 0.47790194
00000000: 5548 9c40 cd2c 03bf a8f7 4ec0 5745 28c0
00000010: 514b a940 4803 85be be72 3bc0 2887 5b3e
00000020: 9dab 31bf 1754 38bf 5e71 e2c0 ac61 27c0
00000030: e8f6 6c40 da13 76bf 1ff5 5b3f 4101 523f
00000040: 72bb 02c0 58d2 2fbf 9f4a f6c0 c96a 18c0
00000050: 3694 3140 46a7 a83f f354 e43f 9919 a13f
00000060: 27f1 3d40 53bc 41be c968 4240 9c27 73be
00000070: e729 5540 4b87 163f 2ac1 5bc0 15f7 bcbf
00000080: f300 21c0 e544 bd3e fd4a e240 8efa 2640
00000090: 408c 48c0 11fe 31c0 8f24 b3bf abab 243e
000000a0: 9582 273e 133a 7f3f efe5 ff40 fc68 5d40
000000b0: 9604 28c0 3dae dabf e2a6 22c0 f71e dcbf
000000c0: 0946 8e3f 23f7 f93f 7370 eb40 7d38 6c40
000000d0: 1bb9 21c0 2838 79bf 7c0a 85c0 37df f9bf
000000e0: 96f1 45c0 73b8 c5bf cdf9 4e3f 6aad 6ebf
000000f0: efcc 23bf ceb5 23c0 e8fa bb3f dd84 a13f
00000100: bccd d4bf 3f7f 9cbe 1a8c 2e3f c1c0 c43e
00000110: 5179 b53e b9c9 f9bc 7a79 f6be 726d dc3c
00000120: f537 fcbe 480d a4bd 944b 66bd a6df f13d
00000130: 73e5 6a3d 628f 9fbe 582b a03d 2298 79be
00000140: e5ae 8cbf 09b2 08bf e25e 1bbe ef63 74be
00000150: 823f 743b a2fd a0be 9445 283d 1f69 3d3f
00000160: 2e00 da3d eaf5 a0be 2438 da3d 5d96 613e
00000170: 1986 5dbd 8d9b a83e bfef c93d c4ba 083c
00000180: 7c6a 06c1 b4a3 803f 77d7 d140 4704 ed3f
00000190: 5338 bebf 04f2 3f3d 22aa afbf 1d39 ef3e
000001a0: 5e21 88bf 81e9 c2bf 8cc5 cb40 b80d 4340
000001b0: 558b 79bf 4c33 dcbf 8755 c2bf 23a0 3e3e
000001c0: 4063 dbc0 0cad 3a3f a534 cb40 6978 d13f
000001d0: b905 cabf 5a67 d2be 0edb c0bf 08f4 2abe
000001e0: 4915 41c0 ba59 f03f bf76 01c0 7dc6 efbf
000001f0: bcea c43f 1a66 b73f 67b1 c43f b7d1 4d3e
00000200: a939 34c1 c662 13c0 332d edbf 982d 24c0
00000210: 41b7 07c0 926d e7bf dce3 4740 00db cc40
00000220: fa05 cdc0 ac11 89be 29c0 2e3f c083 58be
00000230: ce2d 74bf cc9c 16bf d432 6a3c 86f9 1240
00000240: 8332 13c1 e41c 9ebf ed7e c1bf f84d 9abf
00000250: 582a eebf af0d 44bf 0954 1040 66e8 9f40
00000260: 10cc 5840 c899 ea3e 867c d5bf ebe6 5fbe
00000270: f87c 77be 7237 c33e 9f01 f33e ae3e 24bf
00000280: 19f9 233e 46fa 4bbd 2b10 bc3e 3387 e73e
00000290: b608 86bd ab14 7abd 2d34 afbe e26b f4be
000002a0: c887 483e 0ea2 d5bd 47a2 853e 11ec 473e
000002b0: 6e30 30be c29f 00bd a558 0dbe 0c00 10bc
000002c0: fd66 e43e 49e9 16bf 7808 84bf 688e 26bf
000002d0: b3d0 e73d 6299 84be 2292 713e b175 77be
000002e0: ce85 323f 5281 cdbe c723 d73e bc93 edbc
000002f0: 7989 8c3d 6d42 c5be d95a d23e 90af f43e

transformer_encoder.layers.0.self_attn.o_proj.weight f4 [8, 8]
1.2303905 0.16176791 0.1919654 -0.2859312 -0.10520773 -0.002083852 0.9203006 0.11227732
0.37328225 0.2580706 0.7967806 -0.23877884 -0.27081245 0.08332582 0.1989213 -0.3051298
0.6861168 -0.0010125518 -0.09977749 0.22485869 -0.0062428974 -0.09502166 0.6459397 -0.72414076
0.20267755 0.36443084 0.44414788 -0.008239214 -0.13366596 -0.164667 0.71012145 0.26759055
-0.5532961 -0.003534127 -0.19574472 0.18882464 -0.037589837 -0.10035132 -0.42058477 -0.33596417
0.57916504 0.34851635 0.3241539 -0.24016592 0.5327743 0.46779293 -0.56661373 0.37697312
-0.22459258 -0.65278965 -0.84807307 -0.20108296 0.19883244 -0.02726296 -0.3957276 -0.34075424
-0.080212384 -0.32541072 -1.0087943 0.03435934 -0.15860431 -0.040417023 -0.090795845 -0.29878122
00000000: 707d 9d3f 7da6 253e 9492 443e 9365 92be
00000010: 2677 d7bd 3c91 08bb d298 6b3f a7f1 e53d
00000020: da1e bf3e d421 843e d0f9 4b3f 7182 74be
00000030: eea7 8abe baa6 aa3d 06b2 4b3e f939 9cbe
00000040: 5aa5 2f3f 9ab7 84ba 2458 ccbd 5b41 663e
00000050: 3891 ccbb b79a c2bd 4e5c 253f 4a61 39bf
00000060: b48a 4f3e ae96 ba3e 5a67 e33e c5fd 06bc
00000070: bbdf 08be 779e 28be 85ca 353f a101 893e
00000080: d0a4 0dbf d09c 67bb 4e71 48be 3f5b 413e
00000090: cdf7 19bd fe84 cdbd e356 d7be 7f03 acbe
000000a0: 2944 143f bc70 b23e 80f7 a53e 0eee 75be
000000b0: e663 083f 8e82 ef3e 990d 11bf 9f02 c13e
000000c0: 99fb 65be 391d 27bf 511b 59bf b1e8 4dbe
000000d0: bb9a 4b3e 9256 dfbc cf9c cabe 5777 aebe
000000e0: 6446 a4bd 3c9c a6be 2c20 81bf 61bc 0c3d
000000f0: 2b69 22be 528c 25bd 2cf3 b9bd daf9 98be

transformer_encoder.layers.0.self_attn.o_proj.bias f4 [8]
0.80622953 0.8265604 0.8734055 0.61523616 0.6920356 0.2720172 -0.81137466 -1.1547686
00000000: 0f65 4e3f 7699 533f 8197 5f3f 1e80 1d3f
00000010: 3f29 313f d745 8b3e 40b6 4fbf 75cf 93bf

transformer_encoder.layers.0.linear_net.0.weight f4 [16, 8]
-3.7352214 -0.72196627 0.6322329 -0.87760586 1.0608763 -1.6062362 1.3427225 1.6947054
0.0024645084 -0.8999573 -0.31144872 0.45183897 -0.108240835 -0.16920386 0.67919534 0.6592318
0.5090662 -1.3398132 -1.4350649 -1.6147615 -1.3641597 0.16074376 1.5850189 0.98857045
-1.6457123 -0.44959036 0.6432863 0.33995068 -1.8552394 0.019913865 0.40760404 1.9040198
-0.21327877 -0.704088 -1.7100816 -1.4125272 -1.6458739 1.4255565 2.136582 3.1941278
-0.35424787 -1.0774295 0.06359424 -1.170201 -1.0036943 -1.8967675 -0.2835989 2.2525556
1.694822 -1.2965357 -1.8461667 -0.9814669 -1.5806372 1.0658484 2.2052264 2.2476604
0.15450205 -0.11850819 -1.0585952 -1.3297142 -1.9421287 0.0423482 0.7508533 1.8597965
0.073032305 0.079738565 -0.46858096 -0.5200836 -0.089220814 -0.26269954 0.62612504 0.710806
-0.7770789 -2.3267715 -1.0242076 -1.2300701 -0.14350697 -1.1296707 2.7107272 2.3721569
-1.1348544 -1.7379428 -0.41958526 -0.07309712 -2.0861652 -0.8030672 1.968389 1.5767479
-0.042784084 -1.1621281 -0.8090126 -0.31321192 -0.6795518 -0.426869 0.632278 0.61747986
-0.10634554 -1.0908538 -1.0209454 -0.24783745 -1.5580426 0.48289457 1.094836 2.6257024
-1.787398 -1.4540896 -0.7246048 -0.46910894 -2.3858473 0.6991566 0.5682768 0.9449191
-2.4618833 -0.3060761 -3.627053 -0.8249002 0.95051265 -0.0037294696 0.7006487 0.414939
-0.59695506 -2.6478448 -3.5434287 -2.2048938 -0.034448087 -0.029721571 2.1275387 1.9760958
00000000: de0d 6fc0 c8d2 38bf 04da 213f c7aa 60bf
00000010: cbca 873f 2699 cdbf 55de ab3f 1bec d83f
00000020: 9783 213b 9a63 66bf 3576 9fbe 7057 e73e
00000030: 5fad ddbd c743 2dbe bfdf 2d3f 6ac3 283f
00000040: 2a52 023f 007f abbf 35b0 b7bf 81b0 cebf
00000050: c99c aebf 039a 243e e6e1 ca3f f412 7d3f
00000060: b3a6 d2bf b530 e6be 69ae 243f 040e ae3e
00000070: 7c78 edbf 6722 a33c 7ab1 d03e ecb6 f33f
00000080: c065 5abe 1c3f 34bf f4e3 dabf b1cd b4bf
00000090: ffab d2bf a378 b63f c2bd 0840 976c 4c40
000000a0: fa5f b5be 36e9 89bf b23d 823d 25c9 95bf
000000b0: 0e79 80bf 47c9 f2bf e033 91be df29 1040
000000c0: edef d83f e2f4 a5bf 314f ecbf 6a41 7bbf
000000d0: 5252 cabf b86d 883f 6e22 0d40 abd9 0f40
000000e0: c935 1e3e 6cb4 f2bd 0c80 87bf 1334 aabf
000000f0: ac97 f8bf 4e75 2d3d ec37 403f d00d ee3f
00000100: f691 953d f94d a33d d8e9 efbe 3324 05bf
00000110: 67b9 b6bd 8e80 86be bb49 203f 62f7 353f
00000120: a5ee 46bf d3e9 14c0 3c19 83bf f072 9dbf
00000130: 7ef3 12be 0d99 90bf 8e7c 2d40 6bd1 1740
00000140: e942 91bf e974 debf e1d3 d6be f1b3 95bd
00000150: bb83 05c0 d095 4dbf 2cf4 fb3f e0d2 c93f
00000160: 5d3e 2fbd 9dc0 94bf 731b 4fbf 505d a0be
00000170: 1bf7 2dbf 938e dabe f9dc 213f 2913 1e3f
00000180: b1cb d9bd 19a1 8bbf 57ae 82bf 1ac9 7dbe
00000190: f16d c7bf f53d f73e 9623 8c3f 820b 2840
000001a0: 75c9 e4bf 9c1f babf b37f 39bf 0c2f f0be
000001b0: b9b1 18c0 edfb 323f 977a 113f 38e6 713f
000001c0: 7f8f 1dc0 02b6 9cbe a321 68c0 a92c 53bf
000001d0: cc54 733f 1e6a 74bb b75d 333f e272 d43e
000001e0: 0cd2 18bf 4a76 29c0 89c7 62c0 fb1c 0dc0
000001f0: 7019 0dbd a77a f3bc 9829 0840 b5f0 fc3f

transformer_encoder.layers.0.linear_net.0.bias f4 [16]
-2.9372416 -1.2908602 -0.84235567 -1.5746711 -4.3738775 -1.48536 -2.329446 -1.7522175
-0.022329701 -1.159875 -2.2634704 -1.3562319 -2.2068107 -1.6346304 -2.5741665 -1.4716071
00000000: c4fb 3bc0 e83a a5bf 9fa4 57bf d38e c9bf
00000010: cef6 8bc0 4720 bebf a515 15c0 aa48 e0bf
00000020: c7ec b6bc c976 94bf b3dc 10c0 0299 adbf
00000030: 633c 0dc0 923b d1bf 25bf 24c0 9f5d bcbf

transformer_encoder.layers.0.linear_net.3.weight f4 [8, 16]
-1.7581993 -0.51696587 0.4834889 -0.0011556714 -0.9554504 0.3927303 0.8616142 -0.39634183
0.2113394 0.5639889 0.10654114 -0.51807153 -0.5604703 1.2919546 1.8873636 1.1977091
0.8585319 -0.051536147 -0.006420575 0.28507715 0.04460405 0.3939595 0.080829985 0.6183032
-0.21852458 -0.42198977 -0.064789556 -0.32140067 0.18655635 -1.0649868 0.085997954 0.67142785
-1.566 0.19492328 -0.20846933 0.4632039 1.8785032 -0.20508228 -0.24556527 0.48800626
-0.22658774 -0.040107805 -2.615604 -0.09170766 0.3334415 -0.32692087 0.51746 2.5148284
-0.022447132 -0.19939448 0.028131492 0.12677698 1.3212401 -0.11036872 -1.1072778 0.7447676
-0.18738641 -0.15773515 0.5202518 -0.09854452 1.4338588 -1.3649434 0.71374714 0.5453253
2.0998616 0.10240963 -0.6083122 0.43791226 -0.23764615 1.6201425 -0.31040442 1.391429
0.19153161 1.0791752 0.71988416 0.00048803084 0.39443675 -0.6255498 -0.4867343 0.33890888
0.16845167 0.50121886 -0.4856039 -0.030660879 -0.2218811 0.3496272 0.61885077 0.51613754
0.5451118 -0.37110144 -1.1910241 1.1853242 1.3857981 0.9839562 -0.4716236 0.99940753
0.61305934 -0.19754219 -0.16751355 -0.5261281 -0.626662 -0.15640725 -1.40378 -0.93233764
0.13901076 -0.27537945 0.6673223 0.3458636 -0.1191938 1.053184 -0.3686793 -2.006874
2.173524 -0.0043006954 0.066340744 -0.76668805 -1.8795077 -1.1407948 -1.0422106 -1.5286711
-0.5442863 -0.7778404 0.18865809 0.27826053 -1.0319754 0.031255245 -0.2732513 -1.846276
00000000: ad0c e1bf e057 04bf db8b f73e e679 97ba
00000010: 6698 74bf f213 c93e c092 5c3f 51ed cabe
00000020: 5b69 583e 9461 103f 3e32 da3d 56a0 04bf
00000030: fb7a 0fbf c55e a53f 2195 f13f 884e 993f
00000040: bfc8 5b3f 9117 53bd b063 d2bb a2f5 913e
00000050: bdb2 363d 0fb5 c93e 318a a53d 1e49 1e3f
00000060: e8c4 5fbe 0b0f d8be 63b0 84bd a18e a4be
00000070: a108 3f3e 7d51 88bf b21f b03d b2e2 2b3f
00000080: b072 c8bf f899 473e fc78 55be 1029 ed3e
00000090: cb72 f03f 1701 52be 7675 7bbe f5db f93e
000000a0: 9e06 68be 1548 24bd 0e66 27c0 3ad1 bbbd
000000b0: d8b8 aa3e 2c62 a7be 4278 043f f3f2 2040
000000c0: 0ce3 b7bc 112e 4cbe 0474 e63c d3d1 013e
000000d0: 651e a93f ff08 e2bd 47bb 8dbf 17a9 3e3f
000000e0: 39e2 3fbe 5385 21be 392f 053f b6d1 c9bd
000000f0: af88 b73f 77b6 aebf 22b8 363f 709a 0b3f
00000100: 2264 0640 24bc d13d 59ba 1bbf 0936 e03e
00000110: 8359 73be d460 cf3f 54ed 9ebe 581a b23f
00000120: dd20 443e 6a22 8a3f 544a 383f 64de ff39
00000130: 9df3 c93e 0824 20bf 3d35 f9be 7785 ad3e
00000140: 987e 2c3e e14f 003f 13a1 f8be 862c fbbc
00000150: cd34 63be 5602 b33e 016d 1e3f 9721 043f
00000160: 728c 0b3f 0201 bebe 7a73 98bf b4b8 973f
00000170: d561 b13f 8ee4 7b3f a678 f1be 2cd9 7f3f
00000180: 75f1 1c3f 8048 4abe ac88 2bbe 55b0 06bf
00000190: ec6c 20bf 3929 20be 10af b3bf aead 6ebf
000001a0: d658 0e3e 89fe 8cbe a2d5 2a3f 0915 b13e
000001b0: e11b f4bd bcce 863f 89c3 bcbe a070 00c0
000001c0: 041b 0b40 d9ec 8cbb a8dd 873d ab45 44bf
000001d0: b593 f0bf 9005 92bf 2867 85bf 7fab c3bf
000001e0: 5956 0bbf 8c20 47bf 962f 413e 2a78 8e3e
000001f0: c517 84bf 8005 003d 98e7 8bbe c652 ecbf

transformer_encoder.layers.0.linear_net.3.bias f4 [8]
-0.646533 -0.8322414 -1.4051169 -0.6771584 -0.47185725 -0.6169513 1.0949166 1.1565576
00000000: 3083 25bf c60d 55bf dfda b3bf 415a 2dbf
00000010: 4697 f1be 85f0 1dbf 3a26 8c3f 140a 943f

final_linear.weight f4 [1, 8]
-0.25364804 -0.097098656 -0.07963162 0.008983996 -0.04022247 0.034421194 0.05053308 0.06439068
00000000: 28de 81be a9db c6bd e715 a3bd 9c31 133c
00000010: 51c0 24bd 3dfd 0c3d c6fb 4e3d 43df 833d

exp_avg f4 [8, 2]
0.00021398716 0.00033790598 -6.3854575e-05 -7.697363e-05 -0.00033417667 -0.0004890407 -9.8623656e-05 -0.00016618671
0.00015953013 0.0002641356 5.4828684e-05 0.00011184292 4.210837e-05 2.2562226e-05 6.584289e-08 1.2883646e-05
00000000: be61 6039 f928 b139 aae9 85b8 e76c a1b8
00000010: 6f34 afb9 f732 00ba 2cd4 ceb8 6842 2eb9
00000020: 8b47 2739 ae7b 8a39 daf7 6538 368d ea38
00000030: 859d 3038 0344 bd37 8365 8d33 d726 5837

exp_avg_sq f4 [8, 2]
3.0372757e-06 2.9879666e-06 9.5562015e-08 1.3749724e-07 1.4991375e-06 2.0172647e-06 3.604638e-07 4.7586218e-07
4.617669e-07 5.244396e-07 2.1899933e-07 2.0863128e-07 3.0459788e-07 4.796865e-07 2.169767e-07 2.820677e-07
00000000: 00d4 4b36 e084 4836 c637 cd33 f4a2 1334
00000010: f935 c935 5860 0736 c485 c134 007a ff34
00000020: c2e8 f734 37c7 0c35 1426 6b34 2104 6034
00000030: 9d87 a334 cec3 0035 1afa 6834 176f 9734

exp_avg f4 [8]
0.00026752392 -0.00011746781 -0.0004314201 -0.00013552682 0.0001742221 3.1638287e-05 8.722698e-05 6.212822e-05
00000000: 7442 8c39 0d59 f6b8 3a30 e2b9 341c 0eb9
00000010: 64af 3639 5ab3 0438 a1ed b638 d64a 8238

exp_avg_sq f4 [8]
9.282252e-06 3.172141e-07 4.4646986e-06 1.1020938e-06 1.4551492e-06 5.93201e-07 1.0325624e-06 5.5207903e-07
00000000: f8ba 1b37 934d aa34 78cf 9536 a8eb 9335
00000010: 8c4e c335 763c 1f35 9396 8a35 9532 1435

exp_avg f4 [24, 8]
-2.4991503e-05 -5.895552e-06 -1.1328107e-07 -3.1588218e-06 2.7889696e-06 -1.734801e-06 1.5143605e-06 6.851422e-06
2.0572998e-06 -6.9303674e-06 -7.690955e-06 -5.0758076e-06 5.9816357e-06 1.4422525e-06 9.836955e-07 1.4438031e-07
1.2878364e-05 -7.018569e-06 -1.0303188e-05 -5.5561213e-06 6.943869e-06 2.6476614e-06 6.851562e-07 -2.5921327e-06
-3.3100056e-05 7.496301e-09 8.391701e-06 1.7001569e-06 -2.874926e-06 -3.840458e-06 5.2847275e-07 8.238629e-06
4.715704e-05 4.323535e-06 2.3413247e-07 4.20785e-06 -1.4383363e-06 4.9677005e-06 -6.680778e-06 -1.4268938e-05
1.0396433e-05 3.6318725e-06 5.0284825e-06 4.805105e-06 -3.880821e-06 -1.1012087e-07 -3.6354795e-06 -4.4279227e-06
2.529901e-06 3.3034269e-06 5.387657e-06 4.544304e-06 -4.1227777e-06 -1.1215689e-06 -2.6886476e-06 -2.1922813e-06
1.9129822e-05 4.7968405e-07 -1.5650476e-06 1.1841742e-07 1.0488923e-06 2.585753e-06 -2.0053537e-06 -5.2675196e-06
8.095822e-05 4.5919547e-05 4.1855605e-05 3.2891636e-05 -5.57909e-05 1.8196883e-05 -6.9391444e-06 -4.181539e-05
-1.1999868e-05 -1.3964612e-05 -5.2349795e-05 -3.1019405e-05 2.2486707e-05 6.013938e-06 2.2766772e-05 1.15168195e-05
1.646648e-05 1.2559383e-05 -4.3272044e-05 -2.3024415e-05 2.9098396e-06 9.800392e-06 2.6499045e-05 5.2766472e-06
-9.558165e-06 6.588251e-06 -4.9930054e-06 -4.598065e-06 -2.064213e-06 3.2257997e-06 8.003896e-06 5.504001e-06
1.1268329e-05 9.239144e-06 9.937194e-07 2.9459235e-07 3.2336502e-06 -2.640474e-06 -3.5943572e-06 1.0486839e-06
4.6046302e-06 5.74675e-06 4.131651e-06 3.0243841e-06 -6.419544e-06 2.110091e-06 7.4044607e-07 -1.3958352e-06
8.596273e-06 7.803984e-06 1.8320859e-06 1.0412957e-06 1.1421417e-07 -1.0325224e-06 -1.9828237e-06 3.1163643e-07
-1.758891e-06 -3.7041166e-06 -3.884678e-06 -2.9654796e-06 7.72755e-06 -3.0187832e-06 -2.024942e-06 1.6698394e-06
1.5418357e-06 2.730494e-06 1.03468155e-05 6.316985e-06 -5.628136e-06 -8.775655e-07 -3.8662283e-06 -1.982886e-06
-2.3699724e-06 3.067272e-06 1.2979385e-05 7.5269863e-06 -6.9491375e-06 -1.5099118e-06 -4.1384224e-06 -1.1019373e-06
4.9879554e-07 2.6007772e-06 1.0106085e-05 6.0830725e-06 -5.4802617e-06 -9.624893e-07 -3.6143556e-06 -1.6176957e-06
2.7850158e-06 -2.0104937e-06 -9.279128e-06 -5.2852615e-06 5.030944e-06 1.0889204e-06 2.7173646e-06 4.441217e-07
-0.00011786614 -5.006404e-05 -6.587651e-05 -4.6079065e-05 4.163219e-05 -4.7058716e-06 3.2320877e-05 3.8471513e-05
-0.00011301157 -4.6800615e-05 -5.83754e-05 -4.274517e-05 4.372521e-05 -9.919272e-06 2.619946e-05 3.929444e-05
0.00014093421 7.6545766e-05 9.944409e-05 6.380838e-05 -8.033746e-05 2.105732e-05 -3.1295483e-05 -6.01837e-05
0.0001186482 3.4994202e-05 0.00011421583 8.0377205e-05 -5.5351888e-05 -7.289016e-06 -6.4496664e-05 -5.5105287e-05
00000000: d8a4 d1b7 68d2 c5b6 ed44 f3b3 25fc 53b6
00000010: 222a 3b36 4fd7 e8b5 0841 cb35 44e5 e536
00000020: 2410 0a36 678b e8b6 6608 01b7 db50 aab6
00000030: dcb5 c836 6b93 c135 8507 8435 f506 1b34
00000040: 2710 5837 0c81 ebb6 dbdb 2cb7 b86e bab6
00000050: 61ff e836 7aae 3136 93eb 3735 80f4 2db6
00000060: ead4 0ab8 15c9 0032 15ca 0c37 f230 e435
00000070: daee 40b6 48dd 80b6 5fdc 0d35 a438 0a37
00000080: 7cca 4538 e212 9136 d865 7b34 2831 8d36
00000090: dc0c c1b5 39b0 a636 722b e0b6 9f64 6fb7
000000a0: 576c 2e37 18bb 7336 56ba a836 8a3b a136
000000b0: 0038 82b6 977b ecb3 10f9 73b6 9193 94b6
000000c0: 5ec7 2936 71b0 5d36 9fc7 b436 467b 9836
000000d0: 6456 8ab6 d088 96b5 9d6e 34b6 1b1f 13b6
000000e0: fb78 a037 a3c3 0035 a00e d2b5 aa4c fe33
000000f0: aac7 8c35 e686 2d36 b793 06b6 a6bf b0b6
00000100: 1dc8 a938 bd99 4038 1d8e 2f38 20f5 0938
00000110: 0601 6ab8 82a5 9837 ccd6 e8b6 ef62 2fb8
00000120: 0a53 49b7 8d49 6ab7 2a92 5bb8 d51a 02b8
00000130: d6a1 bc37 56cb c936 45fb be37 5d38 4137
00000140: 7f21 8a37 24b6 5237 017f 35b8 8e24 c1b7
00000150: aa46 4336 5d6c 2437 444a de37 0e0e b136
00000160: 025c 20b7 a510 dd36 9789 a7b6 1449 9ab6
00000170: e986 0ab6 d17a 5836 7948 0637 02af b836
00000180: 1b0d 3d37 d201 1b37 f05f 8535 7728 9e34
00000190: b001 5936 ff32 31b6 9636 71b6 81c0 8c35
000001a0: 7981 9a36 35d4 c036 9da2 8a36 86f6 4a36
000001b0: 7767 d7b6 169b 0d36 11c3 4635 8858 bbb5
000001c0: b638 1037 dbed 0237 fee5 f535 a6c2 8b35
000001d0: e745 f533 3395 8ab5 a710 05b6 fc4e a734
000001e0: 0913 ecb5 3d94 78b6 2159 82b6 8d02 47b6
000001f0: 93a5 0137 4d96 4ab6 3de4 07b6 3f1f e035
00000200: 12f1 ce35 883d 3736 3c97 2d37 7df6 d336
00000210: 52d9 bcb6 d891 6bb5 a6ba 81b6 b911 05b6
00000220: d10b 1fb6 55d7 4d36 09c2 5937 5290 fc36
00000230: a32c e9b6 2da8 cab5 c7dc 8ab6 47e6 93b5
00000240: f8e4 0535 0389 2e36 4e8d 2937 321d cc36
00000250: 17e3 b7b6 e12e 81b5 288e 72b6 9a1f d9b5
00000260: 35e6 3a36 05ec 06b6 8dad 1bb7 0d58 b1b6
00000270: 7bcf a836 0527 9235 f85b 3636 9f6f ee34
00000280: e72e f7b8 dbfb 51b8 2f27 8ab8 0545 41b8
00000290: 399e 2e38 21e7 9db6 4790 0738 795c 2138
000002a0: a000 edb8 c74b 44b8 1cd8 74b8 4749 33b8
000002b0: 9665 3738 f36a 26b7 e9c6 db37 15d0 2438
000002c0: bdc7 1339 3287 a038 a48c d038 ddd0 8538
000002d0: d87a a8b8 40a4 b037 4543 03b8 c16d 7cb8
000002e0: c4d2 f838 bdc6 1238 2887 ef38 2f90 a838
000002f0: a329 68b8 2c94 f4b6 6242 87b8 da20 67b8

exp_avg_sq f4 [24, 8]
2.098868e-09 3.989876e-10 1.3937e-09 6.29687e-10 1.1271029e-09 2.7257113e-10 1.2570871e-09 4.2451428e-10
1.3604369e-09 2.983542e-10 4.2523843e-10 2.4492838e-10 7.145259e-10 1.6343925e-10 1.0769033e-09 2.4779592e-10
2.3543623e-09 4.685487e-10 5.864782e-10 3.9641315e-10 1.2519197e-09 3.6421324e-10 1.7169962e-09 3.7816228e-10
2.554812e-09 3.632499e-10 1.1683298e-09 5.9637023e-10 1.2989287e-09 3.3957814e-10 1.0129888e-09 3.9960035e-10
1.0045456e-08 4.8670806e-10 2.9483216e-10 2.5126018e-10 2.4566071e-10 1.04533104e-10 1.3475316e-09 2.0156705e-09
9.611528e-09 1.3747106e-10 2.9337469e-10 4.5940817e-11 1.102814e-10 1.3686813e-10 3.667253e-10 1.238804e-09
1.208433e-08 1.13970375e-10 4.736182e-10 6.681394e-11 1.2041722e-10 1.7466577e-10 2.8739963e-10 1.4886438e-09
4.3668433e-09 1.6415519e-10 3.2097774e-10 1.556755e-10 9.7461136e-11 5.3566065e-11 4.409589e-10 7.756724e-10
1.3473155e-07 4.5349957e-08 1.4223382e-07 7.694209e-08 2.1761844e-07 7.18148e-08 1.62214e-07 4.760808e-08
7.774706e-09 2.931067e-09 7.051734e-09 5.3503078e-09 8.68481e-09 4.6298454e-09 8.342167e-09 5.2142104e-09
8.187429e-09 2.800932e-09 8.040192e-09 3.928231e-09 8.923391e-09 2.36053e-09 9.189027e-09 2.9289664e-09
8.71712e-09 3.3248806e-09 8.744531e-09 5.665678e-09 1.1055486e-08 4.7480664e-09 1.0633044e-08 4.483102e-09
5.259672e-10 5.791739e-10 6.8078676e-10 1.1711098e-09 2.8673648e-09 5.715283e-10 1.804833e-09 4.4614823e-10
1.2394934e-10 9.291879e-11 1.02946825e-10 8.853149e-11 2.4039248e-10 5.3748183e-11 2.3902727e-10 4.2672275e-11
2.7067892e-10 2.8645086e-10 3.000586e-10 5.5342403e-10 1.3553297e-09 2.480152e-10 8.835312e-10 2.1476709e-10
1.08909944e-10 9.0707636e-11 1.5770754e-10 1.3223755e-10 3.6668868e-10 9.2810454e-11 2.1067594e-10 5.6927716e-11
1.4849444e-10 8.3777436e-11 8.275515e-10 3.4284875e-10 1.9398418e-10 2.1178089e-11 2.433438e-10 4.6061648e-11
4.6175344e-10 1.5357488e-10 1.1650986e-09 5.103458e-10 2.8282132e-10 2.3625867e-11 4.5470713e-10 1.2322313e-10
1.187133e-10 7.770873e-11 7.3460243e-10 3.0278996e-10 1.6685849e-10 1.8100773e-11 2.2940343e-10 3.986923e-11
7.415379e-10 1.468041e-10 8.7553736e-10 4.1089693e-10 2.397418e-10 1.9197907e-11 4.2307802e-10 1.6881442e-10
2.3438503e-08 4.5847806e-09 8.237527e-09 5.8380936e-09 1.2589933e-08 3.872221e-09 5.1638596e-09 5.7108034e-09
4.788582e-08 5.6257545e-09 1.0456531e-08 9.130947e-09 1.5565071e-08 5.310437e-09 8.942719e-09 9.419977e-09
2.7000445e-07 2.4424956e-08 1.1611877e-07 4.873434e-08 1.5836862e-07 6.120072e-08 7.224277e-08 3.728777e-08
2.4744517e-07 1.4750071e-08 6.840789e-08 3.8697888e-08 7.999153e-08 2.8122942e-08 4.5566058e-08 4.32229e-08
00000000: ad3b 1031 8358 db2f 768c bf30 4916 2d30
00000010: 68e8 9a30 fad8 952f d2c5 ac30 1361 e92f
00000020: 1efa ba30 9f05 a42f fdc6 e92f 9ba6 862f
00000030: 4a68 4430 0fb4 332f 2b02 9430 2d3a 882f
00000040: 61ca 2131 2fcb 0030 bc35 2130 31ee d92f
00000050: 0210 ac30 753a c82f 6ffb eb30 9ce5 cf2f
00000060: ba90 2f31 e1b2 c72f f392 a030 d3ed 2330
00000070: fe85 b230 60af ba2f 6039 8b30 c0ae db2f
00000080: 6294 2c32 09c9 0530 f015 a22f ba21 8a2f
00000090: ac0d 872f e8de e52e 0e34 b930 0d84 0a31
000000a0: f21f 2532 aa26 172f d148 a12f c30c 4a2e
000000b0: e982 f22e f47c 162f ff9b c92f 8a42 aa30
000000c0: 729b 4f32 9e9f fa2e eb2f 0230 e8ec 922e
000000d0: 6f66 042f 0b0c 402f e7ff 9d2f ff98 cc30
000000e0: 290b 9631 947d 342f 9a75 b02f c22a 2b2f
000000f0: be51 d62e 0796 6b2e 736b f22f 1837 5530
00000100: baaa 1034 cec6 4233 efb8 1834 5c3b a533
00000110: 80aa 6934 9b38 9a33 0b2d 2e34 a379 4c33
00000120: 8591 0532 e06b 4931 b54b f231 ced5 b731
00000130: 3334 1532 8d14 9f31 3d51 0f32 ae28 b331
00000140: b2a8 0c32 847a 4031 2321 0a32 16f9 8631
00000150: 7d4d 1932 e236 2231 c5dd 1d32 ec46 4931
00000160: 4dc2 1532 eb7b 6431 db3a 1632 d5ab c231
00000170: 8bee 3d32 6f24 a331 9fac 3632 c809 9a31
00000180: a793 1030 bd33 1f30 1c22 3b30 c3f4 a030
00000190: 370b 4531 bb19 1d30 ea0d f830 c845 f52f
000001a0: a348 082f a154 cc2e e961 e22e ccae c22e
000001b0: 3c28 842f 1363 6c2e 1968 832f b6ac 3b2e
000001c0: acce 942f 607a 9d2f 7ef5 a42f c11f 1830
000001d0: 6d46 ba30 0959 882f fbdc 7230 9023 6c2f
000001e0: d97e ef2e dc77 c72e ba66 2d2f 9065 112f
000001f0: d896 c92f a417 cc2e 01a4 672f e95e 7a2e
00000200: 7845 232f 813a b82e c379 6330 ac7b bc2f
00000210: b149 552f d148 ba2d 98c7 852f ce94 4a2e
00000220: 05da fd2f 7cdb 282f 4321 a030 6548 0c30
00000230: 907b 9b2f b9d0 cf2d 57fa f92f 3a7c 072f
00000240: d386 022f 20e2 aa2e 0ded 4930 e675 a62f
00000250: 7d76 372f 5137 9f2d 533b 7c2f c358 2f2e
00000260: 17d5 4b30 ae69 212f 77aa 7030 9ae4 e12f
00000270: a9cc 832f d8dd a82d f096 e82f 099d 392f
00000280: d055 c932 2888 9d31 0785 0d32 6a98 c831
00000290: 1c4b 5832 6b0c 8531 ca6d b131 c238 c431
000002a0: 04ab 4d33 a94c c131 4fa4 3332 54de 1c32
000002b0: f4b3 8532 1977 b631 7ea2 1932 7fd5 2132
000002c0: 21f5 9034 0ccf d132 f85c f933 f94f 5133
000002d0: 090c 2a34 746d 8333 e223 9b33 5626 2033
000002e0: 9bd8 8434 8067 7d32 a3e7 9233 c734 2633
000002f0: cfc7 ab33 0193 f132 69b4 4333 15a4 3933

exp_avg f4 [8, 8]
-1.6873855e-05 -4.434537e-05 -5.7035864e-05 8.966734e-06 3.4412851e-06 -2.1248046e-05 -8.109047e-06 5.8990187e-05
-2.8530614e-05 -9.274175e-06 1.2003672e-05 -3.4917607e-06 -1.6759504e-05 -1.8933037e-05 1.2885865e-05 4.8879945e-05
-3.059522e-06 -3.7498285e-06 5.4243733e-06 4.005676e-06 4.2811716e-06 9.954792e-06 4.685846e-05 -1.8819213e-05
-7.3469587e-06 -4.5759676e-05 -5.5500906e-05 -2.4485844e-06 -2.5518992e-05 -2.5664138e-05 -3.7984235e-05 6.0593575e-05
-7.688159e-06 2.4520676e-05 4.8524533e-05 -4.722842e-06 -2.3825944e-06 2.592152e-06 3.3120785e-05 5.1264215e-06
-3.6352907e-05 1.4341211e-05 5.237303e-06 7.739439e-06 1.9665798e-05 8.942576e-06 1.6079557e-05 -3.1892818e-05
2.5212137e-05 3.2007e-05 2.850172e-05 1.7392498e-06 2.1966931e-05 2.6315396e-05 1.2730855e-05 -6.371778e-05
3.2831456e-05 4.421459e-05 4.3811313e-05 1.0757396e-06 2.8826189e-05 3.745898e-05 2.6114625e-05 -8.6934495e-05
00000000: 548c 8db7 7aff 39b8 cb39 6fb8 d46f 1637
00000010: d4f0 6636 d53d b2b7 170c 08b7 3b6c 7738
00000020: 0755 efb7 4798 1bb7 6163 4937 fe53 6ab6
00000030: c396 8cb7 63d2 9eb7 5e30 5837 7104 4d38
00000040: 3052 4db6 90a5 7bb6 0303 b636 7f68 8636
00000050: fca6 8f36 8203 2737 e389 4438 f4dd 9db7
00000060: e585 f6b6 14ee 3fb8 a5c9 68b8 5c52 24b6
00000070: 9e11 d6b7 5149 d7b7 4351 1fb8 db25 7e38
00000080: 64fc 00b7 c0b1 cd37 d286 4b38 e778 9eb6
00000090: a9e4 1fb6 d5f4 2d36 2ceb 0a38 a003 ac36
000000a0: a379 18b8 089b 7037 17bc af36 a3d8 0137
000000b0: fbf7 a437 1208 1637 96e2 8637 a7c4 05b8
000000c0: a77e d337 413f 0638 fa16 ef37 2b70 e935
000000d0: a045 b837 e2bf dc37 9b96 5537 39a0 85b8
000000e0: 82b4 0938 0e73 3938 0ac2 3738 2262 9035
000000f0: c5cf f137 461d 1d38 bb10 db37 9a50 b6b8

exp_avg_sq f4 [8, 8]
3.401913e-07 2.3310813e-08 2.5500317e-08 1.8091724e-08 2.861425e-08 4.0229054e-08 2.0405287e-07 1.8321043e-07
2.2284482e-08 3.0266654e-09 3.2526684e-09 1.1816339e-09 4.4415525e-09 3.3256704e-09 1.5248007e-08 1.6092512e-08
8.665463e-08 7.4352586e-09 1.0987976e-08 5.481092e-09 1.3156254e-08 1.3949262e-08 4.3565e-08 9.908431e-08
2.5095085e-08 3.4785217e-09 3.727483e-09 1.7694245e-09 5.0624056e-09 4.564697e-09 1.46557735e-08 1.7213525e-08
2.797657e-08 2.4993563e-09 2.6548908e-09 1.6192846e-09 4.598065e-09 5.5199347e-09 1.7218799e-08 2.1987105e-08
4.1351143e-08 3.679652e-09 4.137119e-09 2.425083e-09 5.2275504e-09 6.461868e-09 2.9167431e-08 3.808102e-08
3.086793e-08 3.7226282e-09 3.5987973e-09 1.7563533e-09 6.261706e-09 4.750251e-09 2.0343299e-08 2.192e-08
3.7671334e-08 3.77109e-09 4.8926427e-09 2.1855755e-09 7.792517e-09 7.772943e-09 2.6316075e-08 2.6980029e-08
00000000: 89a3 b634 053d c832 ca0b db32 1f68 9b32
00000010: 67cb f532 50c8 2c33 a019 5b34 80b8 4434
00000020: 186c bf32 a9fd 4f31 8c85 5f31 0c67 a230
00000030: 4f9c 9831 d089 6431 b9fa 8232 cf3b 8a32
00000040: e316 ba33 3a79 ff31 a1c5 3c32 3254 bc31
00000050: d105 6232 81a5 6f32 391c 3b33 2dc8 d433
00000060: ad90 d732 cd0a 6f31 4a13 8031 1730 f330
00000070: 64f1 ad31 80d7 9c31 c6c8 7b32 f1dc 9332
00000080: 2151 f032 24c1 2b31 5571 3631 838d de30
00000090: 02fd 9d31 dca9 bd31 8ae8 9332 28de bc32
000000a0: 109a 3133 1fdd 7c31 7c26 8e31 83a6 2631
000000b0: 059e b331 3107 de31 dc8b fa32 868e 2333
000000c0: a693 0433 2bd1 7f31 b64e 7731 3064 f130
000000d0: 8c26 d731 a637 a331 63bf ae32 974a bc32
000000e0: 12cc 2133 dc92 8131 241c a831 0d31 1631
000000f0: dadf 0532 c489 0532 a90d e232 b6c1 e732

exp_avg f4 [8]
-3.0241063e-05 -4.3301738e-05 -4.107911e-05 -2.6859625e-05 3.7051568e-06 4.1220297e-05 2.8847802e-05 3.4944438e-05
00000000: 30ae fdb7 e39e 35b8 5c4c 2cb8 9b50 e1b7
00000010: 1ca6 7836 f5e3 2c38 2ffe f137 4e91 1238

exp_avg_sq f4 [8]
9.713646e-07 7.561873e-08 1.8706093e-07 7.954622e-08 7.974727e-08 1.2932529e-07 9.407799e-08 1.1601347e-07
00000000: d55f 8235 d663 a233 ebda 4834 ffd2 aa33
00000010: 8641 ab33 aadc 0a34 ec07 ca33 1423 f933

exp_avg f4 [16, 8]
2.1712696e-05 9.284e-06 -1.1073024e-05 1.343363e-06 -2.4945279e-05 4.993747e-06 -2.4184415e-06 6.4424535e-06
-7.2135102e-09 -7.412286e-08 -5.9585236e-08 1.5632802e-08 6.572183e-08 -3.149353e-08 3.3151265e-10 -3.689264e-08
-7.4512464e-08 -2.0409311e-07 1.1271463e-07 -3.3129794e-07 3.3766642e-07 7.255173e-07 1.5130665e-07 -1.2248124e-07
4.959272e-09 -2.9256679e-08 -6.129308e-08 -3.4498218e-08 6.633958e-09 -2.8518764e-08 3.0655578e-08 2.1859337e-08
-9.8464764e-11 -2.8603843e-11 5.7664644e-11 -1.4086403e-10 5.080664e-10 -2.4658156e-10 5.964124e-11 3.072742e-11
1.7660734e-07 -1.2755305e-06 2.2525544e-06 1.4082238e-07 1.975103e-06 -1.4779747e-06 7.259538e-07 6.904535e-07
9.0849716e-07 -1.366261e-06 -3.0804702e-07 -1.9154047e-06 2.4684125e-06 5.41353e-06 4.397566e-07 -1.8222734e-06
-4.3054612e-11 -3.4831202e-10 -3.4802056e-10 -5.4969446e-10 1.616217e-09 -7.384553e-10 3.443719e-10 5.1815233e-11
-1.9561684e-08 -2.2861557e-09 1.6913473e-08 8.744337e-10 1.625461e-08 -1.733597e-08 3.0297762e-09 5.617488e-09
1.3692325e-06 -1.9302718e-06 5.9092463e-06 3.2967517e-07 4.1353524e-06 -3.7530733e-06 1.5914758e-06 1.7399359e-06
-2.73058e-10 -8.2261387e-10 -3.454851e-10 -2.0121188e-10 6.999762e-10 -6.467668e-11 3.5713893e-10 -7.0041724e-12
-1.0650874e-08 -1.8012602e-07 -1.7040516e-07 5.4482914e-08 1.6899105e-07 -1.0334084e-07 -1.7808423e-08 -1.0951388e-07
7.65499e-08 -3.4546062e-09 8.187568e-08 3.4909915e-09 1.12287655e-08 -3.1406238e-08 1.601829e-08 1.4575746e-08
-2.2655717e-08 1.26329445e-08 -2.361244e-08 5.112949e-09 8.083523e-09 2.2354316e-08 -1.4180042e-08 -2.0995339e-08
-6.607423e-06 6.5280333e-06 -1.2702816e-06 1.1111853e-06 1.8621802e-05 5.788339e-06 -1.2783734e-05 -1.0558219e-05
3.0073468e-06 4.866017e-06 8.648354e-06 -5.43508e-06 -7.652734e-06 1.1192397e-05 3.3840192e-06 4.1954872e-06
00000000: a923 b637 7ac2 1b37 47c6 39b7 9a4d b435
00000010: 9441 d1b7 f68f a736 824c 22b6 412c d836
00000020: b5da f7b1 792d 9fb3 a9ea 7fb3 e548 8632
00000030: f522 8d33 8143 07b3 4240 b62f e373 1eb3
00000040: a903 a0b3 b024 5bb4 860d f233 3edd b1b4
00000050: 8548 b534 2bc1 4235 db76 2234 6383 03b4
00000060: 3866 aa31 1e50 fbb2 3aa0 83b3 312b 14b3
00000070: e9f0 e331 6df9 f4b2 2aaa 0333 31c5 bb32
00000080: bc86 d8ae 219a fbad 9e9c 7d2e b3e1 1aaf
00000090: ffa7 0b30 458f 87af 0927 832e 0024 072e
000000a0: 75a1 3d34 e532 abb5 972a 1736 f634 1734
000000b0: 038c 0436 d35e c6b5 2adf 4235 9a57 3935
000000c0: 73df 7335 5f60 b7b5 a961 a5b4 678a 00b6
000000d0: 01a7 2536 dea5 b536 b017 ec34 d694 f4b5
000000e0: 2f5b 3dae 8f7c bfaf 8a53 bfaf 4f19 17b0
000000f0: 9521 de30 2cfc 4ab0 0952 bd2f c4e2 632e
00000100: 9908 a8b2 7a1a 1db1 1f49 9132 cd5c 7030
00000110: 44a0 8b32 34ea 94b2 6334 5031 f203 c131
00000120: 78c6 b735 d189 01b6 0a48 c636 36fe b034
00000130: 68c2 8a36 4fdd 7bb6 b19a d535 be87 e935
00000140: 7f1d 96af 4e1e 62b0 b5ee bdaf 1c3c 5daf
00000150: 7268 4030 bc39 8eae d656 c42f fa6f f6ac
00000160: 0afb 36b2 aa68 41b4 9df8 36b4 9900 6a33
00000170: e873 3534 3aec ddb3 23f9 98b2 e42d ebb3
00000180: c163 a433 1366 6db1 a2d3 af33 2ce6 6f31
00000190: a2e8 4032 86e3 06b3 9898 8932 cf68 7a32
000001a0: 739c c2b2 4708 5932 4ed4 cab2 faad af31
000001b0: b6df 0a32 a905 c032 7c9c 73b2 3d59 b4b2
000001c0: 55b5 ddb6 610b db36 8b7e aab5 0924 9535
000001d0: 0436 9c37 7439 c236 b879 56b7 3523 31b7
000001e0: d3d1 4936 c546 a336 6618 1137 fb5e b6b6
000001f0: 3e64 00b7 fbc6 3b37 0219 6336 f6c6 8c36

exp_avg_sq f4 [16, 8]
1.18801795e-08 3.4172514e-09 5.335957e-08 8.648854e-09 2.3622666e-08 8.033744e-09 6.3051244e-09 7.778256e-09
2.6810902e-11 1.8672543e-11 4.383395e-11 1.0608081e-11 1.4994482e-10 1.01937146e-10 8.760744e-11 1.6600113e-10
6.185416e-10 9.3000135e-11 2.9537411e-10 3.5063283e-10 5.65329e-10 1.7956657e-10 1.4943144e-10 1.2169024e-09
1.0788248e-08 2.0681874e-09 1.9075307e-08 3.0705256e-09 1.4436398e-09 1.3676844e-09 5.6242526e-09 3.2635399e-09
5.4885547e-11 7.3668415e-12 1.0077672e-10 2.8169942e-11 1.3941413e-11 3.311836e-11 8.0365836e-12 1.2916232e-12
2.3790023e-10 2.5966576e-10 5.0827925e-10 6.598695e-11 5.5872884e-10 6.4300947e-11 3.5092818e-10 1.09680515e-10
9.721497e-09 2.9679421e-09 6.0545555e-09 2.352311e-09 1.0981795e-09 5.2573594e-09 1.9085111e-09 2.439448e-09
3.1835692e-10 9.486654e-11 6.765746e-11 2.2565312e-11 3.3470757e-11 4.5061326e-11 3.4057354e-11 9.1855655e-11
3.4294298e-10 8.19891e-11 4.0328377e-10 2.3497548e-10 1.6433054e-10 3.9665557e-10 1.4870892e-10 1.5905667e-10
9.345632e-10 3.3124883e-10 1.6376963e-09 2.8071984e-10 8.030947e-10 3.1704708e-10 2.2215195e-10 2.2533346e-10
4.1595943e-10 1.4120594e-10 4.3057205e-10 3.1382733e-10 1.8270774e-10 8.570183e-10 7.277375e-11 2.2441707e-10
3.0382397e-10 7.434519e-11 3.251745e-10 7.187203e-11 7.0665657e-10 4.563632e-10 3.14851e-10 8.766068e-10
2.472993e-10 5.5378393e-11 7.9327385e-11 1.3023299e-11 6.061265e-11 1.7373357e-10 2.9986794e-11 9.011593e-11
7.4193713e-09 2.709516e-09 1.3039385e-08 1.0897835e-08 1.2903553e-09 2.196607e-09 6.5782726e-09 8.656815e-09
8.8342e-09 8.075674e-09 8.4280956e-09 3.2694056e-09 1.06172156e-08 1.0104831e-08 8.21696e-09 1.2281086e-08
3.2274908e-10 1.7951686e-10 1.4459191e-10 4.9786224e-11 4.683414e-10 3.405519e-10 1.9405996e-10 1.6424127e-10
00000000: 9519 4c32 ecd4 6a31 782d 6533 1096 1432
00000010: cbea ca32 c804 0a32 76a4 d831 22a1 0532
00000020: c9d4 eb2d d43e a42d a4c8 402e 8d9e 3a2d
00000030: b7dd 242f 8329 e02e 9ba6 c02e 2a85 362f
00000040: ff05 2a30 6c82 cc2e 3662 a22f 2fc3 c02f
00000050: 7e65 1b30 7f6f 452f 364d 242f f23f a730
00000060: 3757 3932 f01f 0e31 0bdb a332 4201 5331
00000070: 8f69 c630 1ef9 bb30 733f c131 cd44 6031
00000080: a263 712e 4e99 012d 409c dd2e 12c9 f72d
00000090: 8b42 752d f5a7 112e 8e61 0d2d a1c7 b52b
000000a0: 7bc9 822f b5c0 8e2f f9b6 0b30 5a1b 912e
000000b0: 0c95 1930 3766 8d2e c0ec c02f a430 f12e
000000c0: 9903 2732 97f4 4b31 6f08 d031 4ba6 2131
000000d0: c2ee 9630 39a4 b431 e226 0331 39a3 2731
000000e0: c104 af2f 1d9d d02e c4c7 942e 917c c62d
000000f0: b934 132e 8b2e 462e 2cc9 152e 23fe c92e
00000100: ef88 bc2f c34b b42e 25b5 dd2f dc2d 812f
00000110: efae 342f 4f10 da2f d781 232f 79e2 2e2f
00000120: 0572 8030 211b b62f 5115 e130 ce53 9a2f
00000130: c4c0 5c30 694c ae2f 3742 742f bbc1 772f
00000140: 16ad e42f f041 1b2f a1b5 ec2f 4587 ac2f
00000150: a8e3 482f 4d93 6b30 fb07 a02e cabf 762f
00000160: 6c07 a72f 9f7c a32e 3ec4 b22f 5b0c 9e2e
00000170: 893e 4230 69e3 fa2f 5717 ad2f b8f5 7030
00000180: 48f4 872f 878e 732e 5971 ae2e b91b 652d
00000190: e349 852e a705 3f2f 21e2 032e c22a c62e
000001a0: 7bed fe31 4f32 3a31 d203 6032 2f39 3b32
000001b0: 5758 b130 1ef3 1631 1907 e231 13b9 1432
000001c0: 39c5 1732 31bd 0a32 28cb 1032 feab 6031
000001d0: 0267 3632 8499 2d32 922a 0d32 cafc 5232
000001e0: e56e b12f 8161 452f 01fb 1e2f 4ef6 5a2e
000001f0: 99bc 0030 6b38 bb2f 065f 552f cf95 342f

exp_avg f4 [16]
-1.92134e-05 4.8832828e-08 3.3149513e-07 -5.231024e-09 1.6078386e-10 1.889358e-06 2.7998283e-06 5.24375e-10
1.0578358e-08 3.988708e-06 4.7930115e-10 1.1878515e-07 2.2186e-08 1.0697964e-08 9.901337e-06 -3.0845133e-06
00000000: 762c a1b7 43bc 5133 58f8 b134 93bc b3b1
00000010: a2c8 302f d995 fd35 afe4 3b36 9c23 1030
00000020: 1cbc 3532 bed6 8536 d2bf 0330 d416 ff33
00000030: 8893 be32 25ca 3732 eb1d 2637 89ff 4eb6

exp_avg_sq f4 [16]
1.8210368e-08 1.29579e-10 2.0752262e-09 8.421924e-09 4.7765035e-11 8.476714e-10 6.0057523e-09 8.357126e-10
3.0738507e-09 2.9975702e-09 9.764037e-10 5.508034e-10 3.6469855e-10 1.7583222e-08 9.337181e-09 1.3182387e-09
00000000: 066d 9c32 3f79 0e2f c49b 0e31 03b0 1032
00000010: a612 522e 9201 6930 285b ce31 0cb8 6530
00000020: c13b 5331 d0fd 4d31 2732 8630 5867 1730
00000030: c27e c82f ea09 9732 5b69 2032 672d b530

exp_avg f4 [8, 16]
2.018231e-05 -5.987796e-09 8.87963e-07 5.297699e-08 4.3134674e-10 5.841017e-07 5.466045e-07 -5.24533e-10
-4.180599e-09 5.6637823e-06 -2.4558042e-10 -1.31767965e-08 -4.5396336e-09 9.860309e-09 -8.638124e-06 1.3287658e-06
8.281001e-06 -2.331673e-09 3.4521116e-07 -2.0413323e-08 8.3572524e-11 2.9368428e-07 1.4462037e-07 9.893737e-11
-2.592677e-09 2.35615e-06 -1.1917854e-10 -3.6467946e-09 -4.32117e-10 3.70754e-10 -2.3399484e-06 -1.5871466e-07
2.9838272e-06 -4.738555e-10 2.1563552e-07 4.0549426e-09 -6.816836e-11 1.417639e-07 1.3360871e-07 -1.0284474e-10
-1.0276245e-09 1.0199068e-06 -4.14399e-11 -2.2720395e-10 -4.4150647e-10 9.11792e-10 -1.6192476e-05 6.717088e-08
6.409879e-06 -3.8233257e-09 5.554629e-08 1.36153195e-08 9.786467e-12 8.459648e-08 8.4863725e-09 2.0553426e-10
-6.9177025e-10 1.5084695e-06 -6.003187e-11 -1.286256e-08 2.2067558e-11 8.3365453e-10 -2.9450293e-05 1.2092348e-06
-1.4894536e-06 1.5557409e-09 1.0789447e-07 -2.1171573e-09 1.1888032e-10 5.0721823e-08 -2.4573696e-08 3.2546046e-11
1.0118065e-09 -4.3059395e-10 -8.049158e-13 6.3304686e-09 -3.1511768e-10 1.3754872e-09 2.1917187e-05 -4.7203775e-07
-3.7006562e-06 2.252722e-09 -1.2604316e-07 -2.4147546e-08 -7.470149e-11 -9.236924e-08 1.2824922e-08 -5.6656794e-11
1.5120855e-10 -1.3274729e-06 4.045327e-11 7.718522e-09 7.564351e-11 -6.7089917e-10 1.8686047e-05 -1.1364463e-06
-8.479167e-06 3.3953254e-09 -2.3073238e-07 -5.5710205e-09 5.1925804e-11 -2.3158638e-07 -1.01237596e-07 3.92383e-11
2.49118e-09 -2.2016534e-06 1.0037267e-10 9.114008e-09 5.0488678e-15 -8.6956675e-10 1.6735148e-05 -7.140576e-07
-9.997871e-06 4.2656207e-09 -2.739852e-07 -1.378634e-08 6.281543e-11 -2.730056e-07 -1.5873385e-07 1.432519e-10
3.1265923e-09 -2.5837028e-06 1.1184754e-10 1.21849215e-08 -1.6580662e-10 -1.1786941e-09 1.9905414e-05 -1.1569583e-06
00000000: 2e4d a937 36bd cdb1 5a5c 6e35 d188 6333
00000010: a822 ed2f 2acb 1c35 60ba 1235 ba2e 10b0
00000020: f0a4 8fb1 850b be36 5f02 87af 2a60 62b2
00000030: 0afb 9bb1 1966 2932 76ec 10b7 0c58 b235
00000040: a1ee 0a37 3a3b 20b1 7655 b934 5f59 afb2
00000050: 26c7 b72e a9ab 9d34 f248 1b34 ca90 d92e
00000060: db2a 32b1 591e 1e36 c709 03af 179b 7ab1
00000070: 108f edaf fdd2 cb2f 0208 1db6 276b 2ab4
00000080: c33d 4836 9e40 02b0 7189 6734 a753 8b31
00000090: 60e7 95ae c437 1834 1576 0f34 7128 e2ae
000000a0: 533c 8db0 bbe3 8835 2e41 36ae 3ad0 79af
000000b0: 83b8 f2af a8a1 7a30 14d5 87b7 953f 9033
000000c0: 7114 d736 545e 83b1 cb91 6e33 cfe8 6932
000000d0: 542a 2c2d 68ab b533 76cb 1132 c0fc 612f
000000e0: 0127 3eb0 9e76 ca35 f002 84ae 23fa 5cb2
000000f0: b91b c22d 3927 6530 060c f7b7 fe4c a235
00000100: 3ce9 c7b5 c4d1 d530 9db3 e733 6d7d 11b1
00000110: d6b5 022f 3cd9 5933 2116 d3b2 9723 0f2e
00000120: c70f 8b30 b6b8 ecaf 4c90 62ab 6483 d931
00000130: df3c adaf a70b bd30 cdda b737 606c fdb4
00000140: ca58 78b6 4ece 1a31 7b56 07b4 046d cfb2
00000150: 3345 a4ae 875c c6b3 9a54 5c32 e12d 79ae
00000160: 6c41 262f 9f2b b2b5 55ea 312e 6b9a 0432
00000170: 8357 a62e 556a 38b0 fbbf 9c37 ff87 98b5
00000180: bf41 0eb7 3253 6931 3cbf 77b4 376b bfb1
00000190: 425f 642e fba9 78b4 f567 d9b3 6692 2c2e
000001a0: 4d31 2b31 1ec0 13b6 cab8 dc2e d593 1c32
000001b0: 96e7 b527 5206 6fb0 7562 8c37 aaad 3fb5
000001c0: 87bc 27b7 cc90 9231 3d18 93b4 f7d8 6cb2
000001d0: f221 8a2e 9b91 92b4 6e70 2ab4 d381 1d2f
000001e0: 98db 5631 ad63 2db6 91f4 f52e da55 5132
000001f0: 6a4e 36af 9dff a1b0 8dfa a637 c948 9bb5

exp_avg_sq f4 [8, 16]
6.8523818e-09 4.2771685e-11 1.2825007e-09 1.6312319e-08 4.5524418e-11 9.499903e-10 2.5773417e-09 3.862286e-11
3.1472927e-10 4.8447415e-09 1.1741146e-09 1.7875773e-10 1.1290999e-10 9.619746e-09 2.7159466e-08 1.7417194e-10
4.212065e-10 9.6098816e-11 1.5415221e-09 9.638013e-10 6.226273e-12 1.806166e-10 2.7126132e-10 1.6967313e-11
1.6406844e-10 5.133408e-10 3.710181e-11 2.1399978e-10 1.9254858e-11 7.8620316e-10 1.3288438e-09 3.0153942e-11
5.982494e-10 6.709121e-11 2.4656004e-09 2.7642613e-09 2.4438904e-12 6.55116e-11 6.686041e-10 1.5622881e-11
3.4202485e-10 3.4426106e-10 1.6139587e-10 1.5710414e-10 2.628294e-11 1.7553234e-09 2.031448e-09 1.7725444e-11
7.8349205e-10 3.2596682e-11 3.7022144e-10 2.4095195e-09 1.6011898e-11 3.1263346e-11 4.0275716e-10 3.047931e-12
1.49679e-10 5.1607896e-10 9.0572515e-11 6.699962e-11 6.6449064e-12 1.2595995e-09 3.2420842e-09 2.0125136e-11
3.4226202e-10 1.8337226e-11 8.342569e-11 7.0156253e-10 2.7435966e-12 4.7883947e-11 3.9881462e-10 2.4137553e-11
4.8805633e-11 2.1746172e-10 5.2165185e-11 1.2448771e-11 3.1250665e-11 8.480008e-10 2.2651638e-09 3.5619244e-11
1.235692e-09 1.8192782e-11 7.824684e-10 2.2110933e-09 1.2933962e-11 4.204855e-11 4.0328155e-10 8.9438465e-12
7.516323e-11 1.2116252e-10 3.7351545e-11 4.892709e-11 1.1306566e-11 8.4110735e-10 2.791547e-09 1.8416251e-11
3.3741585e-10 9.196923e-11 8.246102e-10 9.721152e-10 2.939177e-12 2.7653527e-10 4.8137744e-10 1.2567434e-11
2.1686845e-10 5.676419e-10 1.2101951e-10 2.1080981e-10 1.1841873e-11 2.837629e-09 1.7514707e-09 4.084042e-11
2.0425073e-10 2.809212e-11 3.180728e-10 5.9955957e-10 8.5767266e-13 1.04697334e-10 3.0414793e-10 2.8577366e-11
2.3050695e-10 5.7864435e-10 1.5400528e-10 3.1892874e-11 2.935261e-11 3.6394305e-09 1.7325535e-09 6.4369864e-11
00000000: 3072 eb31 a31c 3c2e fb43 b030 2b1f 8c32
00000010: f037 482e d090 8230 131d 3131 79dd 292e
00000020: 3506 ad2f cc76 a631 7c5e a130 d48b 442f
00000030: ac4a f82e 1744 2532 4c4c e932 0b81 3f2f
00000040: 8b8f e72f d352 d32e 7ddd d330 be76 8430
00000050: 4811 db2c 0e97 462f a320 952f fe3e 952d
00000060: 2965 342f 261b 0d30 ed2c 232e 954b 6b2f
00000070: 165e a92d 211c 5830 89a2 b630 529e 042e
00000080: 0f72 2430 fe88 932e 4d6f 2931 66f5 3d31
00000090: 37f9 2b2c c10f 902e d5c8 3730 9a6b 892d
000000a0: b807 bc2f 7042 bd2f e674 312f e2bc 2c2f
000000b0: eb2f e72d f43f f130 9c99 0b31 27ea 9b2d
000000c0: 5a5d 5730 9a5c 0f2e 0988 cb2f b794 2531
000000d0: 97d7 8c2d 667f 092e 086b dd2f a57a 562c
000000e0: e592 242f d4db 0d30 cb2b c72e 6f55 932e
000000f0: ffcb e92c 381e ad30 59cb 5e31 c705 b12d
00000100: 1929 bc2f c34b a12d 7d74 b72e 13d8 4030
00000110: 3e10 412c 8898 522e 2b40 db2f f050 d42d
00000120: 42a6 562e 081a 6f2f c76c 652e 4800 5b2d
00000130: 1f71 092e c018 6930 2fa9 1b31 b4a7 1c2e
00000140: 0cd5 a930 8106 a02d 5215 5730 f7f1 1731
00000150: 6389 632d 75ee 382e d5b4 dd2f 8157 1d2d
00000160: 2349 a52e 3838 052f 1a46 242e 022f 572e
00000170: 3fe8 462d ab33 6730 6ad5 3f31 b6fd a12d
00000180: 0f7f b92f 133e ca2e c9aa 6230 439b 8530
00000190: 81d3 4e2c e106 982f ed51 0430 b116 5d2d
000001a0: 0b73 6e2f 3f08 1c30 f70f 052f b0c9 672f
000001b0: 0e53 502d 1900 4331 66b8 f030 3a9e 332e
000001c0: 7893 602f d519 f72d c4dc ae2f 41ce 2430
000001d0: d469 712b 5c3b e62e 0435 a72f 825e fb2d
000001e0: f071 7d2f 7a0e 1f30 a254 292f 2f44 0c2e
000001f0: 1a18 012e 8a19 7a31 cf1e ee30 038d 8d2e

exp_avg f4 [8]
-8.085299e-05 -4.5378983e-05 1.1912206e-05 -3.5075536e-05 1.2475086e-05 1.43717425e-05 4.335001e-05 5.640465e-05
00000000: 9e8f a9b8 5055 3eb8 89da 4737 121e 13b8
00000010: 164c 5137 2a1e 7137 b8d2 3538 0894 6c38

exp_avg_sq f4 [8]
6.474819e-07 4.7136634e-08 4.0342545e-08 4.883251e-08 3.3112503e-08 6.735947e-08 5.287725e-08 5.013575e-08
00000000: 9ece 2d35 4773 4a33 1945 2d33 eabb 5133
00000010: 9537 0e33 43a7 9033 271b 6333 d754 5733

exp_avg f4 [1, 8]
0.00017726047 -0.0001117214 0.0004710781 -0.00047165857 0.00025923815 2.2552085e-05 0.00032537515 0.00031682305
00000000: ffde 3939 f84b eab8 08fb f639 f148 f7b9
00000010: 5bea 8739 3c2e bd37 1d97 aa39 451b a639

exp_avg_sq f4 [1, 8]
4.7879353e-06 1.1242308e-06 2.9324913e-06 1.2774556e-06 1.5176377e-06 1.7862153e-06 1.0885309e-06 1.0916117e-06
00000000: 0da8 a036 47e4 9635 d1cb 4436 0a75 ab35
00000010: a2b1 cb35 e4bd ef35 a319 9235 7e83 9235
