notebooks/lightning_logs/version_66/checkpoints/epoch=99-step=600.ckpt (torch, 23067 bytes, 30 tensors)

front_linear.weight f4 [8, 2]
000000 f8 b1 0c 40 09 3a 16 bf 59 04 91 be 4c 23 91 3f
       2.1983624 -0.58682305 -0.2832363 1.1338897
000010 6f 0c 00 40 c1 89 f5 be 22 01 92 bf 10 fa fb be
       2.000759 -0.4795666 -1.1406596 -0.4921422
000020 23 24 dc 3f df 66 71 3e 7a 8c 9e 40 df 0a 8d 40
       1.7198528 0.23574398 4.954648 4.407577
000030 f2 e0 87 bf 5d e2 49 c0 49 2a 52 3f 8a ba 48 3f
       -1.0615523 -3.154441 0.8209577 0.78409636

front_linear.bias f4 [8]
000000 95 36 ca bf 5f e3 d8 bf 68 fe a9 3f c6 d2 cb bf
       -1.5797907 -1.6944388 1.3280764 -1.5923698
000010 c5 de bf 3f 78 06 fc 3f e5 4b 03 c0 4b 14 9d 3f
       1.4989859 1.9689474 -2.0515072 1.2271818

transformer_encoder.layers.0.self_attn.qkv_proj.weight f4 [24, 8]
000000 92 24 61 40 f7 16 53 40 16 16 ca bf ed 8b 41 40
       3.517857 3.2982767 -1.578799 3.0241654
000010 c8 5c f3 bf ad 9d 03 40 27 0d 2f bf a7 9f 77 c0
       -1.901269 2.0564988 -0.68379444 -3.8691194
000020 e9 4c 69 c0 bd 21 2c c0 46 fd 36 40 d6 45 89 c0
       -3.6453192 -2.6895592 2.8592086 -4.289775
000030 8b f1 4f 40 f7 a0 5a 3e fc 27 09 c0 35 c1 06 40
       3.2491176 0.21350466 -2.1430655 2.1055424
000040 cd 3a 5c 40 29 36 b9 3f 2d b9 8b c0 93 e2 c5 40
       3.441089 1.4469653 -4.3663545 6.183908
000050 4f 64 8f c0 e4 b4 4e c0 3c 9b b3 40 9b bc 28 c0
       -4.4809947 -3.2297907 5.6126995 -2.6365116
000060 b5 74 93 c0 b2 28 00 c0 9f d6 3c 40 33 5a d2 c0
       -4.6079965 -2.0024838 2.9505994 -6.5735106
000070 e4 e2 8f 40 ef 41 51 40 ac 6d 82 c0 7f 32 45 40
       4.4964466 3.2696493 -4.0758877 3.081207
000080 07 6e a2 3d 72 b2 d3 bf d8 61 03 40 df ce db bd
       0.07931142 -1.6538832 2.052847 -0.10732817
000090 fb dd b2 bf 62 49 62 bf 28 e2 e9 3f 8f 76 7c 40
       -1.3973993 -0.88393223 1.8272142 3.9447362
0000a0 91 fe 22 c0 02 42 da bf 0c d9 64 c0 7b 1e ef 3e
       -2.5467875 -1.7051394 -3.5757475 0.46702942
0000b0 7c 27 03 3e d9 dd dc bf ea 7e 96 3f 97 0b 9f c0
       0.12808031 -1.7255203 1.1757481 -4.970165
0000c0 5b 66 04 41 e5 4e a1 40 ad 50 3a 3f a2 21 fa be
       8.274989 5.0408807 0.7277935 -0.48853785
0000d0 2d a5 14 40 a7 54 b4 40 d4 16 9e c0 4f 25 f3 bf
       2.3225815 5.6353335 -4.9402866 -1.8995761
0000e0 ec 42 db c0 5e 39 82 c0 67 90 84 c0 f0 f1 ae 3e
       -6.851919 -4.069503 -4.1426272 0.3416896
0000f0 2b 84 1b c0 ba 66 90 c0 f8 76 77 40 73 8f b8 3e
       -2.429942 -4.51254 3.8666363 0.36046943
000100 73 48 ec 3e 38 3c c0 3f f3 e2 35 c0 5f 98 ea 3e
       0.46149024 1.5018377 -2.841977 0.45819375
000110 7d f0 6d bf aa 8a c1 3c c2 0d d1 3d 3f 2b ab bf
       -0.9294508 0.02362569 0.10207702 -1.3372573
000120 44 73 0e bf 86 9c a4 bf 88 7b 32 3f ff 7f 9d be
       -0.5564463 -1.2860267 0.69719744 -0.30761716
000130 0f 10 07 3e c5 a2 27 c0 85 03 1a 40 0c b9 33 3f
       0.1318972 -2.6193097 2.4064648 0.70204234
000140 d7 d9 b1 bf 90 9e 04 c0 fe 9e de 3f bf e9 37 bf
       -1.3894604 -2.072178 1.739227 -0.71841043
000150 2d 60 8c 3f 8e 82 92 c0 c6 40 82 40 7a fb f0 3f
       1.096685 -4.578437 4.070407 1.8826745
000160 84 02 57 bd 6c 55 17 bd ae a2 97 3f b9 d6 aa be
       -0.052492633 -0.0369467 1.1846521 -0.33366945
000170 c6 ff 2a 3f 0f 6c 6b 3f e2 2d 38 bf 0f b0 4c 3f
       0.6679653 0.9196176 -0.7194501 0.79956144
000180 f4 0f 70 c0 1f 51 29 bf 3e 06 83 c0 18 3c 8a bf
       -3.7509737 -0.66139406 -4.094512 -1.0799589
000190 ce 48 1e c0 8c 00 0b c1 a1 35 93 40 c3 c5 d0 3f
       -2.4731936 -8.6876335 4.6002965 1.6310352
0001a0 a2 00 52 c0 31 c8 8f bf f0 d2 65 c0 d7 81 47 bf
       -3.2812886 -1.1232969 -3.5909996 -0.77932495
0001b0 8a e6 e5 bf 35 86 04 c1 5b 57 95 40 7e c9 93 3f
       -1.796098 -8.282765 4.6669135 1.1545866
0001c0 6d fc 43 40 b2 9c a6 3f 22 7c 69 40 30 13 8c 3e
       3.0622818 1.301657 3.6482015 0.2735839
0001d0 96 f2 e5 3f 06 90 ff 40 29 92 8c c0 e2 d9 84 bf
       1.7964656 7.986331 -4.392842 -1.0378993
0001e0 c6 51 39 c0 6a 41 5f bf c7 21 80 c0 ca c2 c8 be
       -2.895616 -0.8720919 -4.004123 -0.39211112
0001f0 55 20 ee bf 9a df 08 c1 5a f6 8d 40 4e 3c 80 3f
       -1.8603617 -8.55459 4.436322 1.0018404
000200 96 ca 5f 40 ba c4 92 40 e4 df 4d c0 eb e6 04 3f
       3.4967399 4.5865145 -3.2167902 0.5191485
000210 e8 32 93 bf 3d c9 fc 40 8d ad d7 c0 78 f8 84 3f
       -1.149991 7.899565 -6.7399354 1.0388327
000220 59 4e 9e 40 cc c5 91 40 b9 f2 52 c0 35 57 a5 3f
       4.947064 4.555395 -3.2960646 1.2917238
000230 24 0a f2 bf 10 2f 05 41 1a 6d bd c0 92 71 67 be
       -1.8909345 8.32399 -5.919568 -0.22601917
000240 7b cd 8e c0 86 bc 7c c0 e5 86 47 40 53 45 b6 bf
       -4.462583 -3.9490066 3.1176083 -1.4239906
000250 4e 8e d1 3f 43 62 fe c0 41 66 c9 40 7c ff 7b be
       1.6371553 -7.949495 6.293732 -0.24609178
000260 1d e5 8e 40 00 c1 a8 40 94 10 64 c0 1a 7a 8f 3f
       4.465468 5.2735596 -3.5635118 1.1209137
000270 de 58 49 bf d7 96 04 41 d9 ba dd c0 af 3d a9 3e
       -0.78651226 8.286826 -6.9290586 0.33054873
000280 35 32 0f be 2c 19 17 bf e6 36 f5 3e 58 a8 83 3e
       -0.13983996 -0.59022784 0.47893447 0.25714374
000290 e1 9e 6d 3d 52 c0 de 3f 30 97 e2 bf 26 8e 37 3f
       0.058012847 1.7402442 -1.7702389 0.71701276
0002a0 89 6f 43 3e a1 c1 21 bf 8b 37 e1 3e a6 d1 d0 3f
       0.19085516 -0.6318608 0.43987688 1.631398
0002b0 fa 96 8e bf d4 58 33 c0 ee 90 1d 40 4a b8 6b be
       -1.1139824 -2.8022966 2.4619708 -0.2301952
0002c0 72 20 8a c0 27 e0 5e c0 53 eb 28 40 67 25 34 c0
       -4.3164606 -3.4824312 2.639363 -2.8147829
0002d0 51 2f 4b 40 b5 88 4b c0 1c a0 61 be 44 ce 22 40
       3.174763 -3.180219 -0.22033733 2.5438395
0002e0 7c e4 ad 3f c2 ea 54 3f 21 44 e2 3d 7d 3b 0f 3f
       1.3585353 0.8317071 0.11048151 0.55950147
0002f0 7e 14 c9 be d4 80 26 40 ea a4 37 c0 81 15 fe bd
       -0.39273447 2.601613 -2.8694406 -0.12406445

transformer_encoder.layers.0.self_attn.o_proj.weight f4 [8, 8]
000000 eb 94 61 3f f9 84 ca 3f 96 27 4c 40 08 7e f3 bf
       0.88117856 1.582183 3.1899161 -1.9022837
000010 ed 75 e6 be 9b 3e 14 c0 75 f2 0c 40 91 eb e6 3e
       -0.45011845 -2.3163211 2.2022984 0.45101598
000020 74 76 07 c0 8c 6e 2f bf 67 b1 a7 bf 09 c1 c4 3f
       -2.1166048 -0.68528056 -1.3101014 1.537141
000030 42 8b 27 40 30 90 b1 c0 03 1d bc bf 09 36 96 40
       2.6178746 -5.548851 -1.4696354 4.694096
000040 b6 e1 a0 be aa bb cb bf 72 f1 ea bf 1f fa 49 3f
       -0.31422204 -1.5916646 -1.8354933 0.7889728
000050 94 bf cc bd 57 0a 22 40 42 37 85 bf 27 a7 fd bf
       -0.09997478 2.531881 -1.0407488 -1.9816636
000060 c7 42 4e bf 35 4d 82 bf a5 1c fd bf 4f ea 40 3e
       -0.80570644 -1.0179812 -1.9774367 0.18839382
000070 b8 b5 5f 3e a2 40 0f 40 3c cd d7 bf 25 67 cd be
       0.21846664 2.2383199 -1.6859508 -0.40117756
000080 c9 2c 77 bf bd ec b0 bf 8b 33 09 c0 ac 07 ae 3f
       -0.9655271 -1.3822247 -2.143771 1.3596091
000090 90 8e 19 bc 97 2c 2f 3e 38 f9 f6 3f 29 3e 63 3e
       -0.009372368 0.17106853 1.9294806 0.22191681
0000a0 6e cd ae bf 9c 7d 04 c0 96 ce 45 c0 d5 4e e8 3f
       -1.3656442 -2.0701666 -3.090734 1.8149058
0000b0 41 9c a3 be 8b 77 15 40 58 38 82 bf de 07 e0 be
       -0.3195515 2.3354213 -1.0173445 -0.43756002
0000c0 27 00 25 40 b2 08 4c 40 10 83 59 40 4f 96 4a c0
       2.5781343 3.1880307 3.3986244 -3.165424
0000d0 8f 5f 29 be 64 b6 87 3f c8 ee 26 3f 99 03 0d c0
       -0.16540359 1.0602536 0.652081 -2.2033446
0000e0 82 3a 10 40 4d af 07 40 1b 4e 62 40 7e 50 d5 bf
       2.253571 2.1200745 3.5360172 -1.6665189
0000f0 1f 89 0e 3f fe 42 00 c0 b2 2f 24 40 b7 42 37 bf
       0.5567798 -2.0040889 2.565411 -0.71586174

transformer_encoder.layers.0.self_attn.o_proj.bias f4 [8]
000000 c5 bd 97 c0 b1 7e db 3f e1 f5 8b 40 06 1e 94 40
       -4.741915 1.7148038 4.3737645 4.628665
000010 1d fe 9a 40 81 8b ac 40 17 b0 45 c0 a6 39 cc c0
       4.8435197 5.3920293 -3.0888727 -6.382037

transformer_encoder.layers.0.linear_net.0.weight f4 [16, 8]
000000 26 d9 f2 3f 98 98 21 c0 d4 1e 22 bf 84 d8 b3 be
       1.8972518 -2.5249386 -0.6332829 -0.35126126
000010 ca 34 0c c0 53 87 3a c0 e6 a7 2f 40 4f 7d 03 40
       -2.190722 -2.9145095 2.7446227 2.0545232
000020 03 61 a0 3f 5c 8d 46 c0 74 bf 19 c0 d0 42 07 c0
       1.2529606 -3.102378 -2.4023104 -2.113453
000030 1d 11 de bf eb ee 0b c0 ca aa 1f 40 f7 2c 05 40
       -1.7348973 -2.1864574 2.4947991 2.0808694
000040 22 07 0d c0 44 5c 25 c0 05 26 46 be 3b ad 5e 3e
       -2.2035604 -2.5837564 -0.19350441 0.2174577
000050 65 c9 ac 3c c0 24 26 3f 25 07 c7 3f 48 a9 20 be
       0.021092126 0.64899826 1.5549055 -0.15689576
000060 ff 4e 85 bf 25 63 26 c0 b0 2a dd bf db cf 2c c0
       -1.0414733 -2.5998013 -1.7278652 -2.7001865
000070 04 35 7c 3e eb c9 09 be 2d 6b 29 40 8b 80 fe bf
       0.24629599 -0.13455932 2.6471665 -1.9882978
000080 af 9b 8c bf ad b3 9e bf 21 d7 33 be eb 37 1a 3f
       -1.0985011 -1.2398583 -0.17562534 0.60241574
000090 bd 6e 0b bf 4e 5c 03 bf 57 70 4f 3f 4a 37 22 be
       -0.5446585 -0.5131272 0.8103079 -0.15841404
0000a0 53 8a aa 40 e0 d1 90 bf a0 8d a7 3e 26 15 b2 3f
       5.3293853 -1.1314049 0.3272524 1.3912704
0000b0 a5 8e 87 bf 5e b5 bf c0 08 dc eb 3f f4 7e 99 40
       -1.0590407 -5.9908895 1.8426523 4.796747
0000c0 a7 a1 90 bf 1b 51 25 c0 61 7e 27 c0 c7 69 10 c0
       -1.1299332 -2.5830753 -2.6170886 -2.2564561
0000d0 3b d8 32 3e 2a bd 4d 3f a4 07 26 40 f9 f7 4b bf
       0.17465298 0.80366766 2.5942163 -0.7967525
0000e0 12 5f f1 bf 28 09 3a c0 ac 0f 49 bf 2d fb 05 c0
       -1.8857138 -2.9068089 -0.7853954 -2.0934556
0000f0 38 39 16 3f 1d 44 88 3c d3 ba 36 40 d1 6b 3f 3f
       0.5868106 0.016634041 2.8551528 0.7477389
000100 60 72 82 3f d2 d9 7e c0 f1 35 9a 3e 53 96 1c bf
       1.0191154 -3.9820447 0.3011928 -0.61166877
000110 bb be b8 bf 99 42 01 c0 3b a0 8b 40 ba 0d 67 3f
       -1.4433206 -2.0196898 4.3633094 0.9025532
000120 4a e0 51 40 eb 0c df bf a4 30 00 bf 39 dd 51 bf
       3.2793145 -1.7425817 -0.5007422 -0.81978184
000130 83 34 0a 3f 79 20 54 c0 f3 0f 36 40 08 65 c6 40
       0.53986377 -3.314482 2.8447235 6.199833
000140 c8 dd 1b 40 df d6 15 c0 e7 55 89 bd a5 ce 10 be
       2.4354115 -2.3412397 -0.06705838 -0.14141329
000150 16 a7 02 c0 99 c3 33 c0 0c 88 3d 40 90 8a cd 3f
       -2.041448 -2.8088133 2.9614286 1.6057911
000160 1f db da 3f 63 a1 2a c0 bb 7a 12 c0 3a 10 04 c0
       1.709812 -2.6661003 -2.2887409 -2.0634904
000170 16 36 c0 bf 0a 51 7d bf fa 8d 06 40 b0 a4 00 40
       -1.5016506 -0.9895178 2.1024156 2.0100517
000180 c0 f0 46 bf ff 3c 17 c0 5b 82 a5 be 1e 7e 7f be
       -0.77711105 -2.363098 -0.32326016 -0.24950454
000190 2c e8 57 3f 1e 89 d2 3f 7d d1 bc 3f 69 80 79 3f
       0.8433864 1.6448095 1.4751431 0.97461563
0001a0 dd 29 c8 bf 43 44 2b c0 58 a7 ad bf df 7a bd bf
       -1.5637776 -2.6760414 -1.3566694 -1.4803122
0001b0 e3 dc 47 40 78 f4 a3 3f 50 6e 36 40 15 c6 62 bf
       3.1228569 1.2808981 2.850483 -0.885835
0001c0 d2 ba b0 bf 60 4e fb bf 44 d8 13 3f c0 3c 30 3f
       -1.3807013 -1.9633293 0.5775187 0.688427
0001d0 a6 eb 4e bf bb 3a 8c 3f d5 a5 d8 3f 21 86 49 3e
       -0.8082832 1.0955423 1.6925608 0.19680072
0001e0 aa bc cf bf ac 59 53 c0 f5 a3 ff be bf 50 4d bf
       -1.6229451 -3.3023481 -0.49929777 -0.80201334
0001f0 3c 07 2b bf c7 5d d3 3f 92 f8 66 40 0f ec e1 bd
       -0.66807914 1.6512994 3.6089215 -0.11031353

transformer_encoder.layers.0.linear_net.0.bias f4 [16]
000000 e4 e0 ac c0 46 0b 27 c0 78 30 a0 bf d4 10 19 c0
       -5.4024525 -2.610063 -1.2514791 -2.391652
000010 7b a1 33 c0 ea aa 0f c0 ce 9b 0d c0 9c 13 cc bf
       -2.806731 -2.2448068 -2.2126346 -1.5943484
000020 d1 84 7c c0 b7 2b 31 bf e3 b9 a7 c0 af fe 14 c0
       -3.9456065 -0.6920733 -5.2414412 -2.3280447
000030 8c 5a be bf 96 ea e6 c0 0b fd c7 be db 74 67 c0
       -1.4871383 -7.216136 -0.39060244 -3.6165073

transformer_encoder.layers.0.linear_net.3.weight f4 [8, 16]
000000 56 bf 33 3f 74 57 a9 3f 53 18 33 bf e4 bd 5e be
       0.7021383 1.3229814 -0.6995899 -0.21752125
000010 c0 09 05 3f 0f 72 44 c0 be b8 46 3e 62 27 44 3f
       0.51968 -3.0694616 0.19406411 0.76622593
000020 3c 60 66 bf 72 d7 2c c0 8f 42 01 40 77 8b d7 bf
       -0.8999059 -2.7006497 2.0196874 -1.6839436
000030 b2 bb 2e bf 14 b2 47 bf 2d 6f 1d 3f a2 76 b9 3e
       -0.6825515 -0.780061 0.61497766 0.36223322
000040 1b ca 56 3f 96 9f ee be 8f 56 a0 3d c3 e3 cd 3f
       0.8390214 -0.4660613 0.0782901 1.6085132
000050 b0 09 30 3f ab 7b 13 40 9f 17 d0 3f 79 6a fc 3f
       0.6876478 2.304423 1.6257209 1.9719993
000060 3f a3 66 40 f1 9e d3 bc b8 b1 69 3f dd dc 86 3f
       3.6037138 -0.025832625 0.912868 1.0536152
000070 a3 86 df 3e 07 bd 22 40 e1 b4 e1 be ca 28 56 be
       0.43657407 2.5427873 -0.44083312 -0.20913997
000080 cf 05 07 c0 93 2f 9f 3f 49 6d 7d bf 4e 73 b2 3f
       -2.1097295 1.2436393 -0.9899488 1.3941438
000090 00 eb 41 3e 6c 66 dc 3b ce c0 ac 3f ce a0 86 3f
       0.18937302 0.006726077 1.3496339 1.0517824
0000a0 99 8d d6 bf 12 16 e8 3f f6 86 3e c0 cb ee 58 bf
       -1.6761962 1.8131735 -2.9769874 -0.8473937
0000b0 16 b6 d3 bf 3f d8 6b bf 2b 42 89 3f 41 7c b7 3f
       -1.6539943 -0.9212684 1.0723318 1.4334794
0000c0 96 0e 42 3f b8 51 cf be 62 a8 c6 3f 00 46 cb bf
       0.75803506 -0.40492034 1.5520136 -1.5880737
0000d0 c6 e4 cb 3e 0b 46 60 3f 80 07 8e bf c4 cb d0 3c
       0.39822978 0.8760688 -1.1096039 0.025487788
0000e0 29 fd 04 3f 6f 60 c7 bd c5 b9 58 bd f2 4e da 3f
       0.5194879 -0.0973519 -0.05291154 1.7055342
0000f0 9c 28 7f 3f 26 42 87 3f be 74 09 bf f7 93 08 3f
       0.9967134 1.0567062 -0.5369376 0.53350776
000100 ba d2 7b 3f e7 c0 f9 3e b7 51 37 c0 fa c1 80 3f
       0.9836842 0.48779985 -2.8643625 1.0059197
000110 80 bb 23 bf 79 b9 c1 c0 2d 79 19 bd e5 20 0a 3f
       -0.6395798 -6.0538907 -0.037469078 0.53956443
000120 d8 1a 6f 3e ad da 02 c0 bf c1 af 3f af 42 42 c0
       0.23350084 -2.044597 1.3731002 -3.03532
000130 05 2e 0a bf 38 23 bc bf 3a 18 78 3f bf 54 a4 3f
       -0.5397647 -1.4698248 0.96911967 1.2838362
000140 39 e7 ca 3f 9a de 07 bf c7 7f 97 3f 14 8a 51 bf
       1.5851814 -0.5307404 1.183587 -0.81851315
000150 d8 67 20 be 04 98 c4 3d 5a 5d ba be a0 ce 39 be
       -0.15664613 0.09599307 -0.36399347 -0.18145227
000160 61 03 b1 3f 23 8d ad be 00 18 0d 3f 08 83 86 3f
       1.3829156 -0.3389674 0.55114746 1.0508738
000170 1b f8 cb 3f be 04 c7 3f 3f 5f 75 bf 62 4f aa 3d
       1.5935091 1.5548322 -0.9584846 0.08315922
000180 54 b4 24 40 18 8c 7d bf 37 40 b8 3f 87 52 ba bf
       2.5735064 -0.9904189 1.4394597 -1.4556435
000190 bb cc 11 3e 10 93 4f 3e 30 19 dd bf d6 00 bb bf
       0.14238255 0.20270944 -1.7273312 -1.460963
0001a0 47 b4 74 3f 89 6f 0f c0 bc 42 1f 40 b4 54 2a c0
       0.9558758 -2.2411826 2.4884481 -2.6614199
0001b0 72 d5 5d 3f 87 45 4f 3f 1b 5a 1a bf 1f 7b 87 bf
       0.86653817 0.80965465 -0.6029374 -1.0584449
0001c0 3e 85 3d c0 3d 67 10 3f 25 7d 4e bf 9a 17 bd 3f
       -2.9612575 0.5640753 -0.80659705 1.4772828
0001d0 43 41 91 bf ee 5e c6 3f 75 e6 8d 3f 99 d1 c5 bd
       -1.1348041 1.549772 1.1085955 -0.09659118
0001e0 4e cc 1b c0 2d d3 19 be b3 35 02 c0 92 1f 70 bf
       -2.4343448 -0.15021963 -2.0345275 -0.9379817
0001f0 f2 67 c6 bf 9e 81 4b bf c2 46 9a 3f f3 3e 73 be
       -1.5500472 -0.79494655 1.2052844 -0.23754482

transformer_encoder.layers.0.linear_net.3.bias f4 [8]
000000 17 c5 8a 3f 38 ff 2d 3f 58 d7 25 c0 20 f2 32 bf
       1.0841397 0.6796756 -2.5912685 -0.69900703
000010 1d ed 0c c0 37 ea 9f bf a1 be ff 3f 8b be 94 3e
       -2.2019722 -1.2493352 1.998005 0.29051623

final_linear.weight f4 [1, 8]
000000 02 c5 83 3f 70 22 62 bf e9 42 2f bb 56 bf 55 bf
       1.0294497 -0.883338 -0.0026742762 -0.8349508
000010 6e 56 28 40 94 ee 02 bf 12 1e a6 3e e7 f0 29 bf
       2.6302752 -0.5114529 0.32444817 -0.6638321

exp_avg f4 [8, 2]
000000 a8 9c e3 bd a9 3c a8 be 56 2b a7 bd c7 b0 70 be
       -0.11113864 -0.3285878 -0.081625625 -0.23504935
000010 5e 6e a7 3d 9d 66 68 3e 47 11 c2 bd 65 8e 88 be
       0.08175348 0.22695394 -0.09475952 -0.26671138
000020 0f 8a dc 3d 19 e8 93 3e 03 7e e5 bc 1a 2a 4d bd
       0.1076852 0.28888014 -0.028014189 -0.05008898
000030 8a ed 79 bd f8 1e 40 be a3 e2 8d 3d a3 cd 4f 3e
       -0.06101755 -0.18761814 0.06927993 0.20293288

exp_avg_sq f4 [8, 2]
000000 e5 64 10 40 87 4f db 41 32 4f 40 40 bc 29 17 42
       2.256158 27.413832 3.0048337 37.790756
000010 87 8b 61 40 4b 19 13 42 d1 2d 16 40 5b a0 c6 41
       3.524141 36.7747 2.3465464 24.828299
000020 e8 f4 5d 40 2b ce 0a 42 dd ac ca 3f 05 c9 c9 41
       3.468073 34.701336 1.5834004 25.223154
000030 8e 21 36 3f c8 21 51 41 fc fe 90 40 d4 ad 3f 42
       0.7114495 13.070747 4.531126 47.919754

exp_avg f4 [8]
000000 cb 8d 89 be f8 bc 25 be b1 d2 91 3e 22 83 aa be
       -0.26865992 -0.16185367 0.28481057 -0.3330317
000010 3d 0a b3 3e f5 11 00 3f 85 99 2d bf a7 d3 76 3e
       0.3496875 0.500274 -0.6781238 0.24104176

exp_avg_sq f4 [8]
000000 82 14 06 43 c2 d3 37 43 b8 d3 31 43 11 3d f1 42
       134.08011 183.82718 177.82703 120.61927
000010 6c fe 27 43 1a 75 f7 42 84 e7 7e 42 97 a5 67 43
       167.99384 123.728714 63.72609 231.64684

exp_avg f4 [24, 8]
000000 29 c8 32 38 75 61 7b 37 9a 95 fa b7 39 de a3 38
       4.262492e-05 1.4983457e-05 -2.9871986e-05 7.813838e-05
000010 cf 54 7c b8 a8 f7 9f b9 e9 63 92 39 9e 73 44 b8
       -6.0160466e-05 -0.00030511362 0.0002792173 -4.683772e-05
000020 2f 45 5e b7 77 8c 03 b6 f6 b4 b1 36 7e 28 c3 b7
       -1.3248339e-05 -1.9602282e-06 5.2960777e-06 -2.3264667e-05
000030 76 2a 74 37 20 e4 d4 38 dd 74 cc b8 a7 b8 96 37
       1.45534195e-05 0.00010151439 -9.7492455e-05 1.7967379e-05
000040 20 1c 00 b8 4a da 64 b7 9b ff fa 37 de 46 85 b8
       -3.054377e-05 -1.3640683e-05 2.9921348e-05 -6.355134e-05
000050 71 36 6a 38 08 8c 79 39 ff fb 5b b9 92 ec c9 37
       5.584065e-05 0.00023798656 -0.00020979343 2.4071229e-05
000060 ae fc df 36 af 33 51 b6 0a 8f 0b b7 12 19 f1 37
       6.6753337e-06 -3.117351e-06 -8.3183495e-06 2.8741113e-05
000070 b8 c1 d3 b7 49 3d 12 b9 cd f7 04 39 f2 e7 8d 36
       -2.5243367e-05 -0.00013946476 0.00012680814 4.2291294e-06
000080 d8 4b 84 37 63 5f 46 b8 65 e1 c6 37 a5 d6 88 37
       1.5770944e-05 -4.7295714e-05 2.3708397e-05 1.6312415e-05
000090 8c aa 82 b6 67 25 0f b9 9f 34 01 39 5c 30 74 b7
       -3.894156e-06 -0.00013651476 0.00012322002 -1.4554793e-05
0000a0 2a 49 8d b8 1e 86 f1 38 0b b7 aa b8 04 bc b8 b7
       -6.737032e-05 0.00011516757 -8.140326e-05 -2.202206e-05
0000b0 af a2 4a b7 0d 03 90 39 fa 2e 8f b9 e6 8a e5 37
       -1.2078016e-05 0.00027468093 -0.00027310086 2.7363607e-05
0000c0 2f c2 23 39 b9 b7 54 b9 46 a0 32 39 dd 57 b4 37
       0.0001561723 -0.00020286338 0.0001703511 2.1498587e-05
0000d0 a9 62 3d 38 b0 dc dc b9 63 ac ef 39 ca a9 38 b8
       4.5152996e-05 -0.00042126095 0.0004571407 -4.4027147e-05
0000e0 c9 56 1d b9 b5 4b 49 39 9d cf 29 b9 3a ee ab b7
       -0.00015005017 0.00019197057 -0.00016194438 -2.0495721e-05
0000f0 f1 4b 35 b8 6d 6a d0 39 af 4e e3 b9 df c5 32 38
       -4.322449e-05 0.00039752145 -0.00043355438 4.262279e-05
000100 e9 74 77 3d 6b d7 4f 3d f5 38 58 bd a6 1b 97 3d
       0.06041423 0.050742548 -0.052788693 0.073783204
000110 e6 bc 8a bd 03 37 2a be 54 7f 13 3e 69 34 78 bd
       -0.06774311 -0.16622548 0.1440404 -0.060596857
000120 1e e0 65 3d 6f cf 42 3d 51 ba 6d bd 26 2f a2 3d
       0.056121938 0.047561105 -0.058039013 0.07919149
000130 2c 35 99 bd 89 98 40 be 2a 74 19 3e 18 eb 87 bd
       -0.07480845 -0.18808188 0.1498572 -0.066366374
000140 22 10 96 3d c8 4e 84 3d c4 29 97 bd 4a f9 c7 3d
       0.07327296 0.06460339 -0.07381013 0.09764345
000150 b2 3e bd bd 23 6e 5e be 0c b3 35 3e 2d 5d a9 bd
       -0.09240474 -0.21721701 0.17744082 -0.08269725
000160 d7 02 75 bd 79 7e 4f bd df 81 63 3d 1d 4e 9d bd
       -0.05981716 -0.050657723 0.055543777 -0.076809146
000170 46 f3 91 3d 69 7d 34 3e e2 c9 17 be 25 13 82 3d
       0.07126479 0.17625965 -0.14823106 0.06351308
000180 0d a1 bc b4 f2 76 84 b3 11 03 57 b3 8b 17 17 b4
       -3.513491e-07 -6.168365e-08 -5.0061377e-08 -1.4071536e-07
000190 43 74 64 33 88 95 33 b4 31 a8 f7 b2 02 1b 1c b3
       5.3191126e-08 -1.6725073e-07 -2.8831069e-08 -3.6346144e-08
0001a0 54 a8 9c b5 af 86 68 b5 0a 33 84 35 e6 37 bf b5
       -1.1671896e-06 -8.6622725e-07 9.849621e-07 -1.4246878e-06
0001b0 64 2a b0 35 51 b7 37 36 27 45 14 b6 1c 8e 8e 35
       1.3125359e-06 2.737583e-06 -2.209397e-06 1.0621184e-06
0001c0 9b b3 64 35 72 9d 1a 35 aa ba 24 b5 d5 f7 7e 35
       8.519798e-07 5.7598584e-07 -6.1366393e-07 9.4983017e-07
0001d0 9b eb 64 b5 38 f5 e1 b5 0f 85 b9 35 56 f7 34 b5
       -8.527947e-07 -1.6835174e-06 1.3822299e-06 -6.7415147e-07
0001e0 6c 27 54 b5 bd 61 f5 b4 9e 88 f6 34 4d f1 58 b5
       -7.903352e-07 -4.570592e-07 4.5920473e-07 -8.081741e-07
0001f0 b1 82 3a 35 a1 5d b7 35 cc 27 a6 b5 34 e1 05 35
       6.948058e-07 1.3661812e-06 -1.2379546e-06 4.9874075e-07
000200 b1 b5 55 b8 f3 a8 e5 37 14 0a 71 b8 42 cb dd 37
       -5.095237e-05 2.73776e-05 -5.7468264e-05 2.6439902e-05
000210 ef bc 34 b8 9a 9b 55 b8 ff d3 69 b7 1c 59 47 b7
       -4.3091302e-05 -5.0928073e-05 -1.3937241e-05 -1.1882072e-05
000220 29 f5 4c b8 44 96 dc 37 42 55 67 b8 ba e0 d4 37
       -4.8865713e-05 2.6296017e-05 -5.5154094e-05 2.5377016e-05
000230 30 71 2d b8 2d f5 4c b8 e2 42 60 b7 e4 a3 3f b7
       -4.135183e-05 -4.8865728e-05 -1.3367013e-05 -1.1422646e-05
000240 60 43 49 38 38 79 d8 b7 d9 13 63 38 f4 ef d0 b7
       4.7984882e-05 -2.5805653e-05 5.4139502e-05 -2.490727e-05
000250 26 40 2a 38 0e 1d 49 38 41 61 5c 37 85 eb 3b 37
       4.05909e-05 4.7949194e-05 1.31356655e-05 1.1200905e-05
000260 0c fb 57 b8 59 d7 e7 37 c4 71 73 b8 57 f6 df 37
       -5.14938e-05 2.7637625e-05 -5.8041667e-05 2.6698382e-05
000270 98 8a 36 b8 c7 c2 57 b8 fa 63 6c b7 27 0a 49 b7
       -4.3521257e-05 -5.1441395e-05 -1.4089974e-05 -1.1982897e-05
000280 b2 a5 e7 bc d8 a4 22 bd 72 33 aa 3c 7f de 76 bc
       -0.028277252 -0.03970799 0.020776484 -0.015067696
000290 53 f4 62 3c c0 14 da bc 72 af 90 bb e6 f7 49 3c
       0.013852197 -0.026621222 -0.004415446 0.01232717
0002a0 f5 14 84 3d 7f 9e 75 3d 28 76 67 bd d4 c8 96 3d
       0.0644931 0.059965607 -0.056509167 0.07362524
0002b0 2a 90 8b bd 42 53 14 be 2d 8e 06 3e aa 69 79 bd
       -0.068146065 -0.14484885 0.13140173 -0.060891785
0002c0 e5 a9 e8 bd 61 1c 54 bd e6 e1 f6 3d e7 bc 46 be
       -0.1136053 -0.051784877 0.120548055 -0.19407998
0002d0 19 3d 3d 3e 3a 26 11 3f df ac c8 be 8d 2c 30 3e
       0.18480338 0.56698954 -0.3919439 0.17204495
0002e0 45 5c 83 bd 30 4b 89 bd 95 b8 72 3d 32 5c 91 bd
       -0.064140834 -0.06703794 0.059258062 -0.07097663
0002f0 ad 19 88 3d e2 52 f7 3d 4e 14 f0 bd c0 6b 6f 3d
       0.06645522 0.120763555 -0.11722623 0.058452368

exp_avg_sq f4 [24, 8]
000000 f9 29 13 3a 5e 10 55 39 60 55 df 39 89 ee 5c 3a
       0.00056138594 0.0002031936 0.00042597484 0.00084278785
000010 0f 6a 55 3a 8b 46 df 3b 53 05 d4 3b fc c9 6a 38
       0.0008141109 0.0068138293 0.0064703613 5.597806e-05
000020 6c 92 0c 3a e8 ef 52 39 33 2e e0 39 5e be 54 3a
       0.0005362395 0.00020116533 0.0004275903 0.0008115525
000030 59 5d 5e 3a ac 5e c0 3b 04 de a4 3b 02 76 36 38
       0.0008482538 0.0058706608 0.005031349 4.3502085e-05
000040 08 a8 13 3a 46 28 70 39 3e 2f f1 39 01 78 91 3a
       0.00056326436 0.00022903187 0.000460023 0.0011098386
000050 c6 30 94 3a 8e c2 4d 3c 1e f4 1b 3c 1a e3 c0 38
       0.001130604 0.0125585925 0.009518651 9.1975744e-05
000060 7c 01 34 3a bf da 8d 39 7c ad 16 3a b9 d4 bd 3a
       0.0006866676 0.00027056594 0.0005747897 0.0014482952
000070 b6 85 c3 3a 04 4d 88 3c 86 9f 48 3c 87 cf e6 38
       0.0014917168 0.016638286 0.012245065 0.000110059096
000080 49 51 1e 39 bc db bf 38 10 2a c8 37 25 ba 02 38
       0.00015098335 9.1485184e-05 2.3861445e-05 3.1167776e-05
000090 d7 00 39 38 a5 27 c5 3a b2 fd 01 3a 2c 7d a0 37
       4.410822e-05 0.0015041722 0.0004958763 1.9131774e-05
0000a0 c4 71 61 39 18 16 e5 38 55 d1 39 38 0d 15 99 38
       0.00021500053 0.00010923686 4.4302393e-05 7.2995295e-05
0000b0 7c 8d ca 38 70 01 2e 3b 39 de 76 3a 19 cb f3 36
       9.658464e-05 0.002655115 0.0009417269 7.265608e-06
0000c0 2f e7 c1 39 1c 24 37 39 8f b4 a2 38 e9 18 00 39
       0.00036984074 0.00017465692 7.7583936e-05 0.00012216311
0000d0 49 5e 2a 39 5e f1 8e 3b 28 7d cb 3a 0b f5 5f 37
       0.00016247587 0.0043622693 0.001552497 1.3348889e-05
0000e0 f4 92 ae 39 37 13 30 39 bc fe 94 38 39 55 f0 38
       0.00033297355 0.00016791826 7.104638e-05 0.00011459966
0000f0 ec b0 1f 39 a2 e1 86 3b 0e 60 bf 3a a9 c8 33 37
       0.0001522933 0.004116253 0.001460077 1.0715951e-05
000100 37 0c e9 3f 4e 36 8d 3f b0 0a 81 3f f7 4d d4 3f
       1.8206853 1.1032197 1.0081387 1.6586293
000110 33 0f bb 3f 00 aa 02 41 86 51 f3 40 ce 68 28 3f
       1.4614013 8.166504 7.6037016 0.6578492
000120 9b 6c 47 40 d1 14 a9 3f 87 62 9d 3f a3 6a 40 40
       3.1160038 1.3209478 1.2295693 3.0065086
000130 97 98 1f 40 d1 51 fc 40 66 74 ed 40 00 f3 46 3f
       2.4936883 7.8849874 7.420459 0.7771454
000140 59 af ae 40 84 cc c7 40 01 62 be 40 df 6f 8f 40
       5.4589047 6.2437153 5.9494634 4.482406
000150 e7 c7 99 40 11 ea 65 42 5f 3c 59 42 64 f2 78 40
       4.805652 57.47858 54.308956 3.8897943
000160 e5 27 3f 40 fd 07 9e 3f 58 22 91 3f d6 a6 35 40
       2.98681 1.2346188 1.1338606 2.8383079
000170 65 31 16 40 7a d4 d5 40 75 a1 cb 40 48 e7 34 3f
       2.3467648 6.682187 6.363459 0.7066541
000180 81 77 7d 36 91 9b f4 35 fd 93 ea 35 a3 68 75 36
       3.7769498e-06 1.8224692e-06 1.7477429e-06 3.6568752e-06
000190 99 71 55 36 85 b4 e6 36 76 85 db 36 8b 80 66 35
       3.1805596e-06 6.8755494e-06 6.5422455e-06 8.586873e-07
0001a0 d1 14 85 36 bc b1 f1 35 19 94 e9 35 ef c2 80 36
       3.966132e-06 1.8007627e-06 1.7402955e-06 3.8373905e-06
0001b0 8a 81 5d 36 75 e5 f1 36 c8 bf e6 36 cf b0 70 35
       3.3006968e-06 7.209072e-06 6.8768604e-06 8.966426e-07
0001c0 10 86 64 36 89 10 d9 35 ce 1c d2 35 dd 19 5d 36
       3.4052682e-06 1.6172572e-06 1.5654603e-06 3.294662e-06
0001d0 b8 36 40 36 00 58 d0 36 88 d0 c6 36 3e 89 51 35
       2.864208e-06 6.2091276e-06 5.925136e-06 7.805828e-07
0001e0 a3 86 9c 36 a3 7e 0d 36 16 62 07 36 a1 91 97 36
       4.664836e-06 2.108435e-06 2.0173661e-06 4.517104e-06
0001f0 8e dc 81 36 cf 77 0d 37 c8 99 06 37 07 d1 8b 35
       3.8701755e-06 8.43215e-06 8.022827e-06 1.0417142e-06
000200 88 50 09 36 fd f8 47 34 ee 16 bb 35 4c 8f 9a 34
       2.0461466e-06 1.86239e-07 1.3939259e-06 2.8788997e-07
000210 8a 4d 60 35 5e 61 4c 35 82 72 96 34 ee 0a c6 32
       8.3559337e-07 7.613761e-07 2.8022993e-07 2.3055204e-08
000220 df b2 09 36 f2 51 37 34 bb d0 bb 35 3a 98 99 34
       2.0518708e-06 1.7073015e-07 1.3993334e-06 2.860923e-07
000230 0d a3 60 35 e4 42 24 35 40 b4 7e 34 98 b8 ae 32
       8.368377e-07 6.11921e-07 2.3721168e-07 2.034021e-08
000240 11 f1 f6 35 a6 b1 26 34 bd fc a8 35 82 e6 8a 34
       1.8398588e-06 1.5524583e-07 1.2590532e-06 2.587222e-07
000250 13 6e 4a 35 cf 87 1a 35 40 fc 69 34 d2 63 a0 32
       7.5411043e-07 5.75671e-07 2.1791584e-07 1.8671845e-08
000260 b8 43 01 36 0d bd 49 34 db e3 b0 35 a2 b8 93 34
       1.9261915e-06 1.878836e-07 1.3179337e-06 2.7515222e-07
000270 61 fb 54 35 22 c1 69 35 a0 c6 a3 34 54 a7 bb 32
       7.934196e-07 8.708031e-07 3.0505635e-07 2.1845757e-08
000280 9f 70 7b 40 69 e8 71 41 d7 b7 6a 41 41 01 b8 3f
       3.9287488 15.119241 14.669883 1.4375383
000290 bf 25 9e 40 bc 8f 20 43 e3 20 17 43 08 14 1d 41
       4.9421077 160.56146 151.12846 9.81739
0002a0 b8 f8 f0 3e 94 e8 0c 3f 8c 1b 12 3f e5 bf 02 3f
       0.47064757 0.55042386 0.57073283 0.5107406
0002b0 bc 9d ff 3e 46 6e fd 40 7c f1 ed 40 c6 dd dd 3e
       0.4992503 7.919711 7.435728 0.43333262
0002c0 31 44 b8 3f ba f1 9d 3f eb 3e ee 3f 6e b0 42 40
       1.439581 1.2339394 1.8612951 3.0420184
0002d0 81 5b 2c 40 9f e9 b9 41 f0 c8 90 41 7b e2 06 40
       2.693085 23.239073 18.098114 2.1075733
0002e0 9b 07 c8 3f 86 d7 b4 40 9d 6d b3 40 77 ab 3e 3f
       1.5627321 5.651309 5.6071305 0.74480385
0002f0 a8 c0 02 40 90 2a 70 42 e2 16 64 42 ab 45 6b 40
       2.0430088 60.041565 57.022346 3.6761272

exp_avg f4 [8, 8]
000000 5b ea 56 bd f3 f0 1e be 3d 7a 6e be 28 b6 b0 3d
       -0.052469593 -0.15521602 -0.23288818 0.086284935
000010 64 00 da 3d 08 10 3b be 38 cf e9 3d b4 f3 0e 3e
       0.10644606 -0.18267834 0.11416477 0.13960153
000020 18 f0 0c 3c 05 ea b3 3d 84 22 0e 3e ea 98 13 bd
       0.008602165 0.0878487 0.13880354 -0.036034502
000030 21 15 62 bd c8 88 b2 3d 9a e5 68 bd 28 9a 9b bd
       -0.05519593 0.08717495 -0.05685959 -0.07597762
000040 de 2a e1 3c ad a3 03 3d 56 03 32 3d 87 d2 e4 bc
       0.027486261 0.032138515 0.043460213 -0.027932419
000050 09 06 db bc 9f 9c 53 3d 59 be 02 bd 4e 76 ff bc
       -0.026736276 0.051663037 -0.03191981 -0.031184342
000060 28 55 99 3d aa b1 2c 3e 50 2d 7d 3e c2 fc d3 bd
       0.074869454 0.16864648 0.24724317 -0.10350944
000070 e6 08 04 be 46 50 61 3e 80 6e 08 be aa c6 24 be
       -0.1289402 0.22003278 -0.13323402 -0.1609141
000080 26 43 6a be fa 3a 04 bf 16 25 42 bf 11 72 a0 3e
       -0.22877178 -0.5165249 -0.7583784 0.31337026
000090 cc 86 d7 3e 0c 12 32 bf d4 5f d7 3e 3e 9a 02 3f
       0.4209503 -0.6955879 0.420653 0.51016605
0000a0 ec 8b 35 3c 2a fb 70 3d 94 ce b8 3d cf e0 e8 bc
       0.011080723 0.05883328 0.09023777 -0.02842751
0000b0 c0 6d ea bc 94 c4 58 3d 93 ba 10 bd f7 9e 37 bd
       -0.028616786 0.052921847 -0.03533418 -0.044829335
0000c0 fd 47 e6 3c 53 ca dd 3b cb 66 21 3b 74 5e 94 bc
       0.028110499 0.0067685037 0.002462792 -0.018111445
0000d0 82 be b6 bc ca 32 1f 3d e0 3d 9d bc a1 36 94 bc
       -0.022307638 0.038866796 -0.019194543 -0.018092455
0000e0 e2 43 97 3d 6f 7c 1e 3e 91 b6 66 3e b7 96 c4 bd
       0.073859945 0.15477155 0.22530581 -0.09599059
0000f0 03 01 0c be 32 3f 62 3e 95 7d 04 be 1d 19 25 be
       -0.13672261 0.2209442 -0.1293853 -0.16122861

exp_avg_sq f4 [8, 8]
000000 7e 5c 98 41 73 66 1a 42 99 55 46 42 e9 17 f0 41
       19.045162 38.600048 49.58359 30.011675
000010 3d 36 80 41 ca 6d 86 41 df 06 87 40 c9 54 16 41
       16.026484 16.803608 4.2195888 9.3956995
000020 27 cb 9e 40 15 5b 23 41 35 3a 60 41 6a a6 d2 40
       4.962299 10.209737 14.014211 6.582814
000030 62 5b 82 40 23 72 21 41 af 26 40 40 6a 9f b9 40
       4.073655 10.090365 3.002361 5.8007097
000040 0e ae 61 41 a8 ac ef 41 7e 70 15 42 78 a9 bf 41
       14.104994 29.959305 37.359856 23.957748
000050 71 16 30 41 e7 f0 18 40 45 55 3a 3f ad 2a 14 40
       11.005479 2.3897035 0.7278636 2.3151047
000060 91 14 2c 41 40 cc ad 41 a4 26 e3 41 69 80 80 41
       10.755021 21.724731 28.393867 16.0627
000070 70 90 13 41 01 45 62 41 da b7 63 40 7e cd fe 40
       9.222763 14.141847 3.5580964 7.9625845
000080 95 bc 21 42 e9 6c 9b 42 de 91 d7 42 84 fb 50 42
       40.434162 77.712715 107.7849 52.24562
000090 7e 41 16 42 f0 ff c4 42 29 70 c6 41 5f 03 51 42
       37.563957 98.49988 24.804766 52.253292
0000a0 fe b0 76 41 5c ee f9 41 2a 88 1b 42 7d 15 d1 41
       15.418211 31.241386 38.882973 26.135492
0000b0 b0 fc 46 41 c4 8e 59 40 8e 86 7f 3f 5d 0c ef 3f
       12.436691 3.3993387 0.9981469 1.8675648
0000c0 c2 b5 43 40 a5 26 e1 40 4c 50 12 41 4f c4 92 40
       3.0579686 7.0359674 9.144604 4.5864635
0000d0 85 6b 05 40 81 2a 38 40 3e f2 5d 3f 3b 31 1f 40
       2.0846875 2.8775942 0.8669776 2.4873798
0000e0 40 ef c5 41 84 7c 4c 42 db 25 81 42 c5 45 23 42
       24.741821 51.121597 64.57394 40.818134
0000f0 35 b2 9e 41 76 20 46 41 7d dc 41 40 8d 93 e7 40
       19.837015 12.382925 3.0290825 7.2367616

exp_avg f4 [8]
000000 b5 9a 34 3b c7 b2 72 39 40 24 0d bb 09 fb 8c bb
       0.0027558033 0.00023145518 -0.00215365 -0.0043023867
000010 e4 dc 56 3c 17 07 d3 b9 7b 48 0f bb 3c 65 82 bb
       0.013114188 -0.00040250338 -0.002186327 -0.0039793532

exp_avg_sq f4 [8]
000000 8b e3 ba 3d 4c 86 b0 3c f4 d5 8b 3d 94 35 3f 3d
       0.091254316 0.021548413 0.06827918 0.046681955
000010 41 92 f7 3d db 5d ef 3d 16 7f 30 3c 10 0d f0 3d
       0.120884426 0.116878234 0.010772487 0.117212415

exp_avg f4 [16, 8]
000000 d8 6d d3 b9 ef b3 3d 3a a6 4e 04 3a 36 16 19 3a
       -0.00040326896 0.000723659 0.000504712 0.00058397965
000010 bd 28 50 39 ae 75 d2 39 8f 26 c9 b9 05 7d 17 ba
       0.00019851602 0.00040142 -0.00038366436 -0.0005778822
000020 53 ef 18 b8 18 6c d1 36 68 4f cb 37 87 44 c4 37
       -3.6462512e-05 6.241269e-06 2.4236462e-05 2.3396931e-05
000030 59 a9 db 37 1f a2 12 38 2b af 55 b7 79 fc cd b7
       2.6185693e-05 3.49601e-05 -1.2736574e-05 -2.4555471e-05
000040 8b 60 f8 34 76 ec 63 34 5d 5e 5d b4 e7 e4 1d b4
       4.6263844e-07 2.1227046e-07 -2.0616558e-07 -1.4705039e-07
000050 dd b9 f3 b3 22 05 12 b4 a5 ec ed b3 d8 83 51 34
       -1.13493776e-07 -1.3599177e-07 -1.1079218e-07 1.9512606e-07
000060 18 93 07 37 6d 7d 11 37 9e ea 1f b4 72 86 8c 35
       8.080875e-06 8.6718765e-06 -1.4893382e-07 1.0469942e-06
000070 00 bc a5 b6 c6 00 db b6 5e 4f 59 b6 6a d4 49 36
       -4.9392693e-06 -6.5267986e-06 -3.2381718e-06 3.0074975e-06
000080 c9 2d 22 34 a5 00 a7 32 16 0c 46 b3 ec d7 32 b3
       1.5104082e-07 1.9441652e-08 -4.611146e-08 -4.1640234e-08
000090 d2 b9 56 b2 cb 48 45 33 6b 22 3d b2 97 81 ce 33
       -1.249869e-08 4.593384e-08 -1.1009074e-08 9.616195e-08
0000a0 09 51 dd b9 8d 2c 22 3c a0 5e f1 ba ca cc 69 bb
       -0.0004221278 0.009898317 -0.0018415041 -0.0035675042
0000b0 62 8a ec ba 2e c3 5b 3a 65 31 e1 bb 8e 50 57 bb
       -0.0018046612 0.0008383271 -0.0068723434 -0.003285441
0000c0 26 62 c3 36 b3 fc dd 36 24 68 cb 35 1a 33 be 35
       5.822879e-06 6.6157313e-06 1.5154988e-06 1.4170976e-06
0000d0 5c d8 66 b6 52 6e 8e b6 28 eb 0b b6 b0 f9 b8 35
       -3.4398608e-06 -4.2447728e-06 -2.0849493e-06 1.3781737e-06
0000e0 fe 39 80 33 a2 65 8c 33 ce 6a 15 32 ed 89 0e 32
       5.971013e-08 6.537745e-08 8.697226e-09 8.2968485e-09
0000f0 11 7d 0a b3 c5 55 4f b3 93 66 bf b2 c0 a1 84 32
       -3.2244376e-08 -4.827395e-08 -2.2281972e-08 1.5440378e-08
000100 c7 1b a5 bc 22 fa ee 3c 1c f5 75 3c 04 6c 58 3c
       -0.020154847 0.029172007 0.015012052 0.013209347
000110 ea 98 89 3c f2 c3 94 3c 52 9b cb bc c7 5f c5 bc
       0.016796548 0.01815984 -0.024854336 -0.024093522
000120 43 38 9a b9 2e 73 07 3c 49 be d5 ba 79 52 4d bb
       -0.00029415087 0.008267207 -0.001630732 -0.0031329675
000130 48 76 cc ba b5 0b 29 3a 9a eb bd bb c3 c1 2e bb
       -0.0015599215 0.0006448583 -0.005795908 -0.0026665784
000140 bd b3 c1 b9 d7 cd 4a 3a 74 72 f2 39 a8 50 18 3a
       -0.00036945744 0.0007736361 0.0004624311 0.00058103586
000150 ff dc 37 39 d3 3f be 39 2b c6 da b9 36 fe 0f ba
       0.00017534567 0.00036287177 -0.00041727847 -0.00054928975
000160 44 05 29 bb 1c e6 98 3a 25 4f b3 3a 6e 3b df 3a
       -0.0025790492 0.0011665258 0.0013680203 0.0017031261
000170 3b a4 d7 3a 46 0a 38 3b 35 ae 2f ba c0 b8 fb ba
       0.0016452143 0.0028082295 -0.0006701679 -0.001920484
000180 9e 6c db 34 02 13 db 34 ac 97 fe b3 8a ca 85 b3
       4.0870958e-07 4.080576e-07 -1.1855386e-07 -6.230137e-08
000190 d3 f0 59 b4 a2 31 d8 b4 ed fc 43 b4 8a 63 c2 33
       -2.0297311e-07 -4.0269248e-07 -1.8252804e-07 9.051935e-08
0001a0 24 5c 45 38 53 8e 7d 38 d4 95 50 b8 39 f0 b8 b6
       4.7054273e-05 6.045245e-05 -4.9730603e-05 -5.511593e-06
0001b0 8f 83 02 b8 31 de 58 b8 f0 57 23 b8 21 bb 19 38
       -3.111694e-05 -5.1705345e-05 -3.8944127e-05 3.665232e-05
0001c0 80 c7 5e 35 59 20 85 35 b2 e8 bf b4 70 39 3a b4
       8.2991755e-07 9.918687e-07 -3.574583e-07 -1.7343496e-07
0001d0 1f 4e 11 b3 1f 89 bd b4 24 06 33 b5 25 15 6d b3
       -3.3831494e-08 -3.5303762e-07 -6.669163e-07 -5.5200093e-08
0001e0 7e 3b 39 35 4e c7 25 35 35 64 bd b4 3a f7 66 b4
       6.9004443e-07 6.1757316e-07 -3.5276904e-07 -2.151036e-07
0001f0 4b d8 02 b4 41 f9 b9 b4 74 4f dc b4 f4 4f 01 34
       -1.218588e-07 -3.464029e-07 -4.1036003e-07 1.2043148e-07

exp_avg_sq f4 [16, 8]
000000 f6 cc 2e 3f ba 29 df 3f b7 57 88 3f b8 c6 a0 3f
       0.68281496 1.7434609 1.0651768 1.2560644
000010 d0 ed 32 3e b4 0e 30 3f 32 9e f5 3e 23 b7 a8 3f
       0.17473531 0.68772435 0.47972256 1.3180889
000020 55 6e 04 3d 04 d3 6b 3a 52 f4 68 3c 0b 7f 58 3c
       0.032331783 0.00089959824 0.014218407 0.013213883
000030 c7 5c 87 3c 6b 1a f1 3c c6 aa 7c 3b 04 07 6f 3c
       0.016523732 0.029431542 0.0038553937 0.014589075
000040 6d e4 24 37 60 34 aa 36 7c d6 58 36 00 b4 b8 35
       9.828346e-06 5.072492e-06 3.2311355e-06 1.3761455e-06
000050 47 08 e7 36 40 19 c4 36 34 70 de 36 d1 6c b7 37
       6.8853e-06 5.8441947e-06 6.6291777e-06 2.1865972e-05
000060 ad bb bb 3b 19 5c f6 3b 0d e9 e1 39 f6 63 b2 39
       0.00572916 0.007518303 0.0004308898 0.00034025282
000070 ba 71 00 3b 67 2f 51 3b 24 d5 4d 3a 65 c8 ac 39
       0.0019599036 0.0031919123 0.000785189 0.00032955702
000080 45 fd 8f 36 30 0f b8 35 f6 e6 f4 35 e0 59 fd 34
       4.2912166e-06 1.3713488e-06 1.8246635e-06 4.7190315e-07
000090 a2 22 a9 36 0f 41 aa 36 3c 74 62 36 af 25 c9 36
       5.0406243e-06 5.0739686e-06 3.3744282e-06 5.9946537e-06
0000a0 5b e6 ba 3d 7e bf 55 42 6e 72 f8 3f 0e 3e df 40
       0.09125968 53.437004 1.9409921 6.976325
0000b0 78 b3 e9 3f 00 41 b9 3e dc 8d cd 41 c4 ce b8 40
       1.8257895 0.36182404 25.694267 5.77524
0000c0 46 bf 95 3b 73 43 c5 3b 60 a8 a0 39 38 44 8e 39
       0.0045699207 0.0060200035 0.00030643027 0.00027135178
0000d0 17 1c cd 3a 3e 3d 25 3b 45 45 21 3a 88 29 79 39
       0.001564863 0.0025213505 0.00061519846 0.00023761962
0000e0 68 50 25 35 74 04 3f 35 21 4a 40 34 f1 be f4 32
       6.1584296e-07 7.1159525e-07 1.7908361e-07 2.8492169e-08
0000f0 30 e9 53 34 b5 cc fe 34 52 68 56 34 d1 d4 6a 33
       1.973574e-07 4.746013e-07 1.9968255e-07 5.4675926e-08
000100 66 c5 db 41 6f 54 65 42 17 3b 74 41 2d 79 3c 41
       27.471386 57.332455 15.264426 11.779584
000110 01 8f 98 41 d0 85 b2 41 8a 84 26 42 71 eb 1c 42
       19.069826 22.315338 41.629433 39.229923
000120 c6 1e 3f 3d ce 55 16 42 6a db bb 3f c0 af ac 40
       0.046660207 37.583794 1.4676335 5.396454
000130 3a a7 ab 3f 5e 87 67 3e e1 c5 93 41 5c 85 79 40
       1.3410408 0.22610232 18.47162 3.8987646
000140 ee b2 3d 3f 88 5b ec 3f 57 20 93 3f aa f7 a1 3f
       0.7410115 1.8465433 1.1494244 1.2653706
000150 78 5e 4c 3e 2b 45 42 3f 57 49 06 3f 52 a1 ae 3f
       0.19957912 0.7588679 0.5245566 1.3642981
000160 2e e1 65 42 c8 a8 3b 41 50 75 81 41 1e 98 c8 41
       57.469902 11.728706 16.182281 25.074276
000170 f8 f5 ba 41 2a 18 88 42 64 33 78 40 7f 9f fe 41
       23.370102 68.047195 3.8781366 31.827879
000180 a1 5f f2 37 2d bb 9d 37 ff ca 94 36 d9 69 0e 36
       2.8893179e-05 1.8803019e-05 4.4343756e-06 2.122126e-06
000190 05 34 18 37 71 3d 8b 37 98 25 10 37 42 61 f1 36
       9.072018e-06 1.6598702e-05 8.591822e-06 7.193682e-06
0001a0 41 ad 02 3d 05 83 51 3d b4 8f 29 3d e0 6e 73 3a
       0.03190351 0.05115034 0.04139681 0.0009286236
0001b0 71 86 61 3c ae 1f 1b 3d 2b 96 b4 3c e8 93 a9 3c
       0.0137649635 0.03787201 0.022044262 0.02070041
0001c0 01 b2 3c 38 48 1c 65 38 7c 5a 00 37 83 e2 26 36
       4.4988472e-05 5.4624194e-05 7.650462e-06 2.4867775e-06
0001d0 6a f9 a6 37 7e e9 a0 37 08 b1 24 38 57 3f a2 37
       1.9904885e-05 1.9182215e-05 3.926552e-05 1.93414e-05
0001e0 33 51 c0 37 85 88 70 37 a2 b2 ab 36 47 ab 02 36
       2.2925995e-05 1.4336901e-05 5.1169927e-06 1.9471206e-06
0001f0 62 72 80 35 be d5 af 36 b8 d9 bc 36 99 7b ce 35
       9.570033e-07 5.2402893e-06 5.6281824e-06 1.5384168e-06

exp_avg f4 [16]
000000 0e ba 4b 37 ce b5 b9 34 c2 fa 04 34 97 b1 11 36
       1.2143062e-05 3.4591216e-07 1.2384683e-07 2.1710055e-06
000010 f8 74 ce 33 2d 6e 8a 38 38 24 e4 35 9d 7d 32 32
       9.613899e-08 6.6008746e-05 1.6997865e-06 1.0389525e-08
000020 c5 5c aa 38 a0 ae 84 38 e5 e7 a6 37 a1 25 e2 37
       8.123511e-05 6.326777e-05 1.9896726e-05 2.6958822e-05
000030 3f 15 cf b1 54 4f 23 37 ce 5a 55 33 c1 2e 97 33
       -6.0269083e-09 9.734027e-06 4.9675513e-08 7.03999e-08

exp_avg_sq f4 [16]
000000 73 28 2f 3a 0a 2c 87 36 f0 d3 30 37 91 77 e9 39
       0.00066817476 4.0284403e-06 1.0539763e-05 0.00044530307
000010 54 2e 05 36 7b 50 44 3b a4 92 bb 39 5a c4 af 34
       1.984551e-06 0.0029955197 0.00035776675 3.2739155e-07
000020 b0 af 31 3a 0e 81 13 3b 16 6e 47 3b 45 63 cd 3b
       0.00067781936 0.0022507343 0.0030430607 0.0062679374
000030 32 65 bb 36 ed 8b bd 3a a0 67 92 36 c7 0c 73 35
       5.584815e-06 0.0014461257 4.3632026e-06 9.054315e-07

exp_avg f4 [8, 16]
000000 10 0c de b7 95 ca 2e b5 51 3e b4 31 11 92 b0 b6
       -2.647008e-05 -6.5114847e-07 5.245774e-09 -5.262213e-06
000010 96 37 5d 31 f9 df 22 3b 6d 96 72 b6 5c a3 b6 b2
       3.219133e-09 0.0024852736 -3.614837e-06 -2.1261876e-08
000020 84 dc de b8 a6 bd 2a 39 dd 14 5f b8 be 6d 09 3a
       -0.00010626859 0.00016283113 -5.3186774e-05 0.0005242488
000030 14 2e a4 b2 97 8e 25 38 77 14 86 b4 78 2a 84 b4
       -1.9113067e-08 3.9471863e-05 -2.4974335e-07 -2.4617816e-07
000040 57 0d 47 39 8c 1c b5 34 7b 95 32 b4 6c 3c 0a b7
       0.00018983088 3.3734648e-07 -1.6631923e-07 -8.239509e-06
000050 70 8f cc 2f 51 bf aa 38 76 1c b8 b6 07 ea fe b2
       3.7209302e-10 8.141867e-05 -5.4869406e-06 -2.9675915e-08
000060 92 39 51 38 29 4c d2 36 0c eb 8d 39 d8 88 b7 ba
       4.98831e-05 6.267354e-06 0.0002706874 -0.0014002575
000070 9d e3 c7 b3 de 25 39 b8 71 2a f7 33 1e 17 52 33
       -9.308062e-08 -4.4142704e-05 1.1509554e-07 4.891546e-08
000080 bf ea 8f 38 f9 1a 1c b5 68 e6 74 34 3f 12 25 b5
       6.862496e-05 -5.815378e-07 2.2808092e-07 -6.149384e-07
000090 81 f4 29 32 30 7a 97 bb 6e 3e c0 b4 5b 92 96 b1
       9.8926884e-09 -0.00462272 -3.580821e-07 -4.3822133e-09
0000a0 ff 4c 99 38 99 07 a2 b9 ca 5b a6 38 66 8b 20 3a
       7.30995e-05 -0.0003090471 7.932594e-05 0.00061242876
0000b0 d0 c0 d4 33 ed 27 09 38 f3 99 aa b4 c5 25 74 b4
       9.907092e-08 3.270053e-05 -3.177698e-07 -2.2738011e-07
0000c0 50 f7 e1 b6 1a af cd 34 09 b6 83 b4 d5 28 36 35
       -6.7343135e-06 3.831163e-07 -2.45331e-07 6.78597e-07
0000d0 11 54 10 b2 5f c2 61 3a e9 36 dc 34 aa 89 a1 31
       -8.401018e-09 0.00086120324 4.1018146e-07 4.7013673e-09
0000e0 d9 0c 94 38 44 b7 78 38 ac 48 c0 36 d2 d8 fa b9
       7.059583e-05 5.9298487e-05 5.730506e-06 -0.0004784526
0000f0 d5 07 f2 b3 91 a0 18 b8 63 33 63 34 68 0b 05 34
       -1.1270428e-07 -3.6389163e-05 2.1159717e-07 1.239074e-07
000100 9f cd 97 b9 1c 64 00 b5 36 60 35 34 5a e1 0d 33
       -0.00028954164 -4.7829394e-07 1.689194e-07 3.3034077e-08
000110 58 42 cc 31 34 39 c1 3b 3f 6d a4 33 b1 4d ad b0
       5.944724e-09 0.0058967117 7.656717e-08 -1.2609488e-09
000120 4e 62 6d b9 0c 55 cd 39 aa 67 d2 b9 28 b4 f8 39
       -0.00022638703 0.00039164012 -0.00040131557 0.00047436473
000130 3f aa 9c 33 3d 43 d4 37 65 84 8d b4 9a 49 50 b4
       7.295284e-08 2.530368e-05 -2.6359626e-07 -1.9398286e-07
000140 77 3a bb b8 e7 d3 23 35 80 47 82 b4 63 2d 5c 35
       -8.927745e-05 6.103059e-07 -2.426641e-07 8.2022433e-07
000150 4a e7 1a b2 9c 2e 2d 3b a8 b7 11 35 e6 a5 c2 31
       -9.016569e-09 0.0026425486 5.4283964e-07 5.6650036e-09
000160 0f d1 1b 36 96 f0 3a 39 cd f0 d2 b8 7a a1 4e ba
       2.3218488e-06 0.00017827968 -0.00010058433 -0.0007882338
000170 33 5f e6 b3 5d 08 50 b8 bf bb 9a 34 de d9 55 34
       -1.0727526e-07 -4.9598853e-05 2.8821339e-07 1.991643e-07
000180 13 ff 8a b9 d1 f8 af 34 ef 91 1f b4 4e 55 2c 36
       -0.00026511456 3.2777328e-07 -1.4861119e-07 2.567965e-06
000190 61 c5 07 b2 63 b1 e3 3b 2f e1 dc 35 b8 8d 3d 32
       -7.902913e-09 0.0069486364 1.6456814e-06 1.1033471e-08
0001a0 21 ab bb b8 2c 0e f3 39 ee cf b8 b9 4c 25 4c 39
       -8.94873e-05 0.0004635913 -0.00035250135 0.0001946885
0001b0 1d f7 7d b3 73 60 3b b7 ab 1b 81 34 18 aa 45 34
       -5.91309e-08 -1.1168525e-05 2.4048254e-07 1.8408934e-07
0001c0 8f 18 7e 39 cc 39 de b4 71 2b 80 34 4a ea 87 b5
       0.00024232476 -4.1392775e-07 2.3873466e-07 -1.0126471e-06
0001d0 b0 8f 26 32 f8 aa c2 bb 4f ad 31 b5 36 1d d0 b1
       9.6951425e-09 -0.005940791 -6.6189835e-07 -6.0569176e-09
0001e0 0c e6 05 39 f8 42 d0 b9 74 83 a3 39 62 9a de 39
       0.00012769568 -0.00039722747 0.00031187723 0.00042458164
0001f0 f6 28 ea 33 95 b8 1e 38 70 f3 5b b4 0e 5f ff b3
       1.0903925e-07 3.784204e-05 -2.0484526e-07 -1.1891653e-07

exp_avg_sq f4 [8, 16]
000000 0b 40 cf 3d d5 be 76 37 4d 0d a6 36 3f 5e 83 3b
       0.10119637 1.4707174e-05 4.948734e-06 0.0040090377
000010 60 05 26 35 76 a6 64 40 2e 18 de 3a ce 27 87 33
       6.184764e-07 3.57266 0.0016944462 6.293668e-08
000020 c0 ad e5 3c 2c 5b 6e 3c b7 af 0e 3e a7 23 14 40
       0.028036952 0.014548104 0.13934217 2.314676
000030 5c 2b 70 36 ec d8 1d 3d f5 e8 1a 37 5a 28 3a 36
       3.5788025e-06 0.03853695 9.233355e-06 2.7739648e-06
000040 88 84 84 3e 10 14 5f 37 f1 49 4b 37 02 85 0e 3c
       0.25882363 1.3296507e-05 1.2116959e-05 0.008698704
000050 1c 1e 5e 35 4a af b8 3c f7 f6 70 3b 89 e8 68 34
       8.274526e-07 0.022544522 0.0036768296 2.169128e-07
000060 c0 fb a8 3c 76 44 05 38 4f 16 e3 3e 4e d5 83 41
       0.020627856 3.177343e-05 0.44352958 16.479153
000070 6c 1e 15 37 5a 7f 04 3d 41 08 94 37 e3 bd 42 36
       8.888175e-06 0.032348014 1.7646818e-05 2.9018781e-06
000080 21 20 2b 3d 3e 48 ad 37 23 f9 3c 37 b4 42 e9 38
       0.041778687 2.0656847e-05 1.126368e-05 0.0001112273
000090 17 86 10 35 bb 38 4d 41 ce 6d 54 38 df df 05 33
       5.3839307e-07 12.82635 5.0647002e-05 3.1170085e-08
0000a0 03 8b 6c 3c 11 49 57 3d 55 cd 4c 3d 29 32 4a 40
       0.01443744 0.052559916 0.050000507 3.1593115
0000b0 28 37 44 36 1e 0f a0 3c e6 3f 91 37 1d 71 27 37
       2.923838e-06 0.019538458 1.7315102e-05 9.980312e-06
0000c0 35 48 6c 3d dc 59 75 37 d9 cb 3a 37 66 64 0e 39
       0.05768605 1.462406e-05 1.1133926e-05 0.00013579577
0000d0 9b 92 05 35 13 ee fc 3e da 73 80 38 55 b6 05 33
       4.97597e-07 0.49400386 6.125095e-05 3.1132306e-08
0000e0 8a ac 93 3c 86 60 00 3b 7a a1 96 3d 65 ca f6 3f
       0.018026609 0.0019588782 0.07355018 1.9280516
0000f0 73 55 47 36 20 28 c1 3c b7 ca 6b 37 a7 ae f6 36
       2.9703049e-06 0.023578703 1.405429e-05 7.3517035e-06
000100 09 b0 d3 3e 12 ff 27 37 ed e8 a3 36 cb f2 1b 37
       0.41345242 1.0013364e-05 4.8848947e-06 9.29525e-06
000110 4d 38 c6 32 8c 62 a4 41 48 82 b6 36 ec 02 89 34
       2.3075836e-08 20.548119 5.4391894e-06 2.5520364e-07
000120 8e 7d 4c 3c fb 7e ac 3d 24 3e 3d 3f 70 a5 f2 3f
       0.012481106 0.08422657 0.73922944 1.8956738
000130 a9 dc 3d 36 ec 04 39 3c 50 d3 9f 36 92 5b dc 36
       2.8291636e-06 0.011292677 4.7631693e-06 6.567171e-06
000140 f7 ed b9 3d a7 08 9a 37 a1 85 23 37 a8 9d 4b 39
       0.09078591 1.836226e-05 9.74667e-06 0.0001941832
000150 88 0c 65 34 7a d0 89 40 cf 0d b4 38 ee b9 5c 33
       2.1331846e-07 4.306699 8.585641e-05 5.1391844e-08
000160 39 a3 02 3d 8e ac 8f 3c a8 01 dc 3d 36 5e a7 40
       0.031893943 0.017538335 0.107425034 5.2302504
000170 4e 7e 32 36 60 11 31 3d f2 ab 03 37 5b 04 22 37
       2.6597586e-06 0.04322946 7.848243e-06 9.6569665e-06
000180 7b 8e 64 3e d4 bc 48 37 5a 47 1b 37 56 3a 81 3a
       0.22319977 1.1964894e-05 9.255333e-06 0.0009859304
000190 b3 4f 30 35 33 75 e6 41 80 43 db 39 90 d5 9c 33
       6.5681087e-07 28.807226 0.00041821226 7.303163e-08
0001a0 0b b0 66 3b 32 f2 f1 3d c5 14 ce 3e 9a 00 a2 3e
       0.0035200145 0.11813773 0.4025022 0.31641084
0001b0 ef 41 c4 36 b7 cd 9d 3b 2f 40 93 37 0c 8e ae 36
       5.848931e-06 0.004815783 1.7553653e-05 5.2021405e-06
0001c0 69 ef 34 3e 48 fd 2c 37 1e d3 04 37 78 01 85 39
       0.17669453 1.03109705e-05 7.916968e-06 0.0002536883
0001d0 6d df 73 32 04 86 a9 41 ae 9d e7 38 ba 65 98 34
       1.4195263e-08 21.190437 0.000110443085 2.8386222e-07
0001e0 b1 c9 9f 3c dc d9 b1 3d 7a 64 93 3e 63 66 c2 3f
       0.019505354 0.086841315 0.28787595 1.5187496
0001f0 56 55 41 36 5a 84 d3 3c 43 ab 85 36 8b d7 f3 36
       2.8808913e-06 0.025819946 3.9836464e-06 7.267057e-06

exp_avg f4 [8]
000000 4e af 23 3b 97 c5 a1 39 2f ca 05 bb 40 1c 89 bb
       0.0024976316 0.0003085553 -0.00204147 -0.004184276
000010 20 85 5b 3c 52 97 1b b7 9f 27 1e bb 1f 78 8f bb
       0.013398439 -9.273952e-06 -0.0024132503 -0.004378333

exp_avg_sq f4 [8]
000000 aa eb 47 3c cf b0 09 3c c1 f8 32 3b 7e b6 10 3c
       0.012202183 0.008403971 0.0027308913 0.008832572
000010 7b a5 90 3d c3 9d 6c 3b e1 59 b1 3b be fc 3f 3c
       0.07062813 0.0036104775 0.0054123257 0.011717973

exp_avg f4 [1, 8]
000000 6a ef c9 bd 59 ff 1c 40 ee 6e 48 be fa 94 e6 be
       -0.09860118 2.4530852 -0.19573566 -0.45035535
000010 59 d1 f1 3f c3 18 a2 3e c0 15 0f c0 01 51 9a bf
       1.8892013 0.31659517 -2.2357025 -1.205597

exp_avg_sq f4 [1, 8]
000000 9f 7c 2a 43 2a 44 20 45 68 42 0e 43 d8 64 c8 42
       170.4868 2564.2603 142.2594 100.19696
000010 1c 6e 29 44 e4 f5 8b 43 39 36 d4 44 57 bd dd 43
       677.72046 279.92102 1697.6945 443.47922
