notebooks/lightning_logs/version_112/checkpoints/epoch=149-step=900.ckpt (torch, 22555 bytes, 30 tensors)

front_linear.weight f4 [8, 2]
1.1580212 0.2794781 0.35498407 1.3339878 0.8524246 0.01651738 -0.87289387 0.08323951
-1.8744574 -0.6602886 0.6268472 0.75218433 -0.64016706 -1.073315 -0.6602445 -0.6310439
00000000: 0a3a 943f c117 8f3e 79c0 b53e 1dc0 aa3f
00000010: 8038 5a3f 754f 873c f975 5fbf 7a79 aa3d
00000020: 38ee efbf ac08 29bf 0f79 203f 278f 403f
00000030: fde1 23bf 6362 89bf c905 29bf 188c 21bf

front_linear.bias f4 [8]
-0.4614203 -0.5478561 0.9506292 -0.5178735 0.6762479 -0.7016391 -0.14549053 -0.63965595
00000000: 483f ecbe 4c40 0cbf 6f5c 733f 5c93 04bf
00000010: 951e 2d3f 9f9e 33bf 78fb 14be 7ec0 23bf

transformer_encoder.layers.0.self_attn.qkv_proj.weight f4 [24, 8]
3.2588534 2.0650833 4.267961 -0.5572808 2.9462104 0.5242362 -2.067464 -6.1563993
-3.2706096 -1.6636567 -3.9448183 0.49234027 -2.9808664 -0.63388723 2.00451 5.485403
2.668834 1.205444 3.2612584 -0.5634973 3.3397362 0.67358726 -1.6864953 -5.5363383
-3.851577 -2.0635011 -3.9273195 -0.016737185 -2.8103163 -0.081150785 2.166391 5.925592
4.736782 4.001439 -3.04186 1.4924375 -4.4394484 5.262396 -3.2913313 -5.150709
-0.47781205 3.483084 -1.938204 -3.7524993 1.0957845 -0.7204677 -4.536093 0.4950717
0.6697986 -0.40277585 0.5570208 6.0570707 -0.2921864 0.66618806 0.5611071 -0.73304206
-4.267059 -3.7230053 1.9416233 -1.7978622 4.8383393 -5.450991 2.7428217 5.1396894
1.3508401 0.7944699 -0.1857913 0.77320445 -0.11025303 1.6637505 -0.7030504 -1.120885
2.2105618 1.7710202 -0.16972838 1.1815248 -0.49500275 2.080149 -0.33462903 -1.3610576
0.5123492 1.1363097 -0.33316606 -0.74642515 1.0830698 -0.77270937 0.29893222 0.6922719
-1.1974598 -1.50461 0.6789842 0.45728716 -0.6711459 -0.33653867 0.38017705 -0.47827768
-0.75361294 -0.7726488 -5.1851144 -0.973894 -2.4265287 -2.3563006 2.1373065 5.6463037
-0.5501605 -0.97130376 -4.3255043 -1.686492 -1.8579745 -3.393042 1.0483654 4.9061637
0.38916662 0.93120414 5.2972393 1.1844188 2.1805775 3.4035943 -0.8967795 -5.2197766
-0.4078287 -1.0955454 -4.1117873 -0.51308155 -1.4922507 -1.867383 1.9193434 4.696046
4.7610354 2.809236 0.52596265 3.5102825 -6.8979754 8.21871 -0.28303802 -7.8134813
3.2117712 1.1719761 1.6133289 1.8266996 -4.320084 6.085014 0.64614284 -6.486716
-3.5974448 -1.28971 -1.4837743 -3.1739986 5.180565 -6.7331333 -0.17018148 7.277049
4.055519 2.0320907 0.9632692 3.0268154 -5.450417 7.278831 0.15320939 -6.849078
-2.492327 -1.4095312 -1.6682917 -0.8088245 0.43305683 -2.852876 1.6764963 2.861566
1.8632541 1.7387013 -0.9775386 0.030129613 -1.5961665 0.11376622 -0.16413902 0.50510895
-0.08681104 -0.30971304 -0.5759741 2.0852237 -0.59126633 0.33298323 1.0840281 -0.90474105
-1.8596281 -1.6588763 1.5597833 -0.58555365 1.3758687 -0.8687741 0.36750987 -0.113283604
00000000: 0e91 5040 532a 0440 2393 8840 f4a9 0ebf
00000010: b68e 3c40 5834 063f 5551 04c0 3901 c5c0
00000020: ab51 51c0 b4f2 d4bf e777 7cc0 0614 fc3e
00000030: 84c6 3ec0 6f46 22bf e449 0040 6c88 af40
00000040: 2dce 2a40 fd4b 9a3f 75b8 5040 5c41 10bf
00000050: 3dbe 5540 3770 2c3f 14df d7bf af29 b1c0
00000060: 3d80 76c0 6710 04c0 3459 7bc0 6c1c 89bc
00000070: 39dc 33c0 6232 a6bd 26a6 0a40 739e bd40
00000080: b893 9740 ca0b 8040 d6ad 42c0 3108 bf3f
00000090: f60f 8ec0 8c65 a840 2ca5 52c0 9cd2 a4c0
000000a0: c8a3 f4be d9ea 5e40 1217 f8bf f328 70c0
000000b0: ab42 8c3f 9270 38bf ad27 91c0 0a7a fd3e
000000c0: ec77 2b3f a338 cebe ea98 0e3f 86d3 c140
000000d0: 7599 95be 4d8b 2a3f b7a4 0f3f a5a8 3bbf
000000e0: bf8b 88c0 b845 6ec0 1d87 f83f 5920 e6bf
000000f0: add3 9a40 856e aec0 648a 2f40 5678 a440
00000100: 54e8 ac3f 6162 4b3f 1340 3ebe baf0 453f
00000110: 57cc e1bd c7f5 d43f 1cfb 33bf 2979 8fbf
00000120: d879 0d40 cab0 e23f 47cd 2dbe 343c 973f
00000130: 0071 fdbe 2921 0540 7f54 abbe 2337 aebf
00000140: 5129 033f 9972 913f be94 aabe b815 3fbf
00000150: 08a2 8a3f 48d0 45bf a50d 993e bb38 313f
00000160: 5d46 99bf 0f97 c0bf e9d1 2d3f 8b21 ea3e
00000170: 38d0 2bbf cc4e acbe 91a6 c23e d0e0 f4be
00000180: c7ec 40bf 50cc 45bf 75ec a5c0 1e51 79bf
00000190: 3f4c 1bc0 a1cd 16c0 a1c9 0840 85ae b440
000001a0: 52d7 0cbf 5da7 78bf 886a 8ac0 f8de d7bf
000001b0: 1cd2 edbf 9a27 59c0 d630 863f 4bff 9c40
000001c0: d940 c73e 6563 6e3f fc82 a940 099b 973f
000001d0: 958e 0b40 7dd4 5940 5793 65bf 6908 a7c0
000001e0: ecce d0be d53a 8cbf c393 83c0 5059 03bf
000001f0: 1202 bfbf 6806 efbf 0bad f53f 0246 9640
00000200: 675a 9840 86ca 3340 7da5 063f 78a8 6040
00000210: 37bc dcc0 d67f 0341 5cea 90be 0a08 fac0
00000220: a98d 4d40 5003 963f 9081 ce3f 4bd1 e93f
00000230: 213e 8ac0 6fb8 c240 9e69 253f 2d93 cfc0
00000240: 893c 66c0 3815 a5bf 51ec bdbf cb22 4bc0
00000250: 30c7 a540 d475 d7c0 0e44 2ebe 96dd e840
00000260: d0c6 8140 c60d 0240 cf98 763f 58b7 4140
00000270: d169 aec0 2fec e840 ece2 1c3e a62b dbc0
00000280: 4982 1fc0 856b b4bf 958a d5bf 1f0f 4fbf
00000290: a0b9 dd3e 8595 36c0 6e97 d63f e623 3740
000002a0: 1c7f ee3f c48d de3f f83f 7abf 61d2 f63c
000002b0: 2f4f ccbf 44fe e83d 0f14 28be d24e 013f
000002c0: fdc9 b1bd b592 9ebe 0a73 13bf 4e74 0540
000002d0: 3b5d 17bf c77c aa3e 6fc1 8a3f 1c9d 67bf
000002e0: 4b08 eebf 0f56 d4bf fba6 c73f d8e6 15bf
000002f0: 771c b03f fb67 5ebf 412a bc3e 3c01 e8bd

transformer_encoder.layers.0.self_attn.o_proj.weight f4 [8, 8]
0.7817769 1.5920724 0.2017234 0.08443284 0.19303557 -1.3680338 1.2791288 1.3213165
2.1756618 3.7537596 -0.344491 0.560048 -1.5661019 0.405493 -1.0857662 -0.32757565
1.2984096 -1.8631083 -3.0756712 3.0916715 -2.6021252 0.44095376 0.06698256 0.25576758
-1.081191 -1.1985862 -0.046901383 -0.36626726 2.35331 0.7758429 -1.5912371 -0.2876394
-0.39689285 -1.7579651 -0.68759 1.0508239 -0.47720477 0.54610384 -0.865595 0.36502108
-1.0913094 0.610456 2.3246346 -2.1408086 1.1400502 0.63738626 -1.228561 -1.6459627
-0.29469585 1.5661122 2.2355921 -2.018731 0.28202733 0.3262786 0.73237973 -1.1287239
-3.1180403 -1.8609719 0.7175945 -0.8805364 3.2708817 -1.4320283 -2.847573 0.38661653
00000000: 8822 483f 07c9 cb3f 9490 4e3e 20eb ac3d
00000010: 1eab 453e bb1b afbf 7eba a33f e620 a93f
00000020: 0b3e 0b40 993d 7040 2061 b0be 4e5f 0f3f
00000030: 0776 c8bf c79c cf3e 63fa 8abf ffb7 a7be
00000040: 4932 a63f 557a eebf ccd7 44c0 f2dd 4540
00000050: 3889 26c0 b1c4 e13e 272e 893d f8f3 823e
00000060: 7764 8abf 466b 99bf aa1b 40bd 6287 bbbe
00000070: a29c 1640 a49d 463f a8ad cbbf 7945 93be
00000080: 8a35 cbbe 0005 e1bf e605 30bf 6681 863f
00000090: 2f54 f4be 76cd 0b3f a297 5dbf 0be4 ba3e
000000a0: 07b0 8bbf d846 1c3f d0c6 1440 0203 09c0
000000b0: 2aed 913f bf2b 233f 7d41 9dbf e8ae d2bf
000000c0: 60e2 96be 5d76 c83f f113 0f40 e432 01c0
000000d0: e365 903e fd0d a73e 3d7d 3b3f 067a 90bf
000000e0: f98d 47c0 5434 eebf 46b4 373f d56a 61bf
000000f0: 2056 5140 b44c b7bf a33e 36c0 9af2 c53e

transformer_encoder.layers.0.self_attn.o_proj.bias f4 [8]
-2.7228138 1.1324342 5.883298 -1.2746339 3.4065158 -2.2131383 -4.63418 -3.061916
00000000: 9542 2ec0 9bf3 903f fa43 bc40 3427 a3bf
00000010: 5b04 5a40 0fa4 0dc0 344b 94c0 6ff6 43c0

transformer_encoder.layers.0.linear_net.0.weight f4 [16, 8]
0.89774317 0.21645156 -2.2762382 0.7866478 0.1775192 -0.27002245 -1.1396035 2.9313633
0.03361557 -0.15708967 -1.4326978 1.3466512 0.6845757 0.041996468 -0.9143749 0.43439195
2.3178854 -4.2352943 -1.4196248 -0.28570965 2.2679682 -2.286629 4.3997893 0.84687513
-0.94637585 -0.052458707 -3.2228491 2.9377387 2.4986863 2.946569 -0.37713236 4.5691376
-0.011698535 0.30131778 -1.740213 2.3347685 1.28635 2.142678 -0.5376896 3.0964692
2.1048644 -0.1997498 -1.5272964 0.6307324 -1.3271325 -2.0941913 1.0204359 4.5930142
1.1716393 1.2333425 -3.5780149 1.2523446 -1.73535 -0.9776834 1.615896 4.6322017
-0.47550598 -1.2187158 -3.825049 -1.7108591 -2.5990443 -1.0850867 3.646112 1.3966148
1.5609887 -0.34902745 -4.2573595 0.033427887 -0.69544256 0.067114756 -1.2616377 5.3647356
0.77204245 -0.89547503 -2.7596476 4.9836926 -0.7461153 4.575923 3.4965446 1.5056148
2.6534524 -1.0740472 -5.2933664 0.19207272 -0.9301098 -1.433974 1.9141028 3.3698978
0.56884 -0.46174735 -1.5467316 0.1210198 0.07582318 -0.29227957 -0.05324321 0.43451154
0.36242396 0.14910161 -1.1209708 1.2491645 0.607897 0.053934246 -1.2374879 1.7506948
3.5648956 -3.9423113 -6.670605 -3.091592 -2.9972115 -3.0224023 5.908941 2.3546069
0.29404894 -0.03632386 -1.3357912 1.5432775 -0.4315151 -0.19977926 -0.37306318 0.5300298
4.507506 -1.4530312 -8.062951 0.45998302 -2.4435163 -2.3793705 3.0925126 3.9885519
00000000: 7fd2 653f 7aa5 5d3e e3ad 11c0 c061 493f
00000010: 98c7 353e 6240 8abe 87de 91bf 759b 3b40
00000020: 7bb0 093d 1ddc 20be a462 b7bf 115f ac3f
00000030: 5a40 2f3f 7d04 2c3d 7914 6abf 9f68 de3e
00000040: 3c58 1440 8887 87c0 44b6 b5bf 8948 92be
00000050: 6426 1140 2158 12c0 13cb 8c40 cfcc 583f
00000060: b045 72bf f1de 56bd 2943 4ec0 e903 3c40
00000070: 7aea 1f40 9694 3c40 7e17 c1be 6036 9240
00000080: 36ab 3fbc 5346 9a3e 4dbf debf d96c 1540
00000090: 1ea7 a43f a321 0940 07a6 09bf 8d2c 4640
000000a0: 19b6 0640 368b 4cbe 737e c3bf ae77 213f
000000b0: 7adf a9bf 3b07 06c0 a59d 823f f9f9 9240
000000c0: 47f8 953f 2bde 9d3f 32fe 64c0 d44c a03f
000000d0: f31f debf 7649 7abf aed5 ce3f ff3a 9440
000000e0: 8575 f3be e1fe 9bbf 9acd 74c0 6efd dabf
000000f0: be56 26c0 1fe4 8abf e659 6940 46c4 b23f
00000100: 7ace c73f bab3 b2be 4a3c 88c0 aeeb 083d
00000110: 8608 32bf 7673 893d 587d a1bf eaab ab40
00000120: 93a4 453f da3d 65bf 119e 30c0 697a 9f40
00000130: 6a01 3fbf f66d 9240 63c7 5f40 fcb7 c03f
00000140: 2ad2 2940 617a 89bf 4263 a9c0 b6ae 443e
00000150: ad1b 6ebf 768c b7bf 5201 f53f 68ac 5740
00000160: 809f 113f 266a ecbe 4dfb c5bf 3bd9 f73d
00000170: 2f49 9b3d aba5 95be 8d15 5abd 4c78 de3e
00000180: a28f b93e 18ae 183e f97b 8fbf 9fe4 9f3f
00000190: 239f 1b3f 28ea 5c3d 0166 9ebf c416 e03f
000001a0: 4027 6440 d44e 7cc0 9975 d5c0 a5dc 45c0
000001b0: 50d2 3fc0 0a6f 41c0 0b16 bd40 e1b1 1640
000001c0: 958d 963e 54c8 14bd 35fb aabf 1e8a c53f
000001d0: 8cef dcbe ef92 4cbe 2302 bfbe 08b0 073f
000001e0: 7d3d 9040 edfc b9bf d901 01c1 e582 eb3e
000001f0: 9262 1cc0 9b47 18c0 baeb 4540 6f44 7f40

transformer_encoder.layers.0.linear_net.0.bias f4 [16]
-3.5667558 -1.7448983 -0.25512788 -3.6159837 -3.7160206 -3.578637 -5.3347473 -3.395028
-3.445949 -3.5274947 -4.4801707 -0.52345675 -2.9497292 -0.61601293 -0.68618464 -2.133611
00000000: ba45 64c0 d458 dfbf 1fa0 82be 476c 67c0
00000010: 48d3 6dc0 6308 65c0 40b6 aac0 2448 59c0
00000020: 6e8a 5cc0 79c2 61c0 8f5d 8fc0 4301 06bf
00000030: 5dc8 3cc0 06b3 1dbf cca9 2fbf 158d 08c0

transformer_encoder.layers.0.linear_net.3.weight f4 [8, 16]
1.6976246 1.3858742 -1.136752 -0.15309952 2.2407334 -0.44220787 0.123627774 1.3047124
-0.20780152 -0.20783179 0.014506622 1.5270448 1.1233399 1.9447873 1.6120099 2.378959
0.74497736 0.60793334 -1.4251268 -0.6966518 1.8799798 -2.056105 0.06753409 3.680417
0.40860593 -0.010602877 -2.3506796 0.47756135 0.6561875 -0.16614285 0.9682613 2.6536014
2.4172754 0.7782364 -1.546001 0.26624122 0.58188987 -1.421383 2.3153434 0.67676747
1.4564002 4.5795283 1.8504261 0.593749 0.31861758 -0.27729985 0.45614395 0.47910762
3.7473974 0.27584153 -2.4399428 2.2347329 2.3012755 -0.909803 0.5487383 1.4635206
2.5368724 0.82281315 -2.1775947 0.4302226 0.22913022 -1.1054947 0.35345635 2.215513
0.63067216 1.2406 -1.7205006 1.3488593 0.35224456 -3.5145588 3.085673 0.6298172
1.8948509 4.0289645 1.7260106 0.5696157 1.1988368 -1.5974588 1.1392952 0.87238955
-0.7483986 -1.4263177 -2.9410007 -2.3350766 -2.0472062 0.5940227 1.1269697 -1.9517251
-3.199205 -0.3018822 0.03992512 -1.3644397 -1.6894339 -4.354155 -1.4351254 -1.8562623
-1.340228 -1.1713542 1.4817295 -0.053832754 -2.3184462 1.354562 -0.12605312 -4.1016173
-1.2382207 -0.19877678 2.0359902 -0.62024724 -0.7876833 0.010335643 -1.0403454 -3.434924
-0.4910606 -0.8591818 1.8371917 0.20558406 -0.395202 3.6443899 -1.7800251 1.6258502
-1.2865351 -3.8886504 -0.6537889 -0.75664514 -1.0789151 1.8992112 -1.302952 -0.20938833
00000000: c34b d93f 5364 b13f 1781 91bf 1fc6 1cbe
00000010: 2d68 0f40 1269 e2be 8f30 fd3d d100 a73f
00000020: ecc9 54be dbd1 54be 2fad 6d3c 3476 c33f
00000030: 9ac9 8f3f caee f83f 5756 ce3f dd40 1840
00000040: d6b6 3e3f 85a1 1b3f 8e6a b6bf c657 32bf
00000050: 2ea3 f03f 3997 03c0 504f 8a3d f48b 6b40
00000060: cc34 d13e b0b7 2dbc 8971 16c0 ec82 f43e
00000070: e7fb 273f 5a21 2abe f9df 773f 9bd4 2940
00000080: a4b4 1a40 803a 473f 5ce3 c5bf c550 883e
00000090: bcf6 143f e1ef b5bf 962e 1440 a240 2d3f
000000a0: 526b ba3f 7f8b 9240 c3da ec3f efff 173f
000000b0: d821 a33e 3ffa 8dbe b38b e93e 984d f53e
000000c0: 5cd5 6f40 1a3b 8d3e 0628 1cc0 dd05 0f40
000000d0: 1948 1340 d9e8 68bf 1d7a 0c3f a554 bb3f
000000e0: 1e5c 2240 e2a3 523f b65d 0bc0 2346 dc3e
000000f0: 1da1 6a3e da80 8dbf 3bf8 b43e f7ca 0d40
00000100: bb73 213f fbcb 9e3f 5d39 dcbf 6ca7 ac3f
00000110: 6659 b43e 88ee 60c0 ab7b 4540 b33b 213f
00000120: 798a f23f 47ed 8040 eaed dc3f 56d2 113f
00000130: 7c73 993f 8879 ccbf 6dd4 913f ec54 5f3f
00000140: 0d97 3fbf 9491 b6bf 5b39 3cc0 e571 15c0
00000150: 6d05 03c0 df11 183f 8b40 903f 21d2 f9bf
00000160: c6bf 4cc0 4e90 9abe 8688 233d f6a5 aebf
00000170: 5f3f d8bf 3d55 8bc0 30b2 b7bf 019a edbf
00000180: 978c abbf efee 95bf 50a9 bd3f bc7f 5cbd
00000190: 6c61 14c0 4a62 ad3f 1214 01be 7340 83c0
000001a0: 047e 9ebf 248c 4bbe aa4d 0240 86c8 1ebf
000001b0: 9da5 49bf d456 293c 0a2a 85bf cbd5 5bc0
000001c0: 4c6c fbbe 57f3 5bbf 1929 eb3f a184 523e
000001d0: eb57 cabe af3d 6940 ddd7 e3bf dc1b d03f
000001e0: 2fad a4bf a6df 78c0 b65e 27bf 7fb3 41bf
000001f0: e419 8abf 5a19 f33f 22c7 a6bf e569 56be

transformer_encoder.layers.0.linear_net.3.bias f4 [8]
2.0564604 0.50231314 -1.5325097 0.62488437 -0.46930787 -1.127408 -0.3323878 3.2515268
00000000: 0c9d 0340 9897 003f 4729 c4bf 6cf8 1f3f
00000010: 1f49 f0be e84e 90bf bc2e aabe 0419 5040

final_linear.weight f4 [1, 8]
0.6261336 0.50081474 -0.41449016 0.66127145 -0.38605976 -0.11372679 -0.7531532 0.17503986
00000000: 4b4a 203f 6535 003f 0e38 d4be 1649 293f
00000010: a0a9 c5be 97e9 e8bd a6ce 40bf a63d 333e

exp_avg f4 [8, 2]
-0.00090298266 -0.004166536 -0.00063611334 -0.0029099805 -0.00015661155 2.4615798e-05 -4.1329087e-05 -0.0013391257
0.0005507198 0.0031193555 -0.00045372942 -0.0028670095 3.4501638e-05 0.00040953324 0.0006133568 0.0029545883
00000000: 24b6 6cba 7087 88bb d8c0 26ba 5fb5 3ebb
00000010: 1838 24b9 067e ce37 c558 2db8 9a85 afba
00000020: 2e5e 103a 1a6e 4c3b 88e2 edb9 70e4 3bbb
00000030: dab5 1038 9fb6 d639 aec9 203a c4a1 413b

exp_avg_sq f4 [8, 2]
0.1119456 0.55014217 0.16023074 0.4181444 0.09176671 0.21594238 0.051440515 0.5197447
0.018457936 0.06976126 0.063932136 1.1079296 0.06763852 0.1974657 0.058105525 0.8660893
00000000: bc43 e53d 1ed6 0c3f 8713 243e 0617 d63e
00000010: 2ff0 bb3d 0020 5d3e 4ab3 523d fd0d 053f
00000020: 1935 973c fede 8e3d daee 823d a3d0 8d3f
00000030: 1086 8a3d 7334 4a3e 0f00 6e3d 07b8 5d3f

exp_avg f4 [8]
-0.011483418 -0.008150777 0.00043361867 -0.0042359894 0.0076009016 -0.007063834 0.0022534328 0.0070404075
00000000: f224 3cbc d68a 05bc 5057 e339 0ece 8abb
00000010: fc10 f93b bc77 e7bb 54ae 133b 38b3 e63b

exp_avg_sq f4 [8]
2.8310387 2.0904677 1.0843071 2.7276642 0.31562477 5.6778107 0.8726287 4.1662655
00000000: bd2f 3540 39ca 0540 93ca 8a3f 0d92 2e40
00000010: 9299 a13e a0b0 b540 9864 5f3f 0c52 8540

exp_avg f4 [24, 8]
1.552272e-06 2.2116717e-07 -4.189837e-06 2.0514499e-06 -1.8200395e-06 1.8579141e-06 2.38451e-06 3.858864e-06
4.133062e-07 -9.3256595e-08 -2.1026074e-06 1.1433401e-06 -3.4553037e-07 6.314482e-07 1.3226173e-06 1.9530482e-06
-5.9281366e-08 -1.2655126e-07 -6.003341e-07 3.816831e-07 1.767152e-07 3.3942204e-08 4.3945678e-07 5.660648e-07
-1.5388658e-06 -2.5540638e-07 3.9197985e-06 -1.8921987e-06 1.8372834e-06 -1.8095047e-06 -2.2009297e-06 -3.606142e-06
5.914044e-07 -4.376858e-06 1.133137e-06 -1.5484994e-06 -1.8935876e-07 -1.8711844e-06 3.0258443e-06 1.3894152e-06
-5.29176e-07 3.9651754e-06 -1.0213068e-06 1.3973573e-06 1.6107691e-07 1.697721e-06 -2.7434376e-06 -1.2616696e-06
4.1608652e-07 -3.7087523e-06 8.936046e-07 -1.2418711e-06 -2.6979007e-08 -1.6189431e-06 2.5917905e-06 1.2157839e-06
-5.713631e-07 4.066184e-06 -1.0696874e-06 1.4565896e-06 2.1037717e-07 1.729621e-06 -2.8039194e-06 -1.2806819e-06
-0.00014151001 7.427545e-05 0.00087944814 -0.0005038235 0.00010309221 -0.00022423406 -0.000580061 -0.00081944786
-0.0006690627 0.00028722288 0.0043503693 -0.0025418417 0.0004951809 -0.0011196038 -0.002802903 -0.0039931308
0.00019772952 -0.000106351334 -0.0012170214 0.00069545046 -0.00014412255 0.00031015443 0.0008061389 0.0011372156
-8.306733e-05 5.8256384e-05 0.00046985404 -0.00025780298 5.9139562e-05 -0.000117661686 -0.0003256595 -0.0004516352
-2.8346085e-06 1.1215487e-06 1.2927157e-05 -6.9039397e-06 2.488738e-06 -3.7784282e-06 -8.625301e-06 -1.2327947e-05
-1.3165691e-06 3.9912936e-07 5.1212714e-06 -2.664807e-06 1.274153e-06 -1.6288834e-06 -3.4015686e-06 -4.9078412e-06
1.8432221e-06 -6.5976576e-07 -7.9018655e-06 4.180006e-06 -1.68584e-06 2.384971e-06 5.263501e-06 7.5492662e-06
-2.1841768e-06 8.336458e-07 9.739466e-06 -5.1838665e-06 1.9473725e-06 -2.8798333e-06 -6.4944907e-06 -9.293965e-06
8.664883e-06 -2.6777738e-05 1.0850365e-05 -1.3533416e-05 -9.1292495e-06 -9.459787e-06 1.6876922e-05 6.180959e-06
6.3766583e-06 -1.9657971e-05 7.977693e-06 -9.947893e-06 -6.726463e-06 -6.9384223e-06 1.238473e-05 4.530384e-06
-7.5439225e-06 2.3286493e-05 -9.44252e-06 1.1776103e-05 7.952784e-06 8.223131e-06 -1.4673869e-05 -5.3710028e-06
7.30692e-06 -2.2518207e-05 9.14035e-06 -1.13973765e-05 -7.708878e-06 -7.947178e-06 1.4185851e-05 5.1885345e-06
-0.0009578969 -2.697171e-05 0.004866397 -0.0028289102 0.0009316995 -0.0015236231 -0.0028745097 -0.004339308
0.00053503434 -1.7648386e-05 -0.0026332398 0.0015126037 -0.000517638 0.0008222574 0.0015835376 0.00237007
0.0006327883 -7.748407e-06 -0.0031492726 0.0018161053 -0.0006135572 0.0009842622 0.0018819132 0.0028260623
-0.00067828083 3.2061023e-05 0.0033136446 -0.0018971909 0.0006559779 -0.0010337317 -0.0020007705 -0.0029903918
00000000: a957 d035 f879 6d34 6d96 8cb6 a4ab 0936
00000010: 1548 f4b5 715d f935 9205 2036 647b 8136
00000020: 5fe4 dd34 5b44 c8b3 851a 0db6 de74 9935
00000030: 5581 b9b4 ca80 2935 c984 b135 1d11 0336
00000040: 8d9c 7eb3 25e2 07b4 a526 21b5 20ea cc34
00000050: 1bbf 3d34 d9c7 1133 7bee eb34 adf3 1735
00000060: 078b ceb5 c91e 89b4 d086 8336 74f7 fdb5
00000070: 9498 f635 1cde f2b5 afb3 13b6 0c01 72b6
00000080: 00c1 1e35 eddc 92b6 4a16 9835 09d6 cfb5
00000090: 8a52 4bb4 6825 fbb5 9c0f 4b36 f17b ba35
000000a0: b30c 0eb5 990c 8536 d613 89b5 d58c bb35
000000b0: 7cf4 2c34 40dd e335 e61b 38b6 a356 a9b5
000000c0: 7f62 df34 e1e3 78b6 0ae0 6f35 5eae a6b5
000000d0: 77bf e7b2 764a d9b5 9fee 2d36 042e a335
000000e0: c65f 19b5 4170 8836 2e92 8fb5 0a80 c335
000000f0: 09e4 6134 5325 e835 f82a 3cb6 e5e3 abb5
00000100: 4e62 14b9 54c4 9b38 c48a 663a 0613 04ba
00000110: 3533 d838 5f20 6bb9 3c0f 18ba 37d0 56ba
00000120: 0a64 2fba 6796 9639 8b8d 8e3b 0795 26bb
00000130: 07cf 013a abbf 92ba e9b0 37bb cfd8 82bb
00000140: 9d55 4f39 f008 dfb8 7684 9fba e44e 363a
00000150: 9a1f 17b9 399c a239 1153 533a a00e 953a
00000160: 6f34 aeb8 5158 7438 be56 f639 bb29 87b9
00000170: 9f0c 7838 23c1 f6b8 47bd aab9 73c9 ecb9
00000180: 343a 3eb6 1f88 9635 b7e1 5837 64a8 e7b6
00000190: 3104 2736 e790 7db6 63b5 10b7 21d4 4eb7
000001a0: f8b4 b0b5 ec47 d634 63d7 ab36 09d5 32b6
000001b0: 9003 ab35 02a0 dab5 8146 64b6 09ae a4b6
000001c0: a164 f735 c21a 31b5 4192 04b7 fa41 8c36
000001d0: 0545 e2b5 7d0d 2036 219d b036 b44f fd36
000001e0: df93 12b6 b4c7 5f35 b066 2337 13f1 adb6
000001f0: 9baf 0236 2943 41b6 40eb d9b6 47ed 1bb7
00000200: 645f 1137 c1a0 e0b7 f609 3637 940d 63b7
00000210: d429 19b7 7ab5 1eb7 ea92 8d37 0966 cf36
00000220: 14f7 d536 2ce7 a4b7 eed7 0537 e0e5 26b7
00000230: e1b3 e1b6 98d0 e8b6 03c8 4f37 b403 9836
00000240: cd21 fdb6 5d57 c337 516b 1eb7 fa91 4537
00000250: f26c 0537 14f6 0937 ca2f 76b7 9038 b4b6
00000260: f72d f536 7be5 bcb7 8159 1937 5c37 3fb7
00000270: 6155 01b7 df54 05b7 c4ff 6d37 2c19 ae36
00000280: 5f1b 7bba 4e41 e2b7 4c76 9f3b 3d65 39bb
00000290: 4c3d 743a 4fb4 c7ba 4562 3cbb c130 8ebb
000002a0: 8c41 0c3a 9f0b 94b7 6f92 2cbb 8f42 c63a
000002b0: 19b2 07ba c38c 573a b48e cf3a 2d53 1b3b
000002c0: b4e1 253a 28ff 01b7 0764 4ebb 620a ee3a
000002d0: 20d7 20ba 5c02 813a 87aa f63a 7535 393b
000002e0: a8ce 31ba 4379 0638 bb29 593b 2aab f8ba
000002f0: eff5 2b3a 487e 87ba 5c1f 03bb 73fa 43bb

exp_avg_sq f4 [24, 8]
0.00013126 0.0016169102 0.014747128 0.015624038 0.0028664295 0.0057747504 0.067056485 0.0011898603
7.7385375e-05 0.00095220836 0.008684907 0.00920098 0.0016880878 0.0034008818 0.0394907 0.00070092204
0.00011821549 0.0014532382 0.013234622 0.014023183 0.002571324 0.005181142 0.060198534 0.0010683059
0.00010665638 0.0013155661 0.012020409 0.0127332285 0.002337637 0.0047084857 0.05463729 0.00096950575
0.00013365445 0.00011171476 1.7683815e-05 5.0596594e-07 2.1905671e-05 4.7617825e-05 0.0001489778 1.389737e-05
2.2016803e-07 1.6115688e-06 1.0049059e-05 4.0693172e-07 2.3307111e-06 9.928217e-06 7.373901e-06 2.4327771e-06
0.000286784 0.0002455515 2.267717e-05 5.0017144e-07 4.5190052e-05 8.8391665e-05 0.00031897574 2.6111466e-05
2.5843085e-05 2.1459233e-05 1.07761925e-05 3.9234678e-07 5.6720537e-06 1.6258e-05 3.252781e-05 4.4630747e-06
0.14218989 0.1710267 0.37204772 0.11958524 0.09051214 0.06601063 1.2565796 0.1902327
0.27557555 0.3675647 1.0506645 0.31081244 0.1926715 0.18161054 2.7087567 0.5313964
0.23500896 0.31229296 0.8098985 0.36132002 0.1707874 0.1694905 2.7576873 0.36127105
0.11701921 0.18337479 0.5601907 0.20587832 0.09594608 0.12215179 1.4315201 0.26268706
4.715364e-08 3.584667e-07 8.1285044e-08 5.0037524e-08 3.9721826e-08 1.1899125e-08 9.313011e-08 2.4724054e-07
3.184062e-08 2.4301988e-07 5.2391314e-08 3.161211e-08 2.6917249e-08 7.451395e-09 5.3392302e-08 1.6615687e-07
3.642879e-08 2.774803e-07 6.494567e-08 3.7624183e-08 3.1398155e-08 9.90042e-09 6.631501e-08 1.918789e-07
4.1368178e-08 3.154726e-07 7.5682735e-08 4.306797e-08 3.5816115e-08 1.171426e-08 7.6375244e-08 2.1887266e-07
5.993139e-08 2.9680004e-06 3.7634172e-06 3.036035e-07 2.082369e-06 1.7127516e-06 6.434178e-06 7.829377e-08
3.9427793e-08 1.8210615e-06 2.3029552e-06 1.8944819e-07 1.2785611e-06 1.0508667e-06 3.938662e-06 4.9253693e-08
4.0664766e-08 1.9444715e-06 2.459378e-06 2.0214063e-07 1.365607e-06 1.1210842e-06 4.2070183e-06 5.206062e-08
4.5729312e-08 2.2577017e-06 2.8635818e-06 2.3047275e-07 1.5836162e-06 1.3031919e-06 4.8952866e-06 5.961707e-08
0.1723323 0.22877969 0.5977348 0.15577085 0.1427081 0.07216755 1.7204454 0.30981934
0.073769 0.27712575 1.2314596 0.3106285 0.097012445 0.25019744 1.3763928 0.5848134
0.115406916 0.24646294 0.8012412 0.17830364 0.109240785 0.14411247 1.2950449 0.41231984
0.05480174 0.24851842 1.2032034 0.3331828 0.09314215 0.25533736 1.3579913 0.5523637
00000000: d7a2 0939 81ee d33a f09d 713c f7fb 7f3c
00000010: b5da 3b3b 1e3a bd3b e954 893d 16f5 9b3a
00000020: f549 a238 9f9d 793a 244b 0e3c b5bf 163c
00000030: d442 dd3a 54e1 5e3b 00c1 213d 15be 373a
00000040: 75ea f738 957a be3a 07d6 583c 7ec1 653c
00000050: a883 283b 92c6 a93b bd92 763d 6606 8c3a
00000060: b5ac df38 136f ac3a 40f1 443c 089f 503c
00000070: 0a33 193b a449 9a3b 5acb 5f3d 6e26 7e3a
00000080: 9825 0c39 6848 ea38 b457 9437 b7d1 0735
00000090: 12c2 b737 40b9 4738 ec36 1c39 c028 6937
000000a0: 5467 6c34 154d d835 6198 2837 4578 da34
000000b0: 5069 1c36 5e91 2637 546d f736 cb42 2336
000000c0: 7f5b 9639 5dbd 8039 da3a be37 8543 0635
000000d0: 738a 3d38 ea5e b938 333c a739 f209 db37
000000e0: 9ac9 d837 5a03 b437 65cb 3437 bba3 d234
000000f0: 9252 be36 ca61 8837 786e 0838 85c1 9536
00000100: 3a9a 113e a021 2f3e 0a7d be3e 1be9 f43d
00000110: 6e5e b93d 9530 873d 9ad7 a03f 5ccc 423e
00000120: 3d18 8d3e 7131 bc3e 2d7c 863f cf22 9f3e
00000130: ad4b 453e 1df8 393e 455c 2d40 9809 083f
00000140: 30a6 703e dde4 9f3e 8255 4f3f f0fe b83e
00000150: e4e2 2e3e eb8e 2d3e f37d 3040 85f8 b83e
00000160: c4a7 ef3d 9ac6 3b3e a868 0f3f c4d1 523e
00000170: 617f c43d b82a fa3d 0d3c b73f eb7e 863e
00000180: fa85 4a33 4a73 c034 ed8e ae33 d7e8 5633
00000190: 9c9a 2a33 e86c 4c32 d2fe c733 7bbc 8434
000001a0: 22c1 0833 6678 8234 dc04 6133 e2c5 0733
000001b0: a837 e732 9503 0032 7551 6533 da68 3234
000001c0: e175 1c33 9af8 9434 4278 8b33 3a98 2133
000001d0: a3da 0633 8216 2a32 1069 8e33 4507 4e34
000001e0: cbac 3133 395e a934 0687 a233 bcf9 3833
000001f0: 3cd4 1933 dc3f 4932 bc03 a433 4203 6b34
00000200: a1b3 8033 dc2d 4736 048f 7c36 f3fe a234
00000210: d4be 0b36 b2e1 e535 2be5 d736 7522 a833
00000220: 5157 2933 326b f435 788c 1a36 1f6b 4b34
00000230: 069b ab35 810b 8d35 d928 8436 028b 5333
00000240: 62a7 2e33 c47d 0236 cb0b 2536 fe0b 5934
00000250: e649 b735 2978 9635 032a 8d36 4299 5f33
00000260: e967 4433 0583 1736 f62b 4036 de77 7734
00000270: a38c d435 55e9 ae35 3142 a436 d506 8033
00000280: e177 303e 3945 6a3e 2605 193f 6582 1f3e
00000290: 1222 123e 95cc 933d 8e37 dc3f a4a0 9e3e
000002a0: 3414 973d 6de3 8d3e 78a0 9d3f b30a 9f3e
000002b0: 76ae c63d e119 803e a42d b03f 55b6 153f
000002c0: 765a ec3d c860 7c3e 251e 4d3f 3b95 363e
000002d0: a2b9 df3d 3892 133e 08c4 a53f 961b d33e
000002e0: ca77 603d 9d7b 7e3e 9202 9a3f f096 aa3e
000002f0: 50c1 be3d 94bb 823e a9d2 ad3f b567 0d3f

exp_avg f4 [8, 8]
0.00037711722 -0.0002399771 -0.0005968586 0.001006803 -0.0045553916 -0.0029347122 -0.0025983977 0.0038164381
0.0003041585 -0.00019210219 -0.00047994324 0.00080936553 -0.0036663315 -0.0023601374 -0.002089145 0.003068487
-0.00022852684 0.00015785392 0.00037270307 -0.0006319124 0.0028291973 0.0018357948 0.0016281006 -0.0023905258
0.00037599125 -0.0002525996 -0.0006067126 0.0010270673 -0.0046156454 -0.0029872349 -0.002647563 0.0038878256
-0.00020979194 0.0001465724 0.0003438928 -0.00058334327 0.0026065025 0.0016938346 0.0015026953 -0.0022062762
-8.172121e-05 4.4376247e-05 0.00012240367 -0.00020461573 0.00094520947 0.0006003771 0.0005297765 -0.00077850564
-0.0004669397 0.0002897897 0.0007320794 -0.0012332656 0.0056002713 0.0035989513 0.003184524 -0.0046777995
9.843924e-05 -6.69044e-05 -0.00015955388 0.00027026987 -0.0012127046 -0.000785743 -0.00069654844 0.001022763
00000000: d1b7 c539 5da2 7bb9 8176 1cba b4f6 833a
00000010: 6545 95bb 4d54 40bb e149 2abb 351d 7a3b
00000020: 7677 9f39 0a6f 49b9 e4a0 fbb9 9a2b 543a
00000030: d646 70bb 89ac 1abb 09ea 08bb ab18 493b
00000040: b5a0 6fb9 9785 2539 5c67 c339 eca6 25ba
00000050: 0e6a 393b 0d9f f03a fe65 d53a 5eaa 1cbb
00000060: b120 c539 586f 84b9 cb0b 1fba a99e 863a
00000070: d73e 97bb 7cc5 43bb bc82 2dbb e4ca 7e3b
00000080: 98fb 5bb9 3bb1 1939 834c b439 81eb 18ba
00000090: dbd1 2a3b a803 de3a 16f6 c43a 2c97 10bb
000000a0: be61 abb8 a220 3a38 7c59 0039 1e8e 56b9
000000b0: efc7 773a a062 1d3a b3e0 0a3a a114 4cba
000000c0: 96cf f4b9 eaee 9739 04e9 3f3a 87a5 a1ba
000000d0: 7b82 b73b 62dc 6b3b 72b3 503b 3a48 99bb
000000e0: 2a71 ce38 074f 8cb8 eb4d 27b9 02b3 8d39
000000f0: 9df3 9eba 52fa 4dba 9398 36ba 3b0e 863a

exp_avg_sq f4 [8, 8]
0.4751546 0.07505184 0.23044623 0.2227489 0.87850446 0.10944434 0.15157254 0.11544734
0.20511942 0.030711837 0.19081748 0.16909836 0.43909407 0.047181427 0.06356236 0.055501085
0.2978531 0.029773686 0.48281103 0.4072172 0.6711152 0.067243874 0.16524713 0.08873301
0.72769564 0.06862277 1.4827539 1.2469177 1.814797 0.105792806 0.2710433 0.13052459
0.5750448 0.089190595 0.11169705 0.12942943 0.86700827 0.09318468 0.22728883 0.06150336
0.049662236 0.019032145 0.12116055 0.099459335 0.14599805 0.021856138 0.029447397 0.03572112
0.41650704 0.064297915 0.16008659 0.18764634 0.85874593 0.1241812 0.214661 0.14431325
0.30367613 0.015651966 1.0811083 0.84436136 0.84164006 0.020467566 0.017669853 0.060713425
00000000: 7747 f33e c7b4 993d 19fa 6b3e 4a18 643e
00000010: abe5 603f 5b24 e03d d535 1b3e a86f ec3d
00000020: d30a 523e 6497 fb3c a865 433e 1f28 2d3e
00000030: f0d0 e03e 5041 413d fc2c 823d 1b55 633d
00000040: 3480 983e f2e7 f33c 0233 f73e c67e d03e
00000050: 35ce 2b3f 28b7 893d 8b36 293e a7b9 b53d
00000060: 434a 3a3f 188a 8c3d e1ca bd3f 009b 9f3f
00000070: 454b e83f e6a9 d83d 30c6 8a3e 3da8 053e
00000080: 2336 133f 8fa9 b63d 6cc1 e43d 2689 043e
00000090: 41f4 5d3f 9cd7 be3d 67be 683e f2ea 7b3d
000000a0: a16a 4b3d 4de9 9b3c 0623 f83d 56b1 cb3d
000000b0: 8380 153e a50b b33c ab3b f13c 4f50 123d
000000c0: 6940 d53e a0ae 833d bded 233e 5d26 403e
000000d0: c6d6 5b3f b752 fe3d 18d0 5b3e dac6 133e
000000e0: 707b 9b3e 8d38 803c c261 8a3f 1128 583f
000000f0: b975 573f 99ab a73c 5ec0 903c a4ae 783d

exp_avg f4 [8]
0.0013137425 0.0010567838 -0.00081933895 0.00133463 -0.0007554875 -0.00027033052 -0.0016126735 0.00035088812
00000000: e231 ac3a c883 8a3a e8c8 56ba c0ee ae3a
00000010: e80b 46ba 26bb 8db9 5860 d3ba 68f7 b739

exp_avg_sq f4 [8]
0.01631072 0.009687878 0.02518731 0.05061181 0.01686455 0.008351125 0.023031179 0.023244673
00000000: 0f9e 853c e8b9 1e3c 9e55 ce3c 544e 4f3d
00000010: 8627 8a3c 28d3 083c e2ab bc3c 9d6b be3c

exp_avg f4 [16, 8]
-1.0490106e-17 -1.0737641e-17 6.145232e-17 -1.730165e-17 2.849279e-17 -3.3206464e-17 -4.054832e-17 -1.0940405e-17
4.2288175e-22 -1.4405637e-21 9.515221e-24 -2.6256e-21 -2.1631486e-21 -5.283187e-22 6.2962884e-21 -8.3269714e-22
-1.2137087e-17 1.5472094e-17 -4.3546586e-17 9.814936e-18 -1.923645e-17 4.3815562e-17 -3.139713e-17 8.26443e-17
1.396944e-15 2.057344e-15 6.8573286e-17 -8.5216226e-16 -3.771345e-16 -1.0188972e-15 -6.7855936e-16 -4.865402e-16
4.1773682e-16 6.111842e-16 1.8325588e-17 -2.5214201e-16 -1.123947e-16 -3.0506305e-16 -2.0221188e-16 -1.4250076e-16
2.7785688e-17 4.2463797e-17 1.4575563e-18 -1.7723812e-17 -7.922655e-18 -1.9599899e-17 -1.3018574e-17 -1.12325155e-17
9.129824e-16 1.353864e-15 5.19511e-17 -5.584344e-16 -2.4155945e-16 -6.7051546e-16 -4.5612883e-16 -3.2314662e-16
3.7202867e-19 2.2745486e-18 3.1780218e-20 -5.28901e-19 -3.3305859e-19 1.1139802e-18 5.3645568e-20 -2.1263482e-18
-1.7704074e-17 -1.5722379e-17 -2.838098e-18 1.0299672e-17 6.629863e-19 1.9573797e-17 1.355607e-17 -4.352245e-18
-1.9205229e-16 3.0204176e-16 9.031001e-16 -2.3852567e-17 5.034971e-16 -2.2137628e-16 -2.8208532e-16 -7.862663e-16
3.171662e-17 -4.4395128e-17 1.255574e-16 -3.0155303e-17 5.494005e-17 -1.2153937e-16 9.067089e-17 -2.4425452e-16
-1.2830426e-21 2.2052285e-22 5.6335614e-22 -1.4606001e-21 -5.9567955e-22 1.7900586e-21 2.1138374e-22 -3.9702472e-21
-2.6750197e-08 -1.3902963e-08 -8.300574e-08 3.5281275e-08 -4.24064e-08 8.413086e-08 9.310846e-08 -1.4914955e-08
-3.7208197e-19 3.5934665e-21 1.1819401e-18 -1.3092494e-18 8.9957746e-20 -3.9102343e-20 9.632458e-19 -4.4691696e-18
-1.5153205e-21 -3.3955224e-22 6.844772e-22 -3.4256595e-21 -1.9893775e-21 2.2839137e-21 3.4007406e-21 -5.9620816e-21
9.328394e-16 2.110842e-15 7.532602e-16 -1.162506e-15 -3.413937e-16 -9.230156e-16 -5.535154e-16 -1.5424594e-15
00000000: 2082 41a3 1313 46a3 0cb3 8d24 5e94 9fa3
00000010: 5966 0324 4623 19a4 02ff 3aa4 9ad0 49a3
00000020: c89d ff1b 1cb1 d99c 180d 3819 7d62 469d
00000030: 6171 239d aeac 1f9c f7dd ed1d d2aa 7b9c
00000040: c6e3 5fa3 73b4 8e23 bcd2 48a4 ba0d 3523
00000050: c96c b1a3 4910 4a24 30cb 10a4 9690 be24
00000060: 2352 c926 4c3f 1427 861e 9e24 7a9e 75a6
00000070: 3b67 d9a5 acd6 92a6 d894 43a6 553c 0ca6
00000080: 13cf f025 6f29 3026 1206 a923 9859 91a5
00000090: 0f95 01a5 5cdb afa5 6a22 69a5 cd4a 24a5
000000a0: 8d23 0024 67d4 4324 ec18 d721 2b79 a3a3
000000b0: ae25 12a3 f4c6 b4a3 7a26 70a3 0e34 4fa3
000000c0: 1b93 8326 c41c c326 0995 6f24 30f5 20a6
000000d0: e23f 8ba5 4f43 41a6 5e78 03a6 0648 baa5
000000e0: 629b db20 02d5 2722 ed13 161f a11a 1ca1
000000f0: 649a c4a0 fb64 a421 8355 7d1f 95e5 1ca2
00000100: 904a a3a3 6b03 91a3 286a 51a2 d3fe 3d23
00000110: d4ad 4321 5289 b423 bb10 7a23 cb91 a0a2
00000120: d56b 5da5 7f1d ae25 8326 8226 4800 dca3
00000130: 871f 1126 bf3a 7fa5 729c a2a5 36a0 62a6
00000140: 6044 1224 84bc 4ca4 01c2 1025 1911 0ba4
00000150: c35d 7d24 1720 0ca5 a612 d124 9bcd 8ca5
00000160: 4ee3 c19c 424c 851b 9243 2a1c 3bb8 dc9c
00000170: 7908 349c c540 071d 198c 7f1b e0fd 959d
00000180: 4ec8 e5b2 e1d9 6eb2 e340 b2b3 2c88 1733
00000190: 5422 36b3 6eab b433 ebf2 c733 551e 80b2
000001a0: 70a3 dba0 e0c1 871d 6f6c ae21 0b36 c1a1
000001b0: 1f68 d41f d5a7 389f 6626 8e21 1de2 a4a2
000001c0: 1ffd e49c 2a3f cd9b dcde 4e1c f26a 819d
000001d0: 2850 169d 5191 2c1d f279 801d b73d e19d
000001e0: b36f 8626 2a1a 1827 cb1c 5926 e788 a7a6
000001f0: d1cc c4a5 4405 85a6 3a8a 1fa6 b54a dea6

exp_avg_sq f4 [16, 8]
7.140126e-06 1.0793654e-05 1.7644769e-06 2.6311031e-06 4.923177e-06 1.0035297e-05 1.031508e-05 2.0068939e-07
7.1892407e-07 3.8007151e-06 3.0689452e-07 1.1994115e-06 9.692274e-06 6.7139717e-06 1.4201342e-05 8.20303e-06
0.017610768 0.001777218 0.0032175635 0.017340595 0.0006727495 0.024331022 0.002635638 0.08843812
0.00014750268 0.00035856277 3.1610095e-06 0.000144083 7.822773e-05 8.267647e-05 0.0006315469 3.2997676e-05
1.9175372e-05 4.2885156e-05 7.5682347e-06 2.1629627e-05 1.7935216e-05 1.909439e-05 0.00010934593 9.474253e-06
0.0014919663 0.0015355919 0.0007228215 0.00037978048 0.0006201638 0.00015989428 0.00088147726 0.00091893156
1.3283902 0.10490145 1.0016346 0.23374212 1.0851614 0.024308927 1.7326005 0.1316477
0.009105429 0.057913687 0.0007116105 0.016657563 0.008301452 0.023430504 0.06258118 0.051798422
0.00053153065 0.00047831264 0.00027169625 0.00035033186 0.00018448595 0.0014580193 0.0005013186 0.0010595903
0.022587668 0.055697978 0.49746653 0.00034944492 0.15465498 0.029772783 0.048466552 0.37735632
0.007906306 0.0035319838 0.015068216 0.01361051 0.003873904 0.029158054 0.007862699 0.11163042
1.023048e-06 4.5901643e-06 4.4723703e-07 3.6585809e-07 1.2497851e-05 9.513294e-06 1.15142975e-05 1.2827805e-05
1.0319683e-05 8.3332325e-06 1.8402613e-06 4.117065e-06 7.279333e-06 7.866676e-06 2.4833464e-05 4.4591316e-06
0.014996621 0.0031367026 0.0010337773 0.025122313 0.0018153887 0.030523524 0.0006700221 0.11277076
1.2360657e-06 5.7604384e-06 4.220859e-07 8.463075e-07 1.4944483e-05 1.1194125e-05 1.5224296e-05 1.5268875e-05
8.9869136e-05 0.00021457975 3.2842408e-06 4.3155644e-05 8.123323e-06 5.2625688e-05 3.0268233e-05 3.0994703e-05
00000000: 3795 ef36 6416 3537 f7d2 ec35 0292 3036
00000010: c531 a536 465d 2837 ee0e 2d37 147d 5734
00000020: 16fc 4035 ca0f 7f36 43c3 a434 77fb a035
00000030: 009c 2237 9448 e136 4d42 6e37 bf9f 0937
00000040: 7544 903c 8af1 e83a c2dd 523b dd0d 8e3c
00000050: 745b 303a da51 c73c abba 2c3b 0c1f b53d
00000060: f3aa 1a39 7bfd bb39 bb21 5436 fc14 1739
00000070: 310e a438 9862 ad38 658e 253a fc66 0a38
00000080: ccda a037 96df 3338 a4f2 fd36 4571 b537
00000090: 9573 9637 e42c a037 a650 e538 9bf3 1e37
000000a0: 158e c33a ea45 c93a bb7b 3d3a 461d c739
000000b0: 7d92 223a 4ba9 2739 f012 673a 74e4 703a
000000c0: b108 aa3f 92d6 d63d 9035 803f 185a 6f3e
000000d0: 92e6 8a3f 8423 c73c dac5 dd3f a8ce 063e
000000e0: f02e 153c e736 6d3d 5f8b 3a3a 7175 883c
000000f0: d002 083c 54f1 bf3c 902a 803d 952a 543d
00000100: 6b56 0b3a 09c6 fa39 7472 8e39 bfac b739
00000110: 9272 4139 021b bf3a ec6a 033a f3e1 8a3a
00000120: c609 b93c 9023 643d efb3 fe3e b435 b739
00000130: e05d 1e3e 0de6 f33c dd84 463d d934 c13e
00000140: 7389 013c db78 673b aee0 763c 9efe 5e3c
00000150: 53e1 7d3b dfdc ee3c 8dd2 003c 7d9e e43d
00000160: a94f 8935 3605 9a36 ca1b f034 276b c434
00000170: dcad 5137 499b 1f37 882d 4137 0137 5737
00000180: b322 2d37 f6ce 0b37 e6fe f635 5225 8a36
00000190: ff40 f436 1efb 0337 7551 d037 a69f 9536
000001a0: 63b4 753c 2391 4d3b cf7f 873a 4fcd cd3c
000001b0: 56f2 ed3a 780c fa3c 6ca4 2f3a 5bf4 e63d
000001c0: e5e6 a535 ca49 c136 0b9b e234 cf2d 6335
000001d0: 11ba 7a37 67ce 3b37 da6b 7f37 a915 8037
000001e0: 2078 bc38 d000 6139 d466 5c36 0502 3538
000001f0: 6849 0837 67ba 5c38 89e8 fd37 4f00 0238

exp_avg f4 [16]
1.7812997e-18 2.0044075e-21 -3.310061e-18 6.501167e-17 1.9213938e-17 1.3362319e-18 4.319893e-17 1.2746821e-19
-7.595077e-19 2.56679e-17 9.7521434e-18 2.900372e-22 -6.228031e-09 1.6457405e-19 1.3471084e-21 6.113064e-17
00000000: cd6f 0322 e172 171d 493d 74a2 1ee8 9524
00000010: a137 b123 6a31 c521 4b38 4724 e77c 1620
00000020: c72a 60a1 9ebe ec23 32e5 3323 1551 af1b
00000030: 57fe d5b1 744b 4220 bb91 cb1c 29f5 8c24

exp_avg_sq f4 [16]
8.5971726e-07 2.0659238e-06 0.0001821499 5.9224443e-05 1.0828117e-05 8.150338e-06 0.0026572687 0.0013680959
5.4919565e-05 0.0004050425 0.00020027744 1.9789925e-06 4.9300957e-06 0.00023143305 2.5230734e-06 1.0309028e-06
00000000: 52c7 6635 4da4 0a36 7eff 3e39 c367 7838
00000010: 69aa 3537 6fbd 0837 9225 2e3b ae51 b33a
00000020: 6f59 6638 e25b d439 9101 5239 d5ce 0436
00000030: 336d a536 d6ac 7239 1252 2936 8d5d 8a35

exp_avg f4 [8, 16]
-1.898568e-17 -7.5798275e-21 1.6077941e-17 -2.5344025e-16 -5.356394e-16 -2.5035184e-16 -1.8807165e-16 -1.5888018e-18
-2.364269e-17 2.0697679e-17 3.444307e-17 -5.2430904e-21 -9.9854365e-09 2.674587e-19 -1.1924183e-20 1.08417246e-16
-1.3473755e-17 -2.2427663e-21 9.6541134e-18 -1.8011614e-16 -3.805519e-16 -1.7766817e-16 -1.3532368e-16 -7.005974e-19
-1.673865e-17 1.2387624e-17 1.9517279e-17 -1.4273961e-21 -7.97473e-09 4.0082122e-19 -3.2457327e-21 7.871e-17
1.3468687e-17 -8.556507e-22 -5.3638093e-18 1.7669703e-16 3.7526477e-16 1.7470871e-16 1.2951784e-16 6.0308084e-19
1.6372876e-17 -8.122897e-18 -1.2657001e-17 -4.969439e-22 6.613314e-09 8.6562655e-20 -1.1256875e-21 -4.014822e-17
-1.9512215e-17 -5.3111397e-22 1.333875e-17 -2.5709247e-16 -5.4547826e-16 -2.5383214e-16 -1.9079481e-16 -1.0355914e-18
-2.3879384e-17 1.8148905e-17 2.8604028e-17 -2.9954023e-22 -1.0546272e-08 2.8258713e-19 -6.783629e-22 7.532583e-17
1.4489e-17 -1.2611932e-21 -8.0552205e-18 1.9044452e-16 4.0381515e-16 1.884523e-16 1.3950981e-16 1.1763361e-18
1.7739449e-17 -1.1501605e-17 -1.846525e-17 -8.0700274e-22 6.1715895e-09 3.0239468e-20 -1.8321913e-21 -2.8549282e-17
1.8769702e-18 3.2931878e-21 -3.631868e-18 2.6366422e-17 5.513219e-17 2.6014418e-17 1.8762868e-17 2.9785256e-19
2.4860564e-18 -3.777551e-18 -8.0740595e-18 2.2925105e-21 1.8033031e-09 1.1090831e-20 5.2139096e-21 -3.4454352e-17
1.952042e-17 2.929756e-21 -1.727189e-17 2.6149183e-16 5.5223795e-16 2.5813694e-16 1.9513093e-16 1.1839317e-18
2.4342041e-17 -2.2767632e-17 -3.653626e-17 1.947728e-21 1.1993382e-08 -4.3160847e-19 4.4296257e-21 -1.2193913e-16
-5.8797772e-18 7.561887e-22 1.9456173e-18 -7.7197603e-17 -1.6392633e-16 -7.62553e-17 -5.5509146e-17 -8.3798204e-20
-7.122519e-18 3.3458939e-18 5.2784347e-18 4.6126174e-22 -2.796703e-09 -1.5190345e-19 1.0460529e-21 1.8095334e-17
00000000: ab1c afa3 cc2d 0f9e f74a 9423 2e19 92a5
00000010: 3663 1aa6 6951 90a5 f4d4 58a5 3c77 eaa1
00000020: b910 daa3 03e7 be23 33d7 1e24 0f14 c69d
00000030: 6a8c 2bb2 37e1 9d20 d03d 619e 3ffe f924
00000040: 028c 78a3 6975 299d 4316 3223 e7a8 4fa5
00000050: 8c5f dba5 63d6 4ca5 8004 1ca5 a5c7 4ea1
00000060: 0563 9aa3 e682 6423 df03 b423 b6b3 d79c
00000070: 3c01 09b2 649a ec20 9a3d 759d 2f7e b524
00000080: 1374 7823 624d 819c bfe3 c5a2 c2b7 4b25
00000090: 4e53 d825 e96c 4925 eb52 1525 80ff 3121
000000a0: 5c03 9723 4cd7 15a3 ff7a 69a3 2c31 169c
000000b0: 533b e331 ea63 cc1f ed1b aa9c a726 39a4
000000c0: eaf7 b3a3 f484 209c 770e 7623 2734 94a5
000000d0: 3139 1da6 0353 92a5 b0f8 5ba5 89d3 98a1
000000e0: 9a3f dca3 e464 a723 ade9 0324 9b0f b59b
000000f0: ff2e 35b2 5ccf a620 ca05 4d9c 86b0 ad24
00000100: 2fa3 8523 0c96 be9c b497 14a3 4d91 5b25
00000110: 99c8 e825 4d45 5925 07d8 2025 b998 ad21
00000120: 179e a323 cb2a 54a3 d74f aaa3 d0e6 739c
00000130: e00d d431 46cd 0e1f bc6f 0a9d 0ba9 03a4
00000140: f77e 0a22 84d3 781d 06fe 85a2 f42f f323
00000150: 9a40 7e24 cff0 ef23 920e ad23 35d2 af20
00000160: 4770 3722 f65d 8ba2 abf0 14a3 9a37 2d1d
00000170: 16d8 f730 f87f 511e d7f9 c41d 85e4 1ea4
00000180: 4a0b b423 b95d 5d1d 194e 9fa3 62bd 9625
00000190: f82b 1f26 4ace 9425 7cf8 6025 adb7 ae21
000001a0: 0584 e023 8dfe d1a3 677e 28a4 8a2a 131d
000001b0: 740b 4e32 d4c6 fea0 b658 a71d 1496 0ca5
000001c0: edec d8a2 448b 641c ac8f 0f22 6c01 b2a4
000001d0: 83fe 3ca5 2fd5 afa4 a2fd 7fa4 e8dc c59f
000001e0: 2563 03a3 26e2 7622 68bd c222 6668 0b1c
000001f0: 1f30 40b1 0056 33a0 3613 9e1c 66e6 a623

exp_avg_sq f4 [8, 16]
5.7658895e-06 1.12395965e-05 0.0023543355 3.7147824e-05 5.18459e-05 0.0013231612 0.0034290694 0.006683177
7.280588e-05 0.0004036114 0.0011295393 7.452388e-06 8.568698e-06 0.0014569449 2.6063948e-05 2.7888856e-05
4.0570167e-06 6.500835e-06 0.013721595 0.00010684405 2.3855056e-05 0.0025927522 0.082550995 0.00022888632
1.7030885e-05 0.000113096925 0.00036921972 7.097114e-06 6.1199926e-06 0.0023299106 1.5237057e-05 1.1463075e-05
7.954496e-08 3.9295096e-06 0.0055396277 2.9316611e-06 1.33620615e-05 0.0020914648 0.039468884 7.12504e-05
2.0762104e-06 4.230457e-05 0.00015477142 4.548365e-06 5.301811e-07 0.00091520615 8.0970785e-06 9.5845535e-06
7.7757e-08 3.7547518e-06 0.001430102 5.3717986e-06 2.7273434e-05 0.0011116482 0.00358722 0.00023555073
5.138444e-06 0.00020222626 0.0007599941 4.3996965e-06 5.118562e-07 0.00021307441 7.711172e-06 2.0021498e-05
9.215715e-07 3.2664494e-07 0.0049518975 6.052534e-06 1.5481093e-05 0.0010298032 0.05126146 0.00027138577
6.7697733e-06 8.614051e-05 0.00032234745 2.0203282e-07 1.2185941e-06 0.0008301614 8.108491e-07 1.1282958e-05
8.0362867e-07 2.559363e-06 0.0001608883 6.287972e-06 5.250125e-06 0.00027128425 0.012514299 0.0016924444
1.2244363e-05 3.516481e-05 6.5730725e-05 1.8605314e-06 1.2748014e-06 0.00023351745 5.4289576e-06 1.7458008e-06
2.8175173e-06 6.0326356e-06 0.007423828 3.1122963e-05 3.3588472e-05 0.0022721337 0.048366312 0.00057612837
1.8844825e-05 0.00034118607 0.0012488168 6.289865e-06 4.252862e-06 0.0013376735 1.3784967e-05 2.2333452e-05
3.6881278e-07 1.8966924e-07 0.0063455207 2.2969748e-06 2.6884088e-06 0.00043544968 0.060466554 9.542441e-06
6.967384e-07 9.293893e-06 3.263423e-05 1.2645307e-07 5.51722e-07 0.001048495 5.468932e-07 2.1620172e-06
00000000: 9d78 c136 b391 3c37 324b 1a3b 2ccf 1b38
00000010: 1c75 5938 ec6d ad3a 3dba 603b 8dfe da3b
00000020: 5caf 9838 ce9b d339 0d0d 943a 870f fa36
00000030: 47c2 0f37 f5f6 be3a e7a3 da37 ddf2 e937
00000040: 8221 8836 bf21 da36 8ad0 603c 7611 e038
00000050: 581c c837 2aeb 293b 7f10 a93d 3401 7039
00000060: 8cdd 8e37 732e ed38 d593 c139 bf23 ee36
00000070: 565a cd36 6ab1 183b a9a2 7f37 8851 4037
00000080: 4ed2 aa33 3bda 8336 c485 b53b 8ebd 4436
00000090: 9e2d 6037 f510 093b 20aa 213d 446c 9538
000000a0: 0655 0b36 3070 3138 234a 2239 289e 9836
000000b0: c551 0e35 72ea 6f3a b0d8 0737 58cd 2037
000000c0: 5dfb a633 25fa 7b36 4372 bb3a 663f b436
000000d0: 41c9 e437 b9b4 913a 9117 6b3b 2bfe 7639
000000e0: e66a ac36 b30c 5439 573a 473a 1ba1 9336
000000f0: 7d66 0935 ba6c 5f39 3b5f 0137 d7f3 a737
00000100: e961 7735 bd5d af34 8743 a23b df16 cb36
00000110: 65dd 8137 76fa 863a 89f7 513d c848 8e39
00000120: e927 e336 56a6 b438 be00 a939 5cee 5834
00000130: 938e a335 309f 593a 20a9 5935 f04b 3d37
00000140: f1b8 5735 86c1 2b36 20b4 2839 45fd d236
00000150: 3b2a b036 283b 8e39 c608 4d3c 03d5 dd3a
00000160: 236d 4d37 ed7d 1338 ead8 8938 5fb7 f935
00000170: d819 ab35 5ddc 7439 642a b636 4251 ea35
00000180: 9414 3d36 f26b ca36 9543 f33b 078a 0238
00000190: 59e1 0c38 14e8 143b c11b 463d 5207 173a
000001a0: f414 9e37 38e1 b239 57af a33a 870d d336
000001b0: ceb3 8e36 e054 af3a fc45 6737 b958 bb37
000001c0: 3e01 c634 e2a7 4b34 16ee cf3b ba25 1a36
000001d0: 836a 3436 114d e439 c7ab 773d 7918 2037
000001e0: 8007 3b35 f7ec 1b37 bde0 0838 28c7 0734
000001f0: 0c1a 1435 a76d 893a 37ce 1235 2c17 1136

exp_avg f4 [8]
0.0013137446 0.0010567848 -0.00081934594 0.0013346379 -0.0007554835 -0.0002703301 -0.001612681 0.00035089906
00000000: f431 ac3a d083 8a3a 60c9 56ba 04ef ae3a
00000010: a40b 46ba 18bb 8db9 9860 d3ba e0f8 b739

exp_avg_sq f4 [8]
0.008903942 0.0037448083 0.0020590946 0.0052084657 0.0057865763 0.00046075575 0.008317548 0.0004940668
00000000: d7e1 113c 756b 753b e0f1 063b c7ab aa3b
00000010: 529d bd3b 9791 f139 5346 083c 4384 013a

exp_avg f4 [1, 8]
0.006709066 0.017595109 0.03826467 -0.018787134 0.014574401 -0.029771373 -0.03230641 -0.0078295395
00000000: bad7 db3b 9e23 903c 6abb 1c3d 7ae7 99bc
00000010: 78c9 6e3c 18e3 f3bc ba53 04bd 7847 00bc

exp_avg_sq f4 [1, 8]
3.0783498 25.809986 28.992424 10.746662 3.384592 21.049608 8.856636 32.119717
00000000: af03 4540 da7a ce41 7cf0 e741 54f2 2b41
00000010: 289d 5840 9965 a841 c8b4 0d41 977a 0042
