notebooks/lightning_logs/version_157/checkpoints/epoch=269-step=270.ckpt (torch, 25091 bytes, 36 tensors)

front_linear.weight f4 [8, 2]
0.04217037 -0.69471604 -0.11742041 0.45520455 -0.77862734 0.31334668 -0.60595435 -0.16199741
0.3276415 0.104181595 0.65176076 0.69302225 0.03728914 -0.24653703 -0.08308552 0.06222038
00000000: d7ba 2c3d e9d8 31bf 1d7a f0bd 9210 e93e
00000010: 1f54 47bf fa6e a03e d31f 1bbf a6e2 25be
00000020: a0c0 a73e 295d d53d cbd9 263f e869 313f
00000030: 7fbc 183d 3474 7cbe be28 aabd ccda 7e3d

front_linear.bias f4 [8]
-0.006104823 0.07474616 0.33277038 -0.21516994 -0.28511584 -0.01807584 -0.26191843 -0.22769284
00000000: f80a c8bb 8414 993d e160 aa3e 8255 5cbe
00000010: b4fa 91be c913 94bc 2c1a 86be 5028 69be

transformer_encoder.layers.0.self_attn.query_mat.weight f4 [8, 8]
-0.8014055 -0.9731673 0.7389373 -0.35735765 0.75122267 -0.22626276 0.34710097 -0.69277745
0.4705886 1.0999135 -1.0877023 0.04408129 -0.8786236 0.29599968 -0.28219026 0.16957253
0.63879246 1.0673068 -1.2687848 0.88054925 -0.64018893 0.80397 -0.4498497 0.21892089
0.11099858 0.87265104 -0.32570562 -0.5584929 -0.6899747 0.9528587 -0.11020158 0.5271609
0.5611214 1.0871303 -0.83532935 -0.014589076 -0.21433648 0.3686788 -0.8195612 0.433903
0.24044138 0.9622125 -0.41163978 0.42433944 -0.16701673 0.17592636 -0.46299002 0.12002611
0.33744428 0.7668517 -0.56587696 0.23968305 -0.7712424 0.16524963 -0.95362574 0.90706295
0.5922498 0.99817824 -0.97799456 0.011132494 -1.3429203 0.2017357 -0.20948397 0.38113573
00000000: e928 4dbf 7e21 79bf ff2a 3d3f 95f7 b6be
00000010: 2150 403f 6db1 67be 38b7 b13e dd59 31bf
00000020: fdf0 f03e f7c9 8c3f d439 8bbf 958e 343d
00000030: 7aed 60bf 458d 973e 3e7b 90be 6ca4 2d3e
00000040: e787 233f 829d 883f 8a67 a2bf ad6b 613f
00000050: 6ce3 23bf fad0 4d3f b352 e6be cc2c 603e
00000060: 3953 e33d 0f66 5f3f e3c2 a6be 64f9 0ebf
00000070: 2fa2 30bf 8cee 733f 5eb1 e1bd 04f4 063f
00000080: a7a5 0f3f 1627 8b3f 25d8 55bf 0507 6fbc
00000090: 067b 5bbe 78c3 bc3e c3ce 51bf 8928 de3e
000000a0: 4436 763e 8f53 763f 73c2 d2be 0543 d93e
000000b0: 6f06 2bbe 0a26 343e 070d edbe 40d0 f53d
000000c0: 7fc5 ac3e 6550 443f 50dd 10bf 796f 753e
000000d0: 2470 45bf 3337 293e d120 74bf 4735 683f
000000e0: af9d 173f 9c88 7f3f da5d 7abf 1065 363c
000000f0: d0e4 abbf ce93 4e3e f782 56be 3924 c33e

transformer_encoder.layers.0.self_attn.key_mat.weight f4 [8, 8]
-0.18835287 -0.15919563 0.24308528 1.1381278 0.44533032 -0.28008595 0.022434477 -0.28478295
-0.3996049 -0.52671397 0.47257826 0.58840173 0.333791 -0.5701728 -0.8317497 -0.72619385
0.33825862 -1.0265124 -0.43542835 -0.08512876 0.42821395 -0.9347228 0.91977584 -0.023039674
-0.16366671 0.9924044 0.09815833 0.824559 -0.7107048 -0.8498361 -0.10367201 -0.6604623
-0.30718032 -0.30468774 0.06700884 -1.1209916 0.28700253 0.532659 1.1251497 0.9778376
0.22270355 -0.871416 0.6696768 -0.6765252 0.7401569 0.31679457 1.2247007 0.76235294
-0.73950374 1.0156043 -0.18861835 -0.03582055 -0.19450244 -0.25703806 -0.8915458 -0.72644347
0.28575948 0.7917151 0.010217835 0.4498987 -0.5012327 -0.096771486 -0.49760538 -0.12275358
00000000: 93df 40be 2e04 23be 59eb 783e 2cae 913f
00000010: 5602 e43e 6d67 8fbe 82c8 b73c 12cf 91be
00000020: 0399 ccbe bad6 06bf c7f5 f13e 7fa1 163f
00000030: a7e6 aa3e d8f6 11bf 8ced 54bf d7e7 39bf
00000040: 3c30 ad3e c264 83bf 77f0 debe fd57 aebd
00000050: dc3e db3e fe49 6fbf 6e76 6b3f b3bd bcbc
00000060: 3f98 27be 370e 7e3f 3c07 c93d 4c16 533f
00000070: c0f0 35bf dc8e 59bf fe51 d4bd 0f14 29bf
00000080: bd46 9dbe 0800 9cbe ee3b 893d a77c 8fbf
00000090: fff1 923e 575c 083f e804 903f 9153 7a3f
000000a0: 660c 643e 1e15 5fbf f06f 2b3f c130 2dbf
000000b0: ec7a 3d3f e632 a23e fec2 9c3f 9029 433f
000000c0: 1e50 3dbf 52ff 813f 2b25 41be 92b8 12bd
000000d0: a62b 47be 7e9a 83be 583c 64bf 33f8 39bf
000000e0: 114f 923e d7ad 4a3f b568 273c 1f59 e63e
000000f0: c950 00bf 2130 c6bd 22c6 febe 3b66 fbbd

transformer_encoder.layers.0.self_attn.value_mat.weight f4 [8, 8]
-0.71579534 0.4757949 0.15712862 -0.33873835 -0.32183218 0.5624027 0.11906539 0.33282015
0.019369911 0.26708135 0.15217304 -0.62884545 0.07381064 -0.20544803 0.10898453 -0.1572844
-0.081423014 0.3173683 0.72627336 -0.33336687 0.38168752 -0.28022632 0.013405303 -0.27811906
-0.64912605 0.64495295 -0.26435503 0.05657648 0.014554115 0.3943205 -0.43327728 0.2741425
-0.071276784 -0.4982133 0.3587837 0.5851514 0.16399482 -0.35489157 0.44017836 0.37055883
-0.23222752 -0.45637262 0.6490975 -0.40110222 0.2751855 -0.6026957 0.36331323 0.09948285
-0.017088383 0.24921298 -0.17431775 -0.20369281 -0.2021527 -0.49937102 -0.019944027 -0.10209749
0.5976373 0.563383 0.6895629 0.026707532 -0.75798184 0.48585126 0.27107486 -0.30556196
00000000: 5d3e 37bf 649b f33e 53e6 203e 1d6f adbe
00000010: 30c7 a4be a0f9 0f3f 8ed8 f33d 6767 aa3e
00000020: a6ad 9e3c e3be 883e 40d3 1b3e 04fc 20bf
00000030: 082a 973d f860 52be 4833 df3d 290f 21be
00000040: 1cc1 a6bd 197e a23e 0ded 393f 10af aabe
00000050: 8c6c c33e d379 8fbe eaa1 5b3c 9f65 8ebe
00000060: 202d 26bf a31b 253f 8b59 87be bdbc 673d
00000070: 6274 6e3c 60e4 c93e 85d6 ddbe 685c 8c3e
00000080: 90f9 91bd d015 ffbe 7fb2 b73e 7bcc 153f
00000090: 42ee 273e 59b4 b5be 0f5f e13e e3b9 bd3e
000000a0: 0dcd 6dbe aca9 e9be 412b 263f 455d cdbe
000000b0: 1de5 8c3e 444a 1abf 3104 ba3e aabd cb3d
000000c0: f0fc 8bbc b031 7f3e 5a80 32be d994 50be
000000d0: 1e01 4fbe 8fad ffbe a861 a3bc 7d18 d1bd
000000e0: c2fe 183f de39 103f 3287 303f c1c9 da3c
000000f0: 190b 42bf 7fc1 f83e 53ca 8a3e 9e72 9cbe

transformer_encoder.layers.0.self_attn.o_proj.weight f4 [8, 8]
0.43118587 -0.44643423 0.28183097 0.26578292 0.37483695 -0.3893574 -0.8654145 0.30096018
0.00332251 0.07012666 -0.0039204005 -0.41996142 0.21809453 -0.73198 -0.03614822 0.12447287
0.9055159 0.25072494 0.07714685 0.7506023 0.07872576 0.042169016 0.06771332 0.3028701
0.37152588 0.13733366 0.060934186 -0.21110016 0.69531363 0.17503999 -0.074704595 0.47933954
-0.4110238 0.5274281 0.3866765 -0.54895896 -0.39267892 -0.32442093 -0.20242435 0.18465796
-0.4063388 -0.12278925 0.4917969 0.07481407 0.14254889 -0.18559217 0.7316153 0.45553112
-0.3557946 -0.47687814 0.0020131888 0.04325621 0.16210349 0.07243531 -0.1862137 -0.57448137
0.38898385 -0.0040814825 -0.21391754 0.72083354 0.5321691 -0.28404096 -0.11289303 -0.012423665
00000000: 65c4 dc3e 0793 e4be 264c 903e b314 883e
00000010: a1ea bf3e da59 c7be ce8b 5dbf 7417 9a3e
00000020: 78be 593b 919e 8f3d b476 80bb 2f05 d7be
00000030: 2c54 5f3e 0b63 3bbf 2810 14bd a2eb fe3d
00000040: e4cf 673f 055f 803e 2bff 9d3d 7927 403f
00000050: f93a a13d 6bb9 2c3d 48ad 8a3d ca11 9b3e
00000060: a438 be3e 32a1 0c3e 2096 793d a42a 58be
00000070: 1300 323f af3d 333e b9fe 98bd fe6b f53e
00000080: b671 d2be 8705 073f 76fa c53e 9388 0cbf
00000090: 360d c9be 801a a6be 5448 4fbe fa16 3d3e
000000a0: a40b d0be ee78 fbbd cecc fb3e 1e38 993d
000000b0: 56f8 113e e00b 3ebe 244b 3b3f 603b e93e
000000c0: b62a b6be 5f29 f4be b4ef 033b 6c2d 313d
000000d0: 75fe 253e f758 943d ceae 3ebe 3611 13bf
000000e0: e428 c73e f5bd 85bb 330d 5bbe 8c88 383f
000000f0: 3c3c 083f d16d 91be 7634 e7bd a18c 4bbc

transformer_encoder.layers.0.self_attn.o_proj.bias f4 [8]
-0.21281636 -0.3056966 0.08776345 -0.10163087 0.39729542 -0.24296032 0.24263921 0.08352912
00000000: 88ec 59be 4484 9cbe 53bd b33d d823 d0bd
00000010: 4e6a cb3e 97ca 78be 6a76 783e 5111 ab3d

transformer_encoder.layers.0.linear_net.0.weight f4 [16, 8]
-0.9902495 0.22723356 0.10718142 0.12026337 0.5887566 1.2176517 0.14829573 0.03458016
0.010197258 -0.99249643 -0.38952664 -0.3977527 0.7612074 0.09935996 0.5811026 0.5493824
-0.4617113 -0.74472785 0.30080858 -0.24170181 0.4227951 0.48884913 0.44131285 0.51239556
0.72110796 -0.13411267 -0.56578976 -0.19084601 -0.74575454 -0.5123962 0.021588262 -0.031138098
0.65790534 0.56758195 -0.48583114 0.5346498 -0.37238163 0.635779 -0.7642485 -0.39755863
0.090260044 -0.24027134 -0.19676787 0.22168328 0.16147524 0.27605242 -0.02715846 0.2472825
0.81601787 -0.036331803 -0.8838961 0.07084789 -0.39648485 -0.32925734 0.1360734 0.43137968
0.3079681 0.113112405 0.28653976 0.22130553 -0.29382426 0.15606299 -0.59588534 0.16129905
0.4251054 -0.2550991 -0.69019145 -0.38311702 -0.44738296 -0.23702203 0.4566229 0.56381255
1.0218955 0.20982349 -0.6145132 0.17738087 -0.8391923 0.15232101 0.06533625 0.4342334
0.4324594 0.76114714 -0.32664698 0.37446824 -0.16701101 0.44912395 -0.23814318 -0.6540228
-0.6347369 -0.35816357 0.6760576 0.4841929 0.43036333 0.08499496 -0.14255644 0.14255057
0.08540667 0.7136993 0.30474916 1.083107 -0.05314163 1.1986943 -1.2684962 -0.24672906
-0.62146604 -0.49237305 0.07633221 0.24924688 0.1801364 0.13305077 0.2166558 0.19508079
0.46157822 0.21685423 -0.8191118 -0.049306534 -0.8019834 0.09467815 0.052065738 -0.28361827
0.5633994 0.09126139 -0.028071815 -0.40604687 -0.20402674 -0.23572823 -0.020342117 0.039424233
00000000: fe80 7dbf eaaf 683e ef81 db3d a44c f63d
00000010: c1b8 163f 03dc 9b3f d6da 173e eda3 0d3d
00000020: 6612 273c 3f14 7ebf 0970 c7be 3ea6 cbbe
00000030: 7dde 423f 3c7d cb3d 24c3 143f 53a4 0c3f
00000040: 6c65 ecbe 7ca6 3ebf 9503 9a3e ae80 77be
00000050: 9978 d83e 6f4a fa3e c2f3 e13e 5b2c 033f
00000060: 889a 383f d554 09be 99d7 10bf 236d 43be
00000070: c5e9 3ebf 662c 03bf ded9 b03c 5315 ffbc
00000080: 7c6c 283f 0d4d 113f dcbe f8be cfde 083f
00000090: cea8 bebe 6ac2 223f caa5 43bf ce8c cbbe
000000a0: 42da b83d b109 76be 847d 49be f100 633e
000000b0: c459 253e be56 8d3e 6b7b debc a037 7d3e
000000c0: 8ce6 503f a8d0 14bd 0447 62bf b318 913d
000000d0: 1000 cbbe 6b94 a8be d356 0b3e ccdd dc3e
000000e0: ffad 9d3e 7aa7 e73d 57b5 923e eb9d 623e
000000f0: 2270 96be face 1f3e f18b 18bf 942b 253e
00000100: 6aa7 d93e 599c 82be 63b0 30bf ea27 c4be
00000110: 610f e5be e7b5 72be 7aca e93e 0556 103f
00000120: 79cd 823f f8db 563e bd50 1dbf 55a3 353e
00000130: 4ed5 56bf 0afa 1b3e 03cf 853d d753 de3e
00000140: 526b dd3e 8ada 423f 463e a7be 4dba bf3e
00000150: ef04 2bbe 93f3 e53e cedb 73be 0a6e 27bf
00000160: 1e7e 22bf 3761 b7be 1c12 2d3f 22e8 f73e
00000170: 9558 dc3e d611 ae3d 51fa 11be c7f8 113e
00000180: b1e9 ae3d ffb4 363f 1508 9c3e 40a3 8a3f
00000190: 0aab 59bd d16e 993f 155e a2bf 8ba6 7cbe
000001a0: 6618 1fbf 5218 fcbe 1054 9c3d 933a 7f3e
000001b0: ad75 383e 763e 083e 05db 5d3e 42c3 473e
000001c0: fb53 ec3e 090f 5e3e 50b1 51bf a6f5 49bd
000001d0: c94e 4dbf 9ee6 c13d e242 553d 6a36 91be
000001e0: f13a 103f 40e7 ba3d ddf6 e5bc 60e5 cfbe
000001f0: 63ec 50be be62 71be 83a4 a6bc 4e7b 213d

transformer_encoder.layers.0.linear_net.0.bias f4 [16]
-0.96704113 -0.2658431 -0.74296844 -0.4844441 -0.7738236 -0.25239772 -0.30000138 -0.80360454
-0.3045902 -0.9648087 -0.017070876 -0.09241342 -0.026245624 -1.0277343 -0.46496525 -0.6851976
00000000: 0290 77bf 961c 88be 2e33 3ebf 0f09 f8be
00000010: 4e19 46bf 463a 81be c899 99be 07b9 4dbf
00000020: 3ff3 9bbe b4fd 76bf 39d8 8bbc 3f43 bdbd
00000030: 1001 d7bc cc8c 83bf ed0f eebe 1c69 2fbf

transformer_encoder.layers.0.linear_net.3.weight f4 [8, 16]
-0.47112894 0.048784856 -0.32813126 -0.52284545 0.3093933 -0.06574389 -0.59161067 -0.13884133
-0.010991524 -0.4502325 0.18997818 -0.14270157 -0.07531208 -0.55746084 -0.6529913 -0.007426459
-0.30357236 0.36629453 0.41732925 -0.30012125 -0.3167978 -0.19117638 -0.6567343 0.1512498
-0.18167174 -0.4819595 -0.6115007 -0.18358846 -0.18099454 -0.3525591 -0.5658101 0.36513403
0.55204386 -0.019279975 0.5165563 0.07033785 -0.39157736 0.16611564 0.48277724 -0.14650804
0.22587606 0.22872718 0.20332761 0.50317603 -0.10135116 0.2409718 0.66229147 0.2163193
-0.4117828 0.37085372 0.596022 -0.5596273 -0.7263659 -0.17456922 -0.43210357 0.23737372
-0.31038418 -0.055254657 -0.6169005 0.036563445 0.10474338 -0.647876 -0.33590084 0.6745924
0.8608035 -0.05779178 0.36747012 -0.121357724 -0.31406635 0.1595197 -0.33523574 0.10524439
-0.7634546 -0.5849747 0.5772271 1.2748185 -0.8361947 0.6236295 -0.47833368 0.54646605
-0.36599663 0.49337998 0.26043484 -0.3461243 -0.7312492 0.15509811 -0.1871519 0.09963802
-0.1823031 -0.41132388 -0.43256146 0.083619826 -0.14751238 -0.3814961 -0.48762643 0.51616025
0.25217757 -0.6649778 -0.52768815 0.3405456 0.7150898 0.09288117 0.37728357 -0.20343834
0.24918929 0.431811 1.1216383 0.43383908 0.21801929 0.37405995 0.569369 -0.6242896
0.36815518 -0.5858412 0.11571512 0.69528633 -0.6245191 -0.031280607 0.53973156 -0.22165522
0.108978964 0.24057248 0.14579087 0.09311428 0.18554947 0.40989593 0.4987928 -0.4791344
00000000: d037 f1be a1d2 473d d200 a8be 33d9 05bf
00000010: cc68 9e3e bca4 86bd cc73 17bf 6c2c 0ebe
00000020: cb15 34bc e084 e6be a489 423e 5c20 12be
00000030: 383d 9abd c1b5 0ebf 702a 27bf a759 f3bb
00000040: d66d 9bbe f58a bb3e 2eac d53e 7ea9 99be
00000050: 5233 a2be bec3 43be bd1f 28bf 3ae1 1a3e
00000060: 2808 3abe 65c3 f6be 4f8b 1cbf 9dfe 3bbe
00000070: a256 39be a082 b4be eed8 10bf d9f2 ba3e
00000080: bf52 0d3f 0af1 9dbc 093d 043f 4a0d 903d
00000090: d47c c8be 381a 2a3e 942e f73e 3406 16be
000000a0: 0e4c 673e 7537 6a3e 1d35 503e 25d0 003f
000000b0: 3291 cfbd 50c1 763e ef8b 293f ce82 5d3e
000000c0: 32d5 d2be 8ae0 bd3e e694 183f bc43 0fbf
000000d0: 1ef3 39bf 46c2 32be ae3c ddbe 1912 733e
000000e0: adea 9ebe b552 62bd 31ed 1dbf 8dc3 153d
000000f0: b283 d63d 34db 25bf 32fb abbe 16b2 2c3f
00000100: 9e5d 5c3f 13b7 6cbd 0b25 bc3e 668a f8bd
00000110: 4ecd a0be 2259 233e 05a4 abbe 5f8a d73d
00000120: c371 43bf e7c0 15bf 28c5 133f 412d a33f
00000130: db10 56bf 2fa6 1f3f 27e8 f4be 33e5 0b3f
00000140: e963 bbbe 4d9c fc3e b757 853e 3437 b1be
00000150: 2633 3bbf 0ad2 1e3e bfa4 3fbe 050f cc3d
00000160: aaad 3abe 0b99 d2be b278 ddbe df40 ab3d
00000170: 7c0d 17be 7553 c3be 2caa f9be 1423 043f
00000180: 6b1d 813e fc3b 2abf 9216 07bf fe5b ae3e
00000190: 2010 373f 7c38 be3d 502b c13e 2452 50be
000001a0: 7a2b 7f3e 5516 dd3e d891 8f3f 2820 de3e
000001b0: 7340 5f3e c984 bf3e 2bc2 113f 71d1 1fbf
000001c0: d67e bc3e b0f9 15bf 0dfc ec3d 49fe 313f
000001d0: 7ce0 1fbf 1820 00bd d92b 0a3f 96f9 62be
000001e0: 5d30 df3d a258 763e 344a 153e b3b2 be3d
000001f0: ae00 3e3e e1dd d13e c561 ff3e 1b51 f5be

transformer_encoder.layers.0.linear_net.3.bias f4 [8]
0.15340316 -0.11660842 0.08797458 -0.21982546 -0.32793725 -0.043780223 0.17710555 0.38390705
00000000: b815 1d3e 65d0 eebd 042c b43d ed19 61be
00000010: 64e7 a7be e452 33bd 285b 353e 778f c43e

final_linear.weight f4 [1, 8]
0.18844281 -0.02733836 -0.014525182 0.13139865 -0.30359948 0.0018695043 -0.13248348 -0.0073933285
00000000: 27f7 403e b2f4 dfbc 07fb 6dbc 5e8d 063e
00000010: 6471 9bbe 280a f53a c0a9 07be bc43 f2bb

exp_avg f4 [8, 2]
-0.0008404906 -0.0009904386 0.0002318951 -2.0584017e-05 0.00017138873 0.00024310178 -2.7506317e-06 -5.336085e-05
0.0006302823 0.00086774386 0.0007163077 0.0006986232 0.00013747341 0.00022651949 -4.520027e-05 -3.4646626e-05
00000000: 5f54 5cba 9bd1 81ba de28 7339 d7ab acb7
00000010: d0b6 3339 23e9 7e39 7e97 38b6 c7cf 5fb8
00000020: 8739 253a 4e79 633a 99c6 3b3a cf23 373a
00000030: bd26 1039 dd85 6d39 6c95 3db8 8851 11b8

exp_avg_sq f4 [8, 2]
1.1242504e-05 1.2173259e-05 2.2641609e-05 2.2805505e-05 2.5867555e-06 2.5943164e-06 7.922052e-06 8.07011e-06
5.048038e-06 5.8137025e-06 6.4384467e-06 8.598297e-06 5.3005833e-06 4.42404e-06 1.13201195e-05 9.819611e-06
00000000: 309e 3c37 c03b 4c37 7cee bd37 734e bf37
00000010: 1f98 2d36 041a 2e36 f4e8 0437 dc64 0737
00000020: 5162 a936 5313 c336 d609 d836 6841 1037
00000030: aadb b136 3772 9436 8beb 3d37 e8be 2437

exp_avg f4 [8]
-0.0017868791 2.4974133e-05 0.00033304954 -0.00028362885 0.0015405837 0.0013771516 0.0005024735 -5.5076302e-06
00000000: b735 eaba 8b7f d137 279d ae39 05b4 94b9
00000010: 69ed c93a 8a81 b43a 6db8 033a 2fce b8b6

exp_avg_sq f4 [8]
4.0424035e-05 7.56247e-05 8.700719e-06 2.6764113e-05 1.9407093e-05 2.8434773e-05 1.4743876e-05 3.2737546e-05
00000000: fa8c 2938 b498 9e38 4ef9 1137 7f83 e037
00000010: 6acc a237 3687 ee37 775c 7737 ac4f 0938

exp_avg f4 [8, 8]
-3.2316955e-05 2.2489536e-05 3.6091747e-05 -2.8117696e-05 -1.0260512e-05 3.3315802e-05 -2.9145247e-05 -1.691303e-05
3.6184983e-06 -2.566513e-06 -4.475601e-06 2.9315622e-06 1.3631849e-06 -3.4051195e-06 3.3351353e-06 1.9238405e-06
3.68595e-06 -2.6143396e-06 -4.432911e-06 2.864274e-06 1.3111476e-06 -3.4672628e-06 3.2975815e-06 1.8385625e-06
6.589587e-06 -4.4659573e-06 -5.9448057e-06 6.9610687e-06 1.5470038e-06 -8.153304e-06 5.959641e-06 3.6242857e-06
6.5112763e-06 -4.4258413e-06 -5.9724994e-06 7.0040674e-06 1.6141137e-06 -8.080662e-06 5.988109e-06 3.686819e-06
6.415853e-06 -4.3978853e-06 -6.1753676e-06 6.513859e-06 1.6931214e-06 -7.611031e-06 5.8359874e-06 3.5114724e-06
5.3870067e-06 -3.7204477e-06 -5.586691e-06 5.3131466e-06 1.6051337e-06 -6.1066276e-06 4.9812465e-06 3.01029e-06
6.9729344e-06 -4.7073713e-06 -5.870648e-06 7.848422e-06 1.5248445e-06 -9.110821e-06 6.3832617e-06 3.9497677e-06
00000000: 118c 07b8 e9a7 bc37 3861 1738 4bde ebb7
00000010: 9024 2cb7 92bc 0b38 f17c f4b7 75e0 8db7
00000020: 54d5 7236 5c3c 2cb6 1f2d 96b6 dbbb 4436
00000030: adf6 b635 8283 64b6 30d1 5f36 541b 0136
00000040: 245c 7736 0372 2fb6 6abe 94b6 da37 4036
00000050: b0fa af35 1faf 68b6 054c 5d36 87c4 f635
00000060: 1f1c dd36 48da 95b6 7e79 c7b6 2093 e936
00000070: a5a2 cf35 2dca 08b7 edf8 c736 c138 7336
00000080: 707b da36 b081 94b6 6167 c8b6 7b04 eb36
00000090: 86a4 d835 2e92 07b7 77ed c836 116b 7736
000000a0: c247 d736 8c91 93b6 0136 cfb6 9f91 da36
000000b0: 353f e335 4262 ffb6 c0d2 c336 a3a6 6b36
000000c0: 09c2 b436 ceac 79b6 4f75 bbb6 9547 b236
000000d0: f96f d735 88e7 ccb6 9524 a736 6304 4a36
000000e0: 0df9 e936 03f4 9db6 7bfc c4b6 b7ac 0337
000000f0: 42a9 cc35 aeda 18b7 cd2f d636 3f88 8436

exp_avg_sq f4 [8, 8]
8.24586e-06 2.3211331e-07 4.16793e-05 2.8685772e-06 3.2895462e-06 8.541802e-06 3.3619352e-07 1.7322876e-06
8.396513e-08 5.2773137e-09 4.2940334e-07 4.9534588e-08 3.565018e-08 8.991215e-08 6.514432e-09 1.8054932e-08
4.4070323e-08 1.805435e-09 2.2407181e-07 2.0613893e-08 1.8278335e-08 4.6883525e-08 2.3914577e-09 9.465443e-09
1.483747e-07 7.63082e-09 7.6788433e-07 6.460933e-08 5.890854e-08 1.5649678e-07 8.834538e-09 3.135302e-08
1.4582376e-07 6.6401467e-09 7.501804e-07 6.3225706e-08 5.7986256e-08 1.5404986e-07 8.3341645e-09 3.1011247e-08
1.4798744e-07 7.2442847e-09 7.6703446e-07 5.7118942e-08 5.860123e-08 1.5516e-07 8.119881e-09 3.129811e-08
1.4788907e-07 6.0307768e-09 7.6403e-07 5.4683184e-08 5.7981534e-08 1.5513928e-07 7.2469106e-09 3.1226147e-08
7.5044426e-08 5.5845906e-09 3.8753126e-07 4.8394746e-08 3.1343912e-08 8.072931e-08 6.6717334e-09 1.6076616e-08
00000000: b357 0a37 d23a 7934 cfd0 2e38 c881 4036
00000010: f9c1 5c36 c34e 0f37 167e b434 f380 e835
00000020: 5250 b433 be53 b531 bf88 e634 dbbf 5433
00000030: ca1d 1933 ba15 c133 8dd5 df31 3717 9b32
00000040: d547 3d33 1923 f830 6498 7034 6e12 b132
00000050: 7c02 9d32 fb5c 4933 f856 2431 759d 2232
00000060: ed50 1f34 b418 0332 9c20 4e35 5bbf 8a33
00000070: a002 7d33 8209 2834 b6c6 1732 03a9 0633
00000080: bb93 1c34 5927 e431 0160 4935 b3c6 8733
00000090: 900c 7933 e768 2534 0b2e 0f32 3a31 0533
000000a0: 7ae6 1e34 67e9 f831 35e6 4d35 f152 7533
000000b0: bcb0 7b33 0e9a 2634 9d7f 0b32 a36c 0633
000000c0: 70cb 1e34 4637 cf31 be17 4d35 ccdc 6a33
000000d0: 5f07 7933 5c94 2634 8000 f931 831d 0633
000000e0: 1c28 a133 94e2 bf31 e40d d034 96da 4f33
000000f0: ff9e 0633 685d ad33 303d e531 da18 8a32

exp_avg f4 [8, 8]
8.481969e-06 -7.993472e-06 -1.8556084e-05 6.0063117e-06 9.412448e-06 -3.893754e-06 1.12283215e-05 6.2788263e-06
-5.6712483e-06 2.7659914e-06 2.6198944e-07 -5.700089e-06 2.4148935e-06 9.030411e-06 -2.7233577e-06 -1.5154703e-06
1.0979174e-06 -1.0587369e-06 -2.2352735e-06 1.6107044e-06 1.3467779e-06 -1.0529303e-06 1.797107e-06 1.2036564e-06
1.1497845e-05 -1.0045355e-05 -2.1100144e-05 8.9427e-06 1.0002041e-05 -7.5964367e-06 1.3797071e-05 7.732024e-06
-1.0435425e-05 1.0269474e-05 2.1893087e-05 -1.353538e-05 -1.3050303e-05 8.800409e-06 -1.6668275e-05 -1.0632125e-05
-2.9271027e-06 2.8377362e-06 6.5844806e-06 -2.1984883e-06 -3.4684217e-06 1.3552709e-06 -4.053374e-06 -2.2805311e-06
-8.024415e-06 6.495937e-06 1.3787352e-05 -4.569869e-06 -5.489801e-06 4.7057474e-06 -8.22908e-06 -4.317484e-06
2.6156315e-06 -2.8920208e-06 -6.878669e-06 4.226499e-06 4.5076417e-06 -2.0376456e-06 5.2311557e-06 3.54722e-06
00000000: c84d 0e37 b31b 06b7 e3a8 9bb7 d389 c936
00000010: 28ea 1d37 18a7 82b6 4661 3c37 b5ae d236
00000020: a74b beb6 5f9f 3936 8ea7 8c34 6443 bfb6
00000030: 8e0f 2236 5281 1737 eec2 36b6 2a67 cbb5
00000040: 285c 9335 ec19 8eb5 b501 16b6 622f d835
00000050: f0c2 b435 6952 8db5 2034 f135 528d a135
00000060: dee6 4037 7988 28b7 3700 b1b7 9b08 1637
00000070: 70ce 2737 e5e4 feb6 f879 6737 cab8 0137
00000080: cf13 2fb7 0e4b 2c37 0ca7 b737 0416 63b7
00000090: a0f2 5ab7 78a5 1337 d9d2 8bb7 a160 32b7
000000a0: 3e6f 44b6 f06f 3e36 42f0 dc36 be89 13b6
000000b0: 08c3 68b6 c1e6 b535 3802 88b6 3a0b 19b6
000000c0: 9aa0 06b7 adf7 d936 3a50 6737 e056 99b6
000000d0: 0835 b8b6 10e6 9d36 a10f 0ab7 e8de 90b6
000000e0: 3588 2f36 8a14 42b6 51cf e6b6 5ad1 8d36
000000f0: 5940 9736 7cbe 08b6 4987 af36 c70c 6e36

exp_avg_sq f4 [8, 8]
1.0964541e-07 5.805947e-08 7.0930963e-07 8.5075484e-08 7.476578e-08 1.09303166e-07 3.045098e-08 2.3058343e-08
5.9210428e-09 3.1168448e-09 2.7508394e-08 1.5153715e-08 3.0614302e-09 1.0970474e-08 4.172743e-09 2.480548e-09
5.24685e-09 3.2631966e-08 9.650783e-08 8.318826e-08 1.803246e-08 8.407911e-09 2.1356271e-08 1.5778375e-09
6.3511266e-08 1.4551286e-07 7.296639e-07 1.8563624e-07 9.5812126e-08 5.480928e-08 7.338897e-08 9.868165e-09
6.4042055e-08 4.608056e-08 4.204251e-07 9.769525e-08 4.65656e-08 8.046154e-08 2.972904e-08 1.583497e-08
9.784535e-08 1.5225235e-07 9.3957783e-07 2.0005552e-07 1.1355886e-07 8.851882e-08 7.5653006e-08 1.624096e-08
1.0336686e-08 3.261682e-08 1.3647247e-07 6.092334e-08 1.9654296e-08 1.04823945e-08 1.873502e-08 1.8716384e-09
3.4339174e-09 7.546557e-09 3.2810533e-08 2.8425928e-08 3.9890775e-09 5.225114e-09 7.257507e-09 5.8961067e-09
00000000: 3476 eb33 105d 7933 6367 3e35 beb2 b633
00000010: ec8e a033 0dba ea33 35c9 0233 d511 c632
00000020: 0b72 cb31 1d30 5631 994b ec32 5f2b 8232
00000030: 4061 5231 a878 3c32 d65f 8f31 4376 2a31
00000040: c847 b431 3a27 0c33 be3f cf33 3ba5 b233
00000050: cde5 9a32 6272 1032 f072 b732 39db d830
00000060: b063 8833 453e 1c34 1fde 4335 4d53 4734
00000070: 46c1 cd33 7167 6b33 039a 9d33 a688 2932
00000080: 7e87 8933 1dea 4533 c9b6 e134 88cc d133
00000090: 6bff 4733 33ca ac33 da5e ff32 7805 8832
000000a0: 0d1f d233 cf7a 2334 4c37 7c35 d8ce 5634
000000b0: a5dd f333 bc17 be33 ae76 a233 4082 8b32
000000c0: 3a95 3132 9316 0c33 4489 1234 f6d4 8233
000000d0: 41d4 a832 0f16 3432 bfee a032 369e 0031
000000e0: 1dfa 6b31 1ca6 0132 90eb 0c33 472d f432
000000f0: 4c10 8931 9788 b331 b55d f931 b496 ca31

exp_avg f4 [8, 8]
2.3289062e-05 -1.6866377e-05 -2.2810267e-05 1.5593645e-05 6.1274036e-06 -2.3078166e-05 1.8079729e-05 7.825311e-06
4.154036e-05 -3.069734e-05 -4.462269e-05 2.4109886e-05 1.2818596e-05 -3.7228565e-05 3.2160544e-05 1.3109859e-05
8.860385e-06 -6.6612683e-06 -9.203191e-06 9.608291e-06 3.632842e-06 -1.0627977e-05 8.912145e-06 5.163548e-06
3.96597e-05 -2.790441e-05 -3.4855606e-05 2.6702925e-05 7.5350417e-06 -4.1211264e-05 2.905675e-05 1.2209105e-05
1.2878985e-05 -1.3621379e-05 -2.894808e-05 1.4750632e-05 1.7968032e-05 -9.0127805e-06 2.0843008e-05 1.2305121e-05
1.3998905e-05 -1.2060234e-05 -2.0999294e-05 1.3512305e-05 1.0470368e-05 -1.2982566e-05 1.6357919e-05 9.057297e-06
5.020118e-05 -3.983252e-05 -6.432332e-05 3.0124624e-05 2.4202547e-05 -4.1011157e-05 4.445448e-05 1.9291885e-05
3.9206672e-05 -2.9194514e-05 -4.1707004e-05 2.5624695e-05 1.2802642e-05 -3.7051574e-05 3.1734606e-05 1.3767967e-05
00000000: e15c c337 457c 8db7 ad58 bfb7 19cf 8237
00000010: ff99 cd36 fc97 c1b7 eca9 9737 7449 0337
00000020: 9f3b 2e38 05c1 00b8 4029 3bb8 963f ca37
00000030: 730f 5737 de25 1cb8 1fe4 0638 6af2 5b37
00000040: 10a7 1437 dc83 dfb6 6867 1ab7 4c33 2137
00000050: c0cb 7336 d04e 32b7 5f85 1537 8a42 ad36
00000060: 4758 2638 4414 eab7 ec31 12b8 1800 e037
00000070: 84d5 fc36 42da 2cb8 e5be f337 b5d5 4c37
00000080: d212 5837 6187 64b7 87d5 f2b7 7b79 7737
00000090: 0eba 9637 9935 17b7 05d8 ae37 1872 4e37
000000a0: d7dc 6a37 5056 4ab7 a427 b0b7 e8b2 6237
000000b0: e3a9 2f37 b2cf 59b7 5d38 8937 cbf4 1737
000000c0: 1b8f 5238 d811 27b8 52e5 86b8 23b4 fc37
000000d0: 9306 cb37 6503 2cb8 a274 3a38 02d5 a137
000000e0: d871 2438 bee6 f4b7 8eee 2eb8 9df4 d637
000000f0: eeca 5637 d367 1bb8 c61a 0538 f8fc 6637

exp_avg_sq f4 [8, 8]
2.7094688e-07 5.12436e-07 2.819004e-06 7.3376634e-07 3.5659914e-07 2.5077657e-07 2.664806e-07 5.706556e-08
6.796287e-07 4.9447954e-07 4.8305496e-06 8.293137e-07 4.8385954e-07 7.274579e-07 2.768346e-07 1.5338586e-07
5.458843e-08 1.5326934e-07 5.299374e-07 6.939065e-07 9.4894936e-08 1.07787216e-07 1.2801114e-07 1.7547624e-08
3.705413e-07 2.1012556e-07 2.589667e-06 3.0853636e-07 2.3649251e-07 3.6232186e-07 1.052456e-07 8.3492786e-08
4.008552e-07 2.250992e-07 2.4261146e-06 9.832328e-07 2.568546e-07 5.09313e-07 1.8285189e-07 1.0091903e-07
6.7168594e-07 7.740864e-07 5.205496e-06 2.2106303e-06 6.4068513e-07 7.8697803e-07 5.0614386e-07 1.4726494e-07
5.4291775e-07 2.1446928e-07 3.2578712e-06 5.020452e-07 2.897295e-07 6.271963e-07 1.4956491e-07 1.3631205e-07
5.2314743e-07 1.4397624e-07 3.0799968e-06 2.8229118e-07 2.7169622e-07 5.3695425e-07 8.0768345e-08 1.1200031e-07
00000000: a876 9134 558e 0935 1f2e 3d36 0af8 4435
00000010: 9d72 bf34 78a2 8634 d110 8f34 3f18 7533
00000020: bb6f 3635 60bc 0435 1b16 a236 019e 5e35
00000030: 93e2 0135 8746 4335 dc9f 9434 62b2 2434
00000040: 9d74 6a33 5b92 2434 0541 0e35 e444 3a35
00000050: 0bc9 cb33 a678 e733 6f73 0934 a2bb 9632
00000060: cfee c634 e09e 6134 24ca 2d36 eaa4 a534
00000070: 91ee 7d34 2385 c234 6103 e233 a54c b333
00000080: 1f35 d734 ccb2 7134 55d0 2236 9ff7 8335
00000090: d4e5 8934 b9b7 0835 f255 4434 d3b8 d833
000000a0: e84d 3435 d0ca 4f35 dfaa ae36 575a 1436
000000b0: 8cfb 2b35 b840 5335 f1dd 0735 e11f 1e34
000000c0: 06bd 1135 de48 6634 cda1 5a36 49c4 0635
000000d0: 1f8c 9b34 9a5c 2835 1798 2034 2c5d 1234
000000e0: 6b6e 0c35 e397 1a34 f1b1 4e36 ce8d 9734
000000f0: a5dd 9134 3723 1035 de72 ad33 d284 f033

exp_avg f4 [8, 8]
0.00015481138 0.00019231765 0.00014353443 0.00015931053 0.0001872256 0.00018130262 0.00021844519 0.00020461522
-7.901415e-05 -7.949084e-05 -8.7598855e-05 -9.1290545e-05 -9.9588564e-05 -8.638615e-05 -9.887636e-05 -9.4146126e-05
-3.006297e-05 -4.162703e-05 -2.5723428e-05 -3.0966177e-05 -3.8470753e-05 -3.9651793e-05 -4.861178e-05 -4.764558e-05
-1.8822968e-05 -1.6470078e-05 -2.0894193e-05 -2.1879596e-05 -2.0403468e-05 -2.1473017e-05 -1.8626235e-05 -2.193778e-05
-9.878824e-05 -0.00012731885 -8.805015e-05 -9.9073004e-05 -0.00011924785 -0.000116595525 -0.00014334028 -0.0001329558
-0.00016146338 -0.00018169968 -0.00016108617 -0.00017294157 -0.00019223036 -0.00018077227 -0.00020797177 -0.0001970463
1.337372e-07 -1.1936221e-05 7.743494e-06 5.5755586e-06 -4.0657685e-07 -2.3829375e-06 -1.0599311e-05 -5.4439247e-06
1.2287945e-05 9.044454e-06 1.6329841e-05 1.6569036e-05 1.8181347e-05 1.259384e-05 1.5380832e-05 1.4883026e-05
00000000: dd54 2239 e0a8 4939 bb81 1639 980c 2739
00000010: fd51 4439 0d1c 3e39 6f0e 6539 fb8d 5639
00000020: 66b4 a5b8 52b4 a6b8 47b5 b7b8 3d73 bfb8
00000030: 34da d0b8 362a b5b8 d75b cfb8 5170 c5b8
00000040: bd2f fcb7 af98 2eb8 a4c8 d7b7 aee1 01b8
00000050: a85b 21b8 ca4f 26b8 80e4 4bb8 0dd7 47b8
00000060: 04e6 9db7 3929 8ab7 f045 afb7 138a b7b7
00000070: 1d28 abb7 f420 b4b7 893f 9cb7 0607 b8b7
00000080: 882c cfb8 e580 05b9 90a7 b8b8 6ac5 cfb8
00000090: b414 fab8 bf84 f4b8 9d4d 16b9 0d6a 0bb9
000000a0: 7f4e 29b9 a386 3eb9 3de9 28b9 a657 35b9
000000b0: 7291 49b9 b08d 3db9 ff12 5ab9 379e 4eb9
000000c0: 6799 0f34 ae41 48b7 0eea 0137 af15 bb36
000000d0: 7f47 dab4 8eea 1fb6 b2d3 31b7 f5aa b6b6
000000e0: 5228 4e37 a2bd 1737 11fc 8837 bcfd 8a37
000000f0: 2584 9837 224a 5337 1606 8137 1cb2 7937

exp_avg_sq f4 [8, 8]
1.3707988e-07 1.3987002e-07 1.3911396e-07 1.4045138e-07 1.4100313e-07 1.388588e-07 1.4092076e-07 1.3932423e-07
1.9046199e-07 1.8901885e-07 1.8865487e-07 1.8746098e-07 1.8824781e-07 1.8859089e-07 1.8834213e-07 1.8875596e-07
4.113806e-07 4.1440154e-07 4.145705e-07 4.1605037e-07 4.1679144e-07 4.14423e-07 4.1662005e-07 4.1542003e-07
2.078659e-07 2.0757193e-07 2.0756688e-07 2.0728567e-07 2.080558e-07 2.0726588e-07 2.0789288e-07 2.0776166e-07
1.8227213e-06 1.8271952e-06 1.8269677e-06 1.8293932e-06 1.8304547e-06 1.8265107e-06 1.8290232e-06 1.8267865e-06
2.1002911e-07 2.104223e-07 2.0975796e-07 2.1054501e-07 2.1028596e-07 2.1051666e-07 2.1033142e-07 2.1025211e-07
1.8811909e-06 1.8906716e-06 1.8974857e-06 1.9017015e-06 1.9025623e-06 1.8934453e-06 1.8999318e-06 1.8961058e-06
1.7412128e-06 1.7485128e-06 1.7537833e-06 1.7565876e-06 1.7565377e-06 1.752121e-06 1.754898e-06 1.7525595e-06
00000000: 3b30 1334 2e2f 1634 5b5f 1534 fbce 1634
00000010: a566 1734 3719 1534 0150 1734 2799 1534
00000020: cb81 4c34 1bf5 4a34 0e91 4a34 e248 4934
00000030: 2a21 4a34 787f 4a34 173b 4a34 d8ac 4a34
00000040: b8db dc34 ea7a de34 2392 de34 875d df34
00000050: 61c3 df34 dd7d de34 d3ab df34 e506 df34
00000060: be31 5f34 f0e0 5e34 8ddf 5e34 4092 5e34
00000070: f165 5f34 d08c 5e34 2939 5f34 1715 5f34
00000080: 3aa4 f435 f33d f535 2236 f535 7989 f535
00000090: f2ad f535 6e26 f535 c27c f535 e82f f535
000000a0: 5d84 6134 71f0 6134 d439 6134 2c12 6234
000000b0: f7ca 6134 610a 6234 76d7 6134 a9c1 6134
000000c0: 3a7d fc35 fbc2 fd35 1dad fe35 f73d ff35
000000d0: 8b5b ff35 4922 fe35 2901 ff35 b37d fe35
000000e0: 9eb3 e935 71ae ea35 8963 eb35 e4c3 eb35
000000f0: 2dc2 eb35 6b2a eb35 d689 eb35 7c39 eb35

exp_avg f4 [8]
-0.0016983625 0.00032722767 0.00030892072 -0.00016329826 0.0013332847 0.0013084793 0.00044052667 2.2759383e-05
00000000: 979b deba c18f ab39 a3f6 a139 0b3b 2bb9
00000010: 9cc1 ae3a 4881 ab3a 7df6 e639 67eb be37

exp_avg_sq f4 [8]
1.1370226e-05 2.0843789e-05 1.0291129e-05 8.486608e-06 1.2937517e-05 5.501359e-06 4.759589e-06 2.628578e-05
00000000: c0c2 3e37 b2d9 ae37 10a8 2c37 b461 0e37
00000010: 360e 5937 5098 b836 8fb4 9f36 4880 dc37

exp_avg f4 [16, 8]
-0.00069715455 6.297396e-05 -6.978684e-05 -0.0009992417 0.00055069104 0.00042124392 6.881484e-05 -0.0002925069
0.00012907438 -4.1022828e-05 0.0001074221 0.00023296264 -0.0001323259 -7.494783e-05 -4.707926e-05 7.928277e-05
-7.3676106e-06 -6.303907e-07 2.9517946e-06 -1.1305056e-05 6.75725e-06 2.6520404e-06 1.9908373e-06 -3.0063486e-06
-2.5296508e-15 4.2525781e-16 5.9548356e-15 -3.364107e-15 1.9561806e-16 5.799027e-16 1.6894324e-15 9.284323e-16
-1.5161212e-16 -1.2393294e-16 2.8828968e-16 -8.0352e-17 1.5864088e-16 -6.893087e-17 1.05091676e-16 2.6554217e-17
0.0 0.0 0.0 0.0 0.0 0.0 0.0 0.0
-3.3266137e-15 7.456394e-16 7.5997575e-15 -1.0696496e-15 6.1339447e-16 -3.0118017e-17 1.7619479e-15 2.8912032e-16
-5.3126186e-15 -6.3594997e-15 1.0887865e-14 -4.4169253e-15 6.6646013e-15 -8.8375066e-16 5.219692e-15 2.17114e-15
-4.1562605e-05 1.1870222e-05 -6.861348e-05 -0.00010942101 5.678872e-05 2.1962282e-05 2.6604996e-05 -3.980729e-05
-2.3500908e-15 -1.9546344e-15 6.008238e-15 -4.301031e-15 2.5651393e-15 1.7255009e-17 1.6297289e-15 5.005288e-16
-3.6976215e-15 -1.4581395e-15 5.354764e-15 1.1566684e-16 1.2049787e-15 -3.0811558e-17 4.0931487e-15 2.5182336e-15
-0.0001791679 3.6837064e-05 4.7756646e-05 -0.00018917829 0.0001021606 0.00012884373 -4.7392577e-06 -3.8581355e-05
2.1386597e-05 2.0763997e-05 -0.00011123768 -3.5389206e-05 2.1149364e-05 -8.838302e-06 3.0510662e-05 -2.3884531e-05
-1.3585402e-15 3.1421992e-16 1.3166328e-15 -3.1713138e-15 8.215108e-17 2.8281424e-16 -2.1735634e-15 -9.167067e-16
-2.9710473e-15 4.8739377e-16 6.6797823e-15 -2.932762e-15 3.9248828e-16 3.3003503e-16 1.9187098e-15 9.36931e-16
-1.6277218e-15 -1.2045032e-15 3.4286996e-15 -8.838822e-16 1.3864051e-15 -3.9261568e-16 7.009917e-16 3.2558488e-16
00000000: 40c1 36ba e310 8438 865a 92b8 fdf8 82ba
00000010: 405c 103a 67da dc39 b050 9038 9d5b 99b9
00000020: 2458 0739 ed0f 2cb8 cd47 e138 6f47 7439
00000030: f7c0 0ab9 4f2d 9db8 f876 45b8 9d44 a638
00000040: 4b37 f7b6 1e38 29b5 7217 4636 d9aa 3db7
00000050: 56bc e236 b5f9 3136 539a 0536 adc0 49b6
00000060: d247 36a7 fa24 f525 aa8b d627 d268 72a7
00000070: 4388 6125 4425 2726 0e79 f326 1bcd 8526
00000080: 00cc 2ea5 8ce2 0ea5 0c30 a625 7347 b9a4
00000090: 86e6 3625 9bf1 9ea4 2d53 f224 5feb f423
000000a0: 0000 0000 0000 0000 0000 0000 0000 0000
000000b0: 0000 0000 0000 0000 0000 0000 0000 0000
000000c0: 31b5 6fa7 7aea 5626 b2e7 0828 1b27 9aa6
000000d0: 86cc 3026 14e5 0aa4 67ec fd26 a1aa a625
000000e0: 4268 bfa7 0820 e5a7 6a23 4428 f222 9fa7
000000f0: 191e f027 4ab9 7ea6 290f bc27 7772 1c27
00000100: 8253 2eb8 3726 4737 95e4 8fb8 f578 e5b8
00000110: 6c30 6e38 a43b b837 cb2d df37 c1f6 26b8
00000120: 8657 29a7 a4d8 0ca7 3778 d827 02f6 9aa7
00000130: 78d6 3827 3d26 9f23 62de ea26 8244 1026
00000140: 8a38 85a7 da23 d2a6 fbec c027 d35a 0525
00000150: dea7 ad26 de17 0ea4 a278 9327 3675 3527
00000160: 04df 3bb9 7f81 1a38 4f4e 4838 295e 46b9
00000170: 0e3f d638 3a1a 0739 ea05 9fb6 6ad2 21b8
00000180: 5e67 b337 582e ae37 4648 e9b8 df6e 14b8
00000190: ea69 b137 3848 14b7 26f1 ff37 a45b c8b7
000001a0: 49c9 c3a6 ad22 b525 2dbf bd26 6a84 64a7
000001b0: 706d bd24 0408 a325 2b9f 1ca7 821c 84a6
000001c0: 2616 56a7 507b 0c26 1eaa f027 e953 53a7
000001d0: 0c41 e225 9340 be25 f341 0a27 a706 8726
000001e0: 5694 eaa6 5396 ada6 5810 7727 ffc2 7ea6
000001f0: 52cd c726 d953 e2a5 0f0c 4a26 d9af bb25

exp_avg_sq f4 [16, 8]
1.7375313e-06 2.2570055e-07 8.012024e-07 2.8325755e-06 1.0121952e-06 7.8850434e-07 6.463723e-07 4.806743e-07
4.886356e-07 2.6062858e-07 7.976379e-07 1.3236811e-06 5.074899e-07 1.9969697e-07 1.8625121e-07 1.1195295e-07
3.9086848e-07 2.0262065e-07 8.198952e-07 2.594894e-07 1.539605e-07 7.985539e-08 5.526589e-07 1.9892478e-07
2.5498925e-06 1.6651703e-06 5.29742e-06 1.3938097e-06 6.3589425e-07 1.093586e-06 4.5486663e-06 2.35003e-06
1.3657387e-09 8.2503215e-10 4.9604902e-09 3.4063913e-10 1.422552e-09 3.5726797e-10 5.7633187e-10 3.0713043e-11
0.0 0.0 0.0 0.0 0.0 0.0 0.0 0.0
4.0929117e-06 2.8028567e-06 8.536818e-06 1.588614e-06 1.0517559e-06 1.8655605e-06 7.433416e-06 3.8384073e-06
2.0185892e-06 2.408813e-06 8.892519e-06 1.6699263e-06 2.8234954e-06 1.7441873e-07 1.5686124e-06 2.783764e-07
6.841633e-07 9.367773e-07 3.388541e-06 2.071785e-06 1.679636e-07 3.700245e-07 1.5295583e-06 1.915796e-06
2.5595614e-07 3.4511908e-07 1.364159e-06 6.3346505e-07 3.0819805e-07 4.654989e-08 2.658135e-07 3.045155e-07
3.6760907e-06 1.8091574e-06 6.0086804e-06 2.662768e-08 8.7371967e-07 1.1656233e-06 6.127338e-06 2.1662474e-06
1.7901301e-06 7.170598e-07 2.867221e-06 1.6124244e-07 4.1683944e-07 3.9720445e-07 2.696822e-06 9.6585e-07
1.908083e-06 2.8474203e-06 1.0887456e-05 3.4760742e-06 2.4429437e-06 1.39872e-07 2.1124702e-06 2.2320492e-06
4.0133048e-07 1.5444225e-07 6.3062134e-07 1.0305289e-07 9.104638e-08 9.1468884e-08 5.8098635e-07 2.0620857e-07
3.6608246e-06 2.4169847e-06 7.1112986e-06 1.2391421e-06 9.528313e-07 1.7258297e-06 6.5994677e-06 3.1305728e-06
1.5336974e-07 1.3012634e-07 5.9327533e-07 5.0893374e-07 1.7581964e-07 5.7836893e-08 8.86083e-08 3.4017162e-08
00000000: 1f35 e935 1858 7234 3612 5735 4717 3e36
00000010: c3da 8735 9ba9 5335 5e82 2d35 b007 0135
00000020: c82a 0335 85ec 8b34 421d 5635 56a9 b135
00000030: 713a 0835 496c 5634 58fc 4734 c96a f033
00000040: 8ed8 d134 f18f 5934 c516 5c35 f44f 8b34
00000050: 5750 2534 f77c ab33 6e5a 1435 0798 5534
00000060: d21e 2b36 d17e df35 7ec0 b136 f012 bb35
00000070: 52b2 2a35 54c7 9235 bfa0 9836 35b5 1d36
00000080: a9b4 bb30 7ac8 6230 ef70 aa31 b244 bb2f
00000090: 9983 c330 ff68 c42f c06b 1e30 d013 072e
000000a0: 0000 0000 0000 0000 0000 0000 0000 0000
000000b0: 0000 0000 0000 0000 0000 0000 0000 0000
000000c0: d855 8936 b618 3c36 5b39 0f37 5d38 d535
000000d0: 0f2a 8d35 2c64 fa35 8f6c f936 abcb 8036
000000e0: 1977 0736 18a7 2136 1431 1537 3b22 e035
000000f0: 487b 3d36 db47 3b34 1d89 d235 c373 9534
00000100: 58a7 3735 d976 7b35 b166 6336 ff08 0b36
00000110: 7c59 3434 c8a7 c634 394b cd35 2091 0036
00000120: 586a 8934 ce48 b934 2518 b735 630b 2a35
00000130: 6b76 a534 25ee 4733 21b5 8e34 4b7c a334
00000140: c2b2 7636 2dd2 f235 2c9e c936 e3ba e432
00000150: 8f89 6a35 8372 9c35 6f99 cd36 d95f 1136
00000160: 6744 f035 f97b 4035 7b6a 4036 fc21 2d34
00000170: fac9 df34 5d3f d534 0dfb 3436 5aa2 8135
00000180: 9e0c 0036 4f16 3f36 44a9 3637 8046 6936
00000190: 74f1 2336 b92f 1634 f6c3 0d36 50ca 1536
000001a0: 7176 d734 c3d4 2534 f847 2935 ed4d dd33
000001b0: 4785 c333 8d6d c433 14f5 1b35 2e6a 5d34
000001c0: 7dac 7536 7b33 2236 979d ee36 9950 a635
000001d0: 11c6 7f35 0fa3 e735 ff70 dd36 d516 5236
000001e0: f4ad 2434 dbb8 0b34 9241 1f35 a99d 0835
000001f0: efc8 3c34 5668 7833 ee48 be33 441a 1233

exp_avg f4 [16]
0.001087753 -0.00016607181 1.5481866e-05 8.106036e-15 2.30196e-16 0.0 8.022408e-15 6.2714866e-15
7.6613534e-05 7.9019475e-15 4.9331202e-17 0.00023054316 -5.3098174e-05 5.1416755e-15 8.386527e-15 1.9763718e-15
00000000: ef92 8e3a 9023 2eb9 0edf 8137 7e06 1228
00000010: efb2 8425 0000 0000 d484 1028 41f4 e127
00000020: 94ab a038 4d59 0e28 0180 6324 f5bd 7139
00000030: bbb5 5eb8 963f b927 0814 1728 a069 0e27

exp_avg_sq f4 [16]
3.221995e-06 1.4812621e-06 4.0428768e-07 3.674365e-06 3.4277061e-09 0.0 5.9156237e-06 4.5100137e-06
4.1905682e-06 1.2185263e-06 1.730195e-06 7.497025e-07 8.0346945e-06 1.8200376e-07 4.7115045e-06 6.4646815e-07
00000000: 7439 5836 c7cf c635 e00c d934 1c95 7636
00000010: d88c 6b31 0000 0000 d27e c636 b954 9736
00000020: b59c 8c36 3f8c a335 0c39 e835 2a3f 4935
00000030: c0cc 0637 d06c 4334 8417 9e36 f488 2d35

exp_avg f4 [8, 16]
-0.00021409076 -0.00018054519 -1.565242e-07 3.9333923e-16 -3.7431805e-16 0.0 1.2890096e-15 2.528744e-15
8.521354e-06 4.1620393e-17 -6.0788627e-16 -3.5874138e-05 -9.331582e-05 4.528813e-15 3.1865451e-15 2.705701e-15
2.8940458e-05 2.4192828e-05 -1.8505581e-08 2.591145e-15 4.0252716e-17 0.0 2.1918132e-15 -4.4602565e-15
-1.1775641e-06 1.0131496e-15 1.0116669e-16 4.6841797e-06 1.2379789e-05 1.7801047e-15 4.5581935e-15 -2.6531617e-15
1.8131539e-05 1.5480075e-05 1.7880859e-10 -4.0127516e-16 3.408936e-16 0.0 -9.796055e-16 -3.1212705e-15
-7.6399e-07 -1.8804064e-16 5.4618103e-16 2.2844506e-06 9.702344e-06 -3.6227968e-15 -2.368212e-15 -2.6237023e-15
-0.00015316196 -0.00012975794 -2.017113e-07 7.228736e-16 2.0699906e-16 0.0 8.656336e-16 -9.005867e-15
5.9759004e-06 -4.5071544e-16 2.7899508e-16 -2.688871e-05 -6.5695545e-05 2.2831913e-16 1.9920135e-15 -5.288418e-15
0.00034112393 0.00028649616 7.3447904e-07 9.775524e-16 1.1887622e-17 0.0 3.7485676e-16 -7.521858e-16
-1.3295164e-05 1.0874513e-15 -5.731857e-17 6.117055e-05 0.00014093769 -4.351273e-16 1.3620283e-15 -6.4446295e-16
2.134722e-06 2.3916089e-06 1.4754427e-07 8.955927e-16 7.175161e-17 0.0 7.4772146e-16 -6.3687895e-15
4.6588266e-08 3.006075e-16 3.839711e-18 1.5893089e-06 4.5182695e-08 3.4970735e-16 2.2469641e-15 -3.701283e-15
0.00014381213 0.00012060862 -6.64524e-08 -1.6732429e-15 -1.0254616e-16 0.0 -1.5831135e-15 5.7254963e-15
-5.834224e-06 -3.695417e-16 -1.7933644e-16 2.340096e-05 6.249483e-05 -1.1182397e-15 -3.3605609e-15 3.2309242e-15
8.414646e-06 7.048925e-06 -4.1639424e-08 -3.4704668e-15 1.1920641e-16 0.0 -3.178373e-15 3.4969486e-15
-3.8960238e-07 -1.666468e-15 1.8676975e-16 7.2951326e-07 4.7785675e-06 -3.8070023e-15 -6.989153e-15 1.6727543e-15
00000000: 8d7d 60b9 bb50 3db9 0b11 28b4 a0be e225
00000010: 98c7 d7a5 0000 0000 0fc4 b926 1837 3627
00000020: f0f6 0e37 b0f0 3f24 1736 2fa6 9077 16b8
00000030: 8db2 c3b8 ed2a a327 629d 6527 60f7 4227
00000040: 29c5 f237 b4f1 ca37 34f6 9eb2 30b6 3a27
00000050: 05a2 3924 0000 0000 d1ef 1d27 9bb2 a0a7
00000060: cb0c 9eb5 9f02 9226 4646 e924 cc2c 9d36
00000070: cab2 4f37 2345 0027 ea39 a427 322e 3fa7
00000080: 2f19 9837 35db 8137 259a 442f c351 e7a5
00000090: 0483 c425 0000 0000 102d 8da6 47e9 60a7
000000a0: fe14 4db5 cdcb 58a5 0c6d 1d26 904e 1936
000000b0: 40c7 2237 6786 82a7 cda5 2aa7 c40e 3da7
000000c0: 1a9a 20b9 a20f 08b9 fb95 58b4 a85a 5026
000000d0: 57a7 6e25 0000 0000 7c80 7926 3b3c 22a8
000000e0: 9884 c836 eee8 01a6 68d4 a025 118f e1b7
000000f0: 07c6 89b8 f59d 8325 2a8a 0f27 0c89 bea7
00000100: e1d8 b239 dd34 9639 0429 4535 51e1 8c26
00000110: b549 5b23 0000 0000 1817 d825 84cd 58a6
00000120: 4b0e 5fb7 dfb7 9c26 e92a 84a4 b048 8038
00000130: acc8 1339 75d5 faa5 fa49 c426 f9c0 39a6
00000140: 3f42 0f36 877f 2036 a96c 1e34 8a11 8126
00000150: ad72 a524 0000 0000 1b84 5726 b775 e5a7
00000160: 5718 4833 d649 ad25 0ca9 8d22 3d50 d535
00000170: e60e 4233 b297 c925 2ce9 2127 4f5a 85a7
00000180: 46cc 1639 43ef fc38 98b4 8eb3 c423 f1a6
00000190: 9274 eca4 0000 0000 9426 e4a6 6248 ce27
000001a0: 9ac3 c3b6 bb06 d5a5 c6c2 4ea5 2e4d c437
000001b0: a80f 8338 c327 a1a6 6827 72a7 08d0 6827
000001c0: a12c 0d37 ce85 ec36 08d7 32b3 d012 7aa7
000001d0: 866f 0925 0000 0000 a206 65a7 51fb 7b27
000001e0: 8b2a d1b4 d129 f0a6 b354 5725 c5d3 4335
000001f0: 9557 a036 6629 89a7 8fcf fba7 be11 f126

exp_avg_sq f4 [8, 16]
1.8209691e-06 1.9755673e-07 6.042204e-07 3.7555008e-06 1.2723611e-08 0.0 3.3201788e-06 1.083641e-06
2.3602097e-07 1.094998e-07 1.7437664e-07 6.11433e-06 1.2198726e-06 3.5507956e-06 5.9836993e-06 3.2653097e-07
2.2512096e-07 8.389611e-09 1.4967603e-07 1.4304553e-06 1.52108e-10 0.0 7.3549614e-07 9.744376e-07
2.9945065e-07 8.747973e-07 5.5387868e-09 7.675453e-07 7.115686e-07 4.5767985e-07 3.081129e-06 4.138712e-07
1.1117324e-06 2.0451962e-08 2.409309e-07 2.488581e-06 1.0560196e-08 0.0 2.1936064e-06 1.1980301e-06
1.5154059e-07 6.047407e-08 1.235023e-07 3.9518145e-06 1.1359157e-06 2.2691306e-06 3.839324e-06 3.989881e-07
5.685391e-08 2.3102486e-07 1.003187e-06 7.0177873e-07 3.9353147e-09 0.0 2.9170238e-07 4.4885387e-06
3.0255475e-07 5.410868e-07 7.1492225e-09 2.0072548e-07 2.399119e-06 6.7495445e-09 1.3652933e-06 1.895145e-06
1.2212456e-07 2.2099681e-07 3.82574e-07 4.0331727e-07 1.3083187e-11 0.0 1.6726145e-07 3.0503575e-08
1.0258819e-07 2.931019e-07 3.5991637e-10 7.549097e-08 1.05891914e-07 3.326739e-08 8.798258e-07 1.3147773e-08
1.4773658e-08 3.9101874e-08 3.2260692e-07 7.855508e-07 4.797364e-10 0.0 3.0904135e-07 2.0241523e-06
2.2845327e-07 6.1416523e-07 4.4420723e-10 1.0764095e-07 1.123345e-06 2.1971395e-08 1.6930578e-06 8.6240044e-07
1.3407286e-07 1.5063503e-07 5.198132e-07 9.785482e-07 9.695378e-10 0.0 4.4870333e-07 1.7313736e-06
2.7790273e-07 6.778504e-07 2.2006588e-09 3.6300722e-07 1.0368825e-06 1.831325e-07 2.095908e-06 7.399417e-07
1.1273092e-06 1.5851008e-08 1.7960926e-07 4.177313e-06 1.275548e-09 0.0 2.6642608e-06 4.4596518e-07
6.592044e-07 1.7517661e-06 6.441105e-08 3.8079693e-06 7.999967e-07 2.3030818e-06 8.393865e-06 1.7961425e-07
00000000: 0668 f435 fb1f 5434 b631 2235 0307 7c36
00000010: 0897 5a32 0000 0000 3dd0 5e36 9f71 9135
00000020: f36c 7d34 2726 eb33 493c 3b34 b229 cd36
00000030: 81ba a335 344a 6e36 96c7 c836 134e af34
00000040: c7b8 7134 e621 1032 a2b6 2034 12fe bf35
00000050: 993e 272f 0000 0000 e96e 4535 6cc9 8235
00000060: 2fc4 a034 9dd3 6a35 af4f be31 5009 4e35
00000070: 9f02 3f35 0ab7 f534 65c5 4e36 0632 de34
00000080: d636 9535 57ae af32 4a59 8134 7f01 2736
00000090: 3c6c 3532 0000 0000 df35 1336 00cc a035
000000a0: 29b7 2234 f9dd 8133 0e9c 0434 d499 8436
000000b0: c475 9835 5e47 1836 8bd3 8036 8234 d634
000000c0: 892f 7433 a10f 7834 3ea5 8635 de61 3c35
000000d0: 6537 8731 0000 0000 459b 9c34 419c 9636
000000e0: cf6e a234 343f 1135 3aa5 f531 0087 5734
000000f0: 8d00 2136 9fe9 e731 1f3f b735 b05c fe35
00000100: 5821 0334 244b 6d34 9264 cd34 8187 d834
00000110: 7029 662d 0000 0000 7a98 3334 0903 0333
00000120: 744e dc33 9e5b 9d34 badd c52f 9a1d a233
00000130: b266 e333 e2e1 0e33 2b2d 6c35 84e0 6132
00000140: 3ccf 7d32 f7f0 2733 c232 ad34 a4de 5235
00000150: 73de 0330 0000 0000 52ea a534 acd6 0736
00000160: c24c 7534 1ddd 2435 9c34 f42f 3d28 e733
00000170: d7c5 9635 9cbb bc32 063d e335 b57f 6735
00000180: abf5 0f34 3ebe 2134 4b89 0b35 a956 8335
00000190: 9440 8530 0000 0000 51e5 f034 8b61 e835
000001a0: a932 9534 86f5 3535 663a 1731 55e3 c234
000001b0: 032b 8b35 14a3 4434 6da7 0c36 68a0 4635
000001c0: 0d4e 9735 bc28 8832 9eda 4034 d82a 8c36
000001d0: 5b4f af30 0000 0000 a7cb 3236 fd6c ef34
000001e0: 2ef4 3035 3a1e eb35 5952 8a33 6a8c 7f36
000001f0: 5bbf 5635 a58e 1a36 60d3 0c37 fddb 4034

exp_avg f4 [8]
-0.0004422408 5.8941063e-05 4.022692e-05 -0.0003162933 0.00069331273 4.6787795e-06 0.00029518595 1.8685978e-05
00000000: 8edc e7b9 7c37 7738 54b9 2838 2bd4 a5b9
00000010: 6ebf 353a 69fe 9c36 30c3 9a39 d5bf 9c37

exp_avg_sq f4 [8]
6.848926e-06 5.784003e-06 4.502173e-06 6.1298747e-06 2.5903732e-06 4.555721e-06 5.354113e-06 1.24127855e-05
00000000: d4cf e536 3514 c236 5f11 9736 39af cd36
00000010: 46d6 2d36 58dd 9836 7ba7 b336 8240 5037

exp_avg f4 [1, 8]
0.0017355077 0.0001812587 -0.00084252376 0.0025858178 -0.0013409846 -0.0007766157 -0.0004023055 -0.000268609
00000000: fa79 e33a 4310 3e39 d0dc 5cba d376 293b
00000010: fac3 afba cc95 4bba 88ec d2b9 17d4 8cb9

exp_avg_sq f4 [1, 8]
0.000110190194 0.00043047607 0.00030568664 0.00024949067 7.798212e-05 0.00023002258 0.0006139875 0.00029228916
00000000: e915 e738 85b1 e139 9144 a039 12ce 8239
00000010: 558a a338 3732 7139 01f4 203a 633e 9939
