notebooks/lightning_logs/version_63/checkpoints/epoch=99-step=600.ckpt (torch, 22555 bytes, 30 tensors)

front_linear.weight f4 [8, 2]
0	0x406f7c89	3.741976
1	0x3e8d3ccd	0.2758545
2	0x3ff1c251	1.8887426
3	0x3fe787b1	1.8088285
4	0xbea5140c	-0.32241857
5	0xbfea3b8a	-1.829942
6	0x3fbdfbcf	1.4842471
7	0x3f19edf6	0.60128725
8	0xbf815971	-1.010542
9	0xbf8874dd	-1.0660664
10	0x4039b4dd	2.901664
11	0x3f8ee0fc	1.116241
12	0xbdb06198	-0.086123645
13	0xbf224bc1	-0.6339684
14	0xc00fd645	-2.247453
15	0xbdfb17eb	-0.12260421

front_linear.bias f4 [8]
0	0xbec7cc11	-0.39022878
1	0xbf84549c	-1.0338321
2	0x3f7db8c7	0.9911007
3	0xbe95756a	-0.29191142
4	0x3f1cf292	0.6130763
5	0xbf19bc44	-0.60052896
6	0x3e9040b7	0.28174374
7	0xbdb4056c	-0.08790097

transformer_encoder.layers.0.self_attn.qkv_proj.weight f4 [24, 8]
0	0x3f568539	0.8379703
1	0xbec2338e	-0.37929958
2	0x3fa7a033	1.3095764
3	0x3f4f66a6	0.81016004
4	0x3f18bd7e	0.5966414
5	0x3ff2c29e	1.8965642
6	0xbe9aee69	-0.30260018
7	0xc068e71c	-3.6391058
8	0xbf484470	-0.7822943
9	0x3f3d10c5	0.73853713
10	0xbf511253	-0.81668586
11	0xbf50040b	-0.8125617
12	0xbf05ae43	-0.5221903
13	0xc00086b0	-2.0082207
14	0x3e24c049	0.16088976
15	0x40302e91	2.7528422
16	0x3eb3fc47	0.3515341
17	0xbf83954b	-1.0279936
18	0x3e07d6ea	0.13265577
19	0x3f6860d6	0.9077276
20	0x3f4fd673	0.811866
21	0x400b17a9	2.173319
22	0x3d7076cc	0.058707044
23	0xc0386636	-2.8812385
24	0xbfa788d3	-1.308863
25	0x3efd28e0	0.49445248
26	0xbf7d4a06	-0.98941076
27	0xbfa52580	-1.2902069
28	0xbf03327b	-0.512489
29	0xbfafda0e	-1.373842
30	0x3e9f20c1	0.31079677
31	0x4054ab24	3.3229456
32	0x3f94af77	1.1616048
33	0x3f7b8098	0.98243093
34	0xbfc41b3d	-1.5320812
35	0x3f2d2e77	0.67649025
36	0xbdbb2077	-0.091370516
37	0x3f74b4f9	0.9558864
38	0xbf7fd4e5	-0.99934226
39	0xbf36e03c	-0.71435905
40	0xbf0765bb	-0.52889603
41	0xbf5ee0e7	-0.87061924
42	0x3f5be159	0.8589073
43	0xbecde423	-0.40213117
44	0x3ebbc209	0.36671475
45	0xbebd6305	-0.36989608
46	0x3f45d56f	0.772788
47	0xbe7f0889	-0.249056
48	0x3f11b3f6	0.56915224
49	0x3ef2a7e0	0.47393703
50	0xbfce6980	-1.6125946
51	0x3ee97e82	0.4560433
52	0xbe058289	-0.13038076
53	0x3eec4f81	0.46154407
54	0xbf5e87d7	-0.86926025
55	0xbd27cca7	-0.040966656
56	0xbf581dfa	-0.8442074
57	0xbf94e72f	-1.1633052
58	0x3f3d8f3f	0.740467
59	0xbf9195c3	-1.1373829
60	0x3e3722e7	0.17884408
61	0xbf5f94fc	-0.8733671
62	0x3f9010f3	1.1255172
63	0x3eec4fdb	0.46154675
64	0x3ca2fd16	0.019896071
65	0xbe8286ac	-0.2549337
66	0xbeacb691	-0.33733037
67	0x3d844c2f	0.06459843
68	0x3ea7cf51	0.32775357
69	0x3e89f245	0.2694265
70	0x3ea46e01	0.32115176
71	0xbc195938	-0.00935965
72	0xbf0fd2d4	-0.56181073
73	0xbfbf4506	-1.4942939
74	0x3fbb9b0d	1.4656693
75	0xbf179a11	-0.5921946
76	0x3f223b0a	0.63371336
77	0xbf3e5658	-0.743505
78	0x3e4a479a	0.19753876
79	0xbdedd4e3	-0.116128705
80	0xbee97a72	-0.4560123
81	0xbf8199d0	-1.0125065
82	0x3f947a77	1.1599873
83	0xbe14f46a	-0.14546362
84	0x3ec330da	0.38123208
85	0xbfa2325a	-1.2671616
86	0x3ebbd698	0.3668716
87	0x3d8bd9a1	0.06828619
88	0x3ef7248a	0.48270065
89	0x3fcbbbc9	1.5916682
90	0xbf66ef41	-0.9020882
91	0x3e1e9187	0.15485202
92	0xbefae8a8	-0.49005628
93	0x3ec6815a	0.38770562
94	0xbe2ce20c	-0.16883105
95	0x3cff45c0	0.03116119
96	0xc0382319	-2.8771422
97	0x3fcc66a7	1.5968827
98	0xc099124c	-4.7834835
99	0xc0124521	-2.2854693
100	0xc08d4bb3	-4.4154906
101	0xc029875f	-2.6488874
102	0x407d4ccb	3.957812
103	0x40bb8759	5.860272
104	0xc01d74fe	-2.4602656
105	0x3f326c2a	0.69696295
106	0xc081b036	-4.05276
107	0xc00465db	-2.0687168
108	0xc06818be	-3.6265101
109	0xc01754ad	-2.3645432
110	0x407d1484	3.9543772
111	0x40afd66e	5.4949255
112	0x4012d6bc	2.2943563
113	0xbef30b15	-0.47469392
114	0x40878a54	4.2356358
115	0x3fc9f932	1.5779173
116	0x406aa95c	3.6665869
117	0x400427c3	2.0649269
118	0xc06405fd	-3.5628655
119	0xc0aabaa9	-5.3352857
120	0xc00d32fb	-2.2062366
121	0x3f58bd59	0.8466392
122	0xc09004aa	-4.5005693
123	0xbfdf6054	-1.7451272
124	0xc0675d95	-3.6150868
125	0xc025a10e	-2.587955
126	0x4061df99	3.5292723
127	0x40a7b8e8	5.2413216
128	0x4092762e	4.576926
129	0x409957c0	4.7919617
130	0xc0a1e148	-5.05875
131	0x4082500f	4.072273
132	0xc082150e	-4.06507
133	0x4095aa67	4.677051
134	0xc052b0ee	-3.292049
135	0xc06d846d	-3.7112076
136	0x408fdb62	4.49553
137	0x407e88ac	3.9770918
138	0xc0824760	-4.071213
139	0x404f8786	3.2426467
140	0xc0518940	-3.274002
141	0x406e1092	3.7197614
142	0xc0266b63	-2.6003044
143	0xc069375e	-3.6440043
144	0xc092d59d	-4.588576
145	0xc0744359	-3.8166106
146	0x408a820d	4.3283753
147	0xc082ac5b	-4.0835395
148	0x4065981b	3.5874088
149	0xc078d07b	-3.8877246
150	0x4042d999	3.044531
151	0x4074ab87	3.8229692
152	0x408bbded	4.3669343
153	0x408f1c63	4.472215
154	0xc097a9c7	-4.739475
155	0x4083f455	4.1235757
156	0xc0559172	-3.3370023
157	0x408768a6	4.2315245
158	0xc0420dcf	-3.0320928
159	0xc05a5d01	-3.4119265
160	0xbe3a5d89	-0.18199743
161	0x3d1bc5b6	0.03803035
162	0xbeabf03b	-0.3358172
163	0x3f02640d	0.50933915
164	0xbeff4744	-0.4985906
165	0x3db89b90	0.09014046
166	0xbdc1c333	-0.094610594
167	0x3eb7c50b	0.3589252
168	0xbfb197f7	-1.3874501
169	0xbfbc7425	-1.4722944
170	0x3fb7c36b	1.4356512
171	0xbf0030f0	-0.5007467
172	0x3ed032d6	0.40663785
173	0xbfa0eeb9	-1.2572852
174	0x3ec45a05	0.3834993
175	0x3e922f7b	0.2855185
176	0xbedae27a	-0.42750913
177	0xbd709424	-0.058735028
178	0x3f14e0fc	0.581558
179	0x3e60e0e4	0.21960789
180	0xbe18d39c	-0.14924473
181	0xbfea1f17	-1.8290738
182	0xbe449421	-0.19197132
183	0xbe499cd4	-0.19688731
184	0x3fc8d37c	1.568954
185	0x3fcf36ec	1.6188636
186	0xbf695228	-0.91140985
187	0x3f3402bd	0.7031668
188	0xbf42518e	-0.7590569
189	0x3f91a8fd	1.1379696
190	0xbcb55961	-0.022137346
191	0xbefc012e	-0.4921965

transformer_encoder.layers.0.self_attn.o_proj.weight f4 [8, 8]
0	0xbeb2512d	-0.34827557
1	0x3f0228ca	0.5084349
2	0x3f9ea640	1.2394485
3	0xbf858392	-1.0430777
4	0x3e8e107d	0.27746955
5	0xbf591a6a	-0.8480593
6	0xbe946bc4	-0.2898847
7	0x3f590f34	0.84788823
8	0x3d1a4e45	0.0376723
9	0x3f962a5f	1.1731681
10	0x3f1b0a78	0.6056285
11	0xbf01f4c6	-0.5076412
12	0x3d3f4d0d	0.04670434
13	0xbfa70d4a	-1.305093
14	0xbe6e7a92	-0.23288944
15	0x3f924c61	1.1429559
16	0x3ea4c549	0.32181767
17	0xbeb8f06e	-0.36120933
18	0xbf12480c	-0.57141185
19	0x3ef3402d	0.475099
20	0xbf5dc5c4	-0.8662989
21	0xbe914fae	-0.28381103
22	0xbe3eb0cf	-0.18622135
23	0xbe98d9ea	-0.29853755
24	0x3de60839	0.11232037
25	0xbeb070d1	-0.34461072
26	0xbf02d493	-0.5110561
27	0xbe50eb32	-0.2040222
28	0x3e4cdb10	0.2000544
29	0x3eb9f5a7	0.3632023
30	0xbe66ae4e	-0.2252743
31	0xbdae163d	-0.08500335
32	0xbdf83a3a	-0.12120481
33	0x3f07f845	0.53113204
34	0xbe9266f2	-0.28594166
35	0x3d51bb85	0.051204223
36	0xbc695eea	-0.014243821
37	0xbec5f907	-0.38666555
38	0xbf81a2dd	-1.0127827
39	0x3e9163a1	0.28396323
40	0x3dc78808	0.09742743
41	0xbde865c8	-0.11347538
42	0xbe876159	-0.26441458
43	0x3e8837c2	0.2660504
44	0x3e8886fd	0.26665488
45	0xbc1e97f0	-0.009679779
46	0xbeb25c60	-0.34836102
47	0xbd9ff34b	-0.07810076
48	0xbe094d8a	-0.13408485
49	0xbf3f814f	-0.74806684
50	0xbd9b6922	-0.07588412
51	0x3e608be2	0.21928361
52	0x3ef6c908	0.4820025
53	0x3ef67345	0.4813482
54	0x3e5ec4fc	0.21754831
55	0xbf64d539	-0.8938785
56	0x3e0a5ac0	0.13511181
57	0x3f14f160	0.5818081
58	0x3ed54d0f	0.41660354
59	0xbf14c770	-0.5811682
60	0x3efb6a09	0.49104336
61	0xbf784e56	-0.9699453
62	0xbe5af634	-0.21382982
63	0x3d56157b	0.05226658

transformer_encoder.layers.0.self_attn.o_proj.bias f4 [8]
0	0xbe01e99b	-0.1268677
1	0x3f3e8aba	0.7443043
2	0x3f6a3014	0.9147961
3	0x3f6b8830	0.9200468
4	0x3eca3e9d	0.39500895
5	0x3ea9c54d	0.3315834
6	0xbf0cc4a6	-0.5498756
7	0xbe8f4186	-0.27979678

transformer_encoder.layers.0.linear_net.0.weight f4 [16, 8]
0	0x3f59332b	0.848437
1	0xbe91c90f	-0.28473708
2	0xbf9a0804	-1.2033696
3	0xbf5a9c70	-0.85394955
4	0xbee669a5	-0.45002475
5	0xbf388d6e	-0.72090805
6	0x3f098a69	0.5372682
7	0x401f22a0	2.4864883
8	0x3e67c89e	0.22635123
9	0xbf3f3547	-0.7469067
10	0xbfa58bf3	-1.2933334
11	0xbf760d8f	-0.9611444
12	0x3e619fdd	0.22033639
13	0xbe3b8165	-0.18311079
14	0x3eb14699	0.34624174
15	0x3e783db8	0.24242294
16	0x3f432c89	0.7623983
17	0xbf1ecccf	-0.62031263
18	0xbfd6e108	-1.6787424
19	0xbf55f9a2	-0.83584034
20	0xbef4358f	-0.47697112
21	0xbeb93b0b	-0.3617786
22	0x3f116455	0.5679372
23	0x3e37cb0d	0.17948551
24	0x3f9b03a6	1.2110488
25	0xbf31dc3f	-0.69476694
26	0xbf16c46b	-0.5889346
27	0xbf67051f	-0.9024219
28	0xbfc93f5d	-1.5722462
29	0xc0009e86	-2.0096755
30	0x3f21c053	0.6318409
31	0x3f7d1fee	0.98876846
32	0x3f03202a	0.51220953
33	0xbedf4829	-0.4360974
34	0x3e89a741	0.26885417
35	0xbd36938a	-0.044574298
36	0xbe571111	-0.21002604
37	0xbf192f16	-0.5983747
38	0x3e8935d3	0.26798877
39	0x3f271eda	0.6528145
40	0x3f32f226	0.6990074
41	0xbf191306	-0.5979465
42	0x3da948c5	0.08265833
43	0x3ee6d522	0.45084482
44	0xbeba7a75	-0.36421552
45	0xbe8282bc	-0.25490367
46	0x3eddfd84	0.4335748
47	0x3f3f55c7	0.7474026
48	0x3f94e3b7	1.1631993
49	0xbef17d66	-0.47165984
50	0xbf8b960e	-1.0905168
51	0xbf2cf471	-0.6756049
52	0xbf9f9826	-1.2468307
53	0xbf809a22	-1.0047038
54	0x3f2ebbac	0.68255115
55	0x3fce6e25	1.6127363
56	0x3e876c75	0.26449934
57	0xbea29ac0	-0.3175869
58	0xbeefc390	-0.4682889
59	0xbf97f0c5	-1.1870352
60	0xbec88905	-0.39167038
61	0xbf443bbb	-0.7665364
62	0x3f99ca5e	1.2014883
63	0x3ff0129b	1.8755678
64	0x3f8783f1	1.058714
65	0xbeab9ad2	-0.33516556
66	0xbea6cdfe	-0.32579035
67	0xbf23a439	-0.6392246
68	0xbf6efa69	-0.93350846
69	0xbf771c38	-0.96527433
70	0x3edcbfcc	0.4311508
71	0x3f8c1cef	1.094633
72	0x3e6d53d9	0.23176517
73	0x3da768fb	0.0817432
74	0xc00d9a6c	-2.2125502
75	0xc02219d5	-2.5328267
76	0xbeac3763	-0.33636007
77	0xbf9d8a5d	-1.230785
78	0x3f559345	0.8342784
79	0x3fbdb4f0	1.4820843
80	0x3f700c5d	0.93768865
81	0xbee07f3a	-0.43847066
82	0xbf15e301	-0.58549505
83	0xbf3a5961	-0.7279263
84	0xbf0ea97a	-0.5572735
85	0xbf079b70	-0.52971554
86	0x3f7457d3	0.9544651
87	0x3f22250f	0.63337797
88	0xbe3470cb	-0.17621152
89	0xbf02d0e5	-0.511
90	0xbf8e5709	-1.1120311
91	0xbf5f3db7	-0.87203544
92	0x3c0a80ad	0.00845353
93	0xbd3b989f	-0.045799848
94	0xbb28e015	-0.002576833
95	0x3cbc02da	0.022950578
96	0x3f067c10	0.52533054
97	0xbf1d4517	-0.6143355
98	0xbf5b07e1	-0.855589
99	0xbf068a94	-0.52555203
100	0xbec51ff1	-0.38500932
101	0xbe0d90b8	-0.13824737
102	0x3ec6140a	0.38687164
103	0x3fbd95c6	1.4811332
104	0x3f08f4d6	0.5349859
105	0xba8217a1	-0.0009925255
106	0xbe4ddbee	-0.20103428
107	0xbd4f27b4	-0.050574973
108	0xbf379e34	-0.71725774
109	0xbf982119	-1.1885101
110	0x3db3f761	0.08787418
111	0x3e881be5	0.26583782
112	0xbec4014e	-0.38282245
113	0xbed45a71	-0.4147525
114	0xbf3c4082	-0.7353593
115	0xbf0f123e	-0.5588721
116	0xbf772bee	-0.96551406
117	0x3d087852	0.03331787
118	0x3e831cee	0.2560801
119	0xbc222f1e	-0.009898929
120	0x3f2e5602	0.6809999
121	0xbd059914	-0.03261669
122	0xbfe3b2af	-1.7788905
123	0xbfe4278f	-1.7824572
124	0xbfff2086	-1.99318
125	0xbecb5653	-0.39714298
126	0x3f875b17	1.0574673
127	0x404c31c0	3.1905365

transformer_encoder.layers.0.linear_net.0.bias f4 [16]
0	0xbffa41d2	-1.9551337
1	0xbf0c5a5c	-0.5482538
2	0xbe970352	-0.2949472
3	0xbf1d2b48	-0.61394167
4	0xbf39f01e	-0.72632015
5	0xbf4c7963	-0.7987272
6	0xbdce74d2	-0.100808755
7	0xbf996070	-1.1982555
8	0xbeb0d779	-0.34539393
9	0xbf452d58	-0.77022314
10	0xc044ff6c	-3.0780897
11	0xbee951c7	-0.45570204
12	0xbfc5cb05	-1.5452582
13	0xbf855268	-1.0415773
14	0xbf32f903	-0.6991121
15	0xc068aa8b	-3.635409

transformer_encoder.layers.0.linear_net.3.weight f4 [8, 16]
0	0xbe8a5011	-0.2701421
1	0xbe5b7706	-0.21432123
2	0x3e366a69	0.1781403
3	0xbffe9d48	-1.9891748
4	0x3d6a030d	0.057131816
5	0xbc9a374a	-0.018825192
6	0xbfd903a0	-1.6954231
7	0xc01f1aa2	-2.4860005
8	0xbea515a6	-0.3224308
9	0xbebd3fde	-0.3696279
10	0x3ff60827	1.9221238
11	0x3e584966	0.2112175
12	0xbf4f0ff2	-0.80883706
13	0xbdfeb8bc	-0.12437579
14	0x3cf7b886	0.030239355
15	0xbf44907d	-0.7678297
16	0xbe226b62	-0.15861276
17	0x3e39e06b	0.18152015
18	0xbd9b9899	-0.07597465
19	0xbe52c862	-0.20584252
20	0x3ec3e6d2	0.3826204
21	0xbe75743f	-0.23970126
22	0xbebcfcbf	-0.3691158
23	0xbf0c17f4	-0.5472405
24	0x3f375a4b	0.7162215
25	0x3f12df9f	0.5737247
26	0x3fedc788	1.8576517
27	0x3e641bd5	0.22276242
28	0xbe499c20	-0.19688463
29	0x3d58d5da	0.05293832
30	0x3f097051	0.53687006
31	0x3e7c2d94	0.24626762
32	0x3f801b7a	1.0008385
33	0x3edb4bfb	0.42831406
34	0x3deaff1e	0.11474441
35	0xbe0545d3	-0.13014917
36	0x3f12df0f	0.5737161
37	0x3f2c65ad	0.67342645
38	0x3d7929b8	0.0608308
39	0x3e4c6aef	0.19962667
40	0x3da9120a	0.08255394
41	0x3e164c9e	0.14677665
42	0xbf846984	-1.0344701
43	0x3eb6906b	0.35657057
44	0xbee3ab3f	-0.44466588
45	0x3eec142a	0.46109134
46	0x3e124630	0.14284587
47	0x3f44ae77	0.7682871
48	0x3f2389a2	0.63881886
49	0x3d7f1e8a	0.062284984
50	0x3be4f96b	0.0069877408
51	0x3dc34e97	0.09536474
52	0x3e636c10	0.22209191
53	0x3ea4ecfd	0.32212058
54	0x3e2764b9	0.16347016
55	0x3e09d280	0.13459206
56	0xbd9156a5	-0.07096604
57	0x3e0ef945	0.13962276
58	0x404ae002	3.1699224
59	0x3e8c350a	0.27384216
60	0xbe9eb85c	-0.3100003
61	0x3f0b9446	0.5452312
62	0x3e76236e	0.24036953
63	0x3f478631	0.77939135
64	0x3e0ef404	0.13960272
65	0xbe01d547	-0.12679015
66	0xbed5644e	-0.4167809
67	0x3f097cea	0.5370623
68	0xbf9ca334	-1.2237306
69	0xbfd0c0aa	-1.6308796
70	0x3ea9af19	0.331414
71	0x3f03e4c5	0.5152095
72	0x3e9d7e6d	0.30760518
73	0x3f45f034	0.77319646
74	0xbe13fe03	-0.14452367
75	0xbee2a4f7	-0.44266483
76	0x3ec178e4	0.37787545
77	0xbfa90960	-1.3205986
78	0xbe9a0545	-0.30082145
79	0x3f2739a1	0.6532231
80	0x3f334e77	0.700416
81	0x3e0237a2	0.12716535
82	0xbf224c0c	-0.6339729
83	0x3f5b6df9	0.8571468
84	0xbf33fb5d	-0.70305425
85	0xbe9ef3e9	-0.31045464
86	0x3f83398b	1.0251936
87	0x3e2b322f	0.16718362
88	0x3f14fc51	0.58197504
89	0x3de1a02e	0.1101688
90	0x4059e45b	3.4045627
91	0xbe1babb9	-0.15202226
92	0x3e82dc60	0.25558758
93	0xbf0a8383	-0.5410692
94	0x3ee4816e	0.44629997
95	0x3f196162	0.5991422
96	0xbdcc91f7	-0.09988778
97	0xbee02faf	-0.4378638
98	0xbdff9b94	-0.12480846
99	0x3e9f3dfc	0.31101978
100	0x3ad7cb30	0.0016463753
101	0x3dbc880e	0.09205638
102	0x3dc75323	0.09732654
103	0xbcbd307b	-0.023094406
104	0xbec0b694	-0.37639296
105	0xbf3cb068	-0.73706675
106	0xbfb364ae	-1.40151
107	0xbe17073b	-0.14748852
108	0x3eb3b94a	0.35102302
109	0xbd7365dc	-0.059423313
110	0xbe3840a7	-0.17993413
111	0xbf1f0f76	-0.62132967
112	0x3db10312	0.08643164
113	0x3e0ec98a	0.13944069
114	0x3f1c3546	0.6101879
115	0xbe1b7d40	-0.15184498
116	0x3fde200e	1.7353532
117	0x3ff73548	1.9313135
118	0xbece60ad	-0.40308133
119	0xbec4ba92	-0.38423592
120	0xbf34dedd	-0.7065256
121	0xbf74401c	-0.95410323
122	0xbee863e8	-0.45388722
123	0x3d83dba2	0.06438376
124	0xbe890489	-0.26761273
125	0x3fb0051f	1.3751563
126	0x3da26ca2	0.07930876
127	0xbeeb78d8	-0.45990634

transformer_encoder.layers.0.linear_net.3.bias f4 [8]
0	0x3ee935a5	0.4554874
1	0x3f017371	0.50566775
2	0xbeabcf9e	-0.33556837
3	0xbe5ba180	-0.21448326
4	0xbe859065	-0.26086727
5	0xbde67412	-0.112526074
6	0xbe6f27b8	-0.23354995
7	0x3f3f391a	0.74696505

final_linear.weight f4 [1, 8]
0	0xbea63419	-0.32461622
1	0xbf1f46d0	-0.62217426
2	0xbd6c56b7	-0.057699885
3	0xbdbb4778	-0.09144491
4	0x3cc32669	0.023822026
5	0xbd955c09	-0.07292945
6	0x3e604e6a	0.21904913
7	0x3b39faec	0.002837832

exp_avg f4 [8, 2]
0	0xb961a258	-0.0002151815
1	0xbb3c44ae	-0.002872746
2	0x38e9118c	0.00011113574
3	0xba8149bc	-0.0009863894
4	0xb99ac790	-0.00029521855
5	0x39590271	0.00020695642
6	0x38cd4fbc	9.7900134e-05
7	0xb9a985e4	-0.00032333948
8	0xb9375648	-0.00017484382
9	0xb827c750	-4.0001527e-05
10	0xb7b55960	-2.16185e-05
11	0xba9df450	-0.001205096
12	0x38a7f572	8.008898e-05
13	0x3a0da7bc	0.00054037175
14	0x38ce8798	9.848102e-05
15	0x3a8704d4	0.0010301122

exp_avg_sq f4 [8, 2]
0	0x37a9147b	2.0155907e-05
1	0x3a821099	0.0009923159
2	0x36c66410	5.9125086e-06
3	0x39470409	0.00018979622
4	0x372c5d4e	1.0273723e-05
5	0x38625674	5.3963115e-05
6	0x3638ca07	2.7535732e-06
7	0x39002c64	0.00012223568
8	0x365342db	3.1480365e-06
9	0x38015c45	3.084193e-05
10	0x36d5bd18	6.369908e-06
11	0x39dd0b70	0.00042160926
12	0x368df0e1	4.2301695e-06
13	0x38225caf	3.8710128e-05
14	0x36d4af90	6.3385305e-06
15	0x3918d33e	0.00014574543

exp_avg f4 [8]
0	0xbba8b2c0	-0.005148262
1	0xba03b0c0	-0.0005023591
2	0xba0d74d2	-0.0005396131
3	0xb9a040f0	-0.0003056596
4	0xba0ec568	-0.0005446286
5	0xbada56e0	-0.0016657971
6	0x3a681304	0.0008852931
7	0x3b1947e0	0.0023388788

exp_avg_sq f4 [8]
0	0x3bb2abf7	0.0054526287
1	0x3a9ded2f	0.0012048836
2	0x399dcc14	0.00030097424
3	0x3a382bb6	0.00070255564
4	0x3936b778	0.0001742522
5	0x3b2162f7	0.0024625638
6	0x394ca685	0.0001951699
7	0x3a4a584d	0.00077188463

exp_avg f4 [24, 8]
0	0x38194b50	3.6548183e-05
1	0x380cf96d	3.3610897e-05
2	0xb80dab02	-3.3776283e-05
3	0x36931d94	4.3843847e-06
4	0xb70d39e6	-8.417735e-06
5	0x37ca8a08	2.4144552e-05
6	0xb7bc5799	-2.2452137e-05
7	0x3661a940	3.362613e-06
8	0xb78e5806	-1.6968708e-05
9	0xb78b7a84	-1.6627142e-05
10	0x378267ba	1.5545509e-05
11	0xb6830822	-3.905051e-06
12	0x3686f071	4.0215023e-06
13	0xb768f734	-1.3885834e-05
14	0x37357e4f	1.0817849e-05
15	0x36042040	1.9688305e-06
16	0x37963426	1.7905677e-05
17	0x3794f8c4	1.7758815e-05
18	0xb78a111f	-1.6458855e-05
19	0x3696f560	4.4989138e-06
20	0xb68ddf92	-4.2281545e-06
21	0x3780197e	1.527066e-05
22	0xb742abc4	-1.1603293e-05
23	0xb6419a40	-2.8849026e-06
24	0xb80d851b	-3.3740984e-05
25	0xb8011ba6	-3.0781746e-05
26	0x38017170	3.0861644e-05
27	0xb68507dc	-3.964624e-06
28	0x37022ee2	7.75952e-06
29	0xb7b8bf5b	-2.2023616e-05
30	0x37ab641f	2.0431411e-05
31	0xb659f860	-3.2480093e-06
32	0x36f46330	7.2833136e-06
33	0xb6aec8a0	-5.20896e-06
34	0x37059590	7.9622405e-06
35	0x3527f600	6.2570325e-07
36	0x36746da0	3.6422643e-06
37	0x35a76a00	1.247332e-06
38	0x35ef1928	1.7814209e-06
39	0xb6c9c410	-6.0130915e-06
40	0xb6f1db80	-7.207913e-06
41	0x366b41e0	3.5056073e-06
42	0xb6d22258	-6.262486e-06
43	0xb58ef580	-1.0651274e-06
44	0xb62b3ad0	-2.551522e-06
45	0xb60aefc0	-2.0703155e-06
46	0xb5bda378	-1.4129173e-06
47	0x36be6d40	5.6751596e-06
48	0x36906150	4.302863e-06
49	0xb6970630	-4.500871e-06
50	0x36ca1210	6.022172e-06
51	0x30200000	5.820766e-10
52	0x364d7530	3.0615593e-06
53	0x33564800	4.989124e-08
54	0x35ac57c0	1.2840537e-06
55	0xb6824350	-3.882138e-06
56	0xb74b5ed8	-1.2121825e-05
57	0x359dcb40	1.1756565e-06
58	0xb6c717d0	-5.9334343e-06
59	0xb64de4b0	-3.0680494e-06
60	0xb5b3a7e0	-1.3385397e-06
61	0xb6c545a0	-5.879163e-06
62	0xb5afe620	-1.3105491e-06
63	0x37134b44	8.779407e-06
64	0xb94f51ed	-0.00019771578
65	0xb8d63e83	-0.00010215959
66	0x3839203e	4.4137465e-05
67	0xb84aa98b	-4.8318452e-05
68	0x389301d9	7.0098504e-05
69	0xb8eb2978	-0.000112133974
70	0x363fda12	2.8588152e-06
71	0x38706578	5.731496e-05
72	0x391afd10	0.00014780858
73	0x3a1045f6	0.0005503589
74	0xb9f6c4c9	-0.00047067393
75	0xb8b810f0	-8.7769586e-05
76	0xb9b1026e	-0.0003376188
77	0xb9059720	-0.00012740167
78	0xb89614c8	-7.156428e-05
79	0x3a46cee8	0.0007583932
80	0x3a0ff4aa	0.0005491475
81	0x3a1a15d6	0.00058778876
82	0xb9c308ea	-0.0003719994
83	0x38b0b110	8.4253144e-05
84	0xb9c41c3b	-0.00037405067
85	0x3957dfa8	0.00020587316
86	0xb7f53284	-2.92298e-05
87	0x39a73c70	0.00031897752
88	0xb8c61a00	-9.4462186e-05
89	0xb9bf7b05	-0.00036522016
90	0x39b48a7a	0.00034435448
91	0x38b110c0	8.4431376e-05
92	0x3988c7fb	0.00026088938
93	0x39045290	0.00012619258
94	0x37dfa090	2.665844e-05
95	0xba156b26	-0.0005699865
96	0x355a87ed	8.1409127e-07
97	0x35b34886	1.3357646e-06
98	0x3489e860	2.5687314e-07
99	0x364e0c26	3.0703463e-06
100	0x3563bafc	8.483619e-07
101	0x36b0581b	5.2554656e-06
102	0x34229b3e	1.5143902e-07
103	0xb6f3ad56	-7.2621433e-06
104	0x3525cbbb	6.1763757e-07
105	0x357afde4	9.3501717e-07
106	0x34cfe010	3.8719782e-07
107	0x362e323e	2.5957265e-06
108	0x356e5f78	8.8800834e-07
109	0x36959086	4.457371e-06
110	0x3428d7a0	1.5724663e-07
111	0xb6d514d2	-6.3503185e-06
112	0xb52d4f8a	-6.4563267e-07
113	0xb5859bca	-9.954613e-07
114	0xb4cd63a0	-3.8256712e-07
115	0xb63722a8	-2.7289298e-06
116	0xb57ca8c0	-9.412288e-07
117	0xb69da8d4	-4.698619e-06
118	0xb4244dfa	-1.5302058e-07
119	0x36e0254e	6.680063e-06
120	0x35430a51	7.2658173e-07
121	0x35a0e11a	1.1986442e-06
122	0x3482d170	2.4366773e-07
123	0x363dfe2c	2.8311142e-06
124	0x35622dc4	8.425816e-07
125	0x36a372b3	4.8711313e-06
126	0x340915dc	1.2767072e-07
127	0xb6e2e19e	-6.76159e-06
128	0xb68947f0	-4.091293e-06
129	0xb5d0cf8c	-1.5557612e-06
130	0xb4a7a870	-3.1228728e-07
131	0xb5ca684e	-1.508053e-06
132	0x354ece90	7.704157e-07
133	0xb64216d2	-2.8921536e-06
134	0xb4466820	-1.8478067e-07
135	0x3622c19c	2.4252577e-06
136	0xb66babce	-3.5117732e-06
137	0xb5cb799c	-1.5160072e-06
138	0xb3b04e40	-8.209872e-08
139	0xb5b4edd4	-1.3480262e-06
140	0x354e9a70	7.6965716e-07
141	0xb62d44d8	-2.5819081e-06
142	0xb3dee330	-1.0379006e-07
143	0x360b09a9	2.0718237e-06
144	0x3662b3c5	3.3781264e-06
145	0x35b66d90	1.3591944e-06
146	0x3445f4a0	1.8436049e-07
147	0x35aa0108	1.2666287e-06
148	0xb53745e8	-6.827454e-07
149	0x36230f42	2.4297774e-06
150	0x341198a0	1.3559702e-07
151	0xb605ee92	-1.995741e-06
152	0xb66e9ef8	-3.5557296e-06
153	0xb5bf0578	-1.42322e-06
154	0xb4578890	-2.0073117e-07
155	0xb5b29f38	-1.3308372e-06
156	0x353fe150	7.148092e-07
157	0xb62b52f2	-2.5529266e-06
158	0xb41a9ac8	-1.4398677e-07
159	0x360d037d	2.1012668e-06
160	0x39feb554	0.00048581755
161	0x397e664e	0.00024261439
162	0xb822d81a	-3.882507e-05
163	0x394b6878	0.00019398506
164	0xb90d502d	-0.00013476676
165	0x39c54d1b	0.00037632216
166	0x36871f9f	4.0269947e-06
167	0xb99b86df	-0.0002966439
168	0xba643aa4	-0.0008706248
169	0xba34d50d	-0.0006898202
170	0x399b5d1c	0.00029633276
171	0xb907c1b8	-0.00012946769
172	0x39ed5da2	0.00045273924
173	0xb98de2a4	-0.00027062476
174	0xb8112d2b	-3.461276e-05
175	0xb9c166a0	-0.0003688829
176	0x36a2f8e0	4.856949e-06
177	0xb8633238	-5.4167787e-05
178	0x3866c738	5.502181e-05
179	0x388a652a	6.599196e-05
180	0x38561e0a	5.1049552e-05
181	0x38fd1874	0.00012068535
182	0xb700265e	-7.638328e-06
183	0xb9836d10	-0.00025067525
184	0x39eb8d8c	0.00044928154
185	0x3a03fcf5	0.0005034947
186	0xb9a6ff76	-0.0003185232
187	0xb851c5a0	-5.0013536e-05
188	0xb9b82f36	-0.0003513039
189	0xb86f1f20	-5.7011028e-05
190	0x37e02967	2.672216e-05
191	0x3a28ebb0	0.00064438116

exp_avg_sq f4 [24, 8]
0	0x34f2c5ac	4.5219838e-07
1	0x34347abd	1.6808458e-07
2	0x332d6aba	4.037677e-08
3	0x33fd02f4	1.1781768e-07
4	0x3390e0ec	6.7464356e-08
5	0x3475fe19	2.2909843e-07
6	0x32bd6561	2.2048598e-08
7	0x34cd2018	3.8207577e-07
8	0x3484de54	2.474868e-07
9	0x33c13540	8.996949e-08
10	0x32b9e3cf	2.164043e-08
11	0x338ec5ee	6.6483935e-08
12	0x3328388f	3.9166988e-08
13	0x34034130	1.2224041e-07
14	0x325c32f4	1.2817271e-08
15	0x346b6448	2.1922563e-07
16	0x34cfb59c	3.8688893e-07
17	0x3416145e	1.3977248e-07
18	0x330af914	3.2357164e-08
19	0x33e12312	1.0483758e-07
20	0x33703739	5.592958e-08
21	0x344884f3	1.8674818e-07
22	0x32a994e2	1.9741893e-08
23	0x34b4f4ac	3.3705635e-07
24	0x34ae25bc	3.243748e-07
25	0x34008ce4	1.1972185e-07
26	0x3301caed	3.0219713e-08
27	0x33b73fcf	8.533208e-08
28	0x335fdcb8	5.2121976e-08
29	0x3431997d	1.6540248e-07
30	0x328e73e1	1.6583671e-08
31	0x34983b2b	2.8355257e-07
32	0x342143c1	1.5018942e-07
33	0x33e953b2	1.0865132e-07
34	0x32d7ad17	2.5108006e-08
35	0x334441ab	4.569453e-08
36	0x331e6060	3.6874894e-08
37	0x33f6c0e6	1.1490356e-07
38	0x31c0c366	5.6101497e-09
39	0x3341363c	4.498564e-08
40	0x33c1ad60	9.0187996e-08
41	0x338c0c5b	6.5215055e-08
42	0x32811179	1.5025522e-08
43	0x32eb626b	2.7402356e-08
44	0x32bbdaec	2.186922e-08
45	0x3395aab9	6.9694075e-08
46	0x3166aad8	3.3566518e-09
47	0x32eb8f7e	2.7422853e-08
48	0x338e51d1	6.6272726e-08
49	0x334c5877	4.757791e-08
50	0x323eef59	1.1113877e-08
51	0x32ab11ba	1.9915081e-08
52	0x328623fd	1.5616019e-08
53	0x33615da1	5.247205e-08
54	0x312600ce	2.4156637e-09
55	0x32b3b902	2.0922474e-08
56	0x342de74d	1.6196027e-07
57	0x33fd0879	1.1782772e-07
58	0x32eae030	2.7343134e-08
59	0x335487c4	4.9483575e-08
60	0x332e30e8	4.0557012e-08
61	0x340364a2	1.2236936e-07
62	0x31d32c78	6.1459637e-09
63	0x334bf562	4.7487795e-08
64	0x36ac7d3e	5.1405796e-06
65	0x36eae12d	6.9999573e-06
66	0x364922db	2.9971623e-06
67	0x36e8b0f8	6.9347407e-06
68	0x36f5888f	7.3174665e-06
69	0x3674b401	3.646361e-06
70	0x3715b088	8.922194e-06
71	0x3798e5be	1.8226794e-05
72	0x38bb1c84	8.922166e-05
73	0x38245784	3.9182152e-05
74	0x37964f0b	1.79182e-05
75	0x3845e4ca	4.7181537e-05
76	0x3848fec6	4.7920992e-05
77	0x38cea418	9.85341e-05
78	0x37621da9	1.34775555e-05
79	0x392c2c74	0.00016419758
80	0x383abc33	4.452113e-05
81	0x37a5ab88	1.9749408e-05
82	0x3715d2d0	8.930176e-06
83	0x37e13817	2.6848209e-05
84	0x37b98678	2.2116335e-05
85	0x384a70af	4.8265498e-05
86	0x3705c98c	7.974344e-06
87	0x38acf250	8.246733e-05
88	0x38387135	4.397445e-05
89	0x379cd68b	1.8696554e-05
90	0x374d7e09	1.2248297e-05
91	0x37d7dc03	2.5732448e-05
92	0x37baf7aa	2.2288255e-05
93	0x384f7651	4.9462837e-05
94	0x36fb7f1e	7.4951813e-06
95	0x38ab882a	8.179278e-05
96	0x31523ee2	3.0594767e-09
97	0x30c882aa	1.4589052e-09
98	0x31df45bd	6.4980825e-09
99	0x30d38031	1.5388705e-09
100	0x32928dc9	1.7061113e-08
101	0x318e774d	4.146307e-09
102	0x3142551a	2.827909e-09
103	0x327474b6	1.4229206e-08
104	0x3122bd07	2.3681552e-09
105	0x30aa3346	1.2383701e-09
106	0x31a42af0	4.7779096e-09
107	0x30b7514f	1.3338112e-09
108	0x325a4a2b	1.2706134e-08
109	0x31566ee0	3.1204124e-09
110	0x312283b9	2.3648978e-09
111	0x323273b4	1.03872715e-08
112	0x313f55a5	2.7842841e-09
113	0x30d78321	1.5680578e-09
114	0x31baf005	5.4405995e-09
115	0x30e69337	1.6776543e-09
116	0x327b1e39	1.4616995e-08
117	0x3175a82e	3.5747791e-09
118	0x31463bba	2.8846743e-09
119	0x3250e76b	1.2159812e-08
120	0x314cbe83	2.97942e-09
121	0x30e67ab1	1.6769574e-09
122	0x31caa64e	5.8978804e-09
123	0x30f591c6	1.7867527e-09
124	0x3289b1f9	1.6029832e-08
125	0x318a9481	4.0332115e-09
126	0x314f623f	3.017831e-09
127	0x32692f3c	1.3573125e-08
128	0x319219a2	4.2520734e-09
129	0x319b3e55	4.51818e-09
130	0x30af4861	1.2753497e-09
131	0x3101e0d0	1.8899762e-09
132	0x30a2ef31	1.1855034e-09
133	0x31a5d382	4.8261777e-09
134	0x2fbf7439	3.482528e-10
135	0x30cf244d	1.507155e-09
136	0x3155e758	3.1127083e-09
137	0x3170f777	3.5065264e-09
138	0x30a042c0	1.1660504e-09
139	0x30d4c658	1.5481403e-09
140	0x3086198d	9.757045e-10
141	0x3180c489	3.7476338e-09
142	0x2ff367c9	4.4275186e-10
143	0x30b41e1d	1.3105282e-09
144	0x31438a50	2.8454856e-09
145	0x315bdeeb	3.1995409e-09
146	0x308dc1f9	1.0314231e-09
147	0x30beda25	1.388632e-09
148	0x3070616c	8.7449936e-10
149	0x31686d99	3.3822742e-09
150	0x2fceef64	3.764128e-10
151	0x309f50c1	1.1591724e-09
152	0x315517bb	3.1009069e-09
153	0x3168f855	3.3901604e-09
154	0x3093f47d	1.0765145e-09
155	0x30ca1bcf	1.4705338e-09
156	0x307ce3a6	9.2000574e-10
157	0x317b758a	3.659212e-09
158	0x2fc5a063	3.5948053e-10
159	0x30a729a6	1.2162686e-09
160	0x35908948	1.076879e-06
161	0x35bfcb17	1.4289716e-06
162	0x36238cbf	2.4370818e-06
163	0x36041ed1	1.968747e-06
164	0x366b3f0b	3.5054425e-06
165	0x35b90932	1.378625e-06
166	0x36079a3f	2.020635e-06
167	0x36a12691	4.8026636e-06
168	0x37fdf714	3.0275005e-05
169	0x37475669	1.1881443e-05
170	0x38105dfd	3.441981e-05
171	0x37d909af	2.5872925e-05
172	0x3897a95b	7.231786e-05
173	0x382f08de	4.173151e-05
174	0x37702077	1.4312674e-05
175	0x39096b8d	0.00013105404
176	0x36e456e1	6.8050435e-06
177	0x36b2648e	5.3165195e-06
178	0x36f10673	7.1831105e-06
179	0x36dbaeec	6.547072e-06
180	0x37a46ace	1.9600058e-05
181	0x36f015df	7.1551035e-06
182	0x36fd3c4e	7.547008e-06
183	0x37fb20e8	2.9936855e-05
184	0x382692d3	3.9714225e-05
185	0x3798e073	1.822433e-05
186	0x3825f12c	3.9563674e-05
187	0x380e54e0	3.3934484e-05
188	0x38c38309	9.322732e-05
189	0x38597b0a	5.185142e-05
190	0x37a42a61	1.9570058e-05
191	0x392cf4ee	0.00016494442

exp_avg f4 [8, 8]
0	0xb8bcd4b5	-9.004158e-05
1	0xb9c68556	-0.00037864846
2	0xb8fcd940	-0.00012056762
3	0x399c7822	0.00029844145
4	0x394babbf	0.00019423569
5	0xb9f16f8b	-0.00046050208
6	0xb8d94244	-0.00010359709
7	0x39c66662	0.00037841784
8	0xb917a472	-0.00014461743
9	0xb9996a58	-0.00029261666
10	0x38f92c20	0.00011881464
11	0x3971f5e0	0.00023075147
12	0x39786f6a	0.00023692628
13	0xb92d054c	-0.00016500539
14	0x386b5b10	5.6113175e-05
15	0xb7c98900	-2.4024863e-05
16	0xb796fd4b	-1.7999342e-05
17	0x3a491cd6	0.00076718384
18	0x3a4df943	0.0007857272
19	0xba1e54a2	-0.0006039833
20	0xb916fc0c	-0.0001439901
21	0x3ac2da5f	0.0014866105
22	0x3a2d1244	0.0006602148
23	0xbad7fd96	-0.0016478773
24	0xb7d513c1	-2.5400777e-05
25	0x3ac6634e	0.0015135796
26	0x3ac6f529	0.0015179265
27	0xba9b8deb	-0.0011867856
28	0xb9460186	-0.00018883319
29	0x3b15e4b8	0.0022871923
30	0x3a86c0d0	0.0010280851
31	0xbb2768ea	-0.0025544711
32	0xb5d47c30	-1.5831374e-06
33	0xb936198c	-0.0001736639
34	0xb93c4c60	-0.00017957529
35	0x39121808	0.00013932597
36	0xb8594b5e	-5.1807023e-05
37	0x3913280f	0.00014033935
38	0x383defec	4.5284556e-05
39	0xb91662e8	-0.0001434196
40	0xb78c8556	-1.675139e-05
41	0x3a77d4db	0.000945402
42	0x3a750c0c	0.00093478034
43	0xba40ab96	-0.0007349787
44	0xb8ae28d3	-8.304571e-05
45	0x3a958c51	0.0011409615
46	0x3a06c8a4	0.0005141592
47	0xbaa8eafa	-0.0012887411
48	0x3867593c	5.5157798e-05
49	0xb99501d9	-0.0002842087
50	0xb9dda33e	-0.0004227403
51	0x3968078c	0.00022128056
52	0xb831a8b4	-4.2357206e-05
53	0xb9ded348	-0.00042500556
54	0xb980027c	-0.00024415914
55	0x3a1245cb	0.0005579858
56	0x374be512	1.21530775e-05
57	0xbab729f2	-0.0013974293
58	0xbaaf83ab	-0.001339068
59	0x3a8d3758	0.001077394
60	0x39078c38	0.00012926839
61	0xbad7d4b7	-0.0016466592
62	0xba461493	-0.00075561664
63	0x3af0f2df	0.0018382928

exp_avg_sq f4 [8, 8]
0	0x37349542	1.0763588e-05
1	0x387cd7ab	6.028234e-05
2	0x38a0988c	7.6578086e-05
3	0x3858e82a	5.1714633e-05
4	0x3760d60d	1.3401278e-05
5	0x386024d7	5.344007e-05
6	0x37addd95	2.072639e-05
7	0x38b124a5	8.446843e-05
8	0x3794dad5	1.7744876e-05
9	0x38f05b70	0.00011461123
10	0x39267811	0.00015875722
11	0x38d9cb36	0.00010385217
12	0x37b6a26e	2.1771728e-05
13	0x38cae104	9.674023e-05
14	0x38164830	3.5830017e-05
15	0x392360bc	0.00015580928
16	0x369d141f	4.681307e-06
17	0x37439893	1.165843e-05
18	0x3750793c	1.2425993e-05
19	0x371648c9	8.957643e-06
20	0x36e3aa90	6.7849833e-06
21	0x3745e322	1.17949985e-05
22	0x36b3aa7b	5.3544622e-06
23	0x3794d64e	1.7742768e-05
24	0x369cdfc3	4.6752116e-06
25	0x3710a9a1	8.622564e-06
26	0x372b450b	1.020847e-05
27	0x36e26f30	6.748269e-06
28	0x37086546	8.129811e-06
29	0x3749b609	1.2022917e-05
30	0x36a85771	5.0169697e-06
31	0x37942421	1.7659799e-05
32	0x361dc192	2.3507496e-06
33	0x3794f240	1.7755781e-05
34	0x37694314	1.39035e-05
35	0x375a1529	1.2998739e-05
36	0x364fe180	3.0976662e-06
37	0x36fbdcb4	7.506076e-06
38	0x36704260	3.5801422e-06
39	0x37435ed9	1.1644989e-05
40	0x369deb38	4.7063477e-06
41	0x36a3dc78	4.8834445e-06
42	0x36fd90dd	7.556852e-06
43	0x369aac7e	4.6096384e-06
44	0x36e31b3b	6.768297e-06
45	0x371210fb	8.706232e-06
46	0x369fd4b4	4.763331e-06
47	0x375eacab	1.32724335e-05
48	0x37a084b8	1.9135288e-05
49	0x3869331c	5.559913e-05
50	0x388e4a42	6.784919e-05
51	0x38488274	4.780521e-05
52	0x37ec7288	2.8186725e-05
53	0x386f318a	5.7028177e-05
54	0x37d282e2	2.5094898e-05
55	0x38bba6e6	8.947942e-05
56	0x3605c457	1.993283e-06
57	0x36bc22be	5.606881e-06
58	0x36ca9ec9	6.038554e-06
59	0x36b312bd	5.336797e-06
60	0x3661d97b	3.3654203e-06
61	0x36aff9bd	5.24448e-06
62	0x3617ad0c	2.260148e-06
63	0x3716008f	8.940827e-06

exp_avg f4 [8]
0	0xba70b48e	-0.0009182178
1	0xbab8d3a6	-0.0014101162
2	0xb9886e5d	-0.00026022168
3	0xb9e9bad3	-0.00044580418
4	0x361888c0	2.2729364e-06
5	0xb97c1494	-0.00024040259
6	0x3a1ddefa	0.0006022301
7	0x39920164	0.00027848326

exp_avg_sq f4 [8]
0	0x38e61071	0.00010970317
1	0x39baba29	0.00035615385
2	0x3784a79b	1.5813674e-05
3	0x3792811f	1.7464683e-05
4	0x3797e55e	1.810741e-05
5	0x3756e640	1.2809003e-05
6	0x3900fc0b	0.00012300925
7	0x378954c7	1.637115e-05

exp_avg f4 [16, 8]
0	0x37b8148d	2.1944079e-05
1	0x38508ba3	4.972111e-05
2	0x3699cc18	4.583515e-06
3	0xb72e701e	-1.03973125e-05
4	0x37cf978e	2.4746896e-05
5	0x371bf136	9.294881e-06
6	0xb81a78a6	-3.6828824e-05
7	0x3703736d	7.835083e-06
8	0xb75e5adb	-1.3253385e-05
9	0xb7584d23	-1.2892563e-05
10	0x3670a01d	3.5855985e-06
11	0x36119104	2.1691094e-06
12	0xb559cf7c	-8.114073e-07
13	0x35e58f19	1.7103476e-06
14	0x371bb5e6	9.2810715e-06
15	0xb50a4c08	-5.1519646e-07
16	0xb6e2d744	-6.760385e-06
17	0x381a126f	3.673363e-05
18	0x367c1d01	3.7567809e-06
19	0xb6a37e1f	-4.872461e-06
20	0x38050291	3.171206e-05
21	0x37c30718	2.3249115e-05
22	0xb868a57c	-5.546723e-05
23	0xb8847260	-6.3155545e-05
24	0xb84a2101	-4.819129e-05
25	0xb844c248	-4.691098e-05
26	0x37e5bb8c	2.738626e-05
27	0x37a822ed	2.0043424e-05
28	0xb78d4086	-1.6838556e-05
29	0x36f255ef	7.222166e-06
30	0x37b0a022	2.1055403e-05
31	0xb813963f	-3.518746e-05
32	0x39187d94	0.00014542631
33	0x3a135271	0.00056198897
34	0x398630d6	0.00025594857
35	0xb9261051	-0.00015837072
36	0x39cd1827	0.00039118642
37	0x391004c0	0.0001373468
38	0xb9af3c74	-0.00033423642
39	0x399d7689	0.0003003369
40	0xb752e373	-1.2569933e-05
41	0xb750b2e2	-1.24394155e-05
42	0x36dd6d6a	6.5990507e-06
43	0x36a61e19	4.9506893e-06
44	0xb68c08a3	-4.1733306e-06
45	0x360a6336	2.062135e-06
46	0x36cffbe6	6.1984056e-06
47	0xb70b5c21	-8.306496e-06
48	0xb8968b45	-7.178498e-05
49	0xb8981ea9	-7.253636e-05
50	0x383752de	4.3707776e-05
51	0x3807ae24	3.234869e-05
52	0xb7fad049	-2.9899313e-05
53	0x374378ca	1.1651029e-05
54	0x38034954	3.1301126e-05
55	0xb87ee855	-6.0774695e-05
56	0xb730b0da	-1.0531594e-05
57	0xb6c96526	-6.002042e-06
58	0x361333ea	2.1934925e-06
59	0x360de2b8	2.1142605e-06
60	0x363e225e	2.833221e-06
61	0x368df354	4.2304546e-06
62	0x36499239	3.0036447e-06
63	0xb6306298	-2.6283433e-06
64	0x1313450b	1.858805e-27
65	0x13d1d5bf	5.2969787e-27
66	0x12f9eda7	1.5772695e-27
67	0x0fe5865f	2.2632901e-29
68	0x13683de8	2.9313039e-27
69	0x92be2cdf	-1.2001747e-27
70	0x9367c2be	-2.9252314e-27
71	0x93c660a3	-5.007752e-27
72	0x394101d0	0.0001840659
73	0x3a86c447	0.0010281884
74	0x3a0de20a	0.00054124056
75	0xb99ca844	-0.00029880006
76	0x3a4dda26	0.0007852636
77	0x399a2de5	0.00029407363
78	0xba1c0afb	-0.0005952564
79	0x3a1e8145	0.00060464843
80	0x37870872	1.6097187e-05
81	0x37a54774	1.9702806e-05
82	0xb6e483cc	-6.8102727e-06
83	0xb667feea	-3.4570062e-06
84	0x37019c56	7.725399e-06
85	0xb698ff45	-4.5596703e-06
86	0xb713e14d	-8.81434e-06
87	0xb760b1e2	-1.3392857e-05
88	0xb5dcfbdb	-1.6464577e-06
89	0x34f0d492	4.485815e-07
90	0xb50256a0	-4.855483e-07
91	0xb40ae452	-1.2935314e-07
92	0x35c7f0d4	1.4896746e-06
93	0x35c2c8a7	1.4512524e-06
94	0xb6088df1	-2.03482e-06
95	0xb626d33e	-2.4858887e-06
96	0x92bb9e23	-1.1840343e-27
97	0x92321048	-5.6186965e-28
98	0x12105935	4.5548344e-28
99	0x11695c55	1.8408911e-28
100	0x11937819	2.3266527e-28
101	0x12047f53	4.1808795e-28
102	0x1184e650	2.096787e-28
103	0x91daceca	-3.452178e-28
104	0x8e377a11	-2.2615264e-30
105	0x8e837302	-3.240474e-30
106	0x0e15fc82	1.8487246e-30
107	0x0e2ea529	2.1526678e-30
108	0x8d4d5ad3	-6.327983e-31
109	0x0ed21e8d	5.1798416e-30
110	0x0dee8fa8	1.4702466e-30
111	0x0afe2513	2.4473256e-32
112	0x3a4f40ce	0.000790608
113	0x3a69abd6	0.000891385
114	0xb97d28bd	-0.00024143136
115	0xb8506192	-4.9681934e-05
116	0x395973fb	0.00020737939
117	0xb90ea2ab	-0.00013602774
118	0xb9f5a116	-0.0004685006
119	0x39eab39d	0.0004476578
120	0xacbf9b19	-5.445766e-12
121	0xac7150a5	-3.4292927e-12
122	0x2c22b4ca	2.3121943e-12
123	0x2b3fd20f	6.8148346e-13
124	0x2ace7565	3.667441e-13
125	0xaa103ee5	-1.281159e-13
126	0x2b93a8a4	1.0491785e-12
127	0xac423ee0	-2.760396e-12

exp_avg_sq f4 [16, 8]
0	0x3743e0a0	1.1675205e-05
1	0x378e7677	1.6982884e-05
2	0x36329f38	2.6616744e-06
3	0x361ee92d	2.367956e-06
4	0x36e7136d	6.886598e-06
5	0x37894deb	1.6367956e-05
6	0x36b7d52a	5.4786406e-06
7	0x32f010de	2.7947348e-08
8	0x353b95a5	6.988069e-07
9	0x36989017	4.5467273e-06
10	0x34d49a1b	3.9600204e-07
11	0x3495fd04	2.7937506e-07
12	0x374c0910	1.2161458e-05
13	0x3717012c	9.000574e-06
14	0x373fe935	1.1438785e-05
15	0x37373c0b	1.092163e-05
16	0x359d68ab	1.1727874e-06
17	0x3650ae6d	3.1095944e-06
18	0x350c576d	5.2281285e-07
19	0x343c3f7a	1.7531957e-07
20	0x36cf562f	6.179114e-06
21	0x3698cf82	4.55411e-06
22	0x36c3c37f	5.8342116e-06
23	0x370cce1c	8.392639e-06
24	0x3421498b	1.5021048e-07
25	0x35d58f0f	1.5911372e-06
26	0x34e1b2e0	4.2039665e-07
27	0x34540037	1.9744117e-07
28	0x34a4409c	3.059439e-07
29	0x3393658f	6.863694e-08
30	0x35c0e033	1.4370365e-06
31	0x35ae0a9a	1.2967096e-06
32	0x3586a3f9	1.00315e-06
33	0x35774055	9.2108286e-07
34	0x358081da	9.574535e-07
35	0x346fa8c9	2.2320013e-07
36	0x369c4eb7	4.658326e-06
37	0x368effde	4.2617166e-06
38	0x364f0274	3.0846832e-06
39	0x36aa00d0	5.0664894e-06
40	0x36447b0a	2.9277894e-06
41	0x36277e1a	2.495834e-06
42	0x361f0baf	2.3699647e-06
43	0x350250bb	4.854625e-07
44	0x37423d43	1.1577565e-05
45	0x37322fcf	1.0620758e-05
46	0x36fcfbc4	7.5394946e-06
47	0x3753a1df	1.2614269e-05
48	0x34b829be	3.4303042e-07
49	0x357efcec	9.4990423e-07
50	0x3432c774	1.6650102e-07
51	0x33b94916	8.628028e-08
52	0x34772944	2.301868e-07
53	0x3491ee84	2.7181898e-07
54	0x35455c5e	7.352263e-07
55	0x35375962	6.830288e-07
56	0x337707ff	5.751644e-08
57	0x33497fa5	4.691505e-08
58	0x342fe1cb	1.6380288e-07
59	0x32a1dff8	1.8844716e-08
60	0x3364aced	5.3242662e-08
61	0x340e5144	1.3254345e-07
62	0x33fa47bd	1.1654581e-07
63	0x329a99fc	1.7997984e-08
64	0x33578953	5.0183484e-08
65	0x341019a6	1.3420376e-07
66	0x3323bcbe	3.8123055e-08
67	0x32334c3b	1.0436504e-08
68	0x340eb16e	1.3289329e-07
69	0x340da1b7	1.319048e-07
70	0x3439424d	1.7253588e-07
71	0x3416c79f	1.404246e-07
72	0x36174f15	2.2546785e-06
73	0x355fd198	8.337897e-07
74	0x35105c95	5.3778905e-07
75	0x344b8998	1.8955905e-07
76	0x353df351	7.076206e-07
77	0x3500ef28	4.8031734e-07
78	0x34c53e13	3.6739274e-07
79	0x3520d0f3	5.9908706e-07
80	0x36b6d669	5.4489833e-06
81	0x3708abd5	8.146239e-06
82	0x359ccd1a	1.1682598e-06
83	0x35872019	1.0067625e-06
84	0x365574b1	3.1807397e-06
85	0x36e95344	6.9536345e-06
86	0x362d006e	2.577926e-06
87	0x3524bb51	6.136734e-07
88	0x35af6c03	1.3069952e-06
89	0x36d04b12	6.2076224e-06
90	0x351da903	5.8733e-07
91	0x34ce0005	3.8370504e-07
92	0x378d5d4d	1.6851956e-05
93	0x375470c1	1.2662437e-05
94	0x37827257	1.5550451e-05
95	0x378a0912	1.6455106e-05
96	0x377b0242	1.49612915e-05
97	0x3729ca96	1.0120353e-05
98	0x3637fa6b	2.7414887e-06
99	0x35ac12c0	1.2820456e-06
100	0x36e58ccf	6.841124e-06
101	0x3734eded	1.07842325e-05
102	0x36f41c68	7.2750736e-06
103	0x36b2ea9f	5.332127e-06
104	0x31bef6ea	5.5577987e-09
105	0x318ef6ef	4.160817e-09
106	0x312fc650	2.557858e-09
107	0x30d0c058	1.5188659e-09
108	0x326f7b24	1.393963e-08
109	0x326cc6df	1.3782226e-08
110	0x322e7145	1.01538875e-08
111	0x3282ccca	1.522712e-08
112	0x35e50ed4	1.7066145e-06
113	0x36fdd44e	7.564703e-06
114	0x35321536	6.6341033e-07
115	0x350fe751	5.360826e-07
116	0x37a5ba3d	1.9756257e-05
117	0x3775a378	1.46411985e-05
118	0x37995f6f	1.8283461e-05
119	0x379b0661	1.848041e-05
120	0x32c85ac8	2.3324347e-08
121	0x3252ec8b	1.2277392e-08
122	0x31980d91	4.4253246e-09
123	0x3051b093	7.6284684e-10
124	0x305a7a18	7.9481444e-10
125	0x3107745b	1.9711226e-09
126	0x3118988f	2.220563e-09
127	0x316a3456	3.4081231e-09

exp_avg f4 [16]
0	0x369375f8	4.3946748e-06
1	0x36c3aac2	5.8313317e-06
2	0x37c5ed4e	2.3594734e-05
3	0xb489b8fc	-2.5652832e-07
4	0x38593ea4	5.179517e-05
5	0x353057c1	6.569281e-07
6	0xb6d10253	-6.228956e-06
7	0x37248ca4	9.807907e-06
8	0x13dd9466	5.5934575e-27
9	0x392a25f3	0.000162266
10	0x376218c0	1.3476412e-05
11	0x36411843	2.8773363e-06
12	0x1249c16c	6.366283e-28
13	0x0db5321c	1.116705e-30
14	0x3923798d	0.00015590173
15	0x2c182a87	2.1624107e-12

exp_avg_sq f4 [16]
0	0x34b5603b	3.3783894e-07
1	0x3606b029	2.0070095e-06
2	0x3637d406	2.739254e-06
3	0x355e4a68	8.280972e-07
4	0x358a64dc	1.0311155e-06
5	0x362d6cd9	2.5842367e-06
6	0x34bb3909	3.4872963e-07
7	0x34a7e466	3.1272356e-07
8	0x33e2deb8	1.05644574e-07
9	0x35c9cc6a	1.5035159e-06
10	0x353ceb6e	7.0378053e-07
11	0x3633eef0	2.6812158e-06
12	0x369b6409	4.6310056e-06
13	0x31762f53	3.5824612e-09
14	0x364432cc	2.9235844e-06
15	0x3115a532	2.1776256e-09

exp_avg f4 [8, 16]
0	0x3825b8d6	3.9511207e-05
1	0x361c40e4	2.3283583e-06
2	0xb7136583	-8.785518e-06
3	0x359f0699	1.1848343e-06
4	0x37a08c74	1.913889e-05
5	0x34598dbb	2.0261261e-07
6	0xb60926e8	-2.0437237e-06
7	0x373cfc3a	1.1264399e-05
8	0x929a859d	-9.751705e-28
9	0x39d34f03	0.00040303924
10	0xb7a5b39a	-1.9753166e-05
11	0x355a7e6c	8.1395297e-07
12	0x9183529c	-2.0719068e-28
13	0x0cf1e735	3.7271082e-31
14	0xb98d5abc	-0.00026961218
15	0x2b89da9f	9.795115e-13
16	0x38a7df3c	8.004761e-05
17	0x36cb0269	6.050152e-06
18	0xb78a70c3	-1.650339e-05
19	0x365bb91d	3.2741293e-06
20	0x3821305d	3.8430433e-05
21	0x353fd4c3	7.1462654e-07
22	0xb62ccd3c	-2.574946e-06
23	0x37f62260	2.9341492e-05
24	0x92cca945	-1.2915938e-27
25	0x3a57008c	0.00082016806
26	0xb8433525	-4.6541118e-05
27	0x360a3b9c	2.05983e-06
28	0x91a15d56	-2.5458844e-28
29	0x0d2a5836	5.2491475e-31
30	0xba0d5491	-0.00053913245
31	0x2c262152	2.3608515e-12
32	0x37206697	9.560629e-06
33	0x35974d45	1.1272865e-06
34	0xb6aaab6d	-5.0863514e-06
35	0x351bd29f	5.8048494e-07
36	0x369ee865	4.735821e-06
37	0x340916b6	1.2767381e-07
38	0xb3aa7918	-7.938269e-08
39	0x36bb600c	5.5842156e-06
40	0x11b36e4e	2.83092e-28
41	0x38dafc4a	0.000104420425
42	0x36d68222	6.3928464e-06
43	0x34bb1487	3.48464e-07
44	0x1083aa1f	5.19325e-29
45	0x8bfce4cd	-9.741113e-32
46	0xb88cdfa9	-6.71738e-05
47	0xaa8ef75c	-2.5395907e-13
48	0x37703d9c	1.4319459e-05
49	0x35f5ed04	1.8322903e-06
50	0xb71e8364	-9.448126e-06
51	0x358e8c84	1.062072e-06
52	0x36d99993	6.4849824e-06
53	0x349b9d1a	2.8985306e-07
54	0x340de8e3	1.3216372e-07
55	0x3717464e	9.01667e-06
56	0x111e1cc4	1.2472866e-28
57	0x3917d455	0.00014479582
58	0xb611368f	-2.163844e-06
59	0x35277c30	6.2393065e-07
60	0x10a7bd39	6.616143e-29
61	0x8ba7215b	-6.437625e-32
62	0xb8cad174	-9.671124e-05
63	0x29f8cd46	1.1049022e-13
64	0xb5a10b08	-1.1998645e-06
65	0x33b2cfc8	8.326566e-08
66	0x3533e1d5	6.7011325e-07
67	0x331ea626	3.6938353e-08
68	0xb533b44e	-6.6945074e-07
69	0x31bc84ad	5.4866036e-09
70	0x31bd28fe	5.5052842e-09
71	0x34eb70d3	4.3854251e-07
72	0x914ffda0	-1.6407575e-28
73	0xb756994f	-1.2791089e-05
74	0x3540be15	7.180218e-07
75	0x32f53b20	2.854864e-08
76	0x90df4fb2	-8.808078e-29
77	0x0c899289	2.1196385e-31
78	0x361873eb	2.2717238e-06
79	0x29ca82b8	8.993278e-14
80	0x37367945	1.0876281e-05
81	0x35b0ea72	1.3181254e-06
82	0xb7006fc6	-7.655419e-06
83	0x3553eac7	7.894527e-07
84	0x36a2c03d	4.8503557e-06
85	0x34717081	2.2485803e-07
86	0x33adc738	8.092178e-08
87	0x36d88198	6.4523883e-06
88	0x1162b9ff	1.7885571e-28
89	0x38e1f4a1	0.00010774402
90	0xb6885f0b	-4.0641803e-06
91	0x34f79d65	4.6121855e-07
92	0x10b1055c	6.982245e-29
93	0x0b5b6a03	4.225762e-32
94	0xb89b5fd3	-7.4088246e-05
95	0x2a2ee814	1.5534823e-13
96	0xb7f7519f	-2.9482702e-05
97	0xb6150bd2	-2.220961e-06
98	0x36525903	3.134425e-06
99	0xb59e7179	-1.1804942e-06
100	0xb76b7786	-1.403492e-05
101	0xb4840a14	-2.459425e-07
102	0x3580c6a3	9.594554e-07
103	0xb7363b0f	-1.0861796e-05
104	0x127a01d5	7.888835e-28
105	0xb99d2079	-0.00029969568
106	0x37a90c3b	2.0152065e-05
107	0xb54da222	-7.6604385e-07
108	0x1163dcb8	1.7975157e-28
109	0x8d1852e1	-4.693838e-31
110	0x394fc290	0.00019813539
111	0xaba1b5c1	-1.1490185e-12
112	0xb56f132a	-8.9062326e-07
113	0x33a85f53	7.840449e-08
114	0xb5a92ce1	-1.2604543e-06
115	0x339cc5ce	7.3002965e-08
116	0xb4c42581	-3.6535133e-07
117	0x32fb7934	2.9275363e-08
118	0xb3d3fb2b	-9.87114e-08
119	0x346aba64	2.1860757e-07
120	0x8e0442d4	-1.6302433e-30
121	0xb6e94e11	-6.9530292e-06
122	0x36080d4a	2.0273314e-06
123	0x3292d9c5	1.7095667e-08
124	0x106afb4f	4.6341964e-29
125	0x8c3e7eb2	-1.4675194e-31
126	0xb6217853	-2.4060907e-06
127	0xaa05b5e5	-1.187588e-13

exp_avg_sq f4 [8, 16]
0	0x361b9caf	2.3188002e-06
1	0x36836f6f	3.917077e-06
2	0x3643fe91	2.9205441e-06
3	0x3506386f	5.000101e-07
4	0x3512b6ca	5.465523e-07
5	0x35c9b542	1.502842e-06
6	0x337229f8	5.6383186e-08
7	0x3215448e	8.688529e-09
8	0x31122b6b	2.1270476e-09
9	0x361581c5	2.2278266e-06
10	0x35976281	1.1279045e-06
11	0x369773b7	4.5136217e-06
12	0x3667f291	3.4562875e-06
13	0x2ecb3865	9.241389e-11
14	0x36d71acc	6.410619e-06
15	0x32302b7e	1.0254437e-08
16	0x36b7ad55	5.4740035e-06
17	0x36fa2557	7.4549275e-06
18	0x36fcec4a	7.537693e-06
19	0x35ef3311	1.782175e-06
20	0x354baac0	7.5871867e-07
21	0x361649f8	2.2394797e-06
22	0x348a22f2	2.572993e-07
23	0x33e447b3	1.06301194e-07
24	0x329220bb	1.7011521e-08
25	0x369ac30e	4.612265e-06
26	0x36a003cc	4.7688136e-06
27	0x3717ad39	9.040633e-06
28	0x3704b7ed	7.910637e-06
29	0x2f1ca3d6	1.4246324e-10
30	0x3789877d	1.6394764e-05
31	0x34133d3f	1.3712723e-07
32	0x3204492d	7.7000495e-09
33	0x36acfb7f	5.1552774e-06
34	0x3640df79	2.8740308e-06
35	0x3494fbff	2.77505e-07
36	0x350d1ac8	5.2565565e-07
37	0x35ab4822	1.2761486e-06
38	0x33899dc1	6.408255e-08
39	0x33001699	2.9822875e-08
40	0x31b27682	5.1939546e-09
41	0x343ad3bb	1.7399627e-07
42	0x338da7ef	6.596371e-08
43	0x36cb7a59	6.0641146e-06
44	0x352437a7	6.1175746e-07
45	0x2e8fc729	6.538265e-11
46	0x37314754	1.05666295e-05
47	0x33309fce	4.1123535e-08
48	0x32b8c7e8	2.1511326e-08
49	0x36a7df7f	5.003006e-06
50	0x36431e55	2.907492e-06
51	0x3484cfb6	2.4738046e-07
52	0x3502aa5e	4.867669e-07
53	0x359e9736	1.1815926e-06
54	0x33651ec9	5.3346216e-08
55	0x33000759	2.9809005e-08
56	0x31adecaf	5.0618705e-09
57	0x345ca8e7	2.0550543e-07
58	0x3286f953	1.5713033e-08
59	0x36c65206	5.9104086e-06
60	0x352fdbf5	6.551266e-07
61	0x2e83dab4	5.99604e-11
62	0x372c5a52	1.0273028e-05
63	0x332d9434	4.041449e-08
64	0x359a079e	1.1476111e-06
65	0x34034c69	1.2228124e-07
66	0x33f748eb	1.15150975e-07
67	0x36018cc2	1.930443e-06
68	0x3209d429	8.022689e-09
69	0x33d8e9ea	1.01008325e-07
70	0x34b516de	3.3730515e-07
71	0x3488bccf	2.546935e-07
72	0x3313ebec	3.4440674e-08
73	0x35e7770e	1.7245491e-06
74	0x3469eccc	2.1785962e-07
75	0x340016f5	1.192928e-07
76	0x35ca9ca3	1.509576e-06
77	0x2d114715	8.258079e-12
78	0x34a035be	2.9841425e-07
79	0x34be88a5	3.548968e-07
80	0x328a1845	1.6076351e-08
81	0x35b3d425	1.3398281e-06
82	0x35534e5f	7.871767e-07
83	0x34bd11e2	3.5217005e-07
84	0x345681cb	1.9977522e-07
85	0x3502b82a	4.869677e-07
86	0x3393a021	6.874348e-08
87	0x3351c245	4.883829e-08
88	0x31dd10c3	6.433852e-09
89	0x34950d9c	2.7763315e-07
90	0x3311c749	3.3941692e-08
91	0x35c4a396	1.4650748e-06
92	0x341e9be7	1.4771614e-07
93	0x2dd9c526	2.4757595e-11
94	0x36034eb8	1.9566342e-06
95	0x3390f21c	6.749562e-08
96	0x36569fcd	3.1981501e-06
97	0x36d4eee6	6.345904e-06
98	0x3690019c	4.291722e-06
99	0x3598bab8	1.1379225e-06
100	0x352e29f1	6.4881084e-07
101	0x35f39e3a	1.8150961e-06
102	0x3442491d	1.8094256e-07
103	0x338230f1	6.062499e-08
104	0x3230c8d3	1.02902105e-08
105	0x362a6c0d	2.5394868e-06
106	0x35ae5bd1	1.2990732e-06
107	0x37002229	7.637348e-06
108	0x36a04844	4.7767844e-06
109	0x2f034e13	1.1942118e-10
110	0x37696143	1.3910528e-05
111	0x33b122a1	8.248504e-08
112	0x34fe9858	4.7422031e-07
113	0x34158c62	1.3927777e-07
114	0x33ab12b3	7.9662094e-08
115	0x36062c12	1.9993208e-06
116	0x3119c19b	2.2374482e-09
117	0x3328d7a0	3.9311658e-08
118	0x34c42ff2	3.654273e-07
119	0x34967593	2.8025224e-07
120	0x3322a69f	3.7870105e-08
121	0x35ba7682	1.389257e-06
122	0x33cedb37	9.6324975e-08
123	0x33fa248a	1.16481786e-07
124	0x353ba1c5	6.9898334e-07
125	0x2c85645e	3.7912304e-12
126	0x34e1d247	4.2062513e-07
127	0x34d1b22e	3.9058926e-07

exp_avg f4 [8]
0	0xba6f75ae	-0.0009134662
1	0xbab0fea2	-0.0013503621
2	0x3915270e	0.00014224296
3	0x38a29058	7.751648e-05
4	0x392272dd	0.00015492314
5	0xb82c9f60	-4.1156425e-05
6	0x39cb4e20	0.00038777385
7	0xb7bc6c86	-2.2461882e-05

exp_avg_sq f4 [8]
0	0x38e18c8b	0.00010755014
1	0x39b7ab34	0.00035032036
2	0x37909d51	1.7239394e-05
3	0x3779958b	1.4876375e-05
4	0x374f4834	1.2354973e-05
5	0x37196a25	9.144224e-06
6	0x38fb05f2	0.0001196972
7	0x3708aa57	8.145892e-06

exp_avg f4 [1, 8]
0	0x3a09238c	0.0005231432
1	0x3b050e30	0.0020302646
2	0x3ac1f4d8	0.00147977
3	0x3b0fd5d6	0.0021947525
4	0xb98b3220	-0.00026549492
5	0x3aab6020	0.0013074912
6	0xbaac1370	-0.0013128351
7	0xb95714a0	-0.00020511681

exp_avg_sq f4 [1, 8]
0	0x3a662f28	0.00087808305
1	0x3b1f8aac	0.002434413
2	0x3b19ea5e	0.002348564
3	0x3a9fb525	0.0012184723
4	0x3b283455	0.0025665958
5	0x3b0e773d	0.0021738552
6	0x3b50977d	0.0031828575
7	0x3b3f96ab	0.0029234092
