notebooks/lightning_logs/version_29/checkpoints/epoch=24-step=150.ckpt (torch, 27115 bytes, 42 tensors)

front_linear.weight f4 [8, 2]
00000000: 4a89 0740 751e 303f ae57 f53f b6ed ab3f
00000010: cd7e 27bf 8803 b63e 7bf3 3c3f 3a86 a23f
00000020: 8c1b 98c0 9fe9 5ac0 ec07 95bd 6c6e 93bd
00000030: 9889 1fbf 037f 69bf 7775 6bbf edeb 4cbf
2.1177545 0.68796474 1.9167383 1.3431919 -0.6542786 0.3554957 0.7380902 1.2697213
-4.7533627 -3.420509 -0.072769016 -0.07198796 -0.62319326 -0.9120943 -0.9197611 -0.80047494

front_linear.bias f4 [8]
00000000: 24a6 78bf 8f8b ebbe c117 1ebe f41e aabf
00000010: fa71 2e40 bc21 383e 7e7f a63d aa71 99be
-0.9712851 -0.46004912 -0.15438749 -1.3290696 2.7257066 0.17981619 0.08129786 -0.2996953

transformer_encoder.layers.0.self_attn.qkv_proj.weight f4 [24, 8]
00000000: 992d 383f 9d12 e03f ada4 5940 4066 d6be
00000010: 05f9 dd3e bb5b 8f3f a56d e1bf 79de 02c0
00000020: 90a2 bbbe eddd 243e 2c22 fc3f 6c7f f13e
00000030: a93d 723f 0ff0 abbf 4d73 74be c606 dabe
00000040: d069 b8be 66ba 4dbd cf22 e53f 93a7 903f
00000050: 0c73 a33f 365b 6fbf 8b2d ccbe 2b17 ccbe
00000060: 033c 9dbf 2b17 e8bf 79ae 47c0 b880 95be
00000070: f88b 1cbf 1802 1ebf fcb0 0340 cda5 fd3f
00000080: f78d be3f 5d92 aa3f e260 1cc0 182d 44bf
00000090: 83cc 73bf bc67 ff3f b83c b2bf c610 d7bf
000000a0: 8ee5 953e 25b1 8c3e e362 18bf d7ab 53bf
000000b0: 3a66 483e fa59 fd3e 0975 e6bd b8c1 69bf
000000c0: 84d8 843e 243c 03bd eb4d 4fbf c289 82bf
000000d0: 0b16 4dbe 5dec b93e 7b3d 74be 6620 80be
000000e0: 5edc 91bf 0b26 f7bf 07bf d83f 83c3 38bd
000000f0: 6c1f 953f cdb0 03c0 9e75 f93f a944 ca3f
00000100: 511c 34bf e846 4fbf 5529 463c 2c24 d8be
00000110: f6b7 1740 8e83 063f 9bf5 d33e c28f 143e
00000120: ffe3 8abf bef3 74bf c2b4 323f 13de 0ebf
00000130: 6f7a 7e3d e927 5dbf 28cd 303d 4d12 983d
00000140: 0774 523f fb79 1f3f 36c4 51be e001 653f
00000150: 9b62 febf a417 fbbe e6f3 9dbd 3967 0abe
00000160: a073 37bf 59ec 5fbe 8694 4dbe 0fb6 05bf
00000170: 38fe df3f de0b 863d 95fb 0a3f abb8 023e
00000180: 5c86 07bf b9b2 603e e945 6e3f dcd3 69bf
00000190: a66d 713f 6d45 5f3f d2c0 503d 58c1 ac3e
000001a0: cefe a93d b121 88be f5ae e0bf d1c1 c93f
000001b0: 3a15 60be b305 2dbd 9543 4a3f a285 d93e
000001c0: 8ac8 423e 49d0 a53f f3c1 6440 2778 e7bf
000001d0: 16f2 2b3f b29f 693d 31ba bbbf eb8e bbbf
000001e0: 2e2e 563d b643 5abf 943c 43c0 7a50 933f
000001f0: aaa7 e8be 4c42 43be 04c4 983f ff6d 8e3f
00000200: 82ef a8bf cfee 193f 64f1 38be 7416 4d3f
00000210: d2e0 6dbf ead9 19be 0036 793a 8d59 0c3f
00000220: 8c96 19c0 dd29 8f3f 010d 4240 bb50 b23f
00000230: a133 7dbe d057 1f3f 1734 91bf 6526 16bf
00000240: 0635 7a3f 9eea a3bf dc49 b6bf 0f45 8fbf
00000250: fa8c 553f 92fd a4bf f325 e43f d75a a53f
00000260: cbe4 cabf e70e c03f c6c1 c33f 85bc 663f
00000270: 4bca f4be 7444 a53f b8bc b5bf f699 e3be
00000280: 420c c8bf 6bc7 cdbf 53f5 c2be 7c28 6dbf
00000290: facc e93f c386 d53e 713e c63f 5548 a93f
000002a0: cf84 d3bf 105b c1bf 0326 27bd 0281 d5bf
000002b0: 9a93 fc3f 15b2 0ebe 4131 ab3f 351d 923f
000002c0: 675f efbd d7ee 203e 5910 0e3e d21c 713f
000002d0: ac96 67bf 9fad 8abf e6d7 7cbc 6457 83be
000002e0: d6bc ec3f 7f5b db3f 97de 613f 5f54 ae3f
000002f0: db83 efbf 5444 8abd 3a96 8ebf 8a65 c6bf
0.71944577 1.750568 3.400676 -0.41874886 0.4335405 1.1199869 -1.7611586 -2.0448287
-0.36647463 0.16100283 1.9697928 0.47167528 0.94625336 -1.3432635 -0.23872109 -0.42583293
-0.3601823 -0.05022659 1.7901248 1.130114 1.2769485 -0.9349855 -0.39878497 -0.39861426
-1.2283939 -1.813207 -3.120024 -0.29199767 -0.61151075 -0.61721945 2.0576773 1.9816223
1.4887074 1.3325917 -2.4434133 -0.7663131 -0.95233935 1.9953532 -1.392478 -1.6801994
0.292767 0.274789 -0.5952589 -0.8268408 0.19570246 0.4948271 -0.112527914 -0.91311216
0.25946438 -0.032039776 -0.8097827 -1.019829 -0.2002794 0.36313143 -0.23851578 -0.25024718
-1.1395376 -1.9308485 1.6933297 -0.04510833 1.1650214 -2.057666 1.9489019 1.5802203
-0.7035571 -0.8096757 0.012094815 -0.42215097 2.370603 0.52544487 0.4139832 0.14507964
-1.0850829 -0.9568442 0.69807065 -0.5580761 0.06212848 -0.86389023 0.043164402 0.074253656
0.82208294 0.622955 -0.20485005 0.89455986 -1.9873842 -0.49041474 -0.077125356 -0.13515939
-0.71660805 -0.21867503 -0.20076188 -0.52230924 1.7499456 0.06545232 0.54290134 0.12765758
-0.5293939 0.21943177 0.93075424 -0.91338897 0.94307935 0.8721531 0.050965138 0.3374126
0.08300553 -0.26588205 -1.7553393 1.5762273 -0.21883097 -0.042241763 0.7900937 0.42484766
0.19021812 1.2954189 3.5743377 -1.8083543 0.6716627 0.057037063 -1.4666196 -1.465299
0.052290134 -0.8525957 -3.0505724 1.1508934 -0.45440418 -0.19068259 1.1934819 1.1127318
-1.3198092 0.6013002 -0.18060833 0.80112386 -0.92921174 -0.15024534 0.0009506643 0.54824144
-2.3998137 1.1184651 3.0320437 1.3930887 -0.24726726 0.62243366 -1.1344022 -0.58652335
0.9773716 -1.2805974 -1.424129 -1.119295 0.8341824 -1.2889884 1.7824081 1.2918347
-1.5851072 1.5004548 1.529351 0.9013141 -0.47810587 1.2911515 -1.4198217 -0.444534
-1.5628741 -1.6076483 -0.38077793 -0.926399 1.8265679 0.41704378 1.5487806 1.3225199
-1.6524905 -1.5105915 -0.040807735 -1.6679995 1.9732544 -0.1393512 1.3374406 1.1415163
-0.116881184 0.1571611 0.13873424 0.941846 -0.9046428 -1.0834235 -0.015432334 -0.2565261
1.8495128 1.7137297 0.8823027 1.3619498 -1.8712114 -0.06751314 -1.1139596 -1.5499737

transformer_encoder.layers.0.self_attn.o_proj.weight f4 [8, 8]
00000000: 31c0 dfbf e650 ffbe 759d e43f eadf aebf
00000010: 219b 0a3e 24a8 86bf 2e29 3f3f 0ff5 133f
00000020: 967c 153f 4a8e 863f 4430 4b3e 738b 81bd
00000030: d277 74bf ed35 bebf 4dfd 44bd 951f c73f
00000040: d61d bc3f 2c09 903e df35 c8bf 819a 9f3f
00000050: 6be2 10c0 0318 fbbf 5773 673f e7eb bc3f
00000060: 9741 93bf 2df8 953e 6d33 683e bf33 7cbf
00000070: cbd2 94bf 64f6 9cbf c89d 4e3e baf9 c83f
00000080: 2df9 e63f f418 603e 8d7e b8bf da59 513f
00000090: be0a fb3e 7ae0 2b40 3e7e e0bf c505 2abe
000000a0: e0af a83e f0f7 243e 1420 1ebf 57df 033f
000000b0: 1028 c53e ea0b bb3f dc76 08bf da1c ff3d
000000c0: 5e67 a0bf b968 71bf fb83 7b3f 97aa 09bf
000000d0: bd97 d53f dc63 9a3f 2d8d 21bf 2221 e6bf
000000e0: f18c a63e 1a50 8abf 83f3 75be 9434 703e
000000f0: e411 9c3f 4598 0a3e 10be a3bf 86ae 82bf
-1.7480527 -0.49866408 1.7860552 -1.3662083 0.1353574 -1.0520062 0.7467221 0.57795805
0.5839323 1.0512173 0.1984263 -0.06325426 -0.9549533 -1.4860207 -0.04809313 1.5556513
1.4696605 0.28131998 -1.564144 1.2469026 -2.2638195 -1.9616703 0.9041037 1.4759492
-1.1504391 0.29290906 0.22675867 -0.9851646 -1.1626829 -1.2262692 0.20177376 1.570121
1.8044792 0.21884519 -1.441362 0.8177773 0.49031633 2.685576 -1.7538526 -0.16603763
0.32946682 0.16110206 -0.617677 0.51512665 0.38507128 1.4613011 -0.53306365 0.12456675
-1.2531545 -0.9430042 0.9824826 -0.53775924 1.6686932 1.2061725 -0.6310604 -1.7978861
0.32529405 -1.0805695 -0.24018674 0.23457557 1.219296 0.13534649 -1.2792377 -1.020951

transformer_encoder.layers.0.self_attn.o_proj.bias f4 [8]
00000000: c514 11bf 1c72 2a3f 1a56 8d3f 7a3c 9d3f
00000010: 2aff 213f 7890 153f e3ef 95bf 63ec 16bf
-0.56672317 0.6658037 1.1041901 1.2284081 0.63279974 0.58423567 -1.1713833 -0.5895445

transformer_encoder.layers.0.linear_net.0.weight f4 [16, 8]
00000000: e3f2 3c3f d05e f0be d2ea 563f b6d7 1abf
00000010: a508 7cbf 020f d3be b68e 6a3e 273a 203f
00000020: a19e 40bd c715 07be 8e3d 94be c132 2abf
00000030: f81a 00ba 3103 053f 7de2 293e cd3e 073f
00000040: 826d cc3e e6a5 66be 3a0c 8ac0 3e87 883f
00000050: e490 8f3e f7c3 4abf dd88 453f ae19 24bf
00000060: 3247 923e 5721 553f 2291 cc3f eff0 b23e
00000070: 15a9 28bf b595 0bbe a667 a2bf ca52 52bf
00000080: a45b 35c0 4ee3 7ebf c4ad 05bd 6c9a 993e
00000090: 867f 4440 f9b7 86bf 7614 4cbf c450 4e3f
000000a0: f0d1 053f ad6b 0c3e cf02 9a3e d7f2 ccbd
000000b0: 9de5 6dbe e3ef 06be a9b1 103f 2872 1b3f
000000c0: 9f5d 0cbe 7985 0b3f 1342 663f 83d5 d13e
000000d0: 1d24 c53e 7b8b d2bd 58f4 97bf 0dfd 81be
000000e0: 1ecd 78be 290a 37bf 22fd 953e c05c 1ebf
000000f0: d14b 0b3e 1cca 6f3e 5790 aa3e 0cef ba3f
00000100: ebd4 bebe 0f1c 50bf 84ef cfbd 11ed 51bf
00000110: 46ed d53e 654e 7abf 4234 9bbe 0273 853f
00000120: 7ca4 83bf 3b20 babf 6ebf 0f3f 5388 89bf
00000130: d0cb 8f3f 89f8 3e3e e75d 79be a379 1140
00000140: 4d22 1f3f 6405 2c3e 6456 9dbd 302f 16bd
00000150: 2076 9dbe e464 183e fa70 e13e 6efc 9d3d
00000160: 4f9e 57be c1ce 7bbf dfd8 27c0 4af7 f3be
00000170: 08e1 263f a2d1 2b3e 815b b63f 591e debe
00000180: 0a20 96bf 9f83 a5bf 4400 eb3e dc0a 3bbf
00000190: 9b28 b93f 38ab 223f 0260 1ebf bd20 ca3f
000001a0: 833a c43f 9c95 87bf f099 c8bf 0aec 29be
000001b0: 4189 88bf b590 853f f9c7 4040 4da4 0d3f
000001c0: e88b 11be 4405 0b3f 047c 073f 47a7 ea3d
000001d0: 6fff dcbe 2af9 443e 2348 84bf 2a5f 5bbf
000001e0: be67 29be 08ac 82bf b657 343f 40cf 9bbf
000001f0: 487c 7ebe 671b 4d3e 1060 f4bd 18cf d73f
0.73808116 -0.46947336 0.8395206 -0.604854 -0.9845069 -0.41222388 0.22906002 0.62588733
-0.04702628 -0.13191901 -0.28953212 -0.66483694 -0.0004886831 0.51957995 0.16590305 0.528302
0.39927298 -0.22524223 -4.3139925 1.0666273 0.2804023 -0.7920527 0.7716196 -0.64101684
0.28569943 0.83254 1.5981791 0.34949443 -0.65883 -0.13631327 -1.2687881 -0.82157576
-2.8337183 -0.9956559 -0.03263642 0.30000627 3.0702834 -1.0524894 -0.7971872 0.8059199
0.52273464 0.1371295 0.30080268 -0.100072555 -0.23232122 -0.13177447 0.5652109 0.60721064
-0.13707589 0.5450054 0.8994457 0.4098321 0.38504115 -0.1028051 -1.1871443 -0.25388375
-0.24296996 -0.7149988 0.29294688 -0.61860275 0.1360314 0.23416942 0.33313248 1.4604201
-0.3727182 -0.81292814 -0.10153106 -0.8200236 0.41782588 -0.9777587 -0.30313307 1.0425723
-1.0284572 -1.4541086 0.56151474 -1.0744728 1.1234074 0.18649496 -0.24352227 2.273049
0.62161714 0.16798931 -0.07682493 -0.036666095 -0.30754185 0.14882237 0.44031507 0.07714163
-0.21056484 -0.98362356 -2.6226118 -0.47649604 0.6518712 0.16779187 1.4246675 -0.43382528
-1.1728528 -1.2930793 0.4589864 -0.73063445 1.4465517 0.6354251 -0.61865246 1.5791241
1.5330356 -1.0592532 -1.5671978 -0.16593948 -1.0666887 1.0434786 3.0122054 0.5532883
-0.14213526 0.5430491 0.5292361 0.11457687 -0.4316363 0.19235674 -1.0334514 -0.85692084
-0.16543481 -1.020875 0.70446336 -1.2172623 -0.24852097 0.20029984 -0.11932385 1.6860075

transformer_encoder.layers.0.linear_net.0.bias f4 [16]
00000000: 0125 9ebf e59a b8bf cdad 303f f5c1 593f
00000010: 2e0f d43e 0256 28bf f54f d93f ff59 88bf
00000020: 3750 82bd d0f0 3fbd 7003 ccbe 07ee 13bf
00000030: c306 14be 6f50 c1bf 6834 4f3f 93a6 abbf
-1.2355043 -1.442227 0.690152 0.8506158 0.4141783 -0.6575624 1.6977526 -1.0652465
-0.06362956 -0.046860516 -0.39846373 -0.57785076 -0.14455704 -1.5102671 0.8093934 -1.341021

transformer_encoder.layers.0.linear_net.3.weight f4 [8, 16]
00000000: f720 c7be 4df2 a5bf 3b79 d5be 13e2 61be
00000010: 391a f7bf c83b bc3e 91ac 8bbe a7e8 56bf
00000020: 3cc1 01be a290 31bf 2d06 3f3e 69d2 4abf
00000030: d95f a6bf b782 2c40 856b 24bd a159 e8be
00000040: 6aa8 86be aa63 8e3e a9d1 bebf 7998 813f
00000050: 6667 173e cdfb 803e 3f86 143f bfee 013f
00000060: 902f 003f 0932 e43e aabb b4bd 3933 96bf
00000070: d81d 323f 071f c2bf e563 983e 4e8d d23e
00000080: 15d9 4b3e 1b15 31bf eb95 05c0 fe7f 463f
00000090: 42a3 ea3d 5efd 193f 38fc 4e3f d292 653e
000000a0: 5627 623d e0f3 823e 5be3 033f aaad 95bf
000000b0: 1428 0e3f 5b83 0fc0 a26b 393f 9b7b f33e
000000c0: 6153 fd3e 3503 06bd 2da0 133e 1c63 0d3d
000000d0: e9aa 923f 7b4e a03e 0253 053f 4b2a 263f
000000e0: 878a bebe 41ec 253f c31d 1f3f 498b 4f3f
000000f0: 6766 a53f 1408 2fc0 03c4 963e 920f 433f
00000100: 3877 003f 7304 5e3f fce3 863f 9c08 273f
00000110: 2835 0a40 7a2d 8fbe 4375 023f d955 0e3f
00000120: bccc 423e 5498 ee3e 0320 873e 615d 7d3f
00000130: b2a3 583f 08fd 0d3f bcc7 1e3e cf25 2a3f
00000140: 1f21 473e 414c 993f 4b9e 0d3f c580 7f3e
00000150: 74bd b43f c9ff 92be 5afd fe3e 1c3e 063f
00000160: 089b 663e 6419 fc3e 5a57 44be c2b0 5d3f
00000170: 2307 593f 2187 103f 657c 66bd 0ee0 213f
00000180: 08a4 21be 2898 fb3c ece6 ef3f e90d 9bbf
00000190: 1b43 a33d 6d04 b0be 8f2b 8ebf a95a 0ebf
000001a0: d56e 86be 8383 ccbe 3eb9 0fbc 4e6e bd3f
000001b0: 48d3 25bf a46a da3f a130 05bf 78d1 2cbf
000001c0: 07d1 26bf 4e3b 20bf 8d36 9fbf 4a39 54be
000001d0: 31bf 0ac0 1e8a c23e 72e4 28bf 9d24 cabe
000001e0: ff8e b2be 516c 38bf cb23 04bf 8473 88bf
000001f0: 592c 44bf 81b7 a33f 8a18 0ebf 4f75 edbe
-0.38892338 -1.2964569 -0.41694054 -0.22058897 -1.9304878 0.3676436 -0.27280095 -0.8394875
-0.1267137 -0.6936132 0.186547 -0.7922731 -1.2998 2.6954782 -0.0401416 -0.4538088
-0.26300365 0.27810413 -1.4907733 1.0124656 0.14785537 0.2519211 0.58017343 0.5075492
0.50072575 0.44569424 -0.088248566 -1.1734382 0.6957679 -1.5165719 0.29763713 0.41123432
0.19907029 -0.6917283 -2.0872753 0.7753905 0.1145692 0.6015223 0.80853605 0.22419289
0.055213295 0.25576687 0.5151879 -1.1693623 0.55529904 -2.2423923 0.7242986 0.4755524
0.49477676 -0.032717902 0.14416571 0.034518346 1.1458408 0.31309876 0.52079785 0.64908284
-0.37215063 0.6481362 0.6215479 0.8107191 1.2921876 -2.734868 0.2944642 0.76195633
0.50181913 0.8672554 1.0538325 0.6524751 2.1594944 -0.27964383 0.5096018 0.55599743
0.19023412 0.46600592 0.2639161 0.9897061 0.8462478 0.5546422 0.1550588 0.6646394
0.19446228 1.1976396 0.5531966 0.24951465 1.4120317 -0.28710774 0.49802667 0.5243852
0.22520077 0.49238122 -0.19173947 0.86597836 0.84776515 0.5645619 -0.056270976 0.63232505
-0.15785229 0.030712202 1.8742347 -1.211362 0.07971784 -0.34378377 -1.1107043 -0.55607086
-0.26256433 -0.39944085 -0.0087721925 1.4799287 -0.64775515 1.7063794 -0.52027327 -0.67507124
-0.651627 -0.6259049 -1.2438523 -0.20724979 -2.1679194 0.37996 -0.6597358 -0.3948106
-0.34874722 -0.7204028 -0.51617116 -1.0660253 -0.7663017 1.2790376 -0.55506194 -0.46378562

transformer_encoder.layers.0.linear_net.3.bias f4 [8]
00000000: 8fe1 1fbf 70cd 563f 9d8d 3d3f dc21 a23f
00000010: b84c 8a3f 436d 6a3f 4030 59bf 854a 3ebf
-0.6245355 0.8390722 0.7404421 1.2666583 1.0804663 0.9157297 -0.8483925 -0.7433246

transformer_encoder.layers.0.norm1.weight f4 [8]
00000000: 6e61 ca3f 53ec a93f c2c8 2a40 9acb dc3e
00000010: c193 a03f 05e6 3e3e dca1 e33f 32bb bf3f
1.5810983 1.3275245 2.6685033 0.43124086 1.2545091 0.18642433 1.778377 1.4979002

transformer_encoder.layers.0.norm1.bias f4 [8]
00000000: 7f8d 31be ed33 5e3f d207 7b3f b6f9 213f
00000010: 22f7 333f fa8c d2bd 86cb c1bf e987 00bf
-0.17339133 0.8679798 0.9805881 0.63271654 0.7029897 -0.102807954 -1.5140235 -0.5020738

transformer_encoder.layers.0.norm2.weight f4 [8]
00000000: ad58 683e 28bf a23f 7fd1 ba3f 65a7 353f
00000010: 66f3 3ebe d929 31bd 3b90 b23f e267 15be
0.22690077 1.2714586 1.4595183 0.7095855 -0.18647537 -0.0432528 1.3950266 -0.1459041

transformer_encoder.layers.0.norm2.bias f4 [8]
00000000: 7e16 bd3d 343e bfbc c5bf 7e3c 2514 a9bd
00000010: e901 b53d bbd0 3f3e b2c6 21bc 1380 dcbd
0.09232806 -0.02334509 0.015548651 -0.082557954 0.08838255 0.18731968 -0.009874033 -0.10766616

final_linear.weight f4 [1, 8]
00000000: 022e 41bc e266 05bf 8c66 29bf 5854 98bd
00000010: aa7e 38bd 4e83 8a3d 8ff6 273f 1fda 8a3c
-0.011790754 -0.5211011 -0.661721 -0.07437962 -0.04504267 0.06763326 0.65610594 0.016949711

exp_avg f4 [8, 2]
00000000: e61c e3ba 6214 ddba 4d41 a4ba 07f6 cfba
00000010: d742 c6bb 304f 14bc f89b bd3a 6b02 953a
00000020: 5b55 a7b9 f6da f7ba 5872 dd3a 207b 573a
00000030: 12ce 033b 2a5d 3c3b 6e16 083b 8865 2d3b
-0.0017327338 -0.0016867036 -0.0012531668 -0.0015866169 -0.0060504484 -0.009052083 0.0014466038 0.0011368518
-0.00031916317 -0.001890986 0.0016895039 0.0008219946 0.002011184 0.0028742054 0.0020765322 0.0026458222

exp_avg_sq f4 [8, 2]
00000000: 9883 4937 0167 8038 3d3c 2e36 2fdc 8038
00000010: da49 6837 7d31 1c38 b40b db37 fe87 8f38
00000020: 7101 c137 1d04 8738 883b 8137 dee9 1638
00000030: d8e0 3237 d37d 9238 cf75 2637 3b10 b838
1.2011173e-05 6.1227016e-05 2.5963084e-06 6.144528e-05 1.38454725e-05 3.7239388e-05 2.6112284e-05 6.844102e-05
2.3008064e-05 6.438068e-05 1.540572e-05 3.5980593e-05 1.0661977e-05 6.985259e-05 9.9218005e-06 8.776827e-05

exp_avg f4 [8]
00000000: b225 0bbb 7fab 4bbb e8ba a0bc d0f9 b03a
00000010: c615 ccbb 30e9 1a39 5627 c63b db2b b73b
-0.0021232185 -0.0031077561 -0.019620374 0.0013502184 -0.0062281815 0.00014773454 0.0060471697 0.005589945

exp_avg_sq f4 [8]
00000000: eee5 a939 8968 de39 6b4b 2a39 b3dd ad39
00000010: 55c2 bd39 ed36 2439 c10a de39 45e9 093a
0.00032405503 0.00042421024 0.00016240559 0.0003316231 0.00036193678 0.0001566072 0.00042351152 0.0005260895

exp_avg f4 [24, 8]
00000000: bf72 1f3a 590e 9eb8 fa69 9139 49a9 503a
00000010: c0a3 abba 6287 22b9 d117 7539 2c94 1c3a
00000020: 348b 9a37 7ea0 7138 ffb2 87b6 8951 04b7
00000030: a1ef 10b7 7068 0a38 321e 45b8 6421 94b8
00000040: 475c 5338 874f 6038 cc3c 3337 a88c 0b38
00000050: df1e 9ab8 3973 d637 e612 13b8 24dd 27b8
00000060: 8324 45ba de61 e338 79f0 b6b9 3335 83ba
00000070: cdf4 d43a 6530 5439 661f 9db9 fc0f 47ba
00000080: 72a2 bcb8 8d83 c8b8 3214 bc37 972d 96b8
00000090: 28c7 7b39 0e12 2fb6 c22d 4338 da37 6c38
000000a0: d773 04b9 206d 1bb9 0e69 c937 1727 c0b8
000000b0: 6d1c bf39 0195 44b7 5c46 9138 83d1 ab38
000000c0: 5f40 feb8 5cc9 14b9 3c9a c937 823c b0b8
000000d0: 85cc b539 c05b 62b7 50eb 8838 d249 a438
000000e0: 7eb7 8837 f894 e136 c388 24b7 0f63 1737
000000f0: fcaa 14b7 4f20 d636 b0e4 65b6 94b1 24b7
00000100: 428a 513a 306c 4739 bf0b 8e39 321e 953a
00000110: 01df 9eba c430 3839 60f6 48b8 4709 8039
00000120: 2770 4b39 fe1d 55b8 1acc 6239 70bc f639
00000130: 90b7 4a39 c37b 1bb9 6af0 d2b8 804e a336
00000140: a2e1 47ba 9a23 09b9 fa95 88b9 332e 91ba
00000150: 4ad4 983a 5e2a 31b9 c09c 18b6 c118 a0b9
00000160: e140 0c3a d121 5439 1919 1939 1ccf 403a
00000170: 8a13 60ba 8a9d 2e39 1ebd acb8 ac86 a238
00000180: 3285 ec38 20ed 293a c3be b3b9 cb08 a3b9
00000190: c73d 28ba 3c5a e838 345f c8b9 512d 37ba
000001a0: bbaa bc39 ccae 293a 69f7 a7b9 26cc b138
000001b0: 8432 86ba e34f 70b6 654c beb9 91e1 17ba
000001c0: ee0b 8bba 2916 0ebb 1e80 8c3a e8ba 8237
000001d0: 02b1 503b 5751 cab8 aca0 9e3a e21c 033b
000001e0: 1330 383a 8306 b43a d7b1 31ba 6f90 3d38
000001f0: 2cb7 07bb ddd7 3538 228a 48ba bf24 a4ba
00000200: 4d70 e1b9 d6e7 f0b9 7f4b 0439 eb36 65b9
00000210: 7a46 9a3a 1040 2fb7 6453 3739 65ea 6939
00000220: ccef 0e3a fb10 1f3a cd4a 17b9 63ab a739
00000230: 6a78 ccba 52c0 1f36 ec3c 81b9 2869 9bb9
00000240: 2024 54b9 90b8 69b9 441c 8c38 38e5 75b8
00000250: 72a8 153a 90f0 c4b7 9fa5 9038 c0e4 c638
00000260: 47e1 d439 54cd ea39 03d7 ecb8 d01e 6139
00000270: 0d06 97ba ed90 1d37 8ec3 35b9 e4e9 5fb9
00000280: a639 11b9 61d3 ef39 ac2e e8b9 c1c8 36ba
00000290: 36f0 c7ba 565b 2839 404e 5cb7 3e8c 82b9
000002a0: 90d7 abb7 af62 7539 bf31 90b9 85d7 18ba
000002b0: 2a02 92ba f2e0 8439 3233 0839 00b3 d536
000002c0: 6d2b 0d39 4022 9eb6 c6b1 2139 1a8c e939
000002d0: 3d21 c939 9ca6 5bb9 1d46 35b9 805a fdb8
000002e0: 4894 3738 77d6 b9b9 cdbd b439 52a0 0c3a
000002f0: 6e8c 8c3a bbf8 3bb9 2081 8c37 deae 5939
0.0006082467 -7.5366996e-05 0.00027735514 0.0007959796 -0.0013095066 -0.00015499958 0.00023373893 0.0005973007
1.8423052e-05 5.7608348e-05 -4.0441514e-06 -7.886797e-06 -8.638862e-06 3.299903e-05 -4.699658e-05 -7.0634094e-05
5.039226e-05 5.3479827e-05 1.0683387e-05 3.327118e-05 -7.3490424e-05 2.5564443e-05 -3.506513e-05 -4.0021856e-05
-0.0007520394 0.00010842433 -0.0003489291 -0.0010010361 0.0016247273 0.00020235924 -0.00029968767 -0.00075936294
-8.9947964e-05 -9.5612464e-05 2.242075e-05 -7.161049e-05 0.00024011417 -2.6087541e-06 4.653424e-05 5.63188e-05
-0.00012631655 -0.00014822604 2.4009987e-05 -9.1625545e-05 0.00036451538 -1.1717203e-05 6.927244e-05 8.19294e-05
-0.00012123654 -0.00014189392 2.4032888e-05 -8.4036044e-05 0.0003467539 -1.3492012e-05 6.528816e-05 7.8338795e-05
1.6297909e-05 6.722865e-06 -9.807004e-06 9.023365e-06 -8.861298e-06 6.381458e-06 -3.4256773e-06 -9.816507e-06
0.00079933193 0.00019018422 0.00027093102 0.0011376797 -0.0012120904 0.00017565774 -4.791317e-05 0.00024420975
0.00019401369 -5.081109e-05 0.00021629073 0.00047061173 0.00019332604 -0.00014828057 -0.00010058361 4.866917e-06
-0.00076248695 -0.00013078601 -0.00026051683 -0.001107639 0.0011659947 -0.00016895818 -2.2741006e-06 -0.0003053602
0.0005350244 0.00020230493 0.00014600567 0.00073550805 -0.00085478334 0.00016652621 -8.236825e-05 7.7498466e-05
0.000112781665 0.0006482173 -0.0003428367 -0.00031096334 -0.0006417897 0.000110794295 -0.00038217905 -0.00069876487
0.00035985358 0.0006472885 -0.00032037057 8.478043e-05 -0.0010238444 -3.5809287e-06 -0.00036296542 -0.0005793805
-0.0010608414 -0.002168069 0.0010719334 1.5584243e-05 0.0031843786 -9.647261e-05 0.0012102327 0.002000623
0.00070262066 0.0013734851 -0.00067785144 4.5195626e-05 -0.0020708544 4.33548e-05 -0.0007649978 -0.0012523158
-0.00042999015 -0.00045949098 0.00012616625 -0.000218596 0.0011770271 -1.0445729e-05 0.00017483305 0.0002230793
0.00054526026 0.0006067899 -0.00014428348 0.00031980415 -0.0015599851 2.3804791e-06 -0.00024650188 -0.0002964225
-0.00020231353 -0.00022289366 6.680985e-05 -5.862603e-05 0.0005708999 -2.3477041e-05 6.8973044e-05 9.483984e-05
0.00040603636 0.0004478494 -0.00011293406 0.0002146915 -0.0011522189 9.391672e-06 -0.00017334355 -0.00021354068
-0.00013849753 0.00045743122 -0.00044285262 -0.00069726637 -0.0015254084 0.00016055754 -1.3131241e-05 -0.0002490002
-2.0485168e-05 0.00023401783 -0.00027502884 -0.0005830455 -0.0011139561 0.000253446 0.00012989042 6.368733e-06
0.00013462985 -4.712754e-06 0.00015420382 0.00044545607 0.00038362472 -0.00020947534 -0.00017287624 -0.00012080837
4.3768698e-05 -0.00035445738 0.00034473688 0.0005364466 0.0010723004 -0.00017926369 1.6749429e-05 0.00020759876

exp_avg_sq f4 [24, 8]
00000000: 62c1 8b34 2afa 0235 eec4 f532 6f0d 0f34
00000010: a1e3 aa34 2cdd e433 de75 d234 b157 3e35
00000020: d955 5e34 3466 0935 5f08 f331 8794 2e33
00000030: 4547 8234 640e dd33 4395 b734 7f1d 2235
00000040: acd9 5b34 f550 0735 ae8f 0032 1f87 2933
00000050: b050 8034 c1dd dd33 6249 b634 5c76 2035
00000060: bdd7 0335 dcd1 8135 37e9 4833 0f8c 6d34
00000070: ac1e 1c35 2be2 5734 9f06 4835 6004 b435
00000080: a89d ee34 b580 e434 4818 0832 4a57 a334
00000090: f6a0 2736 0593 b532 3e37 0934 6385 3a34
000000a0: ac47 7434 4164 8534 7569 8431 5942 2b34
000000b0: 0da6 b735 8451 8432 8764 a033 029e e033
000000c0: 7af8 7d34 c579 8834 fbd9 5931 f965 3234
000000d0: 6be6 bc35 82cc 7b32 ca97 a333 9097 e433
000000e0: 5ce8 0735 fa35 0035 4b88 2432 ffa3 bb34
000000f0: 7942 3d36 9704 d132 fbce 1b34 892c 5234
00000100: b94f 8638 aa50 be38 34db 9537 dcf5 2638
00000110: 88a8 7f38 c61a cf37 ffd0 be38 3b07 2539
00000120: 5425 c536 bc35 0137 4674 a436 a0b5 8136
00000130: 9690 8336 c785 3736 32e8 f836 9d30 5d37
00000140: 8662 8138 a3fd bb38 b228 8a37 3e35 1438
00000150: 0255 7538 d847 be37 6d6f be38 204c 2239
00000160: bd65 1338 1cf6 5c38 38d9 1838 8b0a eb37
00000170: 69d8 2a38 1ed7 b737 f0ae 6838 8b49 cf38
00000180: 45ae 0a32 b5c6 1833 fe06 e731 b0a9 5532
00000190: 57d0 2633 78c6 1f32 680c cf32 e404 6e33
000001a0: f01b b132 ae71 3334 2873 1433 2bc8 7133
000001b0: 4084 4d34 43fa 5832 0647 a633 68d4 6634
000001c0: 0338 0734 95d6 8935 c7f8 7434 a59f 8a34
000001d0: dbba ae35 a82f 7533 baf1 e634 bd5b a335
000001e0: 8420 8533 f0df 0135 892c e133 df33 0c34
000001f0: f3a5 2035 6592 0033 395c 6234 8f5c 1d35
00000200: 4a4b 1c33 f6ef 5533 10e7 cf30 2185 8c32
00000210: f564 a434 69f7 4c30 c69a 3632 7ea9 7632
00000220: 3a60 e933 38ba d133 8db1 ca31 66cc 3433
00000230: c693 2835 68b4 5c31 2bfa b532 6fca 0d33
00000240: 142f 5e34 b2be 6234 b662 2332 dfb1 b933
00000250: a017 b535 d01e 9631 9733 4333 a32d 8e33
00000260: 3f7a 0c34 a353 0234 7079 cf31 f99c 6633
00000270: d2c2 5135 ac6b 5531 ba43 e532 eb36 2b33
00000280: 1c72 2338 512e 8038 72d7 a937 5ff6 4638
00000290: ee64 2939 1f31 f837 d02e b538 76fa 2039
000002a0: 0295 ae37 ce0b 1638 a591 a836 beb2 9137
000002b0: 5518 8838 85b2 3637 e696 4438 77f0 a938
000002c0: 46ad 0036 19b2 0a36 82ee 3636 ff73 7d36
000002d0: ac16 a036 3a7e 0136 9d4f 2236 6fc5 bf36
000002e0: 65c7 e537 a189 3338 1531 0137 cd00 e337
000002f0: 27c0 cb38 9f62 8b37 724e 7438 b7e6 d338
2.6031472e-07 4.879281e-07 2.8611307e-08 1.33228e-07 3.183059e-07 1.0657308e-07 3.9201308e-07 7.0908123e-07
2.0706592e-07 5.11852e-07 7.0731825e-09 4.0647617e-08 2.4266242e-07 1.0293732e-07 3.4195008e-07 6.0392625e-07
2.0475153e-07 5.0409227e-07 7.48325e-09 3.947127e-08 2.3900566e-07 1.0331451e-07 3.3953535e-07 5.977688e-07
4.9115243e-07 9.672326e-07 4.6778236e-08 2.2123298e-07 5.815916e-07 2.0105715e-07 7.451544e-07 1.3412318e-06
4.4445665e-07 4.2561956e-07 7.921763e-09 3.0424627e-07 2.497863e-06 2.113803e-08 1.2779216e-07 1.7371126e-07
2.2750345e-07 2.4846125e-07 3.8536947e-09 1.5949753e-07 1.368289e-06 1.5403891e-08 7.4688664e-08 1.0459554e-07
2.3652856e-07 2.5420573e-07 3.1701564e-09 1.6614639e-07 1.4074152e-06 1.4656623e-08 7.617889e-08 1.06446464e-07
5.0629546e-07 4.776226e-07 9.577046e-09 3.4950787e-07 2.8201887e-06 2.433289e-08 1.4510799e-07 1.9573976e-07
6.4044674e-05 9.074931e-05 1.7864259e-05 3.980646e-05 6.0953695e-05 2.468879e-05 9.0988346e-05 0.0001573832
5.875403e-06 7.70151e-06 4.901117e-06 3.8656435e-06 3.9209363e-06 2.7346994e-06 7.418007e-06 1.3183945e-05
6.169551e-05 8.9640984e-05 1.6469832e-05 3.5335535e-05 5.849172e-05 2.268322e-05 9.080661e-05 0.00015477883
3.5142282e-05 5.2681295e-05 3.6441925e-05 2.8019092e-05 4.0732706e-05 2.1915472e-05 5.5476034e-05 9.8842276e-05
8.0722815e-09 3.557098e-08 6.7237798e-09 1.2436814e-08 3.883937e-08 9.300145e-09 2.4103613e-08 5.541814e-08
2.0618216e-08 1.671203e-07 3.456367e-08 5.6294237e-08 1.9140225e-07 1.2629758e-08 7.7428965e-08 2.1497692e-07
1.2593232e-07 1.0269747e-06 2.2814775e-07 2.582066e-07 1.3018392e-06 5.708685e-08 4.3016718e-07 1.2171146e-06
6.19921e-08 4.8382117e-07 1.048548e-07 1.3057387e-07 5.984613e-07 2.9935467e-08 2.108144e-07 5.862175e-07
3.6390055e-08 4.981117e-08 1.5126904e-09 1.6358685e-08 3.0620836e-07 7.456636e-10 1.0628986e-08 1.4357623e-08
1.08674115e-07 9.766194e-08 5.899159e-09 4.2095415e-08 6.2799916e-07 3.2116763e-09 2.1184936e-08 3.3013233e-08
2.0692488e-07 2.1117265e-07 9.510293e-09 8.6470884e-08 1.3492427e-06 4.3690775e-09 4.5448896e-08 6.6206916e-08
1.3082989e-07 1.213762e-07 6.0382987e-09 5.3693814e-08 7.814207e-07 3.1056784e-09 2.6689907e-08 3.9863988e-08
3.89685e-05 6.112143e-05 2.0246694e-05 4.743633e-05 0.00016154695 2.9586778e-05 8.639472e-05 0.00015352093
2.0811804e-05 3.577378e-05 5.0237454e-06 1.736858e-05 6.4895175e-05 1.088961e-05 4.6870577e-05 8.103338e-05
1.9174345e-06 2.066727e-06 2.7258943e-06 3.7767456e-06 4.771011e-06 1.9295971e-06 2.4186222e-06 5.715228e-06
2.7391778e-05 4.2805103e-05 7.700427e-06 2.7060882e-05 9.7155855e-05 1.6616015e-05 5.824719e-05 0.00010104238

exp_avg f4 [8, 8]
00000000: 8718 b739 8bb9 1d38 0274 cdb9 6014 a339
00000010: e0ef 19b9 8255 8ab8 fca1 bab8 e124 a938
00000020: 7885 cc39 f745 9838 929e e2b9 ece0 ac39
00000030: c2db 7138 09ef 3839 728f 7fb8 6f5c f8b8
00000040: 48a2 dfb9 da46 b8b9 1bd6 d939 344a acb9
00000050: d0ce b039 f03c 9539 56a3 a839 4488 a5b9
00000060: f256 c639 8c09 4039 ef51 84b9 6ad4 8339
00000070: d8b0 fd38 107d ddb7 22dc 4339 724e 5bb8
00000080: f41c ceb9 caf9 66b7 7c64 d739 e446 abb9
00000090: 04f5 4238 c799 05b8 7ac3 d737 c64a da37
000000a0: a0ad 32b8 8d2f 84b8 7a95 bcb7 6815 81b6
000000b0: 5c7e 92b7 cb44 8e38 1870 25b9 0a78 a5b7
000000c0: 0baf 2f39 5a13 0539 0ead 77b9 c7fa 0939
000000d0: 2494 ddb9 28f9 80b9 baf9 dcb9 0d60 ab39
000000e0: a8b7 ddb9 7d6c 0637 db64 053a b331 bfb9
000000f0: d7ed cd37 2e58 26b9 007d 4c39 dd4a 9838
0.00034922754 3.7604517e-05 -0.0003918708 0.00031104963 -0.00014680577 -6.59628e-05 -8.899343e-05 8.065417e-05
0.00039009354 7.260957e-05 -0.00043224223 0.00032973976 5.7663543e-05 0.00017636655 -6.093033e-05 -0.000118427786
-0.00042654783 -0.00035148003 0.00041548986 -0.00032861682 0.00033723423 0.00028464897 0.00032165152 -0.00031572778
0.00037830282 0.00018314103 -0.00025238047 0.00025144528 0.0001209692 -2.640349e-05 0.00018678655 -5.2286727e-05
-0.00039312954 -1.3767227e-05 0.00041082862 -0.0003266848 4.6481393e-05 -3.1852887e-05 2.5721023e-05 2.6022444e-05
-4.2600208e-05 -6.3031075e-05 -2.2480952e-05 -3.8469916e-06 -1.7463397e-05 6.783901e-05 -0.00015777384 -1.972543e-05
0.00016754509 0.00012691077 -0.00023620224 0.0001315876 -0.00042262778 -0.00024599698 -0.0004214773 0.00032687225
-0.0004228924 8.012282e-06 0.0005088576 -0.00036467388 2.4548657e-05 -0.00015863843 0.00019501522 7.261869e-05

exp_avg_sq f4 [8, 8]
00000000: dbad 2236 efcc 2d35 e3f7 4936 3ddb 1836
00000010: 824a 0036 f20b 3c36 94da 3836 eda8 9736
00000020: 9950 2637 167c b635 985a 0137 d557 0837
00000030: f466 2137 676e ed36 b1c2 fe35 830c 6037
00000040: 5e13 cc38 411a 4e37 62cd b638 5bb0 9d38
00000050: 9f76 c238 a11d b738 d74f e037 9d82 e238
00000060: 2bae 6836 5bc9 0335 0014 5736 cfaf 2836
00000070: 25bc 4d36 d223 5c36 f70f fa35 c0f2 7f36
00000080: d373 7036 d5c5 8f35 1f3b 9236 ecff a136
00000090: af31 7c36 4ec5 6036 6b58 c435 9ac3 3a37
000000a0: f2f4 fd34 44e2 9d34 0014 4a35 afd8 8f35
000000b0: d891 2235 6089 e334 1471 8c34 ed00 4136
000000c0: 6477 e738 8199 4c37 291d c838 faf3 ae38
000000d0: 34c2 dd38 99cf c538 0ddc ba37 8700 0039
000000e0: 2889 d836 aaa7 1236 f2e1 f136 8781 2637
000000f0: 9977 ec36 6220 9536 148e 8335 4166 bc37
2.4241078e-06 6.474574e-07 3.0095623e-06 2.2777378e-06 1.9116856e-06 2.8021136e-06 2.7545366e-06 4.5198162e-06
9.913137e-06 1.359617e-06 7.710092e-06 8.126682e-06 9.620318e-06 7.076003e-06 1.8981137e-06 1.33543535e-05
9.7310854e-05 1.22846695e-05 8.716692e-05 7.519192e-05 9.272736e-05 8.731639e-05 2.674006e-05 0.000108008484
3.4672073e-06 4.9094314e-07 3.2049138e-06 2.5136285e-06 3.0656895e-06 3.2803405e-06 1.8631098e-06 3.813926e-06
3.5830205e-06 1.0711907e-06 4.3580217e-06 4.827967e-06 3.7579846e-06 3.3493448e-06 1.4628871e-06 1.1132006e-05
4.7303143e-07 2.940816e-07 7.527997e-07 1.0717393e-06 6.0561933e-07 4.2381998e-07 2.6159307e-07 2.875978e-06
0.000110371766 1.2195088e-05 9.542175e-05 8.342411e-05 0.00010574274 9.43236e-05 2.2275397e-05 0.00012207228
6.4532687e-06 2.1853289e-06 7.208663e-06 9.924529e-06 7.047271e-06 4.444316e-06 9.801611e-07 2.2458962e-05

exp_avg f4 [8]
00000000: fac7 4239 2df1 1b39 9295 42b9 0819 26b9
00000010: 4f46 39b9 8301 aa38 ee7e b639 e0c2 7eb9
0.00018575779 0.00014871797 -0.00018557001 -0.00015840319 -0.00017669167 8.106513e-05 0.00034808315 -0.00024295924

exp_avg_sq f4 [8]
00000000: 7b59 cb36 5963 6e37 cb96 5737 f278 6135
00000010: c770 bd37 b0c3 fa36 f6a9 9337 5f77 5c38
6.0602883e-06 1.4209037e-05 1.2850108e-05 8.399503e-07 2.2583072e-05 7.4733616e-06 1.760291e-05 5.256326e-05

exp_avg f4 [16, 8]
00000000: 55ad 8537 0d4c 1938 d4a8 8038 abb9 ab37
00000010: 3695 7db7 d0f5 63b6 422e 80b8 25b2 0cb8
00000020: 0257 37b8 74d1 cbb8 2433 f9b8 d468 c834
00000030: 6d09 2439 bc62 f6b7 3fd2 e736 1388 3a38
00000040: f68a 95b9 2267 98b9 59a3 d638 2aae d2b9
00000050: 93b9 6b38 5431 0f39 87cf 8539 7581 6a39
00000060: bc82 0239 dc35 29b8 9a21 6d39 f892 2b38
00000070: f0a4 4ab9 ac88 0cb8 3061 76b8 06ad 85b7
00000080: d7bb 453a a715 d8b9 a5bf 9bba 647e 95b9
00000090: 636b 44ba 2638 6d38 fb2e a33a 8b68 9a39
000000a0: 4d9b f5b3 d4c9 a632 35fd fbb5 c399 5f34
000000b0: 3782 a334 0a11 e833 e8d7 a135 0752 c3b4
000000c0: 0414 3839 1ce1 9138 3bab a639 3cd9 a238
000000d0: 6fb6 d2b9 6aa0 0db8 d07d dc37 d855 8937
000000e0: 058f 5db9 147b b136 2aaa 10b8 0f9e a237
000000f0: a2e7 9039 3928 a236 1f38 97b8 12d5 0e38
00000100: 204c 6038 bd3d 9938 1cbe 0339 7952 5f37
00000110: 7658 9ab8 bd1a 5d37 0e08 51b8 51a8 94b8
00000120: f668 9f39 0e33 10b8 1c84 7bb9 f3a5 04b8
00000130: d475 c6b9 af2b 2437 687d a339 b5a8 0638
00000140: 9b09 a0b8 918b 31b8 1180 2138 9086 22b8
00000150: 71c4 3138 5f15 c036 7342 1138 8365 3d38
00000160: d1fd 1839 8ba3 8bb7 aca5 8ab8 a466 fdb7
00000170: 2532 30b9 947b 9e37 3042 3738 42cb 5fb8
00000180: c313 c039 da56 6ab8 08a0 ddb9 920c 87b7
00000190: 0028 dcb9 367a 4137 d7b2 eb39 5181 8b38
000001a0: 859b 1339 4e77 d138 a9f6 b339 7357 2a37
000001b0: a162 50b8 eb3a f1b7 f467 9cb9 a5bd 69b9
000001c0: c453 df38 4c48 6db7 27e6 7a39 4cbe b8b7
000001d0: 169a 39b9 f54e d036 500a c9b7 3b53 90b7
000001e0: f83b 37b5 112f 2735 8d26 20b7 cd7d 7435
000001f0: 7557 f735 128a 3135 b8d9 b136 c155 49b6
1.593555e-05 3.654887e-05 6.134962e-05 2.0471247e-05 -1.5114716e-05 -3.3968718e-06 -6.112132e-05 -3.354451e-05
-4.3711632e-05 -9.718808e-05 -0.00011882771 3.7329175e-07 0.0001564377 -2.9371462e-05 6.9088123e-06 4.4472585e-05
-0.0002852303 -0.0002906854 0.00010234741 -0.00040184084 5.6201196e-05 0.00013655919 0.00025522357 0.00022364206
0.00012446468 -4.03429e-05 0.00022614599 4.0906452e-05 -0.00019325665 -3.3505887e-05 -5.8741483e-05 -1.5935406e-05
0.0007542944 -0.00041214863 -0.0011882676 -0.00028513663 -0.00074928085 5.6557496e-05 0.0012449914 0.0002945106
-1.14369506e-07 1.9416724e-08 -1.877465e-06 2.0824432e-07 3.045586e-07 1.0806441e-07 1.2058272e-06 -3.6381263e-07
0.00017555064 6.956069e-05 0.00031789564 7.765225e-05 -0.00040190245 -3.3766417e-05 2.628463e-05 1.6371647e-05
-0.00021129481 5.2893392e-06 -3.4490753e-05 1.9385507e-05 0.000276384 4.8326588e-06 -7.2106945e-05 3.4053875e-05
5.347666e-05 7.307108e-05 0.00012563955 1.3311038e-05 -7.3597694e-05 1.3178852e-05 -4.9836985e-05 -7.088541e-05
0.00030405045 -3.4379824e-05 -0.0002398644 -3.1625805e-05 -0.00037853292 9.785333e-06 0.00031183218 3.210521e-05
-7.631184e-05 -4.233007e-05 3.8504662e-05 -3.874913e-05 4.238304e-05 5.724534e-06 3.463258e-05 4.515565e-05
0.00014590404 -1.6646247e-05 -6.6112116e-05 -3.0207746e-05 -0.00016803348 1.8892613e-05 4.3692242e-05 -5.335664e-05
0.00036635817 -5.5870834e-05 -0.00042271637 -1.6099108e-05 -0.00041991472 1.1532151e-05 0.0004495594 6.6521236e-05
0.00014076948 9.988119e-05 0.00034325317 1.01531505e-05 -4.968292e-05 -2.8756875e-05 -0.0002983209 -0.0002229126
0.00010649071 -1.4143134e-05 0.00023927596 -2.2023123e-05 -0.00017700376 6.208075e-06 -2.396587e-05 -1.7204895e-05
-6.826008e-07 6.228084e-07 -9.545719e-06 9.108015e-07 1.8428387e-06 6.6138557e-07 5.300357e-06 -3.000125e-06

exp_avg_sq f4 [16, 8]
00000000: 496e 0131 1e11 3a32 3f59 dc31 e5a6 7431
00000010: d2bc ea31 0b2f a431 11d3 f132 262f f332
00000020: a1c7 f534 5069 a534 3209 0036 7fac 5c34
00000030: 2c64 4635 e2ad 6a35 9d02 6435 56fc 8034
00000040: 340a 0335 b1d2 e835 e09f 1735 eea1 4535
00000050: c047 c335 9c09 9934 01d8 1336 4b8e cd36
00000060: cf69 3835 9f00 0036 a803 5935 fb00 2935
00000070: 563f c335 17d9 7e34 a51f 9a35 11e7 a036
00000080: 9b51 3535 f989 0a35 934d 1f36 2902 3334
00000090: f5ed 9235 734c 3733 9d2c 2636 0658 b334
000000a0: 5b83 1433 cef6 3033 428d 3634 80c7 3f34
000000b0: 3aa1 b734 0dfb a033 b133 ac33 9e8c f035
000000c0: 9bbb 4b35 5e7c 3d36 8aab 9a35 3c6a 4c35
000000d0: a270 4236 3c9b b334 1a50 a135 5a40 c736
000000e0: 6c91 8534 d6a9 9c33 0a27 9735 fb64 f333
000000f0: e20e 7834 bbc4 0435 f571 0835 aa08 9433
00000100: 2fa1 8b33 b703 4935 fb5b d735 b8d4 ea33
00000110: a78a f933 d0dd 9d30 f842 0036 8855 c835
00000120: be51 d133 d74b 0534 23f1 ee34 36c4 0333
00000130: a5be 9c34 bd16 0d34 ab2a 3834 628d 6833
00000140: 580c d932 0688 a933 b6bd 0231 d0e4 a133
00000150: 93c8 9933 4050 5033 a45e 6134 ee2e b534
00000160: 4824 db33 0198 0b35 580e eb34 3d70 a734
00000170: 2a16 8134 e633 ef33 c114 8835 db9e 3336
00000180: bc70 cb34 44ab 9334 58cc c735 5513 1534
00000190: be68 4035 9a75 2135 c378 2935 9b47 fb33
000001a0: a78d 4434 369c c636 a798 e735 37f3 5c35
000001b0: bb38 fc35 a5d2 c033 7349 b434 b9bb a236
000001c0: 9262 4b34 1ba1 0b35 b2db 0b35 89c0 7234
000001d0: 7945 0835 a2e7 7b33 0604 c634 8332 0936
000001e0: 88ae 3133 d916 5132 9167 a734 be71 a632
000001f0: 4878 3033 1ca7 a933 879d 0234 e76d d032
1.883466e-09 1.0830517e-08 6.412989e-09 3.5601542e-09 6.8317627e-09 4.7783764e-09 2.8152074e-08 2.8310364e-08
4.5780055e-07 3.081027e-07 1.9078839e-06 2.055185e-07 7.390652e-07 8.7424826e-07 8.494042e-07 2.4025456e-07
4.881615e-07 1.7346666e-06 5.648453e-07 7.362386e-07 1.4549514e-06 2.8505463e-07 2.2030438e-06 6.126041e-06
6.8699313e-07 1.9073848e-06 8.084412e-07 6.295883e-07 1.4547065e-06 2.373457e-07 1.1483104e-06 4.7952713e-06
6.7546506e-07 5.160978e-07 2.3738e-06 1.667146e-07 1.0947102e-06 4.2677538e-08 2.4761896e-06 3.3405394e-07
3.4578402e-08 4.120266e-08 1.700146e-07 1.7860839e-07 3.4203714e-07 7.4962465e-08 8.018777e-08 1.7922318e-06
7.5896395e-07 2.8235586e-06 1.1523819e-06 7.6150513e-07 2.8973814e-06 3.3454296e-07 1.2018747e-06 5.9381537e-06
2.487899e-07 7.295209e-08 1.1261739e-06 1.13339375e-07 2.3102214e-07 4.946011e-07 5.082978e-07 6.893363e-08
6.502011e-08 7.488374e-07 1.6045518e-06 1.09351674e-07 1.1620187e-07 1.1486296e-09 1.9112467e-06 1.4926054e-06
9.74719e-08 1.241418e-07 4.4506405e-07 3.0679267e-08 2.9195976e-07 1.313992e-07 1.7151858e-07 5.4145296e-08
2.5267738e-08 7.894418e-08 1.9025328e-09 7.5387675e-08 7.161102e-08 4.850176e-08 2.0989188e-07 3.3748023e-07
1.0204582e-07 5.200273e-07 4.3782597e-07 3.1187838e-07 2.404425e-07 1.1138745e-07 1.013883e-06 2.6765545e-06
3.7893722e-07 2.7505496e-07 1.4886127e-06 1.388374e-07 7.1677994e-07 6.0148307e-07 6.313314e-07 1.1701123e-07
1.8305455e-07 5.919045e-06 1.7255269e-06 8.231031e-07 1.8791974e-06 8.979013e-08 3.3581054e-07 4.84983e-06
1.8941708e-07 5.2015974e-07 5.2101234e-07 2.260805e-07 5.0765044e-07 5.865116e-08 3.68833e-07 2.0443993e-06
4.136976e-08 1.2170596e-08 3.1181528e-07 1.9376667e-08 4.108759e-08 7.900073e-08 1.2164502e-07 2.4264365e-08

exp_avg f4 [16]
00000000: 74d8 9137 a43d 4739 dc06 eab9 008c a637
00000010: 2ee1 03ba 5faa 0f35 9960 5ab9 b277 dd38
00000020: 58a6 9db7 984f 64b9 b9d2 08b8 067e c9b8
00000030: 9e7b 6cb9 8ab7 9b39 08d2 79b8 1855 3236
1.738614e-05 0.00019001082 -0.0004463707 1.9853935e-05 -0.0005030808 5.3519574e-07 -0.00020826086 0.00010560396
-1.8793318e-05 -0.00021773425 -3.2621178e-05 -9.6079006e-05 -0.00022552765 0.0002970065 -5.9561833e-05 2.6573598e-06

exp_avg_sq f4 [16]
00000000: 6046 dc31 92bb 9d35 cc82 c835 2f66 9335
00000010: 3ecd 5635 c6bd 3134 b3c9 6f36 4772 bb34
00000020: bcf6 6c34 4169 f034 ee4b 7433 c9c6 9e34
00000030: 3699 8a35 bad0 8b36 7843 a634 8d5d 8d33
6.4108434e-09 1.1752002e-06 1.4939228e-06 1.0982093e-06 8.001988e-07 1.6553449e-07 3.573118e-06 3.4914612e-07
2.2068974e-07 4.4780066e-07 5.6879735e-08 2.957443e-07 1.0326391e-06 4.166822e-06 3.0969e-07 6.582841e-08

exp_avg f4 [8, 16]
00000000: 4c47 11b5 b3a6 b837 5f0d 6ab7 a85d ba39
00000010: 4325 313a 8b33 38b3 c2a8 153a f0f1 3735
00000020: 6cc8 8038 004c cc35 21b1 2436 df47 90b8
00000030: 8614 8239 54f9 48b8 d8fc 6939 d586 a3b1
00000040: 14a8 0bb4 b78d 29b8 ef71 bd38 541a eb39
00000050: 6db6 21ba 86be d432 6e94 9e39 a82c 5437
00000060: 40d1 81b7 7a7a 79b9 d7a7 2037 8cfd 2239
00000070: 80ce 49b9 c6cf 8e38 9dd6 9639 9772 3435
00000080: 60f6 36b5 0334 43b8 c31b 3a39 2ba2 db39
00000090: 80c9 47ba 9452 6833 6049 a839 3c59 a537
000000a0: c0a5 f8b6 c6ce bdb9 0f9e cf37 4f20 4939
000000b0: c861 6fb9 b389 ce38 207e 9939 a757 9135
000000c0: 086e 6135 d81e 79b7 743d 28b7 4a5b a9b8
000000d0: e0bc 95b9 5d46 2333 74a3 65b9 5fba 0ab6
000000e0: 67d9 06b8 ec1f 3138 3d6d 41b7 45cd 9338
000000f0: dc96 d8b8 10d2 d337 7443 5fb8 f4d8 5234
00000100: e4ec ae35 c92b d8b7 86dc 1539 f1c5 c4b9
00000110: 2504 56ba 4d57 5d33 5e27 3bba 29f7 a0b6
00000120: 6faa b0b8 7c8a 7638 e1a2 7ab7 8ddb 8c39
00000130: 9642 9cb9 2ee9 2739 8406 8db9 c53f 55b4
00000140: e6f6 3035 14b7 46b7 d5d9 1d39 448f 80b9
00000150: 0680 b1b9 f399 2a33 9ae8 cbb9 1149 7cb6
00000160: 42f9 23b8 cc74 7138 2a5a 0cb7 bcf9 4939
00000170: ea7c 0cb9 ad9a f038 e9ca 38b9 bd4e 59b4
00000180: 20d4 1fb4 0807 a838 effe dab9 fa74 1fba
00000190: 80fe 933a 8561 bdb3 f4fc ccb9 674d c0b7
000001a0: 70b9 fd37 e208 de39 f869 9eb7 84bc f4b9
000001b0: 8c6f b639 8965 6fb9 cf5a c8b9 be54 bfb5
000001c0: fa90 aeb5 ae6b 1c38 3dd1 fab8 14ef b538
000001d0: 1d00 853a 6e79 a5b3 5beb 073a 4d8f 0735
000001e0: 66db b538 6431 8937 fe16 8e37 330c b4b9
000001f0: d6ba bc39 a3b9 47b9 7c6f a138 c90f 01b4
-5.412046e-07 2.2012135e-05 -1.39506e-05 0.00035546464 0.00067575666 -4.2887716e-08 0.0005709046 6.852488e-07
6.140847e-05 1.5221303e-06 2.4541007e-06 -6.879842e-05 0.00024810823 -4.791592e-05 0.00022314803 -4.759253e-09
-1.300653e-07 -4.0424722e-05 9.033444e-05 0.0004484231 -0.0006168846 2.4766688e-08 0.00030246697 1.2646582e-05
-1.5475438e-05 -0.00023792117 9.575821e-06 0.00015543977 -0.00019245781 6.8097885e-05 0.0002877013 6.7221976e-07
-6.8158806e-07 -4.6540063e-05 0.00017748684 0.0004189176 -0.00076212734 5.4091814e-08 0.00032098126 1.9711086e-05
-7.410272e-06 -0.00036202947 2.4749925e-05 0.0001918089 -0.00022829243 9.848494e-05 0.00029276405 1.0828852e-06
8.397915e-07 -1.4848738e-05 -1.00278885e-05 -8.075552e-05 -0.00028560217 3.801539e-08 -0.00021900033 -2.0672085e-06
-3.215056e-05 4.2229818e-05 -1.15291305e-05 7.047741e-05 -0.000103277824 2.5250978e-05 -5.3230164e-05 1.9636701e-07
1.3032954e-06 -2.5769596e-05 0.00014291899 -0.0003753151 -0.000816407 5.1534972e-08 -0.000713935 -4.797145e-06
-8.42408e-05 5.8779944e-05 -1.4939084e-05 0.0002686646 -0.0002980425 0.00016013227 -0.0002689847 -1.986037e-07
6.5924394e-07 -1.1844346e-05 0.00015053836 -0.00024520804 -0.00033855456 3.9721225e-08 -0.0003889248 -3.7593456e-06
-3.9094368e-05 5.7567653e-05 -8.365643e-06 0.00019261887 -0.00013397975 0.000114729024 -0.00017623197 -2.0238345e-07
-1.48852e-07 8.012174e-05 -0.0004177014 -0.00060827995 0.0011291057 -8.818737e-08 -0.00039098377 -2.2924227e-05
3.0246301e-05 0.00042349758 -1.8884413e-05 -0.00046679762 0.00034796854 -0.00022830641 -0.0003821463 -1.4255272e-06
-1.3006204e-06 3.7293583e-05 -0.000119599026 8.675284e-05 0.0010147128 -7.705499e-08 0.0005184912 5.049995e-07
8.671619e-05 1.6354672e-05 1.6938426e-05 -0.00034341365 0.00035997358 -0.00019047274 7.697844e-05 -1.2019804e-07

exp_avg_sq f4 [8, 16]
00000000: f0c8 fd34 21d5 f432 44d9 2835 b0b5 ed36
00000010: 8631 d734 7938 ca32 bb92 a636 e2a2 0235
00000020: a7cd fc33 5181 0235 1e8d 7a35 0f48 2435
00000030: 0888 1734 e1d6 af31 5a29 7837 528f 0035
00000040: bc45 c334 a001 ad33 39b2 ad35 4ed9 af36
00000050: 69b6 0736 9043 b733 081a 4d36 dbb9 7935
00000060: a239 fa33 9429 8435 f0e8 4b35 b0e4 d335
00000070: 81e9 e134 42f2 9b33 297a 1137 df0f 7435
00000080: 5429 0034 3da9 b533 a6d7 fd35 0c3d 2937
00000090: 8122 8d36 79b1 2a34 9064 0f37 0b8f 8533
000000a0: 888b 0935 cc5c 7734 a13e de34 ecdd 6036
000000b0: 5238 0d35 1e4c c633 e77f 8c37 b5e7 7e33
000000c0: 952c 7132 2c86 5132 1fb9 0d34 f2d5 b335
000000d0: fa6c 6f34 f1f3 0832 167a 6635 99ce e733
000000e0: 1191 7433 92da ef33 b952 6f33 f98a 2a34
000000f0: b914 4f33 2579 9c32 35e0 9235 03d0 e033
00000100: 365e 0d35 9181 1334 c8ce a435 5785 8b37
00000110: 8596 8d35 fd17 9b33 b443 f936 6b16 8136
00000120: 1cfa 8034 c930 8036 0bfa 6335 4b3e b335
00000130: c46d 7f35 beea 6b34 8234 8c37 6a4a 7d36
00000140: e600 0c35 cc58 f632 7f95 7035 58cb 0137
00000150: faec cd34 01a5 8833 21de ad36 5663 3235
00000160: 4ab5 4e34 1c80 3335 593e 8335 1492 9135
00000170: 6425 4d34 bb60 b933 f8c1 8537 cd8a 2f35
00000180: 5b5f bc34 a494 8f34 6121 9936 2397 8537
00000190: 93a7 f336 207f 9f34 f7a7 4837 4013 9b35
000001a0: f66b 0735 4480 b635 b0c5 9a35 e9bf ce36
000001b0: 1bc4 8535 d976 0c35 d874 df37 61f0 9635
000001c0: b42c e133 cc9b 7e34 d511 9435 1fa8 a637
000001d0: 44e9 5235 ca5c 9732 78e9 bb36 3afe d836
000001e0: 57f5 7734 7a2b d636 80f0 d333 baf6 3b35
000001f0: f5cc c535 7c90 ca34 9c9b f536 1281 d436
4.7271124e-07 2.8502258e-08 6.290104e-07 7.0843016e-06 4.0082904e-07 2.3541576e-08 4.964267e-06 4.86658e-07
1.17720724e-07 4.8616954e-07 9.333761e-07 6.119962e-07 1.4112459e-07 5.1175992e-09 1.479158e-05 4.7892274e-07
3.637232e-07 8.056236e-08 1.2941374e-06 5.240704e-06 2.0222744e-06 8.533891e-08 3.0562533e-06 9.3030184e-07
1.16520155e-07 9.846867e-07 7.596236e-07 1.5787282e-06 4.2079412e-07 7.2618164e-08 8.671116e-06 9.092018e-07
1.1935964e-07 8.4592536e-08 1.8912731e-06 1.0087399e-05 4.2061442e-06 1.5897048e-07 8.546878e-06 6.2193145e-08
5.123952e-07 2.3037427e-07 4.139629e-07 3.3507777e-06 5.260855e-07 9.233939e-08 1.674886e-05 5.934972e-08
1.4038183e-08 1.2195908e-08 1.3198995e-07 1.3398806e-06 2.2298255e-07 7.971708e-09 8.5859335e-07 1.07943556e-07
5.6942614e-08 1.11690625e-07 5.572176e-08 1.5883042e-07 4.821479e-08 1.821588e-08 1.09431e-06 1.046865e-07
5.266369e-07 1.3737578e-07 1.2279133e-06 1.6632182e-05 1.0549126e-06 7.2221134e-08 7.42866e-06 3.8471094e-06
2.4023836e-07 3.8203766e-06 8.492795e-07 1.3354669e-06 9.515463e-07 2.1971479e-07 1.6713751e-05 3.7743253e-06
5.215537e-07 2.867855e-08 8.962451e-07 7.736344e-06 3.835665e-07 6.3630075e-08 5.181661e-06 6.645472e-07
1.9251198e-07 6.686912e-07 9.778406e-07 1.0845856e-06 1.9105715e-07 8.632329e-08 1.594516e-05 6.539456e-07
3.508711e-07 2.6743976e-07 4.563641e-06 1.5925214e-05 7.2614725e-06 2.9708553e-07 1.1960036e-05 1.1554002e-06
5.0448523e-07 1.3597387e-06 1.1531429e-06 6.1616197e-06 9.966346e-07 5.232701e-07 2.6638081e-05 1.124583e-06
1.04855104e-07 2.3712272e-07 1.1032049e-06 1.986703e-05 7.857054e-07 1.762091e-08 5.6002136e-06 6.4668975e-06
2.3092922e-07 6.3827583e-06 9.8692e-08 7.0021963e-07 1.4737294e-06 3.7730558e-07 7.3196843e-06 6.333118e-06

exp_avg f4 [8]
00000000: fc84 0c39 f823 7a37 5808 2438 8c13 a9b8
00000010: 9f1d 4db9 635d c5b8 a036 abb7 9d93 5439
0.00013400981 1.4909536e-05 3.9108418e-05 -8.062189e-05 -0.00019561358 -9.411087e-05 -2.0410225e-05 0.00020272886

exp_avg_sq f4 [8]
00000000: 272a 9635 d920 ec35 24fc 5135 aeb4 5334
00000010: 5cc9 bf36 28e6 c335 e173 4836 f2e6 1437
1.1188139e-06 1.759293e-06 7.822548e-07 1.9716637e-07 5.715685e-06 1.4595616e-06 2.9869773e-06 8.875259e-06

exp_avg f4 [8]
00000000: 7240 b9ba b030 e2b7 c7cc 24ba 67fc 01ba
00000010: 5867 12bb 0780 65b9 73c5 22ba 7b64 2539
-0.0014133586 -2.6963971e-05 -0.0006286618 -0.00049585704 -0.002233943 -0.00021886836 -0.0006209232 0.00015773058

exp_avg_sq f4 [8]
00000000: 37c9 de36 5cbd 9837 b484 1638 74ea 1437
00000010: 1d90 ce37 07fd 6d36 8dd3 0838 f5ad 8436
6.63954e-06 1.820799e-05 3.5886376e-05 8.876075e-06 2.4624222e-05 3.5463033e-06 3.262195e-05 3.954158e-06

exp_avg f4 [8]
00000000: 3bd6 303a 7574 473a 104b a43a d009 9b38
00000010: c831 adba 97e0 2b39 4a05 f539 b1ac 90b9
0.000674579 0.0007608601 0.0012534577 7.392804e-05 -0.0013213689 0.00016391497 0.00046733982 -0.00027594485

exp_avg_sq f4 [8]
00000000: 5c1a bd36 d69a f237 d30b d538 ef28 0237
00000010: d8e7 4237 fb0e 8536 17fd bf38 c88e 3f37
5.6357076e-06 2.892075e-05 0.00010158834 7.758134e-06 1.1617281e-05 3.965453e-06 9.1547314e-05 1.1417731e-05

exp_avg f4 [8]
00000000: 1ad8 ae39 d8a2 8cba 380f fcba 506e a937
00000010: 84a2 8638 a024 f937 2344 28bb 3452 4eb8
0.00033348874 -0.0010729684 -0.001923061 2.0197738e-05 6.419889e-05 2.9700168e-05 -0.0025675378 -4.9190785e-05

exp_avg_sq f4 [8]
00000000: b41f ff37 c5e1 5138 aa4a be38 1168 e338
00000010: cfe7 3437 44d4 5137 1216 9b39 4995 9c36
3.0413132e-05 5.0039747e-05 9.073813e-05 0.000108435874 1.0782808e-05 1.2506793e-05 0.00029580347 4.6665414e-06

exp_avg f4 [8]
00000000: 17e7 9bb9 c097 e239 f0ee 9339 8c80 5039
00000010: b8ae b438 f21b 9539 c0ba ccb9 9cc9 fa37
-0.0002973608 0.00043219142 0.00028216047 0.00019884313 8.615613e-05 0.00028440316 -0.00039049052 2.9896204e-05

exp_avg_sq f4 [8]
00000000: 4f4d 1f38 d079 0239 6997 4039 8875 8138
00000010: ebc7 bc37 8a8f 6b38 b7de 5039 8d2e 2037
3.7980553e-05 0.00012443145 0.00018366952 6.173091e-05 2.250444e-05 5.6162047e-05 0.00019919394 9.547582e-06

exp_avg f4 [1, 8]
00000000: 656a 74ba fe38 333b ea24 963b 489b 4d3a
00000010: b072 5e39 258b 3e3a a0a5 bdbb 2029 a338
-0.00093237153 0.0027347202 0.004582037 0.0007843268 0.00021214294 0.0007268659 -0.0057875663 7.780106e-05

exp_avg_sq f4 [1, 8]
00000000: cf8e f139 ae7d 3b3a b506 913a a590 e43a
00000010: b300 b539 2576 bf39 ee2a 373b 2d54 1c3a
0.00046073503 0.00071522116 0.0011064621 0.0017438127 0.0003452353 0.00036518383 0.0027949172 0.0005963471
