lightning_logs/version_22/checkpoints/epoch=259-step=520.ckpt (torch, 5383 bytes, 3 tensors)

linear.weight f4 [1, 16]
000000 1a 43 04 3e ce f1 df bd d8 16 45 bd 8c 59 f2 3d
       0.12916222 -0.109347925 -0.04811749 0.11833486
000010 cc a8 70 be 0c 8a 1a 3e f2 55 51 bd cb 3e 03 3e
       -0.23501891 0.15091723 -0.051107354 0.12816922
000020 94 9a 0f 3d 26 b8 f2 bc 97 99 8e 3d d1 2c 5a 3c
       0.035059527 -0.029628824 0.06962889 0.013316349
000030 42 90 bb 3d 03 82 c5 bd 77 20 93 bc 86 49 b0 bc
       0.09158374 -0.096439384 -0.017959816 -0.021519434

exp_avg f4 [1, 16]
000000 69 3c 9d bc 8b 2d 8c bd 5c 98 9d bc d3 a2 8b bd
       -0.019193845 -0.06844624 -0.01923769 -0.06818166
000010 d3 85 9b bc 72 02 8b bd 81 1a 97 bc bc 67 8a bd
       -0.01898471 -0.06787576 -0.018445255 -0.06758067
000020 23 ff 91 bc 6c 3a 8a bd 87 76 8d bc 33 60 8a bd
       -0.017821854 -0.06749424 -0.017268432 -0.0675663
000030 eb 31 8a bc a9 b3 8a bd 08 a0 87 bc a9 e1 8a bd
       -0.016869506 -0.06772549 -0.016555801 -0.067813225

exp_avg_sq f4 [1, 16]
000000 c5 fe 2b 3c 53 d3 02 3d ae 19 2c 3c b5 a1 02 3d
       0.0104977535 0.031939816 0.010504169 0.031892497
000010 cd d2 2b 3c ae 6d 02 3d 94 2e 2b 3c 99 3b 02 3d
       0.010487271 0.03184288 0.010448117 0.031795118
000020 de 53 2a 3c 5b 20 02 3d 60 88 29 3c ac 28 02 3d
       0.010395972 0.031769138 0.010347456 0.03177707
000030 50 eb 28 3c c7 41 02 3d b8 58 28 3c fb 48 02 3d
       0.010310009 0.03180101 0.010275058 0.03180788
