lightning_logs/version_11/checkpoints/epoch=99-step=100.ckpt (torch, 22491 bytes, 30 tensors)

front_linear.weight f4 [8, 2]
000000 c4 18 29 3f e3 69 a0 bf 80 54 ca be 79 57 2f bf
       0.66053414 -1.2532314 -0.39517593 -0.6849285
000010 57 3c 97 bf c8 41 de be 25 4e 04 bf d7 b1 e8 3e
       -1.1815289 -0.43409562 -0.5168174 0.4544818
000020 87 41 02 3f 58 e5 57 bc 46 b2 eb 3e 0d 06 05 3f
       0.50881237 -0.013177238 0.4603445 0.5196236
000030 9f 95 e3 3e 9c b7 58 3e 32 3e fb 3c 15 88 ea 3e
       0.4445009 0.21163791 0.030669305 0.45806947

front_linear.bias f4 [8]
000000 c2 0e 78 3e 24 4d bf 3c 2c 6b b5 3e bb bd 96 3d
       0.2422438 0.023352213 0.35433328 0.07360407
000010 11 37 8a be b3 dc d6 be b5 55 28 be c6 67 a2 be
       -0.26995137 -0.41965255 -0.16438945 -0.31719798

transformer_encoder.layers.0.self_attn.qkv_proj.weight f4 [24, 8]
000000 0a cc 9e c0 94 4b 09 3e fc 4a 06 40 f0 74 24 40
       -4.962407 0.13407737 2.0983267 2.5696373
000010 96 2e 53 bf e8 00 e2 be 03 a3 25 bf cf fe c0 3f
       -0.8249296 -0.44141316 -0.6470186 1.5077761
000020 f2 f4 b7 3f 34 56 09 3f 75 23 26 40 d9 25 cb be
       1.4371626 0.5364716 2.5959141 -0.39677313
000030 1c 96 29 c0 9a 40 69 c0 53 6a d1 bf af a0 55 c0
       -2.649787 -3.644568 -1.6360573 -3.3379323
000040 91 d3 bb c0 16 31 3b 3f d1 21 10 40 5c b7 96 40
       -5.869576 0.73121774 2.252064 4.7098827
000050 81 a8 06 c0 cc 87 16 bf ea 32 99 be 9c 74 ff 3f
       -2.1040347 -0.5880096 -0.29921657 1.9957461
000060 e5 c5 8d c0 e5 72 6d 3f 7b 0c 00 40 ba 80 2b 40
       -4.430407 0.9275344 2.0007617 2.6797318
000070 42 d7 c3 bf a5 b2 8f be c9 cb 3f bf 87 b4 a4 3f
       -1.5300066 -0.28065982 -0.74920326 1.2867593
000080 da 44 23 3c 16 48 74 40 f1 d6 22 40 17 33 17 40
       0.009965146 3.8168998 2.544369 2.3624933
000090 78 43 b1 bf 17 50 ce bf 0d 66 aa c0 24 4d 57 c0
       -1.3848715 -1.6118191 -5.3249574 -3.3640833
0000a0 97 f7 62 c0 e8 e5 5e 3e e5 84 dc 3c 96 82 61 40
       -3.5463617 0.2176739 0.026918838 3.5235953
0000b0 70 70 98 3e f4 94 2d 3f bf 78 b9 bf 62 7d b4 3e
       0.29773283 0.6780541 -1.4489974 0.3525191
0000c0 cd 5b 0a 3e f0 4c 89 40 29 47 28 40 47 ef 3d 40
       0.13511582 4.290642 2.6293433 2.9677293
0000d0 d4 71 e4 bf f5 71 e7 bf d5 cb bb c0 0d 8f 56 c0
       -1.7847238 -1.8081652 -5.868632 -3.3524811
0000e0 24 dc 12 be 13 a8 3d 40 f1 15 f7 3f ab 7d 07 40
       -0.1434179 2.9633834 1.9303571 2.1170452
0000f0 25 c9 f9 bf a1 13 c5 bf af d8 5e c0 30 a0 fb bf
       -1.951451 -1.5396615 -3.4819753 -1.965826
000100 6a 13 f9 be 0f f3 02 be 0f 66 a9 be ee 44 f8 3d
       -0.48647624 -0.12788032 -0.33085677 0.12122522
000110 1c d5 2e 3f d5 a2 2a 3f 84 7a 0b 3e 19 aa 76 3e
       0.6829393 0.6665471 0.13620955 0.24088325
000120 62 d3 08 bf 92 7b 37 bf 09 3b 03 3f 48 d4 22 bd
       -0.53447545 -0.7167293 0.51261955 -0.03975323
000130 f4 e0 05 3d c1 11 67 be 1e 5b 75 3d 8e 8b b2 3d
       0.032685235 -0.22565366 0.05990135 0.08718024
000140 a6 f2 0d 3e ea 7f 18 3d 79 f3 16 3e b8 ea ea 3e
       0.13862094 0.037231363 0.14741315 0.458822
000150 cb 43 13 bd 3c 82 b7 be f1 16 fe bd 45 f1 b7 be
       -0.035953324 -0.35841548 -0.124067195 -0.35926262
000160 ea 42 a0 be 30 ab a2 3e e9 8d a6 be 36 e7 22 be
       -0.3130105 0.3177123 -0.32530144 -0.15908512
000170 12 ae 37 3e 90 35 0f 3e 7d 20 b9 3e 98 8f 39 3e
       0.17937496 0.13985276 0.361576 0.18121183
000180 cd 96 c5 c0 bc 43 bb 3f 18 3a c5 3f aa 5f 34 40
       -6.1746583 1.4630046 1.5408354 2.8183389
000190 21 69 8c bf 10 a4 0e 3f b6 e3 9c bf 66 85 91 40
       -1.0969583 0.5571909 -1.2256992 4.547534
0001a0 8e ed 88 c0 fd a9 74 3f 98 2f e4 3f fd fe 24 40
       -4.2789984 0.9557188 1.7827024 2.5780632
0001b0 e2 be 2e bf 8e c1 a4 3e cd dc b9 bf a5 f7 21 40
       -0.68260014 0.3217892 -1.4520508 2.53074
0001c0 14 7a 99 c0 b6 da 4e 3f 64 ac 7d 3f ba 79 e9 3f
       -4.796152 0.80802476 0.9909117 1.8240273
0001d0 e6 6d 60 bf 95 b4 37 bd b9 6c 9b bf f0 5d ff 3f
       -0.8766769 -0.04484995 -1.2142555 1.9950542
0001e0 b4 23 89 40 da 44 76 40 41 33 3e 40 b8 c6 09 40
       4.2856083 3.8479524 2.9718783 2.1527538
0001f0 64 67 14 c0 26 18 13 c0 1d bf eb bf 8a 65 1d 40
       -2.3188105 -2.298349 -1.8417698 2.4593225
000200 93 6a ce c0 95 7e 23 bf 84 8d e4 be ab c5 6b 3f
       -6.4505095 -0.63865024 -0.44639218 0.9209849
000210 57 0a 64 3f 80 99 e4 3f 95 d1 8f be 23 65 36 40
       0.8907828 1.7859344 -0.28089586 2.849923
000220 2d e8 72 c0 ae 5f c1 3e c8 0f 06 bf 64 b7 95 3f
       -3.795421 0.3776831 -0.5236783 1.1696591
000230 6a 6b d3 3e 5e c6 a1 3f 77 f2 c1 bf 96 54 28 3f
       0.41292888 1.2638662 -1.5152119 0.6575407
000240 40 e8 7b c0 56 85 1a 3e c5 f9 4e bf 5c f4 8b 3f
       -3.9360504 0.15089926 -0.8084987 1.0933948
000250 72 3c 15 3f 80 43 e7 3f 4e 8f 5a bf 3c ff ab 3f
       0.5829536 1.8067474 -0.85374916 1.3437266
000260 00 13 77 c0 6c 36 b2 3f 47 87 ce 3f a2 ed 36 40
       -3.8605347 1.3922858 1.6135033 2.858254
000270 ec ba b5 be 1d 17 32 bf c1 83 26 c0 28 05 8c 3e
       -0.35494173 -0.6956652 -2.6017916 0.27347684
000280 5c 54 b9 3d 99 17 79 3e 3e e2 25 bf 7b 7f a1 3d
       0.090492934 0.24325408 -0.64798343 0.07885643
000290 c6 69 44 3f 9d 63 46 3f 86 41 42 3c 3f 7b 19 bc
       0.767239 0.7749575 0.011856442 -0.009367763
0002a0 66 53 4e 3e 7f 12 2c be 7b de 8f be 9c 00 50 be
       0.20149001 -0.1680393 -0.28099427 -0.20312732
0002b0 5c 3d 99 3e 61 59 d0 3e 55 2e bc 3e 80 75 1f 3a
       0.29929626 0.4069319 0.367541 0.00060828775
0002c0 62 52 ba be 7e f1 fd 3c 60 ba 14 3e 84 02 04 3e
       -0.36390978 0.030998942 0.14524221 0.12891585
0002d0 7f 85 3e 3e f6 aa 01 bd 4e c8 7b bd b9 10 4e be
       0.18605612 -0.03165718 -0.061470322 -0.20123567
0002e0 f0 6c 07 3c 7c e1 e8 3c 2d 3d 1d 3f 63 06 78 3e
       0.008265719 0.028427832 0.6142147 0.24221186
0002f0 ad fe ae be 4c 39 bc be 5f 8c 4c 3e c8 9f 5f be
       -0.34178677 -0.36762464 0.19975422 -0.21838295

transformer_encoder.layers.0.self_attn.o_proj.weight f4 [8, 8]
000000 45 b9 a0 bc 9f e8 bb be 98 88 f7 3e 07 d6 14 bf
       -0.019619593 -0.36700913 0.483464 -0.5813908
000010 df 1f b5 3e 28 11 f0 be 33 28 9f 3d 0f b2 86 3d
       0.35375878 -0.4688809 0.07771339 0.06576931
000020 24 7f b7 3e d1 77 8a 3e e0 3f 2a 3d c8 4d 41 3e
       0.35839188 0.27044538 0.041564822 0.18877327
000030 c4 8b 47 3d 71 77 df be 2a 07 6e 3e e7 30 e8 3e
       0.048717275 -0.43645814 0.2324492 0.4534981
000040 80 94 74 3e 57 eb 01 be 03 a4 6d be 9f d8 25 3e
       0.23884773 -0.12687431 -0.23207097 0.16195916
000050 76 aa 83 bf 06 ef 19 bf b8 73 cf bb 93 d7 d3 bd
       -1.0286396 -0.60130346 -0.0063309334 -0.10343852
000060 50 26 c1 be b9 7f 8f 3e 49 ba a8 3d f4 c1 12 bf
       -0.37724543 0.28027132 0.08238656 -0.573272
000070 b6 b7 17 3e 2f 8c 67 3e 73 97 46 bd 88 c7 7f 3c
       0.14816174 0.2261207 -0.048484277 0.015611537
000080 32 00 85 3e 98 b0 ae 3e 6b 39 e2 be 4b a6 dd 3e
       0.25976712 0.34119105 -0.4418443 0.43290934
000090 81 dd e9 be 20 15 5e be 41 9e 3e bf bc 74 07 3f
       -0.45676807 -0.21687746 -0.74460226 0.529125
0000a0 35 84 eb 3d 2e f2 82 bd 2a fd ba be c3 4f 04 3f
       0.11499826 -0.06393848 -0.36521274 0.51684207
0000b0 c6 29 ef bc ca d7 13 3e 68 08 cb be 1f 58 50 3e
       -0.029194724 0.14437786 -0.3965485 0.20346116
0000c0 10 2f cf be 46 1e 40 be a5 48 9c 3e 67 20 37 be
       -0.40465593 -0.18761548 0.30524173 -0.17883454
0000d0 ea 76 be 3e 0e e9 83 3d fa 5c 69 bd c6 86 f9 be
       0.372001 0.06440936 -0.056973435 -0.48735636
0000e0 62 54 43 be 3a 20 5b bc 3f 44 95 3e 50 2e 88 be
       -0.19075158 -0.013374383 0.2915363 -0.26597834
0000f0 7e 29 c7 3e 8c 65 55 bf 2f fe 0e 3e 7c 9b d6 be
       0.38898844 -0.83358073 0.13964151 -0.419155

transformer_encoder.layers.0.self_attn.o_proj.bias f4 [8]
000000 ac ee 57 3d f8 0c 63 3e 4a e8 3c 3e 8c 93 c6 3b
       0.05271785 0.22172916 0.18447986 0.0060600694
000010 0b 6a a5 3e 86 f5 4c 3e 4f c7 7a be e1 ea dc be
       0.32307467 0.20015535 -0.24490093 -0.43147948

transformer_encoder.layers.0.linear_net.0.weight f4 [16, 8]
000000 2d 6b a0 bf b0 d1 da be d0 94 3d bf c4 e6 62 3e
       -1.2532707 -0.42738104 -0.74055195 0.22158343
000010 d1 28 85 bf a8 76 ad be 7b c6 30 3f c5 c4 1f 3f
       -1.0403081 -0.3387959 0.6905286 0.6240962
000020 29 70 3e be 45 a9 85 bf 97 e5 df be ef b3 56 be
       -0.18597473 -1.0442282 -0.4372985 -0.20967077
000030 48 56 53 3e 6f 79 0a bf 80 8c 01 3f ad 9b f4 3e
       0.20638382 -0.5409154 0.5060501 0.4777502
000040 64 e3 3d bf d4 20 4e bf 2c 8c 04 bf d6 45 e8 be
       -0.74175096 -0.8051884 -0.51776385 -0.4536578
000050 58 0e 5c 3e 89 29 65 3e fe ab 98 3e 32 2e 13 bd
       0.21489847 0.22379126 0.2981872 -0.035932727
000060 9e 54 4f 3e de 22 a2 be 34 a8 26 3f 1c 6c c3 bd
       0.20247123 -0.31667227 0.6510041 -0.095421046
000070 10 48 90 bf 35 d6 66 bf e4 e6 8b 3e a9 2e f1 3e
       -1.1271992 -0.90170604 0.27324593 0.4710591
000080 fa 81 1d 3f 7a 79 31 bf 5d 35 f2 be 29 1e 17 3f
       0.61526453 -0.69325984 -0.47306338 0.59030396
000090 e0 7e b9 be 84 a3 05 bf 4c 15 04 3f 56 7c 69 3f
       -0.3622961 -0.5220263 0.51594996 0.91205347
0000a0 fe 53 16 be 3a 4f be be 05 e9 62 be 4f 1b 8e 3d
       -0.14680478 -0.3716982 -0.22159202 0.069388025
0000b0 61 86 0a bf c0 4c 00 bf 43 cc 1e 3f 5e ae 8d 3f
       -0.54111296 -0.5011711 0.6203043 1.1068838
0000c0 65 c1 be 3e ab 53 eb bd 73 21 91 3d 8a 35 4a 3e
       0.37256923 -0.11490568 0.07086458 0.19746986
0000d0 e0 92 4e bf 2b 6b 31 bf 8e 11 b4 3e 96 91 4b 3f
       -0.80692863 -0.6930415 0.35169643 0.7951902
0000e0 21 16 b7 be 2c 5d 79 be 11 e2 54 bd ef a7 4c bc
       -0.3575907 -0.24351948 -0.051973406 -0.01249121
0000f0 b8 95 42 3e d4 95 30 3e b6 2d 3d 3f 6d 45 88 3f
       0.19002426 0.17244655 0.73897874 1.0646187
000100 d3 c9 59 3f 40 f6 82 be 15 93 aa bd cc ac 2e bf
       0.85073584 -0.255785 -0.08328835 -0.6823242
000110 ba 1e 40 bf 6a 1a f4 be 78 06 e5 3e b7 08 29 3f
       -0.75046885 -0.47676402 0.44731498 0.6602892
000120 99 9e 1c be 43 34 5d bf 62 ca 32 be b5 91 29 be
       -0.15294875 -0.8640787 -0.17460015 -0.16559489
000130 f4 59 fd bc b9 e3 29 bd 72 30 89 3f 0c 90 1a 3f
       -0.030926682 -0.04147694 1.0717909 0.6037605
000140 64 0f bc 3d e1 38 0f 3e 6a 14 a2 3e c6 93 91 3e
       0.09182623 0.13986541 0.316562 0.28433055
000150 6a 11 5a bf 0b 4a 25 be 25 20 43 3f 81 ed 07 3f
       -0.8518282 -0.16141526 0.76220924 0.5309678
000160 19 93 f0 be b4 79 64 bf 87 df 16 bf 2c 96 e1 be
       -0.46987227 -0.89248204 -0.58934826 -0.44059885
000170 44 7d 7b 3e 87 19 72 3e 85 72 77 3d 6e e1 47 be
       0.24559504 0.2364255 0.06041195 -0.19519588
000180 aa f9 a9 bd 46 d8 65 bf 8c 46 01 bf 0f bf c5 be
       -0.08299573 -0.8978313 -0.5049827 -0.3862233
000190 e8 b5 e0 3d 69 b2 15 3e f8 fc 22 3f 3d 72 9f 3f
       0.10972196 0.1461884 0.6366725 1.2456738
0001a0 df 3c 11 3f ae 2a 94 be 6e 52 d9 be 8c 53 bb bc
       0.56733507 -0.28938812 -0.424457 -0.022866987
0001b0 bf 5c b9 bd b7 f0 73 bf 3a be 1d 3f 89 d4 2a 3f
       -0.09050893 -0.95289177 0.6161839 0.6673055
0001c0 ac 1c c6 3d f7 7f 90 ba b8 b3 a6 3d 64 0f fa 3c
       0.096734375 -0.0011024465 0.081397474 0.030524917
0001d0 49 82 93 bf 77 29 e0 be ee cb a9 3e 5a 78 17 3e
       -1.1524135 -0.43781635 0.33163399 0.14792004
0001e0 1c cd 1f 3e eb aa 80 bf 7c a9 09 3e 2f 1e 8a bd
       0.15605587 -1.005216 0.1344356 -0.06744038
0001f0 fb 1d 87 be 44 8b 30 be 96 9a 90 3f 70 d7 98 3f
       -0.2639006 -0.17240626 1.1297176 1.1940746

transformer_encoder.layers.0.linear_net.0.bias f4 [16]
000000 a5 13 89 bf 6e 74 3c bf d6 11 03 bd 4a 54 d5 be
       -1.070912 -0.7361516 -0.03199943 -0.4166587
000010 8b b3 39 bf 18 12 98 bf f0 3c 9a be d7 d5 6c bf
       -0.72539586 -1.1880522 -0.30124617 -0.92513794
000020 4c 3e 88 bd 37 fe 1c bf ec fe a6 bf 6a 19 b7 bd
       -0.06652507 -0.613254 -1.3046546 -0.08940394
000030 a0 88 66 bf e9 91 8b bf e5 b9 66 be 26 00 b9 bf
       -0.90052223 -1.0903903 -0.2253185 -1.445317

transformer_encoder.layers.0.linear_net.3.weight f4 [8, 16]
000000 ab 4a 78 bf 21 74 dc bd 39 55 9b 3e 49 90 6d bf
       -0.96988934 -0.10764337 0.30338457 -0.92798287
000010 08 3a 04 3f 0d 72 da 3d fe 77 0f bf d5 0c 49 bf
       0.5165105 0.10666285 -0.5604247 -0.78535205
000020 b9 5b d9 be aa 8c 00 bf 67 fd ad be bd 34 24 3e
       -0.4245279 -0.50214636 -0.33982393 0.16035743
000030 f2 89 82 bf f9 c0 b7 be 03 09 13 bf 73 f8 dd be
       -1.0198348 -0.35889414 -0.57435626 -0.43353614
000040 3f fa 30 bf 28 97 77 3e 38 39 85 bc 30 8c 14 3f
       -0.69131845 0.24178755 -0.016262636 0.5802641
000050 5d f5 da be 0c 39 99 be 48 83 fe 3c 1d 70 13 3f
       -0.42765322 -0.29926336 0.03106846 0.57592946
000060 fe 5a 23 bd 77 22 47 3e 92 d9 30 bf 38 94 aa 3c
       -0.0398817 0.19446741 -0.69081986 0.02082263
000070 e1 59 ad bd 17 ff 22 be 65 00 5f be 64 08 ed 3e
       -0.08464409 -0.15917622 -0.21777494 0.46295464
000080 b4 2c eb be 79 ea fb 3e 04 70 4d bd 5c 77 21 3d
       -0.45932543 0.49202326 -0.050155655 0.03942047
000090 29 a6 fe be 07 bb 49 3c c6 96 0a 3b 30 70 f8 3e
       -0.49736145 0.012312657 0.0021146997 0.48523092
0000a0 81 fc bd be d6 c0 20 3e 7f 83 a1 be f4 c7 b8 3e
       -0.37106708 0.15698561 -0.31545636 0.36090052
0000b0 2b c9 28 bf 0e 1e d8 be b1 60 ea bd f4 23 3b 3f
       -0.6593196 -0.4221043 -0.11444224 0.73101735
0000c0 1e c9 b1 bd 30 86 0e 3f d6 cf 20 bb 87 60 2a 3e
       -0.08680938 0.55673504 -0.0024537942 0.16638385
0000d0 38 98 c8 3e 23 32 82 be 70 61 3f be 4e 2c 17 3f
       0.39178634 -0.25428876 -0.18689513 0.5905198
0000e0 d4 87 35 bf 27 c9 4d 3f c8 6c c3 be 36 cb 18 3f
       -0.7091038 0.8038506 -0.3816893 0.59685075
0000f0 45 f6 1b 3e f4 e9 48 3f 84 ef d9 bd 0b 03 46 3f
       0.15230663 0.78481984 -0.10641387 0.77348393
000100 c4 51 48 bf 9a e1 f2 3d 0e 1d f7 be 3c 0c 35 3f
       -0.78249764 0.11859436 -0.48264354 0.70721793
000110 4f ea eb be c1 2e b9 be 39 77 5f 3e f2 03 0e 3f
       -0.460772 -0.36168483 0.21822824 0.5547477
000120 7f af 78 be b1 03 b6 3e 22 68 b7 be c9 12 5e bf
       -0.24285696 0.3554969 -0.35821635 -0.86747414
000130 f7 fa 9d 3e 2d 70 8a 3e b4 07 6f be 8f f4 28 3f
       0.30855533 0.27038708 -0.23342782 0.65998167
000140 62 08 94 bf 22 6d 90 bd c8 cf f9 be 48 54 1f 3f
       -1.1565058 -0.070520654 -0.48791337 0.6223798
000150 1d 43 c4 3e ce 37 c5 3e 21 2c 40 3f bd 4f 00 3f
       0.38332453 0.38519138 0.75067335 0.5012167
000160 18 a8 be 3e e3 36 94 3e 75 dc 16 bf 86 df 08 be
       0.3723762 0.28948125 -0.5893014 -0.13366517
000170 fa bb 85 3d eb 45 95 3e af 21 75 3e 8c 0a 1e 3f
       0.06529994 0.29154906 0.2393863 0.61734843
000180 f7 da 09 3f 7c 0e c6 be 2e 56 50 bc 0b e0 fb be
       0.5384974 -0.38682926 -0.012715859 -0.4919437
000190 2b 04 51 3f 00 ed 0b 3e 4a eb b9 be b0 0f 36 bf
       0.81646985 0.13664627 -0.36312324 -0.7111769
0001a0 6f 0a 84 3e b6 30 9f bd 46 0d 45 3f 76 14 24 3e
       0.2578921 -0.07772963 0.7697338 0.1602343
0001b0 68 94 75 3e 0d 9a 29 3e c1 1d 7e 3e 8f 7e 48 bf
       0.23982394 0.16562672 0.24816038 -0.78318113
0001c0 29 89 58 3f cf 09 01 3e 80 89 0a 3f 00 22 84 be
       0.8458429 0.12601398 0.5411606 -0.2580719
0001d0 b7 e1 00 3f e2 4f ff 3d 8a 9a 91 be f4 e5 cb be
       0.50344414 0.12466408 -0.28438216 -0.39823878
0001e0 a1 db 28 be 5e b5 0f bf 89 eb 14 3f 47 c7 21 3e
       -0.16490032 -0.5613612 0.581719 0.15798675
0001f0 8e 86 86 bd 7f 83 78 3e 1f 1b 83 3c ae 5b ef be
       -0.06568633 0.24268912 0.016004143 -0.46749634

transformer_encoder.layers.0.linear_net.3.bias f4 [8]
000000 02 67 5e 3d b2 bc e3 3e 49 07 7a 3e 53 9e c2 3d
       0.054297455 0.444799 0.24416842 0.09502854
000010 60 71 b7 3e 60 ff f6 3d d0 ae b5 be a8 72 b1 bd
       0.35828686 0.12060428 -0.35484934 -0.08664447

final_linear.weight f4 [1, 8]
000000 41 f1 c6 bd e0 dc 19 bd d0 84 64 bc e7 b3 02 3e
       -0.09713984 -0.03756416 -0.013947681 0.1276394
000010 a1 78 37 bd 1e 96 d9 bb 95 7c 59 3d 54 1e 57 bc
       -0.044792775 -0.00664021 0.053097326 -0.013129789

exp_avg f4 [8, 2]
000000 7e 43 b0 b9 61 7e 57 3a 12 4a 78 39 1f e5 8d 39
       -0.00033619622 0.0008220431 0.00023678716 0.00027064324
000010 7a 12 6b 39 e9 71 f6 38 18 8b 9b b8 02 0a 1b ba
       0.0002241823 0.000117514115 -7.416884e-05 -0.0005914272
000020 e3 b7 c4 38 2c 93 a0 39 ac b6 65 36 5b d4 c1 b7
       9.38026e-05 0.0003062723 3.4229988e-06 -2.3106279e-05
000030 b4 a9 86 b8 77 f7 82 38 45 c7 dd b8 f0 14 11 ba
       -6.4212276e-05 6.244977e-05 -0.00010575218 -0.0005534431

exp_avg_sq f4 [8, 2]
000000 e1 6d 1c 35 97 36 45 35 37 59 e3 34 7b ca e3 34
       5.8274424e-07 7.346766e-07 4.2346957e-07 4.242937e-07
000010 01 87 46 35 74 77 38 35 53 80 2a 34 77 07 4b 34
       7.3957204e-07 6.871917e-07 1.5879168e-07 1.8908564e-07
000020 9f 04 fc 33 cc 8b 12 34 92 84 78 34 b0 61 6c 34
       1.1735505e-07 1.3648167e-07 2.3145029e-07 2.2014751e-07
000030 b3 39 ac 34 94 12 b7 34 47 65 e6 34 02 e6 02 35
       3.2079478e-07 3.4099924e-07 4.2914527e-07 4.876348e-07

exp_avg f4 [8]
000000 d6 92 a7 3a 7c 42 04 3a b0 0d 97 39 87 17 58 ba
       0.0012784849 0.00050453073 0.00028811162 -0.0008243252
000010 38 66 b3 39 bc 37 aa b8 d3 97 85 39 23 81 4c ba
       0.000342177 -8.116613e-05 0.00025480855 -0.00078012253

exp_avg_sq f4 [8]
000000 42 2e 70 36 aa 59 ca 35 43 17 3b 36 b2 99 39 35
       3.5789712e-06 1.5076268e-06 2.7878712e-06 6.9141527e-07
000010 ef 6d e0 34 57 ae 87 35 a1 2f 9a 35 ab ec f0 35
       4.1803239e-07 1.0109023e-06 1.1487756e-06 1.7950273e-06

exp_avg f4 [24, 8]
000000 21 cf 6f 37 de 4d 92 37 b9 d7 44 37 0a d9 dc b5
       1.4293736e-05 1.7440816e-05 1.1732737e-05 -1.6454444e-06
000010 40 d9 da b5 61 43 bc b6 5d 3d b8 b6 93 9c 93 34
       -1.6305494e-06 -5.6106805e-06 -5.490771e-06 2.7494806e-07
000020 49 a3 ae b6 fc fe fb b6 00 db 13 b7 98 6e 8b b3
       -5.204613e-06 -7.510067e-06 -8.812873e-06 -6.492809e-08
000030 67 b0 37 36 59 29 a9 36 85 d2 79 36 3a e1 ec 35
       2.7371805e-06 5.041406e-06 3.722643e-06 1.764892e-06
000040 94 46 89 37 94 2a a2 37 a9 33 57 37 f8 b3 06 b6
       1.6364538e-05 1.9331732e-05 1.2827027e-05 -2.0072312e-06
000050 c6 96 f3 b5 3b e6 d5 b6 7e c1 cb b6 60 c8 e8 33
       -1.8148792e-06 -6.374697e-06 -6.072397e-06 1.083979e-07
000060 50 a8 4e 37 0c 06 66 37 0d 5a 0d 37 8a e9 e9 b5
       1.2317745e-05 1.3710476e-05 8.4252215e-06 -1.7427822e-06
000070 92 b9 88 b5 c4 df 92 b6 73 5f 8a b6 fc 2a 98 33
       -1.0186798e-06 -4.377189e-06 -4.1238322e-06 7.0858704e-08
000080 bc a7 13 b4 57 6b 02 b6 88 e5 89 b6 2e 81 6e b5
       -1.3751463e-07 -1.943399e-06 -4.109639e-06 -8.884989e-07
000090 0b 8c a7 35 a0 03 0d 36 92 6a cf 35 87 7d 7d 35
       1.2483227e-06 2.1012747e-06 1.5453718e-06 9.443251e-07
0000a0 d2 ae 81 37 13 b3 0c 37 39 63 a2 36 9e e4 97 b6
       1.5459405e-05 8.386344e-06 4.8395273e-06 -4.526765e-06
0000b0 99 79 34 b5 7a a2 d8 b6 a9 88 31 b6 e0 a7 a5 b6
       -6.7232173e-07 -6.4562164e-06 -2.6454602e-06 -4.9369264e-06
0000c0 7e 28 fa 34 58 35 17 b6 d6 86 b2 b6 7e b3 ba b5
       4.659559e-07 -2.2531804e-06 -5.3205104e-06 -1.3910319e-06
0000d0 57 b0 dc 35 35 23 2b 36 d0 e5 03 36 73 73 8e 35
       1.6442599e-06 2.5501479e-06 1.965429e-06 1.0613425e-06
0000e0 63 b1 2d 36 3d 04 4d b4 ec 9e 2f b6 2f 99 cb b5
       2.5882262e-06 -1.9093655e-07 -2.6169537e-06 -1.5169261e-06
0000f0 1b 9c 6f 35 96 5c 29 35 ba 78 60 35 39 ec 8e b3
       8.92616e-07 6.3092136e-07 8.3622183e-07 -6.655359e-08
000100 6c 09 b9 38 e3 c1 c3 b9 17 d8 cf b9 95 08 16 b9
       8.8232424e-05 -0.00037337755 -0.00039643116 -0.00014308312
000110 b3 ac e1 38 f2 38 2b 37 81 02 24 39 a3 c7 43 b9
       0.00010761004 1.0205653e-05 0.00015641192 -0.0001867102
000120 cd c4 a4 b7 f3 a5 d0 b8 4d 70 c1 b8 12 ce 10 b7
       -1.9641966e-05 -9.949123e-05 -9.223875e-05 -8.631048e-06
000130 1a c6 81 37 5f 0e bb 37 2f 9f 1a 38 25 45 93 b7
       1.5470247e-05 2.229883e-05 3.6864712e-05 -1.7555963e-05
000140 6d aa 53 36 d5 f0 14 39 ef 60 09 39 4c 38 a5 37
       3.154065e-06 0.00014204097 0.00013101449 1.9695748e-05
000150 23 8b 7b b7 09 ad 86 b7 71 b6 5a b8 d9 a6 35 38
       -1.4993161e-05 -1.605462e-05 -5.2145162e-05 4.330915e-05
000160 f4 b1 14 37 05 eb 71 b9 a9 ef 7b b9 1a c3 74 b8
       8.86292e-06 -0.00023071103 -0.00024026506 -5.8355836e-05
000170 b1 01 3f 38 58 f1 17 38 f8 ce c6 38 64 7d 9d b8
       4.5539524e-05 3.6225974e-05 9.479927e-05 -7.509699e-05
000180 56 de 91 37 18 e0 2c 38 d5 e3 bc 37 ff 15 58 b6
       1.738888e-05 4.12167e-05 2.2517439e-05 -3.2199312e-06
000190 ec c1 08 35 c0 e7 26 b5 e9 88 30 b7 c2 e3 5b 37
       5.094614e-07 -6.217706e-07 -1.0522294e-05 1.3106446e-05
0001a0 d8 c4 0b 37 45 c4 8b 37 12 b2 06 37 7e c2 0f b6
       8.330877e-06 1.6661486e-05 8.028483e-06 -2.142187e-06
0001b0 8b 15 10 35 da 9c 03 b4 dc 6f 85 b6 e3 d6 ab 36
       5.367553e-07 -1.2257388e-07 -3.976731e-06 5.1212132e-06
0001c0 a5 a8 3c 37 f6 7e f5 37 a6 af 8f 37 41 46 cd b5
       1.1244939e-05 2.9265397e-05 1.7128721e-05 -1.5294137e-06
0001d0 c0 78 38 33 19 52 42 b5 b7 45 02 b7 58 7b 1b 37
       4.295066e-08 -7.23901e-07 -7.764836e-06 9.267438e-06
0001e0 4d de 09 b6 08 65 19 b8 65 cd 0d b8 ad 16 d9 b6
       -2.0543987e-06 -3.6572135e-05 -3.380831e-05 -6.4697438e-06
0001f0 35 96 7a 36 29 2a 87 36 a3 45 5a 37 73 0c 40 b7
       3.7340335e-06 4.0282216e-06 1.3010026e-05 -1.144699e-05
000200 ae d3 ad 36 2c 7b 95 b7 d6 ff 2c b8 d2 23 4a b7
       5.1804445e-06 -1.781954e-05 -4.124626e-05 -1.2048478e-05
000210 e1 fc 96 37 59 2a ae 37 41 02 83 37 36 6b d1 36
       1.799915e-05 2.0762136e-05 1.5617466e-05 6.2411664e-06
000220 30 1f 58 36 ba 0f 8c b7 a7 31 1a b8 d8 17 29 b7
       3.2204662e-06 -1.6696624e-05 -3.6762704e-05 -1.00787365e-05
000230 8f 40 83 37 3d 20 9c 37 b2 17 6b 37 92 1b bf 36
       1.564648e-05 1.8611661e-05 1.40126085e-05 5.695453e-06
000240 5a f5 87 36 8e ad 2d b7 9e bd cf b7 f0 87 ff b6
       4.051876e-06 -1.0352012e-05 -2.476462e-05 -7.6154174e-06
000250 d5 08 37 37 ce df 4c 37 d0 ac 1c 37 c4 60 67 36
       1.0909706e-05 1.2211456e-05 9.338561e-06 3.4478007e-06
000260 36 ba 18 b7 16 5d 50 b8 11 fd bc b8 3a 68 8e b7
       -9.103262e-06 -4.9677757e-05 -9.011676e-05 -1.6976253e-05
000270 98 8f 12 38 1b 82 4a 38 86 21 14 38 96 2c 8e 37
       3.4942845e-05 4.8281723e-05 3.531717e-05 1.6948481e-05
000280 47 fd 88 b8 00 62 3c 39 a3 a3 51 39 f6 93 9c 38
       -6.532162e-05 0.00017965585 0.00019992753 7.4662195e-05
000290 b3 e5 6a b8 79 e8 9d 36 af 3f a9 b8 4a a4 cb 38
       -5.600387e-05 4.706028e-06 -8.07041e-05 9.7103955e-05
0002a0 04 e0 32 b9 77 88 23 39 47 40 74 39 21 76 1f 39
       -0.00017058855 0.00015595728 0.00023293598 0.00015207428
0002b0 89 6d d8 b8 9b 57 05 38 b5 a3 be b8 3d 68 1e 39
       -0.00010320085 3.179126e-05 -9.090399e-05 0.00015106886
0002c0 34 61 47 38 d4 72 93 b7 3a 5f 35 b8 e1 a2 16 b8
       4.7535825e-05 -1.7577237e-05 -4.324245e-05 -3.591448e-05
0002d0 6f c4 9d 37 63 a0 c4 b6 16 e7 75 37 be fb f9 b7
       1.880733e-05 -5.8599267e-06 1.4656942e-05 -2.980034e-05
0002e0 80 6e e2 38 80 d0 8e b9 a6 a4 a5 b9 e7 ec f8 b8
       0.00010797102 -0.00027239695 -0.00031593925 -0.00011869688
0002f0 5b 60 b9 38 74 54 95 36 89 9b 02 39 c6 0d 18 b9
       8.839435e-05 4.4503777e-06 0.00012455707 -0.0001450098

exp_avg_sq f4 [24, 8]
000000 5a 0c 10 2e 66 93 2b 2f 3f 31 19 2f 3f ca ab 2b
       3.275278e-11 1.5604726e-10 1.3932765e-10 1.2206415e-12
000010 b8 a2 82 2c 1c 3f 9e 2d 82 a4 b8 2d 9e 28 4b 2c
       3.7128876e-12 1.7990547e-11 2.0991434e-11 2.8870582e-12
000020 af c7 15 2c 73 ef 51 2d df 58 5f 2d 43 98 0d 2a
       2.128502e-12 1.1933443e-11 1.2695816e-11 1.2576142e-13
000030 96 10 2a 2b 3b 12 0c 2c 66 6a 08 2c 71 03 ba 2a
       6.041915e-13 1.9905317e-12 1.9385825e-12 3.3042625e-13
000040 91 5e 43 2e 5c cf 63 2f e1 b8 4b 2f 5b 4c ef 2b
       4.442186e-11 2.0719199e-10 1.8528425e-10 1.7003164e-12
000050 78 c0 89 2c f4 0d cf 2d 99 9d f5 2d fa 0e 84 2c
       3.9151425e-12 2.3539372e-11 2.7923263e-11 3.7533284e-12
000060 4b d1 f8 2d a6 77 09 2f 26 68 fe 2e 58 43 17 2c
       2.828728e-11 1.2502585e-10 1.1569083e-10 2.1495774e-12
000070 bb a6 4e 2d df 3f a6 2d 5b 70 94 2d bd 43 5e 2c
       1.1746766e-11 1.890038e-11 1.6875548e-11 3.15857e-12
000080 25 62 6a 2c 9e 43 3c 2c ae a7 d6 2c 7b 71 71 2a
       3.3307881e-12 2.6753942e-12 6.100862e-12 2.1444471e-13
000090 59 10 c1 2b 46 66 6e 2c 5c e0 58 2b ca ac 5e 2b
       1.3718012e-12 3.3878607e-12 7.7049977e-13 7.9110037e-13
0000a0 97 dd 0c 2e 1d e6 00 2e a9 93 6f 2e 19 ef 50 2b
       3.2029126e-11 2.9308212e-11 5.4473457e-11 7.422826e-13
0000b0 84 87 af 2c c9 72 ed 2d 85 70 21 2d 49 d7 1e 2d
       4.9888444e-12 2.6994755e-11 9.176775e-12 9.029063e-12
0000c0 90 d5 fa 2c 9a d8 cf 2c 49 e0 59 2d da d3 c1 2a
       7.1291376e-12 5.9073415e-12 1.2384823e-11 3.4430689e-13
0000d0 10 17 1e 2c bb 98 e5 2c b7 27 ee 2b d1 32 f1 2b
       2.2465953e-12 6.525528e-12 1.692194e-12 1.7138184e-12
0000e0 1f 63 1b 2d 31 33 06 2d 9f b3 eb 2d 98 9e 98 2b
       8.832739e-12 7.628385e-12 2.6796175e-11 1.0844268e-12
0000f0 b8 d7 25 2d dc 09 90 2d 36 78 22 2c 37 27 1c 2c
       9.427063e-12 1.6375283e-11 2.3088315e-12 2.2190702e-12
000100 bf ce 2c 33 88 ed df 34 40 eb 0e 35 e0 fa 95 33
       4.0234905e-08 4.1709814e-07 5.3241456e-07 6.983987e-08
000110 f5 08 a0 34 71 3e 29 34 94 e7 cf 33 30 5b 07 34
       2.980884e-07 1.5762068e-07 9.6813125e-08 1.2606029e-07
000120 c6 bd 3b 32 64 6f 07 33 6f 09 95 33 c9 c1 96 32
       1.0927982e-08 3.1533446e-08 6.940069e-08 1.7550422e-08
000130 98 a3 a5 33 34 dd 2c 33 e4 58 06 33 e8 10 95 33
       7.713169e-08 4.0248054e-08 3.1280152e-08 6.9414284e-08
000140 70 7a c5 31 e3 a3 db 32 ea 3d 6e 33 15 9a a0 32
       5.747374e-09 2.5569483e-08 5.5470004e-08 1.869652e-08
000150 f2 f0 13 33 78 a6 b8 32 6f 3b 29 32 4a ef f0 32
       3.4445243e-08 2.149612e-08 9.850608e-09 2.8048493e-08
000160 a0 ff 39 32 8f f5 8f 33 39 01 22 34 a8 f8 5e 33
       1.082654e-08 6.703623e-08 1.508787e-07 5.1914554e-08
000170 3d 8c 8a 33 c4 23 43 33 7b 86 86 32 60 ad 6e 33
       6.451635e-08 4.5434504e-08 1.5660808e-08 5.5571377e-08
000180 5b 64 9c 2f fd 07 09 31 31 31 29 31 54 ff f6 2d
       2.8447542e-10 1.9940665e-09 2.4620699e-09 2.808035e-11
000190 7b 9c a5 2e 1c 7c d0 2f 72 26 cb 2f 69 3a f0 2d
       7.531128e-11 3.7923165e-10 3.6952802e-10 2.731078e-11
0001a0 18 64 85 2e 42 af e0 2f ef 69 0b 30 0f 0d cf 2c
       6.06592e-11 4.086989e-10 5.0718446e-10 5.8847436e-12
0001b0 2d 1b a2 2d ae 40 b1 2e 74 3c a7 2e b2 f4 b8 2c
       1.8429336e-11 8.0605175e-11 7.6050194e-11 5.256761e-12
0001c0 4b 2d 05 2f 4d 49 6e 30 f0 b3 92 30 62 fe 6a 2d
       1.2112371e-10 8.668806e-10 1.0674039e-09 1.3357844e-11
0001d0 31 5d 2e 2e 65 05 35 2f 44 94 2f 2f 40 bf 5d 2d
       3.964579e-11 1.646377e-10 1.5968832e-10 1.2604862e-11
0001e0 94 63 4e 2d b7 bb 62 2f e1 d5 7b 2f 35 8e d5 2c
       1.1731855e-11 2.062127e-10 2.2904302e-10 6.0696123e-12
0001f0 a0 fa 0e 2d d3 5c b6 2d 9e 7f 12 2e 15 a3 0c 2d
       8.127415e-12 2.0732227e-11 3.3309903e-11 7.99429e-12
000200 70 67 13 2e 89 0a 12 2f 5e 85 cc 2f 38 8e 4a 2d
       3.35158e-11 1.3282365e-10 3.7202147e-10 1.15139495e-11
000210 04 07 73 2e 5b 4f 06 2f 81 87 74 2e dc da db 2d
       5.5258034e-11 1.2215422e-10 5.559953e-11 2.499461e-11
000220 d7 86 61 2e 3d b2 1b 2f e9 b9 d3 2f cf 71 32 2d
       5.127884e-11 1.4160491e-10 3.8512774e-10 1.0143399e-11
000230 f7 94 7c 2e 55 b8 17 2f d4 ef 7b 2e 02 f4 05 2e
       5.7430474e-11 1.3798858e-10 5.7283803e-11 3.045742e-11
000240 da c7 89 2d 9c 6c 82 2e 1a 54 3d 2f f2 db e7 2c
       1.5663849e-11 5.9310085e-11 1.7219329e-10 6.5898337e-12
000250 41 84 0b 2e 84 19 80 2e 9d a4 cf 2d 3d 2f 37 2d
       3.1722406e-11 5.8252986e-11 2.3606278e-11 1.0412835e-11
000260 89 ed b0 30 51 f8 06 31 41 29 9a 31 6e 06 1e 2e
       1.2873197e-09 1.9640718e-09 4.48668e-09 3.593075e-11
000270 af 74 05 30 34 d7 03 31 f3 13 49 30 f3 60 18 30
       4.8550935e-10 1.9185338e-09 7.3151724e-10 5.543505e-10
000280 5b 13 4b 32 35 1b 1d 34 52 d2 51 34 d7 a8 03 33
       1.1820556e-08 1.4631662e-07 1.9541156e-07 3.0654373e-08
000290 27 18 8d 33 bd 36 29 33 e6 05 2b 33 4d 4e 7f 33
       6.5702174e-08 3.9398163e-08 3.9819405e-08 5.944303e-08
0002a0 28 1f c8 32 c6 fd e8 34 e2 c3 d4 34 fd f1 95 33
       2.3297233e-08 4.3398012e-07 3.96306e-07 6.9823706e-08
0002b0 00 86 2d 34 5f 18 2a 33 bd 80 8a 33 8a 6b 86 33
       1.616063e-07 3.9603375e-08 6.449543e-08 6.2594225e-08
0002c0 3e d1 2a 32 dc 57 53 33 81 0a 27 33 06 98 a3 32
       9.9428785e-09 4.9207173e-08 3.889227e-08 1.904483e-08
0002d0 07 36 12 33 d0 d7 04 32 a0 7d c4 32 f8 1d 58 33
       3.404241e-08 7.732481e-09 2.287453e-08 5.0318675e-08
0002e0 fd 42 dc 32 be 70 d8 34 c0 7d c0 34 ba 1d 9d 33
       2.5641834e-08 4.0315166e-07 3.5854282e-07 7.3162894e-08
0002f0 c5 7d 48 34 1e e9 4d 33 3e 16 9c 33 0e f8 cc 33
       1.8672206e-07 4.79423e-08 7.268362e-08 9.544611e-08

exp_avg f4 [8, 8]
000000 e6 79 df 38 9b 85 60 b7 8c bd 3d b8 c6 ce 62 38
       0.00010656174 -1.3382548e-05 -4.523764e-05 5.407517e-05
000010 3e 74 75 38 f8 a1 8f 38 a7 b5 00 b8 7c 41 64 b8
       5.852081e-05 6.8489404e-05 -3.0686755e-05 -5.4420423e-05
000020 96 0f c3 39 39 d0 fb 37 d1 ba 45 b9 c8 af 49 39
       0.0003720491 3.0018493e-05 -0.00018856979 0.00019234337
000030 0a 66 3c 39 d2 55 44 39 a6 8f 68 b8 96 ad 2c b9
       0.0001796709 0.00018723987 -5.5446893e-05 -0.00016467864
000040 b8 32 ca 38 c8 e1 c7 36 59 75 39 b8 bf dd 44 38
       9.641558e-05 5.9569466e-06 -4.4216726e-05 4.693656e-05
000050 46 f7 45 38 3b 54 6e 38 97 9f f2 b7 2b 2f 4b b8
       4.719875e-05 5.6822068e-05 -2.8922963e-05 -4.84429e-05
000060 25 0e e3 b7 42 29 0d b7 25 a6 a3 37 a2 4b b8 b7
       -2.7067095e-05 -8.413861e-06 1.9508481e-05 -2.1969729e-05
000070 be 02 cb b8 91 c3 b4 b8 f5 d4 5f 36 17 c0 bd 38
       -9.680305e-05 -8.619496e-05 3.3353547e-06 9.048002e-05
000080 fe b0 ab b8 a5 29 dd 35 9e 68 3b 38 1d 67 44 b8
       -8.186883e-05 1.6477903e-06 4.4681707e-05 -4.6826073e-05
000090 c2 43 15 37 3e 98 77 37 37 f9 ce b6 c7 e7 83 b7
       8.896868e-06 1.4757794e-05 -6.168291e-06 -1.5724347e-05
0000a0 46 a6 04 b6 d6 ba 3a 36 8f 45 06 36 07 d3 87 b6
       -1.9766317e-06 2.7824913e-06 2.0008044e-06 -4.0478803e-06
0000b0 71 bd c3 36 d8 f0 32 37 00 41 3a b5 91 47 f9 b6
       5.8335067e-06 1.0665703e-05 -6.9384987e-07 -7.4291097e-06
0000c0 37 ba 16 b9 57 0d fb b7 2c ca 92 38 a0 e9 8d b8
       -0.00014374485 -2.9927744e-05 6.99948e-05 -6.76692e-05
0000d0 0a af d2 b8 c4 4b ec b8 2e 15 ed 37 36 3d d1 38
       -0.00010046184 -0.000112674694 2.8262464e-05 9.977298e-05
0000e0 a0 fc 72 b8 e6 81 e9 b7 33 c9 ca 37 90 ca 8a b7
       -5.793257e-05 -2.7836253e-05 2.4173967e-05 -1.6545207e-05
0000f0 cc ab 68 b8 29 df 8e b8 f7 68 7a 37 69 e2 6f 38
       -5.547311e-05 -6.8126545e-05 1.49256e-05 5.71929e-05

exp_avg_sq f4 [8, 8]
000000 e1 99 e2 34 be c2 8f 33 e5 a7 80 33 fb 65 4e 33
       4.2207742e-07 6.69438e-08 5.991004e-08 4.8055863e-08
000010 42 21 18 34 d0 0e d7 33 f5 2a e3 32 c1 bd 19 34
       1.4168202e-07 1.0014412e-07 2.6445813e-08 1.4318267e-07
000020 1b b6 8f 35 e5 75 0f 34 c4 a2 86 34 55 d5 19 34
       1.070733e-06 1.3360803e-07 2.5077873e-07 1.4326845e-07
000030 bd 97 e7 34 6f c3 4f 34 9e 44 2b 34 10 60 e4 34
       4.3137507e-07 1.9349476e-07 1.5950579e-07 4.2538204e-07
000040 c6 d0 c9 34 f4 56 65 33 d4 44 aa 33 a7 fe 57 33
       3.759107e-07 5.33973e-08 7.928762e-08 5.0290193e-08
000050 ba ee 1c 34 b2 77 a6 33 84 e0 43 33 2b ab 15 34
       1.461548e-07 7.75175e-08 4.560617e-08 1.3938977e-07
000060 cd 04 09 34 b3 ba 55 32 60 8b 48 33 28 14 65 32
       1.2760866e-07 1.2440682e-08 4.669289e-08 1.3334137e-08
000070 7e 7a cf 33 fe 5f fd 32 eb bb 57 33 26 9a b6 33
       9.66147e-08 2.9496729e-08 5.02295e-08 8.503075e-08
000080 93 cf e1 33 b0 f1 86 32 03 06 23 33 f3 08 a8 32
       1.05151365e-07 1.570956e-08 3.7956863e-08 1.9561844e-08
000090 d0 74 9a 33 e2 9c ab 32 be 61 11 33 c1 20 93 33
       7.192432e-08 1.9978362e-08 3.384934e-08 6.851179e-08
0000a0 8f 74 0e 34 73 91 90 32 a6 bb 8d 33 b7 ea 68 32
       1.3267184e-07 1.6829949e-08 6.599957e-08 1.3557545e-08
0000b0 cc a8 dd 33 a4 24 1c 32 01 ce 8e 33 b2 3d 86 33
       1.03218184e-07 9.088726e-09 6.649862e-08 6.2510836e-08
0000c0 f7 37 6c 35 05 d1 bc 33 a5 46 a5 34 b2 89 b5 33
       8.799829e-07 8.7924526e-08 3.0785046e-07 8.453516e-08
0000d0 a5 c2 12 35 ea ec fe 33 a1 12 a5 34 66 ef c5 34
       5.4672483e-07 1.1870891e-07 3.07472e-07 3.6868295e-07
0000e0 48 55 02 34 a3 92 6a 32 99 e4 96 32 d8 90 b0 32
       1.2138219e-07 1.3653934e-08 1.7566252e-08 2.0554964e-08
0000f0 b1 a2 6b 33 ee 8d 19 33 e3 90 6e 32 0d 4a 0e 34
       5.486317e-08 3.5752173e-08 1.3886367e-08 1.325172e-07

exp_avg f4 [8]
000000 ea 5e 0a 3a 45 f0 75 3a 0b d5 d9 39 4c f8 77 b9
       0.00052784255 0.0009381811 0.00041548195 -0.00023648253
000010 a8 29 b9 38 76 83 e2 37 e9 95 0b ba 1a 8c 91 b9
       8.8292465e-05 2.7002516e-05 -0.00053247676 -0.0002776094

exp_avg_sq f4 [8]
000000 d9 24 7f 35 cd 4c 12 36 97 e8 51 35 6b a0 3f 34
       9.5048523e-07 2.18004e-06 7.819703e-07 1.7846621e-07
000010 f6 12 91 34 49 0c 2f 34 1c 6e a0 35 37 52 e9 34
       2.702215e-07 1.6302614e-07 1.1952975e-06 4.345945e-07

exp_avg f4 [16, 8]
000000 6c c7 bd b8 cb 31 93 37 ea d2 d6 b8 d0 2d 22 b9
       -9.0493675e-05 1.7546952e-05 -0.00010243601 -0.0001546659
000010 cd 80 f3 38 1a 0b 23 39 eb 43 8c b8 8c df 2a b9
       0.00011611134 0.00015549027 -6.688371e-05 -0.00016295741
000020 68 a6 8f b7 4d f3 7f b7 0d f6 e9 b7 ee ba 40 b7
       -1.7124417e-05 -1.5255832e-05 -2.789034e-05 -1.1487615e-05
000030 65 0f 27 36 fb 6f a4 37 7e 92 95 36 6e 35 4a b7
       2.48939e-06 1.9602468e-05 4.4576e-06 -1.2052578e-05
000040 fc fb 3a 37 a6 38 53 b8 19 a6 20 b8 b7 ed e0 38
       1.1145134e-05 -5.0359078e-05 -3.8301663e-05 0.0001072543
000050 17 d6 1e b9 30 c8 ca b8 02 3a f1 38 1f b4 83 39
       -0.00015147809 -9.6693984e-05 0.0001150258 0.00025120468
000060 1e 8b fd 35 65 69 49 b6 60 b0 53 b5 22 e1 07 37
       1.8890457e-06 -3.0012682e-06 -7.8860285e-07 8.099045e-06
000070 53 59 c4 b6 ac fb f4 b6 5e 26 bb b3 a4 f2 32 b7
       -5.851654e-06 -7.301065e-06 -8.714845e-08 -1.0666121e-05
000080 d5 78 74 36 25 bf 06 37 37 63 30 37 ef 13 a8 b6
       3.6429167e-06 8.031527e-06 1.0513518e-05 -5.0091107e-06
000090 27 ab fc 35 a2 27 12 b6 87 a8 8d b6 11 b7 39 36
       1.8825275e-06 -2.1778765e-06 -4.2217466e-06 2.7673707e-06
0000a0 ba 9f e7 32 83 b9 db b3 b5 33 1e b4 89 a6 c8 b3
       2.6964575e-08 -1.02317266e-07 -1.4733708e-07 -9.343518e-08
0000b0 d6 e1 c4 32 e4 67 8a b1 f1 25 40 33 60 d9 22 b2
       2.2920101e-08 -4.0281396e-09 4.473799e-08 -9.479066e-09
0000c0 da 49 ab 34 6d 39 e2 b5 3f 9c d2 b5 59 42 92 35
       3.1904966e-07 -1.6855025e-06 -1.5691693e-06 1.0897157e-06
0000d0 c4 71 6b b5 09 b1 0c b6 ab 50 b3 34 80 18 0e b6
       -8.770987e-07 -2.0964674e-06 3.3400042e-07 -2.117391e-06
0000e0 82 4d 01 b6 1c 61 6d b6 7a b3 cd b6 26 27 38 b5
       -1.9267613e-06 -3.5372277e-06 -6.13037e-06 -6.860231e-07
0000f0 07 d3 4b b5 ad 5f 19 36 6d 35 16 36 aa f3 79 b5
       -7.593048e-07 2.2854467e-06 2.238284e-06 -9.3114306e-07
000100 e1 48 54 b7 93 e4 87 b7 fa a0 dc b7 f5 6e 14 36
       -1.2653153e-05 -1.6199692e-05 -2.6301004e-05 2.2118304e-06
000110 e6 38 d2 b6 1f fd f3 36 5a ca 04 37 3b 07 44 b7
       -6.2651116e-06 7.2714315e-06 7.914927e-06 -1.1684194e-05
000120 85 f3 94 36 63 34 2f 37 c5 b4 78 37 70 c1 f9 b6
       4.439093e-06 1.044301e-05 1.4824041e-05 -7.4432974e-06
000130 e6 a5 91 36 61 fc 5c b6 cd a2 b0 b6 9a 60 f1 36
       4.34065e-06 -3.2929458e-06 -5.2641612e-06 7.1936056e-06
000140 aa 78 ed b2 0a a0 5d b4 ca 19 b9 b4 e5 7b 66 b4
       -2.7645303e-08 -2.0640451e-07 -3.44777e-07 -2.1465492e-07
000150 7c b6 e0 33 d5 c0 23 b3 97 36 7b 33 08 5d 99 b3
       1.04640066e-07 -3.8126775e-08 5.849014e-08 -7.14154e-08
000160 84 57 db 37 82 30 e6 b8 59 a3 f6 b7 1d 39 99 39
       2.6147587e-05 -0.0001097629 -2.940155e-05 0.00029224987
000170 ca 6a af b9 54 d1 7a b9 c7 79 77 39 98 85 0c 3a
       -0.00033458165 -0.00023919839 0.00023601121 0.0005360483
000180 fd d6 9a 36 28 88 52 37 64 9a cf 37 88 17 df b6
       4.6145856e-06 1.2548677e-05 2.4748217e-05 -6.6486573e-06
000190 5c 25 0d 37 40 6f 7f b6 bd e3 26 b7 9d 6c 46 36
       8.412953e-06 -3.8062717e-06 -9.9473955e-06 2.956752e-06
0001a0 39 87 41 b2 8d a7 42 33 2d ac 93 31 6f 99 8a 33
       -1.1264825e-08 4.532153e-08 4.297837e-09 6.454035e-08
0001b0 d4 b1 92 b2 10 a8 a9 33 e6 8a 2f b2 f1 20 0d b3
       -1.7077504e-08 7.900246e-08 -1.02179225e-08 -3.285908e-08
0001c0 ff e9 99 b5 78 5c c1 36 e6 42 37 36 1d aa 59 b7
       -1.146749e-06 5.762613e-06 2.7308065e-06 -1.29738155e-05
0001d0 32 51 f0 36 3c 82 02 37 dc 5f 5c b5 4b 13 5a 37
       7.1620098e-06 7.778926e-06 -8.209588e-07 1.2998305e-05
0001e0 16 26 d9 b5 32 f6 25 b6 b8 0f 9c b6 1b 56 15 b4
       -1.6178844e-06 -2.473022e-06 -4.650992e-06 -1.3908031e-07
0001f0 40 e8 85 b5 e2 5e e0 35 cd 51 e6 35 4c 0a 2c b5
       -9.976866e-07 1.6716915e-06 1.7160143e-06 -6.4089977e-07

exp_avg_sq f4 [16, 8]
000000 20 6a a0 31 ee 48 c6 31 3a 2c 7c 32 df 94 b6 31
       4.668678e-09 5.7708496e-09 1.46783865e-08 5.313822e-09
000010 df 9d 95 31 88 07 52 32 60 c6 0b 32 fa 8c 83 32
       4.3544186e-09 1.2225321e-08 8.13597e-09 1.5314516e-08
000020 68 87 05 32 e4 fe 00 32 6e 07 dc 32 ef b0 75 32
       7.772407e-09 7.508536e-09 2.561475e-08 1.4301107e-08
000030 ee 00 1e 33 9c 03 ac 32 23 7d 6e 32 16 82 09 33
       3.6788087e-08 2.0025077e-08 1.3881876e-08 3.201611e-08
000040 2f 90 bc 32 0b 0b 6e 32 d8 c3 8f 33 f5 1a b9 33
       2.1951648e-08 1.3855934e-08 6.69458e-08 8.619637e-08
000050 3d e4 9e 33 86 46 93 33 77 11 99 32 a7 b0 d9 33
       7.3989646e-08 6.858049e-08 1.7819486e-08 1.0136983e-07
000060 33 b6 95 2f e8 03 db 31 2f 21 29 31 b1 27 4d 31
       2.7232402e-10 6.374183e-09 2.46116e-09 2.9853988e-09
000070 a7 c2 9f 31 c8 16 da 31 f2 fa 62 32 6e 82 35 32
       4.6496385e-09 6.347225e-09 1.321199e-08 1.0565243e-08
000080 43 fa 27 30 14 36 38 30 75 46 09 30 d0 c2 fa 2c
       6.110989e-10 6.701566e-10 4.9940435e-10 7.127056e-12
000090 ff a3 33 30 df 64 e3 30 0d a3 6a 2f da 20 88 2f
       6.5352873e-10 1.6545093e-09 2.1340103e-10 2.4761598e-10
0000a0 49 a8 88 2c d0 36 75 2f 72 94 87 2f a7 68 f1 2f
       3.884036e-12 2.2302094e-10 2.4661834e-10 4.3912005e-10
0000b0 6f 65 96 2c 12 de 1f 2f 75 94 63 2e 90 3a 98 2d
       4.274518e-12 1.4539861e-10 5.174568e-11 1.7306406e-11
0000c0 2b b1 c7 2f 62 21 35 32 a1 41 9b 31 8b 30 95 31
       3.6323775e-10 1.0543177e-08 4.518555e-09 4.3419894e-09
0000d0 29 39 e9 31 b6 c5 18 32 69 2b 9e 32 16 a8 78 32
       6.787691e-09 8.892519e-09 1.8413362e-08 1.4473718e-08
0000e0 5c 03 c7 30 8d 18 d5 2f 04 9c 6c 31 4c cd 24 30
       1.448011e-09 3.876192e-10 3.4431205e-09 5.9954597e-10
0000f0 24 dc 94 30 67 97 f1 30 b9 12 1c 31 3a 6d 4f 30
       1.0830985e-09 1.7578089e-09 2.271163e-09 7.546138e-10
000100 da 81 c8 2f 97 a8 1b 32 f6 e9 97 31 a1 8e 8e 31
       3.6472053e-10 9.06052e-09 4.4212767e-09 4.148959e-09
000110 47 b3 c6 31 a8 83 fc 31 29 2e 83 32 aa c2 50 32
       5.78294e-09 7.349133e-09 1.5271398e-08 1.2151455e-08
000120 fa f0 b9 31 08 f1 48 32 b9 62 a2 32 44 ca 9c 32
       5.4116045e-09 1.1696336e-08 1.8904176e-08 1.825277e-08
000130 a1 a3 4b 33 96 f3 bc 32 78 ce 78 32 83 ec 14 33
       4.741344e-08 2.199685e-08 1.44824455e-08 3.467404e-08
000140 dd ea 91 2c 65 ec 70 2f 18 85 bd 2e 05 a5 bc 2e
       4.147223e-12 2.1911857e-10 8.618367e-11 8.5785636e-11
000150 42 b7 21 2f ac 04 57 2f f3 59 e5 2f e7 40 b6 2f
       1.4707971e-10 1.9555796e-10 4.171877e-10 3.3151723e-10
000160 7f f1 cc 33 4f d9 b6 32 d4 ec 44 34 d0 6a 55 34
       9.543418e-08 2.1286409e-08 1.834008e-07 1.9876029e-07
000170 80 62 bd 34 cb 5b a8 34 63 8d cc 33 bc 61 fb 34
       3.5275662e-07 3.1359227e-07 9.5252084e-08 4.6823504e-07
000180 87 b9 de 30 60 b0 96 32 13 b8 b0 32 17 7d a8 32
       1.6205356e-09 1.7542504e-08 2.0572804e-08 1.9614658e-08
000190 83 c7 3c 32 8f ac ae 31 e3 9d 8f 31 c4 e8 97 31
       1.0988404e-08 5.083684e-09 4.1797974e-09 4.421141e-09
0001a0 62 8d ac 31 0d 31 a5 33 94 99 a0 33 ef 68 07 34
       5.021932e-09 7.6923335e-08 7.478516e-08 1.261103e-07
0001b0 64 f5 bd 31 b9 e4 3b 33 50 d5 24 32 1c f8 72 31
       5.5285216e-09 4.3747352e-08 9.594558e-09 3.5356669e-09
0001c0 6f de b6 30 ab 92 2d 32 d9 08 8c 31 11 dc 9b 31
       1.3305462e-09 1.0103274e-08 4.075542e-09 4.5361124e-09
0001d0 0f d8 1f 32 18 6e 53 32 28 78 b2 32 3a 24 a6 32
       9.304144e-09 1.2306849e-08 2.0776568e-08 1.9341417e-08
0001e0 5e 35 2b 2e ad 4c 24 2e 1c 66 cb 2e a4 f6 70 2f
       3.8928298e-11 3.7357385e-11 9.2495095e-11 2.1915497e-10
0001f0 3b c3 a0 2f 51 b4 d0 2f 48 74 77 2d 8c 5a 9b 2e
       2.924255e-10 3.7963102e-10 1.4066144e-11 7.064668e-11

exp_avg f4 [16]
000000 cf 8d 2e 39 ec c0 f6 37 8b c7 8a b9 c4 36 bd 37
       0.00016646761 2.9415321e-05 -0.00026470082 2.2556058e-05
000010 ef 62 32 b7 cd 94 02 34 0f 3a d4 36 e9 e4 77 36
       -1.06326615e-05 1.2161327e-07 6.3248513e-06 3.6939111e-06
000020 18 2b 00 38 32 1e 4f b7 9a 01 95 34 7a a4 12 ba
       3.0557712e-05 -1.2345192e-05 2.7754578e-07 -0.0005593967
000030 04 17 f8 b6 c5 09 33 34 ae e7 ea b7 59 5a 1e 36
       -7.3936553e-06 1.6674228e-07 -2.8002858e-05 2.3596424e-06

exp_avg_sq f4 [16]
000000 b3 b0 ba 32 b7 fb 69 33 4f 89 78 34 f2 a0 03 32
       2.1733603e-08 5.4478473e-08 2.3146752e-07 7.661798e-09
000010 9c 13 66 30 d3 3c 6f 2f a0 61 79 32 93 88 2f 32
       8.370138e-10 2.1758532e-10 1.4515905e-08 1.0217394e-08
000020 f9 15 5a 32 14 55 87 33 de 46 5a 2f 1e 12 2e 35
       1.2694266e-08 6.301903e-08 1.9852162e-10 6.4846415e-07
000030 ee df 72 33 84 7b 48 33 7d 88 2d 32 d0 e9 9f 2f
       5.654868e-08 4.6678466e-08 1.0100959e-08 2.9088065e-10

exp_avg f4 [8, 16]
000000 cb 70 be 37 69 29 cc 37 ec 10 54 38 68 6b 04 36
       2.2702288e-05 2.4337978e-05 5.05605e-05 1.9732051e-06
000010 4e 10 57 35 57 47 4f b2 7c 58 8e b4 e6 10 f6 33
       8.011747e-07 -1.2065207e-08 -2.6513942e-07 1.14583415e-07
000020 77 6b b5 35 68 5b 9e 37 50 73 81 b2 57 81 9a 38
       1.3516827e-06 1.8877632e-05 -1.5070015e-08 7.367384e-05
000030 6d 93 ee 36 10 2e 90 2f 58 cb 4b 36 23 e6 5e 34
       7.1101153e-06 2.6226177e-10 3.036772e-06 2.0759084e-07
000040 33 a0 a0 37 db c1 ff 37 f7 e3 3d 38 2f 5f b6 35
       1.9148085e-05 3.048864e-05 4.527342e-05 1.3587759e-06
000050 cc e3 08 35 3e a1 f8 b1 dc 1e 09 b2 f2 3a 00 34
       5.0995436e-07 -7.236081e-09 -7.981466e-09 1.1942373e-07
000060 75 1c 5f 36 c8 47 9d 37 b3 35 21 b2 f3 31 8f 38
       3.3246154e-06 1.8749284e-05 -9.383643e-09 6.828075e-05
000070 e8 01 0b 37 55 06 e3 32 e2 6d 0a 36 32 2a 45 34
       8.2854895e-06 2.6429158e-08 2.0627563e-06 1.8362405e-07
000080 3a 3f 0e 37 40 1e 7a 37 05 2a 8b 37 74 48 21 35
       8.478581e-06 1.4908204e-05 1.6589658e-05 6.0082607e-07
000090 47 0c 6a 34 82 68 3d b1 4d 9b b9 33 a1 4d ce 33
       2.1797415e-07 -2.7562526e-09 8.642983e-08 9.606743e-08
0000a0 38 5e d6 35 d2 1d 1b 37 50 8f 43 b1 72 00 ec 37
       1.5971664e-06 9.245663e-06 -2.8457698e-09 2.81336e-05
0000b0 2f 76 9f 36 a6 eb 8f 32 50 3c 73 35 76 3f c9 33
       4.7523276e-06 1.6754552e-08 9.061232e-07 9.371335e-08
0000c0 fe ab 34 b8 8d 3e 7b b8 63 2b e0 37 41 27 4b b6
       -4.3075524e-05 -5.990132e-05 2.6723084e-05 -3.0272206e-06
0000d0 af 73 a9 b5 f0 53 69 32 f4 a1 b3 32 bc a5 41 b4
       -1.262515e-06 1.358147e-08 2.091199e-08 -1.803482e-07
0000e0 89 5d d4 b6 b8 1f 21 b8 2f 20 d3 32 5a bf bf b6
       -6.3289813e-06 -3.841493e-05 2.4578268e-08 -5.71452e-06
0000f0 95 6c 7e b7 e3 01 12 b1 65 0f 9d b6 b2 1f d1 b4
       -1.5164861e-05 -2.1246869e-09 -4.680757e-06 -3.8952345e-07
000100 ba 0b f1 37 30 94 3a 38 43 a0 c9 b7 9a 11 fc 35
       2.87349e-05 4.4483866e-05 -2.4035695e-05 1.8780586e-06
000110 06 ca 40 35 dc 4e 2f 31 af 75 33 35 8d 3c 84 34
       7.1819557e-07 2.5510678e-09 6.685395e-07 2.4630972e-07
000120 32 57 c4 36 a1 90 f3 37 f6 dd 18 b1 ce 88 cc 36
       5.851406e-06 2.9035205e-05 -2.2245081e-09 6.0956e-06
000130 f4 b5 5c 37 e0 6d f2 ae e9 e0 40 36 79 85 a4 34
       1.3155386e-05 -1.10244036e-10 2.8741144e-06 3.0644495e-07
000140 32 92 15 37 04 82 77 37 e4 f7 0c 38 0b 2f 2c 35
       8.915131e-06 1.4752619e-05 3.3609467e-05 6.414345e-07
000150 b5 90 56 34 e5 9e 28 af 85 c1 8b 34 91 9b da 33
       1.9982947e-07 -1.5335962e-10 2.6031572e-07 1.01797134e-07
000160 f0 dd 04 36 93 5e 23 37 c3 25 d2 b1 46 a4 4b 38
       1.9798717e-06 9.737577e-06 -6.1160974e-09 4.8551963e-05
000170 0c f7 a0 36 c5 8b 70 b2 d3 42 7f 35 f9 1a db 33
       4.7971316e-06 -1.40016185e-08 9.5092145e-07 1.02028885e-07
000180 ad 87 d7 b7 11 51 2d b8 e7 7f 87 b8 dd 79 f7 b5
       -2.5693176e-05 -4.1321913e-05 -6.461125e-05 -1.8438401e-06
000190 75 d3 39 b5 f2 d1 7b 32 a2 7c 91 34 96 83 0c b4
       -6.922558e-07 1.4657859e-08 2.7099037e-07 -1.3086387e-07
0001a0 27 89 88 b6 f9 ba d0 b7 10 3b bf 32 60 69 c9 b8
       -4.0690825e-06 -2.4882598e-05 2.2262185e-08 -9.6040545e-05
0001b0 a1 60 33 b7 db cc 10 b3 35 97 3a b6 31 cf 83 b4
       -1.069173e-05 -3.3713928e-08 -2.7804174e-06 -2.4551403e-07
0001c0 e0 7a 90 b7 ec 0a 08 b8 93 f9 91 b8 a2 54 93 b5
       -1.7223356e-05 -3.24351e-05 -6.9606256e-05 -1.0976985e-06
0001d0 b0 95 a1 b4 2c f8 e4 30 95 0b 73 b4 a8 a3 3f b4
       -3.00975e-07 1.6659718e-09 -2.2635352e-07 -1.7847799e-07
0001e0 95 74 92 b6 81 1c a5 b7 47 84 03 32 5e 10 d6 b8
       -4.364711e-06 -1.9682806e-05 7.65528e-09 -0.00010207364
0001f0 44 b4 20 b7 5f f0 0b b2 0d 53 d3 b5 c8 0d 61 b4
       -9.5787145e-06 -8.145519e-09 -1.5744896e-06 -2.0959772e-07

exp_avg_sq f4 [8, 16]
000000 f0 65 10 2f f0 24 8a 33 d7 4f b0 33 7d 35 b9 30
       1.3132939e-10 6.432845e-08 8.2101614e-08 1.3475724e-09
000010 d6 d0 88 2d 5f f7 de 2a 20 85 a3 30 88 29 ca 2e
       1.5554152e-11 3.960677e-13 1.1897647e-09 9.193274e-11
000020 19 26 ae 30 ae e0 47 32 9d 90 ce 2e 96 fa 1f 34
       1.2670994e-09 1.1634411e-08 9.393484e-11 1.4899192e-07
000030 c7 a5 50 31 96 4a f7 2f 6c 29 8b 31 8f 94 43 2f
       3.0362217e-09 4.4982035e-10 4.0501416e-09 1.7787925e-10
000040 c9 28 82 30 5e 67 60 33 12 51 97 33 a4 0f a4 32
       9.470337e-10 5.2248076e-08 7.046232e-08 1.9099225e-08
000050 4d 2e 9a 30 41 1c a6 2b fd 49 17 32 f5 b6 a8 30
       1.1218134e-09 1.1802851e-12 8.80618e-09 1.2275608e-09
000060 df 4e 4f 31 09 fa d0 32 59 4f f0 30 94 6d 19 34
       3.0167298e-09 2.432809e-08 1.748485e-09 1.42891e-07
000070 f4 5c 2f 31 c4 2e a5 31 ff ff 66 33 35 42 26 31
       2.551869e-09 4.8074487e-09 5.3783875e-08 2.4193814e-09
000080 58 6d 05 30 93 98 2e 33 48 d7 ea 32 da ac dd 31
       4.8540505e-10 4.0651297e-08 2.7339084e-08 6.4515975e-09
000090 7e ee 79 2f 28 43 24 2b c5 1f 7e 31 03 d9 cc 2f
       2.2731148e-10 5.83577e-13 3.6979924e-09 3.726158e-10
0000a0 dd 1a bd 30 7a 6b 6b 32 d0 29 7f 30 e2 7a ca 33
       1.3759195e-09 1.3703238e-08 9.282788e-10 9.42871e-08
0000b0 bd 09 46 30 10 51 eb 30 3b 7f f5 32 41 e5 49 30
       7.204582e-10 1.712154e-09 2.8579612e-08 7.3449163e-10
0000c0 04 e7 48 30 ee 75 5f 33 cd 61 35 34 fe 72 da 31
       7.308787e-10 5.202849e-08 1.6892518e-07 6.357708e-09
0000d0 c1 cf 4f 30 2c 7c d4 29 c8 5c 97 31 57 fa cc 2f
       7.56014e-10 9.4362316e-14 4.4052264e-09 3.728526e-10
0000e0 30 23 3a 31 df 09 12 32 76 3b 7d 30 f0 52 46 34
       2.7086564e-09 8.500563e-09 9.2125363e-10 1.847036e-07
0000f0 e9 1b 19 32 47 40 34 30 45 61 ed 32 10 ab 46 30
       8.912118e-09 6.557496e-10 2.7634664e-08 7.2275075e-10
000100 a7 5b f8 2f 3e eb f0 31 2a 0c b6 33 bd ef 3a 33
       4.517606e-10 7.0116633e-09 8.477248e-08 4.352454e-08
000110 bd ae 5d 2e a5 35 a1 27 f3 8c 4c 32 be 05 5d 31
       5.040478e-11 4.474464e-15 1.1906411e-08 3.2162997e-09
000120 04 73 db 30 c0 3f fe 32 f0 6b 23 30 0d 1c b0 33
       1.5967037e-09 2.9598482e-08 5.9452443e-10 8.200741e-08
000130 29 0b 42 31 f9 6d c0 2d 8c ad c4 32 43 e6 d9 31
       2.823706e-09 2.187671e-11 2.2896323e-08 6.341709e-09
000140 51 fb 9d 2d 30 81 c5 32 de 2c c1 32 b0 0d 0b 32
       1.796044e-11 2.2992566e-08 2.248856e-08 8.093977e-09
000150 86 ca f7 2e b1 ba b5 2a d0 76 07 31 aa 28 28 30
       1.1268235e-10 3.2281602e-13 1.9712623e-09 6.117583e-10
000160 90 2e 4a 2f fc 40 34 32 b1 cf f2 2b 35 b6 6d 33
       1.8388335e-10 1.0492155e-08 1.725278e-12 5.534658e-08
000170 12 ed 38 30 c2 18 86 30 1a 23 e5 30 f2 bf a5 30
       6.727571e-10 9.75682e-10 1.6671919e-09 1.2059884e-09
000180 a1 a1 55 30 40 ab ba 33 fc e5 1e 34 96 13 4e 32
       7.7718637e-10 8.69245e-08 1.4798565e-07 1.19952315e-08
000190 9a 5d 4c 31 68 0a 10 2c 42 1e ea 31 87 97 4d 30
       2.9739113e-09 2.0469407e-12 6.8137362e-09 7.47939e-10
0001a0 25 bc 7f 31 09 6a dd 32 cb 54 b4 30 4d f6 68 34
       3.7214332e-09 2.5776005e-08 1.3120823e-09 2.1696287e-07
0001b0 60 a2 e2 31 19 36 20 32 9e 57 2d 33 c0 dc c9 30
       6.5959256e-09 9.325526e-09 4.035939e-08 1.4687416e-09
0001c0 13 f3 e9 2f b9 40 ed 31 7f 2f 54 33 10 08 4e 33
       4.2555168e-10 6.904966e-09 4.9403294e-08 4.7970445e-08
0001d0 9c 11 da 2e 61 58 db 29 26 d4 62 32 6f 3d 73 31
       9.91662e-11 9.740885e-14 1.3203168e-08 3.5396075e-09
0001e0 a5 2e f9 30 30 4c 0f 33 2c 76 3f 30 62 8b 55 33
       1.8130392e-09 3.3364074e-08 6.965333e-10 4.9719695e-08
0001f0 93 7d 48 31 64 b6 e6 2f b9 5a e4 32 9d cf ef 31
       2.9175211e-09 4.1966353e-10 2.658395e-08 6.9794184e-09

exp_avg f4 [8]
000000 22 d6 d1 39 12 6b a9 39 18 d7 1b 39 cd 40 fa b9
       0.00040023128 0.00032313965 0.0001486208 -0.00047731996
000010 66 e7 b4 39 5b ec 43 39 f4 8d e7 b9 9a 6d c1 b9
       0.0003450468 0.00018684698 -0.00044165517 -0.00036893488

exp_avg_sq f4 [8]
000000 d0 a8 92 34 22 31 ef 34 33 d6 55 34 cf bf dc 34
       2.7317446e-07 4.4552968e-07 1.9915096e-07 4.1117752e-07
000010 fb f5 a1 34 53 e2 1d 34 e1 95 50 35 5c 32 92 34
       3.016756e-07 1.47041e-07 7.770414e-07 2.723126e-07

exp_avg f4 [1, 8]
000000 98 17 73 b9 40 b8 02 bb 75 00 26 ba 8c 14 da 3a
       -0.00023183075 -0.0019946247 -0.00063324656 0.0016638204
000010 89 df 5a bb 2e 65 fb ba 7e b8 1b 3b 52 4f 6d 3b
       -0.0033397397 -0.0019179934 0.002376109 0.0036210609

exp_avg_sq f4 [1, 8]
000000 da 40 de 36 88 02 e9 37 ed be 94 37 ee 91 8a 37
       6.6236653e-06 2.7776943e-05 1.7731882e-05 1.6518836e-05
000010 4b 4c e3 37 ca 85 09 38 4e 09 e8 37 d4 da a0 37
       2.7096035e-05 3.2787946e-05 2.7660888e-05 1.9175386e-05
