notebooks/lightning_logs/version_62/checkpoints/epoch=249-step=1500.ckpt (torch, 5447 bytes, 3 tensors)

linear.weight f4 [1, 16]
0	0x3de9baaa	0.114125565
1	0xbe000f75	-0.12505896
2	0xbd815794	-0.06315532
3	0x3dd22e89	0.10262782
4	0xbe800685	-0.25004974
5	0x3e0a75c2	0.13521484
6	0xbd876c1a	-0.066124156
7	0x3de656ff	0.11247062
8	0x3ca454bd	0.020059938
9	0xbd39a7cc	-0.04532604
10	0x3d5fd2c9	0.05464438
11	0xbb1c1af4	-0.0023819776
12	0x3d9ce6a8	0.07661182
13	0xbde5a962	-0.11213948
14	0xbd06d7e6	-0.03292074
15	0xbd1874da	-0.037220813

exp_avg f4 [1, 16]
0	0x3dc9fce7	0.098626904
1	0x3e436494	0.19081336
2	0x3dc9c037	0.09851115
3	0x3e43602c	0.19079655
4	0x3dc99709	0.09843261
5	0x3e436670	0.19082046
6	0x3dc9cbad	0.09853301
7	0x3e438486	0.19093522
8	0x3dc9e162	0.098574415
9	0x3e437a9b	0.19089739
10	0x3dc9df93	0.098570965
11	0x3e43730f	0.1908686
12	0x3dc98b6d	0.098410465
13	0x3e4358a5	0.19076784
14	0x3dc92c90	0.09822953
15	0x3e435534	0.19075471

exp_avg_sq f4 [1, 16]
0	0x3c049cc0	0.008094013
1	0x3cf1fd0b	0.029539606
2	0x3c045405	0.008076672
3	0x3cf1f14c	0.029534005
4	0x3c0419cb	0.00806279
5	0x3cf1fbe0	0.029539049
6	0x3c045728	0.00807742
7	0x3cf243ec	0.029573403
8	0x3c0470f2	0.008083569
9	0x3cf22d67	0.029562665
10	0x3c046814	0.008081455
11	0x3cf21934	0.029553033
12	0x3c03ffca	0.00805659
13	0x3cf1de7f	0.02952504
14	0x3c039023	0.00802997
15	0x3cf1d91d	0.029522473
