notebooks/lightning_logs/version_50/checkpoints/epoch=249-step=1500.ckpt (torch, 5383 bytes, 3 tensors)

linear.weight f4 [1, 16]
0.114125565 -0.12505896 -0.06315532 0.10262782 -0.25004974 0.13521484 -0.066124156 0.11247062
0.020059938 -0.04532604 0.054644383 -0.002381975 0.07661182 -0.11213948 -0.032920737 -0.037220817
00000000: aaba e93d 750f 00be 9457 81bd 892e d23d
00000010: 8506 80be c275 0a3e 1a6c 87bd ff56 e63d
00000020: bd54 a43c cca7 39bd cad2 5f3d e91a 1cbb
00000030: a8e6 9c3d 62a9 e5bd e5d7 06bd db74 18bd

exp_avg f4 [1, 16]
0.098626904 0.19081336 0.09851116 0.19079655 0.09843261 0.19082044 0.09853301 0.19093522
0.098574415 0.19089739 0.098570965 0.19086859 0.098410465 0.19076784 0.09822953 0.19075473
00000000: e7fc c93d 9464 433e 38c0 c93d 2c60 433e
00000010: 0997 c93d 6f66 433e adcb c93d 8684 433e
00000020: 62e1 c93d 9b7a 433e 93df c93d 0e73 433e
00000030: 6d8b c93d a558 433e 902c c93d 3555 433e

exp_avg_sq f4 [1, 16]
0.008094015 0.029539607 0.008076673 0.029534008 0.008062791 0.029539052 0.008077421 0.029573405
0.00808357 0.029562669 0.008081457 0.029553035 0.008056591 0.02952504 0.008029972 0.029522479
00000000: c29c 043c 0cfd f13c 0654 043c 4ef1 f13c
00000010: cc19 043c e2fb f13c 2957 043c ed43 f23c
00000020: f370 043c 692d f23c 1668 043c 3519 f23c
00000030: cbff 033c 7fde f13c 2590 033c 20d9 f13c
