notebooks/lightning_logs/version_27/checkpoints/epoch=24-step=150.ckpt (torch, 86701 bytes, 75 tensors)

front_linear.weight f4 [16, 2]
-0.68539184 -1.2113665 0.742013 1.1974274 0.7413164 1.7193512 0.74622875 1.1997631
-1.3941032 -1.5409474 1.1778443 0.95875436 -0.5279755 -1.0237193 0.99886715 0.89379346
0.51646054 0.41917077 1.8051198 1.2800528 -2.2388258 -2.1974604 -0.26614958 -0.424778
-0.608211 -0.33206227 -1.4426156 -1.3667314 0.5439958 1.6151962 -2.1153924 -1.4844612
00000000: d775 2fbf 0f0e 9bbf 90f4 3d3f 4d45 993f
00000010: e9c6 3d3f b313 dc3f d908 3f3f d691 993f
00000020: f971 b2bf c43d c5bf 9ac3 963f ed70 753f
00000030: 6729 07bf 3c09 83bf c2b5 7f3f a6cf 643f
00000040: c236 043f 8d9d d63e 2a0e e73f c5d8 a33f
00000050: ec48 0fc0 31a3 0cc0 c244 88be 817c d9be
00000060: b7b3 1bbf 1104 aabe a1a7 b8bf 0ef1 aebf
00000070: 4f43 0b3f c0be ce3f 9762 07c0 d302 bebf

front_linear.bias f4 [16]
-0.26054227 0.14444931 0.45973656 0.40512714 -0.65924114 0.5529244 -0.38272128 0.47733235
1.1506243 0.36304456 -0.7852549 -0.17040114 -0.77089113 -1.1371435 0.65597886 -1.6343684
00000000: cc65 85be 85ea 133e 9762 eb3e d36c cf3e
00000010: 07c4 28bf 748c 0d3f 0bf4 c3be e864 f43e
00000020: a847 933f fae0 b93e 7706 49bf a37d 2ebe
00000030: 1f59 45bf eb8d 91bf 3bee 273f fc32 d1bf

transformer_encoder.layers.0.self_attn.qkv_proj.weight f4 [48, 16]
-1.6231692 -0.6770893 -0.06046902 -1.3438464 0.7202935 -1.8288628 1.6666423 -1.3210244
-1.8771335 -1.5142154 1.218591 1.4955338 1.6790855 1.1953665 -1.6471577 1.2224802
-0.637813 -0.50010824 -0.6287831 -0.80215406 1.0190389 -0.80105144 0.6573203 -0.811357
-0.81377333 -0.7857999 1.037236 0.87961787 0.4069479 0.53875196 -1.0830674 1.036419
-1.351511 -0.39730772 0.32642868 -1.0742457 0.5764064 -1.4855077 0.97027034 -0.9023871
-1.9396421 -1.2348729 1.2616519 1.8850677 1.399605 1.0194341 -1.3173609 0.8870671
-0.79481405 -0.14049563 0.3238585 -0.5566555 0.03622962 -0.72720206 0.9806305 -0.57088083
-1.1641648 -1.0827737 0.64563817 1.0069438 1.1868045 0.12985994 -0.90756434 0.60554326
-0.68806946 -1.8793143 -1.5434201 -1.8817253 1.8764311 -1.7305453 1.5287386 -1.4498149
-1.8445486 -1.4854828 2.039618 1.4812776 1.4874096 1.0163219 -1.6005967 0.7208393
-0.12789524 -0.9664795 -0.95301795 -0.8790401 0.74248594 -0.6544296 0.694038 -0.53671104
-0.40637034 -0.2892495 0.770096 0.401758 0.23622634 0.55338526 -0.56385976 0.35658
-0.4299457 -1.498369 -1.3674968 -1.5106817 1.7147636 -1.5159626 1.8939 -1.1806927
-1.5349665 -1.72671 1.7402216 1.843215 1.7324438 0.43485782 -1.3679276 0.59231573
-0.10149937 -1.0495315 -1.0097601 -1.2524484 1.2606889 -1.5326073 1.1932621 -1.0146738
-1.425448 -1.5465322 1.6273153 1.3965701 0.97858703 0.35668188 -0.7931407 0.44833562
0.63782287 -0.8278405 -0.47321463 -1.3178265 0.66013443 -1.7790079 0.8770322 -0.62121123
0.42060766 -1.7800586 0.9767145 0.07746476 -0.27640674 0.5222489 -0.6784055 0.9986466
-0.6268125 0.077281855 0.6993683 -0.39499563 -0.32621437 -0.67909914 0.09595176 -0.045691386
-1.0398527 -0.914952 0.43958732 1.2470165 1.1275662 -0.48967534 0.121514164 0.12338205
-0.19095097 1.9246097 1.9159551 1.9579815 -1.8592558 0.8693026 -1.7711174 2.234166
0.19850862 1.3578006 -2.0086732 -0.26469356 -0.21100031 -2.005087 1.8588276 -2.2537231
0.112114325 0.5891544 0.803043 1.2441903 -0.7524568 1.2257273 -0.96316403 0.7059619
0.06063514 1.3081594 -1.1796056 -0.36022022 -0.17726944 -0.84239894 1.0275227 -0.8685713
0.46027768 -1.218563 -1.5049232 -0.5596001 1.3547363 0.040963955 0.8004393 -0.7838399
0.39807093 -0.017548112 1.11544 -0.24906027 -0.14744931 1.0474494 -0.66473985 1.2369114
-1.7402434 0.33391425 1.9584441 -0.56854194 -0.2797665 -0.924683 0.4094701 0.045366026
-1.4749725 -0.6279006 0.23403683 1.4635421 1.4013956 0.17817388 -0.35017028 -0.011612066
2.4918706 1.1327761 -0.7037389 1.5493071 -1.027282 1.9597213 -1.4559764 1.0325099
2.3566332 1.7842264 -1.4229262 -2.1347096 -2.6093 -1.0389165 1.2820853 -1.733436
-0.6817119 -1.3529751 -0.9749498 -1.1922239 0.7918619 -0.59023386 1.0483294 -0.83059084
-0.76900995 -0.8487239 1.1885648 1.0324603 0.73510724 1.1783817 -1.6726427 0.9410213
00000000: 02c4 cfbf b955 2dbf 5dae 77bd 2903 acbf
00000010: 2865 383f 2d18 eabf 8954 d53f 5417 a9bf
00000020: e945 f0bf cfd1 c1bf cafa 9b3f a76d bf3f
00000030: 46ec d63f c501 993f 10d6 d2bf 3b7a 9c3f
00000040: b647 23bf 1807 00bf eef7 20bf f859 4dbf
00000050: de6f 823f b511 4dbf 2546 283f 18b5 4fbf
00000060: 7353 50bf 2f2a 49bf 26c4 843f a32e 613f
00000070: 7a5b d03e a6eb 093f f4a1 8abf 61a9 843f
00000080: 50fe acbf eb6b cbbe a921 a73e e280 89bf
00000090: 5f8f 133f 1e25 bebf a363 783f d702 67bf
000000a0: 3146 f8bf 5110 9ebf cf7d a13f e649 f13f
000000b0: 4226 b33f d17c 823f 489f a8bf d416 633f
000000c0: ef78 4bbf 16de 0fbe c8d0 a53e fa80 0ebf
000000d0: 8365 143d ea29 3abf 9a0a 7b3f 3f25 12bf
000000e0: 5a03 95bf 5498 8abf 8b48 253f 89e3 803f
000000f0: 36e9 973f 01fa 043e 2356 68bf e204 1b3f
00000100: 5225 30bf 5f8d f0bf ca8e c5bf 60dc f0bf
00000110: e52e f03f 8282 ddbf b5ad c33f 8993 b9bf
00000120: 2b1a ecbf 4d24 bebf 1a89 0240 819a bd3f
00000130: 7063 be3f d616 823f 5ae0 ccbf ed88 383f
00000140: f8f6 02be 336b 77bf fcf8 73bf c608 61bf
00000150: 8f13 3e3f b388 27bf 79ac 313f e565 09bf
00000160: c60f d0be 8318 94be 0325 453f 39b3 cd3e
00000170: 51e5 713e a8aa 0d3f 1d59 10bf a791 b63e
00000180: d821 dcbe 8eca bfbf 230a afbf 055e c1bf
00000190: 607d db3f 100b c2bf 516b f23f f020 97bf
000001a0: c879 c4bf d504 ddbf 95bf de3f 78ee eb3f
000001b0: b8c0 dd3f afa5 de3e 4018 afbf 01a2 173f
000001c0: e7de cfbd 0c57 86bf d23f 81bf 3b50 a0bf
000001d0: 415e a13f 7a2c c4bf d0bc 983f d5e0 81bf
000001e0: 1475 b6bf c4f4 c5bf de4b d03f cfc2 b23f
000001f0: ae84 7a3f 029f b63e 450b 4bbf 3f8c e53e
00000200: 5c48 233f 5bed 53bf 3049 f2be 8aae a8bf
00000210: 92fe 283f 88b6 e3bf 2f85 603f b307 1fbf
00000220: e359 d73e f6d8 e3bf f609 7a3f d8a5 9e3d
00000230: 2f85 8dbe 1bb2 053f fcab 2dbf 4ea7 7f3f
00000240: c976 20bf f345 9e3d cd09 333f de3c cabe
00000250: 9205 a7be 71d9 2dbf 5b82 c43d e426 3bbd
00000260: e519 85bf 4b3a 6abf 9711 e13e 3d9e 9f3f
00000270: 1754 903f bab6 fabe 6bdc f83d baaf fc3d
00000280: a788 43be 9c59 f63f 043e f53f 239f fa3f
00000290: 18fc edbf 9d8a 5e3f fab3 e2bf 93fc 0e40
000002a0: d845 4b3e 69cc ad3f 1a8e 00c0 ea85 87be
000002b0: 7710 58be 5853 00c0 10ee ed3f 003d 10c0
000002c0: 329c e53d d3d2 163f 3a94 4d3f a141 9f3f
000002d0: 02a1 40bf a2e4 9c3f eb91 76bf ebb9 343f
000002e0: 8d5c 783d c471 a73f 51fd 96bf c96e b8be
000002f0: 1f86 35be 75a7 57bf dd85 833f b05a 5ebf
00000300: 84a9 eb3e dff9 9bbf 53a1 c0bf f441 0fbf
00000310: 0068 ad3f d2c9 273d 97e9 4c3f bba9 48bf
00000320: f4cf cb3e 0fc1 8fbc bdc6 8e3f a809 7fbe
00000330: f4fc 16be d212 863f 642c 2abf 1d53 9e3f
00000340: 4cc0 debf cff6 aa3e 4cae fa3f f78b 11bf
00000350: 8e3d 8fbe 06b8 6cbf 11a6 d13e bad1 393d
00000360: e6cb bcbf 18be 20bf 5aa7 6f3e 5955 bb3f
00000370: ee60 b33f 3773 363e 8549 b3be 8940 3ebc
00000380: cf7a 1f40 cffe 903f 3c28 34bf b24f c63f
00000390: fa7d 83bf 26d8 fa3f 6f5d babf 4929 843f
000003a0: 14d3 1640 8861 e43f 7222 b6bf 159f 08c0
000003b0: c5fe 26c0 37fb 84bf 5f1b a43f 3be1 ddbf
000003c0: ac84 2ebf 4a2e adbf 4f96 79bf cb9a 98bf
000003d0: 76b7 4a3f 9119 17bf a82f 863f 9aa1 54bf
000003e0: d6dd 44bf f845 59bf e422 983f a927 843f
000003f0: fd2f 3c3f 36d5 963f 2819 d6bf c6e6 703f

transformer_encoder.layers.0.self_attn.o_proj.weight f4 [16, 16]
0.055530053 0.9899366 -0.049737386 -0.21881494 -0.6768925 -0.4819463 -0.761661 0.46430582
-0.6780538 -0.08174794 -0.2749493 0.024888434 0.45216936 0.5328494 0.390647 0.35081753
0.38201258 0.5757513 -0.8869943 -0.36728683 -0.18782182 -0.3493176 -0.35619467 -0.14685613
-0.111994095 -0.60951644 0.37066266 0.7200191 0.60839915 0.64499825 0.21129206 0.22620583
-0.3572631 0.6691043 0.1793857 -0.91763866 -0.8772918 -0.8690019 -0.37406892 1.430334
-1.7083721 -0.2922365 -1.0345026 0.7443058 0.29714814 1.1145116 1.3652114 1.285245
0.08937624 0.83110505 -1.5566031 -0.1709127 -0.5554514 0.80271274 -0.79022396 -0.09536171
1.581275 -0.1879434 -0.050469268 0.7844799 -0.14977998 0.18497413 -0.71289295 -0.06601037
-0.92021185 -0.88002324 0.77162707 0.47578463 0.25923088 0.5109779 0.2863572 -0.15732343
0.0977817 0.57377064 -1.2091115 -0.7344172 -0.8501586 -0.35293597 -0.71061015 -0.27549902
1.0871949 0.6419758 -0.9825348 -0.96756583 -0.8507997 -0.5165603 -0.86889577 0.2381461
0.27188152 -0.61740994 1.3012142 0.24368179 0.89008975 0.2938031 -0.017559385 0.51603526
-0.8923844 -0.5415911 0.20727769 0.5285556 0.48135325 0.98274374 0.8935356 -0.3748757
0.788657 0.7801169 -0.7672008 -0.8445766 -0.28323215 -0.51939595 -0.526143 -0.40099877
1.893625 -0.11859318 -0.90350264 -1.5418723 -0.40169033 0.17823549 -0.7869318 -1.1543939
1.3366544 -0.55753154 2.3382623 0.74167603 0.43734947 -0.007387933 0.43620694 0.12063016
0.9156705 -0.4244289 -0.89781654 -0.55667627 0.030398455 0.65394294 -0.83594155 -0.7218445
1.4815649 -0.98026896 1.4480233 1.2428461 0.72929376 0.13679609 -0.4194711 -0.06794894
1.6645548 -0.38827237 -0.37358755 -1.167579 -0.55434674 0.23908208 -1.0699377 -1.1541257
1.0365902 -0.9214665 2.7275057 0.6348206 1.1400154 -0.5036155 0.291826 0.2352576
-2.3424659 0.9465923 1.0910231 1.5486422 0.2990825 -0.79471475 0.99577945 2.1172323
-1.8963813 1.0572426 -2.9121494 -1.804891 -1.6518283 0.9052935 0.17691253 0.43851238
-1.0247767 -0.42608494 1.28716 1.0648448 0.38674563 0.46536806 0.9634795 -0.20388904
-0.9758913 0.2971818 -1.9070334 -0.7979187 -0.34116113 -0.55863947 -0.5273922 -0.8323256
-1.1331776 -0.1715649 1.3341765 1.1250073 0.5336819 -0.10869401 1.0730405 0.1159497
-0.62291116 0.9198728 -1.5087392 -0.54380524 -1.034708 -0.5208 -0.53342664 -0.16077961
0.12900507 1.0019937 -1.103063 0.27280554 -0.773705 -0.19838558 -0.27425876 -0.2092539
0.56660855 -0.31663752 0.5633729 0.9310515 0.7914604 0.9112237 -0.30414858 0.2545197
-0.36476937 -0.4298537 0.17661305 0.9256465 0.35791054 0.93445677 0.4924063 -0.513738
0.2724426 -0.42138937 -0.53942 -0.4535983 -0.0961386 -0.3192962 -0.500384 -0.86642927
-0.22200966 -0.5636311 0.6361185 -0.22477661 0.4670256 0.285957 1.1125953 0.3376173
-0.29212734 0.763903 -0.22148143 -0.9374735 -0.51636004 -0.79892075 -0.25888956 -0.45006156
00000000: 7b73 633d 7c6c 7d3f 6eb9 4bbd 0611 60be
00000010: d448 2dbf aac1 f6be 37fc 42bf 7eb9 ed3e
00000020: ef94 2dbf 776b a7bd 28c6 8cbe d4e2 cb3c
00000030: be82 e73e d168 083f e202 c83e 5b9e b33e
00000040: 2797 c33e 7064 133f 0f12 63bf 050d bcbe
00000050: 5d54 40be c2d9 b2be 265f b6be 7461 16be
00000060: 295d e5bd 4509 1cbf 7fc7 bd3e 2c53 383f
00000070: 0cc0 1b3f 9b1e 253f f25c 583e 80a2 673e
00000080: 30eb b6be 6b4a 2b3f e3b0 373e 5eea 6abf
00000090: 3296 60bf e976 5ebf f685 bfbe 2f15 b73f
000000a0: f0ab dabf 06a0 95be 956a 84bf d38a 3e3f
000000b0: cd23 983e 51a8 8e3f 3fbf ae3f e882 a43f
000000c0: e40a b73d 4dc3 543f c53e c7bf bd03 2fbe
000000d0: 1032 0ebf 957e 4d3f 1e4c 4abf 004d c3bd
000000e0: 3867 ca3f 3c74 40be ddb8 4ebd add3 483f
000000f0: ec5f 19be dc69 3d3e 2780 36bf 7230 87bd
00000100: 0193 6bbf 3449 61bf 5a89 453f 0b9a f33e
00000110: e9b9 843e 73cf 023f 699d 923e 6519 21be
00000120: c641 c83d a2e2 123f 2ac4 9abf c402 3cbf
00000130: fea3 59bf 06b4 b4be 8cea 35bf 350e 8dbe
00000140: 3429 8b3f 8758 243f 6787 7bbf 65b2 77bf
00000150: 02ce 59bf 4c3d 04bf f46f 5ebf 92dc 733e
00000160: 0e34 8b3e 940e 1ebf 308e a63f b887 793e
00000170: ecdc 633f 5c6d 963e b3d8 8fbc e31a 043f
00000180: 4e73 64bf b7a5 0abf 9a40 543e 6b4f 073f
00000190: ef73 f63e 1895 7b3f c0be 643f b5ef bfbe
000001a0: 6de5 493f beb5 473f 4667 44bf 2c36 58bf
000001b0: ce03 91be 22f7 04bf 4fb1 06bf b64f cdbe
000001c0: 4e62 f23f fbe0 f2bd f34b 67bf 125c c5bf
000001d0: 5baa cdbe 5d83 363e 5d74 49bf 2ec3 93bf
000001e0: 7e17 ab3f 63ba 0ebf 17a6 1540 7bde 3d3f
000001f0: 45ec df3e 7916 f2bb 8456 df3e f20c f73d
00000200: 6269 6a3f bf4e d9be 4ed7 65bf 5682 0ebf
00000210: 2e06 f93c ce68 273f 4400 56bf cdca 38bf
00000220: eba3 bd3f e8f2 7abf d458 b93f 9515 9f3f
00000230: ffb2 3a3f 4614 0c3e ebc4 d6be d028 8bbd
00000240: 2210 d53f a3cb c6be de46 bfbe 3b73 95bf
00000250: abe9 0dbf efd1 743e b8f3 88bf 64ba 93bf
00000260: fdae 843f 3be5 6bbf 748f 2e40 9a83 223f
00000270: 06ec 913f f2ec 00bf 386a 953e 5ee7 703e
00000280: f6ea 15c0 df53 723f a5a6 8b3f e839 c63f
00000290: 5721 993e 6d72 4bbf 67eb 7e3f bc80 0740
000002a0: 9fbc f2bf ba53 873f a860 3ac0 ab06 e7bf
000002b0: 1c6f d3bf 51c1 673f 8f28 353e b284 e03e
000002c0: e22b 83bf ce27 dabe a9c1 a43f d64c 883f
000002d0: 8603 c63e b944 ee3e 98a6 763f 4ac8 50be
000002e0: 03d4 79bf 3628 983e ac19 f4bf 6644 4cbf
000002f0: acac aebe ff02 0fbf 2d03 07bf 4a13 55bf
00000300: f70b 91bf b6ae 2fbe 4cc6 aa3f 3d00 903f
00000310: 619f 083f f79a debd 6459 893f 0977 ed3d
00000320: 1b77 1fbf c97c 6b3f 5e1e c1bf d236 0bbf
00000330: 5071 84bf 2653 05bf a68e 08bf 69a3 24be
00000340: e819 043e 5441 803f 2b31 8dbf 2bad 8b3e
00000350: 8811 46bf 9725 4bbe a56b 8cbe a846 56be
00000360: 420d 113f 501e a2be 3539 103f 6459 6e3f
00000370: 269d 4a3f f545 693f 5db9 9bbe 6850 823e
00000380: 0dc3 babe c915 dcbe 0dda 343e 2bf7 6c3f
00000390: 0d40 b73e 8f38 6f3f ae1c fc3e 5584 03bf
000003a0: 997d 8b3e 59c0 d7be 6e17 0abf 093e e8be
000003b0: 50e4 c4bd cb7a a3be 2a19 00bf 4fce 5dbf
000003c0: 8056 63be 214a 10bf a9d8 223f d72b 66be
000003d0: fb1d ef3e f568 923e 8669 8e3f 2ddc ac3e
000003e0: b791 95be 268f 433f 07cc 62be 43fe 6fbf
000003f0: 2c30 04bf 1286 4cbf 2c8d 84be 786e e6be

transformer_encoder.layers.0.self_attn.o_proj.bias f4 [16]
0.53448194 0.66655725 0.5109455 0.8474225 -0.6244138 0.6003192 -0.5788494 0.57434136
0.6602095 0.58064646 -0.5968089 -0.56591344 -0.6180662 0.7165702 -0.39754358 -0.86732596
00000000: cfd3 083f 7fa3 2a3f 53cd 023f aef0 583f
00000010: 95d9 1fbf 85ae 193f 792f 14bf 0908 133f
00000020: 7d03 293f 3fa5 143f 78c8 18bf b4df 10bf
00000030: 9639 1ebf 2571 373f d58a cbbe 1309 5ebf

transformer_encoder.layers.0.linear_net.0.weight f4 [32, 16]
0.67333627 -0.7814379 -1.4666713 -0.22064538 0.79548967 0.5416633 0.73302436 -0.7068621
0.6362927 -0.26130015 0.44100672 -0.28827482 -0.62780565 0.41508293 -0.39383104 0.55179864
-0.6943311 0.35527506 0.2594377 -0.3033278 -0.5624471 -0.40860555 -0.5522095 0.64468443
-0.6188385 0.37727478 -0.42770416 0.44785854 0.51988626 -0.48913893 0.614843 -0.70830387
1.6351466 0.69667286 1.6165112 1.237423 -0.38297692 2.0967314 -0.26669714 -2.4234543
0.4274975 -2.051946 2.0746553 -0.48168474 -1.524046 1.7946879 -1.6886905 -0.8216736
-0.3666222 -0.2070918 -0.4406942 -0.23607185 0.0078926105 0.4108358 0.096055254 0.6619303
0.1933935 0.22012173 -0.5806137 -0.20016056 -0.44079188 -0.24539067 0.13127086 0.23587035
-0.63711387 0.38785022 0.12656252 -0.6939129 0.45381087 -1.0464001 0.80659956 -0.4202486
-0.7815055 -0.5622789 0.35087055 0.8796641 1.13465 -1.4334496 0.57174087 -0.08189744
0.011953296 -0.7502621 -1.7351557 -1.1315701 0.7478678 0.44226113 1.0047464 -0.4665227
0.38667876 -0.4400822 0.24623224 -0.5437851 -0.27562994 0.21056998 -0.55557793 0.4980799
0.20507486 -0.44106323 -1.5487502 -0.7703723 0.8656722 0.37500265 1.0818441 -0.77014226
0.29102728 -0.27903944 0.18116868 -0.13292767 -0.5374172 0.37288406 -0.33517095 0.7282924
1.8969748 1.4658768 2.480023 0.82570595 -1.603352 0.18055257 -1.709431 -3.9840343
-0.4448686 -3.035264 2.9165628 -1.9244304 -0.0882214 1.0253085 -1.1298862 -1.4800282
2.087851 0.90837115 1.6833416 1.195173 -0.8642286 2.0643091 -0.41777265 -1.9935044
0.6058452 -1.9329872 1.856733 -0.5092421 -1.6655395 1.8844757 -2.0334153 -0.9622102
0.5106683 0.14716615 -0.87623423 0.36368972 -0.722371 0.4602215 -0.7226732 0.79755205
0.63037866 1.1401091 -1.0548736 -0.19329637 -0.7369778 -1.7685866 -0.36910763 -0.28734785
0.17003912 -0.45573962 -1.4158753 -1.5546273 0.583005 0.5485708 0.8589319 -0.7862854
0.32633406 -0.4153648 0.18758272 -0.4045476 -0.6334233 0.48221844 -0.5309056 0.766164
-0.5308346 -0.17899513 -0.5786787 -0.7415138 0.413811 -0.9512993 0.517652 -0.2399561
-0.64534754 -0.22684002 0.42471778 0.14781976 1.0900488 -0.63442355 1.4510432 0.54255295
-0.5029764 -0.8348979 -0.7398077 -0.44111267 0.77977926 -0.6929954 0.6891285 1.1444645
-0.63265204 0.7671469 -0.80044407 1.0539563 0.23399742 -0.39696723 0.5302341 0.74409306
-0.5708719 0.6375155 0.06799471 0.40549552 -0.5972865 -0.16186437 -0.42785153 0.5180252
-0.28967127 0.9214962 -1.0714269 0.5544614 0.22546887 -0.5458105 0.30296877 -0.40370205
-1.1959763 1.7006712 -0.65824425 -1.2738736 -0.78122497 -1.5804311 -0.1161653 -0.5984559
-0.52834773 -0.94300634 0.36910534 -0.011044138 1.6052213 -1.4662426 1.9174464 -1.2204268
0.18263462 -0.06993092 -0.7955382 0.11805938 -0.22768643 0.14302626 -0.35640147 1.4829129
0.35617682 1.8057252 -1.730091 0.31031394 -0.40025195 -2.3111873 0.29659888 0.5203741
00000000: c45f 2c3f 500c 48bf e3bb bbbf ddf0 61be
00000010: 36a5 4b3f 72aa 0a3f 7ca7 3b3f eaf4 34bf
00000020: 14e4 223f 22c9 85be a2cb e13e c298 93be
00000030: dfb7 20bf c085 d43e 39a4 c9be ad42 0d3f
00000040: afbf 31bf 9de6 b53e 05d5 843e c84d 9bbe
00000050: 88fc 0fbf bf34 d1be 9a5d 0dbf 0a0a 253f
00000060: 336c 1ebf 292a c13e 0afc dabe b74d e53e
00000070: 4417 053f 6b70 fabe 5a66 1d3f 6753 35bf
00000080: 7c4c d13f 2759 323f d7e9 ce3f e063 9e3f
00000090: 8d15 c4be d930 0640 878c 88be e019 1bc0
000000a0: f4e0 da3e 1553 03c0 27c7 0440 629f f6be
000000b0: f013 c3bf 55b8 e53f 0327 d8bf 3359 52bf
000000c0: e8b5 bbbe df0f 54be aca2 e1be d2bc 71be
000000d0: 0250 013c 1259 d23e 9eb8 c43d 4474 293f
000000e0: f208 463e 9767 613e 19a3 14bf e4f6 4cbe
000000f0: 79af e1be b147 7bbe de6b 063e ff87 713e
00000100: e519 23bf 4e94 c63e 9b99 013e 47a4 31bf
00000110: e659 e83e 70f0 85bf 4f7d 4e3f d32a d7be
00000120: bf10 48bf 83f1 0fbf 4ea5 b33e ab31 613f
00000130: 363c 913f 477b b7bf 9c5d 123f d8b9 a7bd
00000140: c2d7 433c 2d11 40bf 9519 debf 4ad7 90bf
00000150: 4474 3f3f 0d70 e23e 889b 803f 10dc eebe
00000160: c2fa c53e 7452 e1be 4e24 7c3e 8035 0bbf
00000170: 5e1f 8dbe a89f 573e 5b3a 0ebf 5404 ff3e
00000180: 25ff 513e 0ad3 e1be 723d c6bf 1e37 45bf
00000190: b19c 5d3f 5900 c03e de79 8a3f 0b28 45bf
000001a0: 8701 953e 42de 8ebe 4884 393e 311e 08be
000001b0: 2c94 09bf a9ea be3e 879b abbe 5f71 3a3f
000001c0: 12d0 f23f daa1 bb3f b2b8 1e40 7761 533f
000001d0: a33a cdbf c6e2 383e a3ce dabf 6bfa 7ec0
000001e0: d1c5 e3be c441 42c0 f7a8 3a40 bc53 f6bf
000001f0: 6cad b4bd 4f3d 833f 1ca0 90bf 9071 bdbf
00000200: 5a9f 0540 038b 683f bd77 d73f 6efb 983f
00000210: 163e 5dbf a41d 0440 4ce6 d5be 272b ffbf
00000220: ac18 1b3f 206c f7bf 6da9 ed3f b15d 02bf
00000230: 6630 d5bf 8036 f13f 7a23 02c0 6853 76bf
00000240: 28bb 023f b9b2 163e e350 60bf 8a35 ba3e
00000250: 4eed 38bf 27a2 eb3e 1c01 39bf 5f2c 4c3f
00000260: 7f60 213f 18ef 913f 1906 87bf 7cef 45be
00000270: 94aa 3cbf 0c61 e2bf adfb bcbe 421f 93be
00000280: bc1e 2e3e b456 e9be 673b b5bf 07fe c6bf
00000290: d13f 153f 236f 0c3f f6e2 5b3f 004a 49bf
000002a0: 4215 a73e b2aa d4be af15 403e dd20 cfbe
000002b0: 0828 22bf 56e5 f63e 6ee9 07bf 5323 443f
000002c0: c7e4 07bf 804a 37be 4a24 14bf d9d3 3dbf
000002d0: 09df d33e 5a88 73bf d784 043f 0db7 75be
000002e0: 7f35 25bf c048 68be 9c74 d93e 105e 173e
000002f0: b886 8b3f 9569 22bf c9bb b93f c0e4 0a3f
00000300: 10c3 00bf debb 55bf 0a64 3dbf 85d9 e1be
00000310: 9d9f 473f 2668 31bf ba6a 303f d07d 923f
00000320: 7cf5 21bf bd63 443f e7e9 4cbf 0ae8 863f
00000330: 059d 6f3e 4a3f cbbe 6cbd 073f e27c 3e3f
00000340: a924 12bf 3734 233f cf40 8b3d 1c9d cf3e
00000350: c5e7 18bf c6bf 25be 5b0f dbbe 4d9d 043f
00000360: cb4f 94be 2de7 6b3f 8424 89bf 2ff1 0d3f
00000370: 50e1 663e 3dba 0bbf b91e 9b3e 09b2 cebe
00000380: c015 99bf 98af d93f b282 28bf 4a0e a3bf
00000390: 5cfe 47bf 914b cabf 13e8 edbd 6834 19bf
000003a0: cc41 07bf dd68 71bf 60fb bc3e 79f2 34bc
000003b0: e477 cd3f d6ad bbbf e26e f53f f236 9cbf
000003c0: 9204 3b3e f137 8fbd 64a8 4bbf 1ec9 f13d
000003d0: a226 69be 7a75 123e 417a b6be 17d0 bd3f
000003e0: cf5c b63e 0122 e73f 9f73 ddbf 78e1 9e3e
000003f0: d3ed ccbe 7eea 13c0 cfdb 973e 3d37 053f

transformer_encoder.layers.0.linear_net.0.bias f4 [32]
0.48866537 -0.46878642 0.54534733 -0.40810817 -0.3423275 0.3651763 0.68839437 2.0480044
0.66741383 0.5362216 0.35823774 -0.39581415 -1.1531005 -0.7723987 0.6879275 -0.00661345
-1.3523978 -0.20264617 -1.3064634 -0.041875303 -0.1197946 -0.30789843 0.62853205 -0.3796305
0.6249806 1.0766112 -0.96081835 -0.12131694 0.35542062 -0.32734922 -1.1106944 0.54173166
00000000: 5932 fa3e c604 f0be e29b 0b3f 8ef3 d0be
00000010: 8d45 afbe 63f8 ba3e 9d3a 303f 8112 0340
00000020: a2db 2a3f d245 093f f06a b73e 27a8 cabe
00000030: cc98 93bf ecbb 45bf 041c 303f a4b5 d8bb
00000040: 5f1b adbf 7a82 4fbe 313a a7bf 7085 2bbd
00000050: df56 f5bd dda4 9dbe 7ae7 203f ee5e c2be
00000060: bbfe 1f3f 65ce 893f 31f8 75bf 0475 f8bd
00000070: b1f9 b53e 519a a7be 3c2b 8ebf edae 0a3f

transformer_encoder.layers.0.linear_net.3.weight f4 [16, 32]
0.28230575 0.44609472 1.809088 0.083526894 0.44073427 0.71696717 -0.18064772 2.5900922
1.5975846 -0.5987465 -0.18856297 0.40119138 0.47939295 0.57465786 0.31974855 -0.45165685
0.53981775 0.3672964 0.6214362 0.04766204 0.24783878 -0.7820964 -0.28470233 0.44659474
0.9564404 2.8754883 -0.10907109 -0.32324147 -0.4049372 -0.1320448 0.6837023 -0.362793
0.97905344 0.5739902 1.5081083 -0.27643847 1.6636074 0.5091473 1.0062429 3.1363163
1.4713739 0.71280146 0.87392336 1.6912689 0.46076602 0.49384594 1.2671894 0.40740526
0.6743038 0.8756659 0.5931932 0.9752741 1.2127959 0.37436247 1.0808674 0.9639363
2.1827538 2.5440042 -0.23152742 0.8387941 0.82450587 1.0882361 0.4661587 0.86064726
0.19397496 0.7370659 -1.8848532 0.057311106 -1.2760079 0.5503476 -0.2097342 -2.4492564
-1.8057841 -0.7023934 -0.18799925 -0.97980154 -0.37506983 0.61358386 -1.2555523 -0.74967945
0.5517507 0.6045812 0.38216862 -0.1212165 -1.0067395 -0.48236144 -0.2044769 -0.9041038
-1.8316776 -2.945213 0.36488518 -0.2487395 -0.45626342 -0.089460626 0.68015426 -0.45262334
-0.0026753903 0.39515752 -1.9430386 -0.14973584 -0.25012082 -0.273464 0.53245854 -2.3787124
-1.6678393 0.2511743 0.2828231 -0.74694264 -0.2787311 -0.20592164 -0.3530669 0.43410265
0.5644108 0.55745906 0.07362609 -0.16726643 -0.2617589 0.671571 0.22139211 -0.17994055
-0.8650856 -3.094708 0.1349814 0.20711134 -0.12613983 -0.01856982 0.19967929 0.17511326
-0.43281966 -0.578873 1.68276 -0.050776407 0.20396574 -0.49422842 -0.5873078 1.5635914
1.796557 0.10589433 -0.7638261 0.6762595 -0.26619598 -0.37044117 -0.03300948 0.44719264
-0.5564818 -0.6030062 -0.59874856 -0.7240764 0.096085325 -0.4271143 -0.560889 0.3437165
0.16708711 -0.14631708 0.5815342 -0.7138853 -0.21099256 -0.64479214 -0.5626079 -0.6782236
0.4903525 0.6322788 -2.1253693 0.053833783 -1.0153134 0.22373867 0.41296315 -2.4630063
-1.6681278 0.15431216 0.40278006 -0.8538967 -0.41800344 0.3007227 -1.9643852 0.50913626
0.4324457 0.49986133 0.48484522 0.16244797 -1.0540782 0.15638854 0.42960837 -1.1779138
-1.8521688 -2.9339485 0.045772254 0.053996652 -0.43708006 0.061983243 0.43293098 0.19278562
-0.6291315 -0.5171478 1.7540768 -0.024631988 1.0014817 -0.7389121 -0.032816563 2.099661
1.9173608 0.7113452 0.042495634 1.1844823 0.35786507 -0.38271657 0.8737864 0.5353196
-0.73907995 -0.6834858 -0.7147295 -0.5489838 1.123029 0.637042 0.023064792 0.6713788
1.3128583 2.8056629 0.456785 -0.08333408 0.68412846 -0.22823054 -0.5374657 0.25588074
0.751068 0.43459252 1.3454974 -0.08027785 1.0264744 0.8081103 0.49957776 2.0238323
1.2258477 -0.39983004 0.5221391 1.0932574 0.48071244 0.7073192 1.7727516 -0.5504701
0.5492679 0.60282415 0.7637311 0.4795782 1.2208356 -0.3897776 0.5969052 0.6093487
1.5815846 2.7609565 -0.306097 0.7335929 0.5803531 0.49477112 0.7453817 0.57303005
00000000: 618a 903e 8766 e43e 3290 e73f 2610 ab3d
00000010: eca7 e13e 298b 373f b7fb 38be 12c4 2540
00000020: a77d cc3f 7347 19bf a716 41be f568 cd3e
00000030: fe72 f53e c71c 133f 15b6 a33e 913f e7be
00000040: 7f31 0a3f 460e bc3e 7116 1f3f 4539 433d
00000050: 73c9 7d3e 7837 48bf 81c4 91be 11a8 e43e
00000060: 47d9 743f 0008 3840 aa60 dfbd e87f a5be
00000070: ee53 cfbe c136 07be 1d07 2f3f 01c0 b9be
00000080: 3fa3 7a3f 06f1 123f b109 c13f 5889 8dbe
00000090: 16f1 d43f 7a57 023f 91cc 803f 68b9 4840
000000a0: fb55 bc3f 287a 363f 71b9 5f3f 807b d83f
000000b0: 86e9 eb3e 60d9 fc3e 4333 a23f 6c97 d03e
000000c0: 2d9f 2c3f a42b 603f 82db 173f 90ab 793f
000000d0: e53c 9b3f 70ac bf3e dd59 8a3f 88c4 763f
000000e0: 3db2 0b40 f7d0 2240 8615 6dbe 36bb 563f
000000f0: d112 533f 524b 8b3f 5aac ee3e 6153 5c3f
00000100: 5fa1 463e 5ab0 3c3f df42 f1bf 0dbf 6a3d
00000110: 3a54 a3bf 95e3 0c3f 90c4 56be 9ec0 1cc0
00000120: ef23 e7bf 0ed0 33bf e082 40be 46d4 7abf
00000130: 2709 c0be d513 1d3f f0b5 a0bf feea 3fbf
00000140: 893f 0d3f d5c5 1a3f 9bab c33e 5b40 f8bd
00000150: d7dc 80bf 14f8 f6be 6462 51be 5973 67bf
00000160: 6974 eabf 5f7e 3cc0 3bd2 ba3e 91b5 7ebe
00000170: 5c9b e9be 2237 b7bd 971e 2e3f 3fbe e7be
00000180: 9a55 2fbb 1652 ca3e 7db5 f8bf 5a54 19be
00000190: d60f 80be 7903 8cbe 344f 083f d33c 18c0
000001a0: c27b d5bf eb99 803e 30ce 903e a237 3fbf
000001b0: d8b5 8ebe 1fdd 52be 2fc5 b4be b442 de3e
000001c0: 3a7d 103f a3b5 0e3f 47c9 963d e447 2bbe
000001d0: 4305 86be 14ec 2b3f 9db4 623e 5642 38be
000001e0: 4076 5dbf b20f 46c0 9038 0a3e ff14 543e
000001f0: cd2a 01be bc1f 98bc ba78 4c3e e450 333e
00000200: 8a9a ddbe 0531 14bf ae64 d73f ecfa 4fbd
00000210: 65dc 503e 820b fdbe ce59 16bf c323 c83f
00000220: 94f5 e53f 20df d83d 1b8a 43bf 581f 2d3f
00000230: d74a 88be 77aa bdbe f334 07bd 6ff6 e43e
00000240: 9775 0ebf 9d5e 1abf 9647 19bf 125d 39bf
00000250: 62c8 c43d baae dabe 6c96 0fbf 9cfb af3e
00000260: e218 2b3e 25d4 15be 6ddf 143f 30c1 36bf
00000270: 6f0e 58be 1911 25bf 1207 10bf 10a0 2dbf
00000280: 7c0f fb3e 06dd 213f 0d06 08c0 d080 5c3d
00000290: caf5 81bf c01b 653e e86f d33e e5a1 1dc0
000002a0: 3685 d5bf 0204 1e3e 3039 ce3e f998 5abf
000002b0: 8c04 d6be 53f8 993e f970 fbbf c156 023f
000002c0: 8669 dd3e d3ed ff3e a23d f83e c358 263e
000002d0: 09ec 86bf 5124 203e a1f5 db3e e1c5 96bf
000002e0: de13 edbf d0c5 3bc0 b07b 3b3d 982b 5d3d
000002f0: f5c8 dfbe 24e2 7d3d 21a9 dd3e 9869 453e
00000300: c30e 21bf cc63 04bf 9785 e03f 06c9 c9bc
00000310: 8d30 803f 5829 3dbf a96a 06bd d960 0640
00000320: 146c f53f b81a 363f e70f 2e3d 1e9d 973f
00000330: 173a b73e 6df3 c3be 77b0 5f3f b50a 093f
00000340: 5834 3dbf edf8 2ebf 83f8 36bf 348a 0cbf
00000350: 6abf 8f3f 2f15 233f 60f2 bc3c 7bdf 2b3f
00000360: be0b a83f fb8f 3340 b9df e93e 0fab aabd
00000370: 0b23 2f3f 44b5 69be 5a97 09bf cd02 833e
00000380: fe45 403f e982 de3e 4239 ac3f b768 a4bd
00000390: 8363 833f 51e0 4e3f a8c8 ff3e 7886 0140
000003a0: 94e8 9c3f 86b6 ccbe e8aa 053f dcef 8b3f
000003b0: f11f f63e df12 353f 86e9 e23f 9ceb 0cbf
000003c0: d29c 0c3f af52 1a3f e283 433f 468b f53e
000003d0: 5744 9c3f ee90 c7be c7ce 183f 47fe 1b3f
000003e0: 5d71 ca3f 83b3 3040 bfb8 9cbe bfcc 3b3f
000003f0: 0592 143f a452 fd3e 56d1 3e3f 19b2 123f

transformer_encoder.layers.0.linear_net.3.bias f4 [16]
0.20611107 0.72210103 0.27353245 0.5995297 -0.67343956 0.6352378 -0.62782484 0.6723947
0.5873387 0.6872572 0.11728334 -0.39774626 -0.77788776 0.61197406 0.05990512 -0.9689535
00000000: c80e 533e 9ddb 383f 720c 8c3e c77a 193f
00000010: 8966 2cbf f29e 223f 21b9 20bf 0f22 2c3f
00000020: d45b 163f 16f0 2f3f 3f32 f03d 66a5 cbbe
00000030: a723 47bf 55aa 1c3f 125f 753d 560d 78bf

transformer_encoder.layers.0.norm1.weight f4 [16]
0.91058594 0.3139113 2.1775894 -0.22099653 0.45562202 1.3669499 0.53231275 1.7659643
1.9325517 2.045006 2.980384 1.2166789 1.5766484 1.2598871 0.6584171 0.36188176
00000000: 291c 693f fbb8 a03e a05d 0b40 ea4c 62be
00000010: 4a47 e93e 37f8 ae3f a645 083f 1e0b e23f
00000020: db5d f73f 61e1 0240 9dbe 3e40 22bc 9b3f
00000030: 9dcf c93f fb43 a13f 068e 283f 9148 b93e

transformer_encoder.layers.0.norm1.bias f4 [16]
0.5254771 0.9648777 0.6886819 0.15302 -0.6856073 0.42103034 -0.5315417 -0.23221596
0.28667346 -0.23963904 0.44529733 -0.16329612 -0.42858738 0.7667605 0.16205372 -1.2672112
00000000: ab85 063f 3a02 773f 754d 303f 46b1 1c3e
00000010: f683 2fbf 4a91 d73e 1e13 08bf 05ca 6dbe
00000020: ddc6 923e f063 75be 03fe e33e 1937 27be
00000030: ce6f dbbe 6b4a 443f 69f1 253e fa33 a2bf

transformer_encoder.layers.0.norm2.weight f4 [16]
0.17051458 1.1214099 1.3401142 1.3433769 0.39686638 1.9545206 0.26820758 0.67133313
1.8397543 1.244319 2.7035313 1.4267182 1.3752439 1.6272833 1.2083308 1.5759264
00000000: 609b 2e3e 5c8a 8f3f dd88 ab3f c6f3 ab3f
00000010: 1232 cb3e bb2d fa3f 8152 893e 7ddc 2b3f
00000020: 127d eb3f d845 9f3f a806 2d40 b49e b63f
00000030: fe07 b03f d24a d03f 95aa 9a3f f5b7 c93f

transformer_encoder.layers.0.norm2.bias f4 [16]
-0.12367295 0.9732957 -0.36578664 -0.1329038 -0.5846643 0.1922935 -0.066051975 0.7849982
0.52528656 1.3122534 -0.89739835 -0.054674033 -0.22364272 0.30021045 1.0435432 -0.8986879
00000000: 3e48 fdbd e829 793f 6348 bbbe ef17 08be
00000010: 8fac 15bf 96e8 443e 4246 87bd a4f5 483f
00000020: 2e79 063f ebf7 a73f e6bb 65bf e1f1 5fbd
00000030: 9902 65be 2fb5 993e d392 853f 6910 66bf

transformer_encoder.layers.1.self_attn.qkv_proj.weight f4 [48, 16]
0.48427314 2.1972582 -0.7777597 1.6265805 -1.7445283 0.32557026 -1.1251572 1.5819242
1.2704862 2.199006 -1.3089144 -0.5918265 -1.7905946 1.799579 0.58105505 -2.3081732
-0.3657919 -0.24885324 -0.37253204 -0.07598441 -0.06183834 0.22265014 0.5644083 -0.21621127
0.2747794 -0.36171943 -0.4894724 -0.16892584 0.40781644 -0.34464666 0.32423943 -0.13212138
-0.87971896 -1.4338204 0.04439038 -0.41578108 0.9396909 -0.26143336 0.4082372 -1.3237458
-0.26129362 -1.3351994 0.7363278 0.17867641 0.93275404 -0.57172865 0.26156113 1.3396358
-0.7281925 -2.0298486 0.18796872 -1.4831333 1.503764 -0.5019165 0.5678357 -1.2809962
-0.6167849 -1.575862 1.2039821 0.2874058 0.75806385 -0.8163542 0.06803704 1.5608469
-0.23742272 0.026080174 -0.7617282 -2.090949 0.3476196 -2.4450924 0.35941714 2.3746274
-1.0525457 1.0393051 -0.14214762 1.7352676 1.7499738 -1.7833153 0.6718738 -0.64911103
-0.1682398 -1.5774951 -0.10980445 -0.3064516 0.96692646 0.40972972 1.1384443 -0.5537901
0.17739408 -1.0012592 -0.028382804 0.19212653 0.22365521 -1.1502804 0.83399177 0.12626535
0.7247602 -1.0775506 1.3626198 1.4677861 0.47681433 1.8664895 -0.47400478 -0.5840444
1.3859422 -1.3737687 0.6312407 -1.2225369 -1.4122213 0.37544283 -0.7636789 -0.3080711
-0.21927932 -0.84078455 0.9355521 1.3843737 0.32991603 2.1535091 -0.17838225 -1.1474519
1.308096 -1.1174574 0.20175724 -1.5147495 -1.5512003 1.2665895 -0.5817565 -0.31035197
-0.42866933 -1.0283458 -0.09188013 -0.4893379 0.5949067 -0.11657989 0.51577234 -0.675861
-0.4267732 -0.9933531 1.6184843 0.15632495 0.42715746 -0.3488254 0.079913475 0.8104903
1.0300183 0.63574654 0.40140462 0.038416672 -0.5665321 0.37634376 -0.6567953 0.9780099
0.2970368 0.9428078 -0.5566012 -0.17053844 -0.150883 -0.3887094 0.042986892 -0.760552
0.63644624 0.25234076 0.84591305 0.9890377 -0.41954988 0.9380566 -0.34731847 0.04128
0.78567654 0.41648096 0.54130226 -0.9606616 -1.0706931 0.9405572 -0.7117825 -0.094432
-0.28190595 -0.32225955 -0.6605922 -0.7819257 0.34802464 -0.90510094 0.13185778 0.06069176
-0.6016154 -0.2268192 -0.8189863 0.44819364 0.8957032 -0.77825004 0.8713117 0.2850203
0.96258414 1.3672714 -0.29154468 2.1516194 -1.5779545 0.2796467 -1.9628531 1.3965855
1.1944902 1.4967711 -0.6816176 -1.3493215 -2.2717848 2.4585788 0.48726335 -1.7532797
-0.7138899 -0.20980348 0.7128474 1.653074 0.24471493 0.48111764 -0.9460502 -0.24227151
0.3417549 -0.396118 0.44502684 -0.37294108 -1.0265526 1.079797 -0.46326503 0.29823774
0.77369684 1.1647947 -0.0022369663 2.1673658 -0.97515357 0.6739796 -2.0735016 1.5912919
1.2586787 0.93445057 -0.6474068 -1.5764548 -2.3051593 2.367359 -0.1633219 -1.6314914
-0.750598 -0.5777577 0.08346442 -2.1275814 0.2717636 -0.09425849 1.9849726 -1.1096389
-1.2527035 -0.64039475 -0.091154635 1.0273843 2.1638632 -2.1372795 0.28807878 0.7455516
00000000: a6f2 f73e e19f 0c40 421b 47bf ca33 d03f
00000010: b44c dfbf 25b1 a63e 2705 90bf 7e7c ca3f
00000020: 4b9f a23f 84bc 0c40 828a a7bf f181 17bf
00000030: 3432 e5bf 9b58 e63f 06c0 143f 1cb9 13c0
00000040: 1349 bbbe 62d3 7ebe 85bc bebe b79d 9bbd
00000050: 334a 7dbd 66fe 633e 107d 103f 7d66 5dbe
00000060: e3af 8c3e 4a33 b9be 209c fabe e5fa 2cbe
00000070: 51cd d03e 8775 b0be b602 a63e d44a 07be
00000080: 4335 61bf 6d87 b7bf b0d2 353d 42e1 d4be
00000090: 958f 703f 98da 85be 7704 d13e 8170 a9bf
000000a0: 47c8 85be d0e7 aabf fb7f 3c3f f3f6 363e
000000b0: f8c8 6e3f cf5c 12bf 57eb 853e 3079 ab3f
000000c0: d36a 3abf 0ae9 01c0 df7a 403e 50d7 bdbf
000000d0: 577b c03f 9a7d 00bf ae5d 113f aff7 a3bf
000000e0: 9de5 1dbf d9b5 c9bf 161c 9a3f da26 933e
000000f0: 7910 423f 97fc 50bf 0157 8b3d d5c9 c73f
00000100: f11e 73be 17a6 d53c 9f00 43bf 1cd2 05c0
00000110: 32fb b13e 657c 1cc0 8605 b83e e5f9 1740
00000120: d1b9 86bf f307 853f 258f 11be 401d de3f
00000130: 24ff df3f ad43 e4bf ecff 2b3f 242c 26bf
00000140: 0e47 2cbe 5ceb c9bf 28e1 e0bd 39e7 9cbe
00000150: 7e88 773f 18c8 d13e 8bb8 913f 30c5 0dbf
00000160: cba6 353e 4329 80bf 0e83 e8bc d1bc 443e
00000170: df05 653e 633c 93bf 7c80 553f b44b 013e
00000180: e289 393f 2eed 89bf 536a ae3f 6ae0 bb3f
00000190: 0221 f43e 21e9 ee3f c1b0 f2be ef83 15bf
000001a0: 8e66 b13f a7d7 afbf fe98 213f 177c 9cbf
000001b0: abc3 b4bf 0b3a c03e 7680 43bf 7fbb 9dbe
000001c0: c28a 60be a83d 57bf 5880 6f3f 2833 b13f
000001d0: c1ea a83e 18d3 0940 d6a9 36be b4df 92bf
000001e0: b16f a73f d808 8fbf 7399 4e3e 50e3 c1bf
000001f0: bb8d c6bf 9b1f a23f feed 14bf 74e6 9ebe
00000200: 8c7a dbbe d6a0 83bf a62b bcbd 7f8a fabe
00000210: ce4b 183f 70c1 eebd a809 043f 3a05 2dbf
00000220: 0482 dabe 644c 7ebf 7e2a cf3f a613 203e
00000230: 62b4 da3e 3e99 b2be ada9 a33d 4b7c 4f3f
00000240: a4d7 833f 49c0 223f e884 cd3e cd5a 1d3d
00000250: 3f08 11bf 21b0 c03e bd23 28bf db5e 7a3f
00000260: 3515 983e da5b 713f 6b7d 0ebf a1a1 2ebe
00000270: 1381 1abe eb04 c7be 0613 303d 89b3 42bf
00000280: 24ee 223f cf32 813e c28d 583f 9331 7d3f
00000290: 3ecf d6be 7a24 703f bad3 b1be 3815 293d
000002a0: 1922 493f fe3c d53e c992 0a3f ebed 75bf
000002b0: 790c 89bf 5bc8 703f 6137 36bf 9065 c1bd
000002c0: fa55 90be 34ff a4be 921c 29bf 482c 48bf
000002d0: 4930 b23e b2b4 67bf ba05 073e ec97 783d
000002e0: 7803 1abf 4b43 68be 16a9 51bf a379 e53e
000002f0: ce4c 653f 653b 47bf 490e 5f3f 2eee 913e
00000300: ea6b 763f c002 af3f 5845 95be 22b4 0940
00000310: 6afa c9bf da2d 8f3e c53e fbbf 50c3 b23f
00000320: 0ee5 983f 3296 bf3f 7e7e 2ebf 91b6 acbf
00000330: ec64 11c0 5b59 1d40 957a f93e 786b e0bf
00000340: 7dc1 36bf b9d6 56be 2b7d 363f ee97 d33f
00000350: 8d96 7a3e 0d55 f63e 5930 72bf 0616 78be
00000360: 80fa ae3e facf cabe 8fda e33e 22f2 bebe
00000370: 1366 83bf ca36 8a3f 1331 edbe 9eb2 983e
00000380: ff10 463f fe17 953f 119a 12bb 1fb6 0a40
00000390: aaa3 79bf ed89 2c3f 40b4 04c0 74af cb3f
000003a0: 621c a13f 2738 6f3f 74bc 25bf 45c9 c9bf
000003b0: bb87 13c0 cf82 1740 db3d 27be b6d4 d0bf
000003c0: 3127 40bf eee7 13bf 65ef aa3d 4b2a 08c0
000003d0: 9924 8b3e 980a c1bd 9513 fe3f a608 8ebf
000003e0: 9758 a0bf e9f0 23bf 48af babd 5481 833f
000003f0: bc7c 0a40 30c9 08c0 107f 933e 78dc 3e3f

transformer_encoder.layers.1.self_attn.o_proj.weight f4 [16, 16]
-1.3289707 0.13568893 -0.67533416 0.56076497 1.6553946 -0.79010975 1.1621872 1.370866
-0.791657 -0.6523355 -0.24169016 0.78144044 0.52845585 -0.6854429 0.8210186 1.0417404
0.5277587 -0.39058208 0.7544117 -0.63756496 -0.84898365 0.56667364 0.15003096 -0.18912265
0.49159548 1.5020181 1.2116693 0.9825376 -0.6889888 0.13045335 0.2236163 -0.5724843
-0.38269565 -1.0263026 -0.8145869 1.2130729 0.39814255 -0.56434554 0.90358096 0.94676924
-0.5105386 0.11078703 -0.0072502173 0.17043275 0.1535958 -0.5229013 0.9536308 0.81657004
-0.26261917 0.14598961 -0.6932837 -0.0762715 -0.014828887 -0.25820208 -0.5591232 0.3542755
-0.37641546 -0.46560815 -0.5553423 -0.93187207 0.86075276 -0.13954541 -0.5357861 0.51699156
0.5464357 0.8962776 -0.37665457 -0.07806586 0.26211682 0.20096688 -0.37298495 -0.18237181
0.20275949 -1.191319 -0.8762045 -0.4080921 0.8565687 0.30058762 -0.1729648 -0.14347003
-0.5823404 -1.0871891 -0.48890877 1.157536 0.5733955 -0.91383445 0.862037 0.60807407
-0.45636088 0.29823557 0.2265587 0.18764392 -0.07023392 -0.78122556 0.35427958 0.7471348
0.83717465 0.43241316 1.1319319 -0.52022994 -0.6917237 1.1191134 -1.2071213 -0.87397164
1.1122115 0.41676685 -0.34041765 -0.9056409 -0.4025858 1.1802284 -0.6608942 -1.0058604
0.060383465 0.11507925 0.72943974 -0.5068693 -0.016007598 0.6140245 0.34207013 -0.12597957
0.17319317 1.1523526 0.50422996 1.1925634 -0.6890366 0.63798976 -0.047951456 -0.65908545
0.067073934 -0.7263059 -0.19134822 -0.17498288 -0.47159988 0.3184809 0.92199415 -0.40341568
-0.59134245 1.1651602 1.1775912 1.0094908 -1.3225397 -0.11357388 0.3586315 0.049537238
0.54770035 -0.29951456 0.10321701 0.083530374 -0.18704401 -0.26108712 -0.7795206 0.30966508
0.16190994 0.021847598 -0.35221818 -0.90996623 -0.37932405 0.5622193 -0.7683048 -0.42860496
-1.4271548 0.4800703 -0.66783553 0.77792555 0.82068264 -1.0832945 0.62968296 1.0873874
-1.0917153 -0.9550031 -0.4934347 0.26685128 0.91719294 -0.9817376 0.5271716 0.7792733
0.9435175 0.4165566 0.6706164 -1.0554051 -0.6790865 0.51246184 -0.47911343 -0.45399255
0.5022172 0.27282304 -0.274102 -0.21987726 0.040469084 0.8217497 -0.44639117 -1.0085247
0.55095625 0.6871394 0.3772752 -0.9106544 -0.42215818 0.9307077 -0.554226 -0.8009221
1.2107817 0.5136632 0.38229612 -0.09387728 -0.6676007 0.5728371 -0.7008778 -0.70983493
-0.39044988 0.21625102 -0.84371036 0.9809742 0.99130577 -0.93212986 0.5300096 0.942116
-0.763036 -0.34812126 -0.014943138 0.10243189 0.30558562 -0.7125654 0.59145135 0.52771753
0.32983106 0.27168205 0.6843625 -0.3982887 -1.0267576 0.8234914 -0.7336416 -0.68476486
0.77801895 0.6412406 -0.060376715 0.43428844 -0.043786634 1.1563983 -0.53095543 -0.7964532
-0.85816693 -0.1679005 -0.81782556 0.121518455 0.15661213 -0.14238952 0.68452185 0.29525867
-0.3605381 -0.72179496 -0.8255139 -0.51379186 1.059005 -0.6913555 0.69015986 0.22790836
00000000: b61b aabf 0af2 0a3e b3e2 2cbf 4b8e 0f3f
00000010: f8e3 d33f a244 4abf 8dc2 943f 8978 af3f
00000020: 08aa 4abf 76ff 26bf a07d 77be 7b0c 483f
00000030: e248 073f 3079 2fbf 462e 523f c057 853f
00000040: 321b 073f 60fa c7be 2021 413f 7537 23bf
00000050: fe56 59bf 8611 113f b7a1 193e 5ea9 41be
00000060: 67b2 fb3e 2142 c03f fb17 9b3f 9687 7b3f
00000070: 9261 30bf 9095 053e acfb 643e 558e 12bf
00000080: aff0 c3be e25d 83bf c488 50bf f945 9b3f
00000090: 57d9 cb3e f378 10bf 1551 673f 785f 723f
000000a0: a8b2 02bf 4fe4 e23d 3b93 edbb ec85 2e3e
000000b0: 3848 1d3e dcdc 05bf 2621 743f bc0a 513f
000000c0: 0576 86be 4d7e 153e 0a7b 31bf 3b34 9cbd
000000d0: dcf4 72bc 1033 84be b322 0fbf 9963 b53e
000000e0: 87b9 c0be 3164 eebe ea2a 0ebf 2b8f 6ebf
000000f0: 4b5a 5c3f fee4 0ebe 4729 09bf 8f59 043f
00000100: 36e3 0b3f 7372 653f ded8 c0be fee0 9fbd
00000110: 2d34 863e 43ca 4d3e e2f7 bebe adbf 3abe
00000120: 2fa0 4f3e 247d 98bf f04e 60bf 73f1 d0be
00000130: 1648 5b3f 9fe6 993e af1d 31be cfe9 12be
00000140: 4314 15bf 0329 8bbf 4052 fabe 242a 943f
00000150: 0cca 123f 0ef1 69bf 75ae 5c3f beaa 1b3f
00000160: 22a8 e9be 55b2 983e 01ff 673e ba25 403e
00000170: cdd6 8fbd 66fe 47bf 2264 b53e 3a44 3f3f
00000180: 1451 563f 4265 dd3e 25e3 903f ca2d 05bf
00000190: ce14 31bf 1c3f 8f3f f382 9abf 9bbc 5fbf
000001a0: f25c 8e3f 7762 d53e 394b aebe 15d8 67bf
000001b0: ba1f cebe b911 973f 5d30 29bf 09c0 80bf
000001c0: a754 773d abae eb3d 90bc 3a3f 30c2 01bf
000001d0: 5e22 83bc b630 1d3f d123 af3e ca00 01be
000001e0: 8d59 313e 4a80 933f 3715 013f eba5 983f
000001f0: b464 30bf 4c53 233f bf68 44bd d3b9 28bf
00000200: 0f5e 893d 2fef 39bf caf0 43be b62e 33be
00000210: 8a75 f1be ee0f a33e cf07 6c3f 808c cebe
00000220: 3862 17bf f823 953f 4fbb 963f ff36 813f
00000230: fb48 a9bf 6c99 e8bd 8c9e b73e 8fe7 4a3d
00000240: 1736 0c3f f959 99be 7163 d33d f911 ab3d
00000250: 7788 3fbe 36ad 85be a98e 47bf 6c8c 9e3e
00000260: b8cb 253e bcf9 b23c f155 b4be 8cf3 68bf
00000270: c336 c2be 9bed 0f3f a0af 44bf 1c72 dbbe
00000280: 02ad b6bf c6cb f53e 45f7 2abf 2126 473f
00000290: 4218 523f 65a9 8abf e732 213f 832f 8b3f
000002a0: 54bd 8bbf 157b 74bf 79a3 fcbe bba0 883e
000002b0: 28cd 6a3f 2853 7bbf b8f4 063f 747e 473f
000002c0: 5d8a 713f e846 d53e 84ad 2b3f 8417 87bf
000002d0: 9dd8 2dbf b330 033f 5b4e f5be b671 e8be
000002e0: 4e91 003f 76af 8b3e 1957 8cbe 8127 61be
000002f0: e9c2 253d 305e 523f 628d e4be 5617 81bf
00000300: 780b 0d3f 5ee8 2f3f 372a c13e a620 69bf
00000310: 1e25 d8be dc42 6e3f c1e1 0dbf 3b09 4dbf
00000320: e5fa 9a3f 6e7f 033f 51bc c33e bb42 c0bd
00000330: e1e7 2abf 74a5 123f ba6c 33bf beb7 35bf
00000340: 0ce9 c7be e870 5d3e 67fd 57bf 2021 7b3f
00000350: 37c6 7d3f 10a0 6ebf b6ae 073f 842e 713f
00000360: 5456 43bf f33c b2be 10d4 74bc d0c7 d13d
00000370: b875 9c3e b06a 36bf 5b69 173f 7f18 073f
00000380: 9edf a83e e919 8b3e 6132 2f3f 7fec cbbe
00000390: cb6c 83bf 55d0 523f f0cf 3bbf c04c 2fbf
000003a0: 402c 473f 5828 243f 934d 77bd 0e5b de3e
000003b0: 9d59 33bd dc04 943f b2ec 07bf 5be4 4bbf
000003c0: d4b0 5bbf 1cee 2bbe 045d 51bf abde f83d
000003d0: ee5e 203e 8fce 11be d33c 2f3f 252c 973e
000003e0: 7398 b8be 8ec7 38bf e154 53bf dd87 03bf
000003f0: 7a8d 873f adfc 30bf 51ae 303f cf60 693e

transformer_encoder.layers.1.self_attn.o_proj.bias f4 [16]
0.38256982 0.8780408 -0.036000226 -0.88150185 -0.66033894 0.14940423 -0.4332065 0.83278275
0.7037152 -0.7273624 0.22272947 -0.1627623 -0.15207922 0.07970178 0.22402827 -0.7590041
00000000: 31e0 c33e 48c7 603f f974 13bd 1baa 61bf
00000010: f90b 29bf 6cfd 183e 3ecd ddbe 4031 553f
00000020: ae26 343f 6c34 3abf 3213 643e 29ab 26be
00000030: a8ba 1bbe b03a a33d ab67 653e 184e 42bf

transformer_encoder.layers.1.linear_net.0.weight f4 [32, 16]
-0.22203325 0.21426398 -0.21021532 0.19619206 0.04129919 -0.3148388 0.31681672 0.2304362
-0.53404105 0.61607057 -0.010354114 0.084523275 0.058020763 -0.10738178 0.17732665 0.020664794
0.6483461 -0.7799529 -0.68346786 -0.69187474 0.37603775 -0.6053321 -0.47339022 0.4230021
-0.78550416 -0.39951852 0.5208514 0.4211849 0.5371964 0.59894603 0.34663266 0.4338045
0.29993793 -0.48020422 -0.4384162 -0.6839778 0.58092415 -0.88227016 -0.24954915 0.6372247
-0.7454174 -0.20676142 0.64068955 0.7090843 0.74291784 0.4793023 0.5968213 0.3955688
0.8297758 -0.5468878 0.614564 0.59661514 0.5809181 0.5253339 -0.51555246 -0.4492097
0.41205788 -0.81816286 1.1750295 -0.81228554 -1.1503153 0.72991765 -0.8592804 0.78233165
-0.6410587 0.93177974 0.14988996 0.17029019 -0.51401156 0.59136474 0.68630785 -0.02930775
0.59606117 0.88716865 -0.83299154 -0.45406833 -0.48030567 -0.7705046 -0.10517381 -0.7810768
-0.358106 0.23393962 -0.2853723 0.022792649 -0.24679682 -0.20307547 0.2359409 0.4952823
-0.21223079 0.3499081 -0.3507187 0.2721884 0.22034158 -0.2177421 0.45966938 -0.4568614
0.8783193 -0.58914983 0.24842432 0.18276106 0.74848723 0.0012392031 -0.14723697 -0.16844222
-0.33000758 -0.5586967 0.63966477 0.052691903 0.030606126 0.78758854 -0.16072337 -0.1571784
0.24560142 -0.1784298 -0.33007717 -0.6617018 0.19978125 -0.47812593 -0.7117051 0.68804127
-0.45563304 -0.4119491 0.36438605 0.24215211 0.43077013 0.63480026 0.6604635 0.40162095
-0.60487956 0.8177175 -0.5204468 -0.3443568 -0.3882424 -0.5613273 0.5550379 0.8179777
-0.2074899 0.4801203 -0.4980745 0.7651967 0.8221727 -0.6803069 0.4547569 -0.43840644
-0.59811485 0.65461254 0.49639076 0.4718136 -0.77617186 0.271887 0.78810936 0.5725197
0.41532582 0.98497975 -0.90632486 -0.4226186 -0.33614415 -0.67757285 -0.15807809 -0.72503847
-0.9213473 0.7933278 0.38653922 0.228243 -0.64539015 0.5209704 0.94221747 0.5701786
0.47856474 0.58937997 -0.82083005 -0.13875173 -0.406784 -0.7236509 -0.32323587 -0.82866186
0.624079 -0.67743045 0.68409985 0.75306845 0.6008289 0.5761306 -0.42187557 -0.70160747
0.5866924 -0.6013964 0.76417285 -0.5534148 -0.6673705 0.6691546 -0.5630706 0.6477174
-0.5839895 0.62626785 0.40341517 0.5459678 -0.6984057 0.67359394 0.72585815 -0.5082299
0.43344897 0.71567374 -0.68054765 -0.359206 -0.32439333 -0.59726614 -0.45656976 -0.7057951
-0.5502754 0.53919977 -0.10768908 -0.1411715 -0.64240354 0.05331979 0.38874537 0.17196858
1.6428221 0.18008763 -0.5837883 0.21404417 0.8426918 -0.14703894 0.23136324 -0.6827397
-0.38531482 0.34656912 0.790174 0.5700766 -0.35946447 1.0121388 0.13731311 -0.79412776
0.3817419 0.19697492 -0.41755265 -0.684131 -0.55711114 0.09973624 -0.7685733 -0.36065543
-0.7001462 0.51346785 0.8771453 0.6803345 -0.26769096 0.38162285 0.45712903 -0.6469784
0.33338618 0.65286815 -0.32326108 -0.50081027 -0.82099056 -0.14603372 -0.47710973 -0.44371367
00000000: af5c 63be 0468 5b3e af42 57be 92e6 483e
00000010: 5729 293d 8d32 a1be cd35 a23e 78f7 6b3e
00000020: eab6 08bf cdb6 1d3f 4da4 29bc 8a1a ad3d
00000030: 2ea7 6d3d fbea dbbd 1e95 353e 3749 a93c
00000040: 03fa 253f feaa 47bf c0f7 2ebf b41e 31bf
00000050: 0588 c03e 0bf7 1abf 3460 f2be bb93 d83e
00000060: cd16 49bf b18d ccbe 8456 053f 8ca5 d73e
00000070: b485 093f 8754 193f d679 b13e a01b de3e
00000080: 7791 993e 54dd f5be 1778 e0be 2b19 2fbf
00000090: 72b7 143f 75dc 61bf d089 7fbe 2821 233f
000000a0: add3 3ebf 44b9 53be 3b04 243f 8c86 353f
000000b0: dd2f 3e3f 1c67 f53e 48c9 183f fe87 ca3e
000000c0: 306c 543f d700 0cbf 1154 1d3f c5bb 183f
000000d0: 0cb7 143f 487c 063f 3ffb 03bf d0fe e5be
000000e0: 40f9 d23e 1f73 51bf 5e67 963f f2f1 4fbf
000000f0: 883d 93bf e2db 3a3f cdf9 5bbf e346 483f
00000100: 6c1c 24bf 1e89 6e3f c17c 193e 8d60 2e3e
00000110: 4396 03bf ae63 173f dfb1 2f3f ce16 f0bc
00000120: 7797 183f 7c1d 633f ef3e 55bf a57b e8be
00000130: a0ea f5be ca3f 45bf 5e65 d7bd a6f4 47bf
00000140: ab59 b7be de8d 6f3e 511c 92be a6b7 ba3c
00000150: 4eb8 7cbe 04f3 4fbe 7e9a 713e a495 fd3e
00000160: 0753 59be 2827 b33e 6791 b3be 475c 8b3e
00000170: 39a1 613e c9f7 5ebe c959 eb3e bde9 e9be
00000180: 89d9 603f 86d2 16bf f262 7e3e b725 3b3e
00000190: dc9c 3f3f c26c a23a 4ac5 16be 1e7c 2cbe
000001a0: c1f6 a8be bf06 0fbf 12c1 233f 77d3 573d
000001b0: b3b9 fa3c 679f 493f ab94 24be 60f3 20be
000001c0: f07e 7b3e 4db6 36be e0ff a8be 4a65 29bf
000001d0: 7593 4c3e eccc f4be 4e32 36bf 7923 303f
000001e0: bc48 e9be feea d2be cf90 ba3e b9f6 773e
000001f0: e78d dc3e 4582 223f 2314 293f 43a1 cd3e
00000200: 63d9 1abf ef55 513f 003c 05bf 894f b0be
00000210: b5c7 c6be 25b3 0fbf f716 0e3f fd66 513f
00000220: 3b78 54be 54d2 f53e 9f03 ffbe eee3 433f
00000230: e979 523f 9828 2ebf e5d5 e83e cf76 e0be
00000240: 0e1e 19bf b094 273f ee26 fe3e 8d91 f13e
00000250: 33b3 46bf c634 8b3e 89c1 493f a790 123f
00000260: 96a5 d43e a227 7c3f e804 68bf 7761 d8be
00000270: 161b acbe 6a75 2dbf 39df 21be 1f9c 39bf
00000280: 6bdd 6bbf 8817 4b3f 78e8 c53e 88b8 693e
00000290: 4a38 25bf 515e 053f 2a35 713f 3af7 113f
000002a0: 7006 f53e 9be1 163f eb21 52bf ef14 0ebe
000002b0: fe45 d0be 2f41 39bf 2c7f a5be 2f23 54bf
000002c0: a4c3 1f3f 156c 2dbf 2b21 2f3f 18c9 403f
000002d0: eccf 193f 4c7d 133f 1300 d8be 8c9c 33bf
000002e0: 7931 163f 1df5 19bf d5a0 433f 98ac 0dbf
000002f0: cbd8 2abf b74d 2b3f 6525 10bf cfd0 253f
00000300: 5680 15bf 1753 203f 6f8c ce3e 8cc4 0b3f
00000310: b7ca 32bf a770 2c3f d7d1 393f 5b1b 02bf
00000320: 06ed dd3e 6536 373f 5f38 2ebf d9e9 b7be
00000330: e216 a6be 6fe6 18bf 83c3 e9be fdae 34bf
00000340: d9de 0cbf ff08 0a3f 188c dcbd 438f 10be
00000350: 8f74 24bf da65 5a3d a209 c73e 8818 303e
00000360: ff47 d23f e468 383e 2673 15bf 652e 5b3e
00000370: a6ba 573f 6091 16be 7cea 6c3e 07c8 2ebf
00000380: fc47 c5be 8271 b13e d848 4a3f 8af0 113f
00000390: ba0b b8be c48d 813f cf9b 0c3e f54b 4bbf
000003a0: ad73 c33e cbb3 493e 76c9 d5be 3623 2fbf
000003b0: d69e 0ebf 8442 cc3d 38c1 44bf d4a7 b8be
000003c0: c83c 33bf a172 033f 988c 603f 672a 2e3f
000003d0: ca0e 89be 1264 c33e d10c ea3e 60a0 25bf
000003e0: 98b1 aa3e 5e22 273f 7a82 a5be 1a35 00bf
000003f0: 702c 52bf dd89 15be ba47 f4be 702e e3be

transformer_encoder.layers.1.linear_net.0.bias f4 [32]
0.043708213 -0.5325181 -0.67834073 0.8791556 0.52728677 -0.0037918668 -0.9669305 -0.19589284
-0.6292045 0.15044081 0.21792029 0.64582187 0.49902734 -0.31471562 0.39922172 0.21976604
0.73965454 -0.8150695 0.5244406 0.6482845 0.35216546 -0.8128537 0.23568827 0.28316724
-0.14828038 -0.481717 0.79336864 0.31137872 0.84237283 0.46512032 -0.3026863 1.4420836
00000000: 6207 333d 1b53 08bf bda7 2dbf 5710 613f
00000010: 44fc 063f f880 78bb c288 77bf 2298 48be
00000020: 8c13 21bf 280d 1a3e 7f26 5f3e 9554 253f
00000030: 8380 ff3e 6822 a1be ca66 cc3e 590a 613e
00000040: 005a 3d3f 65a8 50bf bd41 063f f9f5 253f
00000050: 084f b43e 2e17 50bf 4458 713e 4cfb 903e
00000060: d0d6 17be 9ca3 f6be 351a 4b3f 086d 9f3e
00000070: bfa5 573f 4024 ee3e b3f9 9abe 3296 b83f
