lightning_logs/version_6/checkpoints/epoch=92-step=558.ckpt (torch, 22555 bytes, 30 tensors)

front_linear.weight f4 [8, 2]
0	0x3ead8837	0.33892986
1	0x3e0d4856	0.13797125
2	0xbf2ace44	-0.66720986
3	0x3e9e8c15	0.3096625
4	0x3f87da31	1.0613462
5	0x3f80edf3	1.0072616
6	0x3eca1c07	0.39474508
7	0x3f8ea69b	1.1144594
8	0xc01982d7	-2.3986108
9	0xbf412fb6	-0.75463426
10	0x3f9b66b6	1.214072
11	0x3fd56641	1.667183
12	0x3f50967d	0.81479627
13	0x3e90fefc	0.28319538
14	0xbf63992c	-0.88905597
15	0xbf954aef	-1.1663493

front_linear.bias f4 [8]
0	0xbee40b41	-0.44539836
1	0xbfb2affa	-1.3959954
2	0x3ff5db79	1.9207603
3	0x3f0250e8	0.50904703
4	0x3f0bf8a6	0.5467628
5	0x3e813d4a	0.25242072
6	0x3f990c8a	1.1956952
7	0xbfa109e7	-1.2581147

transformer_encoder.layers.0.self_attn.qkv_proj.weight f4 [24, 8]
0	0x40501e04	3.251832
1	0x40034fc8	2.0517445
2	0x408811a2	4.2521524
3	0xbf0af785	-0.54283935
4	0x403b9b1b	2.931342
5	0x3f09f2c9	0.53886086
6	0xc003697d	-2.0533135
7	0xc0c457ae	-6.135703
8	0xc05066a8	-3.2562656
9	0xbfd37031	-1.6518613
10	0xc07b93b7	-3.9308908
11	0x3ef57b2d	0.47945538
12	0xc03de3aa	-2.9670205
13	0xbf257b17	-0.64640945
14	0x3ffee614	1.9913964
15	0x40af195d	5.471846
16	0x4029fcca	2.656054
17	0x3f98bd25	1.1932722
18	0x404fc432	3.2463498
19	0xbf0cd3e2	-0.5501081
20	0x4054d3e3	3.3254325
21	0x3f2fc0e7	0.6865372
22	0xbfd6234c	-1.6729522
23	0xc0b0a092	-5.519601
24	0xc0761d33	-3.8455322
25	0xc0033e3e	-2.050674
26	0xc07a4e09	-3.911013
27	0xbcfefb28	-0.03112562
28	0xc032e36a	-2.7951303
29	0xbdc3d39b	-0.09561845
30	0x4009bef9	2.152281
31	0x40bce997	5.9035144
32	0x4096d656	4.713664
33	0x407f9337	3.9933603
34	0xc04d05c5	-3.2034771
35	0x3f956cda	1.1673844
36	0xc08acff9	-4.3378873
37	0x40a43b8f	5.1322703
38	0xc053f31b	-3.311713
39	0xc0a0b051	-5.021523
40	0xbe877e77	-0.26463673
41	0x405be64d	3.4359314
42	0xbfdd613b	-1.7295297
43	0xc05a5691	-3.4115336
44	0x3f588fa8	0.845942
45	0xbef65608	-0.48112512
46	0xc08c976a	-4.393483
47	0x3e726018	0.2366947
48	0x3f2d7233	0.6775238
49	0xbec521af	-0.3850226
50	0x3ed20a11	0.41023305
51	0x40b826f6	5.754756
52	0xbe7fbd0b	-0.24974458
53	0x3f19c59d	0.6006716
54	0x3f06b027	0.5261254
55	0xbf2b42af	-0.66898626
56	0xc0877cdf	-4.233993
57	0xc06e183b	-3.720229
58	0x40089936	2.1343513
59	0xbfba6328	-1.456151
60	0x40956d07	4.669559
61	0xc0a84125	-5.257952
62	0x4032eb4d	2.7956116
63	0x409e2715	4.9422708
64	0x3fae5f9e	1.362293
65	0x3f9186bc	1.1369243
66	0x3c8186ed	0.015811408
67	0x3e03e170	0.12878966
68	0x3edc0dc3	0.4297925
69	0x3f93c83f	1.1545485
70	0xbf97d62f	-1.1862239
71	0xbfb02c6b	-1.3763555
72	0x4019028a	2.39078
73	0x400b0d3a	2.1726823
74	0xbf2148f7	-0.6300196
75	0x3f2c1905	0.67225677
76	0xbf80238b	-1.0010847
77	0x3fc82d9e	1.5638921
78	0xbf022fce	-0.50854194
79	0xbf670ac6	-0.90250814
80	0x3ed23665	0.41057125
81	0x3f0aeecb	0.5427062
82	0xbde45bfd	-0.11150358
83	0xbe02c442	-0.12770179
84	0x3f5402da	0.8281685
85	0xbd8005bd	-0.062510945
86	0x3f4342cd	0.76273805
87	0x3f02507a	0.5090405
88	0xbf8a4f5b	-1.0805467
89	0xbf4471fa	-0.76736414
90	0x3f0aacf9	0.54170185
91	0xbeb34a67	-0.35017702
92	0xbe7fcaf1	-0.2497976
93	0xbf8e24f4	-1.1105027
94	0xbe968dc5	-0.29405037
95	0xbed2ad7a	-0.41147977
96	0xbfae3690	-1.3610401
97	0xbf416a52	-0.75552857
98	0xc029eba4	-2.6550074
99	0xc00e071d	-2.2191842
100	0xbfe11631	-1.7584897
101	0xc05fe472	-3.4983182
102	0x3f510aac	0.8165691
103	0x408aa96a	4.3331804
104	0xbf5f6efa	-0.8727871
105	0xbf7674da	-0.9627205
106	0xc049f651	-3.155659
107	0xc012038d	-2.2814667
108	0xbfc35525	-1.5260359
109	0xc0801da1	-4.003617
110	0x3ef54622	0.4790507
111	0x40896ee4	4.2947865
112	0x3f53e805	0.8277591
113	0x3f7026b4	0.93809056
114	0x4063fab8	3.5621777
115	0x3ffe7b42	1.9881365
116	0x3fd84a5c	1.6897693
117	0x4082013a	4.0626497
118	0xbd867579	-0.06565375
119	0xc089d64c	-4.3074093
120	0xbf6700f7	-0.9023585
121	0xbf89a0a0	-1.0752144
122	0xc00c1834	-2.1889772
123	0xbfc398e5	-1.5281035
124	0xbf792786	-0.9732593
125	0xc0323900	-2.784729
126	0x3f51ac86	0.81903875
127	0x406a61df	3.6622236
128	0x40baf0d2	5.841897
129	0x4018aa42	2.3853917
130	0x3ed78ff3	0.42102012
131	0x40205181	2.5049746
132	0xc0df46b7	-6.977382
133	0x40f4b4a3	7.6470504
134	0xbe3ed3c7	-0.18635474
135	0xc0ce8a9d	-6.4544206
136	0x408e2195	4.4415994
137	0x3f2cb7bb	0.6746785
138	0x3fc04a10	1.5022602
139	0x3f1de804	0.6168215
140	0xc08ec42d	-4.4614472
141	0x40aec645	5.461703
142	0x3f486fa7	0.7829537
143	0xc09fc304	-4.9925556
144	0xc09e9f6f	-4.956962
145	0xbf3b6c3e	-0.7321204
146	0xbfb19d16	-1.3876064
147	0xbfef3b2a	-1.868993
148	0x40aae7a0	5.3407745
149	0xc0c27ea6	-6.07796
150	0xbeaba403	-0.3352357
151	0x40b5758e	5.6706
152	0x40a27dcb	5.0778556
153	0x3fd12711	1.6340047
154	0x3f5b6855	0.85706073
155	0x400537b1	2.0815241
156	0xc0b06dfa	-5.513425
157	0x40d72b22	6.724015
158	0x3e72a371	0.2369516
159	0xc0b1556a	-5.5416765
160	0xc01e09dc	-2.4693518
161	0xc00cf792	-2.2026105
162	0xbf93cdcb	-1.1547178
163	0x3e446661	0.1917968
164	0xbed55680	-0.41667557
165	0xbf89a24e	-1.0752656
166	0x401285d5	2.2894185
167	0x4014be3c	2.324111
168	0x3fb213e1	1.3912317
169	0x3f5d4888	0.864388
170	0xbe7215d8	-0.23641145
171	0x3f5b20bf	0.8559684
172	0xbf2b407d	-0.66895276
173	0x3f6ceaad	0.92545587
174	0x3eac993c	0.3371066
175	0xbe4c2221	-0.19934894
176	0xbd2533d1	-0.04033262
177	0xbe8c55a3	-0.27409086
178	0xbf35fbb3	-0.7108719
179	0x40074027	2.1132905
180	0xbfc70b3c	-1.5550303
181	0x3e9e9b9d	0.309781
182	0x3f90f14f	1.1323642
183	0xbf56a2fe	-0.83842456
184	0xbfafcd12	-1.3734457
185	0xbf25cd85	-0.6476672
186	0x3f6772eb	0.90409726
187	0xbfc060ce	-1.5029542
188	0x3f7190d4	0.94361615
189	0xbfe1a127	-1.7627305
190	0xbea56b0f	-0.32308242
191	0x3f0c1c06	0.5473026

transformer_encoder.layers.0.self_attn.o_proj.weight f4 [8, 8]
0	0x3f43d1b3	0.7649185
1	0x3fe69e59	1.8017074
2	0xbbfd45d6	-0.0077292724
3	0x3e8e93c4	0.2784711
4	0xbe25da9a	-0.16196671
5	0xbfcbf855	-1.593516
6	0x40038b09	2.055361
7	0x3f9aa8aa	1.2082722
8	0x40245672	2.5677762
9	0x403dfeca	2.968676
10	0xbf149ede	-0.5805491
11	0x3f7ff7d6	0.9998754
12	0xc01a7de8	-2.4139347
13	0x3e836eff	0.2567062
14	0xbfcd4bf2	-1.6038802
15	0x3e52e97d	0.20596881
16	0x3fc57611	1.5426656
17	0xbf554065	-0.83301383
18	0xc049b10d	-3.1514313
19	0x404d9b0c	3.2125883
20	0xc028f5a8	-2.6399937
21	0xbf075c15	-0.5287488
22	0xbf2574c6	-0.6463131
23	0x3fb227ac	1.3918357
24	0xbf879f74	-1.0595536
25	0xc0437450	-3.0539742
26	0xbd8f863a	-0.070080236
27	0xbe8560fb	-0.26050553
28	0x40012175	2.017667
29	0x3fedcacb	1.8577513
30	0xbfaf24ad	-1.3683068
31	0xbf9eb878	-1.2400045
32	0x3da89b78	0.08232778
33	0xbfe3039a	-1.7735474
34	0xbfd67641	-1.6754838
35	0x3ffcc6c2	1.9748156
36	0xbf6ddc0d	-0.92913896
37	0x3eecdd10	0.46262407
38	0xbf2b150b	-0.66828984
39	0x3f012eab	0.50461835
40	0xbf93ba3e	-1.1541212
41	0xbfb61b09	-1.4227
42	0x4027349e	2.6125865
43	0xc011d9f2	-2.2789273
44	0x3f945fff	1.1591796
45	0x40081df8	2.1268291
46	0xc01e7210	-2.4757118
47	0xc01e354c	-2.472003
48	0xbe6aeea6	-0.229426
49	0x3f9a11e8	1.2036715
50	0x3ffbc215	1.9668604
51	0xbffe836c	-1.9883857
52	0x3f076fd7	0.5290503
53	0x3fa2bf76	1.2714679
54	0x3fc0fdf4	1.50775
55	0xc01946c2	-2.3949437
56	0xc0594314	-3.3947191
57	0xbfd6bc4f	-1.6776217
58	0x3f4e63f9	0.80621296
59	0xbf847818	-1.034915
60	0x40622cf8	3.5339947
61	0xbf765ad7	-0.9623236
62	0xbfe03724	-1.7516828
63	0xbde9b2f7	-0.11411088

transformer_encoder.layers.0.self_attn.o_proj.bias f4 [8]
0	0xc01c2cb0	-2.4402275
1	0x3fd2f27a	1.6480248
2	0x40b104b7	5.5318255
3	0xbf4fbb13	-0.8114483
4	0x40837bb1	4.108849
5	0xbffcd964	-1.9753842
6	0xc0838753	-4.110269
7	0xc045892f	-3.086498

transformer_encoder.layers.0.linear_net.0.weight f4 [16, 8]
0	0x3f638ff0	0.88891506
1	0x3e8f7a27	0.28022882
2	0xbfa72d03	-1.3060611
3	0x3eea17d9	0.4572132
4	0x3ec4787d	0.38373175
5	0xbf040edf	-0.5158519
6	0xbfb1184f	-1.3835543
7	0x3fe30be0	1.7737999
8	0x3d0e425b	0.03473125
9	0xbe228d6c	-0.1587426
10	0xbfb76167	-1.43266
11	0x3fabaf56	1.3412883
12	0x3f2eda81	0.6830216
13	0x3d2a263a	0.041540362
14	0xbf691f8f	-0.9106378
15	0x3ede1363	0.43374166
16	0x400878f7	2.132383
17	0xc05f9c65	-3.4939206
18	0xc03dd217	-2.9659479
19	0xbe0c0466	-0.13673553
20	0x3f45947b	0.7717969
21	0xbfdc0da3	-1.7191662
22	0x404a9bf9	3.1657698
23	0x3fb3f05e	1.4057729
24	0x3f9780ab	1.1836141
25	0x3ff9e195	1.9521967
26	0xc020832f	-2.5080068
27	0x3fcf26ba	1.6183693
28	0x3fda1a6a	1.7039311
29	0x3f5e81c9	0.86916786
30	0xbf5ef22f	-0.8708829
31	0x403fc655	2.9964802
32	0x3ff39d65	1.9032408
33	0x400cc630	2.1995964
34	0xbfc09032	-1.5044005
35	0x3f9e4ffd	1.236816
36	0x3f48e02f	0.78467077
37	0x3f39aa99	0.72525936
38	0xbf6ae47f	-0.9175491
39	0x4006dbc8	2.1071644
40	0x4007820a	2.117312
41	0xbdbfc792	-0.09364237
42	0xbfc2626b	-1.5186285
43	0x3f06dac3	0.52677554
44	0xbfaf63b2	-1.37023
45	0xc0004244	-2.0040445
46	0x3f863bad	1.0486962
47	0x408f2086	4.47272
48	0x3f95eea4	1.1713452
49	0x3fa5dabb	1.2957376
50	0xc063f92b	-3.562083
51	0x3f9f7558	1.2457685
52	0xbfdcc3db	-1.724727
53	0xbf8567c8	-1.0422297
54	0x3fcc1b8f	1.594591
55	0x4093387a	4.600644
56	0xbeeefe5a	-0.4667843
57	0xbf994a0f	-1.1975726
58	0xc074a1f3	-3.8223846
59	0xbfdc29d1	-1.7200261
60	0xc026dcb6	-2.6072211
61	0xbf88ceaa	-1.0688069
62	0x406961bf	3.646591
63	0x3fb0176c	1.3757148
64	0x3faba931	1.3411008
65	0xbe2699a1	-0.16269542
66	0xc081bad3	-4.0540557
67	0x3e625b80	0.22105217
68	0xbf06b7e2	-0.5262433
69	0x3e90aea6	0.28258246
70	0xbf99edc7	-1.2025689
71	0x40a4fe8d	5.156073
72	0xbfa3bcb1	-1.2791959
73	0x3f95a457	1.1690778
74	0xbf325237	-0.696567
75	0x4035f279	2.8429244
76	0x3fa82e14	1.3139062
77	0x401afbed	2.4216263
78	0x3fae5c99	1.3622009
79	0xbf09350f	-0.53596586
80	0x4057c014	3.3710985
81	0xc02504c8	-2.5784168
82	0xc04eba42	-3.2301183
83	0xbea91b43	-0.33028612
84	0x3f590c67	0.8478455
85	0xc0378266	-2.867334
86	0x407e5483	3.9739082
87	0x3ff28e04	1.894959
88	0x3f10e58b	0.56600255
89	0xbeec4bfa	-0.46151716
90	0xbfc5bd8e	-1.5448472
91	0x3decc91f	0.11561798
92	0x3d9a8391	0.075446256
93	0xbe94fb84	-0.2909814
94	0xbd59836f	-0.05310386
95	0x3edd3347	0.43203184
96	0x3e82d6a6	0.2555439
97	0x3ae35d9e	0.0017346626
98	0xbf79267e	-0.9732436
99	0x3fa58fea	1.2934544
100	0x3f286dc3	0.65792483
101	0x3dd24eee	0.10268961
102	0xbf9ce488	-1.2257242
103	0x3fde7394	1.7379022
104	0x4063ac9c	3.5574102
105	0xc07c363f	-3.940811
106	0xc0d30b70	-6.595146
107	0xc0470351	-3.1095774
108	0xc03fa1e0	-2.994255
109	0xc0416020	-3.021492
110	0x40bf7076	5.982478
111	0x4014e430	2.3264275
112	0x3e94fdf2	0.29099995
113	0xbd161429	-0.03664032
114	0xbfaaadfe	-1.3334348
115	0x3fc4792e	1.5349481
116	0xbedd866f	-0.43266627
117	0xbe4b02a7	-0.1982523
118	0xbebe029c	-0.37111366
119	0x3f06d05a	0.5266167
120	0x40871c99	4.222241
121	0xbfa520db	-1.2900652
122	0xc095fb48	-4.686924
123	0xbd563ba1	-0.05230296
124	0xc01cab40	-2.4479523
125	0xc017a94b	-2.3697078
126	0x404a9353	3.165242
127	0x401367b0	2.3032036

transformer_encoder.layers.0.linear_net.0.bias f4 [16]
0	0xc0620dab	-3.5320842
1	0xbfdef2a0	-1.7417793
2	0xbf3f94fd	-0.74836713
3	0xc05d0ca8	-3.4538975
4	0xc0663b9d	-3.5973885
5	0xc062593d	-3.5366967
6	0xc0a9b7af	-5.3036723
7	0xc058c9dc	-3.3873205
8	0xc057db16	-3.372747
9	0xbfb9a562	-1.4503596
10	0xc045c0c1	-3.0898898
11	0xbf05e30b	-0.52299565
12	0xc03cc178	-2.9493084
13	0xbf17cffe	-0.59301746
14	0xbf2f2d7b	-0.6842877
15	0xc005230e	-2.0802646

transformer_encoder.layers.0.linear_net.3.weight f4 [8, 16]
0	0x3fc96649	1.573434
1	0x3fb0be98	1.3808165
2	0xbeef62ca	-0.46755058
3	0xbf6d9a1e	-0.9281329
4	0x3f81db26	1.0145004
5	0xbf18e92c	-0.5973079
6	0x3d49f328	0.049304157
7	0x3fa17036	1.2612369
8	0xbead566c	-0.33854997
9	0x3fbcdb9e	1.4754522
10	0x40052052	2.0800977
11	0x3fc2e96d	1.5227486
12	0x3f8e40e6	1.1113555
13	0x3ffac2b7	1.9590672
14	0x3fcdab29	1.6067859
15	0x3fceac84	1.6146398
16	0x3f247bdb	0.6425149
17	0x3f1b2094	0.60596585
18	0xbfa0fb35	-1.2576662
19	0xbf828db1	-1.0199491
20	0x3f1bc44c	0.608464
21	0xc007e66f	-2.1234396
22	0x3d339bfc	0.04384993
23	0x4064eaba	3.5768266
24	0x3e80b637	0.2513902
25	0x3ff24771	1.8928052
26	0xbe9ac1c0	-0.30225945
27	0x3ef3e5d3	0.4763628
28	0x3f260be4	0.64861894
29	0xbe17bf5b	-0.1481909
30	0x3f776619	0.96640164
31	0x3fe72d3e	1.8060682
32	0x40478ffa	3.1181626
33	0x3f46fb38	0.7772708
34	0xbfd84f43	-1.6899189
35	0x400af1de	2.1710124
36	0x3ff18999	1.8870116
37	0xbfa9f7ee	-1.3278787
38	0x4013ff30	2.3124504
39	0x3f562b24	0.8365958
40	0x3fe9646f	1.8233775
41	0x402268e8	2.537653
42	0xbe4bf211	-0.1991656
43	0x3f17ddcc	0.5932281
44	0x3eadb036	0.339235
45	0xbe8a5e76	-0.27025193
46	0x3ee917b5	0.455259
47	0x3fbcac82	1.4740145
48	0x4032e34d	2.7951233
49	0x3e8ceac1	0.27522853
50	0xbfdd235a	-1.7276413
51	0x3e3771c1	0.17914487
52	0x3fa9715e	1.3237722
53	0xbf8936f9	-1.0719901
54	0x3ef32924	0.47492325
55	0x3fa8027a	1.3125756
56	0x40090336	2.140821
57	0x4039a414	2.9006395
58	0xbdadaa9e	-0.08479808
59	0x3edc1c46	0.4299032
60	0x3e48356b	0.19551627
61	0xbf8858ef	-1.065214
62	0x3eb4b09c	0.35290992
63	0x3f9e3bec	1.2362037
64	0x3f5b912e	0.857684
65	0x3f9e2a3c	1.2356639
66	0xbff99608	-1.9498911
67	0x4031cd99	2.7781737
68	0x3fd04587	1.6271218
69	0xc0571157	-3.3604333
70	0x40454102	3.0820928
71	0x3f4a2052	0.78955567
72	0x400c60cc	2.193408
73	0x40003cdb	2.0037143
74	0xbeb132ad	-0.34608975
75	0x3f10cb1b	0.56559914
76	0x3f9b619a	1.2139161
77	0xbfcc0c27	-1.5941209
78	0x3f913f45	1.1347433
79	0x3ff23cea	1.892484
80	0xbf364665	-0.71201164
81	0xbfb5faaf	-1.4217128
82	0xc0611252	-3.5167432
83	0xc008a252	-2.1349072
84	0xbfd18b71	-1.6370679
85	0x3f20497f	0.62612146
86	0x3f8eb947	1.1150292
87	0xbff7bf70	-1.9355297
88	0xc049872f	-3.148876
89	0xbfabd156	-1.3423259
90	0xbffbbbf3	-1.9666733
91	0xbfae2aca	-1.3606808
92	0xbfd77858	-1.6833601
93	0xc08b4142	-4.351716
94	0xbfb70e2d	-1.4301201
95	0xbfd6e365	-1.6788145
96	0xbf94db03	-1.1629337
97	0xbf959782	-1.1686862
98	0x3f89c562	1.0763361
99	0x3f50d997	0.81582016
100	0xbf633d46	-0.8876537
101	0x3fbbf1e2	1.4683192
102	0xbdc1e527	-0.094675355
103	0xc07f7119	-3.991278
104	0xbf800285	-1.0000769
105	0xc00d9240	-2.2120514
106	0xbd4808e5	-0.048836607
107	0xbf1e56ae	-0.6185101
108	0xbf466c61	-0.77509123
109	0xbc6de806	-0.014520651
110	0xbf84d296	-1.0376766
111	0xc023e7cb	-2.5610225
112	0xbf233424	-0.63751435
113	0xbf5af4cd	-0.85529786
114	0x3ff14a4b	1.8850797
115	0xbf3c0753	-0.73448676
116	0xbfe7eec8	-1.8119745
117	0x4064059e	3.5628428
118	0xbfe27566	-1.7692077
119	0x3fc8575f	1.5651664
120	0xbfbd8065	-1.4804808
121	0xc005e18c	-2.0918913
122	0x3f9a8ec5	1.207482
123	0xbf40f55d	-0.75374395
124	0xbf8b1847	-1.0866784
125	0x3ff1b932	1.8884642
126	0xbfa65f71	-1.2997876
127	0xbf8f0c13	-1.117556

transformer_encoder.layers.0.linear_net.3.bias f4 [8]
0	0x401bf221	2.4366534
1	0x3f62f0fc	0.8864896
2	0xbf5be7f8	-0.8590083
3	0x3ec22109	0.3791583
4	0xbe24eee0	-0.16106749
5	0xc03889cd	-2.8834107
6	0xbf5584bb	-0.83405656
7	0x4016cdc2	2.3563085

final_linear.weight f4 [1, 8]
0	0x3f8ae32a	1.0850575
1	0x3f1abdc4	0.6044581
2	0xbec2dba1	-0.3805819
3	0x3f6318ad	0.8870953
4	0xbf0f73ca	-0.56036055
5	0xbe8d72ef	-0.2762675
6	0xbf935bf7	-1.151244
7	0x3e22ca07	0.1589738

exp_avg f4 [8, 2]
0	0xbe034737	-0.12820135
1	0xbe30115c	-0.17194122
2	0xbdbb4656	-0.09144275
3	0xbdf9692e	-0.121782646
4	0x3d9a9e98	0.075497806
5	0x3e1d073b	0.1533479
6	0xbdb9e8a2	-0.09077574
7	0xbdf69e21	-0.120418794
8	0x3d3b233b	0.045687895
9	0x3d2a2084	0.041534916
10	0xbdf311b6	-0.118686125
11	0xbe1b3266	-0.15155944
12	0xbd870905	-0.06593517
13	0xbe25d087	-0.16192828
14	0xbc14c788	-0.009080775
15	0xbdef6aed	-0.11690316

exp_avg_sq f4 [8, 2]
0	0x3e1b3a17	0.15158878
1	0x3f3cb2b1	0.7371016
2	0x3e5f3933	0.21799164
3	0x3f114124	0.5674002
4	0x3dce6db0	0.10079515
5	0x3e752dd0	0.23943257
6	0x3d34713b	0.044053297
7	0x3f26e776	0.6519693
8	0x3c2a95b2	0.010411667
9	0x3d695048	0.056961328
10	0x3dad4032	0.0845951
11	0x3fb93c06	1.4471443
12	0x3cb82a26	0.022481035
13	0x3d868035	0.06567422
14	0x3d7309d2	0.059335537
15	0x3f8c18c4	1.0945058

exp_avg f4 [8]
0	0xbe7b995a	-0.24570218
1	0xbe3fc479	-0.18727292
2	0x3ea23673	0.31682166
3	0xbe3dbcb8	-0.18529022
4	0x3d540366	0.051761054
5	0xbe5e42d4	-0.2170518
6	0xbec16cde	-0.37778372
7	0xbeae5f74	-0.340572

exp_avg_sq f4 [8]
0	0x40705e86	3.7557693
1	0x40351953	2.8296707
2	0x3f9ba853	1.2160743
3	0x405b5f13	3.4276779
4	0x3e6dd34a	0.23225132
5	0x40ed28a1	7.4112096
6	0x3e6efb73	0.23338108
7	0x40a82ffc	5.2558575

exp_avg f4 [24, 8]
0	0xb9a8fa02	-0.00032229727
1	0xba99a6e5	-0.0011722712
2	0xbb4c567f	-0.0031179485
3	0x3b6351da	0.0034686239
4	0xbab8e721	-0.0014106968
5	0x3b0e0356	0.002166947
6	0x3be9ca4b	0.007134711
7	0x3a541e45	0.0008091669
8	0x39738475	0.0002322363
9	0x3a506722	0.00079499383
10	0x3b2ca1cb	0.0026341553
11	0xbb29baaf	-0.0025898626
12	0x3a982c35	0.0011609854
13	0xbacbbe2a	-0.0015544344
14	0xbbb005fa	-0.005371806
15	0xba4cb64c	-0.0007809147
16	0xb9976a91	-0.00028880363
17	0xba819565	-0.0009886442
18	0xbb53ee18	-0.003233796
19	0x3b51a904	0.003199161
20	0xbab9e2af	-0.0014181937
21	0x3afc328c	0.0019241138
22	0x3bd985ba	0.006638256
23	0x3a7a6042	0.00095510867
24	0x39979e1c	0.00028918765
25	0x3a892eec	0.0010466254
26	0x3b3a3634	0.0028413655
27	0xbb4cce85	-0.0031251025
28	0x3aa89380	0.0012861341
29	0xbaff1274	-0.0019460456
30	0xbbd2b224	-0.0064299274
31	0xba43c3a5	-0.0007467813
32	0xb9f2d267	-0.000463146
33	0x396de5e3	0.00022687721
34	0xbaa0271f	-0.001221869
35	0xb9824648	-0.00024847896
36	0x3a3849c2	0.0007030034
37	0xbaba7ac3	-0.001422726
38	0xba4d2aef	-0.0007826527
39	0x3a3a7931	0.0007113396
40	0x39100ea0	0.00013738358
41	0xb9fc831b	-0.00048162867
42	0x3a9cd812	0.001196625
43	0x3977d4d5	0.00023635042
44	0xba0d3899	-0.0005387157
45	0x3a98e6e6	0.0011665493
46	0x3a87566e	0.0010325441
47	0xba16fb0f	-0.00057594565
48	0x39a91b8e	0.00032254722
49	0x3a6a6efa	0.00089429284
50	0xbaa6ca05	-0.0012725001
51	0xb97c7f0d	-0.00024079923
52	0x39b8837e	0.00035193184
53	0xba6d4fc8	-0.0009052721
54	0xbac34325	-0.001489733
55	0x39e370d9	0.00043380892
56	0x398ee44e	0.0002725445
57	0xb9b4dba9	-0.00034495935
58	0x3a9595f9	0.0011412493
59	0x396fe131	0.00022876706
60	0xba18206e	-0.0005803172
61	0x3a9f1421	0.0012136736
62	0x3a637d6f	0.0008678054
63	0xba1e20e7	-0.00060321245
64	0xbd0c89f9	-0.03431127
65	0xbe0524f7	-0.13002382
66	0x3e747c11	0.23875453
67	0x3db32bfe	0.08748625
68	0xbc59f712	-0.013303535
69	0x3dd41311	0.10355199
70	0x3dd5944c	0.10428676
71	0xbe33a273	-0.17542438
72	0xbcb18ff1	-0.021675082
73	0xbd8eec97	-0.0697872
74	0x3df0d51a	0.11759396
75	0x3d1df4a3	0.038563382
76	0xbb3f5810	-0.0029196776
77	0x3d4625c6	0.048375867
78	0x3d6a333b	0.057177763
79	0xbda6db56	-0.08147304
80	0x3d157776	0.03649088
81	0x3e2bad2b	0.16765277
82	0xbea75c37	-0.32687542
83	0xbe07e842	-0.13272193
84	0x3d37479f	0.044746038
85	0xbe1a13cb	-0.15046613
86	0xbe08b357	-0.13349663
87	0x3e821779	0.25408533
88	0xbd257b65	-0.04040088
89	0xbe306995	-0.17227776
90	0x3ea86eee	0.32897133
91	0x3e0655d2	0.13118675
92	0xbd32de3e	-0.043668978
93	0x3e17a932	0.14810637
94	0x3e0c31d4	0.13690883
95	0xbe81c6df	-0.2534704
96	0x36777a67	3.6877116e-06
97	0x378e9317	1.6996213e-05
98	0xb81f32b5	-3.795578e-05
99	0xb72a230b	-1.0140949e-05
100	0xb717fa13	-9.058526e-06
101	0xb786ee89	-1.6085121e-05
102	0xb7843bcc	-1.5763471e-05
103	0x37cb5f59	2.4243885e-05
104	0xb4d6155c	-3.9876147e-07
105	0xb71b1e50	-9.245778e-06
106	0x37b02db5	2.1002119e-05
107	0x370a79fe	8.2538445e-06
108	0x3719baf3	9.163038e-06
109	0x37502c56	1.2408089e-05
110	0x3761a893	1.3450294e-05
111	0xb76f97db	-1.4280867e-05
112	0x35819538	9.654677e-07
113	0x3774fd8c	1.4602567e-05
114	0xb80af32f	-3.3128246e-05
115	0xb75592c2	-1.2729959e-05
116	0xb7572b86	-1.2825132e-05
117	0xb79d014c	-1.8716462e-05
118	0xb7a4f5ee	-1.9664843e-05
119	0x37be9b9e	2.272223e-05
120	0x368eafda	4.2524016e-06
121	0x37c48a2c	2.3429362e-05
122	0xb85d4326	-5.2753043e-05
123	0xb7821249	-1.5505722e-05
124	0xb76d0093	-1.41264345e-05
125	0xb7c8b1a1	-2.3924573e-05
126	0xb7c3cc8a	-2.3341057e-05
127	0x38106957	3.443038e-05
128	0xb8d2702f	-0.00010034476
129	0x3a36b398	0.00069695106
130	0xba558cdb	-0.0008146294
131	0x395b50ac	0.0002091552
132	0x3a1604df	0.0005722772
133	0xba148f54	-0.00056671095
134	0xba89d5fa	-0.001051604
135	0x39038521	0.00012542728
136	0xb8a38e43	-7.798944e-05
137	0x3a0d520c	0.0005390949
138	0xba26aff8	-0.0006358619
139	0x392736e8	0.00015946815
140	0x39e6127f	0.000438828
141	0xb9e96426	-0.0004451584
142	0xba569651	-0.0008185851
143	0x38cff8b1	9.9168516e-05
144	0x38a8b4a2	8.04451e-05
145	0xba11ebcf	-0.0005566449
146	0x3a2c269f	0.0006567034
147	0xb92c8e89	-0.00016456297
148	0xb9ed53c7	-0.00045266582
149	0x39f10e33	0.0004597768
150	0x3a5da43c	0.0008454954
151	0xb8d6b415	-0.00010237858
152	0xb8b7c75c	-8.7632536e-05
153	0x3a1fd3c4	0.0006096924
154	0xba3a6700	-0.0007110685
155	0x39408041	0.00018358325
156	0x3a038364	0.0005016832
157	0xba017829	-0.0004938865
158	0xba70c870	-0.0009185141
159	0x38e4e2cc	0.000109141314
160	0x3c3b6279	0.011437052
161	0x3c670411	0.014100091
162	0xbc631686	-0.0138603505
163	0xbc3cbe76	-0.011520019
164	0xbc9edd58	-0.019392654
165	0x3bc70564	0.0060736407
166	0xbbdb63d4	-0.00669525
167	0x3c39accd	0.011332703
168	0x3d0f9248	0.035051614
169	0x3e1c44e1	0.1526065
170	0xbe936c81	-0.2879372
171	0xbdfb792a	-0.122789696
172	0x3d9d42d9	0.07678766
173	0xbe20b681	-0.1569462
174	0xbe16bb7a	-0.14719954
175	0x3e6415e9	0.22273983
176	0xba357ee5	-0.0006923511
177	0xbc88c2ac	-0.01669439
178	0x3d30bb21	0.04314721
179	0x3cb21871	0.02174017
180	0xbc90c777	-0.017673237
181	0x3c99083a	0.01868068
182	0x3c27a329	0.0102317715
183	0xbd250e7f	-0.040297028
184	0xbd4d8357	-0.050174084
185	0xbe620cd2	-0.22075203
186	0x3ed7e7f0	0.42169142
187	0x3e33eec7	0.17571555
188	0xbdc04537	-0.09388202
189	0x3e68a0d6	0.22717604
190	0x3e56024a	0.2089931
191	0xbea54859	-0.3228176

exp_avg_sq f4 [24, 8]
0	0x3941ca68	0.00018481317
1	0x3b153304	0.0022766003
2	0x3caa1905	0.020763883
3	0x3cb43653	0.02199856
4	0x3b843fbd	0.0040359185
5	0x3c05371c	0.008130815
6	0x3dc15cc3	0.09441521
7	0x3adb9621	0.0016753116
8	0x38e48081	0.00010895823
9	0x3aafba88	0.0013407031
10	0x3c485939	0.012228304
11	0x3c5440fc	0.012954947
12	0x3b1bc460	0.0023768172
13	0x3b9ce836	0.004788424
14	0x3d63bfa9	0.055602703
15	0x3a815aa6	0.0009868934
16	0x392e8836	0.00016644676
17	0x3b0618b9	0.0020461513
18	0x3c98a6e5	0.018634269
19	0x3ca1bf5f	0.019744573
20	0x3b6d446c	0.0036204113
21	0x3bef0b0c	0.007295018
22	0x3dad9652	0.08475937
23	0x3ac52787	0.0015041687
24	0x391d7764	0.00015017163
25	0x3af2c931	0.0018523094
26	0x3c8aa599	0.016924666
27	0x3c92de65	0.017928312
28	0x3b57b431	0.00329138
29	0x3bd93c7f	0.006629526
30	0x3d9d8cfa	0.07692905
31	0x3ab2eb86	0.0013650514
32	0x39455354	0.00018818426
33	0x3924ef01	0.00015729295
34	0x37d0d807	2.4896128e-05
35	0x353ee1da	7.1109173e-07
36	0x38015769	3.0837404e-05
37	0x388c9884	6.7041285e-05
38	0x395bf2c0	0.00020975899
39	0x37a41ee2	1.9564704e-05
40	0x34a60a0b	3.0927217e-07
41	0x3618320c	2.2678896e-06
42	0x376d57fc	1.4146786e-05
43	0x3519811b	5.7184815e-07
44	0x365be723	3.2768082e-06
45	0x376a772d	1.3975235e-05
46	0x372e2b7f	1.0381335e-05
47	0x3665b6c6	3.4230047e-06
48	0x39d3b3ce	0.0004037902
49	0x39b543ae	0.00034573436
50	0x3805e9c3	3.192738e-05
51	0x353cc5f1	7.03235e-07
52	0x38856d57	6.3623e-05
53	0x39027f4f	0.00012445192
54	0x39eb7747	0.0004491156
55	0x381a31a9	3.676271e-05
56	0x38189d64	3.6386205e-05
57	0x37fd72a3	3.0213332e-05
58	0x377e8571	1.5170649e-05
59	0x3513fdda	5.513117e-07
60	0x3705e804	7.981438e-06
61	0x37bffecd	2.2887625e-05
62	0x38401714	4.579786e-05
63	0x36d2c751	6.281691e-06
64	0x3e4c23a3	0.1993547
65	0x3e5c1899	0.21493758
66	0x3ed0553e	0.40690035
67	0x3e1c19c3	0.15244202
68	0x3df989f8	0.121845186
69	0x3d864e39	0.065578885
70	0x3fdec33f	1.7403334
71	0x3e4cc574	0.19997197
72	0x3ec3c3e3	0.38235387
73	0x3ecda0b3	0.40161666
74	0x3f50816d	0.8144749
75	0x3ebcbe0e	0.3686375
76	0x3e8483d0	0.25881815
77	0x3e13ad23	0.14421515
78	0x406d031b	3.7033145
79	0x3ebe9f9d	0.3723115
80	0x3ea7e912	0.32795006
81	0x3ebda081	0.37036517
82	0x3f50e2c9	0.81596047
83	0x3eef951f	0.46793458
84	0x3e6db18b	0.23212259
85	0x3e2ec248	0.170663
86	0x4074af13	3.8231857
87	0x3ea85be5	0.3288261
88	0x3e25f7b1	0.16207768
89	0x3e4426c2	0.1915541
90	0x3ef4a57c	0.47782505
91	0x3e802c42	0.25033766
92	0x3e00c5ff	0.1257553
93	0x3dd813bd	0.1055064
94	0x3ffa2d34	1.9545045
95	0x3e486828	0.19570982
96	0x338df2a7	6.609962e-08
97	0x350766af	5.0440843e-07
98	0x33e41b1e	1.062201e-07
99	0x33941a1d	6.896537e-08
100	0x336e02bc	5.541618e-08
101	0x328add60	1.6165984e-08
102	0x3409a61a	1.2819547e-07
103	0x34b76c82	3.4165356e-07
104	0x334013cc	4.472149e-08
105	0x34b79e5b	3.4201625e-07
106	0x3397e84e	7.0737414e-08
107	0x333cd66c	4.3967177e-08
108	0x3321f308	3.770677e-08
109	0x322ff416	1.0241839e-08
110	0x339f343a	7.4135144e-08
111	0x3478b10a	2.3161206e-07
112	0x335ba298	5.113779e-08
113	0x34d1a559	3.904959e-07
114	0x33bb5e83	8.725058e-08
115	0x33602b36	5.2193364e-08
116	0x333cbf8a	4.3946365e-08
117	0x3269b2aa	1.36030085e-08
118	0x33c54f10	9.187909e-08
119	0x348f4837	2.668837e-07
120	0x33795a23	5.805681e-08
121	0x34ee5896	4.439541e-07
122	0x33d96fb7	1.0125171e-07
123	0x3380253d	5.967238e-08
124	0x33572df4	5.0100383e-08
125	0x328a32cc	1.6088414e-08
126	0x33e2e5fd	1.056578e-07
127	0x34a338ba	3.040239e-07
128	0x33b1e6ef	8.2842114e-08
129	0x368bd6e9	4.1675416e-06
130	0x36b1c8ff	5.29841e-06
131	0x34e14459	4.1959245e-07
132	0x364421bc	2.9225912e-06
133	0x36219ed0	2.408331e-06
134	0x3717e11b	9.052713e-06
135	0x33e9955e	1.0877078e-07
136	0x33679483	5.391895e-08
137	0x362b4a4c	2.5524232e-06
138	0x365992e5	3.2421024e-06
139	0x348a7fb7	2.5797428e-07
140	0x35f025a0	1.7892344e-06
141	0x35c62037	1.4761525e-06
142	0x36b9db9f	5.538997e-06
143	0x3391b19f	6.784398e-08
144	0x336e1123	5.542928e-08
145	0x3636d3d0	2.7243404e-06
146	0x36685950	3.462268e-06
147	0x3493792b	2.7469045e-07
148	0x3600337c	1.9103454e-06
149	0x35d3533d	1.5744951e-06
150	0x36c68031	5.9157833e-06
151	0x3399a413	7.1544626e-08
152	0x33881142	6.336133e-08
153	0x3654d209	3.1712718e-06
154	0x3687473d	4.0316067e-06
155	0x34ab7995	3.1939695e-07
156	0x36153c3e	2.2237796e-06
157	0x35f5fe98	1.8328019e-06
158	0x36e7209a	6.888132e-06
159	0x33b22e44	8.2971866e-08
160	0x3e74cdea	0.23906675
161	0x3e822e9c	0.25426185
162	0x3ee86ec6	0.45397013
163	0x3e388fda	0.18023625
164	0x3e3d8cb4	0.18510705
165	0x3d1f3063	0.038864505
166	0x4015e244	2.3419352
167	0x3e590076	0.21191582
168	0x3db96fd9	0.09054536
169	0x3e089bb4	0.13340646
170	0x3ef48a56	0.47761792
171	0x3e95b55c	0.2923993
172	0x3deed705	0.116621055
173	0x3dfa1266	0.122105405
174	0x3fdfd857	1.7487897
175	0x3e13d92e	0.14438316
176	0x3e1e6d09	0.15471281
177	0x3e2bfdc5	0.16796024
178	0x3eaa4191	0.33253148
179	0x3e15de56	0.14635596
180	0x3e04a95a	0.12955227
181	0x3d1892ee	0.037249498
182	0x3fd35ffd	1.6513668
183	0x3e0c6099	0.13708724
184	0x3d86f714	0.06590095
185	0x3e0f24f2	0.13978937
186	0x3f1fb9f4	0.62393117
187	0x3eb4c673	0.35307655
188	0x3ded7f4a	0.11596544
189	0x3e3144f7	0.17311464
190	0x3fe19a2e	1.7625177
191	0x3e4b7dd7	0.19872223

exp_avg f4 [8, 8]
0	0x3d1c6f7f	0.03819227
1	0xbdc8af46	-0.09799056
2	0xbd9a426b	-0.075321995
3	0x3de6118a	0.11233814
4	0xbd977e1f	-0.073971026
5	0xbc07d7ad	-0.008291167
6	0x3e78511d	0.24249692
7	0xbcd356e7	-0.025798274
8	0x3cf4e239	0.029893028
9	0xbd5189ee	-0.05115693
10	0xbcfe17e7	-0.031017257
11	0x3d47bb2e	0.048762493
12	0xbd2260ad	-0.03964298
13	0x3a437baf	0.000745709
14	0x3dfc0727	0.12306052
15	0xbc8496d7	-0.016185207
16	0xbc93d7a9	-0.01804717
17	0x3cd27d57	0.025694532
18	0x3ccbda99	0.024884509
19	0xbd12f789	-0.0358806
20	0x3cf3ba1d	0.029751832
21	0x3aed12b8	0.0018087244
22	0xbd2b9497	-0.041889753
23	0xba18a103	-0.00058223325
24	0x3cc99f41	0.024612071
25	0xbda173c9	-0.078834124
26	0xbda96214	-0.0827066
27	0x3ddb25d4	0.107005745
28	0xbd6dfecc	-0.05810432
29	0xbc92640c	-0.017869972
30	0x3e462b0b	0.19352357
31	0xbbe125b6	-0.0068709506
32	0xbc2fec16	-0.01073744
33	0x3d1446d1	0.03620035
34	0x3c6e42d3	0.014542299
35	0xbd10756f	-0.035268243
36	0x3cef6b98	0.02922611
37	0x3b20b0bd	0.0024519407
38	0xbd9be1f9	-0.0761146
39	0x3bb3eae1	0.005490646
40	0xbb86c3a3	-0.004112677
41	0x3d19872a	0.037482418
42	0x3d1e5af4	0.03866096
43	0xbd4cc223	-0.04998983
44	0x3cb6fca0	0.022337258
45	0x3beb4d0f	0.007180817
46	0xbde94383	-0.1138983
47	0x3c63709f	0.013881831
48	0xbd0bfc78	-0.03417632
49	0x3ddc1851	0.107468255
50	0x3dba4705	0.09095577
51	0xbe0418ac	-0.12900037
52	0x3d988935	0.07448045
53	0x3c7ef0c3	0.015560332
54	0xbe86e54b	-0.26346812
55	0x3cb5d62b	0.02219685
56	0x3c4dba8d	0.012556684
57	0xbc46d956	-0.012136778
58	0xbccd30ce	-0.025047686
59	0x3cd811fe	0.026375767
60	0xbc8efa1a	-0.017453242
61	0xbb18d8bf	-0.002332255
62	0x3ca18c4d	0.019720221
63	0x3b3161d0	0.0027066357

exp_avg_sq f4 [8, 8]
0	0x3f054947	0.5206494
1	0x3daa026a	0.08301242
2	0x3e57b585	0.21065338
3	0x3e323e3e	0.17406556
4	0x3f2b3f92	0.66893876
5	0x3da0c0d4	0.07849279
6	0x3e311462	0.17292932
7	0x3d388e24	0.04505743
8	0x3e67b25a	0.2262663
9	0x3cf9b791	0.03048304
10	0x3e62812a	0.22119585
11	0x3e36dcdd	0.1785769
12	0x3ebcd018	0.36877513
13	0x3d063a8b	0.032770675
14	0x3d9ecd0d	0.07753954
15	0x3ce3c1cb	0.027802369
16	0x3ec1c19b	0.37843022
17	0x3d0daa97	0.034586515
18	0x3f25be14	0.6474316
19	0x3f08feda	0.5351387
20	0x3f4a1514	0.7893841
21	0x3d906e8c	0.07052335
22	0x3e53f456	0.20698676
23	0x3daf95b8	0.085734785
24	0x3f63325f	0.88748735
25	0x3d5ba715	0.05362614
26	0x3ffe4777	1.9865559
27	0x3fcfe1b9	1.624076
28	0x4001eb5e	2.0299907
29	0x3da7080d	0.081558324
30	0x3ebf16c6	0.37322062
31	0x3db8b972	0.09019746
32	0x3f3ba5d3	0.732999
33	0x3de193d5	0.11014525
34	0x3dcdac75	0.10042659
35	0x3de448a7	0.1114667
36	0x3f6f4d90	0.93477726
37	0x3dbc1305	0.09183315
38	0x3ea15a84	0.3151437
39	0x3cf0e76d	0.029407227
40	0x3d53d576	0.051717244
41	0x3bd6678a	0.0065431045
42	0x3e1fcd3e	0.15605637
43	0x3df5418f	0.11975395
44	0x3e0312d9	0.12800159
45	0x3ca2361a	0.019801188
46	0x3c78a239	0.015175396
47	0x3d164154	0.036683396
48	0x3ed4b4e6	0.41544265
49	0x3d859072	0.065216914
50	0x3dc0958c	0.09403524
51	0x3dd29b48	0.10283524
52	0x3f0ed7e7	0.5579819
53	0x3dba9506	0.09110455
54	0x3e83daa6	0.25752753
55	0x3d95aeb1	0.0730871
56	0x3ed674e4	0.41886055
57	0x3c9f9b85	0.019483337
58	0x3fc1eed0	1.5151005
59	0x3f9721b3	1.1807159
60	0x3f939b39	1.1531745
61	0x3cbfbd63	0.023405736
62	0x3c7717c2	0.015081348
63	0x3d9c7058	0.07638615

exp_avg f4 [8]
0	0x3d42b2a7	0.047533657
1	0x3ccea0e8	0.02522321
2	0xbc80a655	-0.015704313
3	0x3d0fa6ef	0.03507131
4	0xbc8498d6	-0.01618616
5	0xbc8f6004	-0.017501839
6	0xbd3c8595	-0.04602583
7	0x3c0b7e54	0.008514006

exp_avg_sq f4 [8]
0	0x3c8da085	0.017288456
1	0x3c33f23b	0.010983045
2	0x3d098fa8	0.033584267
3	0x3d826244	0.06366399
4	0x3cab16f8	0.020884976
5	0x3bf68fe8	0.007524479
6	0x3cd23c7e	0.02566361
7	0x3d0365e3	0.03207959

exp_avg f4 [16, 8]
0	0x35374c04	6.828343e-07
1	0xb707df0e	-8.098561e-06
2	0x34f08920	4.4803255e-07
3	0xb746af09	-1.1842473e-05
4	0xb72b84a8	-1.0223281e-05
5	0xb60cf56a	-2.1004475e-06
6	0x37ffc067	3.0487963e-05
7	0xb69d5556	-4.688899e-06
8	0x35fcfc20	1.8848841e-06
9	0xb6d77364	-6.4209326e-06
10	0x33362801	4.241156e-08
11	0xb74457ac	-1.1702923e-05
12	0xb721c2a6	-9.641668e-06
13	0xb61e07db	-2.3548407e-06
14	0x37eb6b19	2.8064054e-05
15	0xb6791386	-3.7115256e-06
16	0xbb495610	-0.0030721463
17	0x3aa774b4	0.0012775869
18	0x3a5ab1a7	0.00083425123
19	0xbb5a6b07	-0.0033327953
20	0xb9f3b8ab	-0.0004648616
21	0x3b7be8b4	0.0038438262
22	0xba8f6849	-0.0010941114
23	0xbbed985e	-0.0072508296
24	0x36de91bd	6.6330817e-06
25	0xb89f64c2	-7.6004784e-05
26	0x368a89f0	4.1287785e-06
27	0xb8e9cc76	-0.000111483896
28	0xb8c9cdbe	-9.622749e-05
29	0xb7a7e183	-2.0012963e-05
30	0x39963e51	0.0002865666
31	0xb837a1bf	-4.3781238e-05
32	0x3626b5b1	2.4841686e-06
33	0xb8032904	-3.1271033e-05
34	0x36059450	1.9904874e-06
35	0xb83f34f6	-4.5587272e-05
36	0xb824c8a4	-3.9287508e-05
37	0xb70a207e	-8.233006e-06
38	0x38f62bb9	0.00011738338
39	0xb7982913	-1.8138939e-05
40	0xb88c14b2	-6.679575e-05
41	0x3bde0104	0.0067750234
42	0x39d90ff0	0.0004140134
43	0xbb5f9030	-0.0034113042
44	0xbaf40668	-0.0018617632
45	0x3b45d10f	0.0030184423
46	0x3b0e3028	0.0021696184
47	0xbbe2636c	-0.0069088247
48	0xbd0dca67	-0.034616854
49	0xbc1f3c50	-0.009718969
50	0x3cf69b78	0.03010343
51	0x3c6b6f09	0.014369735
52	0x3cffaf4c	0.031211518
53	0x3b9a1b8b	0.0047029904
54	0xbd2153e5	-0.03938665
55	0xbc3413d5	-0.010991056
56	0x3ad95898	0.0016582189
57	0x3c261ab1	0.0101382
58	0x39148869	0.00014165197
59	0xbb1a7f3b	-0.002357437
60	0xbac29445	-0.0014845213
61	0x3ba2b3bb	0.004965273
62	0x397ab9c3	0.0002391106
63	0xbc1b4817	-0.009477637
64	0xbc1c1691	-0.009526865
65	0x3c0fb6aa	0.008771578
66	0x3be011da	0.0068380656
67	0x3bdaa5bd	0.0066725896
68	0x3b967d45	0.00459257
69	0x3c817309	0.015801923
70	0x3b0d1ce9	0.0021532124
71	0xbc5cee02	-0.01348448
72	0x3ab580b2	0.0013847558
73	0xba2dbbae	-0.0006627393
74	0xb9c67da5	-0.00037859115
75	0xbaa8bd86	-0.0012873865
76	0xb9d21fc8	-0.00040078
77	0xbb23ba04	-0.00249827
78	0xba6ac8f7	-0.00089563377
79	0x3acc9f91	0.0015611519
80	0xbb145d56	-0.002263864
81	0x3a93621e	0.0011244451
82	0x3a1bbc21	0.0005940814
83	0xbb481484	-0.0030529806
84	0xba6237c4	-0.00086295255
85	0x3b5c4a82	0.0033613746
86	0xb9e3ce8b	-0.000434507
87	0xbbd42467	-0.006474066
88	0xb6bfe459	-5.7188267e-06
89	0x3583ecfd	9.829233e-07
90	0x362882d5	2.5110105e-06
91	0xb6da7289	-6.51024e-06
92	0xb6322e03	-2.655085e-06
93	0x3705dc5b	7.978723e-06
94	0x357cea9e	9.421873e-07
95	0xb794728f	-1.769632e-05
96	0x364aea45	3.0236708e-06
97	0xb749f0dd	-1.2036614e-05
98	0x349bd6ef	2.9027385e-07
99	0xb7b1dac4	-2.1201915e-05
100	0xb792c876	-1.7497903e-05
101	0xb68c015e	-4.1724843e-06
102	0x385734b4	5.1309078e-05
103	0xb6ed5960	-7.073555e-06
104	0xbb5c1ef5	-0.0033587788
105	0x3acad6a2	0.0015475343
106	0x3a6751f0	0.00088241603
107	0xbb8bb7e1	-0.0042638634
108	0xba91fa39	-0.0011137194
109	0x3b9cbf8c	0.0047835764
110	0xba488f60	-0.0007650759
111	0xbc161b12	-0.0091617275
112	0xb6e2a1ac	-6.754146e-06
113	0xb5cb224e	-1.5134663e-06
114	0x364cbda9	3.0508766e-06
115	0xb78015e2	-1.5268979e-05
116	0xb714c3fd	-8.8671195e-06
117	0x372aca84	1.01799415e-05
118	0x377e4eb7	1.5157907e-05
119	0xb7deec19	-2.6574404e-05
120	0xb7f285c1	-2.8910932e-05
121	0x37ad3bc6	2.0651041e-05
122	0x36d8e593	6.4640276e-06
123	0xb7cfe058	-2.4780791e-05
124	0xb609643a	-2.047293e-06
125	0x38428ad1	4.6382487e-05
126	0xb80577a3	-3.182109e-05
127	0xb8ab5528	-8.169777e-05

exp_avg_sq f4 [16, 8]
0	0x37217bec	9.625201e-06
1	0x37738066	1.4513824e-05
2	0x360febef	2.1445992e-06
3	0x3666d3f5	3.4396046e-06
4	0x36e7beb9	6.9065395e-06
5	0x3760d352	1.3400642e-05
6	0x376abbd5	1.399122e-05
7	0x3476428a	2.2934742e-07
8	0x3587dc5d	1.0122418e-06
9	0x36b39013	5.351388e-06
10	0x34e7fc34	4.3210605e-07
11	0x35e2a98f	1.688766e-06
12	0x3764f403	1.3646672e-05
13	0x371e9950	9.45323e-06
14	0x37a7bbd7	1.9995421e-05
15	0x3741c618	1.1549819e-05
16	0x3cc9b9c3	0.02462471
17	0x3b1040dd	0.0022011318
18	0x3b052f7b	0.002032249
19	0x3cc6d15d	0.024269754
20	0x39f5f862	0.000469151
21	0x3d027355	0.03184827
22	0x3b202352	0.0024435115
23	0x3dec059d	0.11524508
24	0x3699de30	4.5856214e-06
25	0x3886e912	6.433031e-05
26	0x3684eb52	3.9613014e-06
27	0x39057a83	0.00012729508
28	0x38c7f302	9.534323e-05
29	0x370c4eb3	8.362974e-06
30	0x3a5c89b8	0.00084128557
31	0x37b7142f	2.1824699e-05
32	0x36fe72d2	7.5831567e-06
33	0x37972a69	1.8020351e-05
34	0x373016cb	1.0495724e-05
35	0x37c1bfaa	2.3096643e-05
36	0x37c811ff	2.3850238e-05
37	0x3789adc5	1.641259e-05
38	0x391c8c9d	0.00014929702
39	0x3735bb89	1.0832105e-05
40	0x3b09aa3f	0.0021006016
41	0x3b0daf39	0.0021619333
42	0x3a856556	0.0010177295
43	0x3a0c2b0e	0.0005346992
44	0x3a64e637	0.00087318145
45	0x396c057d	0.00022508758
46	0x3aa2ac54	0.0012410977
47	0x3aa99625	0.0012938423
48	0x3fef654f	1.8702792
49	0x3e170cb0	0.14750934
50	0x3fb4849a	1.4102967
51	0x3ea87c8b	0.3290752
52	0x3fc39221	1.527897
53	0x3d0c003b	0.034179907
54	0x401c204c	2.4394712
55	0x3e3dcc0c	0.18534869
56	0x3c520caf	0.012820407
57	0x3da6ff97	0.08154219
58	0x3a8353ab	0.0010019442
59	0x3cc0221f	0.02345377
60	0x3c3f80b6	0.011688402
61	0x3d07208c	0.032990023
62	0x3db47521	0.08811403
63	0x3d955d57	0.07293194
64	0x3a442e0f	0.000748367
65	0x3a308915	0.0006734294
66	0x39c89052	0.000382545
67	0x3a014def	0.00049325725
68	0x39882fc6	0.00025975535
69	0x3b068935	0.002052856
70	0x3a3907d5	0.0007058357
71	0x3ac38bbd	0.0014918965
72	0x38011577	3.0775987e-05
73	0x37543bc7	1.2650103e-05
74	0x366c4262	3.520538e-06
75	0x3780010c	1.5259277e-05
76	0x365f3d8d	3.3265417e-06
77	0x385f22b5	5.3199667e-05
78	0x37744424	1.4559399e-05
79	0x37ba2636	2.2190721e-05
80	0x3c202cc4	0.009776298
81	0x3b1b4f75	0.0023698483
82	0x3a3135a1	0.00067600055
83	0x3c93b2f3	0.018029666
84	0x3ac2b204	0.0014854078
85	0x3cb05a4f	0.021527437
86	0x39a3dec5	0.0003125576
87	0x3da43ffb	0.08020016
88	0x35c15558	1.4404459e-06
89	0x36d8dc1d	6.462926e-06
90	0x35290934	6.29708e-07
91	0x350a473f	5.151268e-07
92	0x37939d15	1.7596913e-05
93	0x3760b9a7	1.3394666e-05
94	0x3787ff2d	1.621208e-05
95	0x379782ba	1.8061477e-05
96	0x377276d0	1.4451987e-05
97	0x37432c6b	1.1633248e-05
98	0x362caf0b	2.5731886e-06
99	0x36c19585	5.7692546e-06
100	0x372be96d	1.0246743e-05
101	0x37383dd0	1.09816465e-05
102	0x38125e0a	3.4896693e-05
103	0x36d2a624	6.277829e-06
104	0x3cacf953	0.02111498
105	0x3b90b6aa	0.0044163065
106	0x3abe9dd4	0.0014542886
107	0x3d10e229	0.035371933
108	0x3b278105	0.002555908
109	0x3d3006f4	0.04297538
110	0x3a76dcce	0.0009417058
111	0x3e22956d	0.15877314
112	0x35e996cb	1.7403739e-06
113	0x37081313	8.110673e-06
114	0x351f87a6	5.942951e-07
115	0x359feef9	1.1915973e-06
116	0x37b082da	2.1041767e-05
117	0x3784371a	1.5761285e-05
118	0x37b3d0e7	2.143574e-05
119	0x37b457a6	2.1498487e-05
120	0x35bad16c	1.391903e-06
121	0x35f620aa	1.8337935e-06
122	0x34ba2da9	3.4678422e-07
123	0x3664b1ee	3.4078216e-06
124	0x35e2fd19	1.6911973e-06
125	0x36441061	2.921581e-06
126	0x37458ef9	1.1775403e-05
127	0x371cf4cc	9.355321e-06

exp_avg f4 [16]
0	0x371f4015	9.492059e-06
1	0x3715e3c0	8.934119e-06
2	0x399a14b5	0.00029388597
3	0x38bb1531	8.920802e-05
4	0x3819c1bc	3.665847e-05
5	0x394828ed	0.00019088732
6	0x3ad359f4	0.001612483
7	0x3a14f04e	0.000568156
8	0x3a928dcc	0.0011181175
9	0xb8f27877	-0.000115618976
10	0x398d9b4f	0.0002700933
11	0x35ad82f8	1.2927621e-06
12	0x378945e5	1.636422e-05
13	0x39bf1646	0.00036446954
14	0x36c9792f	6.0043744e-06
15	0xb6ca780b	-6.034044e-06

exp_avg_sq f4 [16]
0	0x35a22c80	1.2082892e-06
1	0x364334f5	2.908809e-06
2	0x397d50ac	0.00024158013
3	0x38adf46a	8.2948085e-05
4	0x377f137d	1.5203722e-05
5	0x374086b8	1.1475458e-05
6	0x3b752f66	0.0037412285
7	0x3afc7aef	0.0019262711
8	0x38a22a40	7.732632e-05
9	0x36676fe2	3.4486807e-06
10	0x392715e6	0.00015934519
11	0x363afe38	2.7864135e-06
12	0x36e8e825	6.941164e-06
13	0x39aad686	0.0003258476
14	0x366e670d	3.5524747e-06
15	0x359b9971	1.1593057e-06

exp_avg f4 [8, 16]
0	0xb7c9d69e	-2.4061006e-05
1	0xb80db470	-3.3785065e-05
2	0x3a9dfd7d	0.0012053695
3	0xb887e16f	-6.479292e-05
4	0xb876ac44	-5.8811405e-05
5	0xbb04b74b	-0.0020250853
6	0xbae5ac88	-0.0017522732
7	0xbbe80d52	-0.007081666
8	0xbab28a90	-0.0013621617
9	0xb975124f	-0.00023371841
10	0xb7ae8734	-2.0805375e-05
11	0xb7c40a05	-2.3369686e-05
12	0xb7f4c9de	-2.9181068e-05
13	0x38fd1c9a	0.000120693076
14	0xb85eec2c	-5.3148877e-05
15	0xb803cb50	-3.1422183e-05
16	0xb6ef1b5c	-7.12594e-06
17	0xb727b6d2	-9.996542e-06
18	0x3b4e5b89	0.0031487665
19	0xb7998f86	-1.8305855e-05
20	0xb7910d1b	-1.729145e-05
21	0xb994c6af	-0.0002837679
22	0xbc0d93b8	-0.008641176
23	0xbb4ca6ad	-0.0031227276
24	0xba327d49	-0.000680883
25	0xb8bd0a13	-9.014099e-05
26	0x38ad25a3	8.256293e-05
27	0xb6d57b3d	-6.3622415e-06
28	0xb710e489	-8.636279e-06
29	0x3a9aacf3	0.001180081
30	0xb772b74a	-1.4466999e-05
31	0xb70abd3b	-8.2695e-06
32	0xb63653db	-2.7168924e-06
33	0xb67ff137	-3.8138367e-06
34	0x3b037f42	0.0020064865
35	0xb6f65e3c	-7.3423416e-06
36	0xb6df1977	-6.6488824e-06
37	0x3b095938	0.002095772
38	0xbbc397aa	-0.0059690075
39	0x3b302a6c	0.0026880754
40	0x39ecc4d2	0.0004516007
41	0x37a1c5a6	1.9284733e-05
42	0x386f0126	5.698311e-05
43	0xb614a551	-2.2149945e-06
44	0xb65d1be6	-3.2947805e-06
45	0x3a4c7238	0.00077990023
46	0xb6a85b9f	-5.0174563e-06
47	0xb63b1e67	-2.7882868e-06
48	0xb5e2a3fb	-1.6886037e-06
49	0xb61edde2	-2.3672987e-06
50	0x3a7bd7b6	0.00096070336
51	0xb6979907	-4.5179654e-06
52	0xb68acc57	-4.136509e-06
53	0xbabad958	-0.0014255447
54	0xbaea8607	-0.0017892726
55	0xbb9740c9	-0.0046158773
56	0xba6f2bb2	-0.00091236376
57	0xb8a39967	-7.801019e-05
58	0x37dd4fcd	2.6382413e-05
59	0xb5b33272	-1.3351221e-06
60	0xb60957a2	-2.04656e-06
61	0x39c205ac	0.0003700679
62	0xb64ae975	-3.0236235e-06
63	0xb5e4fa7b	-1.7060223e-06
64	0xb68668f2	-4.0057284e-06
65	0xb6bc9fc8	-5.6214376e-06
66	0x3af756da	0.0018870488
67	0xb736e455	-1.0901208e-05
68	0xb724c401	-9.8207975e-06
69	0x3b3fe373	0.0029279857
70	0xbbdf4863	-0.006814049
71	0x3babcf30	0.0052432045
72	0x3a6bdd20	0.0008997489
73	0x38414c38	4.608577e-05
74	0x3851e948	5.0046743e-05
75	0xb671640a	-3.597003e-06
76	0xb6a2fb56	-4.8572356e-06
77	0x3a39fb37	0.0007094624
78	0xb70902e6	-8.166511e-06
79	0xb69c99c3	-4.6670625e-06
80	0x372f5125	1.0449706e-05
81	0x377643c8	1.4678524e-05
82	0x39b3ce83	0.00034295404
83	0x37ecc4a6	2.8224964e-05
84	0x37d63bd0	2.553864e-05
85	0x38c78968	9.514653e-05
86	0xbb5d91f0	-0.003380891
87	0x3aae02ce	0.0013275982
88	0x39890cb9	0.00026140155
89	0x38a0a90b	7.660881e-05
90	0x38196d03	3.6579568e-05
91	0x372b6f12	1.0218255e-05
92	0x3754aa89	1.26758905e-05
93	0x399db707	0.0003008174
94	0x37c2f2b7	2.3239625e-05
95	0x3767f17e	1.38249e-05
96	0x371c1881	9.30403e-06
97	0x375b164f	1.3058611e-05
98	0xbb1549af	-0.0022779515
99	0x37cf078d	2.4679839e-05
100	0x37be5f3c	2.2694112e-05
101	0x3aaa0649	0.0012971844
102	0x3bd89c3d	0.006610422
103	0x3baceb32	0.005277061
104	0x3a997599	0.001170802
105	0x3911b4d9	0.00013895649
106	0xb84f4b17	-4.942258e-05
107	0x3711a6b5	8.681488e-06
108	0x373d42a0	1.128079e-05
109	0xba4e7ff9	-0.0007877346
110	0x37a59fb3	1.9743899e-05
111	0x3740c17a	1.1489139e-05
112	0x362142b4	2.4029696e-06
113	0x366230f0	3.370511e-06
114	0xbb0d169e	-0.0021528373
115	0x36d8c9c6	6.460791e-06
116	0x36c5a6de	5.8904834e-06
117	0xba1914b1	-0.000583957
118	0x3bf2b7df	0.007407173
119	0xb9c3d369	-0.0003735081
120	0xb87d0458	-6.0323946e-05
121	0x370ee8ba	8.518045e-06
122	0xb882ee7f	-6.2433064e-05
123	0x3609f909	2.0559548e-06
124	0x36437987	2.9128003e-06
125	0xba5ca449	-0.00084168144
126	0x369c729a	4.6625037e-06
127	0x362bce21	2.5600968e-06

exp_avg_sq f4 [8, 16]
0	0x370728eb	8.056154e-06
1	0x3784c090	1.5825295e-05
2	0x3b43db35	0.0029885296
3	0x383f57e2	4.5619796e-05
4	0x38187298	3.6346348e-05
5	0x3af355fa	0.0018565052
6	0x3b9e1661	0.004824445
7	0x3c1a2bec	0.009409886
8	0x38d6dc63	0.000102453654
9	0x39503a73	0.000198582
10	0x382ab447	4.0699055e-05
11	0x37300ac1	1.0492921e-05
12	0x374a63e4	1.2063396e-05
13	0x3b066f05	0.002051295
14	0x3819ec14	3.6697907e-05
15	0x3746aad6	1.18414955e-05
16	0x36be9dc7	5.680809e-06
17	0x37199076	9.153146e-06
18	0x3c9d6992	0.019215379
19	0x391a3407	0.00014705966
20	0x377ce252	1.5073065e-05
21	0x3b6f0786	0.003647299
22	0x3dee09c5	0.11622957
23	0x39a8f681	0.00032227117
24	0x37c8e9dd	2.3950759e-05
25	0x37e2e69d	2.7048687e-05
26	0x37c3c90f	2.3339437e-05
27	0x3727a655	9.992703e-06
28	0x37108e96	8.616267e-06
29	0x3b56fd4e	0.003280479
30	0x37b3f76e	2.1453681e-05
31	0x3618f172	2.2790305e-06
32	0x33b05df0	8.212726e-08
33	0x36b9a5c9	5.5327296e-06
34	0x3bfe22cd	0.0077556134
35	0x356bc2f9	8.7828045e-07
36	0x3587b029	1.0109553e-06
37	0x3b40c815	0.0029416133
38	0x3d639d94	0.0555702
39	0x38d26308	0.00010032026
40	0x36425473	2.8957409e-06
41	0x363f4614	2.8502009e-06
42	0x370af791	8.283082e-06
43	0x36d6e28d	6.404071e-06
44	0x354838f4	7.4588684e-07
45	0x3aa8e615	0.0012885953
46	0x373f455c	1.1400636e-05
47	0x34b3eda6	3.351426e-07
48	0x3345f1dc	4.6087607e-08
49	0x36b1642d	5.286673e-06
50	0x3aea70fd	0.0017886456
51	0x3537bdd5	6.8449054e-07
52	0x353db6ec	7.0674173e-07
53	0x3acc46dd	0.0015585084
54	0x3ba56170	0.005047016
55	0x39ade1e1	0.00033165424
56	0x36f0ce47	7.176571e-06
57	0x35b793a1	1.3677528e-06
58	0x36068c4f	2.0049226e-06
59	0x36cfdc8d	6.194756e-06
60	0x35411c7c	7.1939553e-07
61	0x399d435d	0.00029995563
62	0x373627ac	1.0857282e-05
63	0x3465a65a	2.1387805e-07
64	0x35a97abe	1.2627204e-06
65	0x34f6ea2e	4.599146e-07
66	0x3be163de	0.00687836
67	0x369f4972	4.7471194e-06
68	0x35950147	1.1101737e-06
69	0x3abd915b	0.0014462875
70	0x3d93cfdd	0.07217381
71	0x39c855e7	0.00038210975
72	0x371f6154	9.4997995e-06
73	0x36fb7afe	7.494701e-06
74	0x3706e87a	8.04115e-06
75	0x3498b80d	2.844612e-07
76	0x35e631b5	1.7150802e-06
77	0x3a9933cb	0.0011688409
78	0x35993b8c	1.1416719e-06
79	0x3534bbef	6.7328705e-07
80	0x3597c678	1.1308139e-06
81	0x3671d4db	3.6035697e-06
82	0x395ab20d	0.00020856429
83	0x371352a2	8.781122e-06
84	0x36eab4e7	6.9948032e-06
85	0x39c83942	0.00038189633
86	0x3c9057df	0.017620025
87	0x3b1c2b54	0.0023829537
88	0x37909d4c	1.7239385e-05
89	0x381bced4	3.7147503e-05
90	0x36f2ff68	7.241895e-06
91	0x362fccba	2.6196199e-06
92	0x35f0e849	1.7948997e-06
93	0x39ac6110	0.00032878714
94	0x37003e7e	7.643945e-06
95	0x360f9ff3	2.1401763e-06
96	0x3682e2a9	3.9006886e-06
97	0x370e811e	8.493922e-06
98	0x3c253ee9	0.0100858
99	0x3819f386	3.670484e-05
100	0x370aaa90	8.265153e-06
101	0x3b5134d0	0.0031922348
102	0x3d8b75b7	0.06809562
103	0x3a54a5b9	0.0008111853
104	0x37de127f	2.6473075e-05
105	0x380ef279	3.408126e-05
106	0x378708b8	1.6097314e-05
107	0x371494a6	8.856097e-06
108	0x36c8e0c9	5.986633e-06
109	0x3af6dad4	0.0018833526
110	0x37a2d0d9	1.9409157e-05
111	0x3611c28a	2.171992e-06
112	0x3509dd0f	5.135816e-07
113	0x348f5f82	2.6705317e-07
114	0x3c124186	0.008926755
115	0x362f6a00	2.6138732e-06
116	0x34cfc358	3.8698886e-07
117	0x3a2090b2	0.0006125077
118	0x3dae5bed	0.08513627
119	0x376169eb	1.3435706e-05
120	0x3582f64e	9.757439e-07
121	0x3669d3b4	3.4842933e-06
122	0x371d3190	9.369469e-06
123	0x343f2cb9	1.7804531e-07
124	0x35507ed8	7.767062e-07
125	0x3ac17f87	0.0014762738
126	0x354eb397	7.700232e-07
127	0x350e8fb4	5.310824e-07

exp_avg f4 [8]
0	0x3d408274	0.04699941
1	0x3cd18d73	0.025580144
2	0xbbddf831	-0.0067739715
3	0x3d027159	0.031846378
4	0xbc629e54	-0.013831694
5	0xbcaaaef2	-0.020835374
6	0xbd47aa75	-0.048746545
7	0x3a51b367	0.00079994503

exp_avg_sq f4 [8]
0	0x3c104e6e	0.008807762
1	0x3b6c7f35	0.0036086563
2	0x3af32030	0.0018549021
3	0x3b8b29db	0.004246933
4	0x3bd33edd	0.006446703
5	0x3a173893	0.0005768623
6	0x3bef488c	0.0073023494
7	0x3a045e44	0.0005049447

exp_avg f4 [1, 8]
0	0x3ee0d6b9	0.4391382
1	0xbddfdae4	-0.10930422
2	0x3f66b108	0.9011388
3	0xbdd3a6f5	-0.10334579
4	0x3ed3dd18	0.4137962
5	0xbf8ceaf9	-1.1009208
6	0xbec9c9b8	-0.39411712
7	0xbf47807b	-0.7793042

exp_avg_sq f4 [1, 8]
0	0x3fc78869	1.5588504
1	0x41b0c839	22.097765
2	0x40e0f37b	7.0297217
3	0x4082901f	4.080093
4	0x3f9e03fa	1.2344964
5	0x403dff9f	2.9687269
6	0x3fcc89ed	1.5979592
7	0x41bb196a	23.38741
