notebooks/lightning_logs/version_25/checkpoints/epoch=24-step=150.ckpt (torch, 86701 bytes, 75 tensors)

front_linear.weight f4 [16, 2]
-0.81790423 -1.3238227 0.77487737 1.2513669 0.8263761 1.806025 0.7666081 1.2593306
-1.423235 -1.5885051 1.2102662 1.0368096 -0.5493305 -1.0715779 1.0096965 0.9264333
0.30778775 0.23714778 1.8682008 1.4034709 -2.2534518 -2.2446666 -0.08557718 -0.28807953
-0.42730436 -0.17309621 -1.4503871 -1.3958907 0.5420943 1.6394837 -2.1079147 -1.482687
00000000: 2c62 51bf 0673 a9bf 5d5e 463f ca2c a03f
00000010: 628d 533f d42b e73f 6e40 443f bf31 a13f
00000020: 912c b6bf 2354 cbbf 01ea 9a3f 2db6 843f
00000030: eca0 0cbf 7729 89bf bc3d 813f bc2a 6d3f
00000040: 5b96 9d3e ded6 723e 3421 ef3f efa4 b33f
00000050: 8e38 10c0 9ea8 0fc0 1743 afbd 297f 93be
00000060: a3c7 dabe 2240 31be 49a6 b9bf 8cac b2bf
00000070: b1c6 0a3f 9ada d13f 13e8 06c0 b0c8 bdbf

front_linear.bias f4 [16]
-0.4265037 0.26687166 0.62434065 0.52871186 -0.79324055 0.72622937 -0.5130777 0.5692588
0.929603 0.5661194 -0.9183022 0.005102291 -0.5576739 -1.2385454 0.75087416 -1.6976539
00000000: b15e dabe 67a3 883e cad4 1f3f a959 073f
00000010: d011 4bbf 2bea 393f 0f59 03bf f2ba 113f
00000020: 76fa 6d3f 33ed 103f da15 6bbf 1e31 a73b
00000030: b7c3 0ebf a888 9ebf 4a39 403f b94c d9bf

transformer_encoder.layers.0.self_attn.qkv_proj.weight f4 [48, 16]
-1.6232212 -0.67712003 -0.060393833 -1.3438923 0.72029823 -1.8289056 1.6666896 -1.3210701
-1.8771755 -1.5142537 1.2186188 1.4955807 1.6791292 1.1953987 -1.6472042 1.2225162
-0.6378736 -0.5000955 -0.6284931 -0.80215025 1.018987 -0.80104065 0.657315 -0.81134605
-0.8137955 -0.7857858 1.0371853 0.8796508 0.40696263 0.5387105 -1.0830721 1.036375
-1.3515562 -0.3973287 0.32651967 -1.0742898 0.5764049 -1.4855466 0.9703052 -0.9024097
-1.9396809 -1.2349076 1.2616626 1.8851104 1.3996452 1.0194488 -1.3174047 0.8870678
-0.7948525 -0.14047946 0.32402676 -0.5566462 0.036180634 -0.7271851 0.9806197 -0.57086015
-1.164178 -1.0827836 0.64558065 1.0069635 1.1868209 0.12980704 -0.90754706 0.6054921
-0.68813926 -1.8793945 -1.5435078 -1.8818084 1.8764666 -1.7305485 1.5288274 -1.4498355
-1.8445923 -1.4854413 2.0396204 1.4813503 1.4874303 1.0163282 -1.6007414 0.72076434
-0.12797374 -0.96647346 -0.9529203 -0.87903714 0.7424375 -0.6543857 0.6940291 -0.5366704
-0.4063704 -0.28918296 0.7700295 0.4017759 0.23621598 0.55328935 -0.563859 0.35646325
-0.43004826 -1.4984452 -1.3675607 -1.5107597 1.7148026 -1.5159758 1.8939835 -1.18072
-1.5350131 -1.7266861 1.7402339 1.8432853 1.7324717 0.4348481 -1.3680491 0.59225756
-0.101597756 -1.0495965 -1.009808 -1.2525148 1.2607342 -1.5326374 1.1933311 -1.0147123
-1.425497 -1.5465413 1.6273458 1.3966318 0.97862554 0.35668957 -0.79321134 0.44831985
0.6931291 -0.8818033 -0.5500661 -1.3868381 0.75230145 -1.8520634 0.9341029 -0.6916095
0.3304112 -1.8638797 1.0957878 0.11727061 -0.20199828 0.6316624 -0.76172674 1.1334927
-0.69016665 0.14293869 0.78689796 -0.31040815 -0.43298674 -0.59111637 0.027196473 0.042894915
-0.9215217 -0.8139534 0.30711356 1.1821898 1.022987 -0.61483455 0.21879794 -0.025070071
-0.15367272 1.8856461 1.8630296 1.9072298 -1.7939221 0.8172498 -1.7305474 2.1817684
0.12714879 1.2966682 -1.9239417 -0.2273066 -0.1492608 -1.9275991 1.7990123 -2.1592531
0.11256484 0.5866124 0.79862225 1.2373018 -0.7425939 1.2186304 -0.95982563 0.6976864
0.041045055 1.298592 -1.1626861 -0.35014135 -0.16032192 -0.8267618 1.0190324 -0.8452421
0.46026438 -1.2185707 -1.5049255 -0.5596054 1.3547391 0.04096107 0.80044556 -0.78384584
0.39807284 -0.017548678 1.1154454 -0.24905455 -0.14744672 1.047448 -0.66474235 1.2369087
-1.7402719 0.3338881 1.9584434 -0.5685688 -0.2797409 -0.92470735 0.40949756 0.04533725
-1.4749955 -0.6279217 0.23407304 1.4635676 1.4014202 0.17820041 -0.35019705 -0.0115819415
2.4919562 1.1327347 -0.70439225 1.549291 -1.027177 1.9596875 -1.4559569 1.0324694
2.356633 1.7841854 -1.4228053 -2.1347451 -2.6093154 -1.0388027 1.2820365 -1.7333128
-0.68178755 -1.3529322 -0.9746329 -1.1922103 0.7917709 -0.5901935 1.0483137 -0.8305477
-0.7689895 -0.8486813 1.1884456 1.0324774 0.7351007 1.1782783 -1.6726019 0.9409168
00000000: b6c5 cfbf bd57 2dbf 865f 77bd aa04 acbf
00000010: 7765 383f 9419 eabf 1656 d53f d318 a9bf
00000020: 4947 f0bf 11d3 c1bf b3fb 9b3f 306f bf3f
00000030: b5ed d63f d302 993f 96d7 d2bf 697b 9c3f
00000040: af4b 23bf 4206 00bf ece4 20bf b859 4dbf
00000050: 2b6e 823f 0011 4dbf cc45 283f 60b4 4fbf
00000060: e754 50bf 4229 49bf 7dc2 843f cb30 613f
00000070: 685d d03e eee8 093f 1ba2 8abf f0a7 843f
00000080: cbff acbf ab6e cbbe 962d a73e 5482 89bf
00000090: 468f 133f 6426 bebf ec65 783f 5204 67bf
000000a0: 7747 f8bf 7411 9ebf 297e a13f 4c4b f13f
000000b0: 9327 b33f 4c7d 823f b8a0 a8bf e016 633f
000000c0: 747b 4bbf d9d9 0fbe d6e6 a53e 5e80 0ebf
000000d0: 2532 143d cd28 3abf e509 7b3f e423 12bf
000000e0: c903 95bf a798 8abf c644 253f 2ee4 803f
000000f0: bfe9 973f 23ec 043e 0155 68bf 8801 1b3f
00000100: e529 30bf 0090 f0bf aa91 c5bf 19df f0bf
00000110: 0f30 f03f 9d82 ddbf 9eb0 c33f 3694 b9bf
00000120: 9a1b ecbf f122 bebf 2489 0240 e39c bd3f
00000130: 1e64 be3f 0b17 823f 18e5 ccbf 0384 383f
00000140: 8c0b 03be ce6a 77bf 96f2 73bf 9408 61bf
00000150: 6210 3e3f d285 27bf e4ab 313f 3b63 09bf
00000160: c80f d0be ca0f 94be a720 453f 92b5 cd3e
00000170: 9ae2 713e 5fa4 0d3f 1059 10bf 5a82 b63e
00000180: 492f dcbe 0dcd bfbf 3b0c afbf 9360 c1bf
00000190: a77e db3f 7f0b c2bf 0d6e f23f d521 97bf
000001a0: 4f7b c4bf 0d04 ddbf fcbf de3f c6f0 eb3f
000001b0: a2c1 dd3f 69a4 de3e 3c1c afbf 319e 173f
000001c0: 7c12 d0bd 2e59 86bf 6341 81bf 6852 a0bf
000001d0: bd5f a13f 762d c4bf 13bf 983f 18e2 81bf
000001e0: b076 b6bf 11f5 c5bf de4c d03f d5c4 b23f
000001f0: 3487 7a3f 04a0 b63e e60f 4bbf 2e8a e53e
00000200: e970 313f dcbd 61bf 22d1 0cbf e983 b1bf
00000210: d496 403f 6a10 edbf 5e21 6f3f 520d 31bf
00000220: a82b a93e 9c93 eebf c642 8c3f 932b f03d
00000230: a3d8 4ebe a1b4 213f 8600 43bf 4a16 913f
00000240: c3ae 30bf 855e 123e 2572 493f d1ed 9ebe
00000250: 70b0 ddbe 6753 17bf 23cb de3c 94b2 2f3d
00000260: d9e8 6bbf 405f 50bf fd3d 9d3e ff51 973f
00000270: 3df1 823f cc65 1dbf 910c 603e c05f cdbc
00000280: 625c 1dbe da5c f13f c177 ee3f 1b20 f43f
00000290: 3d9f e5bf 4837 513f 9482 ddbf 18a2 0b40
000002a0: 4b33 023e 39f9 a53f b943 f6bf 10c3 68be
000002b0: d3d7 18be 91bb f6bf 0946 e63f 3431 0ac0
000002c0: 6588 e63d 3b2c 163f 8272 4c3f e85f 9e3f
000002d0: a21a 3ebf 15fc 9b3f 22b7 75bf 939b 323f
000002e0: dc1e 283d 4338 a63f e6d2 94bf ba45 b3be
000002f0: 6e2b 24be a9a6 53bf a76f 823f c961 58bf
00000300: c6a7 eb3e 20fa 9bbf 66a1 c0bf 4d42 0fbf
00000310: 1768 ad3f ccc6 273d 00ea 4c3f 1faa 48bf
00000320: 34d0 cb3e 3fc2 8fbc eac6 8e3f 2808 7fbe
00000330: 46fc 16be c712 863f 8e2c 2abf 0653 9e3f
00000340: 3bc1 debf 62f3 aa3e 46ae fa3f ba8d 11bf
00000350: 333a 8fbe 9fb9 6cbf aaa9 d13e 8db3 393d
00000360: a7cc bcbf 7abf 20bf d8b0 6f3e 2f56 bb3f
00000370: bd61 b33f 2b7a 363e 074d b3be 2fc2 3dbc
00000380: 367c 1f40 73fd 903f 0d53 34bf 2b4f c63f
00000390: 897a 83bf 0ad7 fa3f cc5c babf f527 843f
000003a0: 13d3 1640 3060 e43f 7c1e b6bf aa9f 08c0
000003b0: 06ff 26c0 7df7 84bf c619 a43f 32dd ddbf
000003c0: a189 2ebf e22c adbf 8b81 79bf 599a 98bf
000003d0: 7fb1 4a3f ec16 17bf 252f 863f c69e 54bf
000003e0: 7fdc 44bf 2d43 59bf fc1e 983f 3828 843f
000003f0: 8f2f 3c3f d3d1 963f d217 d6bf ecdf 703f

transformer_encoder.layers.0.self_attn.o_proj.weight f4 [16, 16]
0.038900286 0.9366263 0.0102933105 -0.17965584 -0.726546 -0.5528436 -0.6564136 0.5229769
-0.6736325 -0.035116438 -0.30053502 -0.0062932656 0.34449953 0.50117815 0.35092807 0.41032156
0.33497924 0.5851598 -0.85012484 -0.33349952 -0.17741203 -0.3314838 -0.39104238 -0.15923534
-0.16692634 -0.5703972 0.3208513 0.6824162 0.6427688 0.6558781 0.22519614 0.21219118
-0.5607767 0.48313746 0.46846268 -0.6786047 -1.0301014 -1.0717933 -0.09440351 1.604643
-1.8654995 -0.029973444 -1.2645016 0.52037764 0.009276465 1.0026407 1.2313235 1.4590592
0.046009567 0.84722596 -1.5297157 -0.14505373 -0.5418074 0.8293505 -0.832814 -0.10803571
1.5237755 -0.15392189 -0.094856165 0.7518324 -0.10598556 0.20118298 -0.6919437 -0.08761575
-0.89506155 -0.8534034 0.7062793 0.43735597 0.27353776 0.5325109 0.24636976 -0.17372903
0.109526366 0.5243875 -1.1750308 -0.7011615 -0.808381 -0.3378866 -0.6929395 -0.29214624
1.03148 0.5463196 -0.88780874 -0.8869833 -0.88010347 -0.558333 -0.77944773 0.26476777
0.24410191 -0.53255165 1.237237 0.17102872 0.8003563 0.21837528 -0.09865972 0.5473537
-0.85083 -0.5002407 0.112784125 0.46881735 0.50148714 1.0127621 0.8386141 -0.397786
0.8114961 0.7054618 -0.71309185 -0.79161036 -0.22581117 -0.49787566 -0.5007793 -0.4242896
2.0955794 0.05081549 -1.170299 -1.7689652 -0.27790907 0.34086284 -1.0086254 -1.2958766
1.5033997 -0.80386823 2.5617697 0.95814306 0.66735715 0.0892889 0.5485331 -0.01848277
0.84998786 -0.5015424 -0.7827625 -0.46858376 0.009624522 0.6231209 -0.7648473 -0.70432633
1.4410241 -0.88091075 1.3690561 1.1627508 0.6566892 0.08522787 -0.4753562 -0.045981646
1.8171829 -0.24546452 -0.5865807 -1.346778 -0.45902672 0.36685333 -1.2525762 -1.2619436
1.1521618 -1.1143398 2.8987205 0.80273074 1.3297367 -0.41267884 0.39627826 0.12771535
-2.4726844 0.79568815 1.262478 1.7059574 0.22554864 -0.8947958 1.15005 2.1934476
-1.9962333 1.2151518 -3.0545359 -1.951891 -1.8133094 0.80427134 0.06516683 0.5215863
-0.87612337 -0.33081096 1.0498432 0.8926823 0.4596654 0.5658855 0.81749976 -0.28926337
-0.85980046 0.092905514 -1.7299004 -0.6370392 -0.18759483 -0.5108344 -0.4702485 -0.91609216
-1.1024797 -0.07473251 1.2714365 1.0670388 0.55353594 -0.07858872 0.99233997 0.10274954
-0.61887944 0.86230534 -1.4732873 -0.4931296 -0.9554862 -0.43992049 -0.4474949 -0.18131839
0.091833554 0.9190924 -1.0284866 0.33505294 -0.8332476 -0.28484714 -0.1474556 -0.13969475
0.5581035 -0.25318775 0.5189004 0.8776483 0.6596983 0.85097164 -0.37399796 0.32558683
-0.31460673 -0.3459677 0.07885681 0.84976894 0.39604968 0.9897742 0.39303958 -0.5530162
0.29592097 -0.50549316 -0.47797045 -0.3861648 0.005111143 -0.2622808 -0.43621612 -0.9101713
-0.21675834 -0.5484852 0.6089061 -0.23919442 0.47052038 0.29220715 1.0957555 0.3346052
-0.29484367 0.74533606 -0.21263379 -0.9261525 -0.4988692 -0.7898875 -0.24856347 -0.45411217
00000000: e855 1f3d bec6 6f3f 46a5 283c b3f7 37be
00000010: ebfe 39bf 2887 0dbf b90a 28bf d0e1 053f
00000020: 2e73 2cbf 41d6 0fbd badf 99be bd37 cebb
00000030: 3e62 b03e 364d 003f d8ac b33e ab15 d23e
00000040: 6682 ab3e 08cd 153f c8a1 59bf 73c0 aabe
00000050: 80ab 35be 3fb8 a9be b536 c8be 970e 23be
00000060: bdee 2abe 8d05 12bf 9f46 a43e d4b2 2e3f
00000070: 7f8c 243f a1e7 273f d199 663e a548 593e
00000080: 108f 0fbf cb5d f73e 57da ef3e 0ab9 2dbf
00000090: 5dda 83bf 8630 89bf a156 c1bd f164 cd3f
000000a0: b0c8 eebf de8a f5bc 30db a1bf 7837 053f
000000b0: 50fc 173c 8856 803f 029c 9d3f 74c2 ba3f
000000c0: 8774 3c3d cde3 583f b9cd c3bf f788 14be
000000d0: e4b3 0abf 5050 543f 4c33 55bf d441 ddbd
000000e0: 130b c33f b39d 1dbe f343 c2bd 1778 403f
000000f0: f50e d9bd e902 4e3e 3923 31bf e36f b3bd
00000100: c122 65bf a578 5abf b8ce 343f 1fed df3e
00000110: 240d 8c3e a252 083f 5b48 7c3e 06e6 31be
00000120: 5c4f e03d 423e 063f 6967 96bf 527f 33bf
00000130: 0ff2 4ebf 79ff acbe 7c64 31bf 3194 95be
00000140: 8907 843f 9adb 0b3f 6f47 63bf 5611 63bf
00000150: 764e 61bf e9ee 0ebf e389 47bf a48f 873e
00000160: daf5 793e 4e55 08bf c85d 9e3f 2722 2f3e
00000170: 27e4 4c3f c59d 5f3e 1b0e cabd 5f1f 0c3f
00000180: ffcf 59bf c60f 00bf 5dfb e63d d408 f03e
00000190: 7661 003f 30a2 813f 6aaf 563f 9baa cbbe
000001a0: 35be 4f3f 2599 343f 308d 36bf faa6 4abf
000001b0: 0b3b 67be 8fe9 febe 1233 00bf 7d3c d9be
000001c0: f91d 0640 e723 503d 5ccc 95bf 746d e2bf
000001d0: 194a 8ebe 9385 ae3e a31a 81bf 49df a5bf
000001e0: 676f c03f 4fca 4dbf 09f4 2340 dd48 753f
000001f0: ebd7 2a3f 19dd b63d aa6c 0c3f 2e69 97bc
00000200: ce98 593f 1565 00bf 2063 48bf 36ea efbe
00000210: 2cb0 1d3c da84 1f3f 08cd 43bf bb4e 34bf
00000220: 7a73 b83f 5e83 61bf 3b3d af3f 05d5 943f
00000230: c91c 283f f38b ae3d e361 f3be 4057 3cbd
00000240: 7399 e83f 0d5b 7bbe 272a 16bf 3963 acbf
00000250: 8d05 ebbe 33d4 bb3e 6b54 a0bf 5e87 a1bf
00000260: 0a7a 933f b0a2 8ebf a384 3940 c37f 4d3f
00000270: d034 aa3f a44a d3be fce4 ca3e d0c7 023e
00000280: 7640 1ec0 38b2 4b3f e198 a13f d05c da3f
00000290: 39f6 663e 5611 65bf d734 933f 7261 0c40
000002a0: 9384 ffbf 188a 9b3f 847d 43c0 90d7 f9bf
000002b0: 861a e8bf bae4 4d3f 3076 853d ae86 053f
000002c0: 9f49 60bf 0e60 a9be 4361 863f d486 643f
000002d0: 4359 eb3e dfdd 103f aa47 513f 541a 94be
000002e0: e21b 5cbf 3f45 be3d 606d ddbf 0015 23bf
000002f0: dc18 40be 0bc6 02bf 69c4 f0be 0485 6abf
00000300: 0e1e 8dbf 5c0d 99bd 6ebe a23f ba94 883f
00000310: 88b4 0d3f 1ff3 a0bd fe09 7e3f 5a6e d23d
00000320: e26e 1ebf 0bc0 5c3f ae94 bcbf 7c7b fcbe
00000330: be9a 74bf 423d e1be 0d1e e5be 87ab 39be
00000340: 3b13 bc3d a449 6b3f 73a5 83bf 0f8c ab3e
00000350: b74f 55bf 7cd7 91be 9afe 16be 240c 0fbe
00000360: dfdf 0e3f d3a1 81be a8d6 043f 8fad 603f
00000370: fde1 283f 47d9 593f a97c bfbe 51b3 a63e
00000380: 2214 a1be ae22 b1be ae7f a13d 758a 593f
00000390: 06c7 ca3e d861 7d3f 7c3c c93e 7892 0dbf
000003a0: f482 973e 0068 01bf 8bb8 f4be 65b7 c5be
000003b0: 607b a73b ab49 86be b857 dfbe fc00 69bf
000003c0: e6f5 5dbe 8769 0cbf 45e1 1b3f 62ef 74be
000003d0: 0ce8 f03e 2d9c 953e b741 8c3f 5f51 ab3e
000003e0: c0f5 96be 58ce 3e3f acbc 59be 5518 6dbf
000003f0: c96b ffbe 1136 4abf 6c87 7ebe 6481 e8be

transformer_encoder.layers.0.self_attn.o_proj.bias f4 [16]
0.5380405 0.66968584 0.54091763 0.850955 -0.62663543 0.6082948 -0.58253276 0.5422436
0.66761243 0.557951 -0.5724386 -0.580962 -0.62322766 0.72395396 -0.40446293 -0.8679387
00000000: 06bd 093f 8870 2b3f 9479 0a3f 30d8 593f
00000010: 2e6b 20bf 35b9 1b3f de20 15bf 7ad0 0a3f
00000020: a6e8 2a3f e0d5 0e3f 568b 12bf edb9 14bf
00000030: d98b 1fbf 0c55 393f c415 cfbe 3b31 5ebf

transformer_encoder.layers.0.linear_net.0.weight f4 [32, 16]
0.6722347 -0.78355294 -1.4699461 -0.2214244 0.7966396 0.542277 0.73400545 -0.70065093
0.6385117 -0.25528857 0.42994624 -0.28875232 -0.6295136 0.41461685 -0.3940127 0.5540224
-0.8470278 0.011314989 -0.0027838445 -0.34436193 -0.47313395 -0.019217456 -0.502369 1.0962664
-0.16014245 0.82725286 -0.9537888 0.039733306 0.07746281 -0.2347206 0.33932012 -0.34920937
1.5101727 0.7979645 1.4460565 1.0850438 -0.28464025 1.9211065 -0.1615912 -2.396007
0.31728026 -2.006288 1.9999524 -0.3802152 -1.376347 1.5186512 -1.5492238 -0.8699112
-0.3666398 -0.20710668 -0.4407188 -0.23608422 0.007899292 0.4108501 0.09606335 0.6619655
0.19342539 0.22016193 -0.58067137 -0.20017982 -0.44081914 -0.24539925 0.13127503 0.23588724
-0.46447033 0.5160783 0.44968104 -0.55733013 0.2975616 -1.0719877 0.6567872 -0.71583754
-0.9212867 -0.86054355 0.7062685 0.9485279 1.2333242 -1.3174455 0.5535907 -0.25018242
0.011932987 -0.7502637 -1.735209 -1.131633 0.7478694 0.4422484 1.0047579 -0.46651757
0.3866724 -0.44006658 0.24620768 -0.54377294 -0.27562395 0.21055724 -0.55556446 0.49808392
0.20506334 -0.44106436 -1.548797 -0.7703945 0.8656732 0.37499458 1.081851 -0.77013946
0.29102328 -0.27902997 0.18115288 -0.13291948 -0.5374135 0.3728758 -0.3351622 0.7282949
2.0060015 1.739814 2.77015 0.8674731 -1.7170469 -0.05584224 -1.8135037 -4.323509
-0.7877026 -3.388215 3.364307 -1.7017723 0.23017555 0.89695567 -0.99096024 -1.7501953
1.9578263 1.0302776 1.5261786 1.0291378 -0.7677493 1.8739368 -0.31465122 -1.9690752
0.48256776 -1.8936768 1.787689 -0.40392387 -1.5025307 1.576587 -1.8824943 -1.0240101
0.5106628 0.1471533 -0.8762913 0.36368358 -0.7223671 0.46021593 -0.7226692 0.79756004
0.6303769 1.1401222 -1.0548981 -0.19327521 -0.73697436 -1.7686366 -0.36909297 -0.28732812
0.17002365 -0.45574096 -1.4159256 -1.5546744 0.5830062 0.5485609 0.8589409 -0.7862818
0.32632908 -0.41535327 0.18756361 -0.40453798 -0.63341886 0.48220867 -0.53089523 0.7661671
-0.39787057 -0.04513841 -0.28660548 -0.6384944 0.2676263 -0.97461003 0.36958864 -0.510029
-0.7899308 -0.50954396 0.78861517 0.18857124 1.1955806 -0.54982334 1.4282985 0.38654518
-0.5029801 -0.83490133 -0.73981124 -0.44111633 0.7797827 -0.69299895 0.6891321 1.1444681
-0.63265526 0.76715076 -0.80044794 1.0539595 0.23400097 -0.39697096 0.53023773 0.7440965
-0.5708719 0.6375155 0.06799391 0.40549654 -0.5972865 -0.16186285 -0.42785138 0.5180252
-0.28967118 0.9214966 -1.0714273 0.5544619 0.22546801 -0.5458105 0.30296826 -0.40370208
-1.1686853 1.6834743 -0.7461316 -1.2461479 -0.7659219 -1.639324 -0.08766363 -0.6256041
-0.54913425 -0.9497517 0.33657137 0.0834449 1.640069 -1.4739989 1.9595858 -1.22383
0.18260536 -0.06997015 -0.79559535 0.11802916 -0.22766611 0.14299807 -0.35637897 1.4829491
0.35616672 1.8057724 -1.7301463 0.3103673 -0.40023252 -2.311247 0.29664803 0.5204201
00000000: 9317 2c3f ed96 48bf 3227 bcbf 14bd 62be
00000010: 93f0 4b3f aad2 0a3f c8e7 3b3f dc5d 33bf
00000020: 8175 233f 2fb5 82be ea21 dc3e 58d7 93be
00000030: ce27 21bf a948 d43e 08bc c9be 69d4 0d3f
00000040: d0d6 58bf 8162 393c 2971 36bb 3550 b0be
00000050: 9d3e f2be ed6d 9dbc 419b 00bf 7552 8c3f
00000060: 62fc 23be d8c6 533f 812b 74bf 64bf 223d
00000070: d2a4 9e3d 995a 70be 5ebb ad3e 92cb b2be
00000080: 574d c13f 6747 4c3f 6118 b93f b7e2 8a3f
00000090: 5ebc 91be d1e6 f53f 2a78 25be 2e58 19c0
000000a0: 8f72 a23e 0667 00c0 71fe ff3f 91ab c2be
000000b0: 232c b0bf 2a63 c23f f74c c6bf 80b2 5ebf
000000c0: 36b8 bbbe c613 54be e5a5 e1be 10c0 71be
000000d0: 086c 013c f25a d23e ddbc c43d 9276 293f
000000e0: 4e11 463e 2172 613e e1a6 14bf f0fb 4cbe
000000f0: 0cb3 e1be f149 7bbe f66c 063e 6d8c 713e
00000100: 0ecf edbe b51d 043f 983c e63e 30ad 0ebf
00000110: fe59 983e e536 89bf 3523 283f 2141 37bf
00000120: 72d9 6bbf 954c 5cbf 03ce 343f b9d2 723f
00000130: 91dd 9d3f 0ea2 a8bf 1fb8 0d3f e917 80be
00000140: 9382 433c 4811 40bf 541b debf 5ad9 90bf
00000150: 5e74 3f3f 626e e23e e89b 803f 64db eebe
00000160: edf9 c53e 6850 e1be de1d 7c3e b434 0bbf
00000170: 951e 8dbe 519c 573e 7939 0ebf db04 ff3e
00000180: 20fc 513e 30d3 e1be fb3e c6bf 9338 45bf
00000190: c29c 5d3f 4aff bf3e 187a 8a3f dc27 45bf
000001a0: 0101 953e 04dd 8ebe 2480 393e 0b1c 08be
000001b0: ee93 09bf 94e9 be3e 619a abbe 8971 3a3f
000001c0: 5462 0040 3ab2 de3f 234a 3140 b812 5e3f
000001d0: 31c8 dbbf d5ba 64bd e420 e8bf 305a 8ac0
000001e0: e1a6 49bf 84d8 58c0 ce50 5740 add3 d9bf
000001f0: 24b3 6b3e e39e 653f 92af 7dbf 6606 e0bf
00000200: 0d9a fa3f 23e0 833f d259 c33f caba 833f
00000210: 388b 44bf 29dd ef3f f719 a1be a80a fcbf
00000220: 1f13 f73e 0064 f2bf fed2 e43f 1ccf cebe
00000230: ed52 c0bf 9acd c93f 93f5 f0bf c312 83bf
00000240: ccba 023f 5baf 163e a054 60bf bc34 ba3e
00000250: 0ded 38bf 6ca1 eb3e d900 39bf e52c 4c3f
00000260: 6160 213f 86ef 913f e706 87bf f0e9 45be
00000270: 5aaa 3cbf af62 e2bf c1f9 bcbe ac1c 93be
00000280: ae1a 2e3e e156 e9be 0d3d b5bf 92ff c6bf
00000290: e53f 153f 7d6e 0c3f 8de3 5b3f c449 49bf
000002a0: 9b14 a73e 2fa9 d4be ad10 403e 9a1f cfbe
000002b0: bd27 22bf 0ee4 f63e c0e8 07bf 8723 443f
000002c0: b1b5 cbbe 0ee3 38bd f4bd 92be 5e74 23bf
000002d0: 5006 893e 0b80 79bf b93a bd3e 4391 02bf
000002e0: e838 4abf 7971 02bf afe2 493f d218 413e
000002f0: c908 993f 39c1 0cbf 7cd2 b63f 40e9 c53e
00000300: 4ec3 00bf 18bc 55bf 4564 3dbf 00da e1be
00000310: d79f 473f 6168 31bf f66a 303f ee7d 923f
00000320: b2f5 21bf fe63 443f 28ea 4cbf 25e8 863f
00000330: f39d 6f3e c73f cbbe a9bd 073f 1c7d 3e3f
00000340: a924 12bf 3734 233f 6440 8b3d 3e9d cf3e
00000350: c5e7 18bf 60bf 25be 560f dbbe 4d9d 043f
00000360: c84f 94be 34e7 6b3f 8824 89bf 37f1 0d3f
00000370: 16e1 663e 3dba 0bbf a81e 9b3e 0ab2 cebe
00000380: 7b97 95bf 167c d73f 7b02 3fbf c681 9fbf
00000390: 7513 44bf 5ed5 d1bf fd88 b3bd 9727 20bf
000003a0: 1094 0cbf ed22 73bf 1553 ac3e 29e5 aa3d
000003b0: c8ed d13f ffab bcbf b5d3 fa3f 76a6 9cbf
000003c0: e6fc 3a3e 834c 8fbd 23ac 4bbf 46b9 f13d
000003d0: 4e21 69be 166e 123e 4e77 b6be 47d1 bd3f
000003e0: 7c5b b63e 8d23 e73f 6f75 ddbf 76e8 9e3e
000003f0: 47eb ccbe 79eb 13c0 40e2 973e 403a 053f

transformer_encoder.layers.0.linear_net.0.bias f4 [32]
0.48719016 -0.80766976 0.57428825 -0.40813097 -0.20671268 0.36517015 0.6883905 2.2760344
0.70289266 0.53621364 0.35823298 -0.28114045 -1.1531041 -0.7723995 0.71807146 -0.006649882
-1.3523993 -0.41379592 -1.306465 -0.3180631 -0.17714566 -0.30791906 0.62852305 -0.29872954
0.69392884 1.1953418 -0.9608206 -0.21890461 0.355392 -0.32736343 -1.1106957 0.5417244
00000000: fd70 f93e 72c3 4ebf 8e04 133f 8bf6 d0be
00000010: 7dac 53be 95f7 ba3e 5c3a 303f 8caa 1140
00000020: c6f0 333f 4c45 093f 506a b73e a4f1 8fbe
00000030: ea98 93bf f9bb 45bf 88d3 373f 41e7 d9bb
00000040: 6c1b adbf 0fdd d3be 3f3a a7bf 2bd9 a2be
00000050: ac65 35be 91a7 9dbe e3e6 203f 14f3 98be
00000060: 52a5 313f f600 993f 57f8 75bf 8828 60be
00000070: f1f5 b53e 2e9c a7be 472b 8ebf 73ae 0a3f

transformer_encoder.layers.0.linear_net.3.weight f4 [16, 32]
0.28230718 0.4334612 1.821411 0.08352313 0.21971254 0.71696943 -0.18064727 2.4865978
1.639955 -0.5987465 -0.18856226 0.21303013 0.47939518 0.57465816 0.081222296 -0.45165685
0.53981775 0.36669388 0.62143624 0.045502573 0.0049969205 -0.78209686 -0.28470176 0.26592568
0.7202357 2.7453701 -0.109071314 -0.32704714 -0.40493625 -0.13204284 0.6837023 -0.3627922
0.9790539 0.5111732 1.8035161 -0.27644846 1.5252393 0.509151 1.0062441 3.3770823
1.7953193 0.71280146 0.87392515 1.5212159 0.4607683 0.49384624 1.1010616 0.40740514
0.6743038 0.8720066 0.5931932 0.9623884 0.98104846 0.37435952 1.0808686 0.8318004
2.0873373 2.734565 -0.23152764 0.8133387 0.82450813 1.0882406 0.46615884 0.86064905
0.19397187 0.76454175 -1.9008873 0.057307433 -1.385528 0.5503443 -0.20973513 -2.420557
-1.8238106 -0.7023938 -0.18800053 -1.0700502 -0.37507206 0.61358386 -1.3982915 -0.7496798
0.5517507 0.60563874 0.38216862 -0.11743096 -1.1401887 -0.48236233 -0.20447801 -0.999295
-1.9473034 -2.9504876 0.3648853 -0.23918806 -0.4562651 -0.08946292 0.68015426 -0.45262483
-0.0027081952 0.40740848 -1.3144014 -0.14974557 0.2989132 -0.27350783 0.5324327 -1.6635042
-1.0539174 0.25116134 0.2827889 -0.26397768 -0.27873325 -0.20592351 0.23506425 0.43408856
0.5644108 0.55812234 0.073624656 -0.16488037 0.2681868 0.6715668 0.22136354 0.3442709
-0.25353265 -2.388186 0.13498133 0.21309158 -0.12618326 -0.018616378 0.19967844 0.17507371
-0.43281794 -0.5747491 1.5697645 -0.05077053 0.3178427 -0.49422643 -0.5873058 1.4731293
1.6706415 0.10590837 -0.76382357 0.7734369 -0.26619828 -0.37044117 0.096565634 0.4472142
-0.5564818 -0.6026946 -0.59874856 -0.72296244 0.23037691 -0.42711136 -0.5608872 0.42301568
0.27748302 -0.19506556 0.5815352 -0.7127448 -0.2109628 -0.64478964 -0.5626079 -0.6782181
0.49034047 0.570282 -1.9318825 0.053831473 -1.0067934 0.2237232 0.4129468 -2.279607
-1.4597278 0.15428758 0.4027614 -0.9047533 -0.41800573 0.30072197 -1.9042343 0.5091151
0.4324457 0.49686548 0.48484504 0.15187569 -1.0697298 0.15638223 0.4295936 -1.1802462
-1.7920731 -2.747303 0.045772318 0.030895175 -0.43713716 0.061960362 0.43293098 0.19275174
-0.62913084 -0.5187535 1.5463034 -0.024629733 0.9482531 -0.738911 -0.032815486 1.8955038
1.7026349 0.71134573 0.042497024 1.1264397 0.3578672 -0.38271657 0.8452195 0.5353203
-0.73907995 -0.68350965 -0.7147295 -0.549069 1.1091756 0.637043 0.023065925 0.60496753
1.2529923 2.6396368 0.4567873 -0.08398234 0.68413097 -0.2282287 -0.5374657 0.25588274
0.75106823 0.39766213 1.4422363 -0.080284394 0.82862 0.8081119 0.4995797 2.0471704
1.3507929 -0.39983004 0.5221411 0.9536054 0.48071474 0.7073192 1.5654867 -0.55047077
0.5492679 0.6008712 0.7637311 0.472637 1.0277121 -0.3897808 0.5969067 0.4054088
1.3901407 2.7381315 -0.30609727 0.7200757 0.5803743 0.4947745 0.7453817 0.5730339
00000000: 918a 903e a0ee dd3e ff23 e93f 2d0e ab3d
00000010: 53fc 603e 4f8b 373f 99fb 38be 6b24 1f40
00000020: 0cea d13f 7347 19bf 7716 41be 9224 5a3e
00000030: 4973 f53e cc1c 133f e057 a63d 913f e7be
00000040: 7f31 0a3f 4dbf bb3e 7216 1f3f e860 3a3d
00000050: 35bd a33b 8037 48bf 6ec4 91be 6927 883e
00000060: 5e61 383f 25b4 2f40 c860 dfbd b972 a7be
00000070: ce53 cfbe 3d36 07be 1d07 2f3f e6bf b9be
00000080: 47a3 7a3f 3fdc 023f 9ed9 e63f a78a 8dbe
00000090: 0b3b c33f b857 023f 9bcc 803f 1e22 5840
000000a0: 06cd e53f 287a 363f 8fb9 5f3f 34b7 c23f
000000b0: d3e9 eb3e 6ad9 fc3e 96ef 8c3f 6897 d03e
000000c0: 2d9f 2c3f d33b 5f3f 82db 173f 165f 763f
000000d0: fe25 7b3f 0dac bf3e e759 8a3f dff0 543f
000000e0: ef96 0540 1d03 2f40 9515 6dbe f736 503f
000000f0: f712 533f 784b 8b3f 5fac ee3e 7f53 5c3f
00000100: 90a0 463e 02b9 433f 4650 f3bf 33bb 6a3d
00000110: fb58 b1bf 5de3 0c3f cec4 56be 68ea 1ac0
00000120: a072 e9bf 14d0 33bf 3683 40be 68f7 88bf
00000130: 7209 c0be d513 1d3f 37fb b2bf 04eb 3fbf
00000140: 893f 0d3f 240b 1b3f 9bab c33e a57f f0bd
00000150: b4f1 91bf 32f8 f6be af62 51be ccd1 7fbf
00000160: 3d41 f9bf cad4 3cc0 3fd2 ba3e b7ed 74be
00000170: 949b e9be 5638 b7bd 971e 2e3f 71be e7be
00000180: fa7b 31bb d897 d03e 4e3e a8bf e756 19be
00000190: 270b 993e 3809 8cbe 824d 083f b5ed d4bf
000001a0: c4e6 86bf 3898 803e b5c9 903e 1528 87be
000001b0: 20b6 8ebe 9ddd 52be afb4 703e db40 de3e
000001c0: 3a7d 103f 1be1 0e3f 86c8 963d 66d6 28be
000001d0: c84f 893e cdeb 2b3f 20ad 623e 4744 b03e
000001e0: 08cf 81be 0ad8 18c0 8c38 0a3e ae34 5a3e
000001f0: 2f36 01be 6081 98bc 8178 4c3e 8646 333e
00000200: 509a ddbe c222 13bf 0bee c83f c2f4 4fbd
00000210: 47bc a23e 3f0b fdbe ac59 16bf 808f bc3f
00000220: 95d7 d53f 7de6 d83d f189 43bf f6ff 453f
00000230: 244b 88be 77aa bdbe 34c4 c53d 42f9 e43e
00000240: 9775 0ebf 314a 1abf 9647 19bf 1114 39bf
00000250: ede7 6b3e 57ae dabe 4e96 0fbf 8395 d83e
00000260: 4112 8e3e 44bf 47be 7edf 143f 7176 36bf
00000270: a206 58be ef10 25bf 1207 10bf b49f 2dbf
00000280: e80d fb3e 00fe 113f ed47 f7bf 647e 5c3d
00000290: 9bde 80bf b217 653e c36d d33e 15e5 11c0
000002a0: 5cd8 babf 90fd 1d3e be36 ce3e ea9d 67bf
000002b0: d904 d6be 3bf8 993e f3bd f3bf 5e55 023f
000002c0: 8669 dd3e 2765 fe3e 9c3d f83e 4d85 1b3e
000002d0: e8ec 88bf aa22 203e b1f3 db3e 4f12 97bf
000002e0: a762 e5bf d0d3 2fc0 c17b 3b3d e117 fd3c
000002f0: 71d0 dfbe 26ca 7d3d 21a9 dd3e b660 453e
00000300: b80e 21bf 08cd 04bf 45ed c53f 4bc4 c9bc
00000310: b7c0 723f 4529 3dbf 8869 06bd de9f f23f
00000320: f1ef d93f c11a 363f 5c11 2e3d 2d2f 903f
00000330: 5f3a b73e 6df3 c3be 4e60 583f c00a 093f
00000340: 5834 3dbf 7dfa 2ebf 83f8 36bf c98f 0cbf
00000350: 77f9 8d3f 4015 233f c0f4 bc3c 27df 1a3f
00000360: 0d62 a03f cfef 2840 06e0 e93e effe abbd
00000370: 3523 2f3f c9b4 69be 5a97 09bf 1003 833e
00000380: 0246 403f 5f9a cb3e 339b b83f 256c a4bd
00000390: 7120 543f 6ce0 4e3f e9c8 ff3e d704 0340
000003a0: c8e6 ac3f 86b6 ccbe 0aab 053f 7c1f 743f
000003b0: 3e20 f63e df12 353f de61 c83f a7eb 0cbf
000003c0: d29c 0c3f b2d2 193f e283 433f 7afd f13e
000003d0: 128c 833f 5991 c7be e1ce 183f be91 cf3e
000003e0: 21f0 b13f 8c3d 2f40 c8b8 9cbe e256 383f
000003f0: 6993 143f 1553 fd3e 56d1 3e3f 5ab2 123f

transformer_encoder.layers.0.linear_net.3.bias f4 [16]
0.19057494 0.70104206 0.22820511 0.7896719 -0.6869054 0.6460807 -0.6582855 0.6415871
0.6196947 0.71561635 -0.01586241 -0.37243977 -0.73638517 0.62196606 0.1621387 -0.96208215
00000000: 1426 433e 7e77 333f 9aae 693e f027 4a3f
00000010: 08d9 2fbf 8b65 253f 6685 28bf 0d3f 243f
00000020: 50a4 1e3f a232 373f e3f1 81bc 6db0 bebe
00000030: bd83 3cbf 2b39 1f3f b007 263e 044b 76bf

transformer_encoder.layers.0.norm1.weight f4 [16]
0.38954818 -0.07084417 2.0082002 -0.28998 0.20203316 1.2465622 0.28731382 2.1651893
1.8173597 2.3264904 3.134296 0.8811313 1.5326556 1.1192977 0.4433421 0.11130285
00000000: dc72 c73e c016 91bd 5a86 0040 4278 94be
00000010: c8e1 4e3e 5a8f 9f3f cc1a 933e 7692 0a40
00000020: 3e9f e83f 38e5 1440 4e98 4840 d291 613f
00000030: 0f2e c43f 2645 8f3f bcfd e23e c0f2 e33d

transformer_encoder.layers.0.norm1.bias f4 [16]
0.65615034 1.4242865 1.0272295 0.27812704 -0.9311283 0.4480714 -0.7829543 -0.62883675
0.37311235 -0.53322065 0.6370781 -0.5007346 -0.43370742 0.8083175 0.12060033 -1.5679901
00000000: 78f9 273f 054f b63f 427c 833f ab66 8e3e
00000010: 6d5e 6ebf 9d69 e53e b16f 48bf 72fb 20bf
00000020: 9508 bf3e 2681 08bf 8d17 233f 2530 00bf
00000030: e60e debe e5ed 4e3f 4efd f63d e6b3 c8bf

transformer_encoder.layers.0.norm2.weight f4 [16]
0.22983845 1.5173885 1.1575483 0.8411735 -0.100762114 1.5816616 -0.1000027 0.9296444
1.3784856 1.7995187 3.279872 1.0039047 1.1415466 1.2763857 1.270856 1.8577015
00000000: c55a 6b3e c939 c23f 8b2a 943f 2657 573f
00000010: 5e5c cebd e373 ca3f 37ce ccbd 2dfd 6d3f
00000020: 3772 b03f a156 e63f 6ce9 5140 f37f 803f
00000030: 331e 923f 9b60 a33f 69ab a23f 2ac9 ed3f

transformer_encoder.layers.0.norm2.bias f4 [16]
-0.04384295 1.4499803 -0.22688305 0.30281073 -0.95125824 0.5449333 -0.4196727 1.1457019
0.94999826 1.9265438 -1.4757547 -0.46247604 -0.36098152 0.61985433 1.1390558 -1.640886
00000000: aa94 33bd f498 b93f 0854 68be 020a 9b3e
00000010: a985 73bf c080 0b3f 57df d6be 5ca6 923f
00000020: 1633 733f fd98 f63f 88e5 bcbf a9c9 ecbe
00000030: 92d2 b8be c6ae 1e3f 95cc 913f 8d08 d2bf

transformer_encoder.layers.1.self_attn.qkv_proj.weight f4 [48, 16]
0.48412898 2.193956 -0.77008206 1.629165 -1.7432029 0.33069587 -1.1258587 1.5793246
1.2765791 2.1938057 -1.2926127 -0.59650403 -1.7921944 1.8021863 0.57470626 -2.3064444
-0.36576462 -0.24791129 -0.37402603 -0.076577015 -0.062142186 0.22145267 0.56448156 -0.21548627
0.27393097 -0.3603128 -0.49325922 -0.16826208 0.40811756 -0.34527528 0.32536846 -0.13261503
-0.87957317 -1.4272593 0.03290302 -0.42100847 0.93744695 -0.2703118 0.4089654 -1.318239
-0.26808748 -1.3246173 0.7124328 0.18392049 0.93511176 -0.57683104 0.26976871 1.3362852
-0.72808075 -2.0255237 0.17984658 -1.4867922 1.5022961 -0.5078847 0.56835604 -1.2774217
-0.6219694 -1.5688306 1.1867633 0.29126954 0.7597913 -0.81987107 0.073883325 1.5585722
-0.23764598 0.021910971 -0.7592832 -2.0898006 0.34864375 -2.44392 0.35917413 2.37167
-1.0517558 1.0343806 -0.13700587 1.7347088 1.7492741 -1.7815653 0.6677525 -0.64751273
-0.16832858 -1.5790644 -0.10848752 -0.30579117 0.9672718 0.4101307 1.1382838 -0.5545234
0.17770134 -1.0024315 -0.026712818 0.19190092 0.22329867 -1.1494362 0.8321069 0.12672034
0.7250577 -1.0717363 1.3585578 1.4652169 0.4755913 1.8649565 -0.47344822 -0.5813536
1.3847805 -1.3700688 0.62606096 -1.2217426 -1.4108338 0.37278 -0.75732803 -0.30966136
-0.2190224 -0.8355991 0.9322119 1.3826241 0.3287415 2.1521363 -0.17797583 -1.1446728
1.3070977 -1.1136962 0.19687827 -1.5140804 -1.5502003 1.2644299 -0.5762499 -0.3119439
-0.41036654 -1.418536 0.41045266 -0.020461949 0.93270975 0.42536482 1.1912225 -1.0564232
0.13526429 -1.4196374 2.0332193 -0.39138323 -0.11207084 0.2557899 -0.4325561 1.2070307
0.38705543 0.24608086 0.48544127 -0.03449942 -0.07185288 0.5991111 0.085814975 0.56313586
0.32239315 0.5796837 -0.36511803 -0.28147876 -0.09312141 -0.06826439 -0.107801445 -0.32121706
0.43199527 -0.47410977 1.3727632 1.2162519 0.12359724 1.5243676 0.5170405 -0.60168713
1.1730233 -0.34394294 1.2815434 -1.3634324 -1.4616504 1.5106274 -1.342476 0.5998274
0.58765167 -0.06904505 -0.7772795 -1.01586 -0.14594746 -1.0975933 -0.115158334 0.38747928
-0.81788117 -0.019971283 -0.9367968 0.7020836 1.0719994 -0.9929038 0.9918512 -0.012242484
0.96222234 1.3640498 -0.2840253 2.1536207 -1.5766376 0.28440955 -1.9640362 1.394172
1.2008889 1.4920074 -0.664141 -1.3542887 -2.2732155 2.4609027 0.47991946 -1.7515128
-0.71396506 -0.21074718 0.71533257 1.6551228 0.24496236 0.4828857 -0.94666123 -0.2432532
0.34306705 -0.39760762 0.4475602 -0.37363127 -1.0270162 1.0805714 -0.46464643 0.29907876
0.7733322 1.1615274 0.005083613 2.1693516 -0.9738753 0.67865163 -2.0746443 1.5888529
1.2646492 0.92964303 -0.6313635 -1.5810634 -2.30659 2.3697147 -0.17034653 -1.6296589
-0.7504822 -0.5763715 0.079879954 -2.1286578 0.2712851 -0.0965012 1.9855547 -1.1085232
-1.2556207 -0.6382348 -0.09755625 1.0293391 2.1645658 -2.1384091 0.2910597 0.7447992
00000000: c1df f73e c669 0c40 1924 45bf 7b88 d03f
00000010: 4621 dfbf f850 a93e 231c 90bf 4f27 ca3f
00000020: f266 a33f 5067 0c40 5574 a5bf 7db4 18bf
00000030: a066 e5bf 0aae e63f f31f 133f c99c 13c0
00000040: 8045 bbbe 75dc 7dbe 5780 bfbe 69d4 9cbd
00000050: ce88 7ebd 7dc4 623e dd81 103f 6fa8 5cbe
00000060: ae40 8c3e eb7a b8be 798c fcbe e54c 2cbe
00000070: c9f4 d03e ecc7 b0be b296 a63e 3ccc 07be
00000080: b52b 61bf 6fb0 b6bf 51c5 063d 6c8e d7be
00000090: 86fc 6f3f 4f66 8abe ea63 d13e 0ebc a8bf
000000a0: c342 89be 0f8d a9bf ff61 363f a755 3c3e
000000b0: 7c63 6f3f 33ab 13bf 201f 8a3e 650b ab3f
000000c0: 8063 3abf 2ea2 01c0 b429 383e 354f bebf
000000d0: 3d4b c03f bb04 02bf c87f 113f 8e82 a3bf
000000e0: 6339 1fbf 71cf c8bf dce7 973f 4821 953e
000000f0: af81 423f 12e3 51bf 2450 973d 4b7f c73f
00000100: 7859 73be a37e b33c 6260 42bf 4bbf 05c0
00000110: 6f81 b23e 2f69 1cc0 ace5 b73e 71c9 1740
00000120: ef9f 86bf 9566 843f 444b 0cbe f00a de3f
00000130: 37e8 df3f 550a e4bf d4f1 2a3f 65c3 25bf
00000140: 545e 2cbe c81e cabf b42e debd a990 9cbe
00000150: 209f 773f a7fc d13e 49b3 913f 3ff5 0dbf
00000160: 57f7 353e ad4f 80bf d7d4 dabc ad81 443e
00000170: 68a8 643e ba20 93bf f504 553f fac2 013e
00000180: 629d 393f a82e 89bf 39e5 ad3f 3a8c bb3f
00000190: b480 f33e e5b6 ee3f ce67 f2be 97d3 14bf
000001a0: 7d40 b13f 6a5e afbf 8845 203f 1062 9cbf
000001b0: 3496 b4bf 05dd be3e 40e0 41bf ef8b 9ebe
000001c0: 6847 60be d3e9 55bf 70a5 6e3f d4f9 b03f
000001d0: ce50 a83e 9abc 0940 4c3f 36be a384 92bf
000001e0: fa4e a73f 998d 8ebf 759a 493e 63cd c1bf
000001f0: f76c c6bf d7d8 a13f 1d85 13bf 1cb7 9fbe
00000200: 901b d2be 9692 b5bf da26 d23e d19f a7bc
00000210: 11c6 6e3f 6bc9 d93e fb79 983f e038 87bf
00000220: b982 0a3e aeb6 b5bf 4420 0240 6263 c8be
00000230: 6685 e5bd e5f6 823e fe77 ddbe fb7f 9a3f
00000240: 212c c63e 9ffc 7b3e c28b f83e 444f 0dbd
00000250: 9a27 93bd 585f 193f c3bf af3d ac29 103f
00000260: b710 a53e 2766 143f c0f0 babe fc1d 90be
00000270: 70b6 bebd 33ce 8bbd 01c7 dcbd 9076 a4be
00000280: 7c2e dd3e 84be f2be b4b6 af3f 24ae 9b3f
00000290: 8d20 fd3d 7a1e c33f c45c 043f 2b08 1abf
000002a0: a125 963f 4a19 b0be 9d09 a43f f484 aebf
000002b0: 5c17 bbbf 3d5c c13f 41d6 abbf 4a8e 193f
000002c0: 5770 163f 7e67 8dbd cafb 46bf b307 82bf
000002d0: 4073 15be f07d 8cbf 22d8 ebbd af63 c63e
000002e0: a960 51bf d19a a3bc ead1 6fbf c0bb 333f
000002f0: 4737 893f f22e 7ebf f6e9 7d3f b394 48bc
00000300: 3454 763f 2f99 ae3f c46b 91be ecd4 0940
00000310: 43cf c9bf 219e 913e 8a65 fbbf 3a74 b23f
00000320: bab6 993f 19fa be3f 2505 2abf 5559 adbf
00000330: 5d7c 11c0 6e7f 1d40 01b8 f53e 9231 e0bf
00000340: 6ac6 36bf 1cce 57be 0920 373f 10db d33f
00000350: 6ad7 7a3e cb3c f73e 6458 72bf 5e17 79be
00000360: 7ca6 af3e 3a93 cbbe 9c26 e53e 994c bfbe
00000370: 4475 83bf 2a50 8a3f 23e6 edbe da20 993e
00000380: 19f9 453f eeac 943f 7094 a63b a8d6 0a40
00000390: e44f 79bf 1dbc 2d3f f9c6 04c0 885f cb3f
000003a0: 06e0 a13f 16fd 6d3f 0aa1 21bf 4960 cabf
000003b0: 2c9f 13c0 68a9 1740 526f 2ebe aa98 d0bf
000003c0: 9a1f 40bf 158d 13bf 1a98 a33d ee3b 08c0
000003d0: e1e5 8a3e 6ca2 c5bd a826 fe3f 17e4 8dbf
000003e0: 2eb8 a0bf 5b63 23bf 92cb c7bd 62c1 833f
000003f0: 3f88 0a40 b2db 08c0 c705 953e 29ab 3e3f

transformer_encoder.layers.1.self_attn.o_proj.weight f4 [16, 16]
-2.8173192 1.5162213 -2.1294556 1.9738536 3.095935 -2.2524624 0.39444485 2.8249795
-2.2285347 -2.2150512 -1.7241062 -0.6276926 2.0209835 -2.1780214 2.2036815 2.5371418
2.1204429 -1.4772044 2.2044902 -2.4587076 -2.681985 2.346594 1.2667257 -2.0033836
2.1400552 3.1697683 2.7926486 2.5938962 -2.242855 1.7031244 -1.4192005 -2.2142193
0.15311521 -1.293244 -0.20846564 0.4695008 -0.29526302 0.13710387 1.3871243 0.23808572
0.059561808 0.83940095 0.6974765 0.93637866 -0.45035097 0.057988565 0.39916462 0.15309376
-0.21409501 0.01612509 -0.5398364 -0.19761163 -0.056536976 -0.17296323 -0.13497312 0.2891312
-0.31229162 -0.3637641 -0.4413544 -0.7702944 0.7775723 -0.0012589255 -0.63620096 0.36740452
1.1335946 0.02732197 0.21666819 -0.71199435 -0.26467052 0.7913656 0.8797403 -0.71014684
0.8581462 -0.6737256 -0.29296172 0.2817053 0.27651608 0.8833377 -0.8928281 -0.72897357
-0.5817703 -0.9252052 -0.4464363 0.9321513 0.38701236 -0.73521715 0.7956559 0.42550582
-0.3426985 0.40812427 0.35551912 0.3405404 -0.17638306 -0.6925522 0.22972336 0.63213027
1.2390577 -0.1755334 1.5298955 -0.9387998 -1.3127141 1.5842022 -1.6150577 -1.4293593
1.2856944 1.0410149 0.39301088 -0.40310696 -1.0788246 1.4823437 -0.70410174 -1.4207258
0.25258148 -0.2739372 0.8241447 -0.6503814 -0.29309875 0.7526672 0.12036101 -0.33262035
0.1482088 1.3986635 0.8639366 1.3103701 -1.11552 0.718639 0.0065345606 -0.7775173
0.4529696 -0.43985903 0.41061094 -0.3582574 -0.5662819 0.5566999 0.5394607 -0.56170726
-0.14634484 1.3496901 1.2258403 1.1008674 -1.3931919 0.393118 -0.08970468 -0.31449202
0.43127602 -0.57736254 -0.058805402 -0.20992903 -0.43485028 -0.044774935 0.04676951 0.07508393
0.2907163 0.15306157 -0.2031889 -0.59264994 -0.35184523 0.5559442 -0.92242306 -0.5351715
-2.0632722 0.8103127 -1.587324 1.973145 1.7580087 -2.1649013 -0.82909536 2.0963223
-2.1049805 -1.7769761 -1.1747615 -0.7874857 1.340379 -1.9474521 1.601147 1.8067979
0.6636896 0.07613292 0.14083903 -1.1051285 -0.80724895 0.48513228 0.6732886 -0.5231604
0.45937595 0.19998017 -0.27327055 -0.035807967 0.14293692 0.48795322 -0.44711033 -0.79904765
-0.33055922 0.8702494 -0.76256925 -0.1527585 0.25799954 0.11341361 -0.6870551 -0.047006704
0.26747248 -0.23286183 -0.13853562 -0.74066657 -0.17484555 -0.44932404 0.22500794 0.21468541
-0.26738474 0.41958985 -0.7634359 0.8894079 0.88725525 -0.82068664 0.4290585 0.82960963
-0.53408146 -0.33006912 -0.105067454 0.084648594 0.3992119 -0.59914654 0.35060078 0.45475197
0.37343177 -0.20737104 0.44626933 -0.26834968 -1.0581142 0.7126986 -0.012043891 -0.6663261
0.6942781 0.7387602 0.13864097 0.5373114 -0.292456 1.0063654 -0.45055357 -0.68968964
-0.76979095 -0.024104249 -0.7344628 0.18465026 0.2926187 -0.16190737 0.50532365 0.38177362
-0.25567874 -0.7640195 -0.99908525 -0.6035594 1.2132814 -0.5960217 0.56626165 0.18428142
00000000: f54e 34c0 8a13 c23f 0049 08c0 3ca7 fc3f
00000010: cd23 4640 5828 10c0 adf4 c93e 77cc 3440
00000020: 50a0 0ec0 66c3 0dc0 83af dcbf 76b0 20bf
00000030: cb57 0140 b464 0bc0 1e09 0d40 8860 2240
00000040: 56b5 0740 0915 bdbf 5e16 0d40 775b 1dc0
00000050: a4a5 2bc0 992e 1640 1124 a23f 7037 00c0
00000060: aaf6 0840 7cdd 4a40 c1ba 3240 6502 2640
00000070: f08a 0fc0 fbff d93f 5da8 b5bf c5b5 0dc0
00000080: 3cca 1c3e 0589 a5bf 0478 55be 6962 f03e
00000090: b72c 97be f564 0c3e 4a8d b13f becc 733e
000000a0: 15f7 733d fbe2 563f d28d 323f 83b6 6f3f
000000b0: 6794 e6be 6b85 6d3d 4e5f cc3e 9cc4 1c3e
000000c0: b93b 5bbe c418 843c b832 0abf b45a 4abe
000000d0: 5193 67bd 461d 31be 6536 0abe 0109 943e
000000e0: b0e4 9fbe 4a3f babe 34f9 e1be 0432 45bf
000000f0: fa0e 473f 8802 a5ba 11de 22bf 721c bc3e
00000100: a119 913f 53d2 df3c 44de 5d3e 4345 36bf
00000110: e582 87be f096 4a3f a936 613f 2fcc 35bf
00000120: 78af 5b3f 4879 2cbf 14ff 95be ad3b 903e
00000130: 8493 8d3e 6b22 623f 6290 64bf 039e 3abf
00000140: e6ee 14bf 3fda 6cbf 4c93 e4be 78a1 6e3f
00000150: 7c26 c63e 3137 3cbf 1bb0 4b3f e6db d93e
00000160: 2e76 afbe aaf5 d03e 9a06 b63e 505b ae3e
00000170: c39d 34be 1a4b 31bf 9a3c 6b3e 4ad3 213f
00000180: 7199 9e3f 07bf 33be 9ed3 c33f 2f55 70bf
00000190: 0407 a8bf 23c7 ca3f 36ba cebf 3ff5 b6bf
000001a0: a291 a43f fa3f 853f b938 c93e 0964 cebe
000001b0: ed16 8abf 70bd bd3f 0340 34bf 58da b5bf
000001c0: 5c52 813e 7f41 8cbe 26fb 523f 657f 26bf
000001d0: 0a11 96be ccae 403f d57f f63d 374d aabe
000001e0: 0cc4 173e 6807 b33f f32a 5d3f 35ba a73f
000001f0: 5cc9 8ebf baf8 373f de1f d63b 600b 47bf
00000200: a2eb e73e 3435 e1be 993b d23e 846d b7be
00000210: daf7 10bf e283 0e3f 191a 0a3f 0ccc 0fbf
00000220: 6cdb 15be a5c2 ac3f 56e8 9c3f 39e9 8c3f
00000230: 1d54 b2bf c346 c93e 16b7 b7bd 1905 a1be
00000240: 36d0 dc3e 08ce 13bf efdd 70bd a3f7 56be
00000250: b2a4 debe ec65 37bd 6391 3f3d 9ac5 993d
00000260: c4d8 943e 2cbc 1c3e c010 50be e8b7 17bf
00000270: 0f25 b4be 5c52 0e3f eb23 6cbf 0001 09bf
00000280: a70c 04c0 a770 4f3f 6f2d cbbf 0490 fc3f
00000290: 6e06 e13f be8d 0ac0 983f 54bf 252a 0640
000002a0: 00b8 06c0 f473 e3bf 965e 96bf aa98 49bf
000002b0: 8a91 ab3f 1c46 f9bf 63f2 cc3f 2745 e73f
000002c0: 90e7 293f 94eb 9b3d 1b38 103e da74 8dbf
000002d0: dea7 4ebf 4263 f83e a45c 2c3f d7ed 05bf
000002e0: 5333 eb3e 9ac7 4c3e 1eea 8bbe 60ab 12bd
000002f0: 0e5e 123e 01d5 f93e a5eb e4be 638e 4cbf
00000300: 0f3f a9be aac8 5e3f bd37 43bf b96c 1cbe
00000310: 8418 843e 6545 e83d d8e2 2fbf 1a8a 40bd
00000320: 27f2 883e 5573 6ebe 48dc 0dbe 539c 3dbf
00000330: b60a 33be cd0d e6be 7b68 663e 7ed6 5b3e
00000340: a7e6 88be 7bd4 d63e 8970 43bf 3cb0 633f
00000350: 2923 633f 8518 52bf 8ead db3e 4c61 543f
00000360: 90b9 08bf d2fe a8be 9b2d d7bd 3e5c ad3d
00000370: 8165 cc3e ab61 19bf f281 b33e 40d5 e83e
00000380: 7332 bf3e 1359 54be 6a7d e43e 2165 89be
00000390: 4970 87bf 6a73 363f bd53 45bc 5994 2abf
000003a0: 36bc 313f 631f 3d3f e6f7 0d3e 3d8d 093f
000003b0: cbbc 95be 95d0 803f f5ae e6be 808f 30bf
000003c0: 0511 45bf 4676 c5bc c105 3cbf f514 3d3e
000003d0: 1ed2 953e 0ccb 25be e45c 013f d577 c33e
000003e0: 53e8 82be c896 43bf 0dc4 7fbf de82 1abf
000003f0: ce4c 9b3f e194 18bf 86f6 103f 45b4 3c3e

transformer_encoder.layers.1.self_attn.o_proj.bias f4 [16]
1.5569428 -0.41401932 -0.2716352 -1.1646488 -1.3492925 0.13753852 -0.68820757 0.7775782
0.50807303 -0.9190668 1.0062065 -0.20642932 0.1746631 0.22991474 -0.008007255 -0.77689505
00000000: e749 c73f 57fa d3be c513 8bbe 3613 95bf
00000010: 9eb5 acbf e6d6 0c3e 5f2e 30bf 5d0f 473f
00000020: 1311 023f f647 6bbf 60cb 803f 3562 53be
00000030: e2da 323e c56e 6b3e dd30 03bc 98e2 46bf

transformer_encoder.layers.1.linear_net.0.weight f4 [32, 16]
-0.22203448 0.2142632 -0.21021481 0.1961951 0.04130138 -0.31483868 0.31681687 0.23043475
-0.53403926 0.6160734 -0.010354802 0.084523275 0.058021106 -0.10738178 0.17732605 0.020665834
2.4838252 -2.5572274 0.92130214 -2.2691572 -1.1668935 0.987054 -2.3032482 2.1763546
-2.0995302 -2.031836 2.363501 -0.93309426 -0.35688683 2.4063945 -1.228329 -0.25053668
-0.48696512 0.27627906 -1.2701917 0.09926765 1.3606186 -1.6671193 0.5754047 -0.13595434
-0.019221721 0.61517465 -0.14407627 1.5989695 1.5807182 -0.29756173 1.3936652 0.7399339
1.174777 -0.89804965 1.0352867 0.12424903 0.14012672 0.9272245 -0.09056649 -0.077022865
-0.7176644 -0.6904324 1.4821252 -1.1489183 -1.2925386 1.0120826 -1.2889254 -0.0039746454
-0.6410588 0.93177974 0.14989173 0.17029059 -0.51401156 0.5913655 0.6863075 -0.0293101
0.5960624 0.88716865 -0.83299154 -0.4540686 -0.48030573 -0.770504 -0.10517463 -0.7810769
-0.35810557 0.23393878 -0.2853723 0.02279373 -0.24679618 -0.20307556 0.2359409 0.49528217
-0.2122346 0.34990898 -0.35071817 0.27218813 0.22034073 -0.2177417 0.45966905 -0.45686027
2.2621293 -1.7368219 1.4547951 -0.98015785 -0.30150512 1.229955 -1.5594876 0.9410901
-0.3219978 -1.8427114 2.081363 -1.2068634 -0.9309479 2.2189744 -1.3284805 -0.34554303
-0.57235783 0.5979795 -1.1815277 0.14825949 1.0024847 -1.2808603 0.15003444 -0.1197993
0.2895115 0.44604787 -0.45277837 1.011423 1.2835462 -0.18221778 1.4723504 0.49110502
-0.60488045 0.8177172 -0.52043504 -0.34434432 -0.3882424 -0.5613156 0.5550359 0.81797594
-0.20747416 0.48012075 -0.4980745 0.76519287 0.8221723 -0.68030035 0.45475042 -0.43840626
-0.598115 0.65461254 0.49639323 0.47181416 -0.77617186 0.27188826 0.7881088 0.5725188
0.4153277 0.98497975 -0.90632486 -0.42261893 -0.33614427 -0.6775716 -0.15807928 -0.72503847
-0.92134744 0.7933278 0.38654122 0.2282435 -0.64539015 0.5209713 0.9422172 0.57017815
0.47856623 0.58937997 -0.82083005 -0.13875207 -0.40678412 -0.7236499 -0.32323682 -0.82866186
1.9167008 -1.7092748 1.8563986 -0.50682986 -0.4210717 1.7731336 -1.595256 0.33101737
-0.38492796 -1.9583932 2.0522158 -1.9541185 -2.5028489 2.009638 -1.798867 0.41610825
-0.58398986 0.62626827 0.4034165 0.5459678 -0.6984059 0.6735947 0.72585785 -0.50823075
0.43345103 0.71567374 -0.68054795 -0.3592062 -0.32439333 -0.59726614 -0.45657003 -0.7057958
-0.55028075 0.5391952 -0.10767052 -0.14115117 -0.64240104 0.05333838 0.38872832 0.17195298
1.6428603 0.18009019 -0.5837892 0.21403164 0.84269124 -0.14702442 0.23135036 -0.6827379
-1.0118288 0.974046 0.1319648 1.1750506 0.17961307 0.36722323 0.8259744 -1.3919878
-0.45784324 0.8280972 -1.0538149 0.017428122 0.15819572 -0.54714406 -0.12074149 0.23616785
-0.7001462 0.51346785 0.8771453 0.6803345 -0.26769105 0.38162285 0.45712927 -0.6469784
0.33338618 0.65286815 -0.3232612 -0.50081027 -0.82099056 -0.14603406 -0.47710976 -0.4437138
00000000: 025d 63be d067 5b3e 8d42 57be 5ee7 483e
00000010: a32b 293d 8932 a1be d235 a23e 16f7 6b3e
00000020: ccb6 08bf fdb6 1d3f 30a7 29bc 8a1a ad3d
00000030: 8aa7 6d3d fbea dbbd f694 353e 654b a93c
00000040: fef6 1e40 9da9 23c0 75da 6b3f df39 11c0
00000050: c45c 95bf 92af 7c3f 6b68 13c0 6549 0b40
00000060: b45e 06c0 9a09 02c0 9a43 1740 44df 6ebf
00000070: dfb9 b6be 5e02 1a40 e239 9dbf 5846 80be
00000080: 7e53 f9be 7374 8d3e a495 a2bf d64c cb3d
00000090: c028 ae3f 2a64 d5bf b94d 133f 9d37 0bbe
000000a0: df76 9dbc 167c 1d3f bb88 13be 08ab cc3f
000000b0: f954 ca3f 035a 98be 9f63 b23f 4f6c 3d3f
000000c0: 185f 963f 95e6 65bf 4684 843f 4776 fe3d
000000d0: 617d 0f3e 965e 6d3f ed7a b9bd 2abe 9dbd
000000e0: dbb8 37bf 2ec0 30bf 47b6 bd3f c10f 93bf
000000f0: e871 a5bf ec8b 813f 82fb a4bf be3d 82bb
00000100: 6e1c 24bf 1e89 6e3f 387d 193e a860 2e3e
00000110: 4396 03bf bb63 173f d9b1 2f3f bc1b f0bc
00000120: 8c97 183f 7c1d 633f ef3e 55bf ae7b e8be
00000130: a2ea f5be c03f 45bf cc65 d7bd a8f4 47bf
00000140: 9d59 b7be a68d 6f3e 511c 92be ebb9 ba3c
00000150: 23b8 7cbe 0af3 4fbe 7e9a 713e a095 fd3e
00000160: 0754 59be 4527 b33e 5591 b3be 3e5c 8b3e
00000170: 00a1 613e aef7 5ebe be59 eb3e 97e9 e9be
00000180: bac6 1040 2e50 debf ba36 ba3f a0eb 7abf
00000190: e15e 9abe 2a6f 9d3f 4a9d c7bf 48eb 703f
000001a0: e5dc a4be f8dd ebbf 0d35 0540 807a 9abf
000001b0: 9a52 6ebf ad03 0e40 a60b aabf 04eb b0be
000001c0: 0b86 12bf 2f15 193f 4d3c 97bf 56d1 173e
000001d0: 6b51 803f 3bf3 a3bf a1a2 193e 5659 f5bd
000001e0: da3a 943e 6360 e43e 91d2 e7be 4f76 813f
000001f0: 3e4b a43f 4c97 3abe fa75 bc3f 1e72 fb3e
00000200: 72d9 1abf ea55 513f 3b3b 05bf e64d b0be
00000210: b5c7 c6be 61b2 0fbf d516 0e3f df66 513f
00000220: 1b74 54be 63d2 f53e 9f03 ffbe aee3 433f
00000230: e279 523f 2a28 2ebf 0cd5 e83e c976 e0be
00000240: 111e 19bf b094 273f 4127 fe3e a091 f13e
00000250: 33b3 46bf f034 8b3e 80c1 493f 9890 123f
00000260: d5a5 d43e a227 7c3f e804 68bf 8261 d8be
00000270: 1a1b acbe 5575 2dbf 89df 21be 1f9c 39bf
00000280: 6ddd 6bbf 8817 4b3f bbe8 c53e aab8 693e
00000290: 4a38 25bf 605e 053f 2535 713f 32f7 113f
000002a0: a206 f53e 9be1 163f eb21 52bf 0615 0ebe
000002b0: 0246 d0be 1f41 39bf 4c7f a5be 2f23 54bf
000002c0: 7456 f53f 84c9 dabf 789e ed3f 9abf 01bf
000002d0: b696 d7be 0bf6 e23f 5931 ccbf 1c7b a93e
000002e0: 4715 c5be a1ac fabf 8157 0340 8e20 fabf
000002f0: ad2e 20c0 e99d 0040 4641 e6bf 240c d53e
00000300: 5c80 15bf 1e53 203f 9c8c ce3e 8cc4 0b3f
00000310: bbca 32bf b470 2c3f d2d1 393f 691b 02bf
00000320: 4bed dd3e 6536 373f 6438 2ebf e0e9 b7be
00000330: e216 a6be 6fe6 18bf 8cc3 e9be 09af 34bf
00000340: 33df 0cbf b208 0a3f 5d82 dcbd ef89 10be
00000350: 6574 24bf 5879 5a3d 6607 c73e 7114 303e
00000360: 3f49 d23f 9069 383e 3673 15bf 1c2b 5b3e
00000370: 9dba 573f 928d 16be 1ce7 6c3e e9c7 2ebf
00000380: 9b83 81bf 145b 793f c821 073e 0f68 963f
00000390: 7dec 373e af04 bc3e 0f73 533f a82c b2bf
000003a0: 6e6a eabe 2efe 533f 68e3 86bf 6cc5 8e3c
000003b0: 0ffe 213e a211 0cbf 5047 f7bd fcd5 713e
000003c0: c83c 33bf a172 033f 988c 603f 672a 2e3f
000003d0: cd0e 89be 1264 c33e d90c ea3e 60a0 25bf
000003e0: 98b1 aa3e 5e22 273f 7e82 a5be 1a35 00bf
000003f0: 702c 52bf f489 15be bb47 f4be 752e e3be

transformer_encoder.layers.1.linear_net.0.bias f4 [32]
0.04370646 1.1583582 -1.4781158 1.0849657 0.52728677 -0.0037919525 0.35433805 -1.0296026
-0.6292064 0.15044054 0.2179201 1.7769557 0.49902734 -0.31473294 -0.2326162 0.21976623
0.37424177 -0.17434452 0.5244408 0.42984024 0.35216537 -0.81285596 0.23568663 0.28316724
-0.54050535 -1.3384151 0.48142537 0.31137872 2.1041467 0.46512032 -0.8648847 0.82722855
00000000: 8c05 333d 1545 943f e632 bdbf 28e0 8a3f
00000010: 44fc 063f 6882 78bb cc6b b53e 05ca 83bf
00000020: ac13 21bf 160d 1a3e 7226 5f3e 4973 e33f
00000030: 8380 ff3e ad24 a1be f132 6ebe 660a 613e
00000040: 9e9c bf3e 5f87 32be c141 063f 0514 dc3e
00000050: 054f b43e 5417 50bf d657 713e 4cfb 903e
00000060: 8f5e 0abf 3051 abbf 637d f63e 086d 9f3e
00000070: 57aa 0640 4024 ee3e 1569 5dbf 40c5 533f
