lightning_logs/version_27/checkpoints/epoch=99-step=600.ckpt (torch, 22555 bytes, 30 tensors)

front_linear.weight f4 [8, 2]
00000000: 83c7 0740 341f c7bf eee9 8640 3e0d 813f
00000010: 046a dd3f 0df5 443f d660 1640 e8e5 fb3f
00000020: 9442 c33d 71bb 333f 5cd0 1ec0 9393 a23f
00000030: d379 a9c0 350b 76bf 3bbc 94c0 22e3 62bf
2.1215522 -1.5556397 4.216056 1.0082166 1.7297978 0.7693642 2.3496604 1.9679537
0.09534183 0.7020789 -2.4814672 1.2701286 -5.296121 -0.9611085 -4.6479774 -0.8862783

front_linear.bias f4 [8]
00000000: 2497 4ebf 1502 d0bf 582c 26be c6d7 c1bf
00000010: 6962 803e 6e33 ef3d 3044 8b3f c0f1 403f
-0.8069937 -1.6250635 -0.16227853 -1.5143974 0.2507508 0.11679731 1.0880184 0.7536888

transformer_encoder.layers.0.self_attn.qkv_proj.weight f4 [24, 8]
00000000: 3b81 59c0 9307 1b3f 08dc 503f e651 8d3f
00000010: c85a bd3f 20be 6f40 16f6 fe3e 653b 29bf
00000020: d78a 5640 29b3 2bbc c071 fcbf e56d 543d
00000030: 8e24 12bf b934 093e 68a8 fe3e ccbe f23f
00000040: bced 4f40 4192 37bf a232 02c0 695d 3a3e
00000050: 6427 b1be 76e8 0f3f ce70 d73e d837 ee3f
00000060: 7af0 6240 efa1 a3be c392 ccbf f225 0bbe
00000070: 6593 06bf 5601 803d 0ce5 9f3e a6e9 2340
00000080: d7f6 7340 aa52 2bbe 6baf e0bf cdcb 183e
00000090: 1fbf 46be 29c4 dabd b0f5 0ebe f050 1d40
000000a0: 5ed4 6140 db77 a0be e4aa d9bf 7c81 013f
000000b0: bf52 6cbe 90c3 0dbf 8d9f babc 4258 1040
000000c0: 4d82 6840 72a0 fa3c 2cc3 cfbf 6e29 c33e
000000d0: 8238 bbbe 6cc2 a1be 250e 1ebf 88d6 2140
000000e0: 2f25 5f40 78c4 0c3f d86c febf aa79 093e
000000f0: 540b cbbe 3d88 4abe 069a ffbd 1f58 f03f
00000100: f9e7 1040 0819 abbe 8bf0 1fbf 42d8 c53f
00000110: 0e26 66bc a9af 4a3f e179 8f3f 58d6 6b3f
00000120: f064 cc3f 3253 bebe c567 d7bf df53 943e
00000130: d0b4 13c0 e483 69bf a54b 7f3f 0013 ac3f
00000140: 6c9e b53f af7e 423f 6b42 5fbf 07ca b63f
00000150: 8ee3 8ebf 9d17 453d 2508 f43e f930 803f
00000160: 4e95 cd3f dbd4 ca3e 3c6f 54bf 9a6f cf3e
00000170: 0be3 9abf d8a0 aebe 9835 f43f 72b6 4b3f
00000180: b82e 4f40 a31c ea40 f0fe 633f 51c4 0141
00000190: ae5a bbbe 3dda 25c0 79fc f2c0 efad b7bf
000001a0: be65 4240 c622 df40 b0b2 923f 616a 0a41
000001b0: b7fd acbd 439a 51c0 870d eec0 8555 d6bf
000001c0: e72b 783e 2d3e 2940 c6c0 153f 59af 7340
000001d0: f0bd 663f e2bc 753c b57e 91c0 3825 a1bf
000001e0: acb7 b9bf 3d29 7f3f 9f5f 3d3e 1f9f d43f
000001f0: 4dab 153e 5648 6c3f 365d 5d3c e8a7 4d3e
00000200: 513f 09bf b2fd 5abf 2c35 173e f8af c8bd
00000210: bb4f 483f 3998 c43f c37c 83bd eeb9 1c3f
00000220: 768c 53be cdb5 0bc0 6502 b23e 4a5f 90bf
00000230: e4ef d23f 8ccd fa3f 0c2b b83f 2302 2e3f
00000240: 2f23 febd c80a 8dbf 8d4d b63e cbe6 13bf
00000250: 02ba 843f d8b0 8a3f 5c63 1d3f 8478 b63e
00000260: da65 2cbd 792a 83bf ab65 21be b539 ae3e
00000270: 425e a23f 1160 cc3f 5e58 8bbc 7a29 263f
00000280: b502 e2bf 6d87 793d 9862 963f fb14 733f
00000290: 61ee a33f 7df7 c83e ded7 85bf dc67 67bf
000002a0: 3531 eabf 531b 25be a445 983f d7a0 b6bd
000002b0: cc66 913f 44a2 c63e 476e 16bf a3cf 78bf
000002c0: f0f9 93bf d316 dbbf e716 e9bd cb34 e3bf
000002d0: 5f03 d53f d371 bf3f bef5 b93f bf8b 2b3f
000002e0: 7c0d a8be 9cef 71bf 1ecd fb3e 639a a9be
000002f0: e671 3b3f 4ee3 5e3f 3085 973e 9ece 14be
-3.3985126 0.6055843 0.8158574 1.1040618 1.4793329 3.7459793 0.49797124 -0.66106254
3.352224 -0.010479727 -1.9722214 0.051862616 -0.5708703 0.13399018 0.4973786 1.8964477
3.2488852 -0.7170754 -2.0343404 0.18199696 -0.34600365 0.5621408 0.4207825 1.8610792
3.5459275 -0.31959483 -1.5982288 -0.13588694 -0.52568656 0.06250255 0.31229436 2.5611358
3.811941 -0.16730753 -1.7553533 0.14921494 -0.19408844 -0.10681946 -0.1396091 2.458065
3.5285869 -0.31341442 -1.7005277 0.505882 -0.2307844 -0.5537653 -0.022781158 2.2553868
3.632953 0.030594084 -1.6231437 0.38117546 -0.3656655 -0.31593645 -0.6174033 2.528719
3.4866445 0.5498729 -1.9876966 0.13425317 -0.3965708 -0.19778533 -0.124805495 1.8776892
2.2641585 -0.33417535 -0.62476414 1.5456622 -0.014047159 0.79174286 1.120907 0.9212394
1.5968304 -0.37172848 -1.6828543 0.2897024 -2.307911 -0.91216874 0.997248 1.3443298
1.4188972 0.75974554 -0.8721072 1.4280404 -1.1163194 0.048118223 0.47662464 1.0014945
1.6061189 0.3961552 -0.8298223 0.40514833 -1.2100538 -0.3410709 1.9078856 0.79575264
3.2372265 7.3159957 0.8906088 8.110429 -0.3659262 -2.5914452 -7.5933194 -1.4349955
3.0374599 6.972995 1.1460781 8.650971 -0.0844683 -3.2750404 -7.4391513 -1.6744848
0.24235497 2.64442 0.58497274 3.8075774 0.9013357 0.014998646 -4.546717 -1.2589483
-1.4509177 0.996723 0.18493508 1.661106 0.14616127 0.92297876 0.013510993 0.20083582
-0.5361224 -0.8554336 0.14766377 -0.097991884 0.7824666 1.5358955 -0.06420281 0.61221206
-0.2065905 -2.1829712 0.34767452 -1.127908 1.6479459 1.9593978 1.4388137 0.6797201
-0.124090545 -1.1018915 0.35606042 -0.5777404 1.0369265 1.0835218 0.61479735 0.3563882
-0.04208932 -1.0247337 -0.1576144 0.34028402 1.2685015 1.5966817 -0.01700991 0.6490704
-1.7657076 0.060920168 1.1748838 0.9495389 1.2807122 0.3925132 -1.0456502 -0.9039285
-1.8296267 -0.16123705 1.1896253 -0.089173965 1.1359496 0.38795674 -0.5876202 -0.9719183
-1.156065 -1.711634 -0.113813214 -1.7750486 1.6641654 1.4956611 1.452812 0.6701011
-0.32822788 -0.9450624 0.4917993 -0.331256 0.7322067 0.8706559 0.29593801 -0.14531943

transformer_encoder.layers.0.self_attn.o_proj.weight f4 [8, 8]
00000000: 4dde f43e 9995 a6bf eab2 c03e 50fd 1a3f
00000010: 2bae 463f ceff d33d ea94 463e cbc0 663f
00000020: b37d 2840 c395 f33f 3a99 6f3f c187 a53e
00000030: 180a c53e 794f 24bf 78aa a5bd dd73 ce3e
00000040: 9a50 1040 cd79 7c3f 0ca4 3fbe 4367 093f
00000050: b049 0ebf 0598 53bf 7b6d 6ebf 3194 88be
00000060: 9784 e43e 9dda cbbe ea0d 6e3e 2c7d e63c
00000070: 3cd6 2e3f 66ff 6e3e cc24 133e e250 243f
00000080: b3ac a73f f0de 1840 9f50 8c3e 1730 6ebf
00000090: 3c64 6bbf 6d25 8ebf 5efa a4bf 8418 80be
000000a0: 6d7b abbe ddf9 a4bf ccd0 193f 38e7 b43e
000000b0: f4da 853e 9fb1 863d 01fd 863f ce80 2d3f
000000c0: 5722 0dc0 cc3b f4bf 5c9d 423b c911 c43e
000000d0: 31e0 583f 24ff 5e3f 45b2 443f a439 93bb
000000e0: a40b eabf 20a0 d7bf 5934 4cbf fa2e ca3e
000000f0: 0e52 213f 28d8 febc afc2 823e f258 0dbd
0.47825852 -1.3014404 0.376365 0.60542774 0.7760951 0.10351525 0.19392744 0.9013793
2.632672 1.9030079 0.9359318 0.32330135 0.38484263 -0.64183766 -0.08089155 0.40322772
2.2549195 0.98623353 -0.18714923 0.5367319 -0.5558119 -0.8265384 -0.93135804 -0.2667556
0.44632408 -0.39815226 0.23247495 0.028135858 0.68295646 0.23339614 0.14369506 0.6418592
1.3099579 2.388607 0.2740526 -0.9304213 -0.9194982 -1.1105171 -1.2888906 -0.25018704
-0.33492604 -1.2888752 0.60084224 0.35332656 0.2614361 0.06576847 1.0545961 0.67774665
-2.205221 -1.9080749 0.0029695844 0.3829482 0.8471709 0.87108064 0.7683452 -0.0044929553
-1.8284802 -1.6845741 -0.79767376 0.39488965 0.6301583 -0.03110893 0.25539157 -0.034508653

transformer_encoder.layers.0.self_attn.o_proj.bias f4 [8]
00000000: a0e7 6dbf a671 0dbf f260 15bd 3346 acbe
00000010: 173b d63e 35d2 07bf 51ce 85be 1b7c e53d
-0.92931557 -0.5525154 -0.036469407 -0.33647308 0.41841957 -0.53055125 -0.2613397 0.11205312

transformer_encoder.layers.0.linear_net.0.weight f4 [16, 8]
00000000: d8c4 b9bc 9fcf 42bf 999f 9dbf e690 2abf
00000010: f0a1 99bf a9c7 1dbf cfcc ac3f 53ca c13f
00000020: 563c c53f 49b7 69bf 6c5c 84bf dd7a 183f
00000030: c55f 2b3f 4fef abbf b0d5 1a3e 5250 c03f
00000040: 9879 b13f 79a0 cabf 1ee4 4cbf 41e1 47bf
00000050: ccc3 463f df70 2a3d 31cb 063f 3bdd 8a3f
00000060: c687 eb3e 7aeb 1dbf ab56 ddbe 247d 24bf
00000070: 5411 01bf a348 863e ff19 693f caed 4c3f
00000080: 16f9 af3e 64b4 05bf 54e1 9cbf d613 93bf
00000090: b1ee 89bf 2653 76bf d373 a23f ad56 f13f
000000a0: 5099 4f3f 16b8 76bf ceb3 dfbf 5591 ad3e
000000b0: ea89 a9bf 6e56 01bf 8226 2040 d6e0 8c40
000000c0: 58ca 883f a0a5 9abf 3f15 71be 2344 86bd
000000d0: ff90 203f 3db3 8dbe dd7c e83e 6640 893f
000000e0: a7c0 273f a598 2ebf 5cf5 c4be 3604 97be
000000f0: 5565 903e 145f b3be 8fea 543f c5d8 783f
00000100: d41e 7a3d 78a7 49be d012 0ebf bd3e 09bd
00000110: e49e 73bf 282c febe 7396 883f 8bbe 473f
00000120: e98c 413f f8ac 96bf 62a9 23bf 7293 cdbf
00000130: 834e 243e c596 77be b6cb a53f a98a ad3f
00000140: c8d6 c63f 8c20 573f 4e13 273d e92d 363f
00000150: 0b4e 3abf 622a 26bd 223f 24bf 6a6f a6be
00000160: 166e 503f 0ca2 49c0 8830 cb3e 0966 1fbe
00000170: ebdc 113f 8d02 06c0 f556 de3f 2437 1940
00000180: b03f debf 3685 84c0 1191 4dbf 210c 31bf
00000190: 5cb8 5a3d 9980 6ebe 4fa3 e63f 8f53 ee3f
000001a0: b618 c13d 6946 8bbf 46f6 19c0 b6df 54be
000001b0: a083 7ebf 49ba bdbe b9dc db3f c121 823f
000001c0: 832e f43e 0c5a 44bf 697a 69bf 52b7 29bf
000001d0: 9b1e 01bf e44a 803f aab1 c23f 7a85 603f
000001e0: 8325 783f e12c 5ebf 7cc1 9abf 897b 92be
000001f0: 8676 cdbe 0405 263f 9c95 a43f 4e1a d83f
-0.02267687 -0.76098055 -1.231433 -0.6662735 -1.2002544 -0.6163278 1.3500003 1.513987
1.5409038 -0.91295296 -1.0340705 0.59562474 0.6694301 -1.3432406 0.15120578 1.5024512
1.3865232 -1.5830222 -0.8003558 -0.78078085 0.7764251 0.04161155 0.52653795 1.0848764
0.46002024 -0.61687434 -0.43230185 -0.6425345 -0.50417066 0.26227292 0.9105529 0.8005034
0.34369725 -0.5222838 -1.2256265 -1.1490428 -1.0775968 -0.96220624 1.2691597 1.8854576
0.8109331 -0.9637464 -1.7476747 0.33899942 -1.3245213 -0.50522506 2.5023503 4.402446
1.068675 -1.2081795 -0.23543261 -0.06555965 0.62721246 -0.2767581 0.45407763 1.0722778
0.6552834 -0.6820167 -0.38468444 -0.294954 0.2820231 -0.35033476 0.8317041 0.97205764
0.061064556 -0.1969279 -0.55497456 -0.033507098 -0.9516432 -0.49643064 1.0670913 0.7802512
0.75605637 -1.1771536 -0.6393033 -1.6060622 0.16045575 -0.24178608 1.2952793 1.3557941
1.5534296 0.8403404 0.040789895 0.71163803 -0.72775334 -0.040567763 -0.64158833 -0.32506877
0.8141798 -3.1505156 0.39685464 -0.15566267 0.5697772 -2.0939057 1.7370287 2.3939905
-1.7363186 -4.141261 -0.8029948 -0.6915913 0.053398475 -0.23291244 1.8018588 1.861925
0.09428541 -1.0880862 -2.4056563 -0.20788464 -0.99419594 -0.37056187 1.7176734 1.0166551
0.47691736 -0.766999 -0.9120241 -0.6629535 -0.50437325 1.0022855 1.5210469 0.8770367
0.9693224 -0.8678723 -1.2090297 -0.28609875 -0.4012949 0.64851403 1.2858157 1.6883028

transformer_encoder.layers.0.linear_net.0.bias f4 [16]
00000000: 4836 a7bf 9dd2 08c0 e2b4 4dc0 a583 8bbe
00000010: 6a1c 88bf 090f 7dc0 facd 64bf 45bd 07c0
00000020: fb63 eb3e 9e45 01c0 ae49 44c0 0c24 81c0
00000030: e563 043e 6448 9abf 3567 00bf d482 40c0
-1.306344 -2.1378548 -3.2141652 -0.27248874 -1.0633671 -3.9540427 -0.89376795 -2.120927
0.45974717 -2.019874 -3.066997 -4.0356503 0.12928732 -1.2053342 -0.5015748 -3.007985

transformer_encoder.layers.0.linear_net.3.weight f4 [8, 16]
00000000: 7bbe a8be 51bd babf 8b28 803f 9083 2bbf
00000010: f7dd f1be 16cf 32bf 6986 48bf 3ba1 61bf
00000020: 6bcb 833e 363b aabe 598c 79bc 639e 45bf
00000030: 8c6b 033f 6ee2 1d3e df72 a1be d51a c03d
00000040: 04cb 9bbf b99d 2c3e acdb 0bbe a32c 1cbc
00000050: 2530 8cbf 099d 5ebf e93e 65bf 984a f73e
00000060: 1d16 3f3c f117 fdbd c4e9 36bf 39bb 50bf
00000070: 4c21 49be 994c a5be a1b4 b1be 9dd0 2f3f
00000080: 306e 91bf 56de 553e b86b aebe a736 0bbf
00000090: 5bff a4bf 2fb0 90bd 3231 62bf 2365 0f3e
000000a0: e974 b8be 84f1 13bf c9f4 edbe abac 91bf
000000b0: facd 0ebe d9ec 1fbf b589 89be 4a48 f9bd
000000c0: a843 8cbf 6857 18bf b5fa d2bd 8104 13bf
000000d0: 5380 c5bf 1845 5ebf 5668 5bbf 0d15 61bf
000000e0: 5fd3 76bf de6b 91be 06cb 0cbe c4ac 6dbf
000000f0: c588 163e 27e6 54bf 3c6f 0cbf aefc 2d3e
00000100: a99d 9dbf 7dcf 7a3c e99a 54bf b28c f93e
00000110: 25b4 9dbf 8d4e f03f ef02 e4be 1c6c b83e
00000120: 52d1 37be 2d46 a7be 0475 02bf b1d3 65bf
00000130: aa8c 7ebf 013a d5be ff07 82be cd45 abbf
00000140: 62ba 8ebe 204c a03f 5ef0 e9bd 7705 363f
00000150: 96f6 cabe be45 0840 8ee0 cb3f fe32 d53e
00000160: c8c3 843e 91ef 0240 5c3d e5bd 03d4 01c0
00000170: f549 07bf ab32 efbd 25f8 ca3d 5cfb a53f
00000180: 20a9 803f b726 cfbe 4558 c33c 1715 ed3d
00000190: 11ae bc3f f4b2 2e3f 7052 253f 3006 2cbe
000001a0: 0178 a73e 4985 0e3e 740b 1f3f 7e29 433f
000001b0: 46a7 db3e 59c1 cf3e b081 e03e ecfb 37bf
000001c0: b6e2 a83f 045f c1bb 6299 e33e c94f c93e
000001d0: a8d4 9d3f 04ff 1c3f 1cdf 503f 2aa2 ccbe
000001e0: fc69 aabd 4064 4bbe e78a 303f b475 523f
000001f0: 8242 223f ae25 b83e 6cda 7a3e 159c ecbd
-0.32957825 -1.4589025 1.0012373 -0.66997623 -0.47239658 -0.6984724 -0.78330094 -0.88136643
0.25741133 -0.332483 -0.015231215 -0.77194804 0.5133598 0.15418407 -0.31532952 0.09380118
-1.217133 0.16857041 -0.13658017 -0.009532127 -1.0952193 -0.86958367 -0.8954912 0.48299098
0.011662987 -0.12358082 -0.7145045 -0.8153568 -0.19641608 -0.32285002 -0.3470812 0.68677694
-1.1361752 0.20885596 -0.34066558 -0.5438027 -1.2890428 -0.07064854 -0.88356316 0.14003424
-0.36026695 -0.577904 -0.4647582 -1.1380819 -0.13945761 -0.62470776 -0.26862875 -0.12171991
-1.0958147 -0.5950837 -0.10301725 -0.5742875 -1.5429786 -0.8682418 -0.8570608 -0.87922746
-0.96416277 -0.2840261 -0.13749322 -0.92841744 0.14700611 -0.83163685 -0.5485723 0.16990921
-1.2313739 0.015308258 -0.83048874 0.48740155 -1.2320601 1.8773972 -0.44533488 0.3601998
-0.17950943 -0.32670727 -0.509598 -0.8977614 -0.99433386 -0.41645816 -0.25396726 -1.3380677
-0.27876574 1.2523232 -0.114227995 0.7110209 -0.39641255 2.1292567 1.5927904 0.41640466
0.2593062 2.045872 -0.11193344 -2.0285652 -0.52847224 -0.11679586 0.09910611 1.2967334
1.0051613 -0.40459225 0.023845801 0.11576288 1.4740621 0.6824181 0.64578915 -0.16799235
0.32708743 0.13918032 0.6212685 0.7623519 0.42901057 0.405772 0.43848944 -0.7186878
1.3194187 -0.0059012193 0.4445296 0.39318684 1.2330523 0.6132662 0.8159044 -0.3996747
-0.08320996 -0.19862461 0.6896195 0.8221085 0.6338273 0.35966247 0.24497384 -0.11553208

transformer_encoder.layers.0.linear_net.3.bias f4 [8]
00000000: 9119 933f 1c8c 2c3e 8216 1bbf d2c2 e8bb
00000010: f427 a6be fb0e 02bf d231 153c 21a8 903e
1.1492177 0.16850322 -0.6058122 -0.0071033025 -0.32452357 -0.5080411 0.009106116 0.28253272

final_linear.weight f4 [1, 8]
00000000: 8043 aabc b5b3 0cbf be9d 0abe aa1d 01bd
00000010: d726 4cbe 4c16 963e 94f4 3a3f a66e c93e
-0.02078414 -0.5496171 -0.13536736 -0.03152243 -0.19936691 0.29313886 0.73029447 0.3934223

exp_avg f4 [8, 2]
00000000: 5e6f 8039 ee59 5a39 e6f2 40ba 9a84 9fba
00000010: 95be f3b9 7201 93ba 836f 28ba 1566 73ba
00000020: 22cf 12ba 4766 fbba 0070 55ba 19f3 8fba
00000030: c774 4b3a bc65 253b b60f 153a 573e b53a
0.00024497038 0.00020823602 -0.00073604134 -0.0012170256 -0.00046490566 -0.0011215641 -0.0006425308 -0.0009284926
-0.0005600323 -0.0019180261 -0.00081419945 -0.0010982483 0.00077612366 0.002523764 0.000568624 0.0013827783

exp_avg_sq f4 [8, 2]
00000000: b921 0837 9eee c538 3e6c 4d37 4b89 1539
00000010: f764 6537 efc6 2339 53aa 4437 afa0 ad38
00000020: 87d0 b337 d309 cf39 5549 ec37 8fee 003a
00000030: 0f2c 9937 992a 3439 c2cd 3437 3971 e338
8.114083e-06 9.438138e-05 1.2244154e-05 0.00014260893 1.3672971e-05 0.00015619 1.1722167e-05 8.2792125e-05
2.1435566e-05 0.00039489436 2.816754e-05 0.00049183605 1.8259538e-05 0.00017182007 1.0776743e-05 0.00010845293

exp_avg f4 [8]
00000000: 6b5e 4d3a 0af7 1cbb 601e 18bb bccc baba
00000010: f94c 8dbb fd29 f3ba d88a a93b 95ef 393b
0.0007834199 -0.0023950958 -0.0023211464 -0.001425169 -0.0043121544 -0.0018551942 0.005174022 0.0028371562

exp_avg_sq f4 [8]
00000000: 262f eb39 a26f 313a b5db 433a 5387 d039
00000010: 1d2b f43a 2a1a 173b ae34 5a3a 20de 0b3a
0.0004485782 0.0006768649 0.00074713986 0.00039773676 0.0018628571 0.0023056366 0.000832389 0.00053355284

exp_avg f4 [24, 8]
00000000: bb4e c8b8 9852 22ba e719 b4b9 0d47 e0b9
00000010: 8798 fab8 c761 8539 22a0 5d3a ed9b 473a
00000020: d338 4937 c92f 1b37 486d a634 73d1 3736
00000030: 40d9 59b6 d1d1 05b7 4191 0bb7 02d1 d0b6
00000040: d153 6038 9035 1e38 a4b9 39b7 4a7b b637
00000050: da95 b8b7 0931 a0b7 2ede 64b7 647c 38b6
00000060: 02fc 2637 b112 6f37 cb01 1f36 239e 1e37
00000070: fb39 09b6 1ad1 b7b6 f709 50b7 4be8 20b7
00000080: 2ce1 cb35 e49d 7c36 c454 2336 0a45 ac35
00000090: 9c2d 6c35 c28a 3db6 675b c8b6 8b79 bbb6
000000a0: 9af8 45b6 5d6f 9cb5 abc7 1536 c6c3 fbb5
000000b0: b3ab 1b36 2c32 abb4 c3c1 09b6 6cec 3db6
000000c0: 4f2a cbb5 373e 24b6 9fe7 39b4 6fd9 10b6
000000d0: 11c4 3035 e1a1 6435 1379 0336 9a47 b935
000000e0: 1772 a3b5 9c49 a8b5 9d6e 3f35 bc56 e4b5
000000f0: 364b 8235 b99f 4ab4 4f69 3fb4 2da6 2bb5
00000100: d34a b636 71ba cd36 5081 12b6 31f4 d236
00000110: 3c75 06b6 a757 b636 8930 6a36 658b 8836
00000120: e861 a338 732e 7438 233d 86b7 253c 1a38
00000130: a242 01b8 af89 a7b7 96a5 90b7 e832 c8b5
00000140: 86aa 9737 c655 7837 28df 0eb6 668b 0a37
00000150: d0cd dcb6 e560 fab6 9d89 02b7 96b7 87b6
00000160: ed5e 1737 b006 1d37 fe06 4db6 15e4 1637
00000170: 47e4 9eb6 96f9 fc34 5924 9db4 2fd0 0a36
00000180: 33c3 5e37 0e96 fa37 5fef 2f37 eaf2 b737
00000190: ec4b 5736 2524 44b7 f531 15b8 4a44 e1b7
000001a0: db0c ea38 d568 5738 ad01 3bb8 5108 0b38
000001b0: ff6d 5db8 bcea c2b7 0182 7a37 6eff 2738
000001c0: a7dc ed39 cfee e038 3180 52b9 33d9 b7b5
000001d0: fc39 68b9 648d 0ab9 6974 0539 1125 5239
000001e0: ef38 2739 72b9 0839 32fe 94b8 c859 ee38
000001f0: 8867 adb8 2f71 d237 5691 4f38 7240 af38
00000200: c515 b038 92a4 2938 4908 d4b7 97fa 8237
00000210: 8d5d 15b8 e17c c6b7 aa5e 0f36 624d 8337
00000220: bcc5 1338 2b46 a037 53fb 24b7 acd4 1437
00000230: 09f2 7ab7 539d 33b7 02bf f2b5 72fe 9336
00000240: a704 3938 154d ba37 598d 5cb7 22e4 1b37
00000250: 8fb6 a0b7 8164 6cb7 9601 46b5 0cea e936
00000260: 430f 9438 5841 1a38 b5fe a7b7 0f9b 8637
00000270: d5ef fbb7 32de b7b7 f836 37b6 d82c 1f37
00000280: b208 a037 c81c ce36 1902 50b7 0d14 e435
00000290: 3ea7 8ab7 abd3 6db6 9fbf a037 2d99 9737
000002a0: bfaa 6738 8754 2138 84ce 83b7 882b b137
000002b0: 1938 f7b7 43ca a0b7 5453 d634 0e87 fd36
000002c0: 2298 5c3a 8a10 263a b398 24b9 e452 c039
000002d0: c574 adb9 c9d7 a1b9 537c 86b9 0026 9db8
000002e0: 4754 583b 2313 de3a ed51 7bba e2d0 483a
000002f0: 265e b7ba fc7d 74ba 5f8f 75b8 2826 053a
-9.551408e-05 -0.0006192117 -0.00034351574 -0.00042777546 -0.000119493394 0.00025440587 0.00084543426 0.00076144823
1.1993764e-05 9.249846e-06 3.0999422e-07 2.739104e-06 -3.2461976e-06 -7.976269e-06 -8.318865e-06 -6.2232148e-06
5.3483822e-05 3.772002e-05 -1.1070082e-05 2.1753502e-05 -2.200429e-05 -1.909632e-05 -1.3641589e-05 -2.7490541e-06
9.953046e-06 1.4249862e-05 2.369389e-06 9.454353e-06 -2.044834e-06 -5.4781676e-06 -1.2400086e-05 -9.590828e-06
1.5190212e-06 3.764283e-06 2.4338233e-06 1.2835092e-06 8.798322e-07 -2.8243962e-06 -5.971105e-06 -5.5871838e-06
-2.9499993e-06 -1.1655317e-06 2.2318952e-06 -1.8757935e-06 2.3196742e-06 -3.1887737e-07 -2.0527375e-06 -2.830081e-06
-1.5136992e-06 -2.4474118e-06 -1.7313731e-07 -2.1584235e-06 6.5850423e-07 8.5172184e-07 1.9590996e-06 1.3804413e-06
-1.2177651e-06 -1.2538399e-06 7.131401e-07 -1.7012567e-06 9.707644e-07 -1.8870823e-07 -1.7826572e-07 -6.394428e-07
5.4327334e-06 6.1311807e-06 -2.1830965e-06 6.2869153e-06 -2.0035795e-06 5.4342268e-06 3.4896968e-06 4.0693435e-06
7.790682e-05 5.8217393e-05 -1.6002514e-05 3.6772475e-05 -3.0818053e-05 -1.9972065e-05 -1.7243245e-05 -1.4915977e-06
1.8080009e-05 1.4801923e-05 -2.1289543e-06 8.257897e-06 -6.5804707e-06 -7.4618606e-06 -7.780644e-06 -4.0446857e-06
9.022403e-06 9.359486e-06 -3.055145e-06 8.993801e-06 -4.735342e-06 4.7120255e-07 -2.9269975e-07 2.0684781e-06
1.32776795e-05 2.9872197e-05 1.0486546e-05 2.1928416e-05 3.208169e-06 -1.1690926e-05 -3.5570894e-05 -2.685389e-05
0.00011160384 5.1357627e-05 -4.4585835e-05 3.3147928e-05 -5.2792948e-05 -2.3235909e-05 1.493143e-05 4.005379e-05
0.0004536856 0.00010725634 -0.00020074916 -1.3697776e-06 -0.00022146845 -0.00013213378 0.00012727235 0.00020040969
0.0001594757 0.00013039054 -7.1045375e-05 0.000113654474 -8.268567e-05 2.5086656e-05 4.9488e-05 8.356654e-05
8.396389e-05 4.0446008e-05 -2.5276227e-05 1.5613898e-05 -3.5611494e-05 -2.366159e-05 2.1363762e-06 1.5652451e-05
3.5231686e-05 1.910616e-05 -9.833678e-06 8.871004e-06 -1.4957514e-05 -1.0705861e-05 -1.8085996e-06 4.4105627e-06
4.411177e-05 2.2208822e-05 -1.3145932e-05 9.291836e-06 -1.9158497e-05 -1.4090097e-05 -7.3763056e-07 6.9711878e-06
7.060033e-05 3.6777317e-05 -2.0026559e-05 1.604625e-05 -3.0033212e-05 -2.1918768e-05 -2.730112e-06 9.4875795e-06
1.9077535e-05 6.142629e-06 -1.23982545e-05 1.6993159e-06 -1.652876e-05 -3.543896e-06 1.9162717e-05 1.807193e-05
5.523371e-05 3.8464113e-05 -1.5712583e-05 2.1120315e-05 -2.9470817e-05 -1.9167672e-05 3.9921235e-07 7.55571e-06
0.00084150035 0.0006334862 -0.00015697144 0.00036682852 -0.0003308413 -0.00030869085 -0.000256511 -7.4934214e-05
0.0033009218 0.0016942959 -0.0009587098 0.00076605205 -0.001398985 -0.00093266345 -5.8546077e-05 0.0005079233

exp_avg_sq f4 [24, 8]
00000000: 21a1 1037 ea72 8137 ce84 1a37 3213 4037
00000010: 48b3 9935 0a31 9d36 bce4 a537 0e0c 8937
00000020: 646b 4d34 644c e532 0b55 0734 e8cd 3333
00000030: 8503 5133 4e3d e932 8735 b232 9eb0 1b34
00000040: c070 0c34 3361 e832 a0a2 0534 16c0 2833
00000050: a27d 1b33 e40a ad32 7b59 b032 59ff e433
00000060: 8fde 3a34 ee41 0033 aa23 0b34 d7d9 4033
00000070: 44a1 3d33 8d61 d032 6d02 c532 4807 0a34
00000080: 6419 eb33 21b8 d832 0287 0134 97a2 2833
00000090: 0d19 0133 4b4c 9932 aaa4 b232 f415 cc33
000000a0: 8c5e 5a34 436d 5133 a1fa 3034 ecc5 4a33
000000b0: ed32 7033 df2d ec32 f3a2 ec32 d8a3 2d34
000000c0: 7369 1434 8123 ba32 48df f833 9b67 2733
000000d0: 1d19 1133 90d2 b332 0f35 a932 4093 e333
000000e0: 2d62 6434 90f8 a232 b1f0 ee33 92a7 2f33
000000f0: 216f 5533 9401 f632 d08e a132 e220 1b34
00000100: 2a75 b636 1a5b 3735 2e40 8a35 ba5f b633
00000110: 9b56 8435 8be8 1935 0a2a 0334 e17a 3a34
00000120: f25a 2237 f9af 8635 628b f935 f881 c333
00000130: 155d cb35 3d7e 6a35 b006 3b34 3085 0234
00000140: 2262 d236 2e71 2235 46fc c735 e49d 7a34
00000150: 8fa5 9035 6967 3035 8613 ac34 6675 2135
00000160: 2d79 b635 36bb 3634 427a 8c34 80fa 0033
00000170: 8963 9434 d28b 1c34 bb7a 2833 bb19 cc33
00000180: 95b2 2c36 99c4 8c34 80f4 9535 dc71 7d34
00000190: ec60 3835 0183 f933 2c29 d134 0336 8235
000001a0: fd48 4836 f60f 8734 e1df 8b35 729d 3e34
000001b0: f487 5a35 acc0 1534 79b3 9d34 8696 6735
000001c0: d4d9 c237 b1e6 6336 c9ce b436 a2c0 6c35
000001d0: 10d5 b736 4b16 1d36 4cc1 c835 371f 3936
000001e0: d424 7f38 3395 8b37 be39 6a37 910a d736
000001f0: a300 6937 60f6 0c37 a641 da36 737d 1137
00000200: 45d4 ae36 6c03 3735 f656 0336 f23d 3735
00000210: 13b2 8135 5776 2935 b0e3 aa34 b8e8 0a36
00000220: 3bd8 b638 e3b9 0537 2537 8c37 cce0 0a36
00000230: 2993 6e37 666a 0737 58df c935 4b6d 4837
00000240: d8eb 3f38 9f93 7536 87a5 bc36 47ab dc35
00000250: b6c2 cd36 f850 a336 2ef3 1e36 3b3d 4a36
00000260: 9f67 3437 615b 0f35 6540 3236 9813 9f35
00000270: 9a50 0836 6b2f 8e35 d065 d934 b7bb e736
00000280: 65a8 9c38 d9c6 1637 352f 4738 13e3 3e37
00000290: 7240 ad37 902d 5236 c3a3 8837 0d65 1f38
000002a0: 1c9a bc38 5837 3e37 0f62 6d38 5f84 6637
000002b0: e5cf d737 20f1 8736 abca a437 ad93 3f38
000002c0: 1126 df38 feab 2b37 ca9a 0f38 2f1c a436
000002d0: 2865 d937 c90c 1337 2a79 f836 b1cb c537
000002e0: a21b f03a 97e3 8439 2122 6739 3118 b438
000002f0: 13f6 a039 f815 3b39 040a 5238 638f 0e38
8.620585e-06 1.543151e-05 9.210036e-06 1.1448561e-05 1.1451566e-06 4.6846735e-06 1.9776046e-05 1.6337286e-05
1.9131181e-07 2.6693847e-08 1.2603793e-07 4.1863956e-08 4.8664806e-08 2.7152648e-08 2.0746269e-08 1.4499753e-07
1.3079534e-07 2.7052556e-08 1.2445753e-07 3.929025e-08 3.6203012e-08 2.0144803e-08 2.0529788e-08 1.0663525e-07
1.7403566e-07 2.9862285e-08 1.2958358e-07 4.4901608e-08 4.4151662e-08 2.4258748e-08 2.2934922e-08 1.28549e-07
1.0947659e-07 2.5229442e-08 1.2063177e-07 3.9263423e-08 3.0057937e-08 1.7846238e-08 2.0796808e-08 9.5034835e-08
2.0337228e-07 4.8760977e-08 1.6482456e-07 4.72118e-08 5.592567e-08 2.7494876e-08 2.7548117e-08 1.6171487e-07
1.3821936e-07 2.1669395e-08 1.15890145e-07 3.8976946e-08 3.3783284e-08 2.0934095e-08 1.9698318e-08 1.0597296e-07
2.1269871e-07 1.8972315e-08 1.112652e-07 4.0897767e-08 4.9694e-08 2.8638887e-08 1.880781e-08 1.4447463e-07
5.4376624e-06 6.830538e-07 1.030048e-06 8.492448e-08 9.859972e-07 5.7335336e-07 1.221562e-07 1.7367303e-07
9.677127e-06 1.0034993e-06 1.8592511e-06 9.104036e-08 1.5151769e-06 8.7355494e-07 1.7418165e-07 1.2155647e-07
6.269912e-06 6.05144e-07 1.4900077e-06 2.3340505e-07 1.077702e-06 6.571559e-07 3.2051702e-07 6.014801e-07
1.3595323e-06 1.7018178e-07 2.6165986e-07 3.003015e-08 2.763957e-07 1.4579498e-07 3.922717e-08 9.5041706e-08
2.5733946e-06 2.6220076e-07 1.1172524e-06 2.3603883e-07 6.868638e-07 1.16187955e-07 3.895924e-07 9.701474e-07
2.9844807e-06 2.5157323e-07 1.0421464e-06 1.7752407e-07 8.1409166e-07 1.39468e-07 2.9374112e-07 8.6273246e-07
2.3228036e-05 3.3959916e-06 5.388491e-06 8.819717e-07 5.4786287e-06 2.34078e-06 1.4957418e-06 2.7585318e-06
6.0831037e-05 1.6639568e-05 1.3960931e-05 6.4087294e-06 1.38880305e-05 8.402014e-06 6.5045488e-06 8.671882e-06
5.2103155e-06 6.817779e-07 1.957114e-06 6.8262955e-07 9.663075e-07 6.3129613e-07 3.1830632e-07 2.0699063e-06
8.718712e-05 7.970698e-06 1.671498e-05 2.0694451e-06 1.4220169e-05 8.0714e-06 1.5040669e-06 1.1946376e-05
4.5757595e-05 3.6593772e-06 5.6221065e-06 1.6441126e-06 6.1321434e-06 4.8672046e-06 2.3685384e-06 3.0135986e-06
1.0752962e-05 5.3404625e-07 2.656155e-06 1.1852126e-06 2.0312496e-06 1.0593625e-06 4.0493478e-07 6.9061894e-06
7.4700256e-05 8.9869945e-06 4.7489262e-05 1.1377752e-05 2.0653217e-05 3.131896e-06 1.628872e-05 3.8002665e-05
8.993244e-05 1.1337768e-05 5.6596527e-05 1.3739888e-05 2.5726806e-05 4.051384e-06 1.9644698e-05 4.5675482e-05
0.00010640559 1.0232439e-05 3.4238015e-05 4.890862e-06 2.591552e-05 8.76486e-06 7.4050813e-06 2.3579081e-05
0.0018318782 0.0002534657 0.0002204259 8.587575e-05 0.00030700918 0.00017841894 5.007723e-05 3.3988978e-05

exp_avg f4 [8, 8]
00000000: c36d 7239 883d e439 3ee4 d539 824d 9d39
00000010: 6cdf e539 9578 dd39 689c 5c39 717a bb39
00000020: f8d8 91ba 7c4d 51ba 604c bbb9 9646 05ba
00000030: 5e81 beb9 03c7 83b9 9534 77b9 2250 55b9
00000040: e836 a2b9 06ac 87b9 9925 1cb9 b126 34b9
00000050: 3f3f 20b9 9d9a 02b9 f0f9 cab8 8df1 ddb8
00000060: 165d 7738 81c3 1b39 7fe3 2b39 5eae 0339
00000070: b3a7 3e39 50b9 3739 8601 c538 78f6 1c39
00000080: 8fd9 19ba 87be 23ba 4f23 f0b9 6842 dcb9
00000090: dc3c fab9 c7ab e6b9 4037 9ab9 092c cab9
000000a0: 9721 2f3a ea9e 263a 6a5b f039 dfa5 d639
000000b0: bfd1 ed39 10dc ef39 118a ce39 f957 e939
000000c0: bd58 c93a ac9a ab3a 57e3 553a db1a 583a
000000d0: 721f 533a 695a 463a 9cd0 303a d8f5 3c3a
000000e0: 9803 573a f93c 2e3a fc32 c039 9fa7 d939
000000f0: 9267 c139 a155 a339 0f65 8939 e938 9139
0.00023119808 0.00043533393 0.0004079658 0.0003000312 0.00043844746 0.00042242245 0.00021039101 0.00035758645
-0.0011127284 -0.00079842634 -0.00035724323 -0.00050840655 -0.0003633601 -0.00025134542 -0.00023575344 -0.00020343115
-0.00030939956 -0.00025877374 -0.00014891326 -0.00017180551 -0.0001528235 -0.00012455364 -9.678665e-05 -0.000105830935
5.8976082e-05 0.00014854783 0.0001639258 0.0001255809 0.00018182285 0.00017521274 9.393976e-05 0.00014969136
-0.00058689056 -0.00062463473 -0.00045802674 -0.00042011146 -0.0004772906 -0.00043997003 -0.00029414333 -0.0003856125
0.00066807255 0.00063560775 0.00045844476 0.00040940844 0.00045360436 0.00045749592 0.0003939425 0.00044506768
0.0015361529 0.001309236 0.00081591815 0.0008243748 0.0008053697 0.0007566573 0.00067449524 0.00072082644
0.00082021346 0.0006646659 0.0003665908 0.00041514353 0.00036888995 0.0003115358 0.0002620597 0.00027698957

exp_avg_sq f4 [8, 8]
00000000: 0bb6 c538 5199 ba38 16bd c838 ad40 d338
00000010: 8df9 d438 428c d538 6265 d438 56e8 d138
00000020: 0c1d 8938 0c4e 8538 2296 8638 baec 8838
00000030: bf23 8a38 212f 8938 3081 8838 f04a 8838
00000040: f89c 0237 944b fe36 22a6 1337 092d 1c37
00000050: fd1f 1e37 0a4b 1d37 dcfa 1c37 8632 1b37
00000060: 0684 7237 1e6f 6f37 44b4 8c37 8221 9637
00000070: 9c99 9637 dbb8 9537 ccf6 9437 75d8 9337
00000080: 138a 1438 7557 0b38 370a 1438 8caa 1a38
00000090: ce54 1c38 797f 1c38 03e3 1b38 fb92 1938
000000a0: 82ae 2137 ef52 2437 44fe 3437 1993 3d37
000000b0: 1fee 3f37 569d 3f37 d41c 3e37 60e4 3a37
000000c0: f5ab 4738 a9b6 4638 0e61 4e38 9572 5438
000000d0: 3537 5738 30fa 5538 ce1c 5538 60f4 5238
000000e0: 0957 0638 d39a 0438 bed8 0938 901f 0e38
000000f0: 9f2e 1038 cc60 0f38 2892 0e38 1f56 0d38
9.4276e-05 8.8977285e-05 9.571963e-05 0.00010073311 0.0001015543 0.000101827565 0.00010127832 0.000100091725
6.5380795e-05 6.3564716e-05 6.417582e-05 6.529079e-05 6.587011e-05 6.5414475e-05 6.5090484e-05 6.4989435e-05
7.785151e-06 7.5785883e-06 8.800564e-06 9.30881e-06 9.424982e-06 9.375401e-06 9.356732e-06 9.250483e-06
1.4455063e-05 1.4271382e-05 1.6773243e-05 1.7896997e-05 1.7952923e-05 1.7848264e-05 1.7757899e-05 1.7624561e-05
3.541454e-05 3.3221633e-05 3.5295463e-05 3.6875295e-05 3.727228e-05 3.7312017e-05 3.71663e-05 3.661493e-05
9.636979e-06 9.794471e-06 1.0788037e-05 1.1299527e-05 1.1439929e-05 1.142112e-05 1.1331595e-05 1.1139637e-05
4.7605445e-05 4.7376994e-05 4.9204617e-05 5.065145e-05 5.131141e-05 5.1016163e-05 5.0809984e-05 5.0295494e-05
3.2029147e-05 3.1615444e-05 3.2865202e-05 3.3884833e-05 3.4375695e-05 3.4184006e-05 3.3991557e-05 3.3697226e-05

exp_avg f4 [8]
00000000: d2b1 47ba 1285 84bb 2b7a 75ba 0c8b f5b9
00000010: 1b7d 80ba a02a e03a 4a82 993b aa4c 2a3b
-0.0007617745 -0.0040441835 -0.0009364213 -0.0004683364 -0.0009802909 0.0017102547 0.004684721 0.0025985637

exp_avg_sq f4 [8]
00000000: c689 ae39 80f0 603a e9ce 2e39 f425 fa38
00000010: a1cd b239 28fd f938 2c38 1c3a 0db3 003a
0.00033290515 0.0008580759 0.00016671013 0.00011927998 0.0003410401 0.00011920399 0.0005959298 0.0004909493

exp_avg f4 [16, 8]
00000000: bf44 ba32 4b17 8b32 c80d 01b1 e62b 5932
00000010: 2654 23b2 d15b 1c31 6ae2 0bb1 5082 24b1
00000020: b8fa eaaa 89c8 60aa c225 892a 110b fea9
00000030: e795 d82a 67d1 8ea8 62fe 5429 c137 152a
00000040: 2b8c ec1b 08be dc1b ac8a 541b b830 861a
00000050: ad22 889b 6be7 801b bddc ce9b c16f ca9b
00000060: ca33 49b7 4b13 09b7 52dd a935 1f7a 06b7
00000070: 4711 ba36 3e08 cab5 1ac7 6a35 a20e 9534
00000080: cfd2 f031 ac62 d131 307f 29b0 3ff1 bc31
00000090: 8ba4 65b1 f29f d930 38af 1ab0 b45e 30b0
000000a0: 27fa a0af e9e7 b3ae 2ace c52e 8a6b a2ae
000000b0: 81b1 2b2f e2eb e82a 600e 362c 7e97 2a2c
000000c0: 7a77 162c 0cf0 8f2b 58a4 afab 83ac 222b
000000d0: 3db0 0aac 65e7 b629 6763 88aa 9819 3fab
000000e0: a0f7 1998 9129 6717 3773 ff17 89a6 8116
000000f0: 9903 b117 18eb 1d17 e3de 0497 8478 ee97
00000100: 9c59 a3b6 1590 c2b6 7beb 0735 d03a 1fb7
00000110: 985b 0537 3afa d8b6 ba5f bdb3 38b6 2636
00000120: 7e99 a3b7 7e54 61b7 00e5 0a36 e7f3 68b7
00000130: 56a3 1937 151f 55b6 f61c a835 b32e 5634
00000140: 5668 243a 19a6 113a 5f7a 4bb9 8e45 a5b9
00000150: 7627 54b9 bc7d d639 0944 6d3a df50 b339
00000160: 3414 45b7 6983 01b7 0749 a135 c18e 9db6
00000170: f74e a336 dcd2 a534 6d56 5f35 b26e 7f35
00000180: 2974 dfb9 3ec2 6db9 f49e 8539 25ed 5eb9
00000190: faf3 af39 9e1d a1b9 d082 98b9 1131 aeb8
000001a0: aea0 532f dc93 242f e519 7cad 0720 0c2f
000001b0: 7e10 bdae faad 9b2d 9ac8 ffad d4c4 e3ad
000001c0: e36c e6b5 a83b 9cb5 52af 3a34 a8b0 37b5
000001d0: 6d63 3d35 1f30 6a33 3f87 0334 8c92 1034
000001e0: 7795 7e2e 1298 742e b83b 79ad d5c4 65ad
000001f0: c055 5ead 8c0c 372c e7ea e5ad 2929 23ae
2.1684512e-08 1.6192322e-08 -1.8779804e-09 1.2641044e-08 -9.506982e-09 2.275318e-09 -2.0355864e-09 -2.3939215e-09
-4.174072e-13 -1.9964771e-13 2.4362288e-13 -1.12817856e-13 3.8473323e-13 -1.585598e-14 4.7294098e-14 1.3253202e-13
3.9133506e-22 3.6518752e-22 1.7581036e-22 5.549981e-23 -2.2521721e-22 2.1325374e-22 -3.422249e-22 -3.3490316e-22
-1.1992592e-05 -8.170328e-06 1.2655894e-06 -8.015456e-06 5.5452433e-06 -1.5052572e-06 8.7461524e-07 2.776406e-07
7.0088855e-09 6.0939183e-09 -6.1662586e-10 5.4989466e-09 -3.3417418e-09 1.5834287e-09 -5.6273874e-10 -6.416301e-10
-2.9281574e-10 -8.181173e-11 8.995145e-11 -7.38601e-11 1.5615421e-10 4.1375155e-13 2.5871735e-12 2.4242548e-12
2.1382605e-12 1.0227388e-12 -1.2480112e-12 5.779337e-13 -1.9708811e-12 8.122564e-14 -2.4227427e-13 -6.789235e-13
-1.9899805e-24 7.469259e-25 1.6508073e-24 2.0946172e-25 1.1439265e-24 5.1026166e-25 -4.2932823e-25 -1.5410812e-24
-4.8682105e-06 -5.798424e-06 5.063409e-07 -9.490832e-06 7.948744e-06 -6.466432e-06 -8.818411e-08 2.4841993e-06
-1.950259e-05 -1.3430717e-05 2.0696898e-06 -1.38850655e-05 9.15754e-06 -3.1757565e-06 1.2525404e-06 1.9947292e-07
0.0006271651 0.00055560615 -0.00019405175 -0.00031523075 -0.00020232596 0.0004091094 0.00090509705 0.00034201794
-1.1746819e-05 -7.7195955e-06 1.2016689e-06 -4.6955834e-06 4.8669713e-06 3.0887065e-07 8.319974e-07 9.5155985e-07
-0.0004262042 -0.00022674442 0.00025486166 -0.00021259913 0.00033560378 -0.0003073038 -0.00029089162 -8.306106e-05
1.9247423e-10 1.4968243e-10 -1.4330291e-11 1.2744304e-10 -8.5976545e-11 1.7698721e-11 -2.9079229e-11 -2.5894321e-11
-1.7168026e-06 -1.1640268e-06 1.7386381e-07 -6.842988e-07 7.055267e-07 5.4526136e-08 1.2249528e-07 1.3464359e-07
5.7885665e-11 5.5614242e-11 -1.41672715e-11 -1.3060848e-11 -1.2638279e-11 2.601283e-12 -2.6138603e-11 -3.7098467e-11

exp_avg_sq f4 [16, 8]
00000000: 2e7c ca34 aade 0333 04df 4d35 d570 8d34
00000010: 5cba 9935 b38d de33 4d90 6434 ba26 7934
00000020: ba2f a135 f0ca f934 4c7d 8235 51a0 7735
00000030: 3c10 6136 cc6c 5235 873d 3d35 a5f8 c835
00000040: aa86 1937 931e 4d37 fc9a af37 c0b3 7136
00000050: d93c b436 a816 a036 0cb9 ac37 bb53 8f37
00000060: d314 aa35 c099 c735 04f6 f035 584a 3235
00000070: cef2 df35 3586 1535 544c 8535 52eb f635
00000080: d33a 3435 18f4 4d33 30ad 9d35 56c9 7434
00000090: 1009 3e36 eb73 7933 0fc0 0d35 4fdc 1635
000000a0: 7962 7234 6822 de32 944b e532 854a 5932
000000b0: 9703 9f33 129b b12f 5d96 b830 af68 4331
000000c0: 9100 a134 d7ef 9433 56b4 d335 d89b 4e35
000000d0: 9354 5735 67a7 ed34 a861 3134 6015 b134
000000e0: d982 2338 a7ef 2d36 de66 c137 d01b 6f35
000000f0: bf09 d237 3855 4e36 1040 4936 083d 9e37
00000100: 3e6f d236 5774 6a36 e46e 9e36 e328 0d36
00000110: c33e 1837 52ed 8636 8ca5 8636 82ca 7f37
00000120: c687 5236 94cc a736 78e5 5637 db7f 5436
00000130: c656 8436 0e5a 7735 c48a 1537 67ec 0037
00000140: f49d f338 9898 6b3a 98f7 e239 4d14 a339
00000150: 26b2 8838 636e bb37 8e78 f039 eab6 453a
00000160: c99d cb37 918b bf37 0961 c635 261a 8035
00000170: bc0c b935 6789 3d33 a5c6 ae36 a9ea 3337
00000180: e509 8138 0baf 6536 6117 8f37 d521 e335
00000190: 2fb1 b737 29c7 8c36 19a9 4637 04e2 9437
000001a0: aec3 e435 3fcf e535 2ddd 5d35 4ae4 1b34
000001b0: 7646 d436 8d26 2936 be0d e435 6cee ca36
000001c0: 4574 da35 d75e c635 bc11 4836 67a8 a035
000001d0: b8f9 9536 1d2b e335 4d68 be35 8e95 8436
000001e0: 3b04 6837 0927 5f37 9d9e 3937 2b0b 1937
000001f0: 1aea a337 e9d7 3336 0891 6137 a65b 8437
3.7715785e-07 3.0703326e-08 7.669298e-07 2.6345393e-07 1.1453626e-06 1.03634555e-07 2.1286651e-07 2.3204021e-07
1.2009325e-06 4.652752e-07 9.722221e-07 9.224796e-07 3.3537062e-06 7.8389417e-07 7.049752e-07 1.4973526e-06
9.150865e-06 1.2226071e-05 2.0933796e-05 3.6016427e-06 5.3715016e-06 4.771009e-06 2.0590167e-05 1.7085918e-05
1.2672048e-06 1.4871403e-06 1.7952993e-06 6.641835e-07 1.668546e-06 5.570212e-07 9.931487e-07 1.8396915e-06
6.7140826e-07 4.7952284e-08 1.1747816e-06 2.2797516e-07 2.8317481e-06 5.8080257e-08 5.2806075e-07 5.6199946e-07
2.257383e-07 2.5859848e-08 2.6693478e-08 1.2648006e-08 7.4046675e-08 3.2306297e-10 1.3430498e-09 2.843574e-09
2.9989e-07 6.935414e-08 1.577321e-06 7.696776e-07 8.0216813e-07 4.426649e-07 1.6519937e-07 3.2984372e-07
3.898409e-05 2.5918505e-06 2.3055294e-05 8.907491e-07 2.503849e-05 3.0745996e-06 2.9988623e-06 1.8863488e-05
6.271438e-06 3.4936436e-06 4.7216763e-06 2.1034436e-06 9.074519e-06 4.021139e-06 4.0127834e-06 1.5246334e-05
3.137147e-06 5.000804e-06 1.2808821e-05 3.1664883e-06 3.9440083e-06 9.214572e-07 8.913401e-06 7.684436e-06
0.00011616564 0.0008987277 0.0004329055 0.00031104908 6.518168e-05 2.234354e-05 0.00045866187 0.000754221
2.427296e-05 2.2833965e-05 1.478039e-06 9.544353e-07 1.378728e-06 4.412996e-08 5.2087294e-06 1.07238675e-05
6.153042e-05 3.4225548e-06 1.7057815e-05 1.6922664e-06 2.1897808e-05 4.1955104e-06 1.1841091e-05 1.7748222e-05
1.7044274e-06 1.7122146e-06 8.265077e-07 1.4518551e-07 6.326295e-06 2.5205402e-06 1.6991323e-06 6.047825e-06
1.6276105e-06 1.4779752e-06 2.9812645e-06 1.196994e-06 4.469617e-06 1.6925366e-06 1.4186459e-06 3.951317e-06
1.3829263e-05 1.3300924e-05 1.1063789e-05 9.122111e-06 1.9540126e-05 2.6798755e-06 1.3444813e-05 1.5778303e-05

exp_avg f4 [16]
00000000: 5daf 3eb2 80a4 3fa9 acef 271a 83a3 ee36
00000010: 18b7 93b1 4600 0c2f c26e 752a 1562 b517
00000020: 7488 b634 75a9 4937 6095 10b9 ae79 b436
00000030: e48b 3c39 364c e1ae e646 5435 5453 612c
-1.1099329e-08 -4.25532e-14 3.4728396e-23 7.111988e-06 -4.2990784e-09 1.2733023e-10 2.1798798e-13 1.172161e-24
3.3999424e-07 1.2019988e-05 -0.00013788557 5.3785834e-06 0.0001798119 -1.0245353e-10 7.9079325e-07 3.202068e-12

exp_avg_sq f4 [16]
00000000: 27eb d933 f55f 0f36 2033 0336 7a6c 1136
00000010: 255a e433 b6e5 2233 b988 e834 c7ef 4537
00000020: 9d58 d237 60ee c535 cd68 6138 eb36 1834
00000030: 347e b637 479f 2237 81a8 c836 7ec3 4836
1.0147624e-07 2.1364515e-06 1.955028e-06 2.1669825e-06 1.06334745e-07 3.7927485e-08 4.3312846e-07 1.17979425e-05
2.5075215e-05 1.474702e-06 5.3741784e-05 1.4176082e-07 2.1754859e-05 9.693037e-06 5.980081e-06 2.9916114e-06

exp_avg f4 [8, 16]
00000000: c132 6fac e4a1 af29 2880 021b e6c2 60b2
00000010: b1bc 292c 6fc2 752e 4793 0129 f3be 7696
00000020: 18b8 3534 4614 b1b3 62fe c9b7 04b0 9bb2
00000030: 8c6e 21b8 8fd6 732b 22cf feaf cf4e 9f2b
00000040: 3167 dd2e f6f8 c8aa 09f2 0d1b 4369 73b4
00000050: ec47 352f 3597 062f 3445 14aa 0cbf 5097
00000060: 575d fd35 18d1 c1b5 abbb 1dba 7c05 4fb4
00000070: 2701 3eba 4806 f72c 82bf 9cb1 951d 512d
00000080: 6b46 fd2d b983 e4a8 4b5e bb99 af7b 67b3
00000090: 58a5 3f2e 205f 042c 0697 28a8 02b2 6896
000000a0: 6bc1 ef34 8e92 b8b4 e58f 22b9 58cd 40b3
000000b0: d2ad 40b9 48a7 052c 684e 8fb0 d585 7329
000000c0: e450 32ad e297 80a9 b0fd 211a 4c20 b2b2
000000d0: d027 43ad 0e42 a32e 37be bda8 9e86 3d17
000000e0: 9004 7e34 8d74 09b4 f74b fdb7 ff33 fcb2
000000f0: b3e5 61b8 6c9d 562b 518e 67b0 769e 8a2c
00000100: 5f3b 5f2e ef29 52aa 9386 a49a 4326 a4b3
00000110: 3667 aa2e 548f dead 2c0d 9ba9 a7ff 8196
00000120: 6b1a 1f35 7f80 03b5 5666 74b9 6fe6 74b3
00000130: 07cd 8cb9 47e7 fa2b 1f47 aeb0 8c33 d32c
00000140: 1f7c 89ae d700 6ea7 878b 8d19 3ecf f833
00000150: 5c7d ddae ae27 d6ad 2397 afa6 6131 b116
00000160: 53c8 82b5 bdb8 4535 c29e a339 8462 da33
00000170: ec3d c339 ea5c a6ac 5654 2831 d56e 7e2a
00000180: 607d 22af dbfb e12a 6cc3 db9a bc4d a034
00000190: 3209 85af 3e27 f8ae 04b9 262a 9fb4 4916
000001a0: 54bd 28b6 6a88 ff35 8f6f 563a 2a82 8834
000001b0: a028 7f3a 18a2 24ad 2213 cd31 0517 89ad
000001c0: b5a1 a1ae 82e9 9f2a 34f0 c29a 07ec 2d34
000001d0: 196c 05af c7a8 beae 7ff4 eb29 e050 ac17
000001e0: f6bc b4b5 ccb2 8a35 f4d6 e339 e37b 1134
000001f0: 4adf 073a 2c75 a5ac 9bb2 5931 dbf7 42ad
-3.3992117e-12 7.799645e-14 1.0794757e-22 -1.3082831e-08 2.412109e-12 5.5879242e-11 2.8771497e-14 -1.9931975e-25
1.6923912e-07 -8.2458925e-08 -2.4079523e-05 -1.8124418e-08 -3.8488346e-05 8.66287e-13 -4.6349508e-10 1.1319503e-12
1.0068247e-10 -3.5699888e-13 1.1741452e-22 -2.2669433e-07 1.6487406e-10 1.2240949e-10 -1.316905e-13 -6.744956e-25
1.8877134e-06 -1.4440475e-06 -0.00060170394 -1.9280372e-07 -0.00072480965 7.0208596e-12 -4.5619695e-09 1.1886843e-11
2.8794042e-11 -2.537021e-14 -1.9373431e-23 -5.389637e-08 4.3575227e-11 1.8811133e-12 -9.358621e-15 -1.879698e-25
4.465795e-07 -3.4379303e-07 -0.00015503129 -4.4890243e-08 -0.000183753 1.8993297e-12 -1.0426904e-09 5.407292e-14
-1.013609e-11 -5.7106894e-14 3.3498947e-23 -2.0736614e-08 -1.1093307e-11 7.4241155e-11 -2.1065708e-14 6.1239104e-25
2.3657253e-07 -1.280152e-07 -3.0195324e-05 -2.9360306e-08 -5.3858104e-05 7.624654e-13 -8.4239554e-10 3.9397886e-12
5.0757062e-11 -1.8666295e-13 -6.8046227e-23 -7.643805e-08 7.749039e-11 -2.5302128e-11 -6.885668e-14 -2.1002413e-25
5.927056e-07 -4.898829e-07 -0.00023307776 -5.7020255e-08 -0.00026855638 1.7827761e-12 -1.268038e-09 6.0027035e-12
-6.252087e-11 -3.302959e-15 1.4635413e-23 1.1586097e-07 -1.0072185e-10 -2.4346605e-11 -1.218403e-15 2.8627055e-25
-9.744057e-07 7.365705e-07 0.00031208067 1.0169336e-07 0.00037239434 -4.7283193e-12 2.4495157e-09 2.2598184e-13
-1.4778356e-10 4.014279e-13 -9.0892e-23 2.9858882e-07 -2.4199093e-10 -1.1284705e-10 1.4807952e-13 1.6293645e-25
-2.5144154e-06 1.9038682e-06 0.00081800757 2.542668e-07 0.00097335316 -9.358313e-12 5.9684604e-09 -1.558532e-11
-7.350157e-11 2.8406102e-13 -8.062459e-23 1.6197747e-07 -1.2134684e-10 -8.6701805e-11 1.047851e-13 1.1135655e-24
-1.346604e-06 1.0333838e-06 0.00043456967 1.3549247e-07 0.0005183114 -4.7025907e-12 3.1679182e-09 -1.1082658e-11

exp_avg_sq f4 [8, 16]
00000000: 43f8 2634 10f3 d431 fe7d 8e35 1605 5933
00000010: 3194 3e33 7491 6732 1a3f 3734 0266 0535
00000020: 6e4b 6734 abb1 2135 ec6b 2139 5d5a d130
00000030: 106a 3136 d119 2d35 5de4 8c34 30db 8735
00000040: c90d e135 378b 8633 0e84 4e36 4a0d 0436
00000050: b1d0 fd34 d67d 5533 ef79 df35 d99e ce36
00000060: a61a 5836 4fbf 9536 d637 373a c973 6a36
00000070: a4ae bc37 5c87 0537 20a3 8c36 d362 0837
00000080: 3049 4c35 9b66 a232 2619 1b34 792b 6b35
00000090: 3c8d 6634 829b 0830 84b6 4935 7eb2 ca35
000000a0: 0f6f c635 5337 aa35 a7dc 0138 e1f6 d630
000000b0: 91f3 ea35 b67f 7436 fcb9 0436 c1e2 2836
000000c0: 118e a835 6499 ab32 71ba e434 45bb 4535
000000d0: 3fc9 bd34 c172 8b32 91ac a035 1e1d 6836
000000e0: 56db d335 1dfa 0736 1c93 2238 8104 a634
000000f0: dd25 2136 dc3d ad36 9a37 0036 a1c3 8c36
00000100: f7a8 a534 1c3a 3b32 8ed3 2f35 00a4 5235
00000110: a09e bb33 29fb 5f31 c907 0535 836c 7835
00000120: fc53 1835 7147 e935 0fc2 1639 ee65 7235
00000130: b83a 8036 e63d bd35 d0d4 3635 13eb bd35
00000140: 2de2 e533 fc72 d432 f615 9835 2a46 a334
00000150: ddb1 0033 d733 1031 9b70 0e34 da34 3c35
00000160: 8baa 3f35 02b5 5635 1e92 fa37 af3a 8930
00000170: 32a9 1c36 a55a 9635 6948 0635 efae c234
00000180: c098 a435 4c72 2533 9ece 0036 c5fa b835
00000190: 6db0 b934 3eaa 5633 4e62 a235 3ea0 0f36
000001a0: 8d34 0d36 e3bf 4736 cd6e 003a 619c bc36
000001b0: e030 ba37 26ba b936 283a 4736 9c69 b036
000001c0: 6e3c 3436 30ee c733 2bc0 3636 8f7e 4336
000001d0: 6582 4b35 de66 f032 638c 3b36 a668 6237
000001e0: 6ca0 b536 12c4 e136 a3a0 a039 6af7 3d36
000001f0: 7d42 5c37 a1ee 5c37 6749 d036 3598 2337
1.5550272e-07 6.197645e-09 1.0616493e-06 5.0528875e-08 4.43726e-08 1.3479042e-08 1.706616e-07 4.96948e-07
2.1540993e-07 6.0235715e-07 0.0001539436 1.5232434e-09 2.6436792e-06 6.448509e-07 2.6243188e-07 1.0122076e-06
1.6767818e-06 6.265184e-08 3.0773258e-06 1.9677268e-06 4.7276765e-07 4.9707374e-08 1.6650282e-06 6.1577707e-06
3.220202e-06 4.4628173e-06 0.0006989216 3.4936113e-06 2.249267e-05 7.958934e-06 4.1913154e-06 8.129241e-06
7.6102424e-07 1.8905942e-08 1.4444649e-07 8.7607583e-07 2.14718e-07 4.96975e-10 7.514393e-07 1.5102121e-06
1.4784472e-06 1.2682088e-06 3.0961495e-05 1.5640716e-09 1.7505246e-06 3.643317e-06 1.977779e-06 2.516594e-06
1.2558322e-06 1.9976774e-08 4.2603963e-07 7.366073e-07 3.535042e-07 1.6233914e-08 1.1971152e-06 3.4587642e-06
1.578456e-06 2.0262153e-06 3.8760816e-05 3.0923187e-07 2.4012909e-06 5.163003e-06 1.910585e-06 4.1950993e-06
3.0856583e-07 1.0898045e-08 6.550043e-07 7.846975e-07 8.73672e-08 3.259354e-09 4.955769e-07 9.2545105e-07
5.6746626e-07 1.7380645e-06 0.00014377407 9.030035e-07 3.821533e-06 1.4099612e-06 6.8109966e-07 1.4150013e-06
1.07047846e-07 2.4732337e-08 1.1331274e-06 3.0412167e-07 2.9964088e-08 2.0984225e-09 1.3265746e-07 7.0112367e-07
7.140122e-07 7.9984613e-07 2.9870364e-05 9.984741e-10 2.3344296e-06 1.1202252e-06 5.002426e-07 3.6262597e-07
1.2263408e-06 3.852101e-08 1.9193753e-06 1.3782052e-06 3.4587302e-07 4.9980592e-08 1.2098551e-06 2.1401934e-06
2.1041226e-06 2.9765004e-06 0.0004899323 5.6210415e-06 2.2195687e-05 5.5351e-06 2.9687162e-06 5.2575033e-06
2.6857265e-06 9.309986e-08 2.723197e-06 2.913093e-06 7.581314e-07 2.7986456e-08 2.7946887e-06 1.3495015e-05
5.412896e-06 6.728348e-06 0.00030637262 2.8307209e-06 1.3128502e-05 1.3168582e-05 6.207428e-06 9.750996e-06

exp_avg f4 [8]
00000000: 560c 51b9 732c 4fbb 1e1a 55ba 008e 5bb9
00000010: ec80 95ba f895 e23a 8f8e 8c3b 4ccf 123b
-0.00019936389 -0.0031612187 -0.0008129197 -0.00020938367 -0.001140622 0.0017287126 0.0042894552 0.002240139

exp_avg_sq f4 [8]
00000000: 80bb a838 0ffa f339 3af7 2c38 7181 b438
00000010: 3315 6c38 dcb2 6838 4d3d c639 0c11 a739
8.045789e-05 0.0004653488 4.1238243e-05 8.607179e-05 5.6286528e-05 5.5479686e-05 0.00037811176 0.00031865423

exp_avg f4 [1, 8]
00000000: a6d8 3ebb 9c55 3b3b e203 1b3a f257 e1ba
00000010: 2301 533b fa62 17bb a81b 28bb 7ad4 2cbb
-0.0029120832 0.0028584963 0.00059133593 -0.0017192347 0.0032196722 -0.0023099766 -0.002565125 -0.0026371763

exp_avg_sq f4 [1, 8]
00000000: abaa d43a 09b3 223b 8209 793b 90a7 8d3a
00000010: 0ab5 163b 00ef 613a 7c37 be3a 8157 2e3b
0.001622518 0.0024825952 0.0038000052 0.0010807384 0.0022996091 0.00086186826 0.0014512385 0.002660245
