notebooks/lightning_logs/version_154/checkpoints/epoch=271-step=272.ckpt (torch, 25091 bytes, 36 tensors)

front_linear.weight f4 [8, 2]
0.038138308 -0.6936146 -0.11370072 0.46196347 -0.7769442 0.30787805 -0.6091711 -0.16470364
0.33269155 0.09929058 0.6499255 0.6906146 0.042623177 -0.24197325 -0.08796 0.06069157
00000000: ea36 1c3d ba90 31bf ecdb e8bd 7a86 ec3e
00000010: d1e5 46bf 31a2 9d3e a3f2 1bbf 12a8 28be
00000020: 8c56 aa3e dc58 cb3d 8461 263f 1ecc 303f
00000030: a495 2e3d d6c7 77be 5f24 b4bd b997 783d

front_linear.bias f4 [8]
-0.005091518 0.0807234 0.3309119 -0.21421823 -0.28929836 -0.022717241 -0.259685 -0.23025407
00000000: c0d6 a6bb 4f52 a53d 496d a93e 065c 5bbe
00000010: ea1e 94be 8219 babc 6ff5 84be b9c7 6bbe

transformer_encoder.layers.0.self_attn.query_mat.weight f4 [8, 8]
-0.80085033 -0.975978 0.7380507 -0.3588119 0.7521895 -0.22544456 0.3488845 -0.692672
0.46997246 1.1021205 -1.0866407 0.045303185 -0.87985873 0.29503104 -0.2839449 0.16930245
0.63794655 1.0710099 -1.2673529 0.88251936 -0.64181703 0.8026349 -0.4524721 0.21867341
0.10972887 0.8768018 -0.32474732 -0.5591071 -0.69102395 0.95340306 -0.114647016 0.5259573
0.559858 1.091535 -0.83436024 -0.015240843 -0.2154144 0.36922085 -0.8241733 0.43265495
0.23922601 0.96635634 -0.41065484 0.42389286 -0.16812922 0.17631729 -0.4674571 0.11889006
0.33648074 0.7705602 -0.564957 0.2397005 -0.7723188 0.16528721 -0.95740616 0.90619105
0.590274 1.0034865 -0.9766469 0.009924136 -1.34436 0.20291358 -0.21528158 0.3791288
00000000: 8704 4dbf b2d9 79bf e4f0 3c3f 31b6 b7be
00000010: 7e8f 403f f0da 66be fda0 b23e f452 31bf
00000020: 3ba0 f03e 4912 8d3f 0b17 8bbf d58f 393d
00000030: 6c3e 61bf 4f0e 973e 3a61 91be 9f5d 2d3e
00000040: 7750 233f da16 893f 9f38 a2bf caec 613f
00000050: 1f4e 24bf 7b79 4d3f 6caa e7be eceb 5f3e
00000060: 88b9 e03d 1576 603f 4845 a6be a521 0fbf
00000070: f2e6 30bf 3912 743f 0ecc eabd 23a5 063f
00000080: db52 0f3f 6bb7 8b3f a298 55bf bbb4 79bc
00000090: 9895 5cbe 840a bd3e 05fd 52bf f384 dd3e
000000a0: aaf7 743e 2163 773f 5a41 d2be 7c08 d93e
000000b0: 112a 2cbe 858c 343e 8956 efbe a27c f33d
000000c0: 3447 ac3e 6f43 453f 06a1 10bf 0c74 753e
000000d0: afb6 45bf 0d41 293e 9218 75bf 23fc 673f
000000e0: 321c 173f 3f72 803f 8805 7abf d898 223c
000000f0: fd13 acbf 94c8 4f3e c672 5cbe 2c1d c23e

transformer_encoder.layers.0.self_attn.key_mat.weight f4 [8, 8]
-0.18905205 -0.1573082 0.24459565 1.1371499 0.44155425 -0.2805085 0.017343663 -0.28755525
-0.38860682 -0.53492445 0.46883792 0.59139174 0.3302841 -0.57762545 -0.8269158 -0.72269845
0.3376576 -1.0261269 -0.4351267 -0.08584144 0.42719275 -0.93335015 0.91855985 -0.025930814
-0.1658525 0.99419206 0.100005105 0.8232269 -0.7143311 -0.84883696 -0.107988 -0.6662605
-0.3064379 -0.30738345 0.06548948 -1.1162347 0.29383925 0.5301543 1.1342964 0.9851362
0.22281243 -0.87178564 0.66924846 -0.6762811 0.7413448 0.3170465 1.225885 0.7635479
-0.7349901 1.013039 -0.19271758 -0.0369162 -0.18974715 -0.2535011 -0.8875954 -0.72195613
0.28743786 0.79276025 0.011466247 0.44754544 -0.50980335 -0.09525553 -0.5030539 -0.12630774
00000000: dc96 41be 6715 21be 4877 7a3e 218e 913f
00000010: 6613 e23e cf9e 8fbe 4c14 8e3c 713a 93be
00000020: 79f7 c6be cff0 08bf 860b f03e 7365 173f
00000030: ff1a a93e 43df 13bf c1b0 53bf c402 39bf
00000040: 75e1 ac3e 2058 83bf edc8 debe a3cd afbd
00000050: 02b9 da3e 09f0 6ebf bd26 6b3f dc6c d4bc
00000060: 3dd5 29be 5f83 7e3f 7acf cc3d 00bf 523f
00000070: 67de 36bf 614d 59bf d028 ddbd 0c90 2abf
00000080: 6ee5 9cbe 5d61 9dbe 591f 863d c7e0 8ebf
00000090: 1972 963e 31b8 073f a030 913f e331 7c3f
000000a0: f128 643e 582d 5fbf de53 2b3f c220 2dbf
000000b0: c6c8 3d3f eb53 a23e cde9 9c3f e077 433f
000000c0: 5028 3cbf 43ab 813f c257 45be 7135 17bd
000000d0: 144d 42be e5ca 81be 7439 63bf 1ed2 38bf
000000e0: 0e2b 933e 56f2 4a3f eddc 3b3c ad24 e53e
000000f0: 7982 02bf 5515 c3bd 24c8 00bf d156 01be

transformer_encoder.layers.0.self_attn.value_mat.weight f4 [8, 8]
-0.7191237 0.47774485 0.15827176 -0.3399802 -0.32319918 0.5655953 0.115978114 0.33055845
0.015608855 0.2707032 0.1538868 -0.6305882 0.07149204 -0.20248657 0.10359288 -0.1595659
-0.08435583 0.3188385 0.7270973 -0.33463016 0.38031343 -0.27696842 0.01087636 -0.2818644
-0.6547185 0.6506139 -0.26229182 0.0527556 0.012205444 0.39987764 -0.4419553 0.27074546
-0.07133819 -0.49676663 0.3590865 0.58265305 0.16022487 -0.35293245 0.4351439 0.36670923
-0.23288435 -0.45553955 0.6494913 -0.40204903 0.27374846 -0.60153633 0.36124778 0.0975614
-0.021254763 0.25568697 -0.17201681 -0.2076727 -0.20756024 -0.49539605 -0.0306284 -0.10611844
0.59380776 0.5696104 0.69141126 0.023076266 -0.7611755 0.48944318 0.2609769 -0.30851063
00000000: 7e18 38bf f99a f43e fe11 223e e311 aebe
00000010: 5d7a a5be dbca 103f ef85 ed3d f53e a93e
00000020: 48bc 7f3c 9c99 8a3e 8094 1d3e 3a6e 21bf
00000030: 6b6a 923d a458 4fbe 8128 d43d 3e65 23be
00000040: c0c2 acbd cd3e a33e 0c23 3a3f a554 abbe
00000050: 71b8 c23e cece 8dbe c332 323c 8850 90be
00000060: a29b 27bf a28e 263f 1d4b 86be 4216 583d
00000070: 58f9 473c c3bc cc3e f747 e2be 269f 8a3e
00000080: c219 92bd 3258 febe 30da b73e c028 153f
00000090: fd11 243e 90b3 b4be 2ecb de3e 50c1 bb3e
000000a0: 3c79 6ebe 7b3c e9be 1045 263f 5fd9 cdbe
000000b0: c228 8c3e 49fe 19bf 78f5 b83e 45ce c73d
000000c0: 781e aebc 67e9 823e 2d25 30be 27a8 54be
000000d0: ac8a 54be 8da4 fdbe 69e8 fabc a054 d9bd
000000e0: c903 183f fdd1 113f 5400 313f 700a bd3c
000000f0: 66dc 42bf 4c98 fa3e c49e 853e 1bf5 9dbe

transformer_encoder.layers.0.self_attn.o_proj.weight f4 [8, 8]
0.4666788 -0.42164212 0.32009467 0.30022562 0.4018698 -0.36096615 -0.84661365 0.32335448
-0.024088874 0.04258626 -0.029365696 -0.44461828 0.19532582 -0.7576804 -0.059104312 0.1005605
0.9016328 0.2487704 0.072510175 0.7466801 0.076056734 0.039677538 0.066675656 0.30166894
0.37594503 0.14121336 0.06587409 -0.20592204 0.70023805 0.18008265 -0.070179045 0.48457322
-0.4184282 0.5223052 0.3784489 -0.55646384 -0.39863953 -0.3305125 -0.20654961 0.17977503
-0.42896178 -0.14083509 0.46930605 0.05475595 0.12661421 -0.20376627 0.71902144 0.44073993
-0.35732558 -0.47744977 -9.7079435e-05 0.04126927 0.16053937 0.07107714 -0.18702142 -0.57566124
0.39325675 0.0004605801 -0.20997916 0.7247415 0.5359483 -0.27981582 -0.10890407 -0.008402996
00000000: 86f0 ee3e 7ae1 d7be 73e3 a33e 2cb7 993e
00000010: e1c1 cd3e 8ed0 b8be acbb 58bf b88e a53e
00000020: 0856 c5bc ee6e 2e3d 5490 f0bc 02a5 e3be
00000030: 7e03 483e 58f7 41bf 5d17 72bd aaf2 cd3d
00000040: 68d1 663f abbd 7e3e 3780 943d 6d26 3f3f
00000050: a2c3 9b3d ea84 223d 3f8d 883d 5a74 9a3e
00000060: de7b c03e 3c9a 103e ffe8 863d 3add 52be
00000070: cd42 333f 9667 383e 08ba 8fbd fb19 f83e
00000080: 393c d6be cbb5 053f 0ec4 c13e 6a74 0ebf
00000090: 7b1a ccbe ef38 a9be be81 53be f216 383e
000000a0: e1a0 dbbe 1337 10be e248 f03e c647 603d
000000b0: 28a7 013e 1ba8 50be ca11 383f aaa8 e13e
000000c0: 61f3 b6be 4c74 f4be 2097 cbb8 f709 293d
000000d0: 6f64 243e e490 913d 8b82 3fbe 895e 13bf
000000e0: f358 c93e 047a f139 c704 57be a988 393f
000000f0: e833 093f 0544 8fbe 1909 dfbd b8ac 09bc

transformer_encoder.layers.0.self_attn.o_proj.bias f4 [8]
-0.21401834 -0.2983879 0.08502966 -0.10316403 0.3961178 -0.24738486 0.24730071 0.08060294
00000000: a027 5bbe 4dc6 98be 0824 ae3d aa47 d3bd
00000010: f4cf ca3e 7552 7dbe 663c 7d3e 2713 a53d

transformer_encoder.layers.0.linear_net.0.weight f4 [16, 8]
-0.98599905 0.23280635 0.06787349 0.10416596 0.5890145 1.2076052 0.15067394 0.018943876
0.016483568 -0.9936831 -0.37313923 -0.37855095 0.7509543 0.09812884 0.573545 0.5722845
-0.4544423 -0.745548 0.30220023 -0.22772776 0.41208118 0.4778432 0.4400587 0.51718533
0.72110796 -0.13411267 -0.56578976 -0.19084601 -0.74575454 -0.5123962 0.021588262 -0.031138098
0.65790534 0.56758195 -0.48583114 0.5346498 -0.37238163 0.635779 -0.7642485 -0.39755863
0.090260044 -0.24027134 -0.19676787 0.22168328 0.16147524 0.27605242 -0.02715846 0.2472825
0.81601787 -0.036331803 -0.8838961 0.07084789 -0.39648485 -0.32925734 0.1360734 0.43137968
0.3079681 0.113112405 0.28653976 0.22130553 -0.29382426 0.15606299 -0.59588534 0.16129905
0.43418846 -0.25746408 -0.6834109 -0.36910123 -0.4719683 -0.2431969 0.4528686 0.56907266
1.0218955 0.20982349 -0.6145132 0.17738087 -0.8391923 0.15232101 0.06533625 0.4342334
0.4324594 0.76114714 -0.32664698 0.37446824 -0.16701101 0.44912395 -0.23814318 -0.6540228
-0.6153465 -0.3651097 0.68188965 0.56062907 0.39290765 0.055153407 -0.14725158 0.15399405
0.090493545 0.71300113 0.30530998 1.0889218 -0.0559303 1.1854765 -1.2672424 -0.24454598
-0.62146604 -0.49237305 0.07633221 0.24924688 0.1801364 0.13305077 0.2166558 0.19508079
0.46157822 0.21685423 -0.8191118 -0.049306534 -0.8019834 0.09467815 0.052065738 -0.28361827
0.5633994 0.09126139 -0.028071815 -0.40604687 -0.20402674 -0.23572823 -0.020342117 0.039424233
00000000: 6f6a 7cbf ca64 6e3e 4201 8b3d f654 d53d
00000010: a7c9 163f cf92 9a3f 454a 1a3e 3030 9b3c
00000020: 8c08 873c 0462 7ebf 1b0c bfbe 6ed1 c1be
00000030: 8a3e 403f c6f7 c83d d8d3 123f 3d81 123f
00000040: a9ac e8be 3cdc 3ebf fdb9 9a3e 7731 69be
00000050: 4efc d23e dda7 f43e 604f e13e 4266 043f
00000060: 889a 383f d554 09be 99d7 10bf 236d 43be
00000070: c5e9 3ebf 662c 03bf ded9 b03c 5315 ffbc
00000080: 7c6c 283f 0d4d 113f dcbe f8be cfde 083f
00000090: cea8 bebe 6ac2 223f caa5 43bf ce8c cbbe
000000a0: 42da b83d b109 76be 847d 49be f100 633e
000000b0: c459 253e be56 8d3e 6b7b debc a037 7d3e
000000c0: 8ce6 503f a8d0 14bd 0447 62bf b318 913d
000000d0: 1000 cbbe 6b94 a8be d356 0b3e ccdd dc3e
000000e0: ffad 9d3e 7aa7 e73d 57b5 923e eb9d 623e
000000f0: 2270 96be face 1f3e f18b 18bf 942b 253e
00000100: f34d de3e 55d2 83be 04f4 2ebf d6fa bcbe
00000110: d4a5 f1be 9c08 79be 65de e73e bfae 113f
00000120: 79cd 823f f8db 563e bd50 1dbf 55a3 353e
00000130: 4ed5 56bf 0afa 1b3e 03cf 853d d753 de3e
00000140: 526b dd3e 8ada 423f 463e a7be 4dba bf3e
00000150: ef04 2bbe 93f3 e53e cedb 73be 0a6e 27bf
00000160: 5987 1dbf a9ef babe 5290 2e3f 6385 0f3f
00000170: 312b c93e 8ae8 613d 1ec9 16be 9eb0 1d3e
00000180: ae54 b93d 3e87 363f 9751 9c3e ca61 8b3f
00000190: 2c17 65bd b2bd 973f 0035 a2bf 436a 7abe
000001a0: 6618 1fbf 5218 fcbe 1054 9c3d 933a 7f3e
000001b0: ad75 383e 763e 083e 05db 5d3e 42c3 473e
000001c0: fb53 ec3e 090f 5e3e 50b1 51bf a6f5 49bd
000001d0: c94e 4dbf 9ee6 c13d e242 553d 6a36 91be
000001e0: f13a 103f 40e7 ba3d ddf6 e5bc 60e5 cfbe
000001f0: 63ec 50be be62 71be 83a4 a6bc 4e7b 213d

transformer_encoder.layers.0.linear_net.0.bias f4 [16]
-0.95869285 -0.28014833 -0.753813 -0.4844441 -0.7738236 -0.25239772 -0.30000138 -0.80360454
-0.31147012 -0.9648087 -0.017070876 -0.11835787 -0.030359237 -1.0277343 -0.46496525 -0.6851976
00000000: e56c 75bf 9a6f 8fbe e4f9 40bf 0f09 f8be
00000010: 4e19 46bf 463a 81be c899 99be 07b9 4dbf
00000020: 0379 9fbe b4fd 76bf 39d8 8bbc 9c65 f2bd
00000030: efb3 f8bc cc8c 83bf ed0f eebe 1c69 2fbf

transformer_encoder.layers.0.linear_net.3.weight f4 [8, 16]
-0.44969824 0.02054626 -0.32376245 -0.52284545 0.3093933 -0.06574389 -0.59161067 -0.13884133
-0.0137642855 -0.4502325 0.18997818 -0.14246283 -0.071644515 -0.55746084 -0.6529913 -0.007426459
-0.3117794 0.38929555 0.41612545 -0.30012125 -0.3167978 -0.19117638 -0.6567343 0.1512498
-0.18132356 -0.4819595 -0.6115007 -0.18349859 -0.1814944 -0.3525591 -0.5658101 0.36513403
0.5497808 -0.013104786 0.5160247 0.07033785 -0.39157736 0.16611564 0.48277724 -0.14650804
0.22616577 0.22872718 0.20332761 0.5031726 -0.1018428 0.2409718 0.66229147 0.2163193
-0.33314794 0.35367894 0.5985236 -0.5596273 -0.7263659 -0.17456922 -0.43210357 0.23737372
-0.31209704 -0.055254657 -0.6169005 0.038843274 0.10686756 -0.647876 -0.33590084 0.6745924
0.76035273 -0.015868071 0.35874763 -0.121357724 -0.31406635 0.1595197 -0.33523574 0.10524439
-0.7567922 -0.5849747 0.5772271 1.2840669 -0.84962064 0.6236295 -0.47833368 0.54646605
-0.37369853 0.4886618 0.26024216 -0.3461243 -0.7312492 0.15509811 -0.1871519 0.09963802
-0.18232442 -0.41132388 -0.43256146 0.08108019 -0.14793186 -0.3814961 -0.48762643 0.51616025
0.20235135 -0.6397431 -0.5308485 0.3405456 0.7150898 0.09288117 0.37728357 -0.20343834
0.25096098 0.431811 1.1216383 0.43434954 0.21575554 0.37405995 0.569369 -0.6242896
0.36725137 -0.5809422 0.11547619 0.69528633 -0.6245191 -0.031280607 0.53973156 -0.22165522
0.10904974 0.24057248 0.14579087 0.09320554 0.18536323 0.40989593 0.4987928 -0.4791344
00000000: d93e e6be a150 a83c 31c4 a5be 33d9 05bf
00000010: cc68 9e3e bca4 86bd cc73 17bf 6c2c 0ebe
00000020: 9983 61bc e084 e6be a489 423e c7e1 11be
00000030: 5cba 92bd c1b5 0ebf 702a 27bf a759 f3bb
00000040: 8da1 9fbe bf51 c73e 650e d53e 7ea9 99be
00000050: 5233 a2be bec3 43be bd1f 28bf 3ae1 1a3e
00000060: e2ac 39be 65c3 f6be 4f8b 1cbf 0ee7 3bbe
00000070: abd9 39be a082 b4be eed8 10bf d9f2 ba3e
00000080: 6fbe 0c3f 75b5 56bc 321a 043f 4a0d 903d
00000090: d47c c8be 381a 2a3e 942e f73e 3406 16be
000000a0: 0098 673e 7537 6a3e 1d35 503e ebcf 003f
000000b0: f592 d0bd 50c1 763e ef8b 293f ce82 5d3e
000000c0: 5e92 aabe 6815 b53e d838 193f bc43 0fbf
000000d0: 1ef3 39bf 46c2 32be ae3c ddbe 1912 733e
000000e0: 2fcb 9fbe b552 62bd 31ed 1dbf 201a 1f3d
000000f0: 61dd da3d 34db 25bf 32fb abbe 16b2 2c3f
00000100: 7aa6 423f c2fd 81bc c5ad b73e 668a f8bd
00000110: 4ecd a0be 2259 233e 05a4 abbe 5f8a d73d
00000120: 22bd 41bf e7c0 15bf 28c5 133f 4e5c a43f
00000130: bd80 59bf 2fa6 1f3f 27e8 f4be 33e5 0b3f
00000140: 6a55 bfbe e131 fa3e 763e 853e 3437 b1be
00000150: 2633 3bbf 0ad2 1e3e bfa4 3fbe 050f cc3d
00000160: 41b3 3abe 0b99 d2be b278 ddbe 5f0d a63d
00000170: 737b 17be 7553 c3be 2caa f9be 1423 043f
00000180: 3135 4f3e 34c6 23bf b0e5 07bf fe5b ae3e
00000190: 2010 373f 7c38 be3d 502b c13e 2452 50be
000001a0: f57d 803e 5516 dd3e d891 8f3f 1063 de3e
000001b0: 05ef 5c3e c984 bf3e 2bc2 113f 71d1 1fbf
000001c0: 5f08 bc3e a1b8 14bf c87e ec3d 49fe 313f
000001d0: 7ce0 1fbf 1820 00bd d92b 0a3f 96f9 62be
000001e0: 7855 df3d a258 763e 344a 153e 8ce2 be3d
000001f0: dccf 3d3e e1dd d13e c561 ff3e 1b51 f5be

transformer_encoder.layers.0.linear_net.3.bias f4 [8]
0.15047608 -0.11584574 0.088005744 -0.22102998 -0.317941 -0.044966962 0.1805053 0.38406274
00000000: 6716 1a3e 8840 edbd 5b3c b43d af55 62be
00000010: 2ac9 a2be 472f 38bd 62d6 383e dfa3 c43e

final_linear.weight f4 [1, 8]
0.17856485 -0.030323694 -0.0034796959 0.13359551 -0.2857172 -0.00269623 -0.12978002 -0.00022036675
00000000: b4d9 363e 6569 f8bc 9c0b 64bb 43cd 083e
00000010: 8649 92be 3cb3 30bb 0ee5 04be 4012 67b9

exp_avg f4 [8, 2]
-0.0011631099 -0.001558177 0.00011354496 -0.0001626914 0.00053964934 0.00074243586 0.00023778473 0.00018693764
0.00073906797 0.0011631785 0.00069376716 0.00072470435 6.002321e-05 0.00021574383 1.680761e-05 -2.2879487e-05
00000000: 7e73 98ba bf3b ccba fc1e ee38 2498 2ab9
00000010: 4177 0d3a 07a0 423a da55 7939 b104 4439
00000020: 03be 413a cb75 983a eddd 353a 16fa 3d3a
00000030: 6ec1 7b38 4b39 6239 11fe 8c37 53ed bfb7

exp_avg_sq f4 [8, 2]
1.2289163e-05 1.349997e-05 2.2672813e-05 2.2791233e-05 2.7500448e-06 2.7979165e-06 7.914588e-06 8.058573e-06
5.5286746e-06 6.461982e-06 6.728239e-06 8.87966e-06 5.320631e-06 4.487741e-06 1.1317809e-05 9.804042e-06
00000000: 8e2d 4e37 ee7d 6237 7f31 be37 cd2f bf37
00000010: 698d 3836 d7c3 3b36 e6c8 0437 4f33 0737
00000020: f482 b936 01d4 d836 22c3 e136 d9f9 1437
00000030: df87 b236 6795 9636 9fe1 3d37 0a7c 2437

exp_avg f4 [8]
-0.0028347957 -0.00022330691 0.0012501027 0.00014885205 0.0020843134 0.001443324 0.00048284122 1.8791641e-05
00000000: fbc7 39bb 7e27 6ab9 7cda a33a 2b15 1c39
00000010: fa98 083b eb2d bd3a da25 fd39 bea2 9d37

exp_avg_sq f4 [8]
4.482392e-05 7.557699e-05 9.384244e-06 2.6724598e-05 2.155049e-05 2.9361192e-05 1.49533635e-05 3.2685828e-05
00000000: 5101 3c38 167f 9e38 0571 1d37 a32e e037
00000010: 53c7 b437 ae4c f637 35e0 7a37 2418 0938

exp_avg f4 [8, 8]
-2.623093e-05 1.9947658e-05 5.5798708e-05 4.8438096e-06 -1.5976111e-05 -1.0602497e-06 -1.9441419e-05 -8.1700655e-06
2.8324143e-06 -2.2278277e-06 -6.5702916e-06 -4.3884185e-07 2.0796863e-06 3.1877966e-07 2.3657042e-06 1.1206574e-06
2.9575278e-06 -2.3031232e-06 -6.54693e-06 -4.3194035e-07 2.0074833e-06 1.6637543e-07 2.358202e-06 1.0674743e-06
6.128351e-06 -4.3785017e-06 -8.050722e-06 4.13704e-06 2.292057e-06 -5.092143e-06 5.2887203e-06 2.9973455e-06
6.0812076e-06 -4.35516e-06 -8.056913e-06 4.2371225e-06 2.3427917e-06 -5.0949743e-06 5.3362064e-06 3.0729366e-06
5.939069e-06 -4.299921e-06 -8.307568e-06 3.676048e-06 2.4509889e-06 -4.51242e-06 5.1644174e-06 2.8945221e-06
4.8995043e-06 -3.6067665e-06 -7.711099e-06 2.456246e-06 2.351998e-06 -2.9881064e-06 4.2979977e-06 2.3846985e-06
6.808299e-06 -4.827066e-06 -8.11358e-06 5.433218e-06 2.3035952e-06 -6.5341114e-06 5.9741647e-06 3.4888913e-06
00000000: 7e0a dcb7 4555 a737 6809 6a38 0288 a236
00000010: 7004 86b7 e74d 8eb5 2116 a3b7 2a12 09b7
00000020: 8214 3e36 ca81 15b6 6076 dcb6 f799 ebb4
00000030: bd90 0b36 be24 ab34 7dc2 1e36 7f69 9635
00000040: f179 4636 5b8f 1ab6 b3ad dbb6 6ee5 e7b4
00000050: 4db8 0636 eea4 3234 9a41 1e36 2346 8f35
00000060: 22a2 cd36 0beb 92b6 9611 07b7 e7d0 8a36
00000070: 3dd1 1936 2ddd aab6 c375 b136 0126 4936
00000080: 2d0d cc36 8a22 92b6 2e2c 07b7 9b2c 8e36
00000090: db38 1d36 7ff5 aab6 aa0d b336 a638 4e36
000000a0: 3748 c736 0a48 90b6 bc60 0bb7 06b2 7636
000000b0: ab7b 2436 6569 97b6 024a ad36 833f 4236
000000c0: 6c66 a436 c70b 72b6 eb5e 01b7 fcd5 2436
000000d0: 05d7 1d36 4787 48b6 8537 9036 cf08 2036
000000e0: d872 e436 2ef8 a1b6 901f 08b7 fd4e b636
000000f0: 7797 1a36 973f dbb6 af75 c836 b222 6a36

exp_avg_sq f4 [8, 8]
8.229471e-06 2.3168157e-07 4.1596068e-05 2.8634774e-06 3.2829826e-06 8.5255115e-06 3.356134e-07 1.728884e-06
8.379832e-08 5.2670845e-09 4.2854631e-07 4.944336e-08 3.557914e-08 8.9742244e-08 6.5023733e-09 1.8019499e-08
4.3983473e-08 1.8022488e-09 2.2362502e-07 2.0580934e-08 1.8241979e-08 4.680021e-08 2.3878535e-09 9.44727e-09
1.4807921e-07 7.615928e-09 7.6635075e-07 6.448786e-08 5.8791027e-08 1.5619364e-07 8.8178655e-09 3.129102e-08
1.455334e-07 6.6272454e-09 7.486822e-07 6.310702e-08 5.7870587e-08 1.5375166e-07 8.318511e-09 3.0949934e-08
1.4769277e-07 7.2301884e-09 7.6550265e-07 5.7012695e-08 5.8484336e-08 1.5485988e-07 8.104693e-09 3.1236244e-08
1.4759452e-07 6.0190706e-09 7.6250416e-07 5.4581488e-08 5.7865872e-08 1.5483879e-07 7.233402e-09 3.116439e-08
7.489569e-08 5.57386e-09 3.8675805e-07 4.830592e-08 3.1281505e-08 8.0578054e-08 6.6594903e-09 1.604519e-08
00000000: 4f11 0a37 25c4 7834 7077 2e38 2b2a 4036
00000010: 3651 5c36 cb08 0f37 5b2e b434 000c e835
00000020: 9df4 b333 c4f9 b431 f512 e634 8d5b 5433
00000030: aecf 1833 52b8 c033 7b6b df31 4cc9 9a32
00000040: 57e8 3c33 feb2 f730 941d 7034 f4c9 b032
00000050: 89b2 9c32 6001 4933 9017 2431 884d 2232
00000060: b4ff 1e34 35d7 0232 39b7 4d35 937c 8a33
00000070: 6b81 7c33 2eb6 2734 627d 1732 d764 0633
00000080: eb43 1c34 deb5 e331 0df9 4835 7385 8733
00000090: 628d 7833 ef16 2534 33e9 0e32 d0ed 0433
000000a0: 7b95 1e34 696d f831 f17c 4d35 1fde 7433
000000b0: 3530 7b33 8f47 2634 d13c 0b32 9d28 0633
000000c0: 797a 1e34 4ed0 ce31 e3ae 4c35 fb6c 6a33
000000d0: 3388 7833 c341 2634 ad89 f831 9cd9 0533
000000e0: 57d6 a033 3184 bf31 9fa3 cf34 ec78 4f33
000000f0: 615a 0633 410a ad33 7fd1 e431 bfd3 8932

exp_avg f4 [8, 8]
-2.4839044e-05 1.3614152e-05 -4.718227e-06 -3.9100236e-05 9.474467e-06 5.0530925e-05 -1.5173935e-05 -1.2023995e-05
-2.6540558e-05 1.6601574e-05 1.093585e-05 -3.197376e-05 1.6159321e-06 4.1115312e-05 -1.9099807e-05 -1.2581219e-05
-4.1002436e-06 2.3377572e-06 3.94253e-07 -4.9538403e-06 1.2277056e-06 6.9473176e-06 -2.2442e-06 -1.5662791e-06
-2.1572183e-05 1.1272197e-05 -7.874257e-06 -3.611499e-05 1.0415995e-05 4.6798177e-05 -1.22799765e-05 -1.0443864e-05
5.221956e-05 -3.0364308e-05 -6.164728e-06 6.8504436e-05 -1.299619e-05 -9.099417e-05 3.2107586e-05 2.3082353e-05
1.2003558e-05 -6.8080744e-06 5.649458e-07 1.7973265e-05 -3.6459303e-06 -2.3093691e-05 7.661112e-06 5.846954e-06
2.7358288e-07 1.3199167e-06 1.3134887e-05 9.717349e-06 -6.271731e-06 -1.1870122e-05 -1.0939572e-06 8.8955875e-07
-2.4077484e-05 1.4399598e-05 4.647676e-06 -3.112411e-05 4.607424e-06 4.090883e-05 -1.5604877e-05 -1.0882885e-05
00000000: 715d d0b7 5668 6437 4351 9eb6 8fff 23b8
00000010: 87f4 1e37 2bf1 5338 8e93 7eb7 aaba 49b7
00000020: 6aa3 deb7 9c43 8b37 1e79 3737 901b 06b8
00000030: 01e3 d835 3b73 2c38 8638 a0b7 ed13 53b7
00000040: d394 89b6 5de2 1c36 b8a9 d334 2a39 a6b6
00000050: a5c7 a435 011d e936 109b 16b6 f138 d2b5
00000060: e9f5 b4b7 b81d 3d37 ad1b 04b7 2d7a 17b8
00000070: 5cc0 2e37 2949 4438 1906 4eb7 0e38 2fb7
00000080: 5306 5b38 dbb6 feb7 9cda ceb6 0aaa 8f38
00000090: 360a 5ab7 1fd4 beb8 42ab 0638 faa0 c137
000000a0: e462 4937 ea70 e4b6 c8a6 1735 4bc5 9637
000000b0: 9bac 74b6 53b9 c1b7 3a88 0037 f430 c436
000000c0: f2e0 9234 fe27 b135 e95d 5c37 b207 2337
000000d0: c271 d2b6 c925 47b7 15d4 92b5 03ca 6e35
000000e0: 01fa c9b7 cd95 7137 3cf3 9b36 428b 02b8
000000f0: 7999 9a36 8695 2b38 38e7 82b7 a395 36b7

exp_avg_sq f4 [8, 8]
1.09739595e-07 5.808573e-08 7.079149e-07 8.569329e-08 7.461746e-08 1.10149934e-07 3.0648824e-08 2.312853e-08
6.0485776e-09 3.1725507e-09 2.7462374e-08 1.5497852e-08 3.05534e-09 1.1451957e-08 4.2789354e-09 2.528645e-09
5.2453637e-09 3.2570817e-08 9.631554e-08 8.30454e-08 1.7996433e-08 8.4225835e-09 2.1321107e-08 1.5780892e-09
6.369674e-08 1.453641e-07 7.282284e-07 1.8605161e-07 9.562197e-08 5.576249e-08 7.350103e-08 9.964588e-09
6.517765e-08 4.656326e-08 4.1967857e-07 1.0071013e-07 4.647616e-08 8.4629725e-08 3.0720113e-08 1.6275006e-08
9.771495e-08 1.5197759e-07 9.377044e-07 1.9981995e-07 1.13332085e-07 8.856406e-08 7.55556e-08 1.623269e-08
1.0324715e-08 3.2555814e-08 1.3620355e-07 6.0819744e-08 1.961562e-08 1.0486656e-08 1.870448e-08 1.8707773e-09
3.651915e-09 7.634041e-09 3.276284e-08 2.8933457e-08 3.981845e-09 5.976328e-09 7.4296764e-09 5.9678755e-09
00000000: fba9 eb33 ef79 7933 8b07 3e35 6206 b833
00000010: 623d a033 918b ec33 bda2 0333 2dac c632
00000020: dad3 cf31 1a04 5a31 66e6 eb32 2320 8532
00000030: 1cf6 5131 3dbe 4432 ea05 9331 65c4 2d31
00000040: b53a b431 fee3 0b33 07d6 ce33 b156 b233
00000050: 9396 9a32 eab2 1032 9c25 b732 14e4 d830
00000060: a7c9 8833 6115 1c34 797b 4335 7ac5 4734
00000070: bc58 cd33 827f 6f33 9ed7 9d33 b930 2b32
00000080: cbf7 8b33 d9fc 4733 2f50 e134 fb45 d833
00000090: 149d 4733 afbd b533 1ff1 0333 1ecd 8b32
000000a0: 5dd7 d133 482f 2334 8eb6 7b35 178e 5634
000000b0: f960 f333 9b30 be33 2141 a233 1070 8b32
000000c0: 9460 3132 7fd3 0b33 593f 1234 029c 8233
000000d0: 347f a832 cd28 3432 96ab a032 108f 0031
000000e0: 2bf5 7a31 de26 0332 20b7 0c33 5889 f832
000000f0: aed0 8831 5658 cd31 2048 ff31 fd0d cd31

exp_avg f4 [8, 8]
-1.0100124e-05 4.5312786e-06 -1.0234463e-05 -3.202478e-05 6.6615994e-06 3.3377513e-05 -8.896351e-06 -1.1484505e-05
-1.7443072e-05 7.211506e-06 -2.1727186e-05 -5.9422553e-05 1.3420215e-05 6.185087e-05 -1.5504136e-05 -2.088151e-05
-7.4766003e-06 3.8462435e-06 -1.7512808e-06 -1.1965094e-05 3.677887e-06 1.5399535e-05 -3.838378e-06 -3.822267e-06
-4.3569548e-07 -2.5931413e-06 -2.1104119e-05 -3.2016695e-05 9.086685e-06 2.799216e-05 -3.2302044e-06 -1.1471205e-05
-8.716438e-05 5.1597082e-05 1.9557927e-05 -0.000113473834 1.6538153e-05 0.00014704869 -5.6923804e-05 -4.137263e-05
-4.2077238e-05 2.4423374e-05 4.6285313e-06 -6.0637045e-05 9.895529e-06 7.6516626e-05 -2.7894366e-05 -2.1696971e-05
-8.227349e-05 4.5806675e-05 -7.5842013e-06 -0.00014953454 2.4417872e-05 0.0001746303 -6.0524915e-05 -5.4600234e-05
-3.257296e-05 1.6911301e-05 -1.3508369e-05 -7.5045355e-05 1.3723897e-05 8.282576e-05 -2.5775133e-05 -2.7235337e-05
00000000: b473 29b7 630b 9836 afb4 2bb7 5852 06b8
00000010: b486 df36 d5fe 0b38 8941 15b7 93ad 40b7
00000020: b652 92b7 5dfa f136 c742 b6b7 7b3c 79b8
00000030: 6227 6137 efb5 8138 e10e 82b7 b42a afb7
00000040: 82df fab6 fb0e 8136 8d0d ebb5 b0bd 48b7
00000050: 9ed1 7636 402e 8137 6acb 80b6 0641 80b6
00000060: 88e9 e9b4 d405 2eb6 c008 b1b7 aa49 06b8
00000070: 0473 1837 b5d0 ea37 7dc6 58b6 7374 40b7
00000080: 05cc b6b8 f269 5838 5410 a437 cdf8 edb8
00000090: 6abb 8a37 1531 1a39 78c1 6eb8 8687 2db8
000000a0: 177c 30b8 cce0 cc37 c84e 9b36 8854 7eb8
000000b0: f904 2637 8d77 a038 b2fe e9b7 e401 b6b7
000000c0: 3e8a acb8 8b20 4038 cb7b feb6 5fcc 1cb9
000000d0: fbd4 cc37 f71c 3739 22dc 7db8 8e02 65b8
000000e0: f39e 08b8 bedc 8d37 01a2 62b7 ab61 9db8
000000f0: b03f 6637 beb2 ad38 ad37 d8b7 7177 e4b7

exp_avg_sq f4 [8, 8]
2.707282e-07 5.115622e-07 2.8134016e-06 7.3310696e-07 3.5588894e-07 2.5134543e-07 2.6622675e-07 5.707679e-08
6.792782e-07 4.939611e-07 4.8209968e-06 8.301738e-07 4.8290065e-07 7.2934154e-07 2.7715157e-07 1.5347021e-07
5.4569885e-08 1.5300448e-07 5.288845e-07 6.927594e-07 9.4705605e-08 1.07889264e-07 1.2783353e-07 1.7548285e-08
3.7032552e-07 2.0995529e-07 2.5845595e-06 3.0918582e-07 2.360269e-07 3.632736e-07 1.0549457e-07 8.3527866e-08
4.033979e-07 2.2615912e-07 2.421477e-06 9.903673e-07 2.5634677e-07 5.2033414e-07 1.8534476e-07 1.0204504e-07
6.7131674e-07 7.729807e-07 5.195157e-06 2.208807e-06 6.394068e-07 7.8884597e-07 5.059626e-07 1.4735379e-07
5.473625e-07 2.1657581e-07 3.2517848e-06 5.154787e-07 2.8917373e-07 6.4506924e-07 1.5401564e-07 1.3821064e-07
5.236727e-07 1.4441557e-07 3.0739807e-06 2.857296e-07 2.7116312e-07 5.4118635e-07 8.1960465e-08 1.12389046e-07
00000000: 9a58 9134 4952 0935 dfcd 3c36 baca 4435
00000010: 0111 bf34 a7f0 8634 eded 8e34 9824 7533
00000020: a457 3635 c098 0435 0cc4 a136 1cd9 5e35
00000030: aea0 0135 f8c7 4335 6ccb 9434 92c9 2434
00000040: 3960 6a33 8d49 2434 abf8 0d35 10f6 3935
00000050: f560 cb33 c0b0 e733 9d42 0934 16bd 9632
00000060: 27d1 c634 1270 6134 6572 2d36 2dfe a534
00000070: 956e 7d34 f207 c334 418c e233 ee5f b333
00000080: 9692 d834 25d6 7234 a880 2236 c3ec 8435
00000090: 08a0 8934 17ad 0b35 2e03 4734 db23 db33
000000a0: 8934 3435 d47e 4f35 0f52 ae36 043b 1436
000000b0: b3a3 2b35 15c1 5335 7cd1 0735 4d38 1e34
000000c0: 77ee 1235 e88b 6834 3d39 5a36 6d5f 0a35
000000d0: bc3f 9b34 d228 2d35 7f5f 2534 0d67 1434
000000e0: 8492 0c35 a610 1b34 964a 4e36 6166 9934
000000f0: 6094 9134 0b46 1135 3e02 b033 885a f133

exp_avg f4 [8, 8]
-0.0001039585 -6.148736e-05 -0.000116919044 -0.00010316517 -7.324117e-05 -7.699827e-05 -3.9433988e-05 -5.308023e-05
3.0784104e-05 3.1522566e-05 2.1106302e-05 1.718259e-05 8.944618e-06 2.2421324e-05 9.944669e-06 1.4328244e-05
2.8215289e-05 1.5086595e-05 3.3698598e-05 2.9283061e-05 2.071281e-05 1.9194944e-05 9.582797e-06 1.0558128e-05
-3.7684436e-05 -3.4859862e-05 -3.9990016e-05 -4.112915e-05 -4.010686e-05 -4.049137e-05 -3.8192287e-05 -4.1568237e-05
8.9262176e-05 5.663665e-05 0.00010149497 9.213954e-05 7.0256836e-05 7.133556e-05 4.39929e-05 5.4359065e-05
1.6618496e-05 -5.5841833e-06 1.6572963e-05 5.357771e-06 -1.5023234e-05 -4.485921e-06 -3.1737873e-05 -2.1261969e-05
5.8262594e-05 4.414283e-05 6.670494e-05 6.5239954e-05 5.922199e-05 5.5969278e-05 4.826197e-05 5.3529227e-05
-2.123595e-05 -2.5249725e-05 -1.6783559e-05 -1.6366334e-05 -1.4704363e-05 -2.0687503e-05 -1.7606033e-05 -1.798773e-05
00000000: 4b04 dab8 c6f2 80b8 6f32 f5b8 615a d8b8
00000010: 0e99 99b8 227a a1b8 ec65 25b8 77a2 5eb8
00000020: 2e1e 0138 1937 0438 700d b137 5523 9037
00000030: d710 1637 6d15 bc37 07d8 2637 5763 7037
00000040: dfaf ec37 6f1c 7d37 9857 0d38 e5a4 f537
00000050: 6cc0 ad37 d404 a137 cdc5 2037 d122 3137
00000060: 5b0f 1eb8 7e36 12b8 f4ba 27b8 1782 2cb8
00000070: 6a38 28b8 47d5 29b8 a830 20b8 8e59 2eb8
00000080: 4432 bb38 248d 6d38 b2d9 d438 0a3b c138
00000090: da56 9338 fd99 9538 0485 3838 9aff 6338
000000a0: f367 8b37 c55f bbb6 2b06 8b37 e7c6 b336
000000b0: 4c0c 7cb7 c585 96b6 481e 05b8 bb5b b2b7
000000c0: fc5e 7438 0126 3938 f1e3 8b38 6fd1 8838
000000d0: 2165 7838 8ec0 6a38 e56c 4a38 9284 6038
000000e0: db23 b2b7 5fcf d3b7 6bca 8cb7 6f4a 89b7
000000f0: c2b2 76b7 138a adb7 abb0 93b7 5be4 96b7

exp_avg_sq f4 [8, 8]
1.4696315e-07 1.4943139e-07 1.4900913e-07 1.502723e-07 1.5064158e-07 1.485214e-07 1.503878e-07 1.4887934e-07
2.0135552e-07 1.9987388e-07 1.9948946e-07 1.982719e-07 1.9901238e-07 1.9940386e-07 1.9910289e-07 1.9952513e-07
4.108127e-07 4.1380784e-07 4.1400594e-07 4.1548083e-07 4.1620603e-07 4.1384268e-07 4.160198e-07 4.148249e-07
2.0758705e-07 2.072885e-07 2.0728712e-07 2.0700739e-07 2.0777657e-07 2.0698779e-07 2.0761271e-07 2.0748442e-07
1.8232872e-06 1.8275804e-06 1.827566e-06 1.8299608e-06 1.8309161e-06 1.8269828e-06 1.8293797e-06 1.8271932e-06
2.2440105e-07 2.2460395e-07 2.2396745e-07 2.2467286e-07 2.2433852e-07 2.2462052e-07 2.2437034e-07 2.2433119e-07
1.8779731e-06 1.8874044e-06 1.8942486e-06 1.8984603e-06 1.8993109e-06 1.8902023e-06 1.8966668e-06 1.8928549e-06
1.7392493e-06 1.7465368e-06 1.7517913e-06 1.7545892e-06 1.7545314e-06 1.7501358e-06 1.7528941e-06 1.7505591e-06
00000000: eccc 1d34 6373 2034 51ff 1f34 895a 2134
00000010: 0bc0 2134 4079 1f34 497a 2134 a4db 1f34
00000020: 2f34 5834 ea9c 5634 3f33 5634 91e4 5434
00000030: 1bb0 5534 b71b 5634 fcc8 5534 0d3d 5634
00000040: ab8d dc34 5129 de34 8b44 de34 400f df34
00000050: ec72 df34 1b2e de34 5359 df34 1ab5 de34
00000060: 18e5 5e34 0793 5e34 a692 5e34 c245 5e34
00000070: 3019 5f34 5f40 5e34 26ec 5e34 e2c8 5e34
00000080: acb7 f435 2f4b f535 b14a f535 f99c f535
00000090: ccbd f535 a736 f535 0289 f535 e13d f535
000000a0: e4f2 7034 aa2a 7134 b47b 7034 9b3d 7134
000000b0: b4e1 7034 382f 7134 73ea 7034 b0df 7034
000000c0: aa0e fc35 b952 fd35 e33d fe35 99ce fe35
000000d0: d3eb fe35 dbb2 fd35 fa90 fe35 000e fe35
000000e0: 2770 e935 8c6a ea35 171f eb35 3a7f eb35
000000f0: 3d7d eb35 35e6 ea35 fc44 eb35 c1f4 ea35

exp_avg f4 [8]
-0.0027127475 -0.00024593537 0.0009786724 -2.794955e-07 0.0021151768 0.0017226549 0.0005409721 0.0002715184
00000000: 5ac8 31bb e3f0 80b9 cc46 803a 920d 96b4
00000010: c79e 0a3b b5ca e13a 06d0 0d3a 955a 8e39

exp_avg_sq f4 [8]
1.5562822e-05 2.0858062e-05 1.066831e-05 8.476033e-06 1.5367485e-05 7.03212e-06 5.0272547e-06 2.6238991e-05
00000000: e88c 8237 59f8 ae37 0bfc 3237 4934 0e37
00000010: 6ce9 8037 73f5 eb36 caaf a836 ce1b dc37

exp_avg f4 [16, 8]
-0.0009789127 -2.0028148e-05 0.00058359694 -0.00076339353 0.00058126677 0.00073794165 -0.00010144051 -0.00014910355
0.00013523414 -1.4769742e-05 -9.259544e-05 5.4002456e-05 -7.779235e-05 -0.00012155011 1.2897818e-05 5.1962497e-06
-0.000119937635 1.7916044e-06 1.8438284e-05 -0.0001497199 8.56551e-05 8.35756e-05 -1.9778133e-06 -3.9283685e-05
-2.049017e-15 3.444588e-16 4.8234164e-15 -2.7249266e-15 1.5845062e-16 4.6972117e-16 1.3684402e-15 7.5203016e-16
-1.2280581e-16 -1.0038567e-16 2.3351462e-16 -6.508512e-17 1.2849911e-16 -5.5834e-17 8.512425e-17 2.1508914e-17
0.0 0.0 0.0 0.0 0.0 0.0 0.0 0.0
-2.694557e-15 6.039679e-16 6.1558035e-15 -8.6641613e-16 4.9684946e-16 -2.4395593e-17 1.4271777e-15 2.3418746e-16
-4.303221e-15 -5.1511944e-15 8.81917e-15 -3.577709e-15 5.398327e-15 -7.15838e-16 4.22795e-15 1.7586234e-15
-7.3073665e-05 2.2143111e-05 -0.00012144417 -0.00019643751 9.818672e-05 3.6495505e-05 4.5213135e-05 -7.087874e-05
-1.9035736e-15 -1.5832539e-15 4.8666727e-15 -3.483835e-15 2.0777627e-15 1.3976556e-17 1.3200803e-15 4.0542835e-16
-2.9950733e-15 -1.1810929e-15 4.337359e-15 9.3690136e-17 9.760328e-16 -2.4957361e-17 3.31545e-15 2.0397693e-15
-0.00086812495 2.161908e-06 0.000351708 -0.0008832315 0.00052493985 0.0006266514 -8.704534e-05 -0.00019269345
7.649751e-05 4.2304222e-05 -0.0002196488 -5.041198e-05 9.010845e-06 -4.9839196e-05 5.4916236e-05 -4.0374503e-05
-1.1004175e-15 2.545181e-16 1.0664725e-15 -2.568764e-15 6.654237e-17 2.2907953e-16 -1.7605861e-15 -7.4253243e-16
-2.406548e-15 3.9478893e-16 5.4106237e-15 -2.3755371e-15 3.179155e-16 2.6732836e-16 1.5541549e-15 7.5891405e-16
-1.3184546e-15 -9.756476e-16 2.7772465e-15 -7.1594454e-16 1.122988e-15 -3.180187e-16 5.6780324e-16 2.6372373e-16
00000000: dc4e 80ba 1f02 a8b7 87fc 183a 791e 48ba
00000010: 2760 183a 6d72 413a 76bc d4b8 ae58 1cb9
00000020: a3cd 0d39 8fcb 77b7 cc2f c2b8 b280 6238
00000030: 7324 a3b8 b8e8 feb8 b563 5837 725b ae36
00000040: 0787 fbb8 0f77 f035 eaab 9a37 21fe 1cb9
00000050: bba1 b338 4f45 af38 93ba 04b6 89c4 24b8
00000060: b1a5 13a7 2691 c625 2ac8 ad27 065a 44a7
00000070: 5eae 3625 4e63 0726 8836 c526 08c2 5826
00000080: e195 0da5 3e79 e7a4 ad9c 8625 7913 96a4
00000090: 3e26 1425 94be 80a4 7d48 c424 7d62 c623
000000a0: 0000 0000 0000 0000 0000 0000 0000 0000
000000b0: 0000 0000 0000 0000 0000 0000 0000 0000
000000c0: ce29 42a7 f714 2e26 44c9 dd27 3aba 79a6
000000d0: 0535 0f26 7702 e1a3 90ad cd26 f8ff 8625
000000e0: 350a 9ba7 6297 b9a7 3edf 1e28 8be6 80a7
000000f0: c77e c227 8653 4ea6 f553 9827 c071 fd26
00000100: 203f 99b8 f8bf b937 d8af feb8 cbfa 4db9
00000110: 98e9 cd38 c012 1938 3ca3 3d38 bca4 94b8
00000120: bc2a 09a7 c22b e4a6 2257 af27 6a09 7ba7
00000130: f5b7 1527 36e9 8023 5e3e be26 aab6 e925
00000140: 5ad1 57a7 a336 aaa6 1345 9c27 e508 d824
00000150: 41a9 8c26 e730 e6a3 42e7 6e27 1afb 1227
00000160: e192 63ba 4c15 1136 7365 b839 aa88 67ba
00000170: 1e9c 093a dd45 243a 1c8c b6b8 c10d 4ab9
00000180: 4a6d a038 d06f 3138 8751 66b9 7471 53b8
00000190: 492d 1737 6e0a 51b8 dc55 6638 cb57 29b8
000001a0: 3d96 9ea6 3eb8 9225 e4b1 9926 5519 39a7
000001b0: af6f 9924 2c0e 8425 2aba fda6 3905 56a6
000001c0: fa68 2da7 9094 e325 32f0 c227 ed2c 2ba7
000001d0: 0c44 b725 b41a 9a25 32fa df26 f9bd 5a26
000001e0: 6402 bea6 0b9b 8ca6 281f 4827 625b 4ea6
000001f0: f2d6 a126 4753 b7a5 7ca8 2326 c106 9825

exp_avg_sq f4 [16, 8]
2.222749e-06 2.260886e-07 8.244021e-07 3.7050984e-06 1.2391677e-06 1.0030644e-06 6.4755955e-07 5.446835e-07
5.107178e-07 2.60673e-07 8.0630565e-07 1.4004258e-06 5.26633e-07 2.0900828e-07 1.8693785e-07 1.1976532e-07
3.922692e-07 2.022208e-07 8.1881694e-07 2.6132207e-07 1.5438037e-07 8.0764266e-08 5.516354e-07 1.9865183e-07
2.5447955e-06 1.6618417e-06 5.286831e-06 1.3910235e-06 6.346231e-07 1.0913999e-06 4.539574e-06 2.3453324e-06
1.3630087e-09 8.23383e-10 4.950574e-09 3.399582e-10 1.4197084e-09 3.565538e-10 5.751798e-10 3.065165e-11
0.0 0.0 0.0 0.0 0.0 0.0 0.0 0.0
4.0847303e-06 2.7972537e-06 8.5197535e-06 1.5854386e-06 1.0496535e-06 1.8618314e-06 7.418557e-06 3.8307344e-06
2.014554e-06 2.403998e-06 8.874743e-06 1.6665881e-06 2.8178513e-06 1.7407008e-07 1.5654769e-06 2.7781994e-07
6.8298453e-07 9.349245e-07 3.3822935e-06 2.0690484e-06 1.6795653e-07 3.6932767e-07 1.5265682e-06 1.9121467e-06
2.5544446e-07 3.444292e-07 1.361432e-06 6.3219875e-07 3.0758196e-07 4.645684e-08 2.6528215e-07 3.039068e-07
3.6687425e-06 1.805541e-06 5.996669e-06 2.6574451e-08 8.7197316e-07 1.1632932e-06 6.1150895e-06 2.161917e-06
1.9387792e-06 7.174471e-07 2.968835e-06 2.567623e-07 4.4580935e-07 4.7005065e-07 2.7071385e-06 9.664374e-07
1.9176039e-06 2.8422091e-06 1.0888345e-05 3.4721731e-06 2.4388373e-06 1.4560916e-07 2.1115886e-06 2.2276172e-06
4.0052825e-07 1.5413352e-07 6.293607e-07 1.0284689e-07 9.086438e-08 9.128604e-08 5.79825e-07 2.0579637e-07
3.6535068e-06 2.4121532e-06 7.097083e-06 1.2366651e-06 9.509266e-07 1.7223799e-06 6.5862755e-06 3.124315e-06
1.5306316e-07 1.2986621e-07 5.920894e-07 5.079164e-07 1.7546817e-07 5.772128e-08 8.843118e-08 3.3949163e-08
00000000: 892a 1536 c3c2 7234 7b4c 5d35 1ba5 7836
00000010: 7a51 a635 08a1 8635 f4d3 2d35 5d36 1235
00000020: 4318 0935 a0f2 8b34 e770 5835 44f6 bb35
00000030: f25d 0d35 c26b 6034 16b9 4834 d798 0034
00000040: 1199 d234 0822 5934 accc 5b35 d54b 8c34
00000050: c1c3 2534 a070 ad33 1914 1435 004d 5534
00000060: 41c7 2a36 720c df35 8865 b136 34b3 ba35
00000070: f85a 2a35 377c 9235 a552 9836 8164 1d36
00000080: 9b54 bb30 6d54 6230 b619 aa31 dde4 ba2f
00000090: 8c1f c330 7c04 c42f ae1a 1e30 b1ce 062e
000000a0: 0000 0000 0000 0000 0000 0000 0000 0000
000000b0: 0000 0000 0000 0000 0000 0000 0000 0000
000000c0: 910f 8936 74b8 3b36 10f0 0e37 41cb d435
000000d0: d2e1 8c35 0ae4 f935 ebec f836 c289 8036
000000e0: c631 0736 5f54 2136 bbe4 1437 88af df35
000000f0: 511a 3d36 05e8 3a34 601d d235 4827 9534
00000100: 5756 3735 86f7 7a35 5cfb 6236 fbd9 0a36
00000110: 8a57 3434 0248 c634 7ce4 cc35 6e52 0036
00000120: 0524 8934 fde9 b834 73ba b635 5eb4 2935
00000130: be21 a534 d687 4733 1a6c 8e34 a228 a334
00000140: 8434 7636 eb55 f235 ff36 c936 d645 e432
00000150: 8a11 6a35 7322 9c35 3830 cd36 7415 1136
00000160: f91b 0236 9796 4035 323c 4736 24d9 8934
00000170: 9257 ef34 455b fc34 49ac 3536 89b6 8135
00000180: 2fb0 0036 c8bc 3e36 16ad 3637 7b03 6936
00000190: e8aa 2336 be58 1c34 d1b4 0d36 2c7e 1536
000001a0: 2f08 d734 e67f 2534 57f1 2835 addc dc33
000001b0: 3921 c333 0809 c433 45a5 1b35 e0f8 5c34
000001c0: c52e 7536 7ae0 2136 7b23 ee36 7dfb a535
000001d0: 2e43 7f35 862c e735 adff dc36 53ab 5136
000001e0: ae59 2434 5a71 0b34 13f0 1e35 c057 0835
000001f0: 5368 3c34 38e9 7733 8ee7 bd33 80cf 1133

exp_avg f4 [16]
0.0012449806 -9.731292e-05 0.00018319403 6.5658885e-15 1.8645875e-16 0.0 6.4981505e-15 5.079904e-15
0.00013725541 6.400577e-15 3.9958273e-17 0.0012371434 -0.00011090511 4.164757e-15 6.7930865e-15 1.6008611e-15
00000000: 9e2e a33a 7a14 ccb8 c617 4039 a28f ec27
00000010: e9f8 5625 0000 0000 dc1e ea27 d805 b727
00000020: 38ec 0f39 e79a e627 6746 3824 a527 a23a
00000030: ba95 e8b8 1a0d 9627 2abf f427 5ab5 e626

exp_avg_sq f4 [16]
4.4897215e-06 1.5411704e-06 4.086257e-07 3.6670199e-06 3.4208543e-09 0.0 5.903799e-06 4.5009983e-06
4.18287e-06 1.2160906e-06 1.7267363e-06 1.1176509e-06 8.052642e-06 1.8163995e-07 4.7020862e-06 6.451759e-07
00000000: 6aa6 9636 36da ce35 1761 db34 ec16 7636
00000010: 4e14 6b31 0000 0000 3f19 c636 4807 9736
00000020: 945a 8c36 8e38 a335 35c2 e735 3102 9635
00000030: d619 0737 cf08 4334 9dc6 9d36 2630 2d35

exp_avg f4 [8, 16]
-0.0005831441 -2.8070248e-05 -7.798068e-05 3.1860475e-16 -3.031976e-16 0.0 1.0440977e-15 2.0482826e-15
1.3077505e-05 3.3712517e-17 -4.923879e-16 -0.0002389706 -0.00017871115 3.6683383e-15 2.5811015e-15 2.1916177e-15
7.963609e-05 7.6240747e-07 1.0792237e-05 2.0988274e-15 3.2604697e-17 0.0 1.7753686e-15 -3.6128073e-15
-1.84966e-06 8.206511e-16 8.194502e-17 3.172276e-05 2.3481729e-05 1.4418847e-15 3.6921366e-15 -2.149061e-15
4.6268648e-05 3.4302159e-06 6.001128e-06 -3.2503285e-16 2.761238e-16 0.0 -7.934804e-16 -2.5282288e-15
-1.094817e-06 -1.5231291e-16 4.424066e-16 1.8030485e-05 1.5807818e-05 -2.9344652e-15 -1.9182516e-15 -2.1251987e-15
-0.00042732744 -3.1846845e-05 -5.708661e-05 5.8552757e-16 1.6766923e-16 0.0 7.011632e-16 -7.294752e-15
9.146562e-06 -3.6507949e-16 2.25986e-16 -0.00018180533 -0.00013327217 1.8493849e-16 1.6135308e-15 -4.2836184e-15
0.0009220481 3.4193392e-05 0.00012386675 7.9181736e-16 9.628973e-18 0.0 3.0363397e-16 -6.092705e-16
-2.0717776e-05 8.808355e-16 -4.6428036e-17 0.00037655944 0.0002736327 -3.524531e-16 1.1032428e-15 -5.2201497e-16
1.5486663e-05 1.2385002e-05 2.0223156e-06 7.254301e-16 5.81188e-17 0.0 6.0565434e-16 -5.1587195e-15
9.880362e-08 2.4349206e-16 3.1101658e-18 1.3060167e-05 7.2832386e-06 2.8326293e-16 1.8200409e-15 -2.9980388e-15
0.0003915895 7.8701705e-06 5.273601e-05 -1.3553266e-15 -8.306239e-17 0.0 -1.2823218e-15 4.637652e-15
-9.067017e-06 -2.993288e-16 -1.4526251e-16 0.00015645959 0.000117110285 -9.05774e-16 -2.7220543e-15 2.6170485e-15
1.9062742e-05 -9.1913813e-07 2.4461233e-06 -2.8110779e-15 9.655719e-17 0.0 -2.5744819e-15 2.8325282e-15
-5.578127e-07 -1.349839e-15 1.5128349e-16 5.850321e-06 6.140223e-06 -3.0836717e-15 -5.6612137e-15 1.354931e-15
00000000: 23de 18ba 6678 ebb7 8f89 a3b8 c3a9 b725
00000010: 11c8 aea5 0000 0000 6878 9626 2598 1327
00000020: 7567 5b37 b778 1b24 d0eb 0da6 2f94 7ab9
00000030: 6964 3bb9 732a 8427 ebfc 3927 36ec 1d27
00000040: 4d02 a738 3ea8 4c35 4e10 3537 883c 1727
00000050: d55c 1624 0000 0000 8adb ff26 442a 82a7
00000060: d541 f8b5 5d89 6c26 cdf3 bc24 0e0e 0538
00000070: a1fa c437 28cc cf26 f305 8527 2edb 1aa7
00000080: 9510 4238 a932 6636 4c5d c936 625e bba5
00000090: ae2c 9f25 0000 0000 85b4 64a6 972d 36a7
000000a0: a0f1 92b5 d69a 2fa5 b107 ff25 2c40 9737
000000b0: 089b 8437 5473 53a7 7f39 0aa7 ff22 19a7
000000c0: eb0a e0b9 4a93 05b8 4870 6fb8 4fc4 2826
000000d0: 394f 4125 0000 0000 b618 4a26 1b69 03a8
000000e0: 2f74 1937 3974 d2a5 a645 8225 ffa2 3eb9
000000f0: fabe 0bb9 3538 5525 c888 e826 6855 9aa7
00000100: 9ab5 713a e06a 0f38 3ae2 0139 cf39 6426
00000110: 8a9f 3123 0000 0000 7708 af25 3a9c 2fa6
00000120: 16cb adb7 30e2 7d26 8d1c 56a4 f46c c539
00000130: 5c76 8f39 e62c cba5 7afe 9e26 e875 16a6
00000140: 5be9 8137 2ec9 4f37 1eb7 0736 4b17 5126
00000150: 4903 8624 0000 0000 6791 2e26 cadc b9a7
00000160: dd2d d433 165d 8c25 5f7d 6522 fd1c 5b37
00000170: 8b62 f436 3b4a a325 d425 0327 0e08 58a7
00000180: 414e cd39 200a 0437 dc30 5d38 ba52 c3a6
00000190: 6187 bfa4 0000 0000 53cd b8a6 ca16 a727
000001a0: 8b1e 18b7 228d aca5 ed79 27a5 4d0f 2439
000001b0: 1b99 f538 2a89 82a6 0a25 44a7 0694 3c27
000001c0: ede8 9f37 b1ba 76b5 1428 2436 3c8f 4aa7
000001d0: 4ea5 de24 0000 0000 cf82 39a7 ec1a 4c27
000001e0: 99bc 15b5 4588 c2a6 016b 2e25 e04d c436
000001f0: 1d08 ce36 b433 5ea7 7bf7 cba7 2144 c326

exp_avg_sq f4 [8, 16]
1.8530116e-06 2.2719807e-07 6.037524e-07 3.7479936e-06 1.2698177e-08 0.0 3.3135418e-06 1.0814748e-06
2.3555387e-07 1.0928091e-07 1.7402806e-07 6.1284695e-06 1.2276473e-06 3.5436976e-06 5.971738e-06 3.2587823e-07
2.2536929e-07 8.990741e-09 1.4939121e-07 1.4275959e-06 1.5180396e-10 0.0 7.340259e-07 9.724897e-07
2.9885214e-07 8.7304863e-07 5.5277147e-09 7.6653396e-07 7.1034975e-07 4.5676495e-07 3.07497e-06 4.1304386e-07
1.1097221e-06 2.0589535e-08 2.404537e-07 2.4836063e-06 1.0539086e-08 0.0 2.1892215e-06 1.1956353e-06
1.5123769e-07 6.035319e-08 1.2325542e-07 3.944072e-06 1.1337057e-06 2.2645945e-06 3.8316493e-06 3.9819054e-07
7.551701e-08 2.455536e-07 1.0015735e-06 7.003759e-07 3.927448e-09 0.0 2.9111928e-07 4.4795665e-06
3.0195224e-07 5.400052e-07 7.1349318e-09 2.140044e-07 2.3995963e-06 6.7360526e-09 1.3625641e-06 1.8913566e-06
2.1187822e-07 2.9780816e-07 3.8367043e-07 4.0251106e-07 1.3057034e-11 0.0 1.669271e-07 3.04426e-08
1.023953e-07 2.92516e-07 3.5919692e-10 1.4218173e-07 1.316258e-07 3.320089e-08 8.7806706e-07 1.3121491e-08
1.4759239e-08 3.9029807e-08 3.2196237e-07 7.839805e-07 4.7877746e-10 0.0 3.084236e-07 2.0201062e-06
2.279966e-07 6.129375e-07 4.4331927e-10 1.0743538e-07 1.121103e-06 2.1927475e-08 1.6896735e-06 8.6067655e-07
1.5041971e-07 1.6490313e-07 5.191168e-07 9.765921e-07 9.675997e-10 0.0 4.478064e-07 1.7279126e-06
2.7734953e-07 6.7649535e-07 2.1962596e-09 3.7469383e-07 1.0396379e-06 1.8276641e-07 2.0917182e-06 7.384626e-07
1.125095e-06 1.5861314e-08 1.7925102e-07 4.1689623e-06 1.2729983e-09 0.0 2.658935e-06 4.450737e-07
6.5788663e-07 1.7482645e-06 6.428229e-08 3.8003884e-06 7.984098e-07 2.298478e-06 8.377086e-06 1.7925521e-07
00000000: feb4 f835 bbf3 7334 8d11 2235 0a86 7b36
00000010: 2c27 5a32 0000 0000 375e 5e36 3127 9135
00000020: 8eec 7c34 d1ad ea33 78dc 3a34 27a3 cd36
00000030: a4c5 a435 43d0 6d36 d760 c836 5df4 ae34
00000040: 0afd 7134 b275 1a32 5868 2034 d29b bf35
00000050: 04e9 262f 0000 0000 e009 4535 7e86 8235
00000060: ed71 a034 725b 6a35 4bee bd31 d0c3 4d35
00000070: ddae 3e35 4c39 f534 955b 4e36 51c0 dd34
00000080: c3f1 9435 dedc b032 b417 8134 08ac 2636
00000090: 640f 3532 0000 0000 8aea 1236 b779 a035
000000a0: e663 2234 849b 8133 3158 0434 5257 8436
000000b0: d529 9835 70f9 1736 9e91 8036 e4c6 d534
000000c0: ea2b a233 a1d4 8334 ce6d 8635 7701 3c35
000000d0: 33f2 8631 0000 0000 214b 9c34 2f4f 9636
000000e0: 001c a234 e0f4 1035 8627 f531 15c9 6534
000000f0: c008 2136 f272 e731 59e1 b635 85da fd35
00000100: a480 6334 71e2 9f34 43fb cd34 b318 d834
00000110: a7b3 652d 0000 0000 923c 3334 febf 0233
00000120: 69e4 db33 180b 9d34 7978 c52f 9eaa 1834
00000130: 0655 0d34 c498 0e33 4fb4 6b35 ed6c 6132
00000140: d28f 7d32 baa1 2733 2cda ac34 bb72 5235
00000150: f89a 0330 0000 0000 6b95 a534 2991 0736
00000160: 3acf 7434 bf88 2435 a4b7 f32f 3ab7 e633
00000170: ce78 9635 075b bc32 bdc8 e235 3e09 6735
00000180: 0e83 2134 3a10 3134 6f59 0b35 7313 8335
00000190: 63fc 8430 0000 0000 0b6a f034 a0ea e735
000001a0: a1e6 9434 6898 3535 02ed 1631 8729 c934
000001b0: b089 8b35 733e 4434 725f 0c36 c33a 4635
000001c0: f801 9735 663f 8832 2578 4034 1de3 8b36
000001d0: a5f5 ae30 0000 0000 2870 3236 77f2 ee34
000001e0: a099 3035 e9a5 ea35 900b 8a33 2d0a 7f36
000001f0: 4e52 5635 8d3f 1a36 4f8b 0c37 4c79 4034

exp_avg f4 [8]
-0.0005131028 6.386573e-05 4.4522636e-05 -0.0003985315 0.0007830201 3.708648e-05 0.00032266972 1.3729963e-05
00000000: bf81 06ba a7ef 8538 d1bd 3a38 fef1 d0b9
00000010: 9743 4d3a 4e8d 1b38 ff2b a939 be59 6637

exp_avg_sq f4 [8]
7.072953e-06 5.7772427e-06 4.4945855e-06 6.238655e-06 3.192212e-06 4.546682e-06 5.457003e-06 1.2388278e-05
00000000: 3454 ed36 23da c136 32d0 9636 a355 d136
00000010: c939 5636 b38f 9836 4d1b b736 40d7 4f37

exp_avg f4 [1, 8]
0.0035944704 0.0013326083 -0.0041479846 0.0027592464 -0.0043571545 -0.00045609535 -0.0014798279 -0.002143553
00000000: 3591 6b3b eaaa ae3a d1eb 87bb 79d4 343b
00000010: 76c6 8ebb 1520 efb9 c9f6 c1ba da7a 0cbb

exp_avg_sq f4 [1, 8]
0.00011324511 0.0004298142 0.00030702373 0.0002557935 8.113368e-05 0.00023068763 0.0006130312 0.00029203482
00000000: 017e ed38 af58 e139 07f8 a039 061c 8639
00000010: 5026 aa38 bde4 7139 d4b3 203a 401c 9939
