notebooks/lightning_logs/version_118/checkpoints/epoch=99-step=600.ckpt (torch, 25027 bytes, 36 tensors)

front_linear.weight f4 [8, 2]
00000000: 5192 cb3f 380f 443f 9b97 073f 453f 2d40
00000010: dff3 193f ffee ccbf 06ea 4cbe 4bc4 d73f
00000020: 6650 4740 3bcd 60bf 81e8 bfbe 2898 3f40
00000030: 55e8 8fbf 4ac5 e3bf 01ea f8bf d369 d33f
1.5904027 0.7658572 0.52965707 2.7069867 0.6013774 -1.6010436 -0.20011148 1.6856779
3.1142821 -0.87813157 -0.37482074 2.9936619 -1.1242777 -1.7794583 -1.9446412 1.651667

front_linear.bias f4 [8]
00000000: d6e2 16bf 30a2 b7bf 58dd 333f 5497 48bf
00000010: a342 603e d270 b1bf fde5 783f 55e6 13bf
-0.58939874 -1.4346371 0.7025962 -0.7835591 0.2190042 -1.3862555 0.97225934 -0.57773334

transformer_encoder.layers.0.self_attn.query_mat.weight f4 [8, 8]
00000000: 6099 363f 10c4 1a40 7c05 8abe b6d8 ed3e
00000010: 0299 3bbf 6c98 0540 1e30 2ebf bfa7 cb3e
00000020: 1be7 0fbf 35cf 46bf a28c 9ebc e705 a9be
00000030: 43d9 a4bf 2972 8dbf b56d 3c3f 3321 31bb
00000040: 29c6 d4be e8b5 1ebd 886d 453f aaed 74bf
00000050: 5497 7dbe 3feb c53e 46c7 46bf c924 ab3e
00000060: ec23 32bf 27bc d1bf 848b 343f 0284 53bf
00000070: 7b9e 57bf 0105 a5bf 9260 9b3f 82ff 23be
00000080: 2b40 f8bd 78ea 3dbd 662b eebd c329 67be
00000090: 81d8 823e e694 55be 4023 b0be d941 0e3e
000000a0: f09f e2be 6dd3 05be 7338 a03e b45a 6a3e
000000b0: 4776 053f 6cd8 d5be 6377 ae3b e22c 39be
000000c0: 7e5d afbe 4b61 b0be 3dfb 1d3e bc36 833d
000000d0: 160b a0be 77ff dcbe dce2 01bf 63a4 193f
000000e0: 22c3 d5bd 2500 11be ae95 66be c0d1 9cbe
000000f0: 9b5d 0fbf 3910 b8be 2ea4 bf3e 3e70 093e
0.7132778 2.4182167 -0.2695731 0.464544 -0.73280346 2.087428 -0.6804217 0.39776418
-0.56212014 -0.7765992 -0.019354168 -0.33012316 -1.2878803 -1.1050464 0.736049 -0.0027027845
-0.41557434 -0.038747698 0.77120256 -0.95675147 -0.24764758 0.3865604 -0.7764782 0.33426502
-0.6958606 -1.6385545 0.70525384 -0.826233 -0.84226197 -1.2892152 1.2138846 -0.16015437
-0.12121614 -0.046366185 -0.11629371 -0.22574525 0.25555804 -0.20857581 -0.34401894 0.13892306
-0.44262648 -0.13068934 0.31293067 0.22886163 0.521336 -0.4176668 0.0053242906 -0.18083528
-0.34251016 -0.3444923 0.15427871 0.06406924 -0.31258458 -0.43163654 -0.50736785 0.6001646
-0.10437609 -0.14160211 -0.22518036 -0.30628777 -0.56002206 -0.35949877 0.37429947 0.13421723

transformer_encoder.layers.0.self_attn.key_mat.weight f4 [8, 8]
00000000: 50a8 4a3f ea9f 0040 dbf3 c8bd 3cb1 8f3f
00000010: ef2d 173e 5337 1740 467b 23bf 1367 5a3f
00000020: 2098 523e aa44 ae3e 0f7b 563e 3674 313e
00000030: 5d60 bd3f 8c6f 963f 82a6 82bf bde1 fdbe
00000040: 06d7 983e a47e 043f 4aff 043e 2f3a d8bd
00000050: 9deb 913e e226 313e 4bb1 193f b095 073f
00000060: 22b4 8d3d 5553 9c3e 0350 a63d 88a7 b43e
00000070: 519f c93f a307 b3be 677d 7e3f 512a 3fbf
00000080: 0fa2 b3bf 9e9d ecbf c0f0 343f 8d95 07bf
00000090: 3550 a43e a903 18c0 11e9 843f 6f5e dbbe
000000a0: 7cb3 f3be f46b 9dbf cf98 453f ae2f 7fbe
000000b0: 056b 3ebf bef2 7ebf 7681 7f3f 757b 0c3f
000000c0: 067b e0be f968 58be f79f 37bf 6a5b 2fbe
000000d0: 9998 c7be 882b 6cbf 9f95 2bbf 478c 55bf
000000e0: d489 fd3d 84de ed3d dd2d f63d 416d 8f3c
000000f0: afc6 b8bf 22bc 12bf 185c 97be a14f 593f
0.79163074 2.0097604 -0.09812137 1.1225963 0.14763616 2.3627517 -0.63859975 0.8531353
0.20565844 0.34036762 0.2094538 0.17329487 1.4795033 1.1752791 -1.0207064 -0.49586287
0.2985155 0.5175574 0.1298801 -0.10557973 0.2850007 0.17299989 0.6003615 0.5296278
0.06919123 0.30532327 0.0812073 0.35284066 1.5751745 -0.34966764 0.994101 -0.74673945
-1.4033831 -1.8485601 0.70679855 -0.5296257 0.32092443 -2.3752234 1.0383626 -0.42845485
-0.47597873 -1.229857 0.7718629 -0.24920532 -0.7438205 -0.99589145 0.99806917 0.5487588
-0.4384386 -0.21133794 -0.7172846 -0.17124715 -0.3898361 -0.92253923 -0.6702518 -0.8341717
0.12379804 0.11614707 0.120204665 0.017508151 -1.4435633 -0.5731832 -0.2956245 0.8488713

transformer_encoder.layers.0.self_attn.value_mat.weight f4 [8, 8]
00000000: b868 ddbe 4fcf ad3f 2bd7 d3be c4f5 af3e
00000010: 9115 7fbf 18e6 e33f 8055 37bf 1879 0b3f
00000020: 9bc6 9cbe 2cb0 37bf 364e 6c3f 9023 83bf
00000030: 582c c13f 9243 e7bf 7f23 9d3d cc77 9dbf
00000040: e2bd 0d3f 1d67 fc3d 83a8 0d3f 106e 0f3e
00000050: 381b 333f 4785 32bf 2801 34bf c39a b8bf
00000060: 8c38 aebe a488 0a3d f2c2 c43b 1734 f1be
00000070: 79e2 70be cb39 70bf 457e c93e fa86 c63c
00000080: 2d6d 0fbf f616 e7bf 12d6 1d3f e766 60bf
00000090: a806 d13f 007a 0cc0 ab87 483f 52c5 12bf
000000a0: 179e 203f eaa6 e83f e4d2 20bf 2309 643f
000000b0: b930 02bf c33e 2240 116d 77bf 124f a63f
000000c0: 9cfe 7fbf d62d b2bf 6545 87bd 3ec0 80be
000000d0: d238 8d3e 8127 cebf c57c 2b3f ab73 78bf
000000e0: e2ac ba3d b19a e7bf a9b2 eb3e 3a55 58be
000000f0: 9fe2 8f3d 6e4a 31c0 3f72 d53f 2a09 20bf
-0.43243957 1.357889 -0.41375098 0.34367192 -0.9964228 1.7804594 -0.7161484 0.5448165
-0.30620274 -0.7175319 0.9230684 -1.0245228 1.5091658 -1.8067496 0.07672786 -1.2302184
0.55367863 0.12324355 0.55335253 0.1400683 0.6996341 -0.69734615 -0.70314264 -1.442223
-0.34027517 0.033821717 0.0060046846 -0.47110054 -0.23523892 -0.93838185 0.39354149 0.024234284
-0.56025964 -1.8053882 0.6165477 -0.87657017 1.6330156 -2.1949463 0.7833201 -0.57332337
0.62741226 1.8175938 -0.62821794 0.8907644 -0.50855595 2.5350807 -0.966508 1.299288
-0.9999788 -1.3920238 -0.06605033 -0.2514667 0.27582413 -1.6105806 0.6698726 -0.97051495
0.09115006 -1.8094083 0.46034744 -0.21126261 0.070256464 -2.7701678 1.667549 -0.62513983

transformer_encoder.layers.0.self_attn.o_proj.weight f4 [8, 8]
00000000: f5ad d43e 0768 1bbf bcbf ca3c f47f 63be
00000010: b49a 643f a9dd 22bf 97cf 48bf 656e 933e
00000020: 0bc7 02bf a482 703f 753f 79bf 262e 93bf
00000030: e805 f63d 9976 39bf 0624 573d 721b 9b3f
00000040: 6353 a93e 4acf 103f 50d9 57be 4730 7e3e
00000050: 6bfe 19be a5c4 d63e 9320 a2be 34d0 8bbf
00000060: 45cf 193f f4c9 893e 398a 403f 5ded c1be
00000070: 4dac 0a3f 95f0 923f d9e8 413e 0f5b 9ebe
00000080: 5c98 ad3f 6227 75bf 8062 493f d515 20bf
00000090: b9a4 a13f 3112 fcbf 9d96 f0be e05b 413f
000000a0: 1f58 d13c 24a7 443e f8dd 9a3f d471 083e
000000b0: fc2e 1fbe f5b9 dd3e 9a9b 153f 90ac ae3f
000000c0: 2ec4 29bf 4539 b3be 9d3c b03e c90d 5a3f
000000d0: fe47 1fbf dd38 253f 987f cb3d 7510 2abf
000000e0: 5cb9 663e 90a7 d2be 8f4c 6dbe b249 3a3f
000000f0: 0340 683d a83d 31bf fcfa 0fbf b64c 35bf
0.4153897 -0.6070561 0.02474963 -0.22216779 0.8929856 -0.63619477 -0.78441757 0.28795162
-0.51084965 0.9394934 -0.9736245 -1.1498458 0.12012845 -0.7244659 0.05252459 1.2117751
0.33071432 0.565663 -0.21078992 0.24823104 -0.15038459 0.41946903 -0.31665477 -1.0922914
0.60081893 0.2691189 0.7521091 -0.37876406 0.5416916 1.147967 0.1893648 -0.30928847
1.3562121 -0.9576322 0.78665924 -0.62533313 1.2628394 -1.9693052 -0.4698991 0.75530815
0.025554715 0.19204384 1.209899 0.13324672 -0.15545267 0.43305936 0.58440554 1.3646412
-0.6631497 -0.3500463 0.34421244 0.85177284 -0.62219226 0.6453989 0.09936446 -0.6643136
0.22531646 -0.41143465 -0.23173736 0.727687 0.05670167 -0.69234705 -0.56242347 -0.70820177

transformer_encoder.layers.0.self_attn.o_proj.bias f4 [8]
00000000: e188 88be 9697 733e b2cc 2e3f 3fbc 343f
00000010: ceef 953e d864 77bb bb6f 88be eff2 19bf
-0.2666693 0.23788294 0.6828109 0.7059974 0.2928452 -0.0037749317 -0.26647744 -0.6013631

transformer_encoder.layers.0.linear_net.0.weight f4 [16, 8]
00000000: 4b15 823f 051c 69be 23e5 bdbd 5d46 f8be
00000010: 807f 21ba 14aa aabe f27a a93e 7fe1 4c3f
00000020: 7c65 ef3e 4a28 1fbf 3e2e 4fbf 10ab 88bd
00000030: f25b a63d c8d6 41be 2f26 643f 2a83 ba3e
00000040: 4a67 023f 1ecd 1b3d 0d2c 11bf 7949 63bf
00000050: 5290 3abf 2668 32bf e708 34be 3a6f e83e
00000060: 5431 b53e 0615 81be 75ee 27bf b3ac 93bf
00000070: b62c 11bf 6180 39bf 7e4c a6bd 80cd b13e
00000080: 8434 453e 75e4 fabe d8d3 6fbf a40e 96be
00000090: 709f 5e3b cc63 e0be 540e 683d 5178 983f
000000a0: 1516 85bd d521 0440 a0a8 0f3e 277b 8fbd
000000b0: a698 f7bd 1097 40bf d9f1 edbe dcd7 d83e
000000c0: 16ee 9abd 7f32 a3bf 4d26 333f d6d6 13be
000000d0: d2e4 74bf 30ad a8bf 6790 e33e c341 5e3f
000000e0: 8ccf 81bf 22ae 1bbf ab84 01bf 8e65 8abf
000000f0: 373e 633e 0af7 86be 411b 96be 26ec fc3e
00000100: a4cc 213f 7346 873e c065 54bf ccee afbf
00000110: 9daf 77bf b656 c6bd 03aa d03d 6ac6 953f
00000120: 555b 2e3f 5630 cabe 2c53 e23c 25fb 85bf
00000130: c152 38bf 9775 1ebf 3df7 c83f 07db a03f
00000140: 13a9 f93d f377 7bbe 360b 7cbe 31a9 d03d
00000150: 148c 47be 2e33 d3be 6285 243e 5ccb d63f
00000160: 34ab 243f 673b 8dbf 2c39 45be 018e 86bf
00000170: aa53 ebbe 2a9e 54be 799f 4a3f 24cc 6c3f
00000180: 9c88 1d3e 1b1f dcbe abee 0dbf 6e42 69bf
00000190: ff13 f2be 7dd7 623f f8cf ae3e fb4b bc3f
000001a0: 87f5 da3e f1d2 edbe ef41 86c0 38c1 9fbf
000001b0: 653e 9bbf b8a1 f7be 455b 983f f2ef a33f
000001c0: 7ea3 f5bc a034 f43e 1c4f 5cbf 9aac eabf
000001d0: 75e7 a8bf 81cb 49bf 9850 043f 1f3b e83e
000001e0: 08e3 2c3e aa8d 72bf 90d3 5ebf b389 a9bf
000001f0: 3f89 10bf 3325 723f 812a 443e 1ece 0140
1.0162748 -0.22764595 -0.0927222 -0.48491183 -0.00061606616 -0.33332884 0.33101612 0.8003158
0.46757114 -0.6217085 -0.80929935 -0.066732526 0.08123006 -0.18929589 0.89120764 0.36428195
0.50938857 0.038037412 -0.5670784 -0.88783985 -0.72876465 -0.6969017 -0.17581521 0.4539736
0.35389197 -0.25211352 -0.6559823 -1.1537079 -0.5670885 -0.72461516 -0.081200585 0.34727097
0.19258314 -0.49002424 -0.9368262 -0.29308045 0.0033969544 -0.4382614 0.05665429 1.1911718
-0.064983524 2.064565 0.14029169 -0.07005911 -0.12089662 -0.75230503 -0.46473578 0.42352188
-0.075649425 -1.2749785 0.6998032 -0.14437422 -0.9566165 -1.3177853 0.44446108 0.86819094
-1.0141463 -0.6081258 -0.5059306 -1.0812242 0.22191702 -0.2636035 -0.29317668 0.49398917
0.6320288 0.26420936 -0.8296776 -1.374475 -0.9675234 -0.096845075 0.10188677 1.1701176
0.6810811 -0.39490002 0.02762755 -1.0467268 -0.7200127 -0.6189818 1.5700451 1.2566842
0.121904515 -0.24557476 -0.24613652 0.10188521 -0.1948703 -0.41249985 0.16066507 1.678081
0.64323735 -1.1033753 -0.1926009 -1.0512086 -0.45962268 -0.2076346 0.79149586 0.92498994
0.15384144 -0.42992482 -0.55442303 -0.9111699 -0.4728088 0.8861006 0.34143043 1.4710687
0.42765447 -0.46449998 -4.1955485 -1.2480841 -1.2128416 -0.4836557 1.1902853 1.28076
-0.029985186 0.476964 -0.8605821 -1.8333924 -1.3195635 -0.7882615 0.51685476 0.45357606
0.1688348 -0.9474741 -0.8704157 -1.3245147 -0.5645942 0.9458801 0.19156839 2.0282054

transformer_encoder.layers.0.linear_net.0.bias f4 [16]
00000000: 1ab0 31c0 6323 3fbf 8370 bfbf 1e16 b8be
00000010: b7d5 c0bf 02c0 24bf 371e 263f 013e bdbf
00000020: b901 bebf 46dc 10c0 d2c1 d4bf 0af7 03c0
00000030: 0ab7 0bc0 44dc 1ec0 9c37 9bbf c777 9ac0
-2.7763734 -0.7466337 -1.4956211 -0.35954374 -1.506522 -0.6435548 0.64889854 -1.4784547
-1.4844276 -2.2634444 -1.6621649 -2.061953 -2.1830468 -2.482194 -1.2126346 -4.8271213

transformer_encoder.layers.0.linear_net.3.weight f4 [8, 16]
00000000: 318d bbbe 6f3a 20bf d0ae f33e 43ff 74bf
00000010: 6783 333e e525 6fbe 2256 91be 4b85 b3bf
00000020: 3d96 183e 0ed3 82be 365c bf3e 9c02 b4be
00000030: 2e9a 183e f0d3 51bf fb91 86bd 562b b5bf
00000040: 34ac 1c3f 32ce 393d 92dc 7fbe 3cb8 b63e
00000050: 11a6 a93e 28e0 6fbe e480 6f3e 9eb0 8abd
00000060: 4099 ba3e df76 3c3f cdb1 66bf bc5e 8bbe
00000070: ee78 a03f 93e6 a63f 3b12 083e 26f3 a0be
00000080: 03c9 3dbf fbcf 62be efb7 89be f1a6 18bf
00000090: 8645 2cbf 3287 a2be db4f 2f3d 37fe 8b3f
000000a0: a3cf ddbe 2c8a 523f 79c2 b4be e2a9 e93e
000000b0: bfe0 16bf 774f 373e 7045 67bf c716 d43e
000000c0: f278 12be 6dcb 2abf 6650 febc 23e6 eabc
000000d0: cb78 0abf 454f b5be 2862 c73d 3064 8ebe
000000e0: b464 f4be 7276 073f 509b e1be 1978 37bd
000000f0: f9fe 203e 52e6 53be 2a07 29be ebd5 493f
00000100: 800a 81bf f577 c8be e9cc 1cbf 24b2 bc3d
00000110: f277 00bf 30df 4dbf 3b7d fabe 4711 5a3e
00000120: dc8a 27bf 0526 8a3f a88d 30be fdc1 e43e
00000130: 1122 d1be 4034 febe b027 65bf 0ca7 13bf
00000140: 4c28 383f 208a febe c001 e9bd da49 3cbe
00000150: 4b4e 47be 9bd0 113f b71a dbbe 5aa5 2fbf
00000160: be83 4b3d b635 963f e72c 7e3d 390f 56be
00000170: c92b 5b3d eeec 903e 19de fd3e 81ee abbd
00000180: 5af6 253e f6bb 43be 2392 a63e d3ff 473e
00000190: 7c63 143f 8d1e f23e bc91 e8bd 1fd1 96bd
000001a0: 5175 7dbc 6974 6bbf 5ea9 0f3f fd49 e8be
000001b0: 7f08 34be 3b37 013f 5369 313f c188 a13f
000001c0: ca34 b7be c8e4 81bd b960 2c3f 0eb9 52bc
000001d0: 8159 c63c 422b fb3d 56d6 9abd e15e 2fbe
000001e0: 6126 8abe 682f 64be 495f b8bd ab58 20bf
000001f0: b264 ce3d ceca 343d 9ed6 7a3e 30bd 5d3e
-0.36631158 -0.6258916 0.4759431 -0.95702 0.17530595 -0.233543 -0.28386027 -1.4025053
0.14901061 -0.25551647 0.3737504 -0.3515824 0.14902565 -0.81964016 -0.06570812 -1.415385
0.6120026 0.04536266 -0.24986485 0.35687435 0.3313451 -0.23425353 0.23389012 -0.06771968
0.36445045 0.7361888 -0.9011505 -0.27220714 1.2536905 1.3039116 0.13288204 -0.31435508
-0.74134845 -0.22149651 -0.26898143 -0.5962973 -0.67293584 -0.3174377 0.042800765 1.0936955
-0.43322477 0.82242084 -0.3530462 0.45637423 -0.58936685 0.17901407 -0.9034033 0.41423628
-0.1430395 -0.66716653 -0.031044196 -0.02867419 -0.54090565 -0.3541204 0.09735519 -0.27810812
-0.4773308 0.5291511 -0.44063807 -0.04479227 0.15722264 -0.20693329 -0.16506639 0.7884204
-1.0081329 -0.3915402 -0.6125017 0.09213665 -0.5018302 -0.8041868 -0.48923668 0.21295653
-0.6544626 1.0792853 -0.17241538 0.4467925 -0.40846303 -0.4964924 -0.89513683 -0.5767677
0.7193649 -0.49714756 -0.11377287 -0.18387547 -0.1946346 0.5695893 -0.4279382 -0.6861168
0.049686186 1.1735141 0.06205454 -0.20904244 0.053508554 0.28305763 0.4958351 -0.083951004
0.16207257 -0.1911467 0.32533368 0.19531183 0.579643 0.47288933 -0.113559216 -0.073641054
-0.015469865 -0.919745 0.5611781 -0.4536895 -0.17581366 0.504749 0.69301337 1.2619859
-0.35782462 -0.06342465 0.6733509 -0.012861503 0.0242126 0.1226411 -0.075604126 -0.17126037
-0.26982406 -0.22283709 -0.09002549 -0.62635297 0.100778 0.044138722 0.24495932 0.216542

transformer_encoder.layers.0.linear_net.3.bias f4 [8]
00000000: 7a78 603e 865d f53d a765 00bf c153 18bf
00000010: b12a 8abe 7aaf cfbe 3d84 253e fd09 233f
0.21920958 0.11980729 -0.5015511 -0.595028 -0.26985696 -0.40563565 0.16163726 0.63687116

final_linear.weight f4 [1, 8]
00000000: 4023 8cbe a378 083e 58dd 743c a8da 9d3b
00000010: 3460 1abf 5c28 1bbc d897 c33d 8ff9 cfbd
-0.27370644 0.1332727 0.014945351 0.0048173256 -0.60303044 -0.009470072 0.09550446 -0.101550214

exp_avg f4 [8, 2]
00000000: 2488 023a dfb2 a03a 07d4 8339 9646 563a
00000010: 720f 5e39 cb59 103a faa8 03b8 481f a2b8
00000020: 0d38 6db8 d7a9 0a3a eb8c 2e39 4c4a 813a
00000030: abba 6ab9 6211 2aba a949 1038 3405 1c3a
0.0004979393 0.0012260339 0.0002514424 0.000817397 0.00021177324 0.0005506544 -3.1390206e-05 -7.7305885e-05
-5.6557405e-05 0.00052895903 0.00016646429 0.0009864061 -0.00022385518 -0.00064875756 3.4400877e-05 0.0005951703

exp_avg_sq f4 [8, 2]
00000000: 536d 0637 c222 0238 f1e6 d937 bbea bb38
00000010: b06a 8636 5baa 8437 9a7f c236 42f5 b837
00000020: 08a8 e437 fda2 ea38 503c 2438 eb63 0839
00000030: b300 5037 bed1 2f38 54b3 7c37 c7ae 6e38
8.012476e-06 3.1026786e-05 2.5975956e-05 8.960577e-05 4.0059313e-06 1.5814954e-05 5.7965053e-06 2.2048716e-05
2.7257964e-05 0.000111883484 3.9156817e-05 0.00013007193 1.2397929e-05 4.191859e-05 1.5062124e-05 5.6906396e-05

exp_avg f4 [8]
00000000: 0c86 423b 71f5 353b 1d06 693a 05e5 9239
00000010: 4b33 c93a f0e5 623b 0064 06bb baa9 c23a
0.002968195 0.0027764703 0.00088891556 0.00028017923 0.001535037 0.0034621917 -0.0020506382 0.0014851608

exp_avg_sq f4 [8]
00000000: acbd 2439 a5dd d139 ef8c 8f38 2a9e d138
00000010: b731 073a b441 103a de3e 4539 214a 8239
0.00015710917 0.00040028724 6.845022e-05 9.995357e-05 0.00051572494 0.00055029546 0.00018810804 0.00024850763

exp_avg f4 [8, 8]
00000000: b923 a139 ebf1 1f39 2647 1d38 65d0 5438
00000010: 42bf 053a 7cdf f438 248f 8eb9 64b8 1fb9
00000020: 4ac2 0c39 bfac 7539 a2a5 80b8 be7b be38
00000030: 65ed 3c38 2091 4839 48e2 35b9 55fd 2138
00000040: c14f c637 4e3c 9d37 323f 0db6 259d 2837
00000050: ef1a 2b38 5236 a837 67e4 d5b7 ac07 a6b6
00000060: a421 1cb8 0386 1a39 dc5a b1b8 1c3c 8c38
00000070: 91ef 5eb9 4e06 0d39 bdb2 d8b7 b00e 0239
00000080: 0000 0000 0000 0000 0000 0000 0000 0000
00000090: 0000 0000 0000 0000 0000 0000 0000 0000
000000a0: 0000 0000 0000 0000 0000 0000 0000 0000
000000b0: 0000 0000 0000 0000 0000 0000 0000 0000
000000c0: 0000 0000 0000 0000 0000 0000 0000 0000
000000d0: 0000 0000 0000 0000 0000 0000 0000 0000
000000e0: 0000 0000 0000 0000 0000 0000 0000 0000
000000f0: 0000 0000 0000 0000 0000 0000 0000 0000
0.00030734928 0.00015253543 3.749798e-05 5.073882e-05 0.0005102047 0.00011676454 -0.00027191 -0.00015232112
0.00013423819 0.00023429374 -6.134367e-05 9.082955e-05 4.5043784e-05 0.0001912755 -0.00017345801 3.8621325e-05
2.3640578e-05 1.874394e-05 -2.1047422e-06 1.0050168e-05 4.079466e-05 2.0052456e-05 -2.5497937e-05 -4.9480786e-06
-3.722463e-05 0.00014736508 -8.4569416e-05 6.6869165e-05 -0.00021260815 0.00013449157 -2.5832438e-05 0.00012403238
0.0 0.0 0.0 0.0 0.0 0.0 0.0 0.0
0.0 0.0 0.0 0.0 0.0 0.0 0.0 0.0
0.0 0.0 0.0 0.0 0.0 0.0 0.0 0.0
0.0 0.0 0.0 0.0 0.0 0.0 0.0 0.0

exp_avg_sq f4 [8, 8]
00000000: 3541 ee34 57fd 0f35 f30b 0034 7752 6c34
00000010: 3b13 b635 a1d6 4d34 c98d 8c34 4fa2 da34
00000020: 2223 ae34 d6c3 a734 1b6b f733 e6dc 3d34
00000030: 26cc 1436 1098 0a34 fb75 6634 05b5 3035
00000040: a8e3 a333 1349 9f33 e238 d432 640a 0033
00000050: 7d4b 9134 bb07 1133 f2a9 3b33 ea80 f333
00000060: 48ff ae34 9a78 fc34 d155 3e34 8bde 8734
00000070: 63d6 6536 0aeb 7434 845c 2534 6977 8235
00000080: 0000 0000 0000 0000 0000 0000 0000 0000
00000090: 0000 0000 0000 0000 0000 0000 0000 0000
000000a0: 0000 0000 0000 0000 0000 0000 0000 0000
000000b0: 0000 0000 0000 0000 0000 0000 0000 0000
000000c0: 0000 0000 0000 0000 0000 0000 0000 0000
000000d0: 0000 0000 0000 0000 0000 0000 0000 0000
000000e0: 0000 0000 0000 0000 0000 0000 0000 0000
000000f0: 0000 0000 0000 0000 0000 0000 0000 0000
4.43784e-07 5.364031e-07 1.1925276e-07 2.2009213e-07 1.3565653e-06 1.9170194e-07 2.6180194e-07 4.072376e-07
3.2435588e-07 3.1248663e-07 1.1521316e-07 1.7682359e-07 2.2172549e-06 1.2907572e-07 2.146334e-07 6.582853e-07
7.6316894e-08 7.4173066e-08 2.4705916e-08 2.9811773e-08 2.706328e-07 3.3767474e-08 4.3693895e-08 1.13390186e-07
3.2595767e-07 4.7026407e-07 1.7726349e-07 2.530763e-07 3.4248449e-06 2.2809778e-07 1.540048e-07 9.720508e-07
0.0 0.0 0.0 0.0 0.0 0.0 0.0 0.0
0.0 0.0 0.0 0.0 0.0 0.0 0.0 0.0
0.0 0.0 0.0 0.0 0.0 0.0 0.0 0.0
0.0 0.0 0.0 0.0 0.0 0.0 0.0 0.0

exp_avg f4 [8, 8]
00000000: 8caa 1d39 eb82 1238 aef2 2538 0f36 aa36
00000010: 67ce 9339 8032 a337 a66a f6b8 aa43 d1b8
00000020: 3523 88b8 dd58 f7b8 f278 0b38 c7f2 47b8
00000030: 7444 bfb7 7f07 cfb8 c4d9 b538 587e b4b7
00000040: 4761 5e36 3f29 f9b2 af4b 9135 ca10 cab4
00000050: 01f5 2336 ea81 f3b5 727a 03b6 b8a3 53b6
00000060: 8be2 feb8 f05f f5b8 a725 3737 d998 33b8
00000070: 8c5a 13b9 ae17 c4b8 bbfa 0339 0c04 ca37
00000080: 8baa 1db9 e882 12b8 adf2 25b8 1f36 aab6
00000090: 65ce 93b9 7432 a3b7 a66a f638 aa43 d138
000000a0: 3323 8838 db58 f738 f178 0bb8 c6f2 4738
000000b0: 8144 bf37 7b07 cf38 c1d9 b5b8 587e b437
000000c0: 4f61 5eb6 4b2c f932 9a4b 91b5 ca10 ca34
000000d0: f4f4 23b6 e981 f335 737a 0336 c2a3 5336
000000e0: 80e2 fe38 f25f f538 af25 37b7 d798 3338
000000f0: 8a5a 1339 ae17 c438 bafa 03b9 1204 cab7
0.0001503622 3.493104e-05 3.956508e-05 5.072688e-06 0.00028191807 1.945463e-05 -0.00011750059 -9.9785e-05
-6.491543e-05 -0.0001179443 3.325282e-05 -4.76714e-05 -2.280085e-05 -9.8719254e-05 8.6713146e-05 -2.1516506e-05
3.31372e-06 -2.9006172e-08 1.0825369e-06 -3.7637648e-07 2.4431504e-06 -1.8142721e-06 -1.9591794e-06 -3.1536747e-06
-0.00012153861 -0.0001170038 1.0916417e-05 -4.2819276e-05 -0.00014052744 -9.350419e-05 0.00012586538 2.4082161e-05
-0.00015036219 -3.493103e-05 -3.9565075e-05 -5.0726953e-06 -0.000281918 -1.9454608e-05 0.00011750059 9.9785e-05
6.491542e-05 0.000117944284 -3.3252818e-05 4.7671398e-05 2.2800874e-05 9.8719225e-05 -8.6713124e-05 2.1516506e-05
-3.313722e-06 2.9007557e-08 -1.0825345e-06 3.7637648e-07 -2.4431474e-06 1.814272e-06 1.9591796e-06 3.153677e-06
0.00012153853 0.000117003816 -1.0916424e-05 4.281927e-05 0.00014052741 9.350419e-05 -0.00012586536 -2.4082172e-05

exp_avg_sq f4 [8, 8]
00000000: 0cb6 1834 c2ea 5634 001a 5133 718d b433
00000010: 478d 2f35 326c 9833 9e73 9933 2851 4734
00000020: 0484 a233 ca9a 9833 7e5f f132 99e6 2f33
00000030: 9791 0b35 0063 0333 1067 5a33 35ef 2034
00000040: 209f 8832 0a22 e332 74ef 0532 ecdd 2932
00000050: b046 ec33 9dfc 4a32 00df fd31 982d 2733
00000060: f48e e433 0e64 a133 fd2a 9032 bf29 dd32
00000070: f5b4 8334 4fbe b232 998a 9f33 1533 b033
00000080: 0bb6 1834 c4ea 5634 001a 5133 718d b433
00000090: 478d 2f35 326c 9833 9e73 9933 2851 4734
000000a0: 0784 a233 ca9a 9833 7e5f f132 98e6 2f33
000000b0: 9791 0b35 0063 0333 1267 5a33 34ef 2034
000000c0: 219f 8832 0c22 e332 74ef 0532 ecdd 2932
000000d0: b146 ec33 9cfc 4a32 00df fd31 982d 2733
000000e0: f58e e433 0f64 a133 002b 9032 bf29 dd32
000000f0: f6b4 8334 50be b232 9a8a 9f33 1533 b033
1.4222331e-07 2.0015707e-07 4.868525e-08 8.407631e-08 6.5398166e-07 7.097732e-08 7.145648e-08 1.8562844e-07
7.5677264e-08 7.1062075e-08 2.8099517e-08 4.095509e-08 5.1993396e-07 3.0590854e-08 5.0850815e-08 1.4988184e-07
1.5904845e-08 2.6441757e-08 7.796064e-09 9.887554e-09 1.10024644e-07 1.1815385e-08 7.3886213e-09 3.8924185e-08
1.06430804e-07 7.5153466e-08 1.6783355e-08 2.574677e-08 2.4532315e-07 2.080847e-08 7.429225e-08 8.2049304e-08
1.422233e-07 2.001571e-07 4.868525e-08 8.407631e-08 6.5398166e-07 7.097732e-08 7.145648e-08 1.8562844e-07
7.5677285e-08 7.1062075e-08 2.8099517e-08 4.0955086e-08 5.1993396e-07 3.0590854e-08 5.0850822e-08 1.4988183e-07
1.5904847e-08 2.644176e-08 7.796064e-09 9.887554e-09 1.1002465e-07 1.1815384e-08 7.3886213e-09 3.8924185e-08
1.0643081e-07 7.515347e-08 1.678336e-08 2.574677e-08 2.4532318e-07 2.0808471e-08 7.429226e-08 8.2049304e-08

exp_avg f4 [8, 8]
00000000: 3781 b939 7117 0d38 29b6 3039 41f0 c4b8
00000010: 65b3 e939 452a f1b8 d779 2eb9 499d 8cb9
00000020: eb80 b6b9 efae 31b7 1297 3bb9 f588 d738
00000030: eb22 dfb9 8dc5 fb38 47c6 2639 b8c4 8039
00000040: 5657 da38 81e4 2237 775f 7538 980d 12b8
00000050: cd7a 5239 06fe 72b8 a4cc 49b8 865a 17b9
00000060: edab ddb6 cdfd 9ab6 9ff9 acb3 b5b6 e4b6
00000070: 2b1c 25b8 5aee cfb6 f221 bc37 5118 8137
00000080: 3a82 d739 4a17 4d39 7fed 8c38 e49b 8b37
00000090: 0323 063a d9b6 aa38 54b8 9fb9 4ddb 5db9
000000a0: 7444 00ba 61ab 57b9 8187 a9b8 2708 fcb7
000000b0: 6616 3fba e1b4 f0b8 3c5d cb39 9660 8a39
000000c0: 73ff ac38 5a4c 0139 6686 90b6 b854 4236
000000d0: 6be9 8db8 54e0 06b4 2500 2ab8 9735 94b8
000000e0: 61f7 3539 6851 0039 6b47 9f37 59d0 a437
000000f0: eb96 8239 48c6 4538 ddbf 15b9 d355 06b9
0.00035382222 3.363885e-05 0.00016852528 -9.390759e-05 0.00044574882 -0.00011499649 -0.00016639322 -0.00026820067
-0.00034809796 -1.0590752e-05 -0.00017889988 0.00010277509 -0.0004255989 0.000120054094 0.00015904858 0.0002456063
0.000104113176 9.709155e-06 5.850146e-05 -3.4821773e-05 0.00020072908 -5.7933874e-05 -4.811272e-05 -0.00014434205
-6.606328e-06 -4.619104e-06 -8.05478e-08 -6.8161994e-06 -3.93653e-05 -6.1968285e-06 2.2427153e-05 1.5389322e-05
0.00041105022 0.00019559 6.719957e-05 1.6642683e-05 0.00051169115 8.14029e-05 -0.00030464178 -0.00021157898
-0.0004893013 -0.00020567841 -8.0837875e-05 -3.0044537e-05 -0.00072894094 -0.00011477783 0.00038788642 0.00026393373
8.24918e-05 0.00012330842 -4.3071805e-06 2.8957566e-06 -6.7668814e-05 -1.2561333e-07 -4.0531293e-05 -7.067172e-05
0.00017353661 0.00012237357 1.8987534e-05 1.9647343e-05 0.00024907975 4.7153124e-05 -0.00014281222 -0.00012811208

exp_avg_sq f4 [8, 8]
00000000: 1d08 c536 8041 9136 71c1 bd35 b1ae af35
00000010: c63c 2336 06ee 1735 ac1a 1936 d65d 9435
00000020: de12 d036 6e17 8c36 1dbd 8a35 e31e cc35
00000030: 28f8 0e36 a99b 4035 a68d 1e36 ccd8 5f35
00000040: 17b1 f135 8fa9 ab35 2898 b534 f9c1 0035
00000050: 458d 0435 7de5 7a34 4949 4935 1f34 a734
00000060: bbda f235 a966 bc35 86e7 6f34 46ab 1c35
00000070: 19bb cd34 8755 6134 d0b0 2a35 69b0 7934
00000080: b4a1 0836 5013 e835 a5c1 a935 7b83 8335
00000090: ac05 7737 9336 f534 e66c ec35 e37b 9236
000000a0: 78e3 0336 aed9 bc35 b37b 8435 9ec0 8e35
000000b0: 9b19 8237 7fa2 0d35 db0c fb35 d008 8f36
000000c0: 714c f734 5bf9 ca34 9a37 c734 45c0 9034
000000d0: 184e 4d36 0c46 1534 3fc8 0435 f0aa 8835
000000e0: 6c76 2235 47c6 1735 58a9 b134 4ae5 9634
000000f0: 617b 5036 9cd1 4d34 dc8d 2f35 4728 7f35
5.872002e-06 4.328962e-06 1.4137896e-06 1.3089358e-06 2.4324268e-06 5.6598253e-07 2.2814302e-06 1.1054169e-06
6.2010795e-06 4.1750527e-06 1.033684e-06 1.5208174e-06 2.1304095e-06 7.175209e-07 2.3626285e-06 8.3389455e-07
1.8007439e-06 1.2789841e-06 3.3824585e-07 4.7965983e-07 4.9379406e-07 2.3366552e-07 7.498498e-07 3.1144097e-07
1.8094064e-06 1.403697e-06 2.2342837e-07 5.8363764e-07 3.8320357e-07 2.0985873e-07 6.358723e-07 2.325411e-07
2.0359703e-06 1.7290968e-06 1.2647839e-06 9.798526e-07 1.4723668e-05 4.5674514e-07 1.7615064e-06 4.3655614e-06
1.9652925e-06 1.4070445e-06 9.870768e-07 1.0635883e-06 1.5509131e-05 5.2763056e-07 1.8704699e-06 4.262758e-06
4.6062954e-07 3.7806862e-07 3.7107094e-07 2.6961985e-07 3.0592837e-06 1.3902189e-07 4.946523e-07 1.0182539e-06
6.052203e-07 5.6540415e-07 3.3092033e-07 2.8106507e-07 3.1066231e-06 1.9168368e-07 6.539901e-07 9.5053514e-07

exp_avg f4 [8, 8]
00000000: 4135 1f39 23d5 b838 0b42 6439 ec50 0bb8
00000010: 56df 2e39 7267 6538 b5ac e638 7dc4 cab8
00000020: 4bff 7b38 17ec b8b8 9d13 9cb7 ea59 1e39
00000030: a2cf 97b8 9543 8c38 2c4d 7ab9 fb47 17b9
00000040: b26b ca38 f91a 2ab9 b3e9 b3b8 40dc bd37
00000050: 673c 2db6 25f6 97b8 450f f4b6 6ff1 5c38
00000060: b2ba fbb8 2a42 3b38 7e0a 45b8 6650 ceb7
00000070: 8529 1cb8 1315 4cb8 9b60 a1b7 0738 2138
00000080: 48ae beb9 36ab 263a e25c 9139 e0a4 85b9
00000090: c4f2 33b9 3bf5 c339 2ecc da38 21d8 6bb9
000000a0: 4cfb 47b9 6521 7039 0a01 0639 d50f d1b7
000000b0: 4915 71b8 ba44 0239 7d96 7537 78b5 b5b8
000000c0: 9678 aa38 ed20 dbb8 4b4d 03b8 70e1 2238
000000d0: decd b238 5738 94b8 b42f 6b36 cc8e 09b5
000000e0: 6c63 0439 140e 48b8 77ae cf34 01d7 94b5
000000f0: 668a 4a38 221e ce36 e5e9 1a38 ae50 5d36
0.0001518326 8.8135035e-05 0.00021768377 -3.3215547e-05 0.00016677132 5.4694196e-05 0.00010999424 -9.6687094e-05
6.0080823e-05 -8.817779e-05 -1.8605782e-05 0.0001510155 -7.238916e-05 6.688308e-05 -0.00023870607 -0.00014427297
9.6521704e-05 -0.00016222511 -8.578915e-05 2.2633118e-05 -2.5814168e-06 -7.246089e-05 -7.2735443e-06 5.267694e-05
-0.000120033874 4.4645894e-05 -4.697823e-05 -2.4594552e-05 -3.7231966e-05 -4.8657017e-05 -1.9237681e-05 3.843757e-05
-0.00036369474 0.000635791 0.00027725758 -0.00025490578 -0.00017161208 0.0003737601 0.000104330815 -0.0002249186
-0.00019071734 0.00022900624 0.00012779623 -2.4922114e-05 -5.74787e-05 0.00012423369 1.4638176e-05 -8.664554e-05
8.1286926e-05 -0.00010448867 -3.130482e-05 3.8833765e-05 8.526047e-05 -7.067684e-05 3.5045496e-06 -5.1244274e-07
0.00012625539 -4.7696827e-05 3.8683694e-07 -1.1089434e-06 4.8289447e-05 6.1427863e-06 3.6934292e-05 3.2978528e-06

exp_avg_sq f4 [8, 8]
00000000: 6d6e 3136 98f8 6435 bc4a 8335 7637 7c35
00000010: f615 2d36 c81a 6035 c774 7e35 beda 6735
00000020: 7a08 df35 da83 f435 bd6d 8835 5258 de35
00000030: 3e38 5836 be09 1436 6cc2 c835 b5ab 1d36
00000040: 0c69 2235 dcee f434 ce96 8e34 9e56 ae34
00000050: 6215 4035 1384 0435 1991 ab34 08ab ea34
00000060: add7 8935 9ea3 0235 360c c334 70bd a234
00000070: c5b8 9235 5993 0335 970c ca34 1464 b534
00000080: ad9b 4936 055f a035 29f7 b835 4c88 c335
00000090: 9c9d 4236 37bf a235 b8e2 a535 8aad b035
000000a0: 052a d435 3725 ff34 23f2 dc34 d3bf 9b34
000000b0: 9787 cc35 e9fe f934 6a52 d534 3656 aa34
000000c0: d24d 0e36 bb03 8335 d371 7735 25f5 5735
000000d0: 7c26 0b36 c06f 8235 f5e9 7135 e116 4a35
000000e0: a5fb fb35 84b1 7335 d224 5735 b831 5635
000000f0: 4cbb ff35 9b68 8335 4ece 5235 69c6 3f35
2.6439332e-06 8.529837e-07 9.782011e-07 9.395802e-07 2.5791792e-06 8.3485475e-07 9.4792307e-07 8.637252e-07
1.6617262e-06 1.821779e-06 1.0164728e-06 1.6565994e-06 3.2219245e-06 2.205939e-06 1.4957745e-06 2.349477e-06
6.0502566e-07 4.5622335e-07 2.6559286e-07 3.2473048e-07 7.155669e-07 4.9366025e-07 3.1956804e-07 4.3710338e-07
1.0270065e-06 4.866687e-07 3.6330465e-07 3.0312685e-07 1.0931623e-06 4.901572e-07 3.7634592e-07 3.3786694e-07
3.004195e-06 1.1948583e-06 1.3781001e-06 1.45683e-06 2.8999993e-06 1.2125591e-06 1.2359442e-06 1.3163528e-06
1.580746e-06 4.752453e-07 4.115437e-07 2.901057e-07 1.5238646e-06 4.6565336e-07 3.9734306e-07 3.1727694e-07
2.1204946e-06 9.761346e-07 9.2180306e-07 8.0450474e-07 2.0735015e-06 9.718278e-07 9.011995e-07 7.528416e-07
1.8774195e-06 9.0782873e-07 8.014732e-07 7.979356e-07 1.9053491e-06 9.790705e-07 7.853131e-07 7.144177e-07

exp_avg f4 [8]
00000000: 9ff7 bb39 8c84 7ab9 65d6 a938 36c1 78b9
00000010: bd59 54b8 7e2d cdb9 9add 3139 e2b0 0a3a
0.00035851912 -0.00023891235 8.098482e-05 -0.000237231 -5.0628314e-05 -0.0003913454 0.00016962588 0.000529064

exp_avg_sq f4 [8]
00000000: 3623 3637 d37c 1337 5585 de35 019a cf35
00000010: 4de0 c037 f33c 0936 4c66 d536 7cb8 bf36
1.08562435e-05 8.790946e-06 1.6579094e-06 1.5467523e-06 2.2992632e-05 2.0450068e-06 6.3598036e-06 5.7137204e-06

exp_avg f4 [16, 8]
00000000: 3607 a439 abca 1bb9 0987 1f38 b924 7839
00000010: 0db1 7b3a 4b86 9338 04aa 96b9 8289 b0b7
00000020: 76af e237 2f99 ce38 3a5c 93b7 3aea 99b7
00000030: c94d 5f38 9c2f e8b7 9cbb 61b8 b985 8a36
00000040: da14 8436 a6b1 41b7 eb48 c636 49de ce35
00000050: 3b6a f636 27e0 65b6 a9b6 9b35 e74c 4535
00000060: d49f 86b6 9ef8 6c35 63b8 dc35 c5ad ca35
00000070: bc2e 18b7 7d72 e1b5 3c9d 2636 4a4d 3435
00000080: 5e1c 77b8 3426 5738 f23d 7ab5 7f61 8eb7
00000090: 896d 0db9 d858 f4b5 5665 e137 daa1 82b7
000000a0: eb52 5238 8ef3 5cb9 957d 3f39 5fb4 e838
000000b0: 0e9f 4d39 66b0 0cb9 88c0 b337 7b66 f538
000000c0: 28d4 2cb8 870d ba39 d434 42b8 fbf9 d1b7
000000d0: 7660 4339 97be a937 d019 61b9 479a cdb8
000000e0: 7c08 60b5 5d9b de35 f23c fdb4 e0d8 8a32
000000f0: e31d e9b5 cbc8 eeb2 84be 8cb3 a0ea a433
00000100: f976 9ab6 5cc7 ae35 b093 b235 c553 8934
00000110: 0739 94b6 3429 9036 d73e 3f36 2054 90b6
00000120: 2b36 20b6 fa2e 02b9 7088 e038 db85 8e38
00000130: 05eb e334 45a6 8fb8 e004 3738 939c 9437
00000140: 471c 2e36 ea2c 3236 257f 45b6 7513 ed36
00000150: 4980 1f37 8054 d0b4 7175 8eb6 7504 b336
00000160: e131 a136 ffdf 10b9 2f21 7a38 4e62 a038
00000170: d0bd 2a38 d600 b634 8e4a 0638 09e8 cf36
00000180: 3a88 a3b5 971c 5834 7fa5 30b4 c574 a334
00000190: f465 f6b5 31f2 8d35 cff7 4235 e918 2ab5
000001a0: de26 91b6 d25b 89b6 c803 0c36 598e 8635
000001b0: fe49 37b6 06c6 d036 c1b5 a436 204f a5b6
000001c0: 13be 1537 0569 9bb8 27ae 4f38 c89f e938
000001d0: 652e bf38 e2d2 4c38 2290 08b8 ddcb f2b8
000001e0: ce77 72b7 aad3 a536 b6f6 0db5 f7f4 9c36
000001f0: 2466 d3b7 8fa3 7236 3b6f 9936 5322 45b6
0.0003128589 -0.00014857452 3.8034315e-05 0.00023664803 0.0009601273 7.03452e-05 -0.000287369 -2.1044867e-05
2.7023005e-05 9.851378e-05 -1.7566712e-05 -1.8348092e-05 5.3239786e-05 -2.7678725e-05 -5.3818905e-05 4.128288e-06
3.936334e-06 -1.1545058e-05 5.9093486e-06 1.541289e-06 7.343738e-06 -3.4254133e-06 1.1601561e-06 7.3500127e-07
-4.0121176e-06 8.8278637e-07 1.6444941e-06 1.5100746e-06 -9.070787e-06 -1.6797127e-06 2.482745e-06 6.7167696e-07
-5.8915808e-05 5.1295574e-05 -9.32224e-07 -1.697312e-05 -0.00013487613 -1.8205274e-06 2.6869278e-05 -1.5572576e-05
5.0145125e-05 -0.00021071566 0.00018261962 0.00011096219 0.00019609576 -0.00013417154 2.1428117e-05 0.00011701599
-4.120558e-05 0.00035486763 -4.6302404e-05 -2.5031148e-05 0.00018632584 2.023512e-05 -0.00021467288 -9.803898e-05
-8.345885e-07 1.6585506e-06 -4.7169266e-07 1.6163938e-08 -1.7368551e-06 -2.7798157e-08 -6.5539126e-08 7.679523e-08
-4.603408e-06 1.3022031e-06 1.3305016e-06 2.557919e-07 -4.4173826e-06 4.296331e-06 2.8497795e-06 -4.301328e-06
-2.3873388e-06 -0.00012415266 0.00010706566 6.79602e-05 4.2453044e-07 -6.8497415e-05 4.363514e-05 1.7715885e-05
2.594448e-06 2.655021e-06 -2.9429295e-06 7.0654155e-06 9.507007e-06 -3.88045e-07 -4.2456018e-06 5.3351346e-06
4.8039806e-06 -0.00013816355 5.963555e-05 7.647705e-05 4.0707935e-05 3.390075e-07 3.2017524e-05 6.196093e-06
-1.2184094e-06 2.0126969e-07 -1.6451484e-07 3.0446077e-07 -1.83581e-06 1.0575806e-06 7.263124e-07 -6.3366184e-07
-4.3258615e-06 -4.0936075e-06 2.0863827e-06 1.0025207e-06 -2.7312194e-06 6.221936e-06 4.90874e-06 -4.9265946e-06
8.925347e-06 -7.4105374e-05 4.9514838e-05 0.00011140067 9.1162314e-05 4.883379e-05 -3.255916e-05 -0.00011577432
-1.4452218e-05 4.942024e-06 -5.2885605e-07 4.67768e-06 -2.5200723e-05 3.6156014e-06 4.5727043e-06 -2.9375267e-06

exp_avg_sq f4 [16, 8]
00000000: 256f 9b33 4f95 4034 662e 0d33 d407 db33
00000010: 33c8 c334 1c12 dd33 1610 cb33 7459 a032
00000020: eac4 0534 f2f1 7b33 7ab3 bd32 714d 7c33
00000030: 0406 1835 4770 4234 079f d832 5869 1e35
00000040: f252 dc34 389c 2135 e625 a534 f87c 6b35
00000050: b21d b535 d7f4 4435 7cd0 b735 bd66 a735
00000060: 1736 d134 e3a9 ce33 d0e6 ed33 141f 8934
00000070: f890 0535 456a 9534 58df 1f34 0aec f633
00000080: a375 3833 042c 0533 9385 b732 ab57 4734
00000090: 95cc bb34 58d7 5f34 cbc7 d433 f3d7 fb32
000000a0: 8b49 ca35 b41c 8035 d3e8 ce34 1641 b934
000000b0: c27c e036 3934 bf34 f09f 4436 67ed f335
000000c0: 1746 6335 49db 9835 5c98 0f35 5b0c 7a35
000000d0: 1aa6 ba35 1ad2 1335 03ed fe34 f360 d634
000000e0: 1ad0 0834 4e13 8333 4d36 8932 6269 be32
000000f0: 8578 d733 4e36 c633 667f 5c32 2516 9f32
00000100: 2b75 cf32 33d2 a832 1d46 ef32 7e5a 9d32
00000110: 4d24 2933 a4cb d632 e70d ac32 3405 d632
00000120: 02ee b335 1eec 2935 e1a9 0334 901a 1434
00000130: 141b 2335 c1d6 d933 2e78 e233 3265 aa33
00000140: 9496 8534 3a6d a934 4e58 3335 3fdf e135
00000150: 7942 c034 b346 4d35 beaf f533 5b2b 9d33
00000160: 05b5 4d34 1d9a ec33 b8e5 e432 d4cd 7c33
00000170: 65b7 dc34 897f 5b34 9c90 b033 36e1 e633
00000180: e8d1 8633 4347 1e33 65d2 b432 6872 3132
00000190: aeb8 2d33 52c7 b331 1889 6932 7664 6b32
000001a0: c0a1 2833 ad9a 3133 7e25 cd31 3ac5 ee33
000001b0: 360c bb33 f47d 2d34 555c f932 e9f3 a233
000001c0: c5dd 7733 089d 5533 19a8 0e33 c096 2d33
000001d0: 7306 8d34 67ac 9d33 d7cd cb32 3d03 1633
000001e0: 8e01 2e34 fd19 1234 efdd 2c32 9fc3 8e32
000001f0: c011 df34 bcb9 ea31 34d5 7433 df67 3732
7.237967e-08 1.7935712e-07 3.287132e-08 1.0199406e-07 3.6467245e-07 1.02944085e-07 9.45585e-08 1.866713e-08
1.2458227e-07 5.866054e-08 2.2084112e-08 5.8743755e-08 5.6633166e-07 1.8108504e-07 2.5218027e-08 5.901288e-07
4.1038544e-07 6.02045e-07 3.076122e-07 8.7726175e-07 1.3494193e-06 7.337198e-07 1.3695239e-06 1.247237e-06
3.896864e-07 9.623525e-08 1.1078157e-07 2.554085e-07 4.975732e-07 2.7830734e-07 1.4889281e-07 1.1498203e-07
4.294783e-08 3.1006508e-08 2.1364746e-08 1.8565213e-07 3.4980317e-07 2.0846835e-07 9.9083614e-08 2.9318448e-08
1.5071577e-06 9.545097e-07 3.8539892e-07 3.4506292e-07 6.690244e-06 3.561452e-07 2.9299372e-06 1.8174004e-06
8.4666084e-07 1.1388703e-06 5.3493363e-07 9.3150237e-07 1.3906422e-06 5.5067505e-07 4.7483636e-07 3.9931146e-07
1.2741694e-07 6.1036744e-08 1.5973592e-08 2.2166834e-08 1.003364e-07 9.2299715e-08 1.28346525e-08 1.8520106e-08
2.4151253e-08 1.9653362e-08 2.7855146e-08 1.8318357e-08 3.9381394e-08 2.5005484e-08 2.0029757e-08 2.4915245e-08
1.3405809e-06 6.3301e-07 1.2262127e-07 1.3793237e-07 6.0761636e-07 1.01439134e-07 1.0545806e-07 7.934649e-08
2.488274e-07 3.1558176e-07 6.6811197e-07 1.682878e-06 3.5811152e-07 7.647133e-07 1.1440669e-07 7.3187685e-08
1.9157967e-07 1.10176394e-07 2.6647157e-08 5.8860522e-08 4.111163e-07 2.0442361e-07 8.221943e-08 1.0751175e-07
6.278043e-08 3.6852054e-08 2.1050434e-08 1.0328769e-08 4.0447667e-08 5.2322457e-09 1.35935565e-08 1.37016425e-08
3.926266e-08 4.13517e-08 5.9705476e-09 1.1118614e-07 8.710087e-08 1.6157702e-07 2.9029403e-08 7.58808e-08
5.7710867e-08 4.9735746e-08 3.3214835e-08 4.0416808e-08 2.626799e-07 7.342242e-08 2.3725915e-08 3.492754e-08
1.6205578e-07 1.3606764e-07 1.00621795e-08 1.6619934e-08 4.1549902e-07 6.831412e-09 5.7004584e-08 1.06756195e-08

exp_avg f4 [16]
00000000: a86a 6939 fc1a 1637 9918 6f35 5080 e934
00000010: 5874 1fb7 b141 0339 c6e5 6d39 69ad 7533
00000020: 4571 c835 55d8 6738 af49 9536 b21b ff37
00000030: 7f40 1d34 6f0c 9435 9a3a a638 0ea5 9a36
0.00022260344 8.9469795e-06 8.907023e-07 4.3492992e-07 -9.504227e-06 0.00012517606 0.00022687679 5.7201223e-08
1.4934127e-06 5.5276167e-05 4.449124e-06 3.0411265e-05 1.4645228e-07 1.1030478e-06 7.926412e-05 4.6087725e-06

exp_avg_sq f4 [16]
00000000: 40c8 7533 6279 2c34 714e f634 60cc 4534
00000010: 01b3 cd33 ff0c 7935 dd36 4b35 f9f5 1234
00000020: feb1 af32 b60f 3034 92d5 0035 318c e133
00000030: 98f4 4632 ea4c 4133 42bb 3933 16e3 4d33
5.7225634e-08 1.6062907e-07 4.5878144e-07 1.8421406e-07 9.578617e-08 9.277864e-07 7.570323e-07 1.3686794e-07
2.0453623e-08 1.6396993e-07 4.79945e-07 1.05028796e-07 1.1580731e-08 4.5006267e-08 4.324398e-08 4.7936815e-08

exp_avg f4 [8, 16]
00000000: fc50 2638 0d9d a237 a419 7435 294e ef36
00000010: 193a eb36 143d d439 d499 063a 12db 3d35
00000020: 44be d835 1234 8537 6aeb 8c37 8bc4 4538
00000030: f1e9 e035 76c7 7335 f6fb 5fb8 97cb 2c37
00000040: 1cb4 2fb7 c3ed 2ab7 5750 2ab5 eb48 49b6
00000050: a8db 84b6 d98d 68b9 0dc8 87b9 9f0e 8fb4
00000060: 7074 a2b5 d713 51b7 e03f 3cb7 e783 e5b7
00000070: 8a89 7fb5 a76e a7b5 d170 c537 dfcf 9cb6
00000080: f35f 03b7 e948 8ab6 e193 8735 7597 9a36
00000090: 149b 3c36 d3e9 e3b8 9f3c 9ab8 ff6c c534
000000a0: 4870 2a36 6421 7e37 4d2d 8f37 7d62 d5b4
000000b0: 3535 0136 4923 2c36 66ed b837 48e5 0337
000000c0: 7ed8 8db6 9c72 d5b5 320e 0534 55ed 3235
000000d0: 0fa5 7434 9d6d d4b7 6493 0937 887f 7c33
000000e0: 748c d034 83f9 2837 963b be36 f997 1836
000000f0: ef7e af34 7888 8134 3c88 dc36 c3fa db35
00000100: 595e ae38 d22b 3538 1f6b c435 bf7b 5237
00000110: d7f0 6037 3720 803a ead4 a43a af3b af35
00000120: 5852 1236 fd59 4738 a344 1538 f1d0 ec38
00000130: de7c 2b36 eded 9234 dd61 02b9 159c 9f37
00000140: e900 0d37 18ec c836 3055 25b5 c35b 42b6
00000150: 9974 b5b5 c85f 3239 8182 1039 94be 6eb4
00000160: b191 ddb5 dc61 a1b6 e5b7 0bb7 2531 f736
00000170: 8ba8 aab5 f5ee 00b6 3084 a0b7 e449 72b6
00000180: 22de cbb7 bb95 07b7 0419 c4b4 8e58 87b6
00000190: c1dc 4ab6 6aec 1bb9 2d5d 63b9 652e dfb4
000001a0: 3e1d 2ab5 0200 8db6 94dc deb6 4719 8fb7
000001b0: d9b0 61b5 0b32 5e32 8650 c337 a974 c8b6
000001c0: 2889 1137 71f5 e536 7854 1cb4 2bc4 2eb5
000001d0: 2b69 4635 ee85 2f39 9059 4639 1a96 1ab3
000001e0: 5923 1ab5 4ba9 8b35 123d f3b5 014c 8a37
000001f0: 8f15 feb4 eb28 22b5 0b9a dcb7 28c2 41b5
3.9652907e-05 1.9385037e-05 9.0934395e-07 7.131854e-06 7.010309e-06 0.00040481298 0.00051346165 7.0726776e-07
1.6148629e-06 1.5879083e-05 1.6798924e-05 4.7151505e-05 1.6757386e-06 9.081481e-07 -5.3402e-05 1.0299401e-05
-1.0472748e-05 -1.0188148e-05 -6.3446845e-07 -2.9993778e-06 -3.959478e-06 -0.00022178087 -0.00025898256 -2.6646464e-07
-1.2103828e-06 -1.246199e-05 -1.1220545e-05 -2.736035e-05 -9.519505e-07 -1.2474674e-06 2.3536764e-05 -4.6733617e-06
-7.830548e-06 -4.1212083e-06 1.0101322e-06 4.6071896e-06 2.810445e-06 -0.00010867757 -7.354584e-05 3.6773415e-07
2.539733e-06 1.5147354e-05 1.7068023e-05 -3.9746e-07 1.9253469e-06 2.5650536e-06 2.2045057e-05 7.861592e-06
-4.2273305e-06 -1.5903092e-06 1.2391754e-07 6.665553e-07 2.2784319e-07 -2.5323412e-05 8.200153e-06 5.878931e-08
3.8845212e-07 1.0071674e-05 5.669378e-06 2.2738225e-06 3.2688646e-07 2.4127417e-07 6.5723707e-06 1.6389753e-06
8.31454e-05 4.3194574e-05 1.4634314e-06 1.2545787e-05 1.3407515e-05 0.0009775226 0.001257566 1.3055886e-06
2.1803626e-06 4.7529105e-05 3.558829e-05 0.00011292275 2.5553668e-06 2.7367733e-07 -0.00012434223 1.9026958e-05
8.404467e-06 5.9879494e-06 -6.1591254e-07 -2.8961665e-06 -1.3519485e-06 0.00017011084 0.00013781527 -2.2234809e-07
-1.6508185e-06 -4.8095662e-06 -8.327862e-06 7.366895e-06 -1.271504e-06 -1.9212578e-06 -1.9135041e-05 -3.610382e-06
-2.4302924e-05 -8.081489e-06 -3.6526046e-07 -4.0336226e-06 -3.0228841e-06 -0.00014870023 -0.00021683118 -4.1570743e-07
-6.337249e-07 -4.2021284e-06 -6.6417942e-06 -1.7058699e-05 -8.407638e-07 1.2933479e-08 2.3283308e-05 -5.9740455e-06
8.674608e-06 6.853305e-06 -1.4559362e-07 -6.5105513e-07 7.391379e-07 0.00016739193 0.00018916116 -3.5992436e-08
-5.742091e-07 1.0405578e-06 -1.8122685e-06 1.6486274e-05 -4.7326873e-07 -6.0409246e-07 -2.6297776e-05 -7.218064e-07

exp_avg_sq f4 [8, 16]
00000000: 96c9 ff33 e40c 9a32 4413 0a36 2e30 c934
00000010: a7fc 9e33 0e1c eb35 7ddd 2a36 0df7 a833
00000020: 96c5 d933 c6a1 9c35 9db0 5135 9e6a b833
00000030: e63a 6633 12b4 be32 e7e5 cf33 21cb 7133
00000040: ca31 6233 f737 3932 a253 4c35 4d39 4734
00000050: a13c 0933 392b ca34 a5f2 7235 5bdf 3233
00000060: a24a 5933 c418 0335 d2f5 9d34 9ab9 0333
00000070: 4aef dc32 9f7c 1632 5bf5 6333 4986 3b32
00000080: b657 b932 543b 9632 c2dc f134 f744 6e33
00000090: 0708 8c32 3bde 8534 60b0 a134 7e30 d631
000000a0: f0c2 e232 b86b 4733 7547 d933 85df 3a32
000000b0: fa8b c831 628b ae31 a942 fe32 ecaf 8132
000000c0: d6ae 9433 ba68 1532 27fe 8435 4d0f 8534
000000d0: af84 5b33 43f4 de33 5966 d235 515d 0232
000000e0: 81f5 a833 bcdd b734 128c 1e34 03b0 0833
000000f0: 734f 8032 1c66 2332 00f3 9733 9ff4 c631
00000100: 3139 7b34 3e1a 7333 c6b5 1536 dc03 a334
00000110: bde8 0a34 ded0 7b36 cd8f 7636 0ea0 9533
00000120: 157b 2234 ef18 5834 4c46 5135 82eb 3b33
00000130: 5413 5f33 0844 1633 552c 4834 69ec 0934
00000140: 6eea 1632 b3e3 ed31 4e7b 0335 30b3 0a33
00000150: 804b d531 59d7 dc33 2c26 8434 e049 dc31
00000160: 4769 0f32 2262 af33 279a 1f33 c445 4631
00000170: d769 a931 1cda 2431 0556 7032 b0ce 2032
00000180: dd4e 8933 bf2d f332 4465 5b35 b4a0 7833
00000190: b85d c032 b8f9 8c35 e4a6 5c35 2703 9c32
000001a0: fb91 0c33 87d5 f833 5674 2b35 bcbe aa32
000001b0: 2f06 9d32 f705 ab32 1632 f132 ca19 c432
000001c0: 7f8f a133 280a 5c33 0019 1c36 395d 0034
000001d0: 17d9 b933 61dd a534 0531 6e35 5ecb 7b33
000001e0: d4d2 8533 0cba 2333 0aa4 fa34 003d 4c32
000001f0: 6f83 bf32 b38e dd32 b069 6633 7087 8e32
1.1911031e-07 1.7933822e-08 2.0574817e-06 3.7474223e-07 7.4034055e-08 1.7517029e-06 2.5460897e-06 7.868048e-08
1.01407906e-07 1.1669988e-06 7.8115573e-07 8.587561e-08 5.3604616e-08 2.2200798e-08 9.6810076e-08 5.629693e-08
5.266501e-08 1.0781142e-08 7.6117624e-07 1.8554165e-07 3.195294e-08 3.765688e-07 9.050512e-07 4.1646995e-08
5.0592128e-08 4.883734e-07 2.9422387e-07 3.0669618e-08 2.5720187e-08 8.759485e-09 5.3075706e-08 1.09153655e-08
2.157672e-08 1.7489278e-08 4.505037e-07 5.5476416e-08 1.6301795e-08 2.4934874e-07 3.0116917e-07 6.2337326e-09
2.639851e-08 4.6431268e-08 1.0117848e-07 1.0877447e-08 5.8366796e-09 5.0799125e-09 2.9599805e-08 1.5097577e-08
6.9235895e-08 8.6967535e-09 9.908734e-07 2.4784313e-07 5.1110586e-08 1.03821115e-07 1.5676006e-06 7.588214e-09
7.8677665e-08 3.424774e-07 1.4765854e-07 3.182505e-08 1.493729e-08 9.511066e-09 7.075687e-08 5.7903686e-09
2.3397003e-07 5.6601714e-08 2.2308536e-06 3.0363924e-07 1.2936921e-07 3.7523491e-06 3.674056e-06 6.967467e-08
1.5132203e-07 2.0125638e-07 7.796086e-07 4.3753523e-08 5.1938812e-08 3.498647e-08 1.864258e-07 1.2845125e-07
8.784452e-09 6.9234942e-09 4.8980735e-07 3.22936e-08 6.2076992e-09 1.028372e-07 2.461469e-07 6.4112413e-09
8.347633e-09 8.166923e-08 3.7160273e-08 2.885245e-09 4.93058e-09 2.3989122e-09 1.3989397e-08 9.360221e-09
6.393905e-08 2.8309726e-08 8.173122e-07 5.788816e-08 2.239436e-08 1.050349e-06 8.2199244e-07 1.8162224e-08
3.272906e-08 1.158724e-07 6.3871755e-07 1.987734e-08 1.8280017e-08 1.9909733e-08 2.8078869e-08 2.282913e-08
7.5232485e-08 5.123198e-08 2.3260363e-06 1.1954843e-07 8.654222e-08 3.089472e-07 8.873324e-07 5.8625453e-08
6.2316445e-08 3.8120604e-08 4.6685483e-07 1.1888233e-08 2.2295096e-08 2.5792678e-08 5.364717e-08 1.6592566e-08

exp_avg f4 [8]
00000000: c4f4 0036 1602 e5b7 8586 53b8 a0f3 d837
00000010: 5b2f 4839 f907 2239 ca00 b5b7 4276 c936
1.9215959e-06 -2.7299899e-05 -5.04316e-05 2.5862653e-05 0.00019091128 0.00015452494 -2.1577249e-05 6.004034e-06

exp_avg_sq f4 [8]
00000000: e5a8 2437 61ff 1236 fba3 a535 f7d9 7f35
00000010: 51ba a537 bf21 6c35 a7df d436 adc3 9f36
9.814486e-06 2.1904345e-06 1.2341183e-06 9.5312083e-07 1.9756293e-05 8.796596e-07 6.344129e-06 4.761349e-06

exp_avg f4 [1, 8]
00000000: e28c d93a 57bc b4b9 aada 0cb8 197d d2b9
00000010: 8802 643b 8389 ddba a7b0 ba38 cc30 8b3a
0.0016597772 -0.000344726 -3.3582248e-05 -0.00040147526 0.0034791548 -0.0016901944 8.902075e-05 0.0010619401

exp_avg_sq f4 [1, 8]
00000000: 4cbf d238 37a1 d038 bc58 3338 edbc db38
00000010: 05aa b939 1635 9b38 4698 1239 2d6e c338
0.00010049212 9.9482415e-05 4.2759566e-05 0.00010477924 0.00035412624 7.400864e-05 0.00013980371 9.3188464e-05
