notebooks/lightning_logs/version_151/checkpoints/epoch=199-step=200.ckpt (torch, 25027 bytes, 36 tensors)

front_linear.weight f4 [8, 2]
00000000: 9c92 903e 3544 b8bf 1b42 d23e 477a 6d3f
00000010: c26a 0cbf ee5d 233e 19cc ffbe 10f3 003f
00000020: a735 013e 9627 90be ea1a 613f 7081 0cbe
00000030: 4b3d fbbe 0877 09c0 06dd 9fbd c57c da3f
0.28236854 -1.4395815 0.4106606 0.92764705 -0.548504 0.159538 -0.49960402 0.50370884
0.12618123 -0.28155202 0.8793169 -0.13721251 -0.490702 -2.14789 -0.07805829 1.7069327

front_linear.bias f4 [8]
00000000: 2c38 c23e 4ce5 e2be 1d3d 8a3e 02b4 013e
00000010: 28fc f93d 284b c4be a091 683f c4cb 1cbf
0.3793348 -0.44315565 0.2699975 0.12666324 0.12206298 -0.3833859 0.90847206 -0.6124842

transformer_encoder.layers.0.self_attn.query_mat.weight f4 [8, 8]
00000000: f61e bd40 3802 3ac0 0022 97bf d334 63c0
00000010: 2a14 9a3f 9a64 1840 7d80 4140 9291 a0c0
00000020: 18ad bcc0 f08d 6040 ddb6 ab3f 7d79 3b40
00000030: 91b6 96bf 995e 18c0 48f6 53c0 6098 7d40
00000040: 5b81 50c0 9334 3040 00f9 0040 a3dc 1540
00000050: 040a 843f c498 f7be c961 2fc0 549d 3640
00000060: f85c ac40 bab0 3dc0 915b 86bf b0eb 69c0
00000070: 24d9 e43e 2278 1540 82df 4040 923f 84c0
00000080: 9a85 7240 25ec 0dc0 35b0 d8be 56ed 2ec0
00000090: 0dbe 5440 2bb9 7440 ebfe b040 15fd 83c0
000000a0: c30d 90c0 02ee 0940 2b10 3c3f 3111 1f40
000000b0: deb9 17c0 745e 8cc0 42bd cbc0 0b8c 7e40
000000c0: c6fc 87c0 9e95 0540 8c64 783e 500d e93f
000000d0: 9d99 2fc0 14b6 86c0 4275 e3c0 7b78 b240
000000e0: 55e6 7cc0 807c 1340 f8f2 903e 1bb4 0440
000000f0: adae 5cc0 4ed2 8ec0 f9a0 c2c0 74ab 8e40
5.9100294 -2.9063854 -1.1807251 -3.5500991 1.2037404 2.3811402 3.0234673 -5.01777
-5.8961296 3.5086632 1.341518 2.92929 -1.1774465 -2.3807738 -3.3119068 3.9624252
-3.2578952 2.7532089 2.0151978 2.3415916 1.0315557 -0.48358738 -2.7403433 2.8533525
5.3863487 -2.9639115 -1.0496694 -3.6550102 0.44696915 2.3354573 3.0136418 -4.13276
3.7894044 -2.217538 -0.42321935 -2.7332358 3.3240998 3.8238018 5.531118 -4.124644
-4.50168 2.1551518 0.7346217 2.4854243 -2.3707194 -4.38653 -6.3668528 3.9772975
-4.249606 2.087257 0.24257106 1.8207188 -2.7437508 -4.2097263 -7.1080637 5.577207
-3.9515584 2.3044739 0.2831037 2.0734928 -3.4481614 -4.463172 -6.08215 4.4584293

transformer_encoder.layers.0.self_attn.key_mat.weight f4 [8, 8]
00000000: a597 a1c0 84df 8b40 d42d 2740 eaba cb40
00000010: 1fce 37c0 49cd cf3e 21b2 7ac0 0c24 9940
00000020: 98e6 9940 46bb b0c0 b590 18c0 50ce c5c0
00000030: 9f90 5a40 572f 51bf ddc3 7c40 212c 9dc0
00000040: 1d38 6040 5730 1bc0 713d d9bf 3a5f 81c0
00000050: ad4b 963f 7977 cc3e b65c 1840 f02c 27c0
00000060: 113e 8bc0 2c8f 8b40 d7d4 ed3f 4397 b440
00000070: 8373 24c0 14ec 93be 596c 47c0 6e05 7e40
00000080: 8935 ccc0 4406 bc40 512c a43f ee59 f340
00000090: 2cfd 05c0 7c11 35c0 ba92 b6c0 946b b840
000000a0: 1ab0 de40 bd51 ddc0 3958 31bf e4ad f9c0
000000b0: df9a 4c40 1467 3440 e8be f240 80e7 cfc0
000000c0: 3949 b240 8570 b5c0 297f a8be dd3d e7c0
000000d0: 05fe 3040 943c 853f 7d21 cc40 1394 cdc0
000000e0: 2222 ba40 1296 b2c0 b256 80be 3c52 cdc0
000000f0: f856 3e40 7c4f 0440 6262 bf40 bd1d adc0
-5.0497613 4.3710346 2.6121721 6.3665667 -2.8719556 0.40586308 -3.9171221 4.7856503
4.8093987 -5.5228605 -2.3838322 -6.1814346 3.415077 -0.8171286 3.9494545 -4.911637
3.503425 -2.4248254 -1.6971875 -4.0428743 1.1741844 0.399349 2.3806586 -2.6121178
-4.3513265 4.361227 1.8580579 5.6434646 -2.5695503 -0.2889105 -3.115988 3.9690814
-6.381535 5.875765 1.2826024 7.6047277 -2.0935774 -2.8291922 -5.705411 5.763132
6.958997 -6.916228 -0.6927524 -7.802477 3.1969526 2.8187914 7.585804 -6.4970093
5.5714383 -5.6699853 -0.32909516 -7.2263017 2.7655041 1.0409112 6.379088 -6.4243255
5.8166666 -5.580819 -0.25066143 -6.4162884 2.9740582 2.0673513 5.9807596 -5.40988

transformer_encoder.layers.0.self_attn.value_mat.weight f4 [8, 8]
00000000: bc43 a93e 8e0b 663e 4ed4 913c 9e9a 733d
00000010: c304 1c3e c672 893d 7843 45bd 1645 38bd
00000020: d9f2 b03e 45d1 6a3e 4eff 723d dfdc a5bd
00000030: 08cd 77be ce90 d93e 0dfb 853e ea24 2bbf
00000040: 16c0 80be 4e5d 453d d64a c73e 8b50 053e
00000050: ad77 8b3d e39d 923e a961 ea3d 0d08 1dbe
00000060: 2cfc c6bd df07 183e 9504 9dbe c15f b53e
00000070: cc9e 8f3e dcb7 60bd a1f8 81bd 1e48 61be
00000080: 9fd8 ee3c 3d35 84be a202 833e 576e 8ebe
00000090: 889b d33e 60be 87bc 5220 99be 6465 8c3d
000000a0: e6b3 a63e e6f7 f73d 3040 243f 5727 193e
000000b0: 34c3 4bbe 6855 b1be 656f e6bd 31b1 46be
000000c0: a84b c2bd 37b8 ed3e 19bc 93be 8183 4fbe
000000d0: b645 d23d 5161 b43d ec37 153c 4a52 99be
000000e0: dde9 a43e e3d1 d83c b291 f6bd 100d 08be
000000f0: ac5d 9e3d 4089 ad3e 4d13 4d3f 06f1 d73e
0.3305949 0.22465345 0.01780143 0.059473626 0.15236191 0.067113444 -0.048160046 -0.04498776
0.34560278 0.22931392 0.05932551 -0.080987684 -0.24199307 0.4249329 0.261681 -0.668532
-0.2514655 0.048184685 0.38924283 0.13019006 0.06809936 0.28636083 0.114444084 -0.15335102
-0.09716067 0.14846753 -0.30667558 0.35424617 0.2805084 -0.054862842 -0.0634625 -0.22000167
0.029156027 -0.25821868 0.25587946 -0.27818558 0.41329598 -0.01657027 -0.2990747 0.06855276
0.32559127 0.1210783 0.6416044 0.14956413 -0.19898683 -0.34635472 -0.112517156 -0.1940353
-0.094870865 0.46429607 -0.28854445 -0.20265009 0.102672026 0.08807624 0.009107571 -0.29945594
0.32209674 0.02646727 -0.12039508 -0.13286233 0.0773271 0.33893776 0.80107576 0.42176074

transformer_encoder.layers.0.self_attn.o_proj.weight f4 [8, 8]
00000000: 5b5d c2be 0a50 10be e59f 25bd b86b e7bd
00000010: 24f3 223d 7061 77bb 0ab4 09be fd62 4fbc
00000020: 89a1 883e 0870 a9bd 6a76 46bd 4411 f7bc
00000030: 67b8 f13d 997d 02bf d535 39be b16d f0be
00000040: 9aa4 123f dcb9 9c3c 55c3 adbe 0efd 5d3e
00000050: 2038 83be 3161 97be 4e9d f2bb 9f2c 7dbe
00000060: d3c7 ad3e 5318 91be b047 a9be 76d6 05be
00000070: c9f6 2c3f 446f c9be 0567 b8be fc14 a4bd
00000080: 6e14 cfbd 473f fe3d c004 9abe eb64 79bd
00000090: 1977 383c bec1 853e bd6a 1dbe b4d4 4bbd
000000a0: f3cb 91be 62f1 7abe a30c 273d 9749 86bd
000000b0: 9db7 58bd 0cf5 603e e353 0a3f a612 39be
000000c0: 3d76 14be d136 8ebe cc47 7c3e f296 d6bd
000000d0: 14fb e0bc 2e3e 053e 8312 0c3d 006e f3be
000000e0: 24a1 00bf 777d 473f 58c6 bb3e f5ac e8be
000000f0: 887f 22be d722 35bd 038a aabc 000f 773a
-0.3796185 -0.14093032 -0.04043569 -0.112998426 0.03978266 -0.0037747286 -0.13447586 -0.012657878
0.26685742 -0.082733214 -0.048452772 -0.0301596 0.1180275 -0.50972897 -0.18086942 -0.46958688
0.5728241 0.019131593 -0.3393809 0.21678564 -0.25628757 -0.2956634 -0.007404006 -0.24724053
0.33941516 -0.2833887 -0.33062506 -0.13070092 0.67564064 -0.393427 -0.36016098 -0.08011815
-0.101113185 0.12414413 -0.3008175 -0.06088726 0.011258864 0.26124376 -0.15372749 -0.049763396
-0.28475913 -0.24506143 0.040783536 -0.06557005 -0.052909482 0.21968478 0.5403425 -0.1807352
-0.1449823 -0.27776197 0.24636763 -0.10478009 -0.027463473 0.13012001 0.03419734 -0.4754486
-0.5024588 0.7792582 0.36674762 -0.45444456 -0.15868962 -0.04422268 -0.020817762 0.00094245374

transformer_encoder.layers.0.self_attn.o_proj.bias f4 [8]
00000000: 9503 0cbe 9515 33bf 2852 20be ce8b a3be
00000010: 9e08 74bd bf87 1cbf 8721 203f d2ae 8f3d
-0.13673241 -0.69954807 -0.1565634 -0.319426 -0.05957853 -0.6114463 0.6255116 0.07015766

transformer_encoder.layers.0.linear_net.0.weight f4 [16, 8]
00000000: d666 e83d b6f3 863e 09ff 9f3e c5ba 3639
00000010: 8299 afbd 771b cb3e 3cb1 91be 640f f9bd
00000020: 1a45 663f 2344 673f 362c 4a3f 9951 0abd
00000030: 6288 683e 9846 6a3f f7f6 b7bf dd66 31bc
00000040: ad86 1b3f ed61 2b3f 25d7 513f 4a78 92be
00000050: e884 81bd f1a1 903f 657e 7fbf fd4f 44bd
00000060: 0311 343f 0414 f83e 7d70 173f 504b 573d
00000070: d421 efbe 7f6d 733e f37f 27bf 860d 113f
00000080: f4d4 003e d0b7 9abc 9e48 fdbc 1dfb eb3c
00000090: a982 df3e 4d68 663e 9142 eebd a2af 2d3e
000000a0: 4c41 223f 837d 8dbd fdb8 423f bbeb be3e
000000b0: a142 3e3e ee9e 0b3f 30b6 37be 6d4e c33d
000000c0: c525 6a3e da15 7d3f 146d 8a3e 38d7 133e
000000d0: da4e 3c3f 25a4 623f a4f6 15bf afb8 cd3e
000000e0: 9f70 7e3f 9967 e73d 8799 543f f525 59bf
000000f0: 2cd2 cfbe 4ebe b23f fd95 043f ecd9 573f
00000100: 4bc1 da3e 9de7 f93c 3df8 923e 87dd f83d
00000110: 520b 35be fdee 703d 126d fe3e 59f7 c03e
00000120: 6857 1e3f ae68 0b3f 2e31 973f e9c2 2bbf
00000130: 927a 26be a64d 013f 53fa bebe 2f54 8f3e
00000140: 90ec 203f c15f fb3e 6bb0 343e 8905 543f
00000150: e234 ac3e 4530 993f 26c5 f7be 766a 57bf
00000160: e336 4b3f 4a8c 223f e260 293f a259 0dbc
00000170: e538 2bbe acc8 843f 840f 74bf 85ca 14be
00000180: e43e 1a3f 3a92 7d3f 5ff0 ebbb 1bca 9c3f
00000190: bdf4 083f 95f6 513f 802b 36bf 0f41 ebbe
000001a0: 9d3e 983e f480 9b3d 2a75 563e 35a6 763f
000001b0: 8a30 6fbf 9e0f 07be 81d7 f0be a13f df3d
000001c0: 9ce4 1d3e 3f61 9a3f 011d cf3e 218b 07be
000001d0: c8a0 06be f0fa 9d3f e894 2cbf 38e5 533e
000001e0: 56a1 89bf f0a1 1440 63f7 0ebf 4301 4dbe
000001f0: c26f 60be a8a7 ae3f 24a5 92c0 b233 ae3f
0.113477394 0.26357812 0.31249264 0.0001742645 -0.08574201 0.39669392 -0.28455532 -0.12161139
0.8994919 0.90338343 0.7897371 -0.033769224 0.22708276 0.9151397 -1.4372243 -0.010827747
0.60752374 0.669463 0.8196891 -0.28607398 -0.06324178 1.129942 -0.9980224 -0.047927845
0.7033846 0.4845277 0.5915602 0.052562058 -0.46705496 0.23772238 -0.6542961 0.5666126
0.12581235 -0.018886477 -0.030918416 0.028806264 0.43654373 0.22500725 -0.1163379 0.1696153
0.63380885 -0.06908705 0.7606352 0.37289223 0.18580104 0.5453938 -0.17940593 0.09536443
0.2286597 0.9886147 0.27036345 0.14437568 0.7355782 0.88531715 -0.5857947 0.40179965
0.99390596 0.112990566 0.83046764 -0.8482354 -0.40590036 1.3964326 0.51791364 0.843169
0.42725596 0.03050595 0.28705016 0.12151628 -0.176801 0.058821667 0.4969259 0.3768871
0.6185212 0.54456604 1.1811883 -0.67094284 -0.16257694 0.5050911 -0.37300357 0.27993914
0.62860966 0.49096492 0.17645423 0.82820946 0.33634096 1.1967856 -0.483926 -0.8414682
0.79380625 0.63495314 0.66163456 -0.008627327 -0.16720922 1.037374 -0.95336175 -0.1453038
0.60252213 0.9905125 -0.0072002853 1.2249178 0.5349844 0.8201688 -0.71160126 -0.45948073
0.2973527 0.07592955 0.20943132 0.9634736 -0.9343344 -0.13189551 -0.47039416 0.10900808
0.15419239 1.2060927 0.40451816 -0.13236667 -0.1314727 1.2342205 -0.6741471 0.20692909
-1.0752361 2.3223839 -0.5584623 -0.20020013 -0.21917632 1.3644915 -4.582659 1.3609526

transformer_encoder.layers.0.linear_net.0.bias f4 [16]
00000000: e678 59bf 7f73 f8be 7b4d afbe dd81 07bf
00000010: 0f37 a3be a751 8dbf 4fdf 98bf 9f57 02c0
00000020: ae01 7d3d 3335 41bf ea8d ddbe c89e 00bf
00000030: 9126 813e 91f2 09bf 0afd 9cbf 5d39 67bf
-0.849501 -0.48525617 -0.342388 -0.5293253 -0.31877944 -1.1040543 -1.1943148 -2.036598
0.06176918 -0.754718 -0.43272334 -0.5024228 0.25224736 -0.5388575 -1.2264721 -0.90321904

transformer_encoder.layers.0.linear_net.3.weight f4 [8, 16]
00000000: 6c4f 363f 8259 e03e f936 f43e 6c73 a5be
00000010: b4ff 19bd eec0 503f c700 1cbf 1e79 9dbe
00000020: 6abb 86be e93d 90be 1f89 813d c29c 913f
00000030: 5eea cbbd 382b 363e 64d3 203f c98a 17c0
00000040: 5d9b 8dbd b2f9 32bd 6294 d23e c7ca b93e
00000050: c62c 8c3d 0fe6 4dbe 7361 a5bd a04a 873f
00000060: 1813 ac3e 79a0 abbc f012 f8be 5bed 9e3e
00000070: 1138 34bf eba4 823e de19 98bd 1bfd 87bf
00000080: d63a 083f b2bf 0c3e 1cdc 743e 5080 6abe
00000090: da61 b93c b284 2abf e22e 49bf 2489 b43d
000000a0: 4436 d5be 91d8 aebe 2196 363f 086d af3e
000000b0: 5e58 9d3d df87 b9bd c981 7d3e 5ad2 86bf
000000c0: ca67 4d3f 6925 2abf 79c3 12bf b873 15be
000000d0: ba22 143c 7642 713f 2ca6 3abf 3f94 063f
000000e0: 1472 863e 7eb8 fbbe c3d8 84bf 08bd aebe
000000f0: 8bff bbbe 39c7 073f f0af b4be eb2e 9fbe
00000100: 5eee 553e 34bc c7be 047e 0c3e e77f 803e
00000110: ba70 983d 73d6 e0bd e084 e43d 3b43 353f
00000120: 33d4 ae3e f45a 4bbc 41bf 5e3e fe48 9ebc
00000130: e94e 2abe a65a dc3d c17c 08bf 0ddc 463f
00000140: e664 9c3d c91c 723e e1b6 283d c90e abbd
00000150: 08f6 a7be 6707 843c de26 d3bd 2395 d53f
00000160: f682 183e 9624 7f3d 9855 7abe e5d0 193e
00000170: 6dfd 05be eb5e 093e d7c4 943d 49e9 9ebf
00000180: e59c c53c bf07 c1be f923 10bf 8488 31be
00000190: d88f 9c3e f9ee 073e c7b1 0dbd 274c 8cbf
000001a0: e2e1 b6be 66d9 173d 9070 96be aeb7 a9be
000001b0: e5ea 243f 04aa 7fbe d360 afbc aa3c 76c0
000001c0: 8c7d 7bbe a94b 2a3f e023 c73d b4a6 713e
000001d0: 323a 48bc be94 4c3f cde9 febd e00b f33e
000001e0: 752c 2dbf 567c 0cbe fc55 2a3c c1cd 24bd
000001f0: 4af0 d83e 803f 6f3d 509e c83e a121 e63e
0.7121494 0.4381829 0.4769819 -0.32314622 -0.037597373 0.8154439 -0.60938686 -0.30756468
-0.2631486 -0.28172234 0.06324982 1.1375964 -0.09956811 0.17789924 0.62822556 -2.3678458
-0.06914399 -0.04369516 0.41128832 0.3628752 0.06844477 -0.20107292 -0.080752276 1.0569649
0.33608317 -0.020950543 -0.48451948 0.31040463 -0.7039805 0.25516447 -0.07426809 -1.0624117
0.53214777 0.13745001 0.2391209 -0.2290051 0.022629667 -0.66608727 -0.7858716 0.0881522
-0.41642964 -0.34149602 0.7132283 0.34262872 0.0768287 -0.090591185 0.2475654 -1.0532944
0.80236495 -0.66463333 -0.5732952 -0.14594924 0.009041483 0.94242036 -0.7290981 0.52569956
0.2625891 -0.49164194 -1.037865 -0.34128594 -0.367184 0.53038365 -0.3529048 -0.31090483
0.20891711 -0.39010775 0.13719946 0.25097582 0.07443376 -0.10978403 0.111581564 0.7080571
0.3414627 -0.012411822 0.21752645 -0.019321915 -0.16631664 0.10759477 -0.5331536 0.7767952
0.07636432 0.23643793 0.041190032 -0.083524294 -0.32804894 0.016116811 -0.10310148 1.6686138
0.14893708 0.06229075 -0.24446714 0.15021093 -0.13084956 0.13415115 0.07264107 -1.2414943
0.024122665 -0.37701222 -0.5630489 -0.17337233 0.30578494 0.13274755 -0.03459337 -1.096074
-0.3571921 0.03707256 -0.29382753 -0.3314795 0.6442092 -0.249672 -0.021408474 -3.8474526
-0.24559611 0.665217 0.097236395 0.23598748 -0.012220906 0.7991446 -0.12446938 0.47469997
-0.6764596 -0.13719305 0.010396477 -0.040235285 0.42370826 0.058410168 0.39183283 0.44947532

transformer_encoder.layers.0.linear_net.3.bias f4 [8]
00000000: f116 db3e d5c0 de3e daf9 153e 288d 003e
00000010: a753 3e3d 6aa2 b23e 7f35 a4be ca6e 033e
0.4279094 0.43506494 0.14646092 0.12553847 0.046466496 0.34889537 -0.32072064 0.12835231

final_linear.weight f4 [1, 8]
00000000: 4089 e43d 7b97 393d af79 903d 30a5 193c
00000010: f400 bdbb 114e 723d 761e 953e 5910 863c
0.11158991 0.04531048 0.07054459 0.009377763 -0.005767936 0.05915648 0.29124802 0.016365217

exp_avg f4 [8, 2]
00000000: c7aa fdb7 ac87 95b7 e058 76b9 f1e6 44b9
00000010: 26e2 4a38 ac25 8538 5e8b a438 c8d4 8138
00000020: 34e7 45b8 149d 25b7 df77 9eb9 27f9 5db9
00000030: 4ff4 4439 f34a 3539 eaa4 bb38 a495 16b6
-3.0239475e-05 -1.7825361e-05 -0.00023493497 -0.00018778049 4.837117e-05 6.348951e-05 7.8460886e-05 6.190833e-05
-4.7183785e-05 -9.871339e-06 -0.0003022542 -0.00021169019 0.00018783029 0.00017289426 8.9475725e-05 -2.2438844e-06

exp_avg_sq f4 [8, 2]
00000000: 9e7e 1633 f51b d232 bfef 8433 fff1 6433
00000010: e9d3 9b32 1be7 4a32 2612 1933 3be5 ba32
00000020: c6b5 8132 a3d8 5732 e19d a633 c8ab 2c33
00000030: 2bf1 4933 3cb6 9033 805a e232 e3eb a832
3.5039754e-08 2.4459931e-08 6.1903386e-08 5.330548e-08 1.814074e-08 1.1810495e-08 3.5639594e-08 2.1757492e-08
1.5100238e-08 1.2563905e-08 7.7586954e-08 4.0203105e-08 4.70183e-08 6.738671e-08 2.6351017e-08 1.9665043e-08

exp_avg f4 [8]
00000000: 42e6 cbb8 07f4 1fb9 217f ae38 8505 eb38
00000010: 97bc 3db8 4a88 9bb9 35f0 ac38 b31c d938
-9.722683e-05 -0.00015254329 8.320646e-05 0.00011206701 -4.523675e-05 -0.00029665447 8.246341e-05 0.00010352712

exp_avg_sq f4 [8]
00000000: ec82 da33 3c8f 3334 d504 3d33 6218 c533
00000010: 2f7a 5233 2098 3634 00e5 e933 4345 a233
1.01752306e-07 1.6722782e-07 4.4009386e-08 9.1779626e-08 4.900556e-08 1.7005414e-07 1.0891563e-07 7.5563115e-08

exp_avg f4 [8, 8]
00000000: f68f dab4 0130 1cb5 73b6 da34 87a3 2034
00000010: 5bd2 a8b4 be9b 30b5 f483 0435 f8e6 6134
00000020: 6a61 e034 d21d 2135 ae4a e1b4 e6bf 23b4
00000030: ab75 ad34 fb7d 3535 61c5 08b5 e381 67b4
00000040: f8f5 8534 26ef c034 9cbf 87b4 1bc4 ceb3
00000050: df6d 5034 fd4a dd34 9517 a5b4 8ad6 07b4
00000060: 97e3 bab4 49b7 05b5 e8dd ba34 7052 0934
00000070: 7f02 91b4 0419 17b5 4bc8 e334 b4a8 4034
00000080: d490 b9b4 6c01 0eb5 dbd0 1c35 a3f7 b634
00000090: 908f 64b4 8ec1 42b5 3e71 2335 0f02 1833
000000a0: 6239 d934 4a8f 2635 2517 38b5 f022 d6b4
000000b0: 4857 8634 22fe 6335 3d2d 40b5 ccdb 2eb3
000000c0: 3613 bd34 5916 1135 f9a1 20b5 9ab4 bab4
000000d0: 79b8 6934 66a4 4635 d6b0 27b5 40a0 12b3
000000e0: b5cc b034 1ab5 0735 6cdf 15b5 1d39 aeb4
000000f0: 4073 5a34 2e97 3935 1195 1cb5 3873 0cb3
-4.071041e-07 -5.8184384e-07 4.0738414e-07 1.4960652e-07 -3.1445492e-07 -6.5791744e-07 4.936585e-07 2.1038784e-07
4.179413e-07 6.002057e-07 -4.1963852e-07 -1.525037e-07 3.2309376e-07 6.761108e-07 -5.095117e-07 -2.1560804e-07
2.4952146e-07 3.593679e-07 -2.5285124e-07 -9.628294e-08 1.941148e-07 4.121902e-07 -3.0750803e-07 -1.2650904e-07
-3.4810793e-07 -4.9813076e-07 3.4806658e-07 1.278911e-07 -2.701017e-07 -5.6288286e-07 4.2427777e-07 1.7942767e-07
-3.4564312e-07 -5.290119e-07 5.8418453e-07 3.408032e-07 -2.1286382e-07 -7.255229e-07 6.088702e-07 3.539213e-08
4.046115e-07 6.204833e-07 -6.857902e-07 -3.9886027e-07 2.502295e-07 8.49339e-07 -7.1591404e-07 -4.0712436e-08
3.521797e-07 5.404923e-07 -5.9840346e-07 -3.4776605e-07 2.1766927e-07 7.399998e-07 -6.246968e-07 -3.413902e-08
3.29315e-07 5.0554956e-07 -5.5831947e-07 -3.245158e-07 2.034476e-07 6.9137866e-07 -5.833145e-07 -3.270108e-08

exp_avg_sq f4 [8, 8]
00000000: 357a b72b 1a77 832b 39b9 962b 8b5c 062d
00000010: 0d76 c02a 932b 3d2c 3a36 682d 2d9b 502c
00000020: cb6e d22b 594b 932b b657 ac2b 87da 162d
00000030: a237 dc2a 4094 552c 8ae9 822d bfc9 6a2c
00000040: b172 f72a 34e4 b92a dace c42a 85bd 3c2c
00000050: abd2 f129 308b 5a2b d7ec a02c 6259 912b
00000060: 90ff 892b 8d6e 4d2b b0bd 602b 71aa d72c
00000070: 71f9 8c2a fc4a 072c 0f34 382d c84a 252c
00000080: 08c9 1a2a 5643 e929 b149 a12a 25f9 2e2b
00000090: 9c4c b029 ae4c 242b 9602 a42a aac2 832a
000000a0: e7a4 3b2a bb6a 1d2a 479a d12a 95f3 5c2b
000000b0: 9721 e229 a7d0 622b 8083 d82a b6f7 b52a
000000c0: 178b 152a 844f f629 993d a82a b99d 332b
000000d0: c092 c029 d8db 372b 3de9 a92a 76b1 a02a
000000e0: 7274 032a 99ac d329 a529 912a 672b 1b2b
000000f0: 34ab a029 61f9 182b 62f8 922a a03c 802a
1.3036851e-12 9.341167e-13 1.0709551e-12 7.637567e-12 3.4187966e-13 2.6882704e-12 1.3199714e-11 2.9644718e-12
1.4952149e-12 1.0465891e-12 1.224568e-12 8.575036e-12 3.9118453e-13 3.0351416e-12 1.4883001e-11 3.3365392e-12
4.3955597e-13 3.302095e-13 3.4960126e-13 2.6821611e-12 1.0739095e-13 7.764232e-13 4.573768e-12 1.0327678e-12
9.805368e-13 7.298405e-13 7.984403e-13 6.1295903e-12 2.504208e-13 1.9226279e-12 1.0470748e-11 2.3489422e-12
1.3747694e-13 1.03589595e-13 2.865048e-13 6.2162976e-13 7.82926e-14 5.837092e-13 2.9134047e-13 2.340535e-13
1.6666148e-13 1.3981431e-13 3.723291e-13 7.849774e-13 1.0042243e-13 8.058089e-13 3.8460554e-13 3.2323943e-13
1.3282115e-13 1.0938388e-13 2.9885537e-13 6.381246e-13 8.55197e-14 6.5319755e-13 3.0182272e-13 2.8544848e-13
1.1675537e-13 9.400223e-14 2.578607e-13 5.5127295e-13 7.1351264e-14 5.434733e-13 2.610716e-13 2.2779435e-13

exp_avg f4 [8, 8]
00000000: 38a1 1934 87d9 87b3 35fe 33b3 9c09 92b3
00000010: 1826 0233 ca7b 5f33 705a 3b34 4fd7 26b4
00000020: 18e2 e8b3 f2a0 3b33 e777 1a33 126f 6933
00000030: 33db c4b2 3891 42b3 5483 07b4 0db7 f733
00000040: 17ea 9131 dad5 83b2 6881 4b32 032e e331
00000050: 3552 b230 72e0 8db2 e2d8 ce32 547f 4fb2
00000060: c043 ea33 33c7 3eb3 7091 19b3 1f68 6ab3
00000070: 9842 c632 f214 4133 6f03 0934 6263 f9b3
00000080: 2eda 4233 2a37 81b2 292b 9bb2 e6d9 deb2
00000090: 785b 2c32 1b10 dc32 c8d8 4b33 687e 47b3
000000a0: fca8 4db3 07c2 8432 632d a732 a8dc ed32
000000b0: 9023 34b2 30a8 edb2 875e 54b3 8255 5133
000000c0: 53c1 57b2 5f39 b6b1 395a 7132 613b 7332
000000d0: 6502 57b1 0de6 b7b2 3a9f 6130 c6bd fe31
000000e0: 9037 2fb3 312b 4b32 e991 9932 7f81 d332
000000f0: df10 1cb2 f6ab dcb2 195b 2cb3 932b 2f33
1.4307886e-07 -6.3259954e-08 -4.1907885e-08 -6.800403e-08 3.030263e-08 5.203382e-08 1.7448633e-07 -1.5538284e-07
-1.0844468e-07 4.368571e-08 3.596497e-08 5.4350558e-08 -2.2917083e-08 -4.530122e-08 -1.2620632e-07 1.15351305e-07
4.2466684e-09 -1.5347656e-08 1.1845579e-08 6.6118004e-09 1.2974569e-09 -1.6516626e-08 2.4080183e-08 -1.2077937e-08
1.0908798e-07 -4.4418993e-08 -3.5755363e-08 -5.4577068e-08 2.3080517e-08 4.4955364e-08 1.2760368e-07 -1.1613044e-07
4.5367578e-08 -1.5042662e-08 -1.8064002e-08 -2.594329e-08 1.0032515e-08 2.5618695e-08 4.7461782e-08 -4.6448264e-08
-4.7883972e-08 1.5455056e-08 1.9461998e-08 2.7690774e-08 -1.0485465e-08 -2.7666914e-08 -4.944607e-08 4.8739373e-08
-1.2558604e-08 -5.3034195e-09 1.40485605e-08 1.4157963e-08 -3.1287979e-09 -2.1408619e-08 8.20808e-10 7.4139477e-09
-4.0795896e-08 1.1825976e-08 1.7877896e-08 2.4622521e-08 -9.084231e-09 -2.568957e-08 -4.0129724e-08 4.0784993e-08

exp_avg_sq f4 [8, 8]
00000000: b218 922a 9888 ce29 53aa 4828 8d80 fb27
00000010: 8184 8727 4fe3 2327 92af 0f2b c98c 962a
00000020: 81d5 992a f1a8 d829 9f00 3728 5121 e727
00000030: ab03 ad27 54b2 1d27 6a39 1b2b c908 aa2a
00000040: 72b4 c329 1bb3 1529 6f8b b827 3323 8227
00000050: 3675 3f27 2b73 ae26 4313 612a 204a 102a
00000060: 5769 512a 20b7 9429 5d48 1d28 50d1 c227
00000070: 0bc6 5d27 aa19 fa26 1644 d02a 9411 602a
00000080: ad1a 6427 84d5 b226 38c5 a425 715f a725
00000090: 94c3 ba24 c7a8 3b25 6d90 d627 eb8b 7727
000000a0: 079f 8f27 efef e726 9841 e125 d327 0526
000000b0: 5cb4 cd24 f221 8725 2642 0028 0ce6 9127
000000c0: 6c6e 0d28 e6da 5527 a93e b926 caec 5126
000000d0: a386 5c25 e61a a225 6514 6c28 96ee 1028
000000e0: 027d a727 4530 0027 c1b8 7c26 bb33 0326
000000f0: 6268 a924 3c32 8225 1ab8 0228 300a 8e27
2.5951946e-13 9.171933e-14 1.11391634e-14 6.980587e-15 3.761369e-15 2.2744018e-15 5.104746e-13 2.6743042e-13
2.7326408e-13 9.6216336e-14 1.0158675e-14 6.41515e-15 4.8021123e-15 2.1884799e-15 5.514674e-13 3.0204162e-13
8.691042e-14 3.3239995e-14 5.1221433e-15 3.612041e-15 2.6570115e-15 1.2104892e-15 1.9990697e-13 1.2815487e-13
1.8599476e-13 6.6042874e-14 8.730942e-15 5.4072754e-15 3.077727e-15 1.7354191e-15 3.6995466e-13 1.9901295e-13
3.1655817e-15 1.2409105e-15 2.8583106e-16 2.9034556e-16 8.0995964e-17 1.6276848e-16 5.955352e-15 3.4353986e-15
3.986289e-15 1.6093879e-15 3.9075726e-16 4.6197616e-16 8.921012e-17 2.344177e-16 7.119771e-15 4.0495e-15
7.851016e-15 2.9678353e-15 1.2853938e-15 7.283235e-16 1.9127575e-16 2.8120747e-16 1.3105054e-14 8.045341e-15
4.6487345e-15 1.7789735e-15 8.768045e-16 4.5519863e-16 7.34689e-17 2.2585445e-16 7.25637e-15 3.9423963e-15

exp_avg f4 [8, 8]
00000000: bf3c 9736 0536 8bb6 1212 0737 282f 0b36
00000010: 1035 ec36 c166 73b6 449a 9236 fc17 3fb7
00000020: 3f4f d337 1921 41b8 5c69 d737 4ba5 a536
00000030: c895 a736 9c92 15b8 ecf7 a138 a079 5db8
00000040: 81a9 2db4 6b32 af36 f663 d9b6 8fcc 82b6
00000050: 7f66 58b6 7388 b036 9c8c 64b6 fbbe b136
00000060: 6853 88b7 d7be 0437 4439 5637 c4dc 7637
00000070: 3c43 6f36 5ac8 fab6 2f2b e3b7 3d21 6f37
00000080: fdcc adb6 15cd fc36 e16c afb6 3e12 a6b5
00000090: fe2c 07b6 0400 b936 d206 61b7 9592 2037
000000a0: eb28 b3b7 7a71 8237 f027 9137 47d8 aa37
000000b0: e630 f736 2adc 01b7 f7bb 33b8 75c0 ac37
000000c0: b17b 05b6 3509 51b8 24fe 5438 55e2 1138
000000d0: 1c0c 8eb3 aac3 8eb8 ecaa 8d38 8949 f9b7
000000e0: 0a52 9d37 839a 9cb7 8862 8a37 68cb 3136
000000f0: d265 5a37 012a 3ab7 655b eb37 8317 18b8
4.5072225e-06 -4.1488115e-06 8.050834e-06 2.0740063e-06 7.0395254e-06 -3.6269632e-06 4.369098e-06 -1.1390071e-05
2.5190062e-05 -4.604561e-05 2.5679059e-05 4.936626e-06 4.9944247e-06 -3.566091e-05 7.723257e-05 -5.2803778e-05
-1.6173546e-07 5.221276e-06 -6.478741e-06 -3.8981157e-06 -3.2246169e-06 5.2610935e-06 -3.4056493e-06 5.297244e-06
-1.6251302e-05 7.9122465e-06 1.2768727e-05 1.4714144e-05 3.565291e-06 -7.4739046e-06 -2.7080618e-05 1.4253249e-05
-5.1796655e-06 7.53406e-06 -5.2280816e-06 -1.2373273e-06 -2.0142757e-06 5.5134315e-06 -1.3412633e-05 9.570872e-06
-2.1357517e-05 1.555005e-05 1.7303944e-05 2.0366291e-05 7.366866e-06 -7.74026e-06 -4.285198e-05 2.0593618e-05
-1.9890542e-06 -4.9838058e-05 5.0781426e-05 3.4781482e-05 -6.614593e-08 -6.807533e-05 6.7552406e-05 -2.9717356e-05
1.875406e-05 -1.86686e-05 1.6496764e-05 2.6493453e-06 1.3017519e-05 -1.1096244e-05 2.8056742e-05 -3.626152e-05

exp_avg_sq f4 [8, 8]
00000000: 3d9a 4f31 e45f ad30 4cf3 eb31 17bc da30
00000010: 03c2 9b30 1e83 3e31 2b60 dd31 f26f 5231
00000020: 0754 5232 bb24 7231 1293 0032 2d07 0632
00000030: 0d8a 3631 f722 1832 3703 ce32 1d5a 6432
00000040: d1ad 5a31 bc19 c830 2346 7131 5018 7d30
00000050: 20c3 0630 dc63 8f31 4463 a231 439a c330
00000060: 25a8 7731 da9b 9730 ccb6 9531 2553 3531
00000070: 92ca bc30 fc7d 4931 d38b 0532 3a24 4a31
00000080: e059 e030 1c36 2b30 7e3c 9d31 ca01 8630
00000090: b3f2 2730 1f01 e930 96e4 7e31 8e09 ba30
000000a0: bc1f 7631 6c8e a230 f4d8 f731 3b5f da30
000000b0: db0c 5230 7dae a731 ec42 8f31 8768 5f31
000000c0: 0533 a430 5703 1e30 6422 c930 7fb1 3930
000000d0: 1d2a 7d2f 6e66 e430 83b1 1631 d9b3 9c30
000000e0: afb8 cb31 ff1a 0a31 a72f 6631 cbe8 7431
000000f0: f57a 8430 4a9a a831 68a7 3a32 0430 1432
3.0210139e-09 1.261466e-09 6.86706e-09 1.5915046e-09 1.1332876e-09 2.772317e-09 6.4428796e-09 3.0622656e-09
1.2242714e-08 3.5236514e-09 7.4840205e-09 7.801458e-09 2.6562958e-09 8.8555145e-09 2.3983018e-08 1.3291836e-08
3.1821978e-09 1.4559229e-09 3.5109984e-09 9.2075414e-10 4.9026205e-10 4.1732005e-09 4.7261057e-09 1.4231961e-09
3.603881e-09 1.1030992e-09 4.3572523e-09 2.6386229e-09 1.3736374e-09 2.9320963e-09 7.773411e-09 2.9415461e-09
1.6323689e-09 6.228633e-10 4.5761785e-09 9.750292e-10 6.109914e-10 1.69533e-09 3.70918e-09 1.3535997e-09
3.581575e-09 1.182753e-09 7.213311e-09 1.5888654e-09 7.6415824e-10 4.8801767e-09 4.169456e-09 3.2510188e-09
1.1947071e-09 5.748481e-10 1.4634449e-09 6.7554845e-10 2.3025178e-10 1.6618296e-09 2.1928777e-09 1.140161e-09
5.9290737e-09 2.0096989e-09 3.3496492e-09 3.5639e-09 9.63921e-10 4.906984e-09 1.0864689e-08 8.625651e-09

exp_avg f4 [8, 8]
00000000: d1df 06b7 6c92 96b7 d855 9035 ce9d c9b6
00000010: 9995 e236 8b19 08b8 c5e8 1cb8 893b e0b7
00000020: c705 c3b7 9201 5e38 2174 4c37 840a 26b8
00000030: 75b6 0cb8 e4a2 4a37 1df0 55b6 20ce 9638
00000040: a483 8835 e739 31b7 d99b 72b5 3a36 0837
00000050: 13f0 9136 aebd 2837 e0af e0b5 66f0 19b7
00000060: 6a28 d6b4 235e feb6 3dd3 9fb5 d629 7d36
00000070: c6b7 5436 a54d 8134 3757 6fb5 3060 ebb6
00000080: 96f6 6d36 fc06 c9b5 0e08 8434 dc2e 8036
00000090: a076 c035 9f36 fc36 bdde f935 fc8e 07b6
000000a0: 32b1 8eb7 0063 1338 fe75 2237 7453 dcb7
000000b0: 3cb9 c2b7 045e 4637 035d d6b6 123c 4538
000000c0: 14e4 5db7 a763 bdb8 b0dd e2b5 a623 4e37
000000d0: 51ea 1338 0d85 76b8 406d d0b8 bce2 e8b8
000000e0: d4d6 1535 e1bc ee37 f56a 8435 f230 34b7
000000f0: decd 64b7 c488 3737 7877 b537 eae3 2038
-8.039134e-06 -1.7949576e-05 1.075382e-06 -6.0086377e-06 6.7527403e-06 -3.2448716e-05 -3.7410082e-05 -2.6730604e-05
-2.3248502e-05 5.2930387e-05 1.2186386e-05 -3.9587278e-05 -3.3548527e-05 1.2078064e-05 -3.1879238e-06 7.190951e-05
1.0171102e-06 -1.0563504e-05 -9.0378813e-07 8.118857e-06 4.349285e-06 1.0057744e-05 -1.6740487e-06 -9.175483e-06
-3.989001e-07 -7.580749e-06 -1.1907902e-06 3.772429e-06 3.1697432e-06 2.4084616e-07 -8.916135e-07 -7.0147435e-06
3.5459284e-06 -1.49777e-06 2.4592777e-07 3.8201524e-06 1.4339639e-06 7.516544e-06 1.8616771e-06 -2.0199795e-06
-1.7010232e-05 3.5139732e-05 9.683425e-06 -2.6264905e-05 -2.3212859e-05 1.1823609e-05 -6.388525e-06 4.7024405e-05
-1.322573e-05 -9.030784e-05 -1.6902832e-06 1.2286857e-05 3.5265755e-05 -5.8774884e-05 -9.938562e-05 -0.00011104855
5.581944e-07 2.8459765e-05 9.865895e-07 -1.0740232e-05 -1.3637791e-05 1.0939493e-05 2.1632513e-05 3.8359234e-05

exp_avg_sq f4 [8, 8]
00000000: ad87 6631 7508 8c32 629f 0b31 3460 9431
00000010: 17db 1032 2e15 0532 168e 0e31 c30f 1632
00000020: c507 c730 b567 1132 56e3 aa30 87af 2c31
00000030: 4507 6a31 8f85 ed31 f9a5 d730 2f37 c031
00000040: 3823 b330 a10b 2131 eb7c af30 1314 1531
00000050: 801f af31 7100 c331 9eb9 9530 dd78 ec30
00000060: db94 3830 9f55 6b31 33b4 f330 3e54 ad30
00000070: a0a9 4731 de77 7931 2f94 c630 4427 a030
00000080: 40e5 9830 13fc 5e31 9d12 3131 c9fd db30
00000090: 91a4 0831 2847 2831 ba90 9730 31aa 1e31
000000a0: c5fc db30 8abc a031 3e39 0431 ab5c 1631
000000b0: 987b a731 8cb7 ec31 d9c4 0231 018c 7d31
000000c0: f455 c831 c07c 6533 fb0f 8e31 ac52 1c32
000000d0: d0d1 1f32 5b2e b132 1fe2 e231 4c40 fd32
000000e0: 806a ab31 25fb 8b32 8c6e 6231 1849 a831
000000f0: bd80 4032 d7bd 0d32 88cd 2431 8974 2f32
3.3546528e-09 1.630199e-08 2.031776e-09 4.318304e-09 8.431718e-09 7.746435e-09 2.0744486e-09 8.734733e-09
1.4481364e-09 8.463691e-09 1.2433741e-09 2.512907e-09 3.4055614e-09 6.9127917e-09 1.5690481e-09 5.594209e-09
1.3033974e-09 2.3435194e-09 1.276843e-09 2.1693765e-09 5.0967515e-09 5.675297e-09 1.0893932e-09 1.7205611e-09
6.7150346e-10 3.424567e-09 1.7731793e-09 1.261135e-09 2.9054732e-09 3.6302406e-09 1.4448512e-09 1.1652692e-09
1.1124612e-09 3.244854e-09 2.576747e-09 1.6006477e-09 1.988415e-09 2.4487665e-09 1.102783e-09 2.3088769e-09
1.6006189e-09 4.6780473e-09 1.9241067e-09 2.1880548e-09 4.8743907e-09 6.889371e-09 1.9029385e-09 3.6895929e-09
5.830538e-09 5.3431677e-08 4.1345607e-09 9.0991925e-09 9.302724e-09 2.0626592e-08 6.6031727e-09 2.9482315e-08
4.9888627e-09 1.6295937e-08 3.2950167e-09 4.8977533e-09 1.1205143e-08 8.250445e-09 2.3981972e-09 1.0212838e-08

exp_avg f4 [8]
00000000: 79d0 8138 2540 83b9 b880 6937 ab8f f836
00000010: 8d1e 9236 c03b 33b9 4ba4 a439 da4f f7b8
6.1900304e-05 -0.00025034058 1.3917852e-05 7.407701e-06 4.3546956e-06 -0.00017093029 0.00031402925 -0.00011792751

exp_avg_sq f4 [8]
00000000: 75a0 0234 cc95 9f33 6e6e b532 2865 6632
00000010: c73b 8d32 9a28 2933 9ca3 d434 9632 1934
1.2165567e-07 7.4312624e-08 2.112139e-08 1.3410762e-08 1.6441744e-08 3.9385306e-08 3.960712e-07 1.4267638e-07

exp_avg f4 [16, 8]
00000000: 7be7 a12f fc5b e62f 82c1 8bb0 f83e 8130
00000010: 652c a22f 8c5f 052f dbde b5af c21c 83b0
00000020: 21be d531 3c43 11b2 1545 8630 8797 0231
00000030: 3f70 6a30 b265 f1b0 cc73 8831 0b66 ecb1
00000040: 545b c931 bb8f 27b2 53bf 7a30 5b92 3231
00000050: b364 2830 77a2 2cb1 2e0f 0531 8ff2 d5b1
00000060: b104 3a33 f249 1ab2 ba6d 8932 6e98 d632
00000070: 953a d931 2b96 a932 f4e8 6233 3c62 aab3
00000080: 65ec 8aae deac 232f 6a46 b3af a7a9 4eaf
00000090: ab60 7f2e 039a 95ae 48f4 d5af 2753 d22f
000000a0: eddf 46af e97b 2e30 93a0 10b0 664c 5830
000000b0: a02a 2e30 f642 572f df63 22b0 27dd 71b0
000000c0: 081b 952d 4bda 542f 8af6 b4ae 1e79 d52f
000000d0: caa9 b72f 29c9 fb2e e6c6 172e 64d8 1fb0
000000e0: bcb5 7db1 3448 c2b1 3f81 a5b1 8b9a bdb1
000000f0: c793 072f 0248 d02d a34e b731 c2d9 40b1
00000100: 3a50 c7b7 23c6 0f37 34ce d736 eecc 05b7
00000110: 7407 1137 1ba6 b937 3720 3eb8 4bcf 79b7
00000120: 547a 93af c32d 9d30 656d 42b0 a7e9 e730
00000130: 93fc c130 3370 0330 6fd5 2ab0 f453 eeb0
00000140: e11a aab5 f12c 6036 69f1 37b6 9065 d1b6
00000150: d8b3 e834 4f86 db34 f780 7b36 1630 6c36
00000160: 418c acaf 5a23 b32f 9816 ffaf 9f96 05b0
00000170: d08f f0ae 1ca7 d1ae cf5b 6cb0 ef71 7e30
00000180: 7b7a 84b4 3d8b 2d34 0dc7 b3b3 116b 45b4
00000190: d21a ccb2 d723 6eb3 1d5f 8cb4 d6b4 f534
000001a0: 4c2c 4131 44ff 99af 8be7 20af 7a3a 8aaf
000001b0: 2f14 7830 bd2b f430 9aab dc30 899c 47b1
000001c0: b4ec ceae cb29 952e 9705 bdae 0b0f 06af
000001d0: 1d82 20ae 9179 d8ad 194b 5eaf 4652 7f2f
000001e0: ad37 5838 b723 4bb5 ab86 5f37 0d9d b1b5
000001f0: a637 6c37 9538 3138 544b ee37 fb73 4cb8
2.9450206e-10 4.1902115e-10 -1.0168579e-09 9.403882e-10 2.9499173e-10 1.2130225e-10 -3.3082057e-10 -9.539678e-10
6.220731e-09 -8.455398e-09 9.769417e-10 1.9003623e-09 8.5288215e-10 -1.7563961e-09 3.9712855e-09 -6.880105e-09
5.8602527e-09 -9.75336e-09 9.122136e-10 2.5985603e-09 6.1261146e-10 -2.5121645e-09 1.9362676e-09 -6.2266916e-09
4.3310767e-08 -8.980793e-09 1.5998797e-08 2.4982196e-08 6.322191e-09 1.9742478e-08 5.2831595e-08 -7.9341106e-08
-6.3175055e-11 1.4886178e-10 -3.2609943e-10 -1.8795863e-10 5.8066146e-11 -6.8030935e-11 -3.8918047e-10 3.825786e-10
-1.808755e-10 6.347692e-10 -5.2615085e-10 7.868891e-10 6.3361405e-10 1.9577925e-10 -5.907718e-10 -8.7989566e-10
1.6951343e-11 1.9358841e-10 -8.2292465e-11 3.8830533e-10 3.3408148e-10 1.1449892e-10 3.4510082e-11 -5.815137e-10
-3.691965e-09 -5.6543517e-09 -4.8168256e-09 -5.5181935e-09 1.233068e-10 2.367884e-11 5.334941e-09 -2.8063458e-09
-2.3760007e-05 8.5695965e-06 6.4315045e-06 -7.975132e-06 8.644409e-06 2.2131067e-05 -4.5329532e-05 -1.4889821e-05
-2.6826064e-10 1.143626e-09 -7.073225e-10 1.687387e-09 1.4114384e-09 4.7816967e-10 -6.2148947e-10 -1.734064e-09
-1.267381e-06 3.340476e-06 -2.7409644e-06 -6.240509e-06 4.334422e-07 4.088965e-07 3.7476982e-06 3.519473e-06
-3.1386274e-10 3.258503e-10 -4.6400284e-10 -4.8599164e-10 -1.0939483e-10 -9.533904e-11 -8.598677e-10 9.256657e-10
-2.4676032e-07 1.6162535e-07 -8.371544e-08 -1.8386005e-07 -2.3760922e-08 -5.544629e-08 -2.6146236e-07 4.5766382e-07
2.8110376e-09 -2.8011915e-10 -1.4634176e-10 -2.5143604e-10 9.0250557e-10 1.7765768e-09 1.6055879e-09 -2.9047291e-09
-9.4098423e-11 6.7831595e-11 -8.595718e-11 -1.2192573e-10 -3.6495352e-11 -2.4610343e-11 -2.0217462e-10 2.3221344e-10
5.1550265e-05 -7.5675365e-07 1.3323191e-05 -1.3233235e-06 1.4079653e-05 4.2252785e-05 2.8406888e-05 -4.8745405e-05

exp_avg_sq f4 [16, 8]
00000000: 8c1a 9d30 bbad 982e b3bc 732f 385c 492e
00000010: c91e 922f 9228 ef2c ae88 b72e 4dbc bd2f
00000020: 379b f230 522a 112f ce76 4b30 9f74 4d2f
00000030: ac29 5930 2d57 d62e 55ae 442f c69d 9e30
00000040: a981 b830 5698 e72d cf6f e52f b686 842e
00000050: d5e2 3730 00ae 2a2c 9063 642e 7b58 6630
00000060: 8b47 8930 9354 b531 f207 6330 7bec 8631
00000070: 253d ca30 245f 1431 a094 b630 c8dc 7331
00000080: 36df 6e2e eb53 292f 2235 702d bb81 812f
00000090: 77da 8f2e c2f4 442e 945f ac2e f171 f02f
000000a0: bb47 5a2e 3cdc 092f 3fab 712d df43 4e2f
000000b0: 58bc 472e ae27 062e fae7 992e c419 9e2f
000000c0: 7a72 0e2f 9293 832f fbab ad2e a40a be2f
000000d0: c8c4 1a2f d23e a62e 4dcf 142f 4027 5a30
000000e0: 1d3d 302e cf4d 942d c8ac 882e 9474 482d
000000f0: d588 182d edd0 4a2c d92b 912e 7190 392f
00000100: dc51 af31 9846 0733 7197 a831 45f0 9d32
00000110: d160 cc31 35fe 8b32 0882 9032 4955 4b32
00000120: bbe8 de30 b6ad 8b2e f64b 0b30 9a77 1f2f
00000130: 4253 6f30 ec60 de2d 0a4b b32e f8b9 9730
00000140: 8ef3 6730 18a0 0032 81d3 dc31 646e 202f
00000150: 0557 5d30 a3bd 3d31 2c96 ea30 68eb 1931
00000160: 5929 c430 0640 a92d 0575 ee2f a5a5 312e
00000170: a47d 4130 436e f42b 14e9 552e 4af1 7330
00000180: 1da6 bd2f ae2f d62e bd65 b42f a915 bd2f
00000190: 4482 bb2f c416 202e 119f 1c2f c230 b930
000001a0: c5c3 e531 192d 9030 24ad 6830 83c1 d22f
000001b0: eceb 3530 791e a52f 3e65 7530 b587 5430
000001c0: 1282 8230 03c4 542f 230a 2930 626d 4d2e
000001d0: 4a7b e52e 7551 302f e8df 662f fd8f 4630
000001e0: 6ab1 6231 f315 6930 23a5 5a30 0f51 f330
000001f0: e6f7 bd2f aecb 4f31 47f2 5530 91a7 f131
1.1430799e-09 6.9430205e-11 2.216776e-10 4.5784015e-11 2.657912e-10 6.7972928e-12 8.346156e-11 3.4512695e-10
1.7651932e-09 1.3202708e-10 7.40198e-10 1.8686074e-10 7.900336e-10 9.747079e-11 1.7888031e-10 1.1540855e-09
1.3424614e-09 2.632931e-11 4.1734302e-10 6.0265945e-11 6.689736e-10 2.4255042e-12 5.1929627e-11 8.379925e-10
9.988396e-10 5.2774083e-09 8.259341e-10 3.926798e-09 1.4714813e-09 2.1590916e-09 1.3284485e-09 3.5486654e-09
5.4313186e-11 1.5400274e-10 1.3654218e-11 2.3557142e-10 6.541694e-11 4.478263e-11 7.8386325e-11 4.3736706e-10
4.963117e-11 1.253832e-10 1.3737288e-11 1.8759704e-10 4.5414644e-11 3.0503315e-11 6.998842e-11 2.875834e-10
1.2955495e-10 2.3933616e-10 7.897679e-11 3.456836e-10 1.4076129e-10 7.559965e-11 1.353417e-10 7.9363716e-10
4.0072046e-11 1.6860206e-11 6.215256e-11 1.1394569e-11 8.6705825e-12 2.8821904e-12 6.6016255e-11 1.6876968e-10
5.1024767e-09 3.149634e-08 4.9066604e-09 1.8386467e-08 5.948188e-09 1.629733e-08 1.6822938e-08 1.1835547e-08
1.6218772e-09 6.3518454e-11 5.067585e-10 1.4503457e-10 8.706601e-10 2.528152e-11 8.153307e-11 1.1039551e-09
8.438342e-10 7.486982e-09 6.426888e-09 1.4591134e-10 8.0522994e-10 2.7610916e-09 1.7068422e-09 2.2398243e-09
1.4272629e-09 1.9241508e-11 4.3375095e-10 4.0392262e-11 7.0391537e-10 1.7367847e-12 4.8637608e-11 8.874578e-10
3.449693e-10 9.740063e-11 3.28141e-10 3.439429e-10 3.410766e-10 3.6400008e-11 1.4244629e-10 1.3474379e-09
6.6870336e-09 1.0490196e-09 8.4647156e-10 3.8336276e-10 6.618268e-10 3.0034977e-10 8.9274355e-10 7.7318e-10
9.495713e-10 1.9350925e-10 6.1496247e-10 4.6708755e-11 1.0435615e-10 1.6036046e-10 2.0997926e-10 7.22366e-10
3.2988177e-09 8.47961e-10 7.954261e-10 1.7703615e-09 3.4555042e-10 3.0238243e-09 7.7833245e-10 7.0330732e-09

exp_avg f4 [16]
00000000: ce75 f130 2d13 79b2 7375 94b2 b897 84b3
00000010: dd01 ed2f d1a8 c430 617e c42f 8d1e bd32
00000020: 90e6 7a37 b32b 4731 ff00 9937 9e47 4130
00000030: f6ec 1035 daba 21b1 16e5 1f2f 42d2 d5b8
1.756854e-09 -1.4498068e-08 -1.7282877e-08 -6.1743265e-08 4.3111373e-10 1.4308857e-09 3.574199e-10 2.2016389e-08
1.4954843e-05 2.8983151e-09 1.8239485e-05 7.0314765e-10 5.3989004e-07 -2.3534796e-09 1.4542353e-10 -0.00010195795

exp_avg_sq f4 [16]
00000000: ac03 ef2f e880 3c30 7d56 e82f 23a8 4b31
00000010: 0ec0 522f 3945 5a2f 39d8 b92f 4a57 8c2f
00000020: 13ad 2233 f547 3830 0829 9431 2f91 d52f
00000030: 32d1 ba30 388c 1031 74b2 a72f 9f0c 7532
4.3476456e-10 6.857719e-10 4.2262008e-10 2.9635963e-09 1.916762e-10 1.9851577e-10 3.380494e-10 2.5527874e-10
3.7875974e-08 6.7041067e-10 4.3120316e-09 3.8847633e-10 1.3592738e-09 2.1034463e-09 3.0503922e-10 1.4263747e-08

exp_avg f4 [8, 16]
00000000: 347e 8bb0 be81 4c31 246c 8d31 628c fb31
00000010: d652 042e 089b e0af e0c8 33ae a118 aeb0
00000020: 92c2 9c37 9006 95af 58f4 2236 8684 8a2e
00000030: 2118 84b4 4b64 cf30 ef59 cd2e d094 e636
00000040: 58e5 d12f cb00 b32f f154 c630 94b9 ee30
00000050: 5441 2dac dfbd 01b0 7274 e6ae a1d9 a0b0
00000060: 78a6 8b36 5548 80af 4853 a335 32d4 2baf
00000070: f961 deb3 769d 5830 e0e8 21ae ccfb 8236
00000080: 4954 acaf 150f 8b30 57fe c230 c083 dd30
00000090: d36d a52c e770 882f 0b8c 862e 7303 c82e
000000a0: 6eb8 be36 ae98 112f 9a13 6135 3c24 bb2e
000000b0: 740c 41b3 2151 a72f c19b 932d 92ef a735
000000c0: a56c 01b0 0ded c02e a659 1a30 2d1a 9c2f
000000d0: 2e2f 3d2a 8116 b9af 207f 53ae 58f7 03b0
000000e0: ffc9 2f36 b268 47af ebb6 c734 d297 95ae
000000f0: 60f1 80b3 a832 1d2f f115 e8ac 4442 a635
00000100: d97f d1af 11f1 7faf 3013 c2af bfd1 7cb0
00000110: 3bff 9929 6e27 57af 10b4 cead 3857 7bb0
00000120: f839 a4b6 b561 e6ae bfee 2bb4 fbfd 0aae
00000130: 378d 7f33 bbeb e6af 296c 4dac efd0 e3b5
00000140: c256 88af 0f97 0c30 5b89 9430 1fad 1531
00000150: d91f dd2b 1931 98af 43a1 49ae 7062 edb0
00000160: 33a8 9636 09da 26af bb63 5d35 3287 82ae
00000170: 416f bfb3 4e84 3b30 7f0a 04ad 3128 2736
00000180: b839 c0b0 0e03 b331 e62c f131 3e4a 5132
00000190: b579 2c2e c8eb e82f 6081 1e2f 4cb6 2c31
000001a0: f612 4038 542c 4c2f ebf8 8436 b6e2 ae2f
000001b0: 28f1 fdb4 0c86 5f31 f976 182f 6219 5237
000001c0: 9ef3 bb30 cdc3 25b1 e988 61b1 5754 dfb1
000001d0: 5a22 abac e333 14b0 ac62 2baf 7c5b bcb1
000001e0: 3d2e 0db6 6695 86af a86a dbb5 abcb 90af
000001f0: 71e3 2534 ecf5 17af a376 b2ae 9aac 22b6
-1.014945e-09 2.9759657e-09 4.1159343e-09 7.321021e-09 3.0086898e-11 -4.085552e-10 -4.08783e-11 -1.2667166e-09
1.8687253e-05 -2.7107605e-10 2.4282108e-06 6.299054e-11 -2.4604472e-07 1.5089737e-09 9.338296e-11 6.871858e-06
3.8179837e-10 3.2560474e-10 1.4430538e-09 1.7369524e-09 -2.4621043e-12 -4.719975e-10 -1.0479874e-10 -1.1703386e-09
4.1619023e-06 -2.333446e-10 1.2168684e-06 -1.5627746e-10 -1.0355502e-07 7.880411e-10 -3.6813996e-11 3.903615e-06
-3.1346506e-10 1.0117868e-09 1.4187646e-09 1.6117312e-09 4.701775e-12 2.4818478e-10 6.118491e-11 9.09556e-11
5.6839117e-06 1.3241916e-10 8.3847556e-07 8.510212e-11 -4.494764e-08 3.0434769e-10 1.6781134e-11 1.2512194e-06
-4.708432e-10 8.773258e-11 5.615227e-10 2.8394834e-10 1.6802941e-13 -3.3667294e-10 -4.8088755e-11 -4.800902e-10
2.619461e-06 -1.813614e-10 3.719973e-07 -6.802704e-11 -6.00437e-08 1.4297064e-10 -6.5962726e-12 1.238725e-06
-3.810772e-10 -2.3277759e-10 -3.5302028e-10 -9.1975133e-10 6.8388403e-14 -1.9568144e-10 -2.3499452e-11 -9.1437213e-10
-4.8943293e-06 -1.0476545e-10 -1.6012471e-07 -3.1603147e-11 5.950025e-08 -4.2004253e-10 -2.9192293e-12 -1.6973626e-06
-2.47999e-10 5.114637e-10 1.0807456e-09 2.1780762e-09 1.5711834e-12 -2.7683525e-10 -4.5845338e-11 -1.7271997e-09
4.4899293e-06 -1.5175074e-10 8.247404e-07 -5.935731e-11 -8.9143676e-08 6.821822e-10 -7.505662e-12 2.4908334e-06
-1.3986243e-09 5.209933e-09 7.0191275e-09 1.2182282e-08 3.921637e-11 4.2368087e-10 1.441598e-10 2.5132918e-09
4.5794026e-05 1.856944e-10 3.9628844e-06 3.1811503e-10 -4.7300387e-07 3.2526968e-09 1.3866587e-10 1.2522885e-05
1.3675281e-09 -2.412196e-09 -3.2819634e-09 -6.4997425e-09 -4.863926e-12 -5.391582e-10 -1.5587415e-10 -5.4819207e-09
-2.1037552e-06 -2.4480612e-10 -1.6347813e-06 -2.6338162e-10 1.5449565e-07 -1.3820739e-10 -8.115577e-11 -2.4240348e-06

exp_avg_sq f4 [8, 16]
00000000: 2d69 522e ccb4 fb2c 98cd d52b 3050 9e2f
00000010: ab03 272d 41da c52c 63a3 e62e 3c2f 282f
00000020: fd80 c732 838b 772e 89e4 9b2e fdf8 b22a
00000030: fe34 bf2f 4d96 812f 5ee2 d12d aeed 7c2f
00000040: 132e ab2f a021 182f 9749 cb2e 0def b730
00000050: be15 ea2e f923 942d c4df 8a2e 8972 c42d
00000060: da36 bd31 b273 9e2e 4875 d22e db5c 8c2d
00000070: 2b87 1430 df88 2130 3c18 ed2e 637d d62d
00000080: 12ee 522f 4e68 aa2e aa82 9c2e cd6d b92f
00000090: fcdc c12d f0f1 b32c b2b5 a02d 096e 2a2c
000000a0: 6b68 c330 d05e fe2d c796 bd2d 595e 4e2d
000000b0: 7975 522f cebe 4630 2cba b02e 050f 342d
000000c0: 6ab1 922d 82e5 ab2d a662 702b de21 a62f
000000d0: 50a8 792d 5152 842c 6a2a 572d 1f3f 0a2d
000000e0: ac83 0331 25dc 7f2d a788 6c2e fe20 012b
000000f0: 94b3 1b2f dd81 072e 6716 cf2d 92d7 272d
00000100: 2aea bb2f 6a28 782f 5467 b22e 9ec7 aa31
00000110: 2e11 a62f 3d40 9e2d 9153 862f 9e6d 182f
00000120: c169 8e32 678a 522f cff3 3b30 07b7 8f2d
00000130: 78d9 172f d901 2130 b1b2 5d2f e4d5 d32e
00000140: a27b e32f d65c 1d2f 26e7 172f e30f 1731
00000150: c3b8 2e2f 3ed0 512d 7aec 682e e38f 2c2d
00000160: a899 1c32 6d91 732e 349f 932f f3b6 ca2d
00000170: 980d 292f 9057 8830 e264 d02e 390d b52d
00000180: 8714 bd2f 6f4b f22e 26a8 bd2e 3030 af30
00000190: aff6 ca2e 4dfb a52d 093c 302e e6d3 302c
000001a0: b570 3233 80b6 5e2e cc31 a32f e522 7e2d
000001b0: 420a 6c30 d589 2a30 0e4d ba2e 7b53 1930
000001c0: 78b6 d22f c2aa 7a2f fa7c 812e b0eb 9e31
000001d0: d104 9a2f 7345 1a2e 127f 912f 709a a12f
000001e0: af2c d932 068a 662f 6f75 3630 22ae 5f2d
000001f0: 27e6 c530 25c3 f22f 3315 702f 73ee 9b2f
4.7841887e-11 7.1539216e-12 1.5191624e-12 2.879701e-10 9.493665e-12 5.623308e-12 1.04882124e-10 1.5296292e-10
2.3225306e-08 5.628521e-11 7.08918e-11 3.1791922e-13 3.478035e-10 2.3571758e-10 2.3861076e-11 2.3003707e-10
3.1137457e-10 1.3836265e-10 9.2444434e-11 1.3382945e-09 1.064495e-10 1.6841627e-11 6.315262e-11 2.2333484e-11
5.50686e-09 7.20556e-11 9.570528e-11 1.5957393e-11 5.403417e-10 5.8765964e-10 1.0781817e-10 2.4384666e-11
1.9183968e-10 7.749233e-11 7.117269e-11 3.3729322e-10 2.2039696e-11 5.1143464e-12 1.8270583e-11 2.4219535e-12
1.4217795e-09 2.8918562e-11 2.1553771e-11 1.1730694e-11 1.9141123e-10 7.230313e-10 8.036624e-11 1.023515e-11
1.6677066e-11 1.9542371e-11 8.540203e-13 3.0219288e-10 1.4191384e-11 3.7608046e-12 1.2230753e-11 7.8584075e-12
1.9137856e-09 1.4543954e-11 5.378156e-11 4.587579e-13 1.4160967e-10 3.0810788e-11 2.3543124e-11 9.540717e-12
3.4181485e-10 2.2569827e-10 8.1128576e-11 4.970345e-09 3.020743e-10 1.7991048e-11 2.4433836e-10 1.3863263e-10
1.6579067e-08 1.9148559e-10 6.8376677e-10 1.6338498e-11 1.381063e-10 5.8574084e-10 2.0163317e-10 9.633164e-11
4.1378906e-10 1.4312049e-10 1.381549e-10 2.1982423e-09 1.5890848e-10 1.1926514e-11 5.2960726e-11 9.809017e-12
9.1153325e-09 5.5380967e-11 2.6852265e-10 2.3045987e-11 1.537529e-10 9.920189e-10 9.476665e-11 2.058319e-11
3.4393485e-10 1.10182856e-10 8.624594e-11 1.2746622e-09 9.229716e-11 1.8869928e-11 4.007109e-11 2.5128732e-12
4.154636e-08 5.063905e-11 2.968491e-10 1.44459765e-11 8.5870877e-10 6.204151e-10 8.4719884e-11 5.577971e-10
3.832843e-10 2.2798033e-10 5.888441e-11 4.6252e-09 2.801586e-10 3.507723e-11 2.6465635e-10 2.9395464e-10
2.5282445e-08 2.0967414e-10 6.63781e-10 1.2714748e-11 1.439905e-09 4.4158202e-10 2.1835404e-10 2.8363764e-10

exp_avg f4 [8]
00000000: 6680 57b8 92d4 9eb7 7ef8 2eb8 1cb2 bbb6
00000010: 40d0 2db7 a8df 2fb8 bd45 1ab9 20ac 9a37
-5.1379575e-05 -1.8934054e-05 -4.171626e-05 -5.593769e-06 -1.03600905e-05 -4.1931547e-05 -0.00014712564 1.8438383e-05

exp_avg_sq f4 [8]
00000000: 0f0b ef33 c8ed 7a32 a7ff d131 4380 0632
00000010: bc9c c932 1f20 c132 d288 3d34 e52a dc33
1.1131316e-07 1.460598e-08 6.111765e-09 7.82899e-09 2.3470754e-08 2.2482764e-08 1.7651772e-07 1.0252351e-07

exp_avg f4 [1, 8]
00000000: 8027 f038 5853 c4b8 dc04 02b9 7a98 d938
00000010: cafd a4b7 08b7 b7b8 d6d1 dd39 ef15 70b9
0.00011451449 -9.361532e-05 -0.00012399576 0.00010375767 -1.9668503e-05 -8.760212e-05 0.00042308745 -0.00022896354

exp_avg_sq f4 [1, 8]
00000000: 62ae 3035 e17d 4335 ed5b 1d35 f00a 9935
00000010: a448 6f34 44c1 7035 d08a 6d35 2392 bc34
6.581887e-07 7.282634e-07 5.862083e-07 1.1402572e-06 2.2285036e-07 8.9688206e-07 8.849138e-07 3.5124057e-07
