notebooks/lightning_logs/version_113/checkpoints/epoch=149-step=900.ckpt (torch, 22619 bytes, 30 tensors)

front_linear.weight f4 [8, 2]
00000000: d5cb 0440 2a85 c8bf e726 5440 f772 2e3f
00000010: ab6b a93f e4db 1b3f 281a 1940 ca12 0e40
00000020: 6270 513c 96d0 603f 170d 3ac0 c05e c43f
00000030: 8f48 b3c0 ad6a 87bf 89e1 88c0 8925 2dbf
2.074941 -1.5665638 3.3148744 0.6814417 1.3235983 0.608824 2.3922215 2.2198968
0.012783142 0.87818277 -2.907049 1.5341415 -5.6026073 -1.057943 -4.277531 -0.676354

front_linear.bias f4 [8]
00000000: 01e8 91bf e198 f3bf b70a cdbe 57c1 f4bf
00000010: 79d0 b63e f7d5 353e 0a90 8e3f 1da7 753f
-1.1398927 -1.903103 -0.40047237 -1.9121503 0.35705927 0.17757402 1.1137707 0.9595812

transformer_encoder.layers.0.self_attn.qkv_proj.weight f4 [24, 8]
00000000: 6340 54c0 5d29 823f 91ae 763f 6c5a dd3f
00000010: bd21 c83f 4255 7e40 b987 7d3e d8ca 5abf
00000020: 18f8 5440 a060 643d 3b76 febf 3846 1f3f
00000030: 9f98 5bbf b36a 9c3d cb89 243f 6fbc e13f
00000040: 0110 9140 609f 2c3f 3b3f 50c0 e64a f13f
00000050: 3e15 06c0 a94f 93bf 4470 19bf 839e 1340
00000060: 96f9 6a40 6482 5abf f396 e9bf 70db 5ebf
00000070: daf6 7bbf d9d7 83bf 6ba4 543f c4d9 2940
00000080: dff6 8040 852d 1e3e 8583 f0bf 609c d23e
00000090: 1604 03bf 702f 83be e3b0 2dbd aa81 2440
000000a0: 8139 7b40 2365 313e 66b1 ebbf d5bc 6b3f
000000b0: 56ad 21bf 01d9 41bf 27ae 8b3d 59fb 1640
000000c0: e3e2 7440 0e0f ef3f d1e6 9abf 4315 ac3f
000000d0: 08a5 4abd 2287 fdbf 0ebf 68c0 c389 a73f
000000e0: 74a2 6d40 4536 7e3f 8140 05c0 379c d43e
000000f0: bb3f 27bf ad8b 8fbe 6a78 603c a33e f93f
00000100: e4f5 1640 1899 2dbd 857f 24bf 9ed0 2e40
00000110: 8fbf 01be 0064 2d3f 85a0 803e 1c06 013f
00000120: 669f cb3f 6253 2b3d 038f d6bf 09d2 fd3f
00000130: 4dec 1bc0 5aeb 73bf 3ab5 a13e 4136 243f
00000140: f065 b73f afab 643f 4666 3dbe da84 2d40
00000150: 1cc7 75bf 249c 9b3d ec89 89bf a593 1ebf
00000160: 81b3 5540 bca6 fc3f 14bc 1fc0 943f 3a40
00000170: eb49 3bc0 baed f9bf 9b7e 21bf 6fd1 68bf
00000180: ee01 9b40 84e0 1241 7239 b5be 5ded 1941
00000190: a651 05c0 6a17 ddbf 97cc acc0 8360 b73e
000001a0: 214b 2f40 a290 e640 ebd0 bc3f d9e6 0941
000001b0: 8473 e3bd 3dcc 72c0 fd08 f6c0 b1f5 16c0
000001c0: fb2a b83e 9bce 3c40 2deb a63e 5574 4140
000001d0: 9500 f43e 57cc 4cbf 0e1d 80c0 2971 96bf
000001e0: 3888 64bf cd1b 6c3f 2a92 32be 660e c43f
000001f0: 9768 9dbe 3a2d 01be c350 ecbe 5c8f 763d
00000200: d475 02bf 1696 1fbf db9f 093e cdb8 373e
00000210: 05ea e43e 1887 8c3f df45 91bd 5ade c13e
00000220: 2528 5bbe 41ba 08c0 201c b63e 58b3 78bf
00000230: 0d06 d23f cba4 fb3f 7fea af3f 99f9 263f
00000240: e800 2fbd 24bc eabe c070 c83e 9882 a03e
00000250: ccd2 423f 5368 583f 894a 833e 8488 4dbe
00000260: 0abe 08c0 712c 3dc0 9ab7 953f 2772 a4bf
00000270: 5df1 5140 4b47 6a40 01a1 d23f 5795 873f
00000280: 628b e8bf 040c f03e 76f9 af3f 4c34 be3f
00000290: aba0 bd3f 17e8 f03e 0480 dbbf 7fbb a5bf
000002a0: b00a efbf c7f7 d4be e5e1 8e3f 36fa 003e
000002b0: 59f9 933f 1f8a b33f b1d0 96be 6c8d 3dbf
000002c0: ea1f d4bf 2448 42c0 9f1b da3c df1e 19c0
000002d0: 2f94 0040 d72a 0140 3669 e73f 2135 243f
000002e0: 7a2d c0be 0365 83bf 6f53 643e 1351 9ebc
000002f0: a576 fc3e f58e 453f db0b 523f f76a f63e
-3.3164299 1.0168873 0.9636012 1.729322 1.5635296 3.9739537 0.24758805 -0.85465765
3.3276424 0.05575621 -1.9879831 0.6221652 -0.85779756 0.07637539 0.64272755 1.763563
4.5332036 0.67430687 -3.2538593 1.8850982 -2.0950465 -1.1508685 -0.5993693 2.3065498
3.6714835 -0.8535521 -1.8249191 -0.87053585 -0.9842354 -1.0300246 0.8306338 2.6539164
4.0301356 0.15447052 -1.8790137 0.4113493 -0.5117811 -0.2562213 -0.04240502 2.570414
3.9253848 0.17323737 -1.8413513 0.9208501 -0.63155115 -0.75721747 0.06820326 2.359091
3.826348 1.8676469 -1.210169 1.3443989 -0.049473792 -1.9806864 -3.636661 1.3088917
3.7130404 0.9930156 -2.082062 0.41525432 -0.6533162 -0.28036252 0.013700584 1.947224
2.358758 -0.04238233 -0.6425708 2.731483 -0.1267073 0.6773071 0.25122467 0.5039995
1.590802 0.041827567 -1.6762394 1.9829723 -2.4362977 -0.95280993 0.31583577 0.64145285
1.4327984 0.8932447 -0.18496045 2.7112336 -0.9600694 0.07598141 -1.0745215 -0.6194404
3.339081 1.9738383 -2.4958544 2.9101305 -2.9263866 -1.9525673 -0.6308381 -0.9094457
4.8439856 9.179813 -0.3539539 9.62045 -2.0831084 -1.727277 -5.3999743 0.3581582
2.7389605 7.2051554 1.4751257 8.618859 -0.11106017 -3.7937157 -7.688597 -2.3587458
0.35970291 2.9501102 0.326013 3.0227253 0.47656694 -0.799993 -4.0035467 -1.1753284
-0.89270353 0.9222992 -0.1743857 1.5316894 -0.30743858 -0.12614909 -0.46155366 0.060195312
-0.5096104 -0.6233839 0.13439886 0.1794159 0.44709793 1.0978727 -0.07093405 0.37864953
-0.21402033 -2.136368 0.35568333 -0.97148657 1.6408097 1.9659666 1.3743438 0.65224606
-0.042725474 -0.45846665 0.3914852 0.31349635 0.761029 0.84534186 0.25642803 -0.20071608
-2.136599 -2.9558375 1.1696656 -1.2847337 3.2803566 3.6606014 1.6455384 1.059245
-1.8167536 0.46884167 1.3748004 1.485971 1.4814657 0.4705207 -1.7148442 -1.2947844
-1.8675137 -0.4159529 1.1162688 0.12595448 1.156047 1.4026526 -0.29456094 -0.7404392
-1.6572239 -3.035653 0.026624499 -2.3925092 2.0090444 2.0182397 1.8078983 0.6414357
-0.37534696 -1.0265201 0.22297452 -0.019325769 0.4930927 0.7717126 0.8204934 0.48128483

transformer_encoder.layers.0.self_attn.o_proj.weight f4 [8, 8]
00000000: 1e07 e23e 7076 8dbf 47ab d13e 9362 dc3e
00000010: f725 ea3e bc00 8ebe 7072 bebd 86f8 023f
00000020: b815 7f40 ecf0 1240 465f 153f b9dd d93e
00000030: a084 353e 503b 8ebf 3019 3abf e623 0abe
00000040: 17d4 6340 3fd6 933f 741f 05bf f925 723f
00000050: ed15 8fbe 990a 3abf 4bd4 82bf f8c5 82be
00000060: e62d b5be f6df 59be f2cc 133f 8660 a0bd
00000070: 4ee3 0e3f c45f 44bc 30d1 eebc f554 823e
00000080: a57a 0240 60e8 1740 5f8e 02be d1fd 50bf
00000090: d8eb 2dbf 9ad3 7bbf cc58 b2bf cd28 5cbe
000000a0: f122 b6bf 2958 b6bf 590b 8c3f 8a42 0f3f
000000b0: 5fb4 d73c ed8d 333d 0fbc a23f f70d 713f
000000c0: c498 6dc0 fbad ffbf 1d15 6f3f aaa5 2b3f
000000d0: b59e 753f 8109 a63f 8abb bd3f 174b 2b3f
000000e0: 0478 3fc0 6cf0 ebbf a939 a1be 6ee6 b53e
000000f0: 4a97 263f a1b4 6e3e 22bc 3e3f 96cc bc3e
0.44146055 -1.1051769 0.40950987 0.43043956 0.4573209 -0.27734935 -0.09299171 0.51160467
3.9857006 2.2959547 0.583485 0.42551973 0.17726374 -1.1111851 -0.72694683 -0.13490257
3.55982 1.1549758 -0.5200112 0.9458919 -0.27946416 -0.7267242 -1.0221037 -0.25541663
-0.3538658 -0.2127684 0.57734597 -0.078309104 0.5581559 -0.011985723 -0.029152483 0.25455442
2.0387356 2.373558 -0.12749623 -0.81637293 -0.67937994 -0.98369753 -1.3933349 -0.2149994
-1.4229413 -1.4245654 1.0940963 0.55960906 0.026331125 0.043836523 1.2713641 0.94161934
-3.712449 -1.997497 0.9339159 0.6704966 0.9594529 1.297165 1.4822857 0.66911453
-2.9917002 -1.8432746 -0.31489304 0.35527366 0.650746 0.23311092 0.7450582 0.36874837

transformer_encoder.layers.0.self_attn.o_proj.bias f4 [8]
00000000: f6b4 44bf 90b2 dbbe d5dd aebd 882b 683d
00000010: ce9b 883e 1348 1fbf db08 f2be c0a9 593d
-0.76838624 -0.4290967 -0.08538405 0.05668214 0.2668137 -0.6221935 -0.4727238 0.0531404

transformer_encoder.layers.0.linear_net.0.weight f4 [16, 8]
00000000: ed5c ca3e 7c45 88bf e8a3 9dbf 369a f0be
00000010: 17b1 85bf a4a9 debf 104e 903e 594e b73f
00000020: 563c c53f 49b7 69bf 6c5c 84bf dd7a 183f
00000030: c55f 2b3f 4fef abbf b0d5 1a3e 5250 c03f
00000040: 9879 b13f 79a0 cabf 1ee4 4cbf 41e1 47bf
00000050: ccc3 463f df70 2a3d 31cb 063f 3bdd 8a3f
00000060: a63c 103f 4f33 5bbf 2852 e5be cf63 27bf
00000070: b366 89be 6398 d3be c9c9 d43e 8797 613f
00000080: 68b3 393f 2994 0bbf 6935 9abf 7489 48bf
00000090: 4cc6 7bbf 5ca3 f5bf a751 4e3f c846 e73f
000000a0: efa0 313f 6e5c dcbf e573 cdbf d486 b2bd
000000b0: d49c 31bf 46ca 85c0 29ba 25be 91d7 8a40
000000c0: 3787 8e3f a943 92bf b744 6dbe c9a9 3cbd
000000d0: d628 1e3f 8304 8abe 1a33 ea3e 0ebe 873f
000000e0: 7c73 283f 1c09 28bf 296e c5be f045 8ebe
000000f0: b859 8a3e 2a7c 9fbe 18a4 623f 7506 793f
00000100: 567c 073d 611a 20bf f647 0ebf 586b 27be
00000110: d131 48bf a312 86bf 615a fc3e cb66 4b3f
00000120: a8f8 693f 358c 92bf 9248 22bf 1686 c0bf
00000130: 53e2 603e 1e4f 0bbf 5344 923f f20d ab3f
00000140: 950c 563f d56b 4d3f 15a9 cdbd 2dff 7e3f
00000150: 11f3 843d 9cbd f2be 398d a5bf c5a2 03bf
00000160: a61d 663f e571 45c0 9a4b ba3e ee3f cb3d
00000170: 03a4 d43e 452c d4bf 8f6b dd3f 36bf 1840
00000180: 64f1 a4bf 79e8 9ac0 d54a cabf 37a8 273f
00000190: fe18 2ebf 1a48 6cbf 6bb3 883f b01a e93f
000001a0: b296 943e c8bd bbbf de42 1fc0 d75a 0bbf
000001b0: 40b9 52bf a813 51bf 70ad 963f c589 8a3f
000001c0: 5e22 7d3e 3b2f e6bf d5b1 8bbf 55ec 76bf
000001d0: 8398 f93c 5e2f 3f3e ed7e c23f def9 e73f
000001e0: 9aa0 5c3f cb87 8abf 0d05 98bf bdbc debe
000001f0: 1637 2fbe 9c3a b6be 88e4 5f3f 22e1 d73f
0.39524022 -1.0646205 -1.2315645 -0.46992654 -1.0444669 -1.739552 0.28184557 1.4320785
1.5409038 -0.91295296 -1.0340705 0.59562474 0.6694301 -1.3432406 0.15120578 1.5024512
1.3865232 -1.5830222 -0.8003558 -0.78078085 0.7764251 0.04161155 0.52653795 1.0848764
0.5634254 -0.85625166 -0.44789243 -0.6538667 -0.26836166 -0.413272 0.415602 0.8812184
0.7253938 -0.5452295 -1.204755 -0.78334737 -0.9834945 -1.9190478 0.8059334 1.8068476
0.6938619 -1.7215707 -1.6050993 -0.08717123 -0.69379926 -4.1809416 -0.16184296 4.3388143
1.1135014 -1.1426898 -0.23170744 -0.046060357 0.6178106 -0.26956567 0.45742112 1.0604875
0.65801215 -0.656389 -0.38560608 -0.27787733 0.27021575 -0.31149417 0.8853164 0.9727548
0.03307756 -0.6254025 -0.55578554 -0.16349542 -0.78201014 -1.0474437 0.49287704 0.79453725
0.91395044 -1.1449038 -0.63391984 -1.504092 0.21961336 -0.544176 1.1427101 1.3363631
0.8361295 0.80242664 -0.100420155 0.9960812 0.06491674 -0.47410285 -1.2933723 -0.5142024
0.8988899 -3.0850766 0.36385804 0.09924303 0.4153138 -1.657601 1.7298449 2.3866706
-1.2886167 -4.840878 -1.5804087 0.6549105 -0.68006885 -0.9229752 1.0679754 1.8211269
0.2902122 -1.4667292 -2.4884562 -0.54435486 -0.8231392 -0.8167062 1.1771679 1.0823294
0.24720141 -1.7983164 -1.0913645 -0.96454364 0.030468231 0.18670413 1.5194985 1.8123128
0.8618256 -1.0822691 -1.1876541 -0.4350337 -0.17110857 -0.3559159 0.87458086 1.686558

transformer_encoder.layers.0.linear_net.0.bias f4 [16]
00000000: 6ffd 04c0 9dd2 08c0 e2b4 4dc0 dcab e0be
00000010: b64a fabf 09f1 83c0 8ef2 69bf b59c 07c0
00000020: 61aa e13e e3a6 0ec0 b8df 6bc0 b8a2 93c0
00000030: 1f28 f0bd 469d a6bf 5d85 92bf 90de 47c0
-2.0779684 -2.1378548 -3.2141652 -0.43881118 -1.955405 -4.123173 -0.91385734 -2.1189396
0.440753 -2.228936 -3.6855297 -4.613613 -0.117264025 -1.3016746 -1.1446949 -3.1229591

transformer_encoder.layers.0.linear_net.3.weight f4 [8, 16]
00000000: 73fb a5be 51bd babf 8b28 803f 3d71 10bf
00000010: 54d8 e4be 4594 20bf 7184 48bf e669 60bf
00000020: eefd 9d3e c164 a1be f43c 14bd 7aa2 30bf
00000030: a485 593f 8f8c 733e d8d2 43be 1df7 353e
00000040: 9f3a 97bf b99d 2c3e acdb 0bbe 491d 643d
00000050: 243d 88bf 5f3b 3cbf 9d3e 65bf 2747 f93e
00000060: a773 783d 7d89 bdbd dfb5 44bf b64c 4bbf
00000070: 9c6e 82be 982c 84be d305 823e bda9 fc3e
00000080: ba87 8ebf 56de 553e b86b aebe 487c 07bf
00000090: 0ab2 a3bf 2c44 b53e 0a32 62bf ab0f 123e
000000a0: c21f b8be 1d76 0fbf 3285 d2be 660d 4dbf
000000b0: 84ee c1be 6abd 18bf 6efe a1bc a1fa a2be
000000c0: da61 8cbf 6857 18bf b5fa d2bd 23ca 0fbf
000000d0: 537c c5bf b02d 5cbf 6468 5bbf fdfe 60bf
000000e0: 53f1 74bf a9be 90be 5d22 25be 4226 6dbf
000000f0: 51fd 8d3e b26c 52bf 2675 f8be 2901 473e
00000100: 681f 97bf 7dcf 7a3c e99a 54bf 78dc 063f
00000110: b085 99bf cc24 0840 5c03 e4be 6673 ba3e
00000120: 2dbd 0ebe f7a4 9bbe d7b0 fabe 4b38 60bf
00000130: 5ae0 84bf 5f7b b0be b992 dc3e 04ba d5bf
00000140: 0f2c dabe 204c a03f 5ef0 e9bd 852a 133f
00000150: ec19 01bf 6d8c bf3f 17e0 cb3f 9778 cf3e
00000160: bd46 3e3e 244e fd3f a357 313b 58ca 4cc0
00000170: 5088 113e 06d1 97be 976d 92bf a1f2 f33f
00000180: 6987 683f b726 cfbe 4558 c33c c664 92bd
00000190: d62b af3f 1337 9a3e 184e 253f f10d 3fbe
000001a0: 471a 3a3e 3627 353d dfbc 333f 7a0f 3a3f
000001b0: 5838 b23e e7e8 2d3e 13b6 53bf d4cc 8bbe
000001c0: 1da9 a53f 045f c1bb 6299 e33e 67e4 b23e
000001d0: 3cf6 9a3f d1fa e63e d8de 503f b2d2 cdbe
000001e0: 5443 e1bd e976 62be 4a42 363f 7ff0 4c3f
000001f0: 2635 2a3f 7ab0 9f3e 0c4d 29be cc45 2d3d
-0.32418403 -1.4589025 1.0012373 -0.5642279 -0.44696295 -0.6272624 -0.7832709 -0.8766159
0.30857795 -0.31522182 -0.036190942 -0.6899792 0.84969544 0.23784088 -0.191234 0.17770047
-1.1814765 0.16857041 -0.13658017 0.05569199 -1.0643659 -0.73528093 -0.89548665 0.48687097
0.06065717 -0.092547394 -0.76840013 -0.79413927 -0.25475013 -0.25815272 0.2539507 0.4934825
-1.113517 0.20885596 -0.34066558 -0.52924013 -1.2788708 0.35403574 -0.88357604 0.1426379
-0.3596173 -0.560396 -0.41117245 -0.8009857 -0.37877285 -0.5966402 -0.019774642 -0.3183184
-1.0967362 -0.5950837 -0.10301725 -0.5616781 -1.5428566 -0.86007214 -0.8570616 -0.8788908
-0.9568073 -0.28270462 -0.1612639 -0.926365 0.27732328 -0.82197106 -0.48526877 0.19434036
-1.180646 0.015308258 -0.83048874 0.5268016 -1.1993923 2.127246 -0.44533813 0.36416167
-0.13939352 -0.30399296 -0.48963043 -0.87585896 -1.0380967 -0.34469125 0.4308069 -1.6697392
-0.4261174 1.2523232 -0.114227995 0.57486755 -0.5043018 1.496473 1.5927762 0.4052169
0.18581672 1.9789472 0.0027060292 -3.19985 0.14212155 -0.2965166 -1.1439694 1.905842
0.9083162 -0.40459225 0.023845801 -0.07148127 1.3685253 0.30120143 0.64572287 -0.18657662
0.18174087 0.044226848 0.7021007 0.72679865 0.34808612 0.16983376 -0.826997 -0.2730471
1.2942234 -0.0059012193 0.4445296 0.34939882 1.2106395 0.45113233 0.8159003 -0.4019981
-0.1099917 -0.22115673 0.711949 0.8005447 0.6648735 0.31189328 -0.16533297 0.04230289

transformer_encoder.layers.0.linear_net.3.bias f4 [8]
00000000: d741 c33f 1f39 083d 1bb7 5bbf 6185 393e
00000010: 578f 04bf 4d3d 39bf 63c9 4fbe 8514 b13e
1.5254468 0.0332576 -0.8582627 0.18117286 -0.5178122 -0.7235916 -0.20291667 0.34585968

final_linear.weight f4 [1, 8]
00000000: 49ad 26be a6b1 d7be ce4b 19be f2c6 51bc
00000010: 6b36 04be 3e23 c43e 9a7f 913f 4d0c b73e
-0.1627704 -0.42127723 -0.14970323 -0.01280378 -0.12911384 0.38308138 1.1367066 0.35751572

exp_avg f4 [8, 2]
00000000: 121e e0b9 9710 26ba bc36 97b9 fa00 adb9
00000010: 2fec c939 33aa 8c37 345f 15b9 667c 9bb8
00000020: 5c5e ac39 4948 8bb9 b984 1d3a 40a1 fc39
00000030: a8ea 453a a315 de3a c2c2 42b9 6c59 7b38
-0.00042747014 -0.00063348695 -0.00028841745 -0.0003299786 0.00038513678 1.6768556e-05 -0.00014245213 -7.414147e-05
0.000328767 -0.00026566003 0.0006008852 0.00048185326 0.000754992 0.0016943704 -0.00018573835 5.9926344e-05

exp_avg_sq f4 [8, 2]
00000000: d56b 0f37 9acb b138 a401 8137 5f53 1b39
00000010: 17ff 5337 ef21 1839 702a 8037 316e a938
00000020: 1531 b937 fa90 c739 be45 d837 1475 d939
00000030: 4727 f237 54bd 8f39 0add 3037 1c71 e238
8.548571e-06 8.4779414e-05 1.5378762e-05 0.0001481301 1.2635973e-05 0.00014508491 1.527855e-05 8.079073e-05
2.2076574e-05 0.00038064254 2.5781683e-05 0.00041476695 2.8866938e-05 0.00027416146 1.0541882e-05 0.00010797588

exp_avg f4 [8]
00000000: 9c6b 99ba bc09 c7ba 0050 0bb7 1af0 03ba
00000010: d056 c7b9 48dc 8c3a 1610 853b d8e0 9139
-0.0011705044 -0.0015185396 -8.303672e-06 -0.00050330313 -0.00038020918 0.0010746801 0.0040607555 0.00027824077

exp_avg_sq f4 [8]
00000000: 518b d239 db62 453a 1d00 373a e03d ce39
00000010: ef26 ec3a ed29 003b ae8b b03a bd59 0c3a
0.0004015812 0.0007529684 0.0006980913 0.00039337482 0.0018016974 0.001955624 0.0013469362 0.0005353948

exp_avg f4 [24, 8]
00000000: c54a 0bb8 d884 9a38 5625 3138 3335 e338
00000010: d268 0b38 3c24 adb6 70c0 13b9 adc8 dcb8
00000020: cc26 8337 f26f 4a37 d570 a4b4 7512 e736
00000030: 428f f9b6 722e a4b6 facd 3d34 8803 bab5
00000040: 9824 fbb2 a559 7433 4f83 1d34 50e8 99b3
00000050: 5ee5 1934 b9da bab4 f661 28b5 7a6e f4b4
00000060: a912 9638 a357 b138 5f76 0937 5b1b 9f38
00000070: d28c 03b8 e845 20b7 3ca9 a8b7 5519 bbb7
00000080: 2acf bf36 b0b9 b636 3c09 3832 97c0 8e36
00000090: 3065 3fb6 38d3 28b5 6181 f334 67a4 8bb4
000000a0: 3c69 a2b6 16d7 51b6 2ac3 0635 93da eeb5
000000b0: 7439 2b36 e88d b835 1afc 84b5 c7de 92b4
000000c0: 89dd b038 d2da 0cb8 a924 afb8 4af6 00b8
000000d0: 74af cab8 377a e738 55a1 a739 c5c0 7139
000000e0: bd9c 6bb4 fe20 b234 76e3 0e35 2f04 2cb4
000000f0: ecb5 0a35 243d 8fb5 e8c2 0eb6 13c0 ceb5
00000100: 5fe6 cbb6 56d6 7cb6 853c a0b5 08c9 5634
00000110: af76 9935 e695 d136 5643 d336 1474 a636
00000120: 6862 a638 4b80 8338 02ce 1e36 c6ec 0738
00000130: f0de 0fb8 ba4e ebb7 4988 0ab7 4850 60b7
00000140: ca76 d6b8 faec 96b8 de0c 4536 6bb9 18b8
00000150: 424f 4938 7179 f637 0220 24b7 53f9 4536
00000160: 70d5 25b7 4044 bfb6 4e73 f3b6 a341 e536
00000170: 0f96 84b6 0512 ea37 27ca 1c38 baac e437
00000180: f9c8 0238 eaa5 4737 d175 4ab6 ac19 14b5
00000190: 30fd 81b7 81a5 21b7 db2b 6037 44a9 1137
000001a0: fdcd 7bb9 fa9d deb8 2496 9438 3bcc a2b7
000001b0: f9db 2739 307d f836 b183 6ab9 225f 14b9
000001c0: 9af7 613a 2209 233a 9b8d c7b8 728e 9339
000001d0: 302e f2b9 53a7 24b9 5e37 9839 16af fa38
000001e0: 7713 c4b9 4886 49b9 42c5 4eb8 aa12 3d38
000001f0: 998f b938 603a c839 5b7c aa39 6b67 8e39
00000200: f804 4238 a9ca 1b38 c05d a836 b7ed 8237
00000210: c886 8ab7 59fa d1b7 a0d6 a1b7 9f21 9ab7
00000220: e308 9737 5690 5337 f92d ae35 4478 5b36
00000230: 627b deb6 a40a 35b7 16e1 d7b6 ae6b d4b6
00000240: 96bb 9438 8b92 6e38 d9cb 0437 575e e637
00000250: d153 d1b7 cf59 2ab8 204d 0eb8 261a 04b8
00000260: 9c71 2c37 e2ad 6e37 2ce8 9f36 74d8 2e37
00000270: 63bf 2ab5 9cd2 35b7 bff8 b1b7 4e94 84b7
00000280: fb4f 0639 9e56 0639 da0c e337 dc06 af38
00000290: 911b 1cb8 beef b3b8 2a1d efb8 6ad7 c5b8
000002a0: f922 22b8 f7eb d7b7 490b 1938 ed99 8eb7
000002b0: b7d6 5638 bfda 44b8 6e01 fdb8 9eb7 a7b8
000002c0: 7055 b538 c837 8738 727f 1c38 2e3a 8fb4
000002d0: c696 67b6 0d2e a3b8 f9f7 c6b8 1bee acb8
000002e0: 2995 b83a 5823 bb3a 73e2 e739 237b 2d3a
000002f0: 7038 9ab9 e3a3 84ba 6e75 b9ba ee63 9aba
-3.3209817e-05 7.368036e-05 4.223486e-05 0.000108341126 3.3237804e-05 -5.16002e-06 -0.00014090701 -0.00010527796
1.5634483e-05 1.20662025e-05 -3.0629477e-07 6.886485e-06 -7.4374557e-06 -4.892988e-06 1.767693e-07 -1.3859108e-06
-2.9236887e-08 5.689221e-08 1.4669534e-07 -7.166875e-08 1.4332679e-07 -3.4804341e-07 -6.272743e-07 -4.5528924e-07
7.156033e-05 8.456341e-05 8.193397e-06 7.586806e-05 -3.1363983e-05 -9.5530195e-06 -2.0105967e-05 -2.2303933e-05
5.7163606e-06 5.4456395e-06 1.0712309e-08 4.25435e-06 -2.8520117e-06 -6.289224e-07 4.5356413e-07 -2.6010386e-07
-4.840227e-06 -3.1268623e-06 5.020289e-07 -1.7795995e-06 2.5514428e-06 1.3750368e-06 -9.908138e-07 -2.735671e-07
8.433598e-05 -3.3582393e-05 -8.351479e-05 -3.0746953e-05 -9.664791e-05 0.00011037703 0.00031972924 0.00023055363
-2.1943102e-07 3.317909e-07 5.323012e-07 -1.602027e-07 5.167374e-07 -1.0672125e-06 -2.12731e-06 -1.5404097e-06
-6.07669e-06 -3.7675686e-06 -1.1938542e-06 2.0003438e-07 1.143393e-06 6.246136e-06 6.296129e-06 4.960699e-06
7.9338264e-05 6.270463e-05 2.3663747e-06 3.240702e-05 -3.4301484e-05 -2.8050843e-05 -8.257172e-06 -1.3370132e-05
-0.000102264414 -7.196698e-05 2.9362777e-06 -3.6412308e-05 4.799595e-05 2.9382036e-05 -9.782614e-06 2.9500413e-06
-9.884461e-06 -5.700189e-06 -7.2553876e-06 6.832373e-06 -3.9513757e-06 2.7903365e-05 3.7381567e-05 2.726015e-05
3.1181586e-05 1.1899954e-05 -3.0168924e-06 -5.5171654e-07 -1.5495898e-05 -9.634882e-06 1.3361651e-05 8.682084e-06
-0.00024013962 -0.0001061521 7.085156e-05 -1.9407007e-05 0.00016008307 7.4055497e-06 -0.00022365038 -0.0001414982
0.00086199644 0.00062193174 -9.5154355e-05 0.00028144155 -0.0004619225 -0.00015702592 0.0002903295 0.00011953541
-0.00037398536 -0.00019218877 -4.9297938e-05 4.5078494e-05 8.8482346e-05 0.00038190465 0.0003251758 0.00027161403
4.6257832e-05 3.714362e-05 5.017704e-06 1.5607902e-05 -1.6513644e-05 -2.5031319e-05 -1.9292638e-05 -1.8373887e-05
1.8004741e-05 1.2610186e-05 1.297739e-06 3.2703547e-06 -6.630479e-06 -1.0790918e-05 -6.4337028e-06 -6.330628e-06
7.0921305e-05 5.68801e-05 7.915275e-06 2.7462067e-05 -2.4953772e-05 -4.06148e-05 -3.3927266e-05 -3.1495605e-05
1.0278451e-05 1.4226391e-05 4.7655976e-06 1.0421605e-05 -6.360844e-07 -1.0837477e-05 -2.1215876e-05 -1.5804686e-05
0.00012809031 0.00012811503 2.7066493e-05 8.345928e-05 -3.721897e-05 -8.5800406e-05 -0.0001140184 -9.433816e-05
-3.865638e-05 -2.5739877e-05 3.6488553e-05 -1.6999396e-05 5.1221545e-05 -4.6933765e-05 -0.000120642464 -7.997382e-05
8.6466665e-05 6.447692e-05 3.731199e-05 -2.6678157e-07 -3.4509444e-06 -7.781023e-05 -9.487564e-05 -8.24595e-05
0.0014082539 0.0014277501 0.0004422847 0.0006617775 -0.00029415218 -0.0010119643 -0.0014149377 -0.0011779049

exp_avg_sq f4 [24, 8]
00000000: 1216 de36 6777 7537 50e8 0337 b55d 2b37
00000010: adb7 8135 27fc 9036 2b28 b437 04e3 9137
00000020: a823 4534 6c88 5933 9f66 cb33 3f96 3a33
00000030: 57e4 3f33 40d9 d832 2d01 a532 1503 e833
00000040: ad89 0235 3ddf 9634 251e 0334 ff30 ed33
00000050: 0fe3 0334 0450 da33 60d8 4233 067b ae33
00000060: abe6 3034 1c11 6033 b087 d133 a177 4933
00000070: 0dcc 2e33 d558 c132 6acd ae32 77b8 ce33
00000080: 0191 b033 29dd a932 352d c033 b6b8 fe32
00000090: 0041 c232 ec93 6632 d123 8532 2c52 9733
000000a0: 93e2 2234 af9e 1d33 3d3c 0334 7bf0 1633
000000b0: 1d33 3333 c760 b032 c0cd af32 96b2 0034
000000c0: 4672 0b34 7b16 9332 c652 d333 f263 0233
000000d0: 1bb7 5833 e226 cc32 c699 3634 232b 2434
000000e0: 12b0 2934 9511 7532 c223 b133 005c 0233
000000f0: faba 1e33 48d5 b632 fd7d 7032 67f2 e533
00000100: b0c2 8f36 f3c8 3c35 66d9 5135 8aae f833
00000110: dafc 5635 7fd5 0335 a4e0 f533 3c83 1934
00000120: d84f 0237 44c2 9b35 38bf bc35 c3e9 6134
00000130: 4a05 a735 6f97 4835 757c 4a34 e3a9 d133
00000140: ef91 fd36 d93c 2136 0141 9835 0f7e 3535
00000150: 5587 dc35 2e30 9f35 0f9e d334 f31a 3335
00000160: 87d6 d637 5402 9c37 6410 5835 98b5 f336
00000170: b9d3 9536 9c3a 3636 dbda 3536 141c 4234
00000180: cf0c 0c36 6228 5d34 e329 7535 702c 4534
00000190: 3567 1e35 8aca cb33 f04a 0535 6adb 7535
000001a0: 1e0d 4e36 b4e1 9d34 63be 8135 c914 2134
000001b0: d5a1 7635 aed8 0c34 0344 1235 1acf 7d35
000001c0: 8e16 d437 0477 a036 d84b ab36 9895 ac35
000001d0: 4519 e336 0f6e 0e36 c4d7 4336 423b 7336
000001e0: 14e8 e138 a697 7538 5b25 5937 a0fb c437
000001f0: 3339 be37 9dc6 8837 6a72 8637 fc93 3a37
00000200: 2b61 9e36 1aa5 9335 315e c935 f719 3a35
00000210: da2b 7535 9a43 2835 f2d8 a434 660f d035
00000220: fe89 8738 f021 c736 59c5 4f37 93f8 ce35
00000230: 92e4 3037 41e7 c836 8208 9635 8277 1437
00000240: 6cfd 2738 cf6a e236 52a7 8d36 65cd 1036
00000250: e7aa d436 da35 aa36 1962 0036 d22b 3036
00000260: cd56 6638 ad89 1f38 391b 4636 f4e2 8a37
00000270: 4e66 1e37 b098 bf36 b784 d836 7bbf b836
00000280: b2d0 6a38 92ee e236 0f38 1538 974d 0e37
00000290: b2da 8237 80ac 1f36 eeb6 5637 0e2f f337
000002a0: c1c8 8f38 38f0 1037 b91a 3438 f6b9 2c37
000002b0: 2951 a837 7d5a 5636 d982 9237 3b81 1838
000002c0: 5dad ab38 7f91 0537 85df df37 d1b3 7a36
000002d0: 56e4 ac37 3ccc df36 545f 0837 4a66 a937
000002e0: c410 dd3a 3e27 b839 ced2 3e39 c7b7 e738
000002f0: 7e98 9a39 7876 3c39 9c51 5d38 4966 f037
6.618685e-06 1.46309385e-05 7.862298e-06 1.0214212e-05 9.664706e-07 4.320889e-06 2.1476377e-05 1.739106e-05
1.8360026e-07 5.0648325e-08 9.471591e-08 4.3443148e-08 4.4678327e-08 2.5244503e-08 1.9209063e-08 1.08039025e-07
4.862912e-07 2.8102104e-07 1.2211292e-07 1.1045085e-07 1.2282929e-07 1.0165971e-07 4.5365937e-08 8.124884e-08
1.6475194e-07 5.2169625e-08 9.757002e-08 4.690776e-08 4.0698115e-08 2.2508553e-08 2.0349677e-08 9.6261765e-08
8.222015e-08 1.9774761e-08 8.94892e-08 2.9653489e-08 2.2614131e-08 1.34213956e-08 1.5499525e-08 7.0464324e-08
1.5169853e-07 3.6698733e-08 1.222224e-07 3.5143312e-08 4.1723172e-08 2.0533106e-08 2.0466246e-08 1.1985898e-07
1.2986956e-07 1.7123275e-08 9.8405096e-08 3.0358883e-08 5.0457952e-08 2.3766408e-08 1.7006013e-07 1.5289383e-07
1.5803406e-07 1.4264875e-08 8.248709e-08 3.0351657e-08 3.6957296e-08 2.1284578e-08 1.3998485e-08 1.0707736e-07
4.2843967e-06 7.032788e-07 7.8174924e-07 1.15801484e-07 8.008916e-07 4.911198e-07 1.14495634e-07 1.4296978e-07
7.767194e-06 1.1604939e-06 1.4062744e-06 2.10398e-07 1.2444009e-06 7.472617e-07 1.8857993e-07 9.763223e-08
7.5569765e-06 2.4026288e-06 1.1343801e-06 6.7611194e-07 1.6430664e-06 1.1860445e-06 3.9416815e-07 6.672191e-07
2.5610685e-05 1.8597733e-05 8.049012e-07 7.2631046e-06 4.465194e-06 2.7154229e-06 2.7098492e-06 1.8077873e-07
2.0869081e-06 2.059692e-07 9.1330566e-07 1.8363221e-07 5.900977e-07 9.489766e-08 4.965541e-07 9.15889e-07
3.0704027e-06 2.940775e-07 9.666659e-07 1.5001855e-07 9.187764e-07 1.3117344e-07 5.448821e-07 9.4551217e-07
2.5282872e-05 4.782227e-06 5.1050265e-06 1.2858536e-06 6.768069e-06 2.1223711e-06 2.9182856e-06 3.6244314e-06
0.00010772064 5.8553785e-05 1.2942905e-05 2.3482193e-05 2.26764e-05 1.630495e-05 1.6027323e-05 1.1120919e-05
4.720079e-06 1.1000404e-06 1.500308e-06 6.9328183e-07 9.1333425e-07 6.268325e-07 3.070523e-07 1.5501689e-06
6.463005e-05 5.934613e-06 1.238411e-05 1.5420541e-06 1.0543636e-05 5.987386e-06 1.1178347e-06 8.8493125e-06
4.005192e-05 6.747759e-06 4.221606e-06 2.1577227e-06 6.337988e-06 5.072664e-06 1.9130587e-06 2.625155e-06
5.4917113e-05 3.8036775e-05 2.9520145e-06 1.6556565e-05 9.4413535e-06 5.7100187e-06 6.4527517e-06 5.5059186e-06
5.598431e-05 6.763098e-06 3.5576577e-05 8.481925e-06 1.5599046e-05 2.3793255e-06 1.2797986e-05 2.8989769e-05
6.856165e-05 8.638999e-06 4.294023e-05 1.0295296e-05 2.0064954e-05 3.1941156e-06 1.7465487e-05 3.635998e-05
8.186207e-05 7.961294e-06 2.6687756e-05 3.735757e-06 2.0610325e-05 6.669694e-06 8.128427e-06 2.0194002e-05
0.0016865958 0.00035124453 0.00018198343 0.000110491696 0.00029486784 0.0001797321 5.276651e-05 2.865786e-05

exp_avg f4 [8, 8]
00000000: 5646 0bb7 5838 43b9 0eaf 7a39 492c 9c39
00000010: 2d6b 9838 f77b 2139 3123 a639 b326 ad39
00000020: 9946 3dba fb36 48b9 3de0 2639 4063 2eb8
00000030: 9632 bc38 fe16 0b39 0103 ce39 ef82 ae39
00000040: bd2d f3b9 101b e8b8 3414 54b9 72ef b6b9
00000050: e1c1 2eb9 a165 43b9 e483 1fb9 5c6a 44b9
00000060: 445b fc39 a58d 07b9 ce71 8839 0302 ee39
00000070: 2465 5e37 8f24 fa38 d807 8339 1188 a539
00000080: 0591 adb9 7d3b bdb8 0fe4 edb8 dc3e 73b9
00000090: 40f5 3eb9 183b 36b9 609e 20b9 90fe 2fb9
000000a0: abfe 1a3a bef8 b239 85b7 2139 833f a739
000000b0: e115 123a 089c e339 b0ab d039 b318 c139
000000c0: 7667 083b 4644 873a 1a73 293a ef76 a13a
000000d0: 2863 cb3a 97b8 a83a 144b 8f3a e0a2 8d3a
000000e0: 27dd 283a e654 9539 0132 1a39 71eb ae39
000000f0: e309 b539 2499 9339 81de 2039 3e88 3039
-8.301422e-06 -0.00018617639 0.00023907071 0.00029787634 7.267888e-05 0.00015400337 0.00031688207 0.00033025965
-0.00072202977 -0.00019093968 0.00015914529 -4.1577267e-05 8.973961e-05 0.00013264638 0.0003929362 0.0003328542
-0.0004638265 -0.00011067663 -0.00020225422 -0.00034892146 -0.00016666159 -0.00018634509 -0.00015212555 -0.00018731639
0.00048133184 -0.0001292737 0.00026024733 0.00045396396 1.325578e-05 0.000119277385 0.0002499211 0.0003157263
-0.0003310518 -9.023303e-05 -0.0001134352 -0.00023197703 -0.00018211175 -0.00017378887 -0.00015317788 -0.00016784132
0.0005912582 0.00034136133 0.00015422523 0.00031900042 0.0005572718 0.00043413066 0.0003980077 0.0003683023
0.002081362 0.001032003 0.000646399 0.001231877 0.0015517222 0.0012872395 0.0010932409 0.0010805987
0.00064416457 0.0002848275 0.00014705212 0.00033363284 0.00034530376 0.00028152124 0.00015341678 0.00016835422

exp_avg_sq f4 [8, 8]
00000000: 4523 a838 51fa a038 33dd ad38 7599 b738
00000010: fb5d b738 8553 b838 543d b738 da28 b538
00000020: 7334 c938 9924 c338 aec1 c438 9750 c738
00000030: f750 ca38 1fb2 c838 6e1b c838 06a3 c538
00000040: 8ed2 3237 baff 2f37 dfb5 4137 bb25 4837
00000050: eb4a 4d37 854d 4c37 d073 4c37 f769 4837
00000060: 0bb0 8337 1855 8937 75de a237 e890 ab37
00000070: 098d aa37 4e89 a937 c51c a837 8db2 a637
00000080: 55a8 1238 eb00 0d38 094e 1638 392f 1c38
00000090: e80d 1e38 430b 1f38 65dd 1e38 cc08 1c38
000000a0: 81e4 a337 7238 aa37 68bc b737 7ad9 bb37
000000b0: ee0e be37 885f bf37 771a be37 c24c bb37
000000c0: c9f5 eb38 efd6 ee38 857f f938 89b7 fc38
000000d0: 06fb 0039 5b48 0139 92d1 0039 5ee9 fc38
000000e0: 1bc3 3338 22e1 3138 b348 3838 e115 3c38
000000f0: 1af7 3f38 46fa 3e38 cc63 3e38 385c 3b38
8.017434e-05 7.6760196e-05 8.2904844e-05 8.7547036e-05 8.743625e-05 8.7893604e-05 8.737543e-05 8.638362e-05
9.594196e-05 9.3051414e-05 9.382084e-05 9.5040705e-05 9.6471915e-05 9.569921e-05 9.541852e-05 9.4240575e-05
1.065865e-05 1.0490354e-05 1.1546042e-05 1.1929714e-05 1.2236395e-05 1.21773965e-05 1.2186312e-05 1.1945601e-05
1.5698393e-05 1.6371298e-05 1.9415495e-05 2.0452266e-05 2.0331254e-05 2.0210307e-05 2.0040558e-05 1.9871886e-05
3.4965884e-05 3.3617875e-05 3.5835463e-05 3.7237278e-05 3.7683087e-05 3.7919042e-05 3.7876325e-05 3.720149e-05
1.953752e-05 2.0291864e-05 2.1903033e-05 2.2393408e-05 2.2656717e-05 2.281346e-05 2.2662089e-05 2.232788e-05
0.00011251454 0.00011388759 0.000118969976 0.000120504825 0.00012300545 0.00012329353 0.00012285102 0.000120597644
4.285863e-05 4.240976e-05 4.3936725e-05 4.484307e-05 4.576808e-05 4.5532615e-05 4.5392473e-05 4.467016e-05

exp_avg f4 [8]
00000000: 708c aeb9 406e 5eba ec12 02ba 3bf9 bd39
00000010: ac39 e3b9 1d00 8e3a 8e23 693b 3828 673a
-0.000332925 -0.00084850565 -0.0004961926 0.0003623458 -0.00043339783 0.0010833774 0.003557417 0.0008817944

exp_avg_sq f4 [8]
00000000: 551d 9939 32df a53a ae67 3939 45f0 d038
00000010: ffae 9d39 4f38 2039 af9e 8c3a 5c5e 143a
0.00029204288 0.0012655018 0.00017681599 9.9629666e-05 0.00030075756 0.00015279766 0.0010728444 0.00056598126

exp_avg f4 [16, 8]
00000000: 06ef 9cb8 7abb 38b8 4cb7 0bb7 afde 4ab8
00000010: dc6e 7db5 e154 d337 87c8 6f38 22ea 9737
00000020: 77ed 1a94 8c34 9493 70d9 b413 327f 2793
00000030: decc 0e14 ac53 bc91 976e 8c12 13c4 4413
00000040: 31f6 1b05 738a 1105 4a22 8c04 2af3 b003
00000050: d083 b384 abfa a904 b163 0885 b078 0585
00000060: cc1a 2b37 c32b fc37 ed6d 8fb6 7fab 3437
00000070: e074 4db8 dc02 7a38 39e8 ad38 e56c a636
00000080: 30f6 59b6 a084 7fb5 6756 c2b4 f60b 03b6
00000090: 309d 3bb5 ed11 a935 a202 1a36 c03e 5935
000000a0: dbd3 33b7 8f04 b336 bb11 9fb6 b8e1 b9b6
000000b0: 926b c3b7 b3a8 0338 dfcc 4d38 c354 e236
000000c0: 71aa 9b33 15fa ee33 ec42 fdb1 c504 f032
000000d0: f616 4cb3 3a05 5fb2 2bdb bdb1 173e 94b2
000000e0: 8033 15b7 a6f9 bcb7 068a 1c36 7777 2bb7
000000f0: 9e1d 0f38 07a2 29b8 e5a3 64b8 d53a d6b5
00000100: a6a2 ac37 002d 2838 6797 d3b6 031b a537
00000110: eac6 52b8 6478 d938 8b26 0a39 a87f 2638
00000120: 885d e634 c2fc 5938 68a6 1eb7 1495 7037
00000130: ce92 dbb8 2691 0b39 65cc 4439 e947 3a37
00000140: 69d4 f739 2d2b 9c3a de5d a13a 14a8 2539
00000150: e4de c6b9 010e cb39 491a 0bb9 6fed 58ba
00000160: 8a2c 94b7 a163 79b7 ed63 63b5 110a 4fb7
00000170: 0ce9 f936 4bf7 73b6 a959 2333 d654 5d36
00000180: 169a fbb8 355a c5b8 c63d 2239 82c1 88b9
00000190: 3fdf a839 eae9 30b9 b62e f8b8 4772 ef38
000001a0: 51a6 2ab8 3d07 a236 18a8 c8b6 638b a0b6
000001b0: 506a 38b8 5b13 ab38 6c3b e438 5546 5a37
000001c0: 3577 db39 dc2c 2b39 59a9 fcb6 ff38 8d38
000001d0: 29bf 43b8 3ed7 86b9 5a8f 82b9 48c1 a7b8
000001e0: 73b4 c537 6811 7b38 7102 59b6 9665 c137
000001f0: caa9 a8b8 820e ca38 cfcc 0539 4db6 1836
-7.483181e-05 -4.404362e-05 -8.327723e-06 -4.8367943e-05 -9.4411166e-07 2.5192685e-05 5.7168796e-05 1.810963e-05
-7.821845e-27 -3.7412268e-27 4.5652798e-27 -2.1141076e-27 7.209571e-27 -2.9712737e-28 8.862505e-28 2.483535e-27
7.333283e-36 6.843296e-36 3.294533e-36 1.0400178e-36 -4.220375e-36 3.996191e-36 -6.413e-36 -6.275797e-36
1.0198633e-05 3.006112e-05 -4.274529e-06 1.0768766e-05 -4.8984657e-05 5.9607308e-05 8.292538e-05 4.9598625e-06
-3.247882e-06 -9.51879e-07 -3.6198182e-07 -1.9527483e-06 -6.9891666e-07 1.2596698e-06 2.294932e-06 8.093011e-07
-1.0718558e-05 5.3351464e-06 -4.7406334e-06 -5.5397068e-06 -2.3295903e-05 3.1389947e-05 4.906661e-05 6.7451924e-06
7.248753e-08 1.1128228e-07 -7.3708772e-09 2.7941846e-08 -4.7518334e-08 -1.2981497e-08 -5.5255405e-09 -1.7257703e-08
-8.893083e-06 -2.2527598e-05 2.3326152e-06 -1.0220209e-05 3.412144e-05 -4.044364e-05 -5.4512075e-05 -1.5961365e-06
2.0579737e-05 4.009623e-05 -6.3059156e-06 1.9682111e-05 -5.0253155e-05 0.00010369791 0.00013175064 3.9696373e-05
4.290889e-07 5.197223e-05 -9.456278e-06 1.4339825e-05 -0.00010470078 0.00013310145 0.0001876816 1.1103207e-05
0.0004726977 0.0011914723 0.00123113 0.0001579824 -0.0003793157 0.0003872961 -0.00013265865 -0.00082751265
-1.7663715e-05 -1.4864753e-05 -8.47095e-07 -1.2340505e-05 7.4479085e-06 -3.6353765e-06 3.803294e-08 3.2980947e-06
-0.000119973134 -9.4104944e-05 0.00015472536 -0.00026084116 0.00032209788 -0.00016871808 -0.00011834262 0.00011417694
-4.0686053e-05 4.828819e-06 -5.980033e-06 -4.7845983e-06 -4.396803e-05 8.157521e-05 0.000108829554 1.3010188e-05
0.0004185975 0.00016324542 -7.5299e-06 6.73402e-05 -4.6669655e-05 -0.0002571884 -0.00024902337 -7.999182e-05
2.3568258e-05 5.9859274e-05 -3.233694e-06 2.3054698e-05 -8.04249e-05 9.634813e-05 0.00012760166 2.2755878e-06

exp_avg_sq f4 [16, 8]
00000000: 4f23 9c34 2265 1a33 0ea6 1835 e1f5 5534
00000010: 74d7 6735 18e8 e733 2d3d 4634 98b7 3834
00000020: ebc8 6e35 1b06 b934 464f 4135 4d6b 3735
00000030: e7b4 2636 20dd 1b35 152c 0c35 7edc 9435
00000040: c76f e336 15ef 1737 9312 8237 fd07 3336
00000050: fb80 8536 8128 6d36 f8df 7f37 db53 5437
00000060: a3a4 7c35 eee8 9435 3a82 b235 aecc 0435
00000070: 0e26 a735 9686 ec34 21f0 4935 97f5 b635
00000080: 0216 0635 2f5c 3533 5397 6935 f1d5 3634
00000090: 1b48 0d36 c6e7 5a33 b95b d734 0a89 df34
000000a0: 4313 3434 0098 b532 df50 aa32 4d16 2632
000000b0: 1ce0 7b33 2014 aa31 c7da 2232 91f8 1331
000000c0: 3db1 6e34 9c0c 5d33 d2cf 9c35 bd0e 1935
000000d0: 0181 1f35 6f09 b034 7463 0334 172c 8334
000000e0: 953a f237 a0d8 0036 3541 8f37 e51d 3135
000000f0: 7994 9b37 6fdc 1836 be1e 1536 e66a 6a37
00000100: 7e3e 9c36 ff0b 2f36 5bbb 6a36 13e6 d135
00000110: 54f9 e136 fbfe 4936 e54d 4836 1789 3d37
00000120: 540d 1c36 12cc 7836 702d 1f37 0478 1d36
00000130: 735e 4436 556f 3935 41e7 dd36 b1fd be36
00000140: 2504 bd38 4132 6b3a 85d4 c839 006f 7d39
00000150: 2990 6838 c2d3 2c38 f8bc c039 7b4f 313a
00000160: 2fd4 9637 51e2 8d37 74f1 9235 59de 3d35
00000170: e717 8935 2fa5 0c33 5775 8136 1e44 0537
00000180: 4c7e da38 376e a336 02b9 bc37 a724 9036
00000190: 7610 0a38 612a ac36 69ac 5337 07a2 a937
000001a0: a390 ab35 b21c b035 58bd 2435 b5ad 0534
000001b0: 8638 9f36 1ac9 0936 994a b835 ec57 9636
000001c0: 79a7 1036 6b4a cf35 278f 1636 a541 8e35
000001d0: 2992 7c36 a553 0836 f86a c635 2464 4736
000001e0: bd09 2c37 bafe 2537 bf82 0937 2727 e336
000001f0: a3a4 7337 6bc1 0f36 fab2 2837 b717 4437
2.9082955e-07 3.59479e-08 5.6866054e-07 1.9926621e-07 8.636773e-07 1.0798993e-07 1.8462443e-07 1.7203126e-07
8.8954283e-07 3.4463378e-07 7.201346e-07 6.8328956e-07 2.4841227e-06 5.806378e-07 5.221821e-07 1.1091031e-06
6.77814e-06 9.055967e-06 1.5505857e-05 2.6677728e-06 3.978724e-06 3.5339328e-06 1.5251331e-05 1.2655709e-05
9.4116893e-07 1.1094651e-06 1.3299934e-06 4.947168e-07 1.2453545e-06 4.405635e-07 7.522777e-07 1.3631533e-06
4.9950916e-07 4.2226187e-08 8.701947e-07 1.7027902e-07 2.1052608e-06 5.0967877e-08 4.0113608e-07 4.1636696e-07
1.6770814e-07 2.1140295e-08 1.982738e-08 9.667542e-09 5.8644318e-08 4.949939e-09 9.479385e-09 2.153261e-09
2.2229956e-07 5.146704e-08 1.1683389e-06 5.701839e-07 5.941984e-07 3.2789418e-07 1.2236507e-07 2.443273e-07
2.8875927e-05 1.9199579e-06 1.7077293e-05 6.598114e-07 1.8546578e-05 2.2778074e-06 2.2220624e-06 1.3972376e-05
4.6564373e-06 2.6084015e-06 3.4977772e-06 1.5638674e-06 6.734548e-06 3.0099752e-06 2.9847663e-06 1.1297197e-05
2.325357e-06 3.7073664e-06 9.487718e-06 2.3464681e-06 2.9261253e-06 6.907988e-07 6.6132347e-06 5.691975e-06
9.012994e-05 0.0008972027 0.00038305312 0.00024169311 5.544737e-05 4.120521e-05 0.00036761886 0.00067638577
1.79802e-05 1.6913897e-05 1.094812e-06 7.0731545e-07 1.0214252e-06 3.2746524e-08 3.8581597e-06 7.9432775e-06
0.00010418575 4.8706092e-06 2.2497497e-05 4.2958013e-06 3.2917094e-05 5.130933e-06 1.2616722e-05 2.022182e-05
1.2782588e-06 1.3121373e-06 6.137029e-07 1.2449784e-07 4.7451495e-06 2.0531647e-06 1.3730779e-06 4.480584e-06
2.1555154e-06 1.544436e-06 2.2435067e-06 1.059893e-06 3.7636003e-06 2.0314267e-06 1.4783282e-06 2.97116e-06
1.0254266e-05 9.8940745e-06 8.196278e-06 6.769685e-06 1.4522261e-05 2.1421245e-06 1.0055252e-05 1.1688032e-05

exp_avg f4 [16]
00000000: 4130 4f38 93b5 7c92 eb72 5d03 d38f eb36
00000010: 8876 2836 2aec 7137 998f cbb2 5a8f 80b6
00000020: 7615 9ab7 2322 f437 a382 f039 8e83 1d37
00000030: 53f7 39b8 49b1 0f38 f19d 3eb9 3120 1d37
4.9397586e-05 -7.9740987e-28 6.507798e-37 7.020289e-06 2.5102945e-06 1.4419706e-05 -2.3697611e-08 -3.8313856e-06
-1.8368224e-05 2.9102963e-05 0.000458737 9.388559e-06 -4.4337776e-05 3.4258966e-05 -0.0001817865 9.365424e-06

exp_avg_sq f4 [16]
00000000: ef4c a733 fb65 d435 9f5c c235 5189 d735
00000010: d818 ac33 e022 f232 1044 ac34 199d 1237
00000020: 1cda 9b37 bfa8 9235 3196 4d38 680f e233
00000030: 78f9 0438 b307 f136 69c9 9b36 ffda 1436
7.7905376e-08 1.5824911e-06 1.4481083e-06 1.6058713e-06 8.013893e-08 2.8188367e-08 3.2087019e-07 8.738855e-06
1.8579005e-05 1.0926959e-06 4.9015685e-05 1.05267475e-07 3.170359e-05 7.183256e-06 4.642807e-06 2.218119e-06

exp_avg f4 [8, 16]
00000000: ab4f a6b5 f498 e712 a115 2c04 ab78 9fb6
00000010: 90fb 45b3 9837 f2b5 1d17 2130 d2ec 4bb6
00000020: dce3 89b6 5185 9db6 4254 31b8 269b 33b5
00000030: 5805 64b7 781d bab7 167b 44b8 76e5 1bb7
00000040: c1a7 84b6 9081 0494 182d 3b04 ddda 67b7
00000050: f6d3 35b4 a839 d5b6 402c ed30 2ae3 04b7
00000060: 0e8d 4eb7 cd59 62b7 8c28 21b9 9ba3 02b6
00000070: 4b8c afb6 b349 81b8 13df 03b9 1101 d7b7
00000080: 50dc adb5 48aa 1692 b412 f782 f35f 97b6
00000090: f792 18b3 bed1 09b6 1f0d 2c30 a999 33b6
000000a0: 2c06 89b6 6f71 95b6 25fb 66b8 2156 2ab5
000000b0: a732 84b7 3c8d abb7 6721 34b8 08eb 0eb7
000000c0: 6b04 45b4 c991 a992 f29b 5503 08e2 60b5
000000d0: 95dd bf30 9884 74b4 7ef1 cc2e 6fee 29b5
000000e0: f8dd 5fb5 2e83 60b5 799c e1b6 c4ad d1b3
000000f0: 108d 07b6 13e8 90b6 4cd0 17b7 e1c6 f6b5
00000100: e06c e7b5 ee90 8a93 9ff3 d883 0165 b8b6
00000110: 879b acb3 7d49 4db6 42b6 3c30 1eae 39b6
00000120: b873 adb6 bb58 b0b6 e233 97b8 91a1 49b5
00000130: 4818 98b7 64db c3b7 be08 38b8 2ca9 21b7
00000140: 32ac 8336 deeb 9c90 eda5 ba02 e8e5 6037
00000150: 30ba 2e34 e5da d936 a255 ebb0 4549 fc36
00000160: 0d1e 4b37 686b 5a37 1bb4 1b39 de01 fb35
00000170: 0c32 9537 ac93 7838 14a3 f738 5ba0 ce37
00000180: 4c1c 3e37 2eff 1414 3ae5 1084 6f20 2438
00000190: 8c4a 0f35 7a1e 9c37 988e a1b1 f039 b837
000001a0: 8f14 1538 5a02 1f38 0ce2 e339 e928 b736
000001b0: e160 c238 0856 3539 df67 b539 4098 9638
000001c0: 4a2a 6e36 3bde d213 1b87 0084 4465 4d37
000001d0: 56c4 2834 2fe9 c236 c2dc ceb0 94b9 e736
000001e0: adc5 3937 36b1 4737 3b91 1139 5116 e535
000001f0: 181a a337 31af 6338 9a60 e538 9c31 bd37
-1.239115e-06 1.4615855e-27 2.0228434e-36 -4.752617e-06 -4.609643e-08 -1.8046585e-06 5.8604305e-10 -3.0387205e-06
-4.1094445e-06 -4.6944847e-06 -4.227856e-05 -6.6908467e-07 -1.3591103e-05 -2.218665e-05 -4.6844674e-05 -9.2921455e-06
-3.9534357e-06 -6.689849e-27 2.200245e-36 -1.3819631e-05 -1.693405e-07 -6.3546067e-06 1.7256596e-09 -7.920704e-06
-1.2311399e-05 -1.3491558e-05 -0.00015369261 -1.946674e-06 -5.2317387e-06 -6.164927e-05 -0.00012576235 -2.5630494e-05
-1.2953624e-06 -4.754154e-28 -3.6304123e-37 -4.5113206e-06 -3.552392e-08 -2.0536677e-06 6.259188e-10 -2.676252e-06
-4.0836367e-06 -4.4537514e-06 -5.507017e-05 -6.345527e-07 -1.5759213e-05 -2.0450556e-05 -4.2946453e-05 -8.518582e-06
-1.8348662e-07 -1.0701338e-27 6.277409e-37 -8.377542e-07 1.3960056e-09 -2.2772508e-07 9.3197436e-11 -6.330437e-07
-8.339698e-07 -8.3637394e-07 -6.7237384e-06 -9.763929e-08 -2.0198677e-06 -4.3185514e-06 -9.048799e-06 -1.838631e-06
-1.7242528e-06 -3.497901e-27 -1.2751272e-36 -5.4953857e-06 -8.0376644e-08 -3.0590156e-06 6.8653006e-10 -2.7668498e-06
-5.169273e-06 -5.2555383e-06 -7.209905e-05 -7.5113445e-07 -1.8131119e-05 -2.3347973e-05 -4.387716e-05 -9.635736e-06
3.9241504e-06 -6.189456e-29 2.742548e-37 1.340497e-05 1.6272747e-07 6.4925866e-06 -1.7122839e-09 7.518715e-06
1.210674e-05 1.301882e-05 0.00014849046 1.8701501e-06 1.7785489e-05 5.9265338e-05 0.000118082535 2.4631785e-05
1.1331471e-05 7.522416e-27 -1.7032374e-36 3.9130853e-05 5.338013e-07 1.8610841e-05 -4.7019277e-09 2.1961489e-05
3.5543515e-05 3.7910744e-05 0.00043465232 5.4585876e-06 9.268686e-05 0.00017293554 0.000346004 7.180916e-05
3.548938e-06 5.323059e-27 -1.5108365e-36 1.224253e-05 1.5717646e-07 5.8087967e-06 -1.5051216e-09 6.9059406e-06
1.1072884e-05 1.1902584e-05 0.0001388238 1.7068324e-06 1.9443265e-05 5.4284177e-05 0.000109375644 2.2553657e-05

exp_avg_sq f4 [8, 16]
00000000: 9d5b f733 d9bb 9d31 3117 5335 05e4 2033
00000010: 842b 0d33 98bb 2b32 87bb 0734 d09e c534
00000020: 967b 2b34 1b8a ef34 8cf1 ef38 d219 9b30
00000030: b8bf 1736 5b41 0035 ed0d 5334 a493 4935
00000040: e0b6 a635 d950 4733 e7f7 1836 b12f c435
00000050: b103 bc34 cec5 1e33 f387 a535 e10b 9936
00000060: ad4a 2136 b8d7 5d36 2e69 0a3a 6ea9 2d36
00000070: 0329 da37 5f13 c636 120c 5536 ca6f d036
00000080: 9352 1735 7e95 7032 04c4 e533 5e76 2e35
00000090: d5c5 2a34 12ea d22f 1d69 1535 dd23 9635
000000a0: 5f7e 9335 c929 7c35 bd16 c837 a472 9f30
000000b0: e2a0 3036 a23a 3536 3cd6 c535 eb50 0036
000000c0: 65b3 7935 dc35 7e32 da6b a934 1077 1235
000000d0: 9093 8c34 ad95 4e32 a406 6e35 d0ed 2b36
000000e0: abee 9c35 6c70 c935 7f77 f237 1af1 7534
000000f0: 5f8a 0236 9652 8036 29fc bd35 0293 5036
00000100: 9475 7534 4cae 0a32 7a3c 0235 398f 1c35
00000110: 5dfb 8a33 103d 2831 e612 c534 b302 3835
00000120: 4edb e534 38cb ac35 b868 e338 358c 3335
00000130: fdf2 bd36 6baa 8c35 eb3a 0d35 113d 9935
00000140: 7b89 aa33 f85c 9d32 834d 6135 8e32 7734
00000150: 1dd0 be32 02d5 ea30 5c03 d333 f668 0b35
00000160: e32a 1335 2d0d 1f35 32b8 e337 7a65 4e30
00000170: 8772 2a37 db4d 6135 10e0 e534 44f2 0535
00000180: 63fe 7335 7018 f532 41d1 be35 768e 8b35
00000190: c1a6 8934 3474 2433 178f 7035 36c9 d435
000001a0: 2b6e db35 10fd 1336 9efc cf39 31b5 8b36
000001b0: 528d 7d38 14e4 8a36 917c 2736 76cf 9f36
000001c0: 2882 0536 2b17 9433 845d 0736 ff05 1136
000001d0: ffbe 1635 5d21 b332 44eb 0a36 15b4 2737
000001e0: b4fd 8636 8b3a a736 dbfb 7439 f5b5 0c36
000001f0: 52d7 8c37 9ac0 2337 3dd3 9b36 fd6e f736
1.1518498e-07 4.590657e-09 7.8637373e-07 3.7460286e-08 3.2868698e-08 9.996164e-09 1.2641077e-07 3.680966e-07
1.5970576e-07 4.4617704e-07 0.000114414 1.1285073e-09 2.2612348e-06 4.777882e-07 1.9655972e-07 7.509318e-07
1.2421187e-06 4.640683e-08 2.2794063e-06 1.4617018e-06 3.5020415e-07 3.6967144e-08 1.2333024e-06 4.561138e-06
2.4034337e-06 3.305713e-06 0.0005279955 2.587763e-06 2.6006723e-05 5.903115e-06 3.17465e-06 6.211897e-06
5.6372045e-07 1.4003829e-08 1.06992985e-07 6.49923e-07 1.5904455e-07 3.8365094e-10 5.5659785e-07 1.1186308e-06
1.0989132e-06 9.393812e-07 2.3852446e-05 1.1601355e-09 2.631969e-06 2.700523e-06 1.4739994e-06 1.9120587e-06
9.302078e-07 1.4796992e-08 3.1557175e-07 5.4562497e-07 2.6184398e-07 1.20248105e-08 8.867157e-07 2.561941e-06
1.1692367e-06 1.5008386e-06 2.8904293e-05 2.2905115e-07 1.9452052e-06 3.8243115e-06 1.4154986e-06 3.1079985e-06
2.2860178e-07 8.072288e-09 4.851678e-07 5.8322945e-07 6.4718485e-08 2.4481928e-09 3.670786e-07 6.854927e-07
4.281414e-07 1.2874143e-06 0.00010843709 6.6886724e-07 5.6609265e-06 1.0480411e-06 5.261233e-07 1.1417161e-06
7.9412494e-08 1.8319483e-08 8.3931826e-07 2.3022059e-07 2.221355e-08 1.7086281e-09 9.826064e-08 5.1934273e-07
5.4824176e-07 5.925129e-07 2.7146281e-05 7.508657e-10 1.0159455e-05 8.3932326e-07 4.28176e-07 4.9898904e-07
9.0894736e-07 2.8532867e-08 1.4217004e-06 1.0397769e-06 2.5639568e-07 3.828991e-08 8.961519e-07 1.5853791e-06
1.6348835e-06 2.2052009e-06 0.0003967033 4.1636163e-06 6.0451515e-05 4.1392723e-06 2.4957446e-06 4.762721e-06
1.9894305e-06 6.896001e-08 2.0171e-06 2.1610174e-06 5.615729e-07 2.0853514e-08 2.0700545e-06 9.995904e-06
4.023046e-06 4.983803e-06 0.00023363477 2.0967539e-06 1.6789567e-05 9.760401e-06 4.6439513e-06 7.3740944e-06

exp_avg f4 [8]
00000000: 7d22 42ba 18f0 c8ba 3774 15ba f2d8 01b9
00000010: 082f edb9 ee5a bd3a 2f32 903b 3ad0 ae3a
-0.0007405652 -0.0015330343 -0.0005701216 -0.00012383217 -0.00045239204 0.0014446655 0.0044005136 0.0013337203

exp_avg_sq f4 [8]
00000000: fde1 8438 73b6 ee39 26e2 3c38 13eb 8938
00000010: dba0 9838 ba95 0f39 f077 493a a9ee a639
6.336344e-05 0.00045530833 4.503331e-05 6.576455e-05 7.2778865e-05 0.0001369332 0.00076854136 0.00031839803

exp_avg f4 [1, 8]
00000000: 4c90 c4ba 3e72 113b 4fef bf3a 08d1 abba
00000010: 3e2a 483a c476 44ba 729b bcba 0515 b2ba
-0.0014996617 0.0022193338 0.0014643463 -0.0013108561 0.0007635689 -0.0007494504 -0.0014389588 -0.0013586587

exp_avg_sq f4 [1, 8]
00000000: fd95 a83a d716 363b ca7a 453b 2eb3 583a
00000010: 988b f43a b3a4 6a3a eb2d 9f3a 6a15 1b3b
0.0012862083 0.002778461 0.0030133002 0.0008266446 0.0018657325 0.00089509337 0.0012144422 0.0023663887
