lightning_logs/version_1/checkpoints/epoch=99-step=600.ckpt (torch, 22555 bytes, 30 tensors)

front_linear.weight f4 [8, 2]
0	0x3fa6d9b8	1.3035192
1	0x3eb7dec1	0.35912135
2	0x3ef48cb6	0.47763604
3	0x3faf33f1	1.3687726
4	0x3f5ba902	0.8580476
5	0x3e3b5603	0.1829453
6	0xbf56d73e	-0.83922184
7	0x3e1aa28d	0.1510107
8	0xbfde3fec	-1.7363257
9	0xbf251948	-0.644917
10	0x3f42acd7	0.7604498
11	0x3f5787c2	0.84191525
12	0xbf29767f	-0.66196436
13	0xbf95e3b7	-1.1710118
14	0xbf3ee6b6	-0.74570787
15	0xbf4308f6	-0.7618555

front_linear.bias f4 [8]
0	0xbf023946	-0.5086864
1	0xbf1e75dc	-0.6189859
2	0x3f8e45ca	1.1115048
3	0xbf08d56f	-0.53450674
4	0x3f5beef1	0.8591147
5	0xbf2e24f6	-0.6802515
6	0xbe3358e4	-0.17514378
7	0xbf3358a7	-0.7005715

transformer_encoder.layers.0.self_attn.qkv_proj.weight f4 [24, 8]
0	0x4050ed99	3.2645018
1	0x40042399	2.0646727
2	0x40888170	4.2658005
3	0xbf0e60f6	-0.556167
4	0x403c764a	2.9447198
5	0x3f0684cc	0.5254638
6	0xc00444d0	-2.0667
7	0xc0c4c9f1	-6.149651
8	0xc0513433	-3.268811
9	0xbfd4f123	-1.6636089
10	0xc07c80c8	-3.9453602
11	0x3efc2b41	0.4925175
12	0xc03ec93d	-2.9810326
13	0xbf223c23	-0.6337301
14	0x40004a91	2.0045512
15	0x40af9a41	5.48758
16	0x402ac570	2.6683006
17	0x3f9a4721	1.2052957
18	0x4050b5ae	3.2610888
19	0xbf103778	-0.5633464
20	0x4055bce0	3.339653
21	0x3f2c76a1	0.67368513
22	0xbfd7d9c8	-1.6863337
23	0xc0b128a4	-5.536211
24	0xc076e764	-3.857873
25	0xc0040970	-2.063076
26	0xc07b32d8	-3.9249783
27	0xbc92f105	-0.017937193
28	0xc033c156	-2.8086753
29	0xbda8ee80	-0.08248615
30	0x400a98ac	2.1655684
31	0x40bd620e	5.9182196
32	0x40975860	4.729538
33	0x407f46d3	3.9886978
34	0xc043729e	-3.0538707
35	0x3fc2db1f	1.522312
36	0xc08d0aaf	-4.407554
37	0x40a7e5b8	5.246792
38	0xc05201b7	-3.2813547
39	0xc0a4081a	-5.125989
40	0xbea3a876	-0.31964463
41	0x4064fee4	3.5780573
42	0xbff6378b	-1.92357
43	0xc07213e0	-3.782463
44	0x3f80f516	1.0074794
45	0xbf308f10	-0.68968296
46	0xc0926f25	-4.5760674
47	0x3ee22bc9	0.4417403
48	0x3f2a7006	0.66577184
49	0xbed1d36c	-0.40981615
50	0x3f0c2596	0.5474485
51	0x40c2ae9a	6.0838137
52	0xbe8bdf02	-0.2731858
53	0x3f2814e7	0.65656894
54	0x3f111003	0.56665057
55	0xbf37bfa0	-0.7177677
56	0xc0881080	-4.252014
57	0xc06c8dcd	-3.6961548
58	0x3ffa58fa	1.9558403
59	0xbfea1980	-1.8289032
60	0x4098fa21	4.7805333
61	0xc0ada4e1	-5.426377
62	0x402e47ec	2.7231398
63	0x40a32e61	5.0994115
64	0x3fa7782f	1.3083552
65	0x3f420575	0.75789577
66	0xbe1f4c6e	-0.155565
67	0x3f4bc855	0.7960256
68	0xbcc9a6bc	-0.024615638
69	0x3fd35855	1.6511332
70	0xbf34ecf8	-0.70674086
71	0xbf92a7d5	-1.1457468
72	0x401194b0	2.2747002
73	0x3fe6097c	1.7971644
74	0xbe021dd6	-0.12706694
75	0x3f8ddfd7	1.1083935
76	0xbf15703d	-0.5837439
77	0x4007a3d5	2.1193745
78	0xbeb77852	-0.35833985
79	0xbfb4cbae	-1.4124658
80	0x3f0c821b	0.54886025
81	0x3f94360e	1.1578996
82	0xbeb6d43b	-0.35708794
83	0xbf40e3dc	-0.75347686
84	0x3f821450	1.0162449
85	0xbf41d1e6	-0.75710905
86	0x3e9cf008	0.3065188
87	0x3f37578f	0.7161798
88	0xbfa16331	-1.2608396
89	0xbfc490f8	-1.5356741
90	0x3f3743be	0.7158774
91	0x3ef0f4b7	0.47061703
92	0xbf111ac2	-0.56681454
93	0xbeb74864	-0.35797417
94	0x3ebc39a9	0.3676274
95	0xbf046d0d	-0.517289
96	0xbfa4902e	-1.28565
97	0xbf3314b8	-0.6995349
98	0xc04812c9	-3.1261466
99	0xc0111a9b	-2.2672489
100	0xbff08f2e	-1.8793695
101	0xc06f38fe	-3.7378535
102	0x3f5fd611	0.87436014
103	0x40915354	4.541422
104	0xbf5dd39b	-0.8665101
105	0xbf6dc24e	-0.9287461
106	0xc04e7e72	-3.2264676
107	0xc018ee86	-2.3895583
108	0xbfc30be8	-1.5238008
109	0xc086faf7	-4.2181354
110	0x3ea3f605	0.32023636
111	0x408a3d91	4.3200154
112	0x3f48cfe6	0.7844223
113	0x3f60b453	0.8777515
114	0x40785cbb	3.8806598
115	0x40069f80	2.103485
116	0x3fe2e71b	1.7726778
117	0x408bf3ef	4.373527
118	0x3cf941ee	0.030426946
119	0xc08e2d95	-4.443064
120	0xbf58a324	-0.8462393
121	0xbf849431	-1.0357724
122	0xc0202c7a	-2.5027146
123	0xbfc862c4	-1.5655141
124	0xbf85be7a	-1.0448754
125	0xc03bb938	-2.9331799
126	0x3f5d0629	0.86337525
127	0x4073add9	3.8074858
128	0x40b07f72	5.5155573
129	0x40177227	2.3663423
130	0x3f24f8f5	0.6444238
131	0x4037aa53	2.8697708
132	0xc0e058d3	-7.010843
133	0x40ffa91e	7.989394
134	0xbda2a518	-0.079416454
135	0xc0e181e0	-7.047104
136	0x407d90a1	3.9619524
137	0x3f3792e7	0.7170853
138	0x3fddbe8e	1.7323778
139	0x3f956dbc	1.1674113
140	0xc08dfc50	-4.43705
141	0x40bb2724	5.848528
142	0x3f5b5168	0.8567109
143	0xc0b68231	-5.7033925
144	0xc08e5416	-4.4477644
145	0xbf481b28	-0.7816644
146	0xbfcf1554	-1.6178384
147	0xc01c3272	-2.440579
148	0x40a9f056	5.310588
149	0xc0cf079e	-6.46968
150	0xbecf6b2a	-0.40511447
151	0x40cccd1b	6.4000373
152	0x40993531	4.787743
153	0x3fccfc4d	1.6014496
154	0x3f8a1157	1.0786542
155	0x4019dd44	2.40413
156	0xc0b1eaa1	-5.559891
157	0x40e1ca0d	7.0559144
158	0x3eb3bde0	0.351058
159	0xc0c35873	-6.104547
160	0xc0200b8b	-2.5007045
161	0xbfbdcd58	-1.4828291
162	0xbfd92ff4	-1.6967759
163	0xbf54555e	-0.8294276
164	0x3eee7dea	0.4658044
165	0xc03acefb	-2.918883
166	0x3fdb697a	1.7141564
167	0x403b288b	2.9243495
168	0x3ff13b05	1.8846136
169	0x3fe0d5d8	1.756526
170	0xbf81272f	-1.0090083
171	0x3da55e82	0.080746666
172	0xbfd2f279	-1.6480247
173	0x3e17a110	0.14807534
174	0xbe13395e	-0.14377353
175	0x3f095394	0.53643155
176	0xbd5f08ae	-0.054451637
177	0xbe81ea01	-0.25373843
178	0xbf1b2e83	-0.60617846
179	0x400810a4	2.1260157
180	0xbf2cf5e5	-0.67562705
181	0x3ec38745	0.3818914
182	0x3f89c4f4	1.076323
183	0xbf63ca02	-0.88980114
184	0xbff1335e	-1.8843801
185	0xbfd6b041	-1.6772538
186	0x3fcd5aba	1.6043313
187	0xbf2239b5	-0.63369304
188	0x3fb7da05	1.4363409
189	0xbf64a369	-0.89311844
190	0x3eae0a7a	0.33992368
191	0xbe24f48f	-0.16108917

transformer_encoder.layers.0.self_attn.o_proj.weight f4 [8, 8]
0	0x3f521dbb	0.82076615
1	0x3fdf898c	1.7463851
2	0x3e32b629	0.17452301
3	0x3da663dc	0.081245154
4	0x3e44bc56	0.1921247
5	0xbfbc017c	-1.4687953
6	0x3fa02f6b	1.2514471
7	0x3fb7f37a	1.4371178
8	0x400f88fb	2.2427356
9	0x407e8350	3.9767647
10	0xbec04c01	-0.37557986
11	0x3f0f8d87	0.5607533
12	0xbfc7e49b	-1.561664
13	0x3e71029d	0.23536153
14	0xbf938a7b	-1.1526636
15	0xbe08dcbc	-0.13365453
16	0x3fa234e5	1.2672392
17	0xc00605a9	-2.0940955
18	0xc044bf49	-3.0741751
19	0x4047a7fd	3.1196282
20	0xc02973a5	-2.6476834
21	0x3f01dc30	0.50726604
22	0x3da6697e	0.0812559
23	0x3e3ee7fc	0.18643183
24	0xbf896cbc	-1.0736308
25	0xbf8fed5d	-1.1244313
26	0xbd343797	-0.043998327
27	0xbec2cdca	-0.3804763
28	0x40190989	2.391207
29	0x3f41ef7b	0.75756043
30	0xbfcbfd32	-1.5936644
31	0xbe875565	-0.26432338
32	0xbec2f328	-0.38076138
33	0xbfe32d83	-1.7748264
34	0xbf39becd	-0.72556764
35	0x3f8cc8ab	1.0998739
36	0xbf051b95	-0.5199521
37	0x3f048995	0.51772434
38	0xbf5e8e84	-0.8693621
39	0x3ed11590	0.40836763
40	0xbf92cbae	-1.1468408
41	0x3f024829	0.5089136
42	0x4016b3e1	2.354729
43	0xc00abb7e	-2.1676936
44	0x3f99c250	1.2012424
45	0x3f3e9122	0.74440205
46	0xbf9ac941	-1.2092668
47	0xbfdea2ee	-1.7393472
48	0xbea411e2	-0.32044894
49	0x3fbaa802	1.4582522
50	0x40104af8	2.2545757
51	0xc00136b0	-2.0189629
52	0x3e8a67bd	0.2703227
53	0x3ed618a2	0.41815668
54	0x3f4442da	0.7666451
55	0xbf9dc947	-1.232705
56	0xc044fae1	-3.0778124
57	0xbfc017fd	-1.5007321
58	0x3f369112	0.7131511
59	0xbf65485c	-0.89563537
60	0x405319f7	3.2984598
61	0xbfd11705	-1.633515
62	0xc03bffce	-2.937488
63	0x3f068d0a	0.5255896

transformer_encoder.layers.0.self_attn.o_proj.bias f4 [8]
0	0xc02c71b4	-2.69444
1	0x3f97e86e	1.1867807
2	0x40bbc460	5.8677216
3	0xbfa413c9	-1.2818538
4	0x405d4a07	3.4576433
5	0xc00f5855	-2.2397664
6	0xc09435f6	-4.631587
7	0xc041cb09	-3.0280173

transformer_encoder.layers.0.linear_net.0.weight f4 [16, 8]
0	0x3f4a9a3e	0.79141605
1	0x3e279901	0.1636696
2	0xbfcdf417	-1.6090115
3	0x3f249666	0.6429199
4	0x3ead1c7f	0.33810803
5	0xbebda812	-0.3704229
6	0xbfa1af73	-1.2631668
7	0x4007bb4c	2.1208067
8	0x3d09bf24	0.03362955
9	0xbe20e189	-0.15711035
10	0xbfb762a4	-1.4326978
11	0x3fac5cdf	1.3465842
12	0x3f2f3f17	0.6845564
13	0x3d2bfe82	0.041990764
14	0xbf6a116b	-0.9143283
15	0x3ede678f	0.43438384
16	0x40142e2c	2.315318
17	0xc087331e	-4.22499
18	0xbfb8788b	-1.4411787
19	0xbe913644	-0.28361714
20	0x400fd13d	2.247146
21	0xc011d6e9	-2.278742
22	0x408c3e69	4.3826184
23	0x3f5acc28	0.8546777
24	0x3f9744fa	1.1817925
25	0x3ffa982d	1.957769
26	0xc020972b	-2.5092266
27	0x3fcfe523	1.6241802
28	0x3fdad852	1.7097266
29	0x3f5f8c80	0.8732376
30	0xbf606ef2	-0.8766929
31	0x404020a1	3.0019915
32	0x3fe24178	1.767623
33	0x4002d2a2	2.044106
34	0xbfcc40c5	-1.5957266
35	0x3fa920e6	1.3213165
36	0x3f4c2082	0.79737103
37	0x3f5516ea	0.8323809
38	0xbf664391	-0.8994685
39	0x400e38cb	2.2222164
40	0x40079016	2.1181693
41	0xbe37a1fa	-0.17932883
42	0xbfc35c7f	-1.5262603
43	0x3f1d1041	0.61352926
44	0xbfaaa59f	-1.3331794
45	0xc007d4b3	-2.1223571
46	0x3f8198f0	1.0124798
47	0x4092bdcf	4.58567
48	0x3f97d669	1.1862308
49	0x3fa7c25a	1.3106186
50	0xc064ed67	-3.57699
51	0x3f9d92a4	1.2310376
52	0xbfdeaa6b	-1.7395757
53	0xbf8751f9	-1.0571891
54	0x3fce0180	1.6094208
55	0x4093b379	4.6156583
56	0xbef3672c	-0.4753965
57	0xbf9bf633	-1.2184509
58	0xc074cd12	-3.8250165
59	0xbfdb0131	-1.7109739
60	0xc026586b	-2.5991466
61	0xbf8add70	-1.0848827
62	0x406959fc	3.6461172
63	0x3fb2bbb0	1.3963528
64	0x3fc5dfda	1.5458939
65	0xbeb9122e	-0.36146683
66	0xc0884f10	-4.259651
67	0x3d35c2b6	0.044375144
68	0xbf319dbd	-0.69381315
69	0x3d9eb234	0.07748833
70	0xbfa00782	-1.2502291
71	0x40ab905e	5.361373
72	0x3f3c7536	0.7361635
73	0xbf5c0ae5	-0.85954124
74	0xc02e5112	-2.7236981
75	0x409e54f0	4.9478683
76	0xbf35cd8e	-0.71016777
77	0x409146db	4.5398993
78	0x405d79f8	3.4605694
79	0x3fbc1e65	1.4696776
80	0x402a763a	2.663466
81	0xbf8c29a5	-1.0950209
82	0xc0a87804	-5.2646503
83	0x3e3d4039	0.1848153
84	0xbf67c371	-0.90532595
85	0xbfba1b4a	-1.4539578
86	0x3ff8ae18	1.9428129
87	0x40565c1f	3.3493726
88	0x3f119d2e	0.5688046
89	0xbeec69c8	-0.46174455
90	0xbfc5fa88	-1.5467081
91	0x3df7b5b4	0.12095204
92	0x3d9b46b7	0.07581847
93	0xbe95a38d	-0.29226342
94	0xbd5a13bb	-0.053241473
95	0x3ede743a	0.4344805
96	0x3e829958	0.25507617
97	0x3b79b025	0.0038099375
98	0xbf792d76	-0.9733499
99	0x3fa63a01	1.2986451
100	0x3f29406c	0.66113925
101	0x3dd3d320	0.10343003
102	0xbf9d8be7	-1.230832
103	0x3fdea9fa	1.7395623
104	0x406425e0	3.5648117
105	0xc07c4ed0	-3.9423103
106	0xc0d56d27	-6.6695743
107	0xc045e06e	-3.091823
108	0xc03fd15a	-2.9971528
109	0xc0416f21	-3.0224078
110	0x40bd1e98	5.9099846
111	0x4016abc7	2.3542345
112	0x3e968893	0.29401073
113	0xbd14cc7d	-0.036327828
114	0xbfaafa3f	-1.3357619
115	0x3fc586b4	1.5431733
116	0xbedcf16e	-0.43152946
117	0xbe4c8dec	-0.19976014
118	0xbebefef4	-0.3730389
119	0x3f07ad3d	0.52998716
120	0x408792a8	4.2366524
121	0xbfa646b3	-1.2990326
122	0xc0963026	-4.6933775
123	0xbd35e627	-0.044408944
124	0xc01c9c18	-2.4470272
125	0xc018aec0	-2.385666
126	0x404aecac	3.1706953
127	0x4014690b	2.3189113

transformer_encoder.layers.0.linear_net.0.bias f4 [16]
0	0xc063d9d0	-3.5601692
1	0xbfdf5790	-1.7448597
2	0xbe8626af	-0.26201388
3	0xc05d6b08	-3.4596577
4	0xc066e493	-3.607701
5	0xc0647826	-3.5698333
6	0xc0aa36af	-5.3191752
7	0xc0594694	-3.3949327
8	0xc05ca42b	-3.44752
9	0xc05f77c6	-3.4916854
10	0xc08ebf0f	-4.4608226
11	0xbf0600e5	-0.52345115
12	0xc03cfd4e	-2.9529605
13	0xbf1d9f1f	-0.61570925
14	0xbf2fa842	-0.68616116
15	0xc004ed14	-2.07697

transformer_encoder.layers.0.linear_net.3.weight f4 [8, 16]
0	0x3fc7892a	1.5588734
1	0x3fb1623f	1.3858107
2	0xbf90503d	-1.1274487
3	0xbf6c2869	-0.9224916
4	0x3f72765d	0.9471186
5	0xbf11d5d5	-0.56966907
6	0x3d835ba0	0.064139605
7	0x3fa6eef3	1.3041672
8	0xbe84d19a	-0.25941163
9	0xbe3732ea	-0.17890516
10	0x3d3147a6	0.04328122
11	0x3fc37471	1.526991
12	0x3f8ee2cd	1.1162964
13	0x3ff8f539	1.9449836
14	0x3fce5437	1.611945
15	0x3fcf5c7b	1.6200098
16	0x3f20aca6	0.6276344
17	0x3f1b9fe9	0.6079088
18	0xbfb61ebb	-1.4228128
19	0xbf82709a	-1.0190613
20	0x3f07aef2	0.5300132
21	0xc007b927	-2.1206758
22	0x3d70a931	0.058755103
23	0x406b76ad	3.6791184
24	0x3eaa99eb	0.33320555
25	0x3cb5107d	0.022102589
26	0xc0149e4f	-2.3221624
27	0x3ef480f4	0.47754633
28	0x3f267d4a	0.65034926
29	0xbe29e43e	-0.16590974
30	0x3f77de74	0.9682381
31	0x3fe796cc	1.8092895
32	0x404fd7bd	3.2475426
33	0x3f4739b8	0.77822447
34	0xbfc625a7	-1.548024
35	0x400b3d5a	2.1756196
36	0x400ae069	2.169947
37	0xbface088	-1.3506021
38	0x4014f326	2.3273406
39	0x3f2dc413	0.6787731
40	0x3fd56a9b	1.6673158
41	0x40916c44	4.544466
42	0x3fe932c0	1.8218613
43	0x3f17ff85	0.59374267
44	0x3eaed645	0.3414785
45	0xbe8defba	-0.2772196
46	0x3ee98a40	0.4561329
47	0x3fbd0951	1.4768468
48	0x40242418	2.564703
49	0x3e8d3a1a	0.2758339
50	0xc01b85ca	-2.4300408
51	0x3e3abb95	0.1823562
52	0x3f5d9703	0.8655855
53	0xbf867f24	-1.050755
54	0x3efabe6f	0.48973414
55	0x3fbb1693	1.4616264
56	0x4015d488	2.3410969
57	0x3f5bd044	0.85864663
58	0xc0098068	-2.1484623
59	0x3edc45a0	0.4302187
60	0x3e49a961	0.19693519
61	0xbf8d6f0c	-1.1049514
62	0x3eb4f757	0.35344955
63	0x3f9e8301	1.2383729
64	0x3f6529d7	0.8951697
65	0x3f9ec9f6	1.2405384
66	0xbfdca2ad	-1.7237145
67	0x4031fdcc	2.7811155
68	0x3ff698eb	1.9265417
69	0xc059f725	-3.4057095
70	0x40463561	3.097008
71	0x3f21bf15	0.63182193
72	0x40016437	2.0217416
73	0x407fa082	3.9941716
74	0x3fd93bb2	1.6971343
75	0x3f11cf0a	0.5695654
76	0x3f9ba910	1.2160969
77	0xbfcc7893	-1.5974296
78	0x3f91d28f	1.1392382
79	0x3ff2aa84	1.8958287
80	0xbf3629f5	-0.7115777
81	0xbfb68fb2	-1.4262602
82	0xc03cbd0c	-2.9490385
83	0xc008fe14	-2.1405077
84	0xbfcfde53	-1.6239723
85	0x3f1f8ddc	0.62325835
86	0x3f90a415	1.1300074
87	0xbff9cb7e	-1.9515226
88	0xc04be5c4	-3.1858988
89	0xbea3b8a5	-0.3197681
90	0x3c4401e9	0.011963346
91	0xbfaea46f	-1.3643931
92	0xbfd82eac	-1.6889243
93	0xc08b5516	-4.3541365
94	0xbfb7b026	-1.4350631
95	0xbfd7997f	-1.6843718
96	0xbf917473	-1.1363662
97	0xbf95edd9	-1.171321
98	0x3fbcf0e1	1.476101
99	0x3f503c99	0.81342465
100	0xbf3bd4a4	-0.7337134
101	0x3fba3778	1.4548178
102	0xbde06758	-0.10957211
103	0xc083351f	-4.1002345
104	0xbf91235e	-1.1338918
105	0xbe6efc7b	-0.23338501
106	0x40007210	2.0069618
107	0xbf1ec71b	-0.6202256
108	0xbf471e10	-0.77780247
109	0x3c23e91c	0.010004308
110	0xbf8528f4	-1.0403123
111	0xc02432e8	-2.565607
112	0xbf2956fb	-0.66148347
113	0xbf5bf029	-0.8591333
114	0x3feb3f8e	1.837877
115	0xbf3ca15a	-0.736837
116	0xc001334d	-2.0187562
117	0x4064e8f2	3.5767179
118	0xbfe45e93	-1.7841362
119	0x3fd002ea	1.6250889
120	0xbfb8e79d	-1.4445683
121	0xc076e6c8	-3.8578358
122	0xbf20ba86	-0.6278461
123	0xbf41b122	-0.7566091
124	0xbf8b57f6	-1.0886219
125	0x3ff31509	1.8990794
126	0xbfa6c5d6	-1.3029125
127	0xbf8f4fc6	-1.119622

transformer_encoder.layers.0.linear_net.3.bias f4 [8]
0	0x40037810	2.054203
1	0x3f010fb3	0.5041458
2	0xbfb44238	-1.4082708
3	0x3f08ad18	0.5338912
4	0xbecbe137	-0.39820263
5	0xbfa39a73	-1.2781509
6	0xbeafc250	-0.34327936
7	0x4047f9d7	3.124624

final_linear.weight f4 [1, 8]
0	0x3f3bae46	0.73312795
1	0x3f05e411	0.52301127
2	0xbef497e9	-0.47772148
3	0x3f3419ee	0.70352066
4	0xbf059afa	-0.521896
5	0xbdba764c	-0.091045946
6	0xbf4381d8	-0.7637
7	0x3e55fb4d	0.20896645

exp_avg f4 [8, 2]
0	0xbd42c621	-0.04755223
1	0xbdc55d1a	-0.09636898
2	0xbd5dde32	-0.05416698
3	0xbdf144ff	-0.11780738
4	0x3d1b0af8	0.037852257
5	0x3de7e6a2	0.113232866
6	0x3b2b6714	0.0026153969
7	0x3c2caa5f	0.0105386665
8	0x3d072611	0.032995287
9	0x3dc84458	0.097786605
10	0x3c126c40	0.008936942
11	0x3d312ff8	0.043258637
12	0x3b7434ab	0.0037262838
13	0xba4929ef	-0.000767379
14	0xbcd60730	-0.026126474
15	0xbdafcf06	-0.085844085

exp_avg_sq f4 [8, 2]
0	0x3e1a8519	0.15089835
1	0x3f3d4671	0.7393561
2	0x3e5d3f8d	0.21606274
3	0x3f10256f	0.5630712
4	0x3dfda764	0.12385443
5	0x3e953867	0.29144594
6	0x3d8e0752	0.0693499
7	0x3f337e44	0.7011454
8	0x3ccb66a0	0.024829209
9	0x3dbc3e7e	0.09191607
10	0x3db06c13	0.086143635
11	0x3fbf3f09	1.4941112
12	0x3dbafc1c	0.09130117
13	0x3e885112	0.26624352
14	0x3da046f4	0.07826033
15	0x3f9560f2	1.167021

exp_avg f4 [8]
0	0xbe28aff2	-0.16473368
1	0xbe5ff17e	-0.21869466
2	0x3e81173e	0.25213045
3	0x3d16cad6	0.036814533
4	0x3e5700d0	0.20996404
5	0x3e001b1a	0.12510338
6	0xbc519440	-0.012791693
7	0xbe5d1f2e	-0.21593925

exp_avg_sq f4 [8]
0	0x40734fa5	3.801736
1	0x40341aec	2.8141432
2	0x3fbb51c7	1.4634331
3	0x406b4964	3.6763544
4	0x3ed3b791	0.41350988
5	0x40f4e3ca	7.6528063
6	0x3f968677	1.1759785
7	0x40b37ad5	5.608744

exp_avg f4 [24, 8]
0	0xb73c091e	-1.1207796e-05
1	0xb72c24fd	-1.0260611e-05
2	0x372b51a9	1.0211407e-05
3	0x379b33bc	1.850153e-05
4	0xb5a78aad	-1.248283e-06
5	0x37919435	1.7354361e-05
6	0x385d27e4	5.2727657e-05
7	0xb806d7be	-3.2149015e-05
8	0x35f2df98	1.8095479e-06
9	0x37281f55	1.0020875e-05
10	0x38162048	3.579285e-05
11	0xb80e2657	-3.3891145e-05
12	0x378401ac	1.5736405e-05
13	0xb7a6c36f	-1.9879748e-05
14	0xb889f74d	-6.5787324e-05
15	0xb760784c	-1.3379449e-05
16	0xb5de2c5b	-1.6553198e-06
17	0xb726bb73	-9.938015e-06
18	0xb85eb2a4	-5.3095297e-05
19	0x3827dc3a	4.0021005e-05
20	0xb7aac1c9	-2.0355817e-05
21	0x37b8baf0	2.2021559e-05
22	0x38b1e879	8.483319e-05
23	0x37c165d6	2.3054814e-05
24	0x37378973	1.0939652e-05
25	0x37125ca3	8.723847e-06
26	0xb7784e3a	-1.4800165e-05
27	0xb76aa160	-1.398506e-05
28	0xb516efea	-5.6228475e-07
29	0xb7755aaf	-1.4624252e-05
30	0xb835379d	-4.3205557e-05
31	0x380e692a	3.395338e-05
32	0x38181bb6	3.6265432e-05
33	0x3692f0c8	4.3791697e-06
34	0x373de65f	1.1318915e-05
35	0xb8284b5a	-4.0124498e-05
36	0xb84dd74c	-4.907632e-05
37	0x34a6e2ee	3.1085023e-07
38	0xb7af9246	-2.092974e-05
39	0xb75cc489	-1.3158781e-05
40	0xb819da19	-3.6681162e-05
41	0xb6f11efb	-7.1859663e-06
42	0xb71e85dd	-9.448701e-06
43	0x381af891	3.6947957e-05
44	0x38420375	4.6256424e-05
45	0xb5fa9c03	-1.8671857e-06
46	0x37bfffb7	2.288805e-05
47	0x37591341	1.2938691e-05
48	0x38274d4c	3.988789e-05
49	0x374adeb6	1.2091992e-05
50	0x36ec8619	7.048959e-06
51	0xb812bf1e	-3.4987104e-05
52	0xb83de868	-4.5277557e-05
53	0x3685a0f5	3.9824467e-06
54	0xb7e90b02	-2.778089e-05
55	0xb760d1d9	-1.3400299e-05
56	0xb815ccb4	-3.5715013e-05
57	0xb6bbf577	-5.60161e-06
58	0xb7315173	-1.0568986e-05
59	0x381cb80f	3.7364716e-05
60	0x3843e4b5	4.6704623e-05
61	0xb5df41b0	-1.6633912e-06
62	0x37b0f4d6	2.1094846e-05
63	0x375a2ac9	1.3003774e-05
64	0xbb8b9fa2	-0.004260973
65	0xbb83ad22	-0.004018442
66	0x3dc8a706	0.09797482
67	0xbcb255f3	-0.0217695
68	0x3c81b76b	0.01583453
69	0x3c0c774d	0.008573365
70	0xbd6e3e6a	-0.05816499
71	0xbda5e8fe	-0.0810108
72	0xbc44c521	-0.01200989
73	0x3c54b36a	0.012982229
74	0x3e15b64d	0.14620323
75	0xbda4f765	-0.08054999
76	0x3d100dd0	0.035169423
77	0xbcbf1adc	-0.023328237
78	0xbdd59f1f	-0.104307406
79	0xbe021108	-0.1270181
80	0x3b02000d	0.0019836456
81	0xb9c3481f	-0.00037247033
82	0xbdafd7c0	-0.08586073
83	0x3cb185d1	0.021670254
84	0xbc3c01db	-0.011475052
85	0xbbe291f6	-0.0069143726
86	0x3d802287	0.062565856
87	0x3d937d10	0.07201588
88	0xb9fe7590	-0.00048534246
89	0xbb20ffe5	-0.0024566588
90	0x3d9e8b2a	0.07741387
91	0xbc4163ec	-0.011803608
92	0x3bea10a8	0.007143099
93	0x3c4be197	0.0124439215
94	0xbd5ff500	-0.05467701
95	0xbd834134	-0.06408921
96	0x37434fd0	1.16414885e-05
97	0xb6ebdec1	-7.0294777e-06
98	0xb83fef12	-4.57606e-05
99	0x37fb9cb1	2.9994497e-05
100	0xb7bcda3e	-2.2512973e-05
101	0x378a92d0	1.6519247e-05
102	0x380c480c	3.34457e-05
103	0x38316539	4.229436e-05
104	0x37324aaf	1.0627015e-05
105	0xb5f390e0	-1.8147075e-06
106	0xb86bcecb	-5.6220957e-05
107	0x37c4c8a8	2.3458459e-05
108	0xb7ac5158	-2.0541876e-05
109	0x371ff004	9.5330215e-06
110	0x3810a39c	3.448465e-05
111	0x384cf621	4.8866616e-05
112	0xb730a68c	-1.0529195e-05
113	0x368472dd	3.9472784e-06
114	0x384faefb	4.951561e-05
115	0xb7d3231a	-2.5169506e-05
116	0x37aa3e2e	2.0294534e-05
117	0xb749c1c4	-1.2025648e-05
118	0xb80a56d0	-3.2982614e-05
119	0xb838e8fa	-4.4085995e-05
120	0x372a8d36	1.0165668e-05
121	0xb6ac8bd1	-5.142276e-06
122	0xb835737d	-4.326132e-05
123	0x37d546d5	2.5424562e-05
124	0xb7a56d5a	-1.9720454e-05
125	0x375d75fd	1.3200098e-05
126	0x37fba979	3.0000449e-05
127	0x3824d1ba	3.929597e-05
128	0x3852b92d	5.024036e-05
129	0xb855f900	-5.1015057e-05
130	0x36a962f8	5.048114e-06
131	0xb8976e2f	-7.2207644e-05
132	0xb8885d72	-6.502391e-05
133	0xb7cdbaff	-2.4524981e-05
134	0x38096a6a	3.276245e-05
135	0x3733888d	1.0701025e-05
136	0x385089a2	4.9719245e-05
137	0xb86cef49	-5.6489636e-05
138	0x36d167f7	6.2407885e-06
139	0xb89aa6e9	-7.374382e-05
140	0xb889e682	-6.5756045e-05
141	0xb7d5585e	-2.5432728e-05
142	0x38224a68	3.8693106e-05
143	0x374e8d56	1.2311464e-05
144	0xb862872a	-5.400848e-05
145	0x3879a46e	5.9519363e-05
146	0xb6fab030	-7.4710915e-06
147	0x38a61124	7.9186895e-05
148	0x38960ddc	7.155139e-05
149	0x37db05d3	2.6109547e-05
150	0xb82aa7b8	-4.068736e-05
151	0xb74eece3	-1.2333711e-05
152	0x382e2460	4.151871e-05
153	0xb82c6ba3	-4.110824e-05
154	0x3684cac5	3.957512e-06
155	0xb8784fc4	-5.9202095e-05
156	0xb85f9636	-5.3307238e-05
157	0xb7a8cb3f	-2.0121804e-05
158	0x37d96bee	2.5918675e-05
159	0x371008e1	8.585136e-06
160	0xba0cd241	-0.00053719064
161	0x3c7d1c18	0.015448593
162	0x3d436ceb	0.047711294
163	0xbd2be018	-0.04196176
164	0x38533a75	5.0360763e-05
165	0xbbc9b0b8	-0.0061550997
166	0xbcb93706	-0.022609245
167	0xbd4b7e70	-0.049681127
168	0x3be13df4	0.0068738405
169	0xbc78386b	-0.01515017
170	0xbdc05ac1	-0.0939231
171	0x3d6f5c50	0.058437645
172	0xbc9ed752	-0.019389782
173	0x3c949446	0.018137109
174	0x3db29216	0.0871927
175	0x3dabd0de	0.08389448
176	0x3b8a885d	0.0042276816
177	0xbb9c7353	-0.00477449
178	0xbd8362f9	-0.06415362
179	0x3cf22aa3	0.029561346
180	0xbca13175	-0.019676903
181	0x3b1a06d5	0.0023502607
182	0x3d10ec7f	0.03538179
183	0x3d648863	0.05579413
184	0xbc32535e	-0.010884134
185	0x3c2196fc	0.009862658
186	0x3e07bfc3	0.13256745
187	0xbd82c036	-0.063843176
188	0x3cfcefa1	0.030875983
189	0xbc7fa936	-0.015604308
190	0xbdd7a857	-0.10530155
191	0xbde98894	-0.11403003

exp_avg_sq f4 [24, 8]
0	0x3939d0f9	0.00017720823
1	0x3b0f0f54	0.0021829205
2	0x3ca3192d	0.019909466
3	0x3caccbe9	0.021093326
4	0x3b7d9d2a	0.0038698413
5	0x3bff778f	0.007796235
6	0x3db967d1	0.090530045
7	0x3ad28d1e	0.0016063785
8	0x38db1965	0.00010447464
9	0x3aa87f5b	0.0012855338
10	0x3c401ab3	0.011725116
11	0x3c4b8507	0.012421853
12	0x3b155b7a	0.002279012
13	0x3b96734c	0.004591381
14	0x3d5a6078	0.053314656
15	0x3a78100e	0.00094628416
16	0x392759a3	0.00015959753
17	0x3b00941b	0.0019619528
18	0x3c925ed0	0.017867476
19	0x3c9b1776	0.018932085
20	0x3b6380fa	0.0034714327
21	0x3be534e3	0.00699483
22	0x3da671ac	0.0812715
23	0x3abd0aa6	0.0014422729
24	0x3916fc9d	0.0001439922
25	0x3ae8cbae	0.0017760897
26	0x3c84f10f	0.016228227
27	0x3c8cd33c	0.017190568
28	0x3b4ed3e5	0.0031559404
29	0x3bd04c0e	0.0063567227
30	0x3d971147	0.07376342
31	0x3aab8ef2	0.0013088866
32	0x393d34bf	0.00018044094
33	0x391e25c3	0.00015082122
34	0x37c84518	2.3874032e-05
35	0x35375662	6.8298516e-07
36	0x37f81337	2.9572851e-05
37	0x3886d174	6.4286316e-05
38	0x3952e5f0	0.00020112819
39	0x379d6306	1.876197e-05
40	0x349f6b1e	2.9693996e-07
41	0x3611fb15	2.1752833e-06
42	0x37639c77	1.3566684e-05
43	0x351373a1	5.493003e-07
44	0x36531b23	3.1457246e-06
45	0x3760df2d	1.3403403e-05
46	0x37270364	9.954765e-06
47	0x365c6557	3.2841542e-06
48	0x39cafdb2	0.0003871746
49	0x39adce44	0.0003315081
50	0x38006918	3.0615454e-05
51	0x35353ea3	6.75189e-07
52	0x387fe33e	6.1008373e-05
53	0x38fa42cd	0.000119333716
54	0x39e1c6df	0.00043063515
55	0x3813db50	3.525178e-05
56	0x38125619	3.4889297e-05
57	0x37f3064a	2.8970786e-05
58	0x377414be	1.4548363e-05
59	0x350e2a47	5.2960644e-07
60	0x3700753c	7.65669e-06
61	0x37b81f0d	2.1948968e-05
62	0x38383033	4.3913908e-05
63	0x36ca2bb8	6.0251587e-06
64	0x3e44860b	0.19191758
65	0x3e6c6543	0.23085503
66	0x3f007e83	0.5019304
67	0x3e253247	0.1613246
68	0x3dfa191d	0.12211821
69	0x3db67abc	0.089101285
70	0x3fd91e8e	1.696245
71	0x3e835437	0.25650188
72	0x3ebe6c8e	0.37192196
73	0x3efe06f4	0.4961468
74	0x3fb4fe4c	1.4140105
75	0x3ed639ea	0.4184106
76	0x3e851e0b	0.25999483
77	0x3e7adc97	0.24498211
78	0x4069e8ad	3.6548264
79	0x3f369f47	0.7133679
80	0x3ea26f06	0.3172533
81	0x3ed7dbf2	0.42159992
82	0x3f8bef3b	1.0932382
83	0x3ef9b969	0.4877427
84	0x3e6c1168	0.23053515
85	0x3e6a4daa	0.22881189
86	0x406e44b0	3.7229424
87	0x3ef9a3e5	0.48757854
88	0x3e21bff5	0.15795882
89	0x3e7d7e30	0.24755168
90	0x3f4194e7	0.7561783
91	0x3e8e4993	0.27790508
92	0x3e0498cb	0.12948911
93	0x3e28dcaa	0.16490427
94	0x3ff75e56	1.9325664
95	0x3eb5864d	0.35454026
96	0x33884118	6.344834e-08
97	0x3501e677	4.8391615e-07
98	0x33e1f8f0	1.05226604e-07
99	0x338eb98d	6.646142e-08
100	0x33652ace	5.3357148e-08
101	0x32874912	1.5749297e-08
102	0x3404d486	1.2370774e-07
103	0x34b108c4	3.2975197e-07
104	0x33384b25	4.2909182e-08
105	0x34b022c7	3.2807858e-07
106	0x33947f0b	6.914896e-08
107	0x3335a809	4.2295174e-08
108	0x331ba7f6	3.624151e-08
109	0x322ae0b9	9.946398e-09
110	0x33994416	7.1370025e-08
111	0x346f5638	2.2289976e-07
112	0x3352c0eb	4.9069893e-08
113	0x34c91c2c	3.7459665e-07
114	0x33b75504	8.537066e-08
115	0x3357c300	5.023594e-08
116	0x33357472	4.2248253e-08
117	0x3262d0d1	1.3202411e-08
118	0x33be086c	8.8490964e-08
119	0x3489f691	2.569764e-07
120	0x336f48ed	5.571285e-08
121	0x34e4a501	4.2588366e-07
122	0x33d53c2b	9.92953e-08
123	0x3376bbf1	5.744727e-08
124	0x334eee6f	4.8179967e-08
125	0x32861c4f	1.5612526e-08
126	0x33daa725	1.01818195e-07
127	0x349d4173	2.929115e-07
128	0x33ad6a3d	8.075265e-08
129	0x36866004	4.004689e-06
130	0x36aa7a8b	5.0806607e-06
131	0x34dbe396	4.095752e-07
132	0x363ca3f6	2.810962e-06
133	0x361b24a5	2.311813e-06
134	0x3711b703	8.685284e-06
135	0x33e24bf2	1.05377595e-07
136	0x33643152	5.3130243e-08
137	0x3624e3e8	2.4570563e-06
138	0x3650a47f	3.1090165e-06
139	0x34893584	2.5557176e-07
140	0x35e7a595	1.7259032e-06
141	0x35be5ff9	1.4184035e-06
142	0x36b26568	5.3166186e-06
143	0x338e55aa	6.6279725e-08
144	0x336b37f5	5.4766094e-08
145	0x363009e8	2.623181e-06
146	0x365ecffa	3.3201636e-06
147	0x34925f82	2.726411e-07
148	0x35f768c4	1.8433425e-06
149	0x35cb157d	1.5130933e-06
150	0x36be8b1f	5.678637e-06
151	0x33965276	6.999919e-08
152	0x3384559b	6.1623005e-08
153	0x364c707c	3.0463843e-06
154	0x3681b7af	3.865883e-06
155	0x34a6edef	3.109303e-07
156	0x360f75a3	2.1377134e-06
157	0x35ec17bc	1.7590278e-06
158	0x36ddba88	6.6080283e-06
159	0x33ac57d3	8.025349e-08
160	0x3e6dfa76	0.23240075
161	0x3e9e169d	0.30876628
162	0x3f4d4899	0.801889
163	0x3e55ff99	0.20898284
164	0x3e44f626	0.19234523
165	0x3dc6a298	0.09698981
166	0x401482db	2.3204868
167	0x3ed3dbe9	0.41378716
168	0x3dcbd633	0.09952965
169	0x3ebf8d76	0.37412614
170	0x3fd4a281	1.6612092
171	0x3ed68a67	0.41902468
172	0x3e060924	0.13089424
173	0x3eace3f5	0.33767667
174	0x3fedc741	1.8576432
175	0x3f49d1fc	0.78836036
176	0x3e1f69c0	0.15567684
177	0x3eaa4a1b	0.33259663
178	0x3f8a3c21	1.07996
179	0x3e7603dd	0.24024911
180	0x3e16c7b7	0.14724623
181	0x3e46f734	0.19430238
182	0x3fdfb5be	1.7477338
183	0x3f0e247e	0.5552443
184	0x3d975a7b	0.07390305
185	0x3eabc76d	0.33550587
186	0x3fcfb3a3	1.6226696
187	0x3ee61406	0.44937152
188	0x3e00aabe	0.12565133
189	0x3eb06d65	0.3445846
190	0x3fea9375	1.832625
191	0x3f3e840d	0.74420244

exp_avg f4 [8, 8]
0	0x3cb991fe	0.022652622
1	0x3c799a1f	0.015234499
2	0xbca24fc9	-0.019813435
3	0x3ce59afb	0.028028002
4	0xbe401674	-0.18758565
5	0xbda777e1	-0.08177162
6	0xbd73b672	-0.059500165
7	0x3dc76bf2	0.09737386
8	0x3cb8206d	0.0224764
9	0x3bb32f36	0.0054682745
10	0xbc86776a	-0.016414363
11	0x3cc908f0	0.024540395
12	0xbe135fed	-0.14392062
13	0xbd6a302d	-0.05717485
14	0xbd50ea5a	-0.051004745
15	0x3d92b071	0.0716256
16	0x3c54ce5e	0.012988655
17	0x3c0979ec	0.008390885
18	0xbc300075	-0.010742296
19	0x3bf1ef80	0.007383287
20	0x3d7d31d6	0.061815105
21	0x3cacd3cc	0.021097086
22	0x3ce40f9d	0.027839476
23	0xbcd18f45	-0.025581012
24	0xbbcd6b61	-0.006268904
25	0xbc84b81c	-0.016201071
26	0x3be4ce27	0.006982583
27	0x3af3cc40	0.00186003
28	0xbdf77620	-0.120830774
29	0xbd16983a	-0.03676627
30	0xbd5093b7	-0.05092212
31	0x3d44ffbd	0.048095454
32	0x3c935193	0.017983234
33	0x3abe455c	0.001451652
34	0xbc88e26a	-0.016709525
35	0x3c49355c	0.012280788
36	0x3d882f7b	0.06649681
37	0x3d07b3c2	0.033130415
38	0x3d31642d	0.043308426
39	0xbd24b4e2	-0.040211566
40	0xbc9a827a	-0.018861044
41	0xbc9700ed	-0.018433059
42	0x3c93a068	0.018020824
43	0xbc95fc93	-0.018308913
44	0x3d56a391	0.052402083
45	0x3d01621e	0.031587712
46	0x3bf97c98	0.0076137297
47	0xbd0f1dcd	-0.03494053
48	0xbcc9b66c	-0.024623118
49	0xbc8e45b8	-0.017367229
50	0x3c8f646e	0.017503943
51	0xbce95c71	-0.028486462
52	0x3e4a37b0	0.19747806
53	0x3dbcce68	0.09219056
54	0x3da4e0d1	0.08050693
55	0xbde7c50d	-0.11316881
56	0xbc4f7a12	-0.012663381
57	0xbb2c34d6	-0.002627661
58	0x3c27b55d	0.0102361115
59	0xbc240872	-0.010011779
60	0xbc4f0e15	-0.012637635
61	0xbbf03da4	-0.007331567
62	0xbc35fb94	-0.011107344
63	0x3c02b25d	0.007977095

exp_avg_sq f4 [8, 8]
0	0x3f242eef	0.64134115
1	0x3dcf4c99	0.10122032
2	0x3e9f3f30	0.31102896
3	0x3e99e4d8	0.30057406
4	0x3f97302b	1.1811575
5	0x3e15b703	0.14620595
6	0x3e507086	0.20355424
7	0x3e1d1894	0.15341407
8	0x3e8db723	0.27678785
9	0x3d28efec	0.041244432
10	0x3e83deed	0.25756016
11	0x3e69ad1b	0.22819941
12	0x3f170ade	0.59000957
13	0x3d809d9b	0.06280061
14	0x3dae84f1	0.0852145
15	0x3d968f92	0.073516026
16	0x3ecdd833	0.4020401
17	0x3d243d6a	0.04009763
18	0x3f26db64	0.65178514
19	0x3f0cb93b	0.5497014
20	0x3f676b9b	0.9039857
21	0x3db89da5	0.09014443
22	0x3e63fe4a	0.22264972
23	0x3df34627	0.11878615
24	0x3f7b7903	0.98231524
25	0x3dbd8ca3	0.0925534
26	0x40001c3f	2.001724
27	0x3fd774c3	1.6832508
28	0x401c7d4f	2.4451482
29	0x3e10c141	0.1413622
30	0x3ebad117	0.36487648
31	0x3e32112d	0.17389365
32	0x3f46b6e3	0.77622813
33	0x3df64db0	0.120265365
34	0x3e1a5edf	0.15075253
35	0x3e32ded7	0.17467819
36	0x3f9592f0	1.1685467
37	0x3e000fc4	0.12506014
38	0x3e9cdec3	0.30638704
39	0x3da7ad63	0.08187368
40	0x3d893a08	0.06700522
41	0x3cd1d301	0.02561331
42	0x3e277db3	0.16356544
43	0x3e097e5b	0.13427107
44	0x3e49b1eb	0.19696777
45	0x3cf0e985	0.029408226
46	0x3d22a8de	0.039711826
47	0x3d44ea8a	0.048075236
48	0x3f0feada	0.5621773
49	0x3db1a103	0.08673289
50	0x3e5d35ac	0.21602505
51	0x3e819a99	0.2531326
52	0x3f9399fb	1.1531366
53	0x3e29c665	0.16579588
54	0x3e93b258	0.28847003
55	0x3e447d58	0.1918844
56	0x3ed1d5c9	0.40983418
57	0x3caa7bad	0.020810926
58	0x3fbad21c	1.459537
59	0x3f91e8df	1.1399192
60	0x3f91642b	1.1358694
61	0x3ce01942	0.027355794
62	0x3cc28b48	0.023748055
63	0x3da70395	0.0815498

exp_avg f4 [8]
0	0x3ce4ab44	0.027913697
1	0x3cada572	0.021197055
2	0xbc6941ef	-0.014236911
3	0x3cbf3854	0.023342289
4	0xbc413fa2	-0.011794956
5	0xbbad06a1	-0.0052803312
6	0xbcda8c72	-0.026678298
7	0x3b987d65	0.00465362

exp_avg_sq f4 [8]
0	0x3cb1d38c	0.021707319
1	0x3c536a17	0.012903712
2	0x3d0ac085	0.033875007
3	0x3d8b4f15	0.06802193
4	0x3cb96d95	0.02263526
5	0x3c388550	0.011262253
6	0x3cfb817c	0.030701391
7	0x3d006a87	0.031351592

exp_avg f4 [16, 8]
0	0x3a81b0ba	0.0009894588
1	0x3ac14098	0.0014743982
2	0x3ad49796	0.0016219493
3	0xba978983	-0.0011561367
4	0x39f021b6	0.00045801484
5	0xbaee31a3	-0.0018172752
6	0xbad2a1a4	-0.0016069901
7	0xba1ad708	-0.0005906676
8	0x32c1d8e1	2.2566782e-08
9	0xb3a51649	-7.687465e-08
10	0x300b934f	5.0777244e-10
11	0xb416720a	-1.4011326e-07
12	0xb3f7e4ff	-1.1543488e-07
13	0xb2f22dce	-2.8193337e-08
14	0x34b46311	3.3599693e-07
15	0xb33eda30	-4.4436263e-08
16	0xba29c98b	-0.00064768706
17	0x3a5870ed	0.00082565733
18	0xbb184b6a	-0.002323831
19	0x3a094d64	0.00052376674
20	0xba868cef	-0.001026539
21	0x3b193c42	0.0023381864
22	0xbadb9beb	-0.0016754841
23	0x3b9083e1	0.0044102524
24	0x33aa8aa0	7.9414576e-08
25	0xb574447e	-9.099675e-07
26	0x33544ed8	4.9431804e-08
27	0xb5b32559	-1.3347409e-06
28	0xb59aa14c	-1.1520838e-06
29	0xb480a317	-2.396052e-07
30	0x36663ec0	3.4309196e-06
31	0xb50cb4c2	-5.24171e-07
32	0x3a7f5bdd	0.0009741167
33	0x3ae619c9	0.0017555292
34	0x3a4925b2	0.00076731585
35	0xba7fbc0d	-0.00097555
36	0xb8ce2797	-9.83022e-05
37	0xba92a150	-0.0011186991
38	0xba4929af	-0.0007673753
39	0xba733d79	-0.00092788745
40	0xb556abcd	-7.9971215e-07
41	0x38aa1bb9	8.1113954e-05
42	0x36a65264	4.956777e-06
43	0xb82b4d99	-4.0841845e-05
44	0xb7bafb55	-2.2289963e-05
45	0x38179337	3.613831e-05
46	0x37d9e685	2.597576e-05
47	0xb8ad77c3	-8.27159e-05
48	0xb9d94a94	-0.0004144503
49	0xb8f40684	-0.0001163604
50	0x39bcf5dd	0.00036041337
51	0x39346617	0.00017204169
52	0x39c3ea7d	0.00037368006
53	0x386c2ab5	5.630656e-05
54	0xb9f73b43	-0.00047155665
55	0xb909fb8c	-0.00013159047
56	0x37a68a11	1.9853034e-05
57	0x38fe8d30	0.00012137962
58	0x35e39fa7	1.6959283e-06
59	0xb7ecc37c	-2.8224422e-05
60	0xb795182b	-1.7773438e-05
61	0x38795672	5.9446735e-05
62	0x36401db8	2.8627528e-06
63	0xb8edf74c	-0.00011347103
64	0xb8ef33b4	-0.000114060385
65	0x38dc3cf6	0.00010501772
66	0x38abb0f3	8.186875e-05
67	0x38a78954	7.98876e-05
68	0x38669f38	5.4984557e-05
69	0x394660ec	0.00018918858
70	0x37d840b5	2.5779338e-05
71	0xb9294904	-0.00016144296
72	0xbc27ea49	-0.010248729
73	0x3c840a65	0.016118238
74	0x3d45664a	0.048193254
75	0xbaa6d697	-0.0012728748
76	0x3cdc1be1	0.026868762
77	0xbc418dc6	-0.011813587
78	0xbc76a1fe	-0.01505327
79	0xbd2bdcae	-0.041958503
80	0x3addd80d	0.001692535
81	0xbb1b4327	-0.002369115
82	0x3bdb8e03	0.0067002787
83	0xbad2ec5b	-0.0016092168
84	0x3b402406	0.0029318347
85	0xbbd4874a	-0.0064858543
86	0x3b9e8cf7	0.0048385817
87	0xbc558e80	-0.013034463
88	0xb3930909	-6.8468644e-08
89	0x324a2c70	1.1768051e-08
90	0x33011eb2	3.006307e-08
91	0xb3a76218	-7.794387e-08
92	0xb3088749	-3.178801e-08
93	0x33cd2391	9.552526e-08
94	0x3241cb74	1.1280338e-08
95	0xb4637e2d	-2.1186925e-07
96	0x331b7b50	3.6200902e-08
97	0xb41abc35	-1.4410837e-07
98	0x316ed232	3.475304e-09
99	0xb488477f	-2.5383994e-07
100	0xb460f12b	-2.0949362e-07
101	0xb3568e32	-4.9955084e-08
102	0x3524e63c	6.1429796e-07
103	0xb3b5ddce	-8.468815e-08
104	0xb7a69031	-1.9855886e-05
105	0x344de761	1.9176288e-07
106	0x38844641	6.307336e-05
107	0xb89285a7	-6.986717e-05
108	0x36a1143d	4.80053e-06
109	0xb60c08b5	-2.0866694e-06
110	0x38579979	5.1402927e-05
111	0xb97a1438	-0.0002384939
112	0xb3ada779	-8.0864034e-08
113	0xb29ba640	-1.8119977e-08
114	0x331ce173	3.6526625e-08
115	0xb44449da	-1.828079e-07
116	0xb3e3faf7	-1.06161615e-07
117	0x3402ddf3	1.2187938e-07
118	0x3442dc51	1.8147809e-07
119	0xb4aacfde	-3.181621e-07
120	0xb4b9d49a	-3.4613623e-07
121	0x3484bd0d	2.4724469e-07
122	0x33a631ec	7.739058e-08
123	0xb49f487e	-2.9668803e-07
124	0xb2d28cbd	-2.4511218e-08
125	0x351510ec	5.553145e-07
126	0xb4cc893c	-3.8097812e-07
127	0xb583482f	-9.781269e-07

exp_avg_sq f4 [16, 8]
0	0x371d2b25	9.367975e-06
1	0x376ea4f5	1.42243125e-05
2	0x361cc099	2.3357918e-06
3	0x36682dfa	3.4597456e-06
4	0x36ded549	6.6409452e-06
5	0x375e0507	1.3233402e-05
6	0x3765e794	1.3703382e-05
7	0x34904a7e	2.687629e-07
8	0x35824527	9.705881e-07
9	0x36ac2c7e	5.131179e-06
10	0x34de7063	4.1432494e-07
11	0x35d955d2	1.6192737e-06
12	0x375b8823	1.3085114e-05
13	0x37181294	9.064232e-06
14	0x37a0d4e0	1.9172614e-05
15	0x3739cccf	1.1074545e-05
16	0x3cc2c4e9	0.023775535
17	0x3b1d3e48	0.0023993421
18	0x3b8e5735	0.004343892
19	0x3cbfc7f9	0.023410784
20	0x3a6e1795	0.00090824935
21	0x3d068be2	0.032848246
22	0x3b6931b0	0.0035582595
23	0x3df48616	0.11939637
24	0x3693894a	4.396924e-06
25	0x38815bde	6.168311e-05
26	0x367ee634	3.7982945e-06
27	0x38fff8ce	0.00012205691
28	0x38bfb8ad	9.141988e-05
29	0x370688a6	8.018838e-06
30	0x3a53767b	0.0008066666
31	0x37af8b92	2.0926618e-05
32	0x36f7c9cd	7.3846663e-06
33	0x3793fa42	1.7640301e-05
34	0x372a0577	1.0134062e-05
35	0x37bab5fe	2.2257675e-05
36	0x37bfd8c0	2.2869906e-05
37	0x378543ff	1.5886499e-05
38	0x39162f20	0.0001432267
39	0x372fe895	1.0484965e-05
40	0x3b040009	0.0020141623
41	0x3b07daa9	0.0020729697
42	0x3a7fd030	0.00097585004
43	0x3a06667a	0.00051269645
44	0x3a5b7aea	0.00083725026
45	0x39624f28	0.00021582528
46	0x3a9bfaa9	0.0011900264
47	0x3aa29bab	0.0012406012
48	0x3fe58b6d	1.7933174
49	0x3e10d579	0.14143933
50	0x3fad16f5	1.3522631
51	0x3ea18da2	0.3155337
52	0x3fbb85ea	1.4650242
53	0x3d063d6c	0.03277342
54	0x4015b39c	2.3390875
55	0x3e35fcaa	0.17772165
56	0x3c4967f2	0.012292849
57	0x3da02060	0.07818675
58	0x3a7bd874	0.0009607144
59	0x3cb83a1e	0.02248865
60	0x3c379f58	0.011207424
61	0x3d019111	0.031632487
62	0x3dad081f	0.084488146
63	0x3d8f37e1	0.0699308
64	0x3a3c1b6b	0.00071757165
65	0x3a294564	0.00064571784
66	0x39c04f85	0.0003668034
67	0x39f7f797	0.0004729598
68	0x39829524	0.0002490665
69	0x3b00fff6	0.0019683815
70	0x3a316aaa	0.00067679083
71	0x3abb7fc8	0.001430505
72	0x3cf9cfd9	0.030494617
73	0x3d9a000f	0.075195424
74	0x3f2bee75	0.6716073
75	0x39f757ee	0.00047177024
76	0x3e55cdd5	0.208793
77	0x3d24a37b	0.04019497
78	0x3d860183	0.06543257
79	0x3f026b77	0.5094523
80	0x3c2ee1ce	0.010673953
81	0x3b9c400d	0.0047683776
82	0x3ca6a641	0.020342948
83	0x3c96870e	0.018374946
84	0x3bab605d	0.0052299933
85	0x3d213d3a	0.03936503
86	0x3c2deaf2	0.010615097
87	0x3e1a5302	0.15070727
88	0x35b960b5	1.381172e-06
89	0x36cfefa4	6.1969786e-06
90	0x35221482	6.0379546e-07
91	0x35049691	4.9392935e-07
92	0x378d8a12	1.6872804e-05
93	0x37577a4e	1.2843475e-05
94	0x37826688	1.5544952e-05
95	0x379146a9	1.731825e-05
96	0x37687c9d	1.3857291e-05
97	0x373b2464	1.1154541e-05
98	0x362593f0	2.4673027e-06
99	0x36b99e3a	5.5318496e-06
100	0x3724d674	9.825093e-06
101	0x3730a8f4	1.0529755e-05
102	0x380c5827	3.34607e-05
103	0x36c9fb16	6.019497e-06
104	0x3ca5db89	0.020246284
105	0x3b8ac370	0.0042347237
106	0x3ab6ee7d	0.0013956573
107	0x3d0aec12	0.03391654
108	0x3b209ee7	0.0024508776
109	0x3d28ca3f	0.041208502
110	0x3a6d2080	0.00090456754
111	0x3e1be6a1	0.15224697
112	0x35dffa17	1.668758e-06
113	0x3702799d	7.776919e-06
114	0x3518f71a	5.698399e-07
115	0x35995a2d	1.1425633e-06
116	0x37a93f6b	2.0175901e-05
117	0x377d8c97	1.5112709e-05
118	0x37ac6aa8	2.0553663e-05
119	0x37acebdd	2.061383e-05
120	0x35b32166	1.334626e-06
121	0x35ebffde	1.7583332e-06
122	0x34b28463	3.3251408e-07
123	0x365b48c4	3.2675898e-06
124	0x35d9a5eb	1.6216048e-06
125	0x363bfef8	2.8013583e-06
126	0x373d6dcf	1.1290845e-05
127	0x37167f5e	8.970352e-06

exp_avg f4 [16]
0	0x38b38b81	8.56137e-05
1	0x33e5b3f1	1.06963746e-07
2	0xb939382b	-0.00017663899
3	0x358f59b0	1.0680433e-06
4	0x384f428e	4.941463e-05
5	0x36195edc	2.2853992e-06
6	0x37a1f22a	1.9305462e-05
7	0x36e43ee1	6.8022496e-06
8	0x37609747	1.3386662e-05
9	0x3ab38924	0.0013697487
10	0x3a086c8c	0.0005204163
11	0x3284f39a	1.54776e-08
12	0x34525e42	1.9592065e-07
13	0x37135809	8.78238e-06
14	0x339a6084	7.18874e-08
15	0xb39b23c7	-7.224258e-08

exp_avg_sq f4 [16]
0	0x359b9c92	1.1593968e-06
1	0x363b2c94	2.789112e-06
2	0x3980edd1	0.0002459125
3	0x38a6cbe9	7.953478e-05
4	0x377495ae	1.4578383e-05
5	0x37389a94	1.1003245e-05
6	0x3b6b188b	0.0035872783
7	0x3af21738	0.0018470054
8	0x389b7df1	7.4144344e-05
9	0x3a0f5924	0.00054683
10	0x398dc294	0.00027038588
11	0x36334c5f	2.6717532e-06
12	0x36df52a1	6.655537e-06
13	0x39a3d002	0.0003124476
14	0x366497a1	3.4062907e-06
15	0x35953250	1.1116008e-06

exp_avg f4 [8, 16]
0	0x3935c4e7	0.00017334857
1	0xb4d928ed	-4.0449177e-07
2	0x3a60ea98	0.0008579879
3	0xb5503bfd	-7.757333e-07
4	0x3a9d2023	0.0011987727
5	0xb7cb6276	-2.4245335e-05
6	0xb7affc42	-2.0979092e-05
7	0xb8b1cebc	-8.478525e-05
8	0xb788ce35	-1.6308486e-05
9	0x3a90c56c	0.0011045164
10	0x3af0ea15	0.0018380309
11	0xb496368d	-2.7979368e-07
12	0xb4bb9117	-3.493703e-07
13	0x376f74ef	1.4272736e-05
14	0xb52acfec	-6.36325e-07
15	0xb4c9f8d4	-3.7620214e-07
16	0x39020cd5	0.00012402546
17	0xb4008262	-1.1968362e-07
18	0x3a070d77	0.0005151848
19	0xb46b541f	-2.1916684e-07
20	0x3a609d69	0.0008568378
21	0xb663ff19	-3.3974122e-06
22	0xb8d8f6c6	-0.00010345648
23	0xb81ccfd7	-3.7386864e-05
24	0xb708c408	-8.151874e-06
25	0x3a2d4ac1	0.00066105655
26	0x3a8883d1	0.0010415261
27	0xb3a393fb	-7.6171965e-08
28	0xb3de0b96	-1.0339788e-07
29	0x37b36da7	2.1389524e-05
30	0xb439fa8c	-1.7320616e-07
31	0xb3d49d79	-9.9006634e-08
32	0xb8ec20fa	-0.00011259499
33	0xb3441cfc	-4.5661167e-08
34	0xb99611ea	-0.00028623577
35	0xb3bcc6f2	-8.79062e-08
36	0xba4de183	-0.0007853733
37	0x37d27be0	2.5091635e-05
38	0xb895deeb	-7.1463954e-05
39	0x3806fc36	3.218298e-05
40	0x36b56bfa	5.4067905e-06
41	0xb9e343ad	-0.00043347236
42	0xba310f72	-0.00067543157
43	0xb2e3cbf7	-2.651903e-08
44	0xb3296c2c	-3.944676e-08
45	0x369affea	4.61935e-06
46	0xb38100a9	-6.007151e-08
47	0xb30f60be	-3.338277e-08
48	0x392e6c7f	0.00016634351
49	0xb2f375cb	-2.834249e-08
50	0x3a3a98ee	0.0007118125
51	0xb368520f	-5.409134e-08
52	0x3a97f045	0.0011591992
53	0xb78f2bd5	-1.706734e-05
54	0xb7b3b38f	-2.1422076e-05
55	0xb867cad7	-5.52636e-05
56	0xb737431e	-1.0923277e-05
57	0x3a7de328	0.0009685033
58	0x3ac812a0	0.001526434
59	0xb2894ed8	-1.5984753e-08
60	0xb2d2796e	-2.4502437e-08
61	0x377d005f	1.50800615e-05
62	0xb31b7aaf	-3.620033e-08
63	0xb2af73d1	-2.0425349e-08
64	0xb902a702	-0.00012459981
65	0xb390880a	-6.730268e-08
66	0xb9e15ef0	-0.00042986078
67	0xb40c239a	-1.3051468e-07
68	0xba640c9f	-0.00086993905
69	0x3813085d	3.505532e-05
70	0xb8ab1696	-8.1581224e-05
71	0x3883a5ae	6.277427e-05
72	0x3734ba71	1.0772245e-05
73	0xba20e5bb	-0.0006137748
74	0xba812809	-0.000985385
75	0xb338f69a	-4.306512e-08
76	0xb379c42f	-5.8153258e-08
77	0x35d89691	1.6137075e-06
78	0xb3d1f797	-9.777357e-08
79	0xb36ffcc1	-5.5876402e-08
80	0xb7ac6a30	-2.0553445e-05
81	0x343cb2ac	1.7573865e-07
82	0xb94b39ff	-0.00019381194
83	0x34b56bd8	3.3792344e-07
84	0xb90f9c33	-0.00013695731
85	0x3598e4a2	1.1391423e-06
86	0xb829c6a2	-4.047773e-05
87	0x3785558e	1.5894675e-05
88	0x365206a5	3.1296306e-06
89	0xb95360e2	-0.0002015862
90	0xb9e1e5db	-0.000430866
91	0x34035c09	1.2233808e-07
92	0x3422f40c	1.517621e-07
93	0x351edfef	5.9185453e-07
94	0x34956088	2.7823648e-07
95	0x3431b96d	1.6551867e-07
96	0xb93e20ef	-0.00018132081
97	0x3427df93	1.5634423e-07
98	0xba719e59	-0.0009217016
99	0x349ea260	2.9547937e-07
100	0xbaa41723	-0.0012519102
101	0x37824796	1.5530542e-05
102	0x38a5f9bb	7.914329e-05
103	0x38847f4c	6.3179614e-05
104	0x376b2c69	1.4017432e-05
105	0xba9f3fe4	-0.0012149778
106	0xbaff8e17	-0.0019497302
107	0x33df3523	1.0393912e-07
108	0x341104d0	1.3505928e-07
109	0xb7c135da	-2.303247e-05
110	0x347dd0b3	2.3638385e-07
111	0x3413b27b	1.3755373e-07
112	0x384f0ebd	4.9366372e-05
113	0x332d5118	4.0353456e-08
114	0x38d9bd65	0.00010382644
115	0x33a61c9f	7.7351835e-08
116	0x39b494d6	0.00034443167
117	0xb6ea97e1	-6.9914245e-06
118	0x38b9fafe	8.8682384e-05
119	0xb6960cb3	-4.4718267e-06
120	0xb541df29	-7.2222844e-07
121	0x393b3979	0.0001785512
122	0x3993ae6c	0.0002816798
123	0x32d370c9	2.4614922e-08
124	0x3315c7d6	3.4873516e-08
125	0xb707fff2	-8.106219e-06
126	0x336fc0be	5.5821822e-08
127	0x3303a4e1	3.065077e-08

exp_avg_sq f4 [8, 16]
0	0x3701afe5	7.729953e-06
1	0x377e942d	1.517408e-05
2	0x3b504e1b	0.0031784836
3	0x38377833	4.3742544e-05
4	0x3812f5fe	3.503821e-05
5	0x3ae95296	0.0017801102
6	0x3b979506	0.0046259193
7	0x3c13d3d5	0.009022673
8	0x38ce04f4	9.823768e-05
9	0x3a0ed777	0.0005448977
10	0x3ac7e089	0.0015249412
11	0x3728cc46	1.0061141e-05
12	0x37420fd8	1.156699e-05
13	0x3b00e810	0.001966957
14	0x3813969d	3.51878e-05
15	0x373e7dff	1.1354218e-05
16	0x36b6dd10	5.4497577e-06
17	0x37133ebf	8.776492e-06
18	0x3c97c19d	0.01852494
19	0x3913db9a	0.0001410082
20	0x377415a8	1.4548576e-05
21	0x3b653182	0.0034972136
22	0x3de43e2e	0.11144672
23	0x39a20294	0.0003090097
24	0x37c0a55c	2.2965185e-05
25	0x39201aa5	0.00015268715
26	0x3a02ab96	0.0004984675
27	0x3720c041	9.581506e-06
28	0x370a9bc5	8.261709e-06
29	0x3b4e24ed	0.0031455115
30	0x37ac8f9a	2.0570867e-05
31	0x3612a64a	2.1852488e-06
32	0x33ade88e	8.098242e-08
33	0x36b2021e	5.30506e-06
34	0x3bf510bf	0.007478803
35	0x35620f5e	8.4213923e-07
36	0x358cc944	1.0489389e-06
37	0x3b38d941	0.0028205665
38	0x3d5a3fcb	0.053283494
39	0x38c9babc	9.619209e-05
40	0x363a554d	2.7765811e-06
41	0x386f8d38	5.711356e-05
42	0x395b199e	0.0002089501
43	0x36ce0ae2	6.1405453e-06
44	0x353ffbc0	7.151939e-07
45	0x3aa1f329	0.0012355793
46	0x37376672	1.0931502e-05
47	0x34ac8638	3.2135154e-07
48	0x3352c2ee	4.9071723e-08
49	0x36aa1778	5.069127e-06
50	0x3afd102c	0.0019307188
51	0x35302e3d	6.5632395e-07
52	0x35648430	8.5128977e-07
53	0x3ac3deee	0.0014943758
54	0x3b9e9343	0.0048393323
55	0x39a6ba27	0.00031800682
56	0x36e6e58b	6.8812565e-06
57	0x398f23b7	0.00027301695
58	0x3a867c09	0.0010260354
59	0x36c74edd	5.939843e-06
60	0x35392a2d	6.8979244e-07
61	0x3996d167	0.00028766246
62	0x372ea8c8	1.0410506e-05
63	0x345c3324	2.0507701e-07
64	0x35a2df6a	1.2134963e-06
65	0x34ecc116	4.4098914e-07
66	0x3bdb10b8	0.0066853426
67	0x3698bb76	4.5517763e-06
68	0x359bf722	1.1620325e-06
69	0x3ab5c461	0.001386773
70	0x3d8dbac0	0.06920385
71	0x39c0177f	0.000366386
72	0x3718d25e	9.108886e-06
73	0x38f3e324	0.00011629451
74	0x39e429db	0.00043518734
75	0x34926f42	2.727557e-07
76	0x35dcb8bd	1.6445043e-06
77	0x3a92e69c	0.0011207643
78	0x3592ed57	1.0946923e-06
79	0x352d4c04	6.455814e-07
80	0x35918a2d	1.0843556e-06
81	0x3667e151	3.4552834e-06
82	0x3963c25f	0.00021720816
83	0x370d42ac	8.419778e-06
84	0x36e12271	6.709532e-06
85	0x39bffc09	0.0003661814
86	0x3c8a674e	0.016894963
87	0x3b15be2d	0.002284895
88	0x378aa9df	1.6529984e-05
89	0x38471f56	4.747448e-05
90	0x38ba1a0b	8.874022e-05
91	0x362890ca	2.511823e-06
92	0x35e6fe7b	1.7210399e-06
93	0x39a549b2	0.0003152616
94	0x36f5ef0c	7.3293977e-06
95	0x3609b6f6	2.0521088e-06
96	0x367b6353	3.745973e-06
97	0x3708a3ea	8.144396e-06
98	0x3c2435c4	0.010022584
99	0x38139dbd	3.5194436e-05
100	0x37086453	8.12959e-06
101	0x3b4898f5	0.0030608748
102	0x3d85b899	0.0652935
103	0x3a4be5a0	0.0007778052
104	0x37d4ef1a	2.538371e-05
105	0x39f17f67	0.00046062024
106	0x3adcfbdf	0.0016859731
107	0x370e7773	8.491671e-06
108	0x36c09ca9	5.7402835e-06
109	0x3aecb51c	0.0018059346
110	0x379c1db0	1.8610473e-05
111	0x360bc30e	2.082615e-06
112	0x35044e40	4.92877e-07
113	0x3489792a	2.5606397e-07
114	0x3c0c5bc9	0.008566805
115	0x3628321f	2.5063125e-06
116	0x34cf6d01	3.8636065e-07
117	0x3a19f53d	0.000587303
118	0x3da72f2c	0.08163294
119	0x37582356	1.2882831e-05
120	0x357b2569	9.3559225e-07
121	0x37528228	1.254728e-05
122	0x3838caf4	4.4058033e-05
123	0x34374ed2	1.7071878e-07
124	0x3547ea7a	7.4474485e-07
125	0x3ab98934	0.001415527
126	0x3546321e	7.383368e-07
127	0x3508b1eb	5.092285e-07

exp_avg f4 [8]
0	0x3ce6ca34	0.02817259
1	0x3ca50f99	0.02014904
2	0xbc42699b	-0.011865999
3	0x3c9eda5e	0.019391235
4	0xbc64f62d	-0.0139747085
5	0xbbf676a4	-0.0075214673
6	0xbcf595be	-0.02997863
7	0x3b8f4d3f	0.004373222

exp_avg_sq f4 [8]
0	0x3c3fef18	0.011714719
1	0x3b9fd974	0.0048782174
2	0x3b2dc72a	0.0026516416
3	0x3bdc26b4	0.006718481
4	0x3bfbfc21	0.007689968
5	0x3a20ca87	0.00061336946
6	0x3c3173ed	0.0108308615
7	0x3a288f9b	0.000643009

exp_avg f4 [1, 8]
0	0x3e859f6e	0.26098198
1	0x3f1fc98f	0.6241693
2	0x3f32c88e	0.6983727
3	0xbed3afd3	-0.4134508
4	0x3e429441	0.19001867
5	0xbf167d30	-0.5878477
6	0xbf27546f	-0.6536321
7	0xbe938188	-0.28809762

exp_avg_sq f4 [1, 8]
0	0x4084b10a	4.146611
1	0x420b0e55	34.763996
2	0x421b7dbe	38.872795
3	0x4166cd82	14.425173
4	0x4090fe9a	4.5310793
5	0x41e209a9	28.254717
6	0x413cebed	11.807599
7	0x422d4e0f	43.32623
