notebooks/lightning_logs/version_28/checkpoints/epoch=24-step=150.ckpt (torch, 47339 bytes, 42 tensors)

front_linear.weight f4 [16, 2]
0	0x4040731b	3.0070255
1	0x3fa9816b	1.324262
2	0xbfd4b85c	-1.6618762
3	0xbf8b6956	-1.0891521
4	0xbf93e4b4	-1.155417
5	0x3e064596	0.13112482
6	0xbf8886ff	-1.0666198
7	0xbf1c3e39	-0.61032444
8	0x3fc9d3ed	1.57678
9	0x3fa3cd56	1.2797039
10	0xbd31b422	-0.04338468
11	0xbc8d06ef	-0.01721522
12	0x40114636	2.2699103
13	0x3fa50c85	1.2894446
14	0xbf94d4a1	-1.1627389
15	0xbf96ba90	-1.1775684
16	0x3e13bb32	0.14426878
17	0x3c9a2044	0.018814214
18	0x3ee7ae00	0.4524994
19	0x3cea9ab4	0.028638221
20	0x3f48b475	0.78400356
21	0x3f24e81a	0.6441666
22	0xbf815fbd	-1.0107342
23	0xbf9d3145	-1.2280661
24	0xbedc8d98	-0.43076777
25	0xbe0cf063	-0.13763575
26	0x3f33acde	0.7018565
27	0x3f1aa26b	0.6040408
28	0xbff6e820	-1.9289589
29	0xbf44112a	-0.7658869
30	0x3f207373	0.6267616
31	0x3f694d32	0.91133416

front_linear.bias f4 [16]
0	0x3fc71175	1.5552202
1	0xc0011203	-2.0167243
2	0xbf65a9fe	-0.8971251
3	0xbfa41dad	-1.2821556
4	0x3ff99206	1.9497688
5	0xbe8e1852	-0.2775293
6	0x3fd03d99	1.6268798
7	0xbfb624e8	-1.4230013
8	0x3f35ae8b	0.70969456
9	0xbf091b6d	-0.53557473
10	0x3fcc5895	1.5964533
11	0xbf66a188	-0.9009023
12	0xbf0815bd	-0.5315817
13	0x3f0e715d	0.5564173
14	0xbfc8c006	-1.5683601
15	0x3ec98073	0.3935581

transformer_encoder.layers.0.self_attn.qkv_proj.weight f4 [48, 16]
0	0x3fed5fdc	1.8544879
1	0xbfe0a3f4	-1.7550035
2	0xbf11757b	-0.56819886
3	0xbfe9043b	-1.8204416
4	0x3fe0205f	1.7509879
5	0xbe29e46c	-0.16591042
6	0x4011da1e	2.2789378
7	0xc001a595	-2.0257313
8	0x3eba12fa	0.36342603
9	0xbe0f2f13	-0.13982801
10	0x3ff6140b	1.9224867
11	0xbff16bf1	-1.8861066
12	0xbe349ab3	-0.17637138
13	0x3f5423a2	0.8286687
14	0xc00ca1a3	-2.1973655
15	0x3f1b6dee	0.60714614
16	0x3fd87200	1.690979
17	0xbfcb7c0c	-1.5897231
18	0xbf20d2f3	-0.6282188
19	0xbfd90c06	-1.6956794
20	0x4001ae6f	2.0262716
21	0x3e6ded4b	0.23235051
22	0x3fd2e45e	1.6475942
23	0xbfdfd5c4	-1.7487111
24	0x3ee82612	0.45341545
25	0xbdc78792	-0.09742655
26	0x3ff02dc8	1.8763971
27	0xbfc92de5	-1.5717131
28	0xbf3930d0	-0.72340107
29	0x3ee00a29	0.43757752
30	0xbff892fa	-1.9419854
31	0x3f3eb176	0.74489534
32	0x3f295147	0.66139644
33	0xbe53f35e	-0.20698306
34	0xbf222066	-0.63330686
35	0xbe45dee7	-0.19323312
36	0x3eb8568d	0.36003533
37	0xbfc63cc7	-1.5487298
38	0x3e840ac8	0.25789475
39	0xbeb29806	-0.3488161
40	0x3f145f24	0.57957673
41	0xbfb44f99	-1.4086791
42	0x3f1ec64b	0.6202132
43	0xbb582b35	-0.0032984738
44	0xbfa9e2f5	-1.3272387
45	0x3f916c52	1.1361182
46	0xbf038018	-0.5136733
47	0x3f747094	0.9548428
48	0x3e1fe944	0.15616328
49	0x3e0534f1	0.13008477
50	0xbe00cbf0	-0.12577796
51	0x3eedaba4	0.46420014
52	0xbe53f486	-0.20698747
53	0xbf8c33df	-1.095333
54	0x3cb69f66	0.022292804
55	0x3bed41c4	0.007240506
56	0x3ea5f3f1	0.32412675
57	0xbfc27edd	-1.5194966
58	0xbe764df0	-0.24053168
59	0x3e26676b	0.16250388
60	0xbeb7aabe	-0.35872453
61	0xbd1de5d5	-0.038549263
62	0x3d615277	0.055010285
63	0x3ec3214b	0.38111338
64	0xbf3bc36a	-0.73345053
65	0x3e904627	0.28178522
66	0xbfb10025	-1.3828169
67	0x3ea39102	0.3194657
68	0xbe1b1b10	-0.15147042
69	0xbeea9dd2	-0.45823532
70	0xbf35f88f	-0.71082395
71	0x3ebc4def	0.3677821
72	0x3fa530a7	1.2905473
73	0xbeb11444	-0.34585774
74	0xbe0f7dd0	-0.14012837
75	0x3ea606f3	0.32427177
76	0xbfdde7ae	-1.7336328
77	0x3fe2ec47	1.7728356
78	0x3eade845	0.3396627
79	0x3fd98456	1.6993511
80	0xbe102bcc	-0.14079207
81	0xbf010092	-0.50391495
82	0xbf9b9786	-1.2155616
83	0xbec20735	-0.37896124
84	0x3eda0457	0.42581436
85	0xbe6a8d0e	-0.2290537
86	0x3ddfc9be	0.10927151
87	0xbed7cdc6	-0.4214918
88	0x3fe48812	1.7854025
89	0xbcfa6421	-0.030565323
90	0x3e87ce19	0.26524428
91	0xbecf21ca	-0.40455467
92	0xbfee6d99	-1.8627197
93	0x3fe43cb6	1.7831028
94	0x3d69edd3	0.057111572
95	0x3fe52770	1.790266
96	0xbdcc3715	-0.099714436
97	0x3ed29eb8	0.41136718
98	0x3fae80a6	1.363301
99	0x3ecd4895	0.40094438
100	0xbdb3cd42	-0.08779384
101	0x3e5bfec3	0.21483903
102	0x3ddd6be6	0.108115956
103	0x3ef7b5ce	0.48380893
104	0xbfc82826	-1.5637252
105	0x3e672c4c	0.22575492
106	0xbea665cd	-0.32499543
107	0x3f006af6	0.5016321
108	0x3fc0b7cb	1.5056089
109	0xbfc7523d	-1.5571972
110	0x3d79cdb3	0.060987186
111	0xbfb44cc0	-1.4085922
112	0x3d831103	0.06399729
113	0x3ec110d0	0.3770814
114	0x3f95afe9	1.1694309
115	0x3ea617bd	0.32439986
116	0xbc6634ca	-0.014050672
117	0x3e19af8b	0.1500837
118	0xbe68648e	-0.22694609
119	0x3e424509	0.18971647
120	0xbfa58e9d	-1.2934147
121	0x3ed26643	0.41093644
122	0xbd078c32	-0.033092685
123	0x3ebb1e08	0.3654635
124	0x3f7c3878	0.98523664
125	0xbf8a7dcd	-1.0819641
126	0x3e8026cd	0.25029603
127	0xbf85a52e	-1.0441034
128	0x401d59f0	2.4586143
129	0xbf93d6c7	-1.154992
130	0xbf2e5721	-0.681017
131	0xbf9e2395	-1.2354609
132	0x3ff8b069	1.9428836
133	0x3f8105a2	1.0079844
134	0x4003a5b9	2.05699
135	0xbffe0e8d	-1.984819
136	0xbc15554d	-0.009114576
137	0x3f665799	0.89977413
138	0x3de8b970	0.113634944
139	0xc00246d8	-2.035574
140	0xbf192b32	-0.59831536
141	0x3f3cf2a6	0.7380775
142	0xbfb99a34	-1.4500184
143	0x3fa153a3	1.2603649
144	0x4010dffd	2.2636712
145	0xbf861466	-1.0474975
146	0xbf21ae6b	-0.63156766
147	0xbf6c6325	-0.9233878
148	0x3fdf425e	1.7442129
149	0x3f6e08b1	0.9298201
150	0x3ff4669a	1.9093812
151	0xc006da86	-2.1070876
152	0x3d6fc6bb	0.058539134
153	0x3f3cb0ba	0.73707163
154	0x3e75e849	0.24014391
155	0xc002d334	-2.0441408
156	0xbf39656f	-0.724204
157	0x3f2ccda7	0.675013
158	0xbfa9dd07	-1.3270577
159	0x3f9d9c3a	1.2313302
160	0x3ee1cbe9	0.44100884
161	0xbed5e73b	-0.41777977
162	0x3f5cdab1	0.86271197
163	0x3abbd563	0.0014330562
164	0x3fae35b8	1.3610144
165	0x3f5bfcab	0.85932416
166	0x3f60f596	0.87874734
167	0xbfa21e03	-1.2665409
168	0xbf817e00	-1.0116577
169	0x3f7cd207	0.98757976
170	0x3f68e8d9	0.909803
171	0xbfc51cc8	-1.5399408
172	0x3f9e49a6	1.2366226
173	0x3d396d55	0.045270283
174	0xbf2d232b	-0.6763179
175	0x3e8bdcec	0.27316988
176	0x3f089a7f	0.5336074
177	0x3ec6cd70	0.3882861
178	0x3f31c1c0	0.69436264
179	0x3f2cc74c	0.674916
180	0xbe11d799	-0.142424
181	0x3e54d8a2	0.20785764
182	0x3d8234ad	0.06357703
183	0xbda4ea70	-0.08052528
184	0x3f46e717	0.77696365
185	0x3f0f57b3	0.55993193
186	0xbd8da4df	-0.06916212
187	0xbeefe9a5	-0.46857944
188	0xbecfef9a	-0.4061249
189	0xbe9bfdd8	-0.30467105
190	0xbd2b00bf	-0.04174876
191	0x3c062de5	0.008189653
192	0xbe78ea02	-0.24308017
193	0xbf4f4569	-0.80965286
194	0x3f646028	0.8920922
195	0xbf43ae9a	-0.76438296
196	0x3ed12142	0.40845686
197	0x3de8de56	0.11370532
198	0xbb835d62	-0.004008935
199	0xbe925742	-0.28582197
200	0xbfbc0512	-1.4689047
201	0xbdd57f55	-0.10424677
202	0x3f916ece	1.136194
203	0xbdd61670	-0.10453498
204	0x3fbee6df	1.4914206
205	0xbf3c3295	-0.7351468
206	0x3eb0ca70	0.34529448
207	0xbebe185c	-0.3712796
208	0xbf104632	-0.5635711
209	0xbf02fe0e	-0.51168907
210	0x3fb4d07c	1.4126124
211	0xbf0e4332	-0.5557128
212	0x3e8692ac	0.26283777
213	0x3d49edb1	0.049298946
214	0xbd819007	-0.06326299
215	0xbed54f99	-0.4166229
216	0xbfb1a9e8	-1.3879976
217	0x3dae7911	0.08519185
218	0x3fb62eaf	1.4232997
219	0xbed6d8ea	-0.41962367
220	0x3fc51473	1.5396866
221	0xbf08d655	-0.53452045
222	0x3e5c6df9	0.21526326
223	0xbf3c1ae0	-0.7347851
224	0x3ec7755c	0.38956726
225	0x3ee068ca	0.43829948
226	0xbfe2ada4	-1.7709241
227	0x3ddd79f3	0.108142756
228	0xbeb6559a	-0.35612184
229	0x3ddd7331	0.10812987
230	0x3e652b17	0.22379719
231	0x3ea8561f	0.32878205
232	0x3f850ddb	1.0394853
233	0x3e38b7e3	0.18038897
234	0xbffd6d15	-1.9798914
235	0x3f5fa638	0.87363005
236	0xc0069969	-2.1031134
237	0x3fa483f4	1.2852769
238	0xbf54a5f1	-0.83065706
239	0x3c236b1d	0.009974268
240	0x3ec349b9	0.38142183
241	0xbcba4e20	-0.022742331
242	0xbff328ac	-1.8996787
243	0x3d3c8d4f	0.0460332
244	0xbf028718	-0.50987387
245	0x3e603269	0.2189423
246	0x3d94dfde	0.07269262
247	0x3f36f3fd	0.71466047
248	0x3f97476e	1.1818674
249	0x3e2dcfaf	0.16973756
250	0xc00d1198	-2.2041988
251	0x3f040a5d	0.51578313
252	0xc00d232c	-2.2052717
253	0x3fb71fb5	1.4306551
254	0xbf5bd088	-0.8586507
255	0x3e80e26e	0.25172752

transformer_encoder.layers.0.self_attn.o_proj.weight f4 [16, 16]
0	0xbf9c341d	-1.2203404
1	0xbfc247fd	-1.5178219
2	0xbec28af8	-0.3799665
3	0xbf290e61	-0.66037565
4	0x3facc6aa	1.3498127
5	0xbeeb362e	-0.45939773
6	0xbf74f26a	-0.95682395
7	0x3ed35f58	0.4128368
8	0x3ef3cdcd	0.4761795
9	0xbfac7570	-1.3473339
10	0x3e3a3375	0.18183692
11	0xbfcd1ffb	-1.6025385
12	0xbf7820ba	-0.96924937
13	0xbf861efc	-1.0478206
14	0xbfc5fbc4	-1.5467458
15	0x3ea96220	0.33082676
16	0x3f46e041	0.77685934
17	0x3fc36bb4	1.5267243
18	0x3e0130d3	0.12616281
19	0x3f030fdd	0.5119608
20	0xbf55a42f	-0.8345365
21	0x3ef410e2	0.4766913
22	0x3f14016e	0.5781468
23	0xbf8227a5	-1.0168349
24	0x3e38c030	0.18042064
25	0x3fdd2856	1.7277935
26	0x3d9b6fc3	0.07589676
27	0x3fc5351c	1.5406833
28	0x3fa9bc89	1.3260661
29	0x3fb107f4	1.3830552
30	0x3f8ef1c9	1.1167537
31	0xbf27cbf5	-0.6554559
32	0x3f812141	1.0088273
33	0x3fb6efe6	1.4291961
34	0x3f0db380	0.5535202
35	0x3da825e5	0.08210353
36	0xbfc50a48	-1.5393763
37	0x3f4d2735	0.8013795
38	0x3ebd7f19	0.3701103
39	0xbf41468e	-0.7549828
40	0xbefa1357	-0.4884288
41	0x3fb4b074	1.4116349
42	0xbebaf98a	-0.36518508
43	0x3ffe078d	1.9846054
44	0x3fcd2bfd	1.6029049
45	0x3faeb7d6	1.3649852
46	0x3fe090f5	1.7544237
47	0xbe824def	-0.25450084
48	0xbf9bfc63	-1.2186397
49	0xbf867839	-1.0505439
50	0xbeea4bc5	-0.45760933
51	0x3e2706d8	0.16311204
52	0x3f3adf9f	0.7299747
53	0x3c3a0bfa	0.0113553945
54	0xbe79b702	-0.24386218
55	0x3f72d166	0.94850767
56	0x3d9d6068	0.07684404
57	0xbf88299e	-1.06377
58	0xbf4395bf	-0.7640037
59	0xbf93abe7	-1.1536835
60	0xbfda4a83	-1.7053989
61	0xbfba24c2	-1.4542468
62	0xbf926919	-1.1438323
63	0x3e921b71	0.2853656
64	0xbe39350c	-0.18086642
65	0xbf1a8cad	-0.60370904
66	0xbfa5cf4a	-1.2953885
67	0xbfcb9f13	-1.5907921
68	0xbe85b9ae	-0.26118225
69	0xbfbe44aa	-1.4864705
70	0xbfdf2b88	-1.743516
71	0x3fd022ec	1.6260657
72	0x3f5ac621	0.8545857
73	0xbe921dd9	-0.28538397
74	0x3ef11175	0.4708363
75	0xbe3c7cbb	-0.18406956
76	0xbe8d712a	-0.276254
77	0x3ddc9387	0.10770326
78	0xbe8e3d15	-0.27780977
79	0x3fccff7d	1.6015469
80	0xbe9b98f3	-0.30390128
81	0xbed96878	-0.42462516
82	0xbfb3a3a9	-1.403432
83	0xbfcc7255	-1.5972391
84	0x3d27fbe1	0.041011695
85	0xbfb01ff8	-1.3759756
86	0xbfc11144	-1.5083394
87	0x3fa68be9	1.3011447
88	0x3fa73126	1.3061874
89	0xbf7ab2c5	-0.9792903
90	0x3fb06aca	1.378259
91	0xbfb80205	-1.4375616
92	0xbf30f1a7	-0.6911873
93	0xbed80c2c	-0.42196786
94	0xbf9084e4	-1.1290555
95	0x3fbbecc9	1.4681636
96	0xbf03b867	-0.5145325
97	0xbe4c47c7	-0.19949256
98	0xbfd6b58f	-1.6774157
99	0xbfc0276b	-1.501203
100	0x3d6474e6	0.055775546
101	0xbf8e1fe4	-1.1103482
102	0xbf899a02	-1.0750124
103	0x3fd2d067	1.6469849
104	0x3fabc37a	1.341903
105	0xbd338687	-0.043829467
106	0x3f28a0c8	0.6587033
107	0xbf249167	-0.64284366
108	0xbdf9d6b1	-0.12199152
109	0xbe58dba2	-0.21177533
110	0xbe3fc41d	-0.18727155
111	0x3fdbcb55	1.7171427
112	0xbe93b8bf	-0.28851888
113	0xbe97d4f3	-0.29654655
114	0x3f00535f	0.50127214
115	0x3f05b6bf	0.52231973
116	0x3f21ebce	0.63250434
117	0x3f85bdde	1.0448568
118	0x3f21e815	0.63244754
119	0xbf603cee	-0.8759297
120	0xbeb5e260	-0.35524273
121	0xbde18068	-0.1101082
122	0xbf153d29	-0.5829645
123	0xbef43880	-0.47699356
124	0xbf4eaa34	-0.8072846
125	0xbeb8b2ea	-0.36074
126	0xbe143e8c	-0.14476985
127	0xbf817a8b	-1.0115522
128	0xbee8a5de	-0.45439047
129	0xbeaad511	-0.33365682
130	0x3fca4502	1.580231
131	0x3fd0fa9f	1.6326483
132	0x3efc1f57	0.4924266
133	0x3fd557ad	1.6667382
134	0x3f96a347	1.1768578
135	0xbf6167e1	-0.8804913
136	0xbf431b82	-0.7621385
137	0x3e269f6b	0.1627175
138	0xbf83eb4a	-1.030618
139	0x3f33bb2b	0.7020747
140	0x3e97cadd	0.2964696
141	0x3ec9a78e	0.39385647
142	0x3dca51f5	0.09878913
143	0xbfcabc16	-1.5838649
144	0x3f8b09c8	1.086236
145	0x3fb59cc9	1.4188472
146	0x3f190f70	0.5978918
147	0x3f0a8eb0	0.54123974
148	0xbfa1146b	-1.2584356
149	0x3f4ebbb2	0.8075515
150	0xbd142ac0	-0.036173582
151	0xbf6451ff	-0.89187616
152	0xbeac3732	-0.3363586
153	0x3fc9c8a7	1.5764359
154	0x3f1ff46e	0.62482345
155	0x3fa3fd8b	1.281175
156	0x3fe2e6f7	1.7726735
157	0x3f5cbcb4	0.8622544
158	0x3fbc2720	1.469944
159	0xbf32f35d	-0.6990259
160	0xbd9319c3	-0.07182648
161	0xbf076f07	-0.5290379
162	0xbfacba12	-1.3494284
163	0xbfec6f81	-1.8471528
164	0x3e56b43e	0.20967194
165	0xbfd201a0	-1.6406746
166	0xbfd60248	-1.6719446
167	0x3ff8c9c5	1.9436575
168	0x3fa86312	1.3155234
169	0xbf0548c0	-0.5206413
170	0x3f3d24e5	0.7388442
171	0xbee7eb86	-0.45296878
172	0xbf0917e3	-0.53552073
173	0xbdfa822c	-0.122318596
174	0xbe801f0e	-0.25023693
175	0x3fed846b	1.8556036
176	0x3e0f21f8	0.13977802
177	0x3d3fddd6	0.04684242
178	0x3ff1cf57	1.88914
179	0x3fcdcdec	1.6078467
180	0xbe7e3e59	-0.24828471
181	0x3febb6a6	1.8415115
182	0x3fe8def6	1.8193042
183	0xbffa3e32	-1.955023
184	0xbfd75874	-1.6823869
185	0xbd80949c	-0.06278345
186	0xbfb6ab97	-1.4271115
187	0x3e1fc563	0.15602641
188	0x3ef8a520	0.4856348
189	0xbe912ee4	-0.28356087
190	0xbe186000	-0.14880371
191	0xbfef798a	-1.8708966
192	0x3f2c170e	0.6722268
193	0x3fb532d6	1.4156139
194	0x3ed36c28	0.41293454
195	0x3ec3662e	0.38163894
196	0xbf6ddda7	-0.9291634
197	0xbe8850bf	-0.26624104
198	0x3ea0e841	0.31427196
199	0xbf5ecb0f	-0.8702859
200	0x3edf4353	0.43606052
201	0x3fc26204	1.5186162
202	0x3f11d115	0.5695966
203	0x3fc6c826	1.552983
204	0x3f7f2155	0.99660236
205	0x3f7650ce	0.9621705
206	0x3f90aac5	1.1302115
207	0x3e1566a2	0.14589933
208	0xbf6b6542	-0.9195138
209	0xbf4378f1	-0.76356417
210	0x3f4bc273	0.7959358
211	0x3f45ec94	0.77314115
212	0x3ebde639	0.37089708
213	0x3c57ebb5	0.0131787555
214	0x3f4f3010	0.8093271
215	0x3ea1aada	0.31575662
216	0xbf5739d2	-0.840726
217	0xbef16add	-0.47151843
218	0xbf5dab57	-0.8658957
219	0xbf1543bd	-0.58306485
220	0xbf232d84	-0.63741326
221	0xbedf2360	-0.43581676
222	0xbf8917b4	-1.0710359
223	0xbe98e2db	-0.29860577
224	0xbe67580d	-0.22592182
225	0x3f02169a	0.5081574
226	0x3fb0b96c	1.3806586
227	0x3fdc01a8	1.7188005
228	0xbeb4762f	-0.35246417
229	0x3fe57628	1.7926683
230	0x3fd6a623	1.6769451
231	0xbfa61f16	-1.2978237
232	0xbf825cc3	-1.0184559
233	0xbe84a357	-0.25905868
234	0xbf9f23b6	-1.2432773
235	0xbe83c3eb	-0.2573541
236	0xbe319472	-0.17341784
237	0x3e7bdc4a	0.24595752
238	0xbdae94aa	-0.08524449
239	0xbfa6ca5b	-1.3030504
240	0xbf1b8e14	-0.6076367
241	0xbf8b8cd5	-1.0902354
242	0xbe8de6df	-0.27715203
243	0xbdd279ea	-0.102771595
244	0x3f5408b4	0.8282578
245	0x3d755255	0.05989297
246	0x3ec7516d	0.3892931
247	0x3f8199b0	1.0125027
248	0xbf0a5be9	-0.54046494
249	0xbfa97610	-1.3239155
250	0xbe9acfee	-0.30236763
251	0xbfc5fcbc	-1.5467753
252	0xbf8a35f0	-1.079771
253	0xbf8a3742	-1.0798113
254	0xbfab8430	-1.3399715
255	0xbe4c5fbe	-0.19958398

transformer_encoder.layers.0.self_attn.o_proj.bias f4 [16]
0	0xbe5f91c3	-0.21832947
1	0x3ef0bcf7	0.4701917
2	0x3ec448e2	0.38336855
3	0xbf086ce7	-0.5329117
4	0x3f3bd9e3	0.73379344
5	0x3fc8ccf4	1.5687547
6	0x3f4791e3	0.7795698
7	0xbf18db79	-0.5970989
8	0xbf2d487e	-0.6768874
9	0x3ef0ba44	0.4701711
10	0x3f432ae9	0.7623735
11	0xbf4bd94f	-0.7962846
12	0x3f0b9a52	0.5453235
13	0xbf15af98	-0.5847106
14	0xbf4d78a1	-0.8026219
15	0xbf0a24f0	-0.5396261

transformer_encoder.layers.0.linear_net.0.weight f4 [32, 16]
0	0x3eaacfa4	0.33361542
1	0xbcf84a99	-0.030309008
2	0xbe9c9915	-0.30585542
3	0x3d9b142e	0.07572208
4	0xbf938422	-1.1524699
5	0x3e9ff508	0.31241632
6	0xbfb2772a	-1.3942616
7	0xbfdadfb6	-1.7099521
8	0x3fc49ec5	1.5360953
9	0xbe4e676c	-0.2015664
10	0x3ef9a432	0.48758084
11	0x3fadce36	1.3578556
12	0x3f64d174	0.893821
13	0xbfc0b5c8	-1.5055475
14	0x3fcb6dd7	1.5892895
15	0xbfad4b21	-1.3538553
16	0x3f3afc2c	0.73041034
17	0xbf712124	-0.94191194
18	0xbfb9a2ec	-1.4502845
19	0x3f21bc38	0.63177824
20	0x3f13c061	0.5771542
21	0x3fb22969	1.3918887
22	0xbcd6505c	-0.026161365
23	0xbf237492	-0.6384975
24	0x3e4fa3f1	0.20277382
25	0xbfc769cf	-1.5579165
26	0x3fd7ac02	1.6849368
27	0xbf4d4cf3	-0.8019554
28	0xbef89ab4	-0.4855553
29	0x3caf51e3	0.021401351
30	0x3e0be915	0.13663132
31	0x3e5b6d34	0.21428376
32	0x3f08216b	0.5317599
33	0xbf6805d4	-0.90633893
34	0xbf852ae0	-1.040371
35	0x3f6db8ac	0.9285991
36	0xbf0959c0	-0.5365257
37	0x3f282aa3	0.6569006
38	0xbf89cc8d	-1.0765549
39	0xbec20e44	-0.3790151
40	0x3f7fa08b	0.99854344
41	0xbf882dff	-1.0639037
42	0x3f15d418	0.58526754
43	0x3f3e488b	0.7432944
44	0x3e9a8c71	0.30185273
45	0xbe9a6ac1	-0.30159572
46	0x3fa9b985	1.3259741
47	0xbedf8e8f	-0.4366345
48	0xbf4f7444	-0.8103678
49	0xbf264c0a	-0.64959776
50	0x3f096164	0.5366423
51	0x3f1c88e1	0.6114636
52	0xbf479b7e	-0.7797164
53	0xbef2add1	-0.47398236
54	0xbf28613e	-0.6577338
55	0x3f6d907c	0.9279859
56	0x3ef83c73	0.4848362
57	0x3ecbe1f8	0.39820838
58	0xbf28edbc	-0.65987754
59	0x3f3eb4d5	0.7449468
60	0xbf476dd5	-0.77901965
61	0x3f10a9e3	0.56509227
62	0x3f424f90	0.7590265
63	0x3f325d11	0.6967326
64	0xbf62a7f6	-0.8853754
65	0x3f737c25	0.95111305
66	0x3f41caba	0.7569996
67	0x3f55b8bb	0.83485
68	0xbf8479f1	-1.0349714
69	0xbf8023e0	-1.0010948
70	0x3f4ba88f	0.79554075
71	0x3f819e73	1.012648
72	0x3f58ed72	0.8473731
73	0x3f293470	0.6609564
74	0xbf61b1d0	-0.88161945
75	0x3f491368	0.78545237
76	0xbf6aa0e5	-0.91651756
77	0x3f523229	0.8210779
78	0xbf4cf113	-0.8005535
79	0x3f4b485a	0.79407275
80	0xbf5223f6	-0.8208612
81	0x3ef6d917	0.482125
82	0x3ee7ab84	0.45248044
83	0xbf7c6a35	-0.9859956
84	0xbec658d3	-0.38739643
85	0xbeda03f8	-0.42581153
86	0xbe9988de	-0.29987234
87	0xbf58b1b8	-0.8464618
88	0xbcd29094	-0.025703706
89	0x3ef672da	0.481345
90	0xbe79b8ae	-0.24386856
91	0x3ec27e10	0.37986803
92	0x3f4eaa4d	0.8072861
93	0xbf48973c	-0.78355765
94	0x3ea3792a	0.31928378
95	0xbf505fe2	-0.81396306
96	0xbeb0aea7	-0.3450825
97	0x3f44a49b	0.7681367
98	0x3ef14a77	0.47127125
99	0xbef09573	-0.4698902
100	0xbee29eee	-0.4426188
101	0xbe8d8d4a	-0.27646858
102	0xbf318321	-0.6934071
103	0xbf9a525e	-1.2056386
104	0x3f8aca59	1.0843002
105	0x3f158238	0.58401823
106	0xbee22387	-0.4416773
107	0x3f625302	0.8840791
108	0x3ee7398e	0.45161098
109	0xbf4bdbc4	-0.7963221
110	0x3f536d50	0.8258867
111	0xbf12cbc0	-0.5734215
112	0x3ee81edb	0.4533604
113	0xbf2089f3	-0.62710494
114	0xbe7dec3d	-0.24797149
115	0x3ecca00e	0.39965862
116	0xbea91968	-0.33027196
117	0xbef77445	-0.48330894
118	0xbdb76e9e	-0.089566454
119	0x3e689e6d	0.22716685
120	0x3e61ed8e	0.22063276
121	0xbdd4324c	-0.10361156
122	0xbed97078	-0.4246862
123	0x3ef00abc	0.4688319
124	0xbe400fbf	-0.18756007
125	0x3e067464	0.13130337
126	0x3dba0969	0.09083826
127	0x3e3e7783	0.18600278
128	0x3f6ed446	0.93292654
129	0xbf753211	-0.9577952
130	0xbf8f8fc0	-1.1215744
131	0x3f2297f1	0.63513094
132	0xbf018328	-0.50590754
133	0x3f275a30	0.6537199
134	0xbf3e2eb8	-0.7429004
135	0xbef5d1df	-0.4801168
136	0x3f32228f	0.6958398
137	0xbfaa83e8	-1.3321505
138	0x3f36f224	0.7146323
139	0x3ef08f06	0.46984118
140	0x3e8494fd	0.2589492
141	0xbf2acc6a	-0.6671816
142	0x3f7dcf00	0.9914398
143	0xbe819cf7	-0.25315067
144	0xbf12050b	-0.57038945
145	0x3ee43817	0.44574043
146	0x3f30414d	0.6884964
147	0xbef169b3	-0.47150955
148	0xbdc04740	-0.0938859
149	0xbfaea249	-1.3643275
150	0x3ebba7ec	0.36651552
151	0x3f91d55d	1.1393238
152	0xbef93a24	-0.4867717
153	0x3f5ac896	0.8546232
154	0xbf8a82b2	-1.0821135
155	0x3c603ce4	0.013686392
156	0xbf861eea	-1.0478184
157	0x3f8fab73	1.1224197
158	0xbf127088	-0.5720296
159	0x3f5c50b1	0.86060625
160	0xbf0d4851	-0.5518847
161	0x3f47cd7f	0.7804794
162	0x3f3e5c1e	0.7435931
163	0xbf344858	-0.7042289
164	0xbf2962d5	-0.6616643
165	0xbeb3e008	-0.3513186
166	0xbf23fce6	-0.6405777
167	0xbf5337da	-0.825071
168	0x3f192cae	0.598338
169	0x3f1cfe8b	0.613259
170	0xbf31844b	-0.6934249
171	0x3f12cb2b	0.5734126
172	0x3ecb1aa7	0.39668772
173	0xbf06083c	-0.52356315
174	0x3edaa638	0.4270494
175	0xbf03b69f	-0.5145053
176	0x3f68ee1c	0.90988326
177	0xbf50ded7	-0.81590027
178	0xbf8f6b1f	-1.1204566
179	0x3f45c200	0.77249146
180	0x3f0ad468	0.54230356
181	0x3f9a7de2	1.2069666
182	0x3df6f992	0.120593205
183	0xbe2d6abc	-0.16935247
184	0xbdbc3373	-0.09189501
185	0xbf8284e7	-1.0196809
186	0x3f94d014	1.1626
187	0xbf50db90	-0.81585026
188	0xbed3ebc2	-0.41390806
189	0x3e6f12e7	0.23347054
190	0x3e017080	0.12640572
191	0x3e818021	0.25293067
192	0xbccb4e70	-0.024817675
193	0x3de75904	0.11296275
194	0x3e3087be	0.17239282
195	0x3b54fc00	0.0032498837
196	0xbe0a583a	-0.13510218
197	0xbe45e318	-0.1932491
198	0xbe41db2a	-0.1893126
199	0x3e4e1f36	0.20129094
200	0xbe5ef332	-0.21772459
201	0xbdca9838	-0.09892315
202	0x3e063124	0.13104683
203	0x3e0bfeac	0.13671368
204	0xbe5feefe	-0.21868512
205	0x3d4b0510	0.049565375
206	0x3cf79820	0.030223906
207	0x3e6af522	0.22945073
208	0x3d0e7734	0.03478165
209	0xbedf14e6	-0.43570632
210	0xbd924614	-0.071422726
211	0x3e2d202a	0.16906801
212	0x3f005e01	0.5014344
213	0x3ecc84aa	0.39944965
214	0x3f01b255	0.5066274
215	0xbe85de80	-0.26146317
216	0xbeb793e8	-0.3585503
217	0xbe3e73ed	-0.1859891
218	0x3ea6cc7b	0.3257788
219	0xbf3ad77a	-0.7298504
220	0xbe99792c	-0.2997526
221	0x3e137b1b	0.1440243
222	0xbee69a32	-0.45039517
223	0x3eda9ecf	0.42699286
224	0xbf07b47b	-0.53009766
225	0xbdd6432b	-0.1046203
226	0x3ef2b2ba	0.47401983
227	0xbf37778f	-0.71666807
228	0x3f0faca3	0.561228
229	0xbed596e0	-0.4171667
230	0x3e7da7cf	0.24771045
231	0x3f3199a2	0.6937505
232	0xbf822382	-1.0167086
233	0x3e7a6e24	0.24456078
234	0xbf1fa9fa	-0.6236874
235	0xbf057021	-0.5212422
236	0xbee63216	-0.44960088
237	0x3f01aa25	0.50650245
238	0x3ecd1549	0.40055302
239	0x3ef03970	0.4691882
240	0xbea342b9	-0.31886843
241	0x3fd8068b	1.6876997
242	0x3f13c449	0.5772138
243	0xbeb93a51	-0.36177304
244	0x3ee37f17	0.444329
245	0xbfc1962f	-1.5123957
246	0x3e943cf3	0.2895275
247	0x3fbccfa0	1.4750862
248	0xbf015c6d	-0.50531656
249	0x3eec8847	0.4619772
250	0xbfac8497	-1.3477963
251	0xbed5d9b0	-0.41767645
252	0xbfc36a8a	-1.5266888
253	0x3fa5f70c	1.2966018
254	0xbea7ef55	-0.32799783
255	0x3fc8e2ea	1.5694249

transformer_encoder.layers.0.linear_net.0.bias f4 [32]
0	0x3e72f8d2	0.2372773
1	0x3fcfff0a	1.6249707
2	0x3f187aa4	0.59562135
3	0xbf4f556d	-0.80989724
4	0xbf380dd4	-0.718961
5	0xbf2b414d	-0.66896516
6	0xbdf7cf81	-0.12100125
7	0xbdda2fcc	-0.10653648
8	0x3f312e14	0.69210935
9	0xbf963b60	-1.173687
10	0xbf3393e0	-0.70147514
11	0x3f6838df	0.9071178
12	0xbe361cb2	-0.17784384
13	0x3f4e7fee	0.80663955
14	0xbee6bede	-0.45067495
15	0xbfbcac6c	-1.4740119
16	0x3fbce036	1.4755924
17	0x3fb3002f	1.3984431
18	0xbf2dec3c	-0.6793859
19	0xbf4063fa	-0.7515255
20	0xbf3d2533	-0.73884887
21	0x3f7e092e	0.9923276
22	0x3fd87cfe	1.6913145
23	0xbf43430d	-0.76274186
24	0xbf2b0c37	-0.66815513
25	0xbebc5b60	-0.36788464
26	0x3f16ce0b	0.58908147
27	0xbfa9c38d	-1.3262802
28	0x3f1a25c9	0.60213906
29	0x3f9b1bb8	1.2117834
30	0xbd6999f7	-0.057031598
31	0x3e441882	0.19149974

transformer_encoder.layers.0.linear_net.3.weight f4 [16, 32]
0	0xbf3af74b	-0.7303359
1	0xbf64c9b5	-0.8937028
2	0x3ebb2043	0.3654805
3	0xbeb03da5	-0.3442203
4	0xbf11a3da	-0.5689064
5	0xbf12ee55	-0.57394916
6	0xbf05634a	-0.5210463
7	0x3ebb72b1	0.3661094
8	0x3ea9a981	0.33137134
9	0xbeeeb5dd	-0.46623126
10	0xbf151228	-0.5823083
11	0xbed5b229	-0.41737488
12	0x3da2d01e	0.079498515
13	0xbf400df8	-0.75021315
14	0x3ef75bfe	0.48312372
15	0xbec3b8a7	-0.38226816
16	0xbf575ae0	-0.8412304
17	0xbf67e1e0	-0.9057903
18	0xbf0c0383	-0.5469286
19	0xbf374bb9	-0.7159992
20	0xbf3410cf	-0.7033815
21	0xbf42f68a	-0.7615744
22	0xbf55a046	-0.8344768
23	0xbf471ba3	-0.77776545
24	0x3f28dc2a	0.65960944
25	0x3e4d1323	0.20026831
26	0x3e577c60	0.21043539
27	0xbf210117	-0.6289229
28	0x3f8a363a	1.0797799
29	0xbf1dbab9	-0.6161304
30	0xbf0a03fa	-0.5391232
31	0xbf177586	-0.591637
32	0x3f3d4896	0.7393888
33	0x3f23eeca	0.6403624
34	0xbecfe803	-0.40606698
35	0x3edcd4ee	0.43131202
36	0x3f68db8d	0.9096001
37	0x3ee819fc	0.45332325
38	0x3f320d24	0.695513
39	0xbdff3caa	-0.124627426
40	0xbd8aedf1	-0.06783665
41	0x3f15d59d	0.58529073
42	0x3f0b51b5	0.5442155
43	0x3efa81e3	0.4892722
44	0x3d375380	0.044757366
45	0x3f0108da	0.5040413
46	0xbedbda22	-0.4293986
47	0x3ec71a09	0.3888705
48	0x3f53380d	0.825074
49	0x3f6c7991	0.92372996
50	0x3ef4e87e	0.47833627
51	0x3f1fed78	0.62471724
52	0x3f876245	1.0576864
53	0x3f5362aa	0.82572424
54	0x3f5a024e	0.85159767
55	0x3f46de0a	0.77682555
56	0xbf0f8e1c	-0.56076217
57	0xbe864166	-0.2622177
58	0xbb440853	-0.0029912188
59	0x3e9112b5	0.28334585
60	0xbf935a6e	-1.1511972
61	0x3f1bf219	0.60916287
62	0x3edfc498	0.43704677
63	0x3eadaeaa	0.3392232
64	0x3f023726	0.508654
65	0x3f27da11	0.6556712
66	0xbe85faf7	-0.26168033
67	0x3f1c60ec	0.6108539
68	0x3f1ca657	0.61191314
69	0x3f0002f3	0.500045
70	0x3f3a191f	0.7269458
71	0xbea1e1de	-0.31617635
72	0xbea6515a	-0.3248394
73	0x3ed59dd9	0.4172199
74	0x3f38a1d0	0.72121906
75	0x3ede5f6e	0.43432182
76	0x3c423780	0.011854053
77	0x3f1085a0	0.56453896
78	0xbf03f837	-0.5155062
79	0x3ed6f13f	0.4198093
80	0x3f0b23f7	0.54351753
81	0x3f1fc7dc	0.62414336
82	0x3eb3a859	0.35089377
83	0x3f034471	0.5127631
84	0x3f6c8e3b	0.92404526
85	0x3f2e09a0	0.67983437
86	0x3f1eaa32	0.6197845
87	0x3f720f15	0.94554263
88	0xbf3d52a1	-0.73954207
89	0xbe8ee88e	-0.279118
90	0xbcf01ebb	-0.029311528
91	0x3ef936ec	0.48674715
92	0xbf6d9174	-0.9280007
93	0x3eefc28f	0.46828124
94	0x3f32552b	0.69661206
95	0x3eabe9b2	0.33576733
96	0xbf2e9b70	-0.6820593
97	0xbf3a69f9	-0.7281795
98	0x3e67efb0	0.22650027
99	0xbeeeec40	-0.4666462
100	0xbf3d2d4e	-0.73897254
101	0xbf16da49	-0.58926827
102	0xbefa6d99	-0.4891174
103	0x3e2ec958	0.17068994
104	0x3e9dba80	0.3080635
105	0xbf2b8f0a	-0.67015135
106	0xbf16ad9f	-0.58858675
107	0xbf2d8d04	-0.677933
108	0x3e2ec699	0.17067946
109	0xbf494e48	-0.7863507
110	0x3e84bf64	0.2592727
111	0xbedfb29d	-0.4369096
112	0xbf2490cd	-0.6428345
113	0xbf12680c	-0.5719001
114	0xbeece3a5	-0.4626743
115	0xbf426ccc	-0.7594726
116	0xbf7fb4e5	-0.998854
117	0xbf19eb23	-0.60124415
118	0xbf65246d	-0.89508706
119	0xbf3ab449	-0.72931343
120	0x3f100a76	0.5626596
121	0x3e55f03f	0.20892428
122	0x3dab36aa	0.08360036
123	0xbefea7c2	-0.49737364
124	0x3f6c0dbd	0.9220846
125	0xbee6ebdf	-0.4510183
126	0xbf217712	-0.6307231
127	0xbf0908af	-0.53528875
128	0x3f55a1c5	0.83449966
129	0x3f2ed025	0.68286353
130	0x3f2e7800	0.68151855
131	0xbf433c12	-0.76263535
132	0xbf3ad197	-0.7297606
133	0x3f2d40a6	0.6767677
134	0x3f24dc9a	0.6439911
135	0x3e8cc0c1	0.2749081
136	0x3e964141	0.2934666
137	0xbe8295c0	-0.25504875
138	0x3ede6e4d	0.43443528
139	0x3ebf045b	0.3730801
140	0x3d8d7ca0	0.06908536
141	0x3ec99c59	0.39377096
142	0x3f076c7e	0.5289992
143	0xbf25e5a4	-0.6480353
144	0x3eeedd4c	0.4665321
145	0x3ebc6422	0.36795145
146	0xbf0f9ee4	-0.5610182
147	0x3ee2ee73	0.44322547
148	0xbf46ef97	-0.77709335
149	0x3ea2e9f4	0.31819117
150	0x3eed3d11	0.46335652
151	0xbf4bfecd	-0.7968567
152	0xbee34106	-0.44385546
153	0x3e7e608f	0.24841522
154	0x3ea16341	0.31521037
155	0xbf443a65	-0.76651603
156	0x3f8d8ea7	1.1059159
157	0x3e6ed17d	0.23322101
158	0x3f266323	0.6499502
159	0x3f8d6bf2	1.1048567
160	0xbe12e490	-0.14345002
161	0xbd22ea24	-0.039774075
162	0x3eea3444	0.45743
163	0xbee10078	-0.4394567
164	0xbf21438f	-0.6299371
165	0xbeca681d	-0.39532557
166	0xbeefb830	-0.4682021
167	0x3edca8c0	0.43097496
168	0x3f0220ca	0.5083128
169	0xbf193bfd	-0.5985716
170	0xbeeb19b1	-0.45918038
171	0x3cc7d5bd	0.02439391
172	0x3c4154e0	0.011800021
173	0xbe73dce8	-0.23814738
174	0x3f0928bd	0.53577787
175	0xbf17a2f1	-0.59233004
176	0xbed5b71b	-0.4174126
177	0xbe8283b7	-0.25491115
178	0xbef527cf	-0.47881934
179	0xbf39e561	-0.7261563
180	0xbf515724	-0.8177359
181	0xbede4236	-0.4340989
182	0xbdbf98a8	-0.09355289
183	0xbf88bc2c	-1.0682425
184	0x3ee18023	0.44043073
185	0x3eb47554	0.35245764
186	0x3d0e5789	0.03475145
187	0xbf18bbc2	-0.59661496
188	0x3f917468	1.1363649
189	0xbe036c54	-0.12834293
190	0xbf1876a2	-0.5955602
191	0x3eeeb8ac	0.46625268
192	0x3f030fbd	0.5119589
193	0x3f3d9d96	0.7406858
194	0x3ee36a15	0.44416872
195	0xbf078b69	-0.529471
196	0xbf608562	-0.87703526
197	0x3edfbb8c	0.43697774
198	0x3f024e7d	0.50901014
199	0x3ebd0f6f	0.36925837
200	0x3ef66955	0.48127237
201	0xbec1cbd5	-0.37850824
202	0x3f2bcf10	0.6711283
203	0x3f1bb24d	0.6081894
204	0xbbf48720	-0.007462397
205	0x3ee8d8c6	0.45477885
206	0x3f00e751	0.5035296
207	0xbf1c2d96	-0.6100706
208	0x3eb5d7d3	0.35516223
209	0x3eaa7bb1	0.33297494
210	0xbf25e39d	-0.64800435
211	0x3eddbb8c	0.4330715
212	0xbf38563d	-0.7200659
213	0x3ec9335d	0.39297
214	0x3f088994	0.5333493
215	0xbf73bc9c	-0.9520967
216	0xbf0e2a9a	-0.55533755
217	0x3e47d42d	0.19514532
218	0x3dbb4d42	0.09145595
219	0xbf24052a	-0.6407038
220	0x3faec857	1.3654889
221	0x3e9d0361	0.3066664
222	0x3f2aade6	0.666716
223	0x3f83351e	1.0250585
224	0xbef27232	-0.4735275
225	0xbf81cc70	-1.0140514
226	0x3da2121b	0.079136096
227	0xbee59f83	-0.4484826
228	0xbf11133f	-0.5666999
229	0xbee39f20	-0.4445734
230	0xbf387aec	-0.72062564
231	0x3e1d70ed	0.15375109
232	0x3e945c3a	0.28976613
233	0xbf02c755	-0.51085407
234	0xbf34173b	-0.70347947
235	0xbfa669fd	-1.3001095
236	0x3dd27e82	0.10278036
237	0xbf6fa45f	-0.93610185
238	0xbdb453b4	-0.088050276
239	0xbf1887db	-0.595823
240	0xbf6e20c9	-0.93018776
241	0xbf6f142a	-0.9339014
242	0xbeb264e0	-0.34842587
243	0xbf41fe12	-0.75778306
244	0xbf4ae739	-0.7925907
245	0xbfb3bac1	-1.4041368
246	0xbf924c9c	-1.1429629
247	0xbf3e5c5d	-0.74359685
248	0x3f08564a	0.53256667
249	0x3d8939b2	0.06700458
250	0xbc61866b	-0.013764958
251	0xbebe44bf	-0.37161824
252	0x3f44f74c	0.76939845
253	0xbfa42181	-1.2822725
254	0xbeec741a	-0.46182328
255	0xbf2cc8f0	-0.67494106

transformer_encoder.layers.0.linear_net.3.bias f4 [16]
0	0xbf4af0c1	-0.7927361
1	0x3efa8dff	0.4893646
2	0x3f08ec73	0.5348579
3	0xbf22ea6f	-0.6363897
4	0x3f5caa7b	0.8619763
5	0x3dcd3a94	0.100209385
6	0x3f26ce3a	0.65158427
7	0xbf14eb6a	-0.58171713
8	0xbf3f8e31	-0.7482634
9	0x3f28303f	0.6569862
10	0x3f826132	1.0185912
11	0xbf635d31	-0.88814074
12	0x3ef5004f	0.47851798
13	0xbf316b79	-0.69304615
14	0xbf802389	-1.0010844
15	0xbf2a0b95	-0.6642392

transformer_encoder.layers.0.norm1.weight f4 [16]
0	0x3f909c83	1.1297764
1	0x3fa91dc7	1.3212212
2	0x3fabc28a	1.3418744
3	0x3fb31859	1.3991805
4	0x3f7edc44	0.9955485
5	0x3fe7c8f4	1.8108201
6	0x3f15d382	0.5852586
7	0xbece4b0b	-0.40291628
8	0x3e2a4c9d	0.16630788
9	0x3fb82dbc	1.4388957
10	0x4015ff86	2.343721
11	0x3f919e7f	1.1376494
12	0x3f9ac088	1.2090006
13	0x3e637f6d	0.22216578
14	0x3f60f9a0	0.878809
15	0x3f9003b9	1.1251136

transformer_encoder.layers.0.norm1.bias f4 [16]
0	0x3f44372d	0.7664669
1	0xbee25550	-0.44205713
2	0xbf309c81	-0.68988806
3	0x3e976404	0.29568493
4	0x3fb4812a	1.4101918
5	0x3f7021f1	0.9380179
6	0x3fb9cc3d	1.4515454
7	0xbf81b2ff	-1.013275
8	0xbfb04ac8	-1.3772821
9	0xbefcfc14	-0.4941107
10	0x3fbb2d14	1.4623132
11	0xbfbcbbaf	-1.4744776
12	0xbe87cf80	-0.26525497
13	0x3dfde25f	0.123966925
14	0xbfabf7d4	-1.3435006
15	0x3ebd3d35	0.3696076

transformer_encoder.layers.0.norm2.weight f4 [16]
0	0x3dfd0c61	0.12355877
1	0x3e370ecc	0.17876738
2	0x3ede8ff9	0.43469217
3	0x3cb16ed6	0.021659296
4	0x3f80d7ee	1.0065897
5	0x3e779090	0.2417624
6	0x3f282f7e	0.6569747
7	0xbe92201d	-0.28540125
8	0xbe8fd37a	-0.2809103
9	0x3e364f9c	0.17803806
10	0x3f73d0fe	0.9524077
11	0x3f699eba	0.9125782
12	0xbda889b8	-0.08229393
13	0xbcabdb52	-0.020978604
14	0x3f41a463	0.7564146
15	0x3e46dde4	0.19420582

transformer_encoder.layers.0.norm2.bias f4 [16]
0	0x3d65d727	0.05611339
1	0x3daf909c	0.08572504
2	0xbe90c174	-0.28272593
3	0xbc0ec460	-0.008713812
4	0x3e94b741	0.29046062
5	0xbc8633f6	-0.016382199
6	0x3d6eaf46	0.058272623
7	0xbed41f01	-0.41429904
8	0xbebbc405	-0.3667299
9	0xbc92d85b	-0.017925432
10	0x3e5f91e4	0.21832997
11	0xbe946b6e	-0.28988212
12	0x3e0f66ae	0.14004013
13	0xbe28209c	-0.1641869
14	0xbea0884d	-0.3135399
15	0xbd9f824e	-0.077885255

final_linear.weight f4 [1, 16]
0	0x39d93f62	0.0004143669
1	0x3e09e041	0.13464452
2	0xbc62c14d	-0.013840032
3	0x3c5647a2	0.013078602
4	0xbec06482	-0.3757668
5	0xbe2101a0	-0.15723276
6	0xbdc8ed63	-0.09810903
7	0x3a14f112	0.0005681674
8	0xbaca1f69	-0.0015420738
9	0x3d392bb7	0.045207705
10	0xbe9e6867	-0.30939028
11	0x3e9eaedb	0.3099278
12	0xbbbb9c2b	-0.005725404
13	0xbaf5b501	-0.001874596
14	0x3e6db4d1	0.23213507
15	0xbdf2f56d	-0.118632175

exp_avg f4 [16, 2]
0	0xb54055b2	-7.1650277e-07
1	0xb5fc986a	-1.8819821e-06
2	0x36034194	1.9558693e-06
3	0x368a0f0b	4.1144717e-06
4	0x36307f02	2.6299972e-06
5	0x362da7a2	2.5876584e-06
6	0x3466fff7	2.1513539e-07
7	0x359b70ac	1.1581192e-06
8	0xb5d3e4de	-1.5787334e-06
9	0xb68ecd51	-4.2558318e-06
10	0x3687e5d5	4.0500695e-06
11	0x36bc591d	5.6132108e-06
12	0xb55f4a10	-8.318175e-07
13	0xb63adc0b	-2.7844242e-06
14	0x35326323	6.645443e-07
15	0x3609581e	2.0465882e-06
16	0xb5f2ccf2	-1.8090052e-06
17	0xb5bf7bca	-1.4266636e-06
18	0x36a18f64	4.8148668e-06
19	0x36e82886	6.9188563e-06
20	0xb5c47b46	-1.4639015e-06
21	0xb64dd800	-3.067311e-06
22	0x34915709	2.707168e-07
23	0x35b20663	1.3263892e-06
24	0x3646c092	2.961639e-06
25	0x367256b8	3.6111287e-06
26	0xb622538d	-2.4188514e-06
27	0xb62c21e9	-2.5649736e-06
28	0x35bb8526	1.3971337e-06
29	0x368033b4	3.8207163e-06
30	0xb61ece4f	-2.3663922e-06
31	0xb62398a8	-2.437775e-06

exp_avg_sq f4 [16, 2]
0	0x34079c9a	1.2629826e-07
1	0x354c15e2	7.6027766e-07
2	0x35ba058d	1.3859695e-06
3	0x36c3a9db	5.8312266e-06
4	0x362e1f4f	2.5946244e-06
5	0x37247f8c	9.804859e-06
6	0x35441445	7.3045186e-07
7	0x362b0706	2.5485074e-06
8	0x35bfe1e2	1.429635e-06
9	0x36c50040	5.8710866e-06
10	0x36f6cd38	7.355262e-06
11	0x37d61e3a	2.5524863e-05
12	0x34ad8d7c	3.2326705e-07
13	0x35f9f84c	1.862421e-06
14	0x355b5579	8.1708237e-07
15	0x363ee9d9	2.8448324e-06
16	0x3641aeb5	2.8860934e-06
17	0x3724b671	9.81764e-06
18	0x3725ca46	9.881862e-06
19	0x3807f722	3.241667e-05
20	0x362a3643	2.5363559e-06
21	0x370bc8d1	8.331802e-06
22	0x35b206bb	1.3263992e-06
23	0x368dac16	4.222161e-06
24	0x36b8934e	5.500776e-06
25	0x37a503f4	1.9671374e-05
26	0x364b01a9	3.0250324e-06
27	0x373d6bbb	1.1290361e-05
28	0x36225f51	2.4195363e-06
29	0x37149b0c	8.857587e-06
30	0x363c5f1d	2.8069546e-06
31	0x373525f2	1.07972755e-05

exp_avg f4 [16]
0	0xb60b30e8	-2.0741081e-06
1	0x36e33cfa	6.772226e-06
2	0x3789dc2e	1.6434202e-05
3	0x35df7cc4	1.6651106e-06
4	0xb6a6dbeb	-4.9727873e-06
5	0x37ba2fe1	2.2195223e-05
6	0xb64d0001	-3.0547383e-06
7	0x360a288d	2.0587206e-06
8	0xb754baeb	-1.2679705e-05
9	0x37b9fa35	2.217023e-05
10	0xb687afb2	-4.043767e-06
11	0x35d6dd2b	1.6008611e-06
12	0x37a064e8	1.9120474e-05
13	0xb78b3890	-1.659643e-05
14	0x36bb1c2c	5.576314e-06
15	0xb791cc9a	-1.7380622e-05

exp_avg_sq f4 [16]
0	0x368e6d5b	4.2446604e-06
1	0x37f396f4	2.903815e-05
2	0x3840c73e	4.5961926e-05
3	0x37530262	1.2577135e-05
4	0x37f36265	2.9013676e-05
5	0x38f13153	0.00011500963
6	0x372ab71f	1.0175426e-05
7	0x37666f7c	1.3735025e-05
8	0x383f46c8	4.560387e-05
9	0x39167677	0.00014349246
10	0x3824c1e3	3.9281218e-05
11	0x37a9c482	2.0237876e-05
12	0x38c0de71	9.1967064e-05
13	0x385fa8a9	5.332442e-05
14	0x383213a1	4.2456788e-05
15	0x3856149b	5.1040766e-05

exp_avg f4 [48, 16]
0	0xb1e0bb6c	-6.5405654e-09
1	0x31ed1b80	6.900734e-09
2	0x3101d577	1.8893311e-09
3	0x3199d662	4.4772586e-09
4	0xb1eff4ac	-6.9836315e-09
5	0xaf4b02bb	-1.8463713e-10
6	0xb1d94679	-6.323543e-09
7	0x31bc289c	5.476137e-09
8	0xb0b7f91d	-1.3385805e-09
9	0x2f8e4f45	2.5885974e-10
10	0xb1af767f	-5.1066418e-09
11	0x3192d7ef	4.273708e-09
12	0x30873d89	9.840032e-10
13	0xb0ef7d14	-1.7425088e-09
14	0x31c04da7	5.5967635e-09
15	0xb0dd6197	-1.6107603e-09
16	0xb1bfe6cb	-5.5850697e-09
17	0x31ca4389	5.8866516e-09
18	0x30e43a36	1.6605728e-09
19	0x3182bd71	3.805035e-09
20	0xb1cc890c	-5.952762e-09
21	0xaebe3283	-8.6491724e-11
22	0xb1b9a2e4	-5.402727e-09
23	0x31a027cf	4.6611386e-09
24	0xb0a20b58	-1.1790275e-09
25	0x2f9ca078	2.8490255e-10
26	0xb1955be4	-4.3469175e-09
27	0x3179693e	3.6294092e-09
28	0x30749d4d	8.899022e-10
29	0xb0d2de0b	-1.5342619e-09
30	0x31a3dcf3	4.7690434e-09
31	0xb0c42e9f	-1.4274127e-09
32	0xb11c01ab	-2.2701936e-09
33	0x31206740	2.3341755e-09
34	0x3098a37a	1.1105918e-09
35	0x30bce099	1.3742635e-09
36	0xb11f4802	-2.3178477e-09
37	0x302d410c	6.302947e-10
38	0xb11894cd	-2.2203495e-09
39	0x30f0f490	1.7531807e-09
40	0xb05fac7e	-8.1372054e-10
41	0x3043d2ea	7.1240314e-10
42	0xb0e0fabb	-1.6369407e-09
43	0x30b10fa5	1.2882891e-09
44	0x3062616a	8.2356755e-10
45	0xb090f6b4	-1.0547496e-09
46	0x30fcf0a4	1.8403807e-09
47	0xb0923ece	-1.0640748e-09
48	0x2f889c85	2.484947e-10
49	0xaf992738	-2.7858404e-10
50	0x2d8d9b1f	1.6098732e-11
51	0xaf6b4da3	-2.1400708e-10
52	0x2f9f6902	2.8996544e-10
53	0x2f3db220	1.7252733e-10
54	0x2f853db6	2.4236407e-10
55	0xaf83f530	-2.4002977e-10
56	0xadc9094e	-2.2855186e-11
57	0x2f0f0268	1.3006629e-10
58	0x2f759a19	2.2337367e-10
59	0xaf601a2b	-2.0381978e-10
60	0x2e8988ee	6.254362e-11
61	0xadfcab4a	-2.872515e-11
62	0xaf86d03c	-2.4522417e-10
63	0xae64cce0	-5.2023164e-11
64	0x3107fb47	1.978792e-09
65	0xb11552f0	-2.1729498e-09
66	0x2e608a08	5.10543e-11
67	0xb0db9cbd	-1.5978895e-09
68	0x311b4565	2.2594915e-09
69	0x3087875d	9.861015e-10
70	0x3100c4a6	1.8738233e-09
71	0xb0ff7592	-1.8587107e-09
72	0xae9525f3	-6.782477e-11
73	0x30512faa	7.610149e-10
74	0x30ee6390	1.7345076e-09
75	0xb0d6003c	-1.5570616e-09
76	0x2fc5ed33	3.6002631e-10
77	0xaec0397c	-8.7413604e-11
78	0xb0fb0f4e	-1.8267003e-09
79	0xaf5a5404	-1.9856833e-10
80	0x31ce32da	6.0011702e-09
81	0xb1dde8d7	-6.4584174e-09
82	0xb062c83e	-8.250288e-10
83	0xb1999221	-4.469499e-09
84	0x31e39207	6.623171e-09
85	0x30d4a7bf	1.5472706e-09
86	0x31c57d5e	5.747707e-09
87	0xb1b6c9e0	-5.3198477e-09
88	0x30126191	5.325314e-10
89	0x3089db2c	1.0030354e-09
90	0x31aa97df	4.964917e-09
91	0xb193f9df	-4.30667e-09
92	0x2e8e0be2	6.459523e-11
93	0x303e4363	6.921736e-10
94	0xb1b769ee	-5.338044e-09
95	0x2ffe2cc2	4.6234133e-10
96	0xb1e7dc63	-6.74804e-09
97	0x31f93dd5	7.2538833e-09
98	0x3082f58e	9.528536e-10
99	0x31ac3e83	5.0129656e-09
100	0xb1ff88bd	-7.437022e-09
101	0xb0ea89ff	-1.7064962e-09
102	0xb1de1e0f	-6.4644676e-09
103	0x31cd2a28	5.971078e-09
104	0xb029761a	-6.1649674e-10
105	0xb096a384	-1.096041e-09
106	0xb1bf54c3	-5.568468e-09
107	0x31a6081d	4.8321582e-09
108	0xae40b4b2	-4.3816235e-11
109	0xb05dba09	-8.0663703e-10
110	0x31ce0b19	5.9966507e-09
111	0xb0171e8b	-5.4976884e-10
112	0xb1e068d5	-6.531176e-09
113	0x31f1205f	7.0177033e-09
114	0x3080195f	9.320437e-10
115	0x31a68ae8	4.8470277e-09
116	0xb1f72f7e	-7.1940454e-09
117	0xb0e12d31	-1.6383749e-09
118	0xb1d6fee7	-6.2571988e-09
119	0x31c66cd1	5.7749294e-09
120	0xb025ea70	-6.0359806e-10
121	0xb0901248	-1.0482575e-09
122	0xb1b900e7	-5.384311e-09
123	0x31a08bf5	4.672524e-09
124	0xae0a140d	-3.1395376e-11
125	0xb05982f2	-7.9130225e-10
126	0x31c757ce	5.8016445e-09
127	0xb0155881	-5.4331656e-10
128	0xb23d0246	-1.1001765e-08
129	0x31e9ee5b	6.8082904e-09
130	0x30fee677	1.8546434e-09
131	0x3195e755	4.36277e-09
132	0xb1f6f373	-7.1872193e-09
133	0xb045678c	-7.181533e-10
134	0xb2190784	-8.907481e-09
135	0x31d04dcf	6.0624425e-09
136	0x2f5351b7	1.9219369e-10
137	0xb1150af5	-2.1688582e-09
138	0xb172413a	-3.5252712e-09
139	0x31cfa2fd	6.0430225e-09
140	0x30556a59	7.764008e-10
141	0xb140c085	-2.8049112e-09
142	0x31eace04	6.8337176e-09
143	0xb16c602f	-3.4397194e-09
144	0xb21edef8	-9.247508e-09
145	0x31c4ca01	5.727316e-09
146	0x30d8cab9	1.5773686e-09
147	0x317be01a	3.6652694e-09
148	0xb1cfa6f6	-6.043474e-09
149	0xb02029ba	-5.826696e-10
150	0xb200b0d7	-7.490789e-09
151	0x31af05e7	5.0938413e-09
152	0x2f1f19b9	1.4470104e-10
153	0xb0f6fab8	-1.7970114e-09
154	0xb14bd89a	-2.9663512e-09
155	0x31ae44bf	5.071882e-09
156	0x303864d5	6.70821e-10
157	0xb12307ad	-2.3723985e-09
158	0x31c55507	5.743121e-09
159	0xb147aa0d	-2.9054974e-09
160	0xb1695871	-3.3956236e-09
161	0x31017176	1.8836466e-09
162	0x2fb7986b	3.3395806e-10
163	0x30bb1cd1	1.3614231e-09
164	0xb109413f	-1.9973212e-09
165	0xb03f77f0	-6.9655837e-10
166	0xb130e774	-2.5742937e-09
167	0x30ee98e9	1.7360239e-09
168	0x2fd63645	3.8964934e-10
169	0xb0aaa120	-1.2414922e-09
170	0xb0817bdf	-9.421192e-10
171	0x30fb5fe3	1.8289906e-09
172	0xaf088b74	-1.2418672e-10
173	0xb004128f	-4.8047694e-10
174	0x3111500b	2.1145776e-09
175	0xb0268b6f	-6.0588595e-10
176	0xaf5edde4	-2.0269614e-10
177	0x2f03b26e	1.1977772e-10
178	0xad8e2701	-1.6160852e-11
179	0x2ed7d1ef	9.81436e-11
180	0xaf105ed7	-1.3130418e-10
181	0xaeb5754a	-8.251762e-11
182	0xaf2a5c04	-1.54941e-10
183	0x2f07187a	1.2286874e-10
184	0x2e8a85c9	6.2992785e-11
185	0xaf1a9364	-1.4058582e-10
186	0xae821d6a	-5.9169405e-11
187	0x2f19f57d	1.4002484e-10
188	0xae512336	-4.7552372e-11
189	0x2b5fc9dc	7.950565e-13
190	0x2f28141a	1.5286652e-10
191	0xac57f096	-3.068689e-12
192	0xb12a6d14	-2.480026e-09
193	0x30a9cad8	1.235402e-09
194	0x2f457d8f	1.7961653e-10
195	0x3086f944	9.820629e-10
196	0xb0b2d6b4	-1.3012227e-09
197	0xb048c46e	-7.303872e-10
198	0xb0f36a5f	-1.771081e-09
199	0x309d8f25	1.1463938e-09
200	0x2fe943df	4.2430678e-10
201	0xb09ff70d	-1.1638989e-09
202	0xb02315b0	-5.9329874e-10
203	0x30abfdbd	1.2514004e-09
204	0xaf882662	-2.4765529e-10
205	0xaf2b11ad	-1.5558639e-10
206	0x30d22a12	1.5291468e-09
207	0xaf562aa8	-1.9478341e-10
208	0xb26adc95	-1.3670747e-08
209	0x320561cd	7.763856e-09
210	0x30e1bd82	1.6424766e-09
211	0x31baa869	5.4324585e-09
212	0xb20d0403	-8.208192e-09
213	0xb11e5277	-2.3038902e-09
214	0xb234b154	-1.0517699e-08
215	0x31f292dd	7.0598234e-09
216	0x30a5b905	1.2057916e-09
217	0xb196850f	-4.3807016e-09
218	0xb1866637	-3.9115338e-09
219	0x31fb7a8b	7.318993e-09
220	0xaee5a440	-1.0442891e-10
221	0xb11f8b8d	-2.321687e-09
222	0x321198e2	8.474872e-09
223	0xb1462416	-2.8833305e-09
224	0x32612c3e	1.3106783e-08
225	0xb1feb39f	-7.4127935e-09
226	0xb0dc0ffe	-1.6011652e-09
227	0xb1b2d2a5	-5.2044293e-09
228	0x32067396	7.826108e-09
229	0x31196cbd	2.232624e-09
230	0x322ccbd2	1.0058061e-08
231	0xb1e71ab5	-6.726021e-09
232	0xb0a03cbb	-1.1658793e-09
233	0x3191722d	4.2330357e-09
234	0x31801693	3.7278567e-09
235	0xb1ef9804	-6.9730977e-09
236	0x2ef4bba6	1.11291684e-10
237	0x3116bd54	2.1935493e-09
238	0xb20bab8b	-8.129869e-09
239	0x313a2ddf	2.7092637e-09
240	0x32493ce2	1.1713583e-08
241	0xb1e18548	-6.563514e-09
242	0xb0bf15b1	-1.3903244e-09
243	0xb19fcc49	-4.6507336e-09
244	0x31ee035d	6.927094e-09
245	0x3110bde1	2.1062692e-09
246	0x32199667	8.93997e-09
247	0xb1cce16a	-5.962808e-09
248	0xb099548b	-1.1156244e-09
249	0x31868f88	3.916231e-09
250	0x31621898	3.2901308e-09
251	0xb1d52be8	-6.2041075e-09
252	0x2f473b4f	1.8120015e-10
253	0x31002946	1.8649913e-09
254	0xb1f99df4	-7.264811e-09
255	0x311e39b4	2.3024826e-09

exp_avg_sq f4 [48, 16]
0	0x2ab0145b	3.1278005e-13
1	0x2acf6167	3.6838173e-13
2	0x298c2700	6.2240144e-14
3	0x2a3bb80a	1.6672788e-13
4	0x2adecd44	3.9577553e-13
5	0x298696a4	5.9769274e-14
6	0x2a9ba673	2.7649028e-13
7	0x2a8a3a35	2.4554114e-13
8	0x29919cc8	6.466491e-14
9	0x2941a7ab	4.3000038e-14
10	0x2a6c106b	2.0966707e-13
11	0x2a2e2a27	1.5468929e-13
12	0x292e49d6	3.8699804e-14
13	0x2990b292	6.4258616e-14
14	0x2a8706fb	2.398566e-13
15	0x29872ee7	6.0033406e-14
16	0x2a833f9f	2.331442e-13
17	0x2a9f868f	2.8337443e-13
18	0x29c57bf0	8.770057e-14
19	0x29fc77bf	1.1211821e-13
20	0x2ab077f9	3.1347128e-13
21	0x28fadba7	2.7850835e-14
22	0x2a5b9368	1.9502249e-13
23	0x2a4a92fa	1.7992197e-13
24	0x29fbdea9	1.11852645e-13
25	0x28bfd626	2.1298132e-14
26	0x2a267cdb	1.478708e-13
27	0x29e59377	1.0195224e-13
28	0x294550eb	4.3812972e-14
29	0x29d6afd8	9.534013e-14
30	0x2a3fa97d	1.7023011e-13
31	0x29b98e6d	8.240357e-14
32	0x2ab471f8	3.2053505e-13
33	0x2af058aa	4.2694087e-13
34	0x2a430da1	1.7324208e-13
35	0x2a645c99	2.0282594e-13
36	0x2b0dde4d	5.0401767e-13
37	0x2a269b2a	1.4797595e-13
38	0x2a856718	2.3697082e-13
39	0x2aaabbc2	3.032835e-13
40	0x2a87182f	2.3997598e-13
41	0x29f4d1b9	1.0872158e-13
42	0x2a8a9a53	2.4620808e-13
43	0x2a5786ed	1.9142648e-13
44	0x29fcc36a	1.1224947e-13
45	0x2a5ab1c3	1.9423963e-13
46	0x2a9395e7	2.621646e-13
47	0x2a43e6e8	1.7399591e-13
48	0x2a17501a	1.3439285e-13
49	0x2a2f25e3	1.5556267e-13
50	0x2895409f	1.6570348e-14
51	0x29d04919	9.249736e-14
52	0x2a46f895	1.7672177e-13
53	0x29955bed	6.632876e-14
54	0x29dd6ac2	9.832891e-14
55	0x2a0c6ac0	1.2471534e-13
56	0x28a4d3f6	1.8299581e-14
57	0x2980c71c	5.718882e-14
58	0x29edcaef	1.05601176e-13
59	0x29d32ff0	9.378598e-14
60	0x28ecbd21	2.6283285e-14
61	0x28a44a75	1.8239948e-14
62	0x29f98fa0	1.1082736e-13
63	0x28bc3099	2.0893269e-14
64	0x2b198340	5.4538665e-13
65	0x2b4811a9	7.107878e-13
66	0x29407e99	4.274237e-14
67	0x2afc2f93	4.4797204e-13
68	0x2b60f4d1	7.992054e-13
69	0x2ae35469	4.0381872e-13
70	0x2b050b82	4.726706e-13
71	0x2b213895	5.7277214e-13
72	0x29006170	2.8506223e-14
73	0x2a9a2106	2.737881e-13
74	0x2b0dd667	5.0390806e-13
75	0x2af36a7b	4.3239357e-13
76	0x29f07084	1.06776594e-13
77	0x29570326	4.774232e-14
78	0x2b11fafd	5.1862665e-13
79	0x29add50c	7.719701e-14
80	0x2be5547d	1.6294879e-12
81	0x2c14a6ff	2.1124766e-12
82	0x2a145b29	1.3176668e-13
83	0x2bb873d1	1.3106132e-12
84	0x2c267f97	2.3660845e-12
85	0x2ba0e6c8	1.1432738e-12
86	0x2bc76cad	1.4169964e-12
87	0x2bed6c42	1.686991e-12
88	0x29beb0c5	8.4683596e-14
89	0x2b5a9c47	7.7666037e-13
90	0x2bd10cc8	1.4853891e-12
91	0x2bb207fe	1.2649879e-12
92	0x2aad6c02	3.080592e-13
93	0x2a2191ad	1.4350214e-13
94	0x2bd75d00	1.5302482e-12
95	0x2a7e8072	2.2604295e-13
96	0x2c11aa36	2.0700225e-12
97	0x2c3bb901	2.6676996e-12
98	0x2a43074f	1.7322015e-13
99	0x2be838b2	1.6500328e-12
100	0x2c5252b3	2.9888702e-12
101	0x2bca4f6b	1.4375006e-12
102	0x2bfc3c28	1.7922374e-12
103	0x2c158be1	2.1251822e-12
104	0x2a097e40	1.2211846e-13
105	0x2b89de46	9.796129e-13
106	0x2c03503a	1.8660754e-12
107	0x2bdfdcc1	1.5906375e-12
108	0x2adb46dd	3.8951386e-13
109	0x2a57413d	1.911847e-13
110	0x2c0826d2	1.9348312e-12
111	0x2aa4f76c	2.9303936e-13
112	0x2c0b25c8	1.977406e-12
113	0x2c348647	2.5654077e-12
114	0x2a96b228	2.6768973e-13
115	0x2bda2005	1.5498719e-12
116	0x2c4ba498	2.8939403e-12
117	0x2bbd14be	1.3435015e-12
118	0x2bed92b1	1.6880578e-12
119	0x2c0e415d	2.0215698e-12
120	0x2a9931b9	2.7212762e-13
121	0x2b812d03	9.178495e-13
122	0x2bf7f18d	1.7617449e-12
123	0x2bd1c67f	1.4905437e-12
124	0x2ae84986	4.1262496e-13
125	0x2aa876ca	2.9925221e-13
126	0x2c00cb76	1.8302838e-12
127	0x2ad26414	3.7372937e-13
128	0x2b5ad7d9	7.7748707e-13
129	0x2a9213f3	2.5948652e-13
130	0x2a3b9e4e	1.666386e-13
131	0x2a059778	1.1865324e-13
132	0x2a9ba655	2.7648947e-13
133	0x297c4c46	5.6021397e-14
134	0x2b030167	4.6542495e-13
135	0x2a5cdac8	1.961583e-13
136	0x28999641	1.7051575e-14
137	0x2af4de7d	4.349749e-13
138	0x2a8045e2	2.2785858e-13
139	0x2a8b6661	2.47624e-13
140	0x2935ae19	4.034108e-14
141	0x2aaa92e8	3.0300003e-13
142	0x2af6a205	4.3810802e-13
143	0x2a9806dc	2.7005384e-13
144	0x2b1b725c	5.522577e-13
145	0x2a4f6c7a	1.8422929e-13
146	0x2a149c2d	1.3199225e-13
147	0x29bc2710	8.3556534e-14
148	0x2a5c5ac7	1.957142e-13
149	0x293b46f6	4.158389e-14
150	0x2aba3ff4	3.3084614e-13
151	0x2a1bd080	1.3839103e-13
152	0x2847b30d	1.10855445e-14
153	0x2ac7c9fd	3.5489659e-13
154	0x2a4ff381	1.8469776e-13
155	0x2a4b4733	1.8054724e-13
156	0x290a868f	3.0758866e-14
157	0x2a8de91e	2.520839e-13
158	0x2ab8947c	3.2787998e-13
159	0x2a7a13e7	2.2211366e-13
160	0x2b3362c9	6.3730667e-13
161	0x2a018e9d	1.150698e-13
162	0x299d86bb	6.9955726e-14
163	0x29eb5074	1.0450053e-13
164	0x29f43ac3	1.084597e-13
165	0x29eaaf85	1.0422135e-13
166	0x2a9549f0	2.651902e-13
167	0x29b9986a	8.24209e-14
168	0x291b18af	3.4438323e-14
169	0x2a9e6a71	2.8140297e-13
170	0x2910f4b1	3.218666e-14
171	0x29fddec2	1.1274099e-13
172	0x28cc2419	2.2664205e-14
173	0x28ddf784	2.4643272e-14
174	0x2ab30206	3.1798191e-13
175	0x2902168d	2.888536e-14
176	0x29bb2dbd	8.3124026e-14
177	0x290a661b	3.0730718e-14
178	0x292dd61c	3.8599427e-14
179	0x28f91410	2.7653254e-14
180	0x294a0cf5	4.486425e-14
181	0x2981386b	5.738538e-14
182	0x295f7708	4.961919e-14
183	0x29629aeb	5.031645e-14
184	0x290eec96	3.173554e-14
185	0x2a318d38	1.5769753e-13
186	0x289e5e03	1.7582295e-14
187	0x29c01790	8.5306e-14
188	0x28f96cbb	2.7691708e-14
189	0x28cf6570	2.3025608e-14
190	0x29c47e5d	8.726069e-14
191	0x288fb177	1.5953152e-14
192	0x2b94308a	1.0529505e-12
193	0x2a5aeb20	1.9443865e-13
194	0x2a7156c6	2.1435205e-13
195	0x2a4edcaa	1.8373034e-13
196	0x2a5c3c4d	1.9560846e-13
197	0x2a7e919f	2.2610254e-13
198	0x2af60d6c	4.3707692e-13
199	0x2a3ca1c1	1.6753874e-13
200	0x29cd0420	9.1045444e-14
201	0x2b5196a1	7.4460755e-13
202	0x2a37ebbd	1.6335453e-13
203	0x2a9a28c4	2.7384182e-13
204	0x29b97565	8.236015e-14
205	0x2a6dfc7e	2.113743e-13
206	0x2b27a8bb	5.956448e-13
207	0x2a538b51	1.87889e-13
208	0x2ceb8f37	6.6950018e-12
209	0x2bb13f4f	1.2594178e-12
210	0x2b77dcc9	8.805843e-13
211	0x2b9a4322	1.0960991e-12
212	0x2baa76d4	1.2112208e-12
213	0x2b994349	1.0889979e-12
214	0x2c47b9fa	2.8382839e-12
215	0x2b83289a	9.319379e-13
216	0x2ad8c0e9	3.8503166e-13
217	0x2c5a1e54	3.0996499e-12
218	0x2b0ec177	5.071702e-13
219	0x2bb66735	1.2960523e-12
220	0x2aa3f101	2.9121847e-13
221	0x2b0d7ebb	5.0269137e-13
222	0x2c6a66aa	3.331039e-12
223	0x2b11608b	5.164833e-13
224	0x2ce551af	6.51764e-12
225	0x2bac2c52	1.2233636e-12
226	0x2b3c3d16	6.687579e-13
227	0x2b96bfea	1.0711408e-12
228	0x2ba5826e	1.1760157e-12
229	0x2b8fe564	1.022443e-12
230	0x2c41fd6f	2.7567634e-12
231	0x2b7d9370	9.0088267e-13
232	0x2ad1f6f9	3.729723e-13
233	0x2c2ee9b8	2.4856627e-12
234	0x2a8b6787	2.4763197e-13
235	0x2ba63060	1.1808436e-12
236	0x2a8b07a9	2.4696675e-13
237	0x29cb3c5b	9.025481e-14
238	0x2c562255	3.0430287e-12
239	0x2a498769	1.7899366e-13
240	0x2cd5ba17	6.0744842e-12
241	0x2b9ec434	1.1281033e-12
242	0x2b30ecf6	6.285661e-13
243	0x2b8d631f	1.0046164e-12
244	0x2b98a806	1.0846885e-12
245	0x2b8a1057	9.810025e-13
246	0x2c33b7bb	2.553942e-12
247	0x2b6be889	8.381148e-13
248	0x2aca579b	3.5943197e-13
249	0x2c27c925	2.3843785e-12
250	0x2a7a4962	2.222992e-13
251	0x2b9c74c6	1.1116878e-12
252	0x2a858893	2.3720313e-13
253	0x29a96dcf	7.5241564e-14
254	0x2c497935	2.8631101e-12
255	0x2a2fce5d	1.5614719e-13
