notebooks/lightning_logs/version_87/checkpoints/epoch=999-step=1000.ckpt (torch, 22555 bytes, 30 tensors)

front_linear.weight f4 [8, 2]
-0.07318822 -1.97138 -0.6334558 0.5822055 -1.2671674 -0.9262435 1.065777 0.65885854
0.61125773 2.6434245 0.24016444 1.7433348 0.6977273 -0.90943635 0.5431601 0.2765246
00000000: b5e3 95bd 2e56 fcbf 292a 22bf 6b0b 153f
00000010: 8b32 a2bf 4b1e 6dbf 616b 883f f4aa 283f
00000020: 637b 1c3f de2d 2940 abed 753e 9825 df3f
00000030: 429e 323f d2d0 68bf 8a0c 0b3f a294 8d3e

front_linear.bias f4 [8]
1.0697267 0.052732576 0.44765428 -0.6764435 -1.2549967 -0.8621013 -0.05257296 -0.5291579
00000000: ceec 883f 1dfe 573d f132 e53e 672b 2dbf
00000010: bba3 a0bf acb2 5cbf be56 57bd e476 07bf

transformer_encoder.layers.0.self_attn.qkv_proj.weight f4 [24, 8]
-3.997438 -0.54801905 -1.4568406 0.6253841 3.6442146 2.3349936 0.8195398 0.7499212
-4.5501523 -0.11818484 -2.0175598 -0.099751994 3.1704228 1.9674761 0.69785285 1.3935478
-6.8766074 -1.5747752 -2.6071732 1.7403878 2.5105393 2.551585 1.1812774 2.7363455
5.8765683 -0.32480586 3.6164415 -2.5283964 -2.7232645 -3.6691933 0.29645804 -1.3874221
0.2885676 -2.8365471 0.98913264 3.4186926 -1.7957194 -1.7984327 2.4726355 2.9936638
2.442679 -5.138069 -0.9533412 3.242015 -3.6195407 -1.8379552 6.4979415 0.9651501
1.9264983 -4.8700943 -1.1930629 -1.0028731 -4.3403134 -2.4113016 7.437161 1.1655986
-3.5881143 6.7020264 4.4266224 1.0674634 1.2185596 1.1737928 -10.944478 -0.93935156
-0.9711584 0.11147238 -0.099582136 0.060018424 0.5642742 0.49518645 -0.037160527 0.16293526
-0.5505557 -0.18792772 0.018290846 0.20446481 0.3793865 0.018729296 -0.33772513 -0.22085153
0.3729045 -0.76094127 -0.56613755 0.6269436 0.11125069 0.26597005 1.2303116 0.20290068
0.34873614 1.1205161 0.58326036 -0.36407712 -0.046962954 -0.71322525 -0.8061401 -0.16904469
-3.1508596 1.7140318 7.4787035 2.4431531 -1.193679 -2.1741238 0.93234456 1.4592212
-3.9943583 -1.1844825 6.261037 -0.0496379 -0.4479952 -0.84374124 0.24054731 -0.33450302
-5.2594376 -0.761781 6.8441863 0.7753516 -1.1121926 -1.3997452 0.046893086 -0.51665336
-4.440627 2.5035791 7.5408115 4.3424673 -1.7214894 -2.901267 2.0843384 2.269857
-4.7644787 1.5701014 0.4899517 1.5880487 2.7309732 2.6462555 -1.7547327 0.32794797
-3.8703997 1.1861621 1.5026629 1.2929896 2.2401927 2.1022515 -1.3743733 -0.65473986
-5.440648 2.1313803 2.393858 4.807059 3.0898223 2.8401709 -3.4130864 -1.570146
-4.8396826 1.2105203 -1.7938905 3.0601926 4.011877 3.4303615 -2.8733442 -1.3140932
-0.2905158 0.3321508 0.21126722 -0.4531503 0.33427224 -0.036401827 0.12993786 0.4543038
0.35474104 0.24881512 0.12021916 -0.6464809 -0.2795044 0.017806675 0.20295377 0.13866256
-0.023854814 -0.26208323 -0.49345493 0.21947743 -0.21852896 0.18450224 0.07186446 -0.35036704
1.3036135 -0.310384 -0.015857734 0.18072768 -1.0297955 -0.2791924 0.65006036 -0.49845845
00000000: 06d6 7fc0 fa4a 0cbf c179 babf 2c19 203f
00000010: d03a 6940 8970 1540 5ccd 513f d6fa 3f3f
00000020: d99a 91c0 e50a f2bd b31f 01c0 c64a ccbd
00000030: 35e8 4a40 42d6 fb3f 7ca6 323f c65f b23f
00000040: 2b0d dcc0 3c92 c9bf eddb 26c0 07c5 de3f
00000050: adac 2040 2b4d 2340 1934 973f 4920 2f40
00000060: d90c bc40 f44c a6be c773 6740 3fd1 21c0
00000070: f749 2ec0 10d4 6ac0 59c9 973e 0c97 b1bf
00000080: 22bf 933e fd89 35c0 cc37 7d3f dccb 5a40
00000090: 22da e5bf 0b33 e6bf a93f 1e40 3098 3f40
000000a0: da54 1c40 106b a4c0 2b0e 74bf 2c7d 4f40
000000b0: 8ea6 67c0 1e42 ebbf 23ef cf40 1414 773f
000000c0: 7f97 f63f d0d7 9bc0 49b6 98bf 255e 80bf
000000d0: d9e3 8ac0 c452 1ac0 39fd ed40 5632 953f
000000e0: aaa3 65c0 0077 d640 e4a6 8d40 a4a2 883f
000000f0: c3f9 9b3f d83e 963f 951c 2fc1 5879 70bf
00000100: d69d 78bf a24b e43d b8f1 cbbd e1d5 753d
00000110: 4674 103f 1489 fd3e a335 18bd 80d8 263e
00000120: 38f1 0cbf 2070 40be afd6 953c 395f 513e
00000130: f33e c23e 2e6e 993c 4fea acbe e726 62be
00000140: 57ed be3e 0ccd 42bf 64ee 10bf 607f 203f
00000150: 67d7 e33d 3a2d 883e da7a 9d3f 32c5 4f3e
00000160: 8b8d b23e 126d 8f3f 8d50 153f 5168 babe
00000170: 3a5c 40bd ee95 36bf 335f 4ebf 0d1a 2dbe
00000180: afa7 49c0 6565 db3f 8a51 ef40 9f5c 1c40
00000190: 79ca 98bf d824 0bc0 22ae 6e3f c3c7 ba3f
000001a0: 91a3 7fc0 1f9d 97bf 6a5a c840 1c51 4bbd
000001b0: a05f e5be 6dff 57bf 0952 763e fb43 abbe
000001c0: 504d a8c0 1404 43bf 9303 db40 717d 463f
000001d0: 545c 8ebf da2a b3bf f712 403d 6543 04bf
000001e0: 9e19 8ec0 a43a 2040 544e f140 7ef5 8a40
000001f0: c459 dcbf 5cae 39c0 cd65 0540 5645 1140
00000200: 9c76 98c0 15f9 c83f f3da fa3e 2e45 cb3f
00000210: 44c8 2e40 405c 2940 159b e0bf cce8 a73e
00000220: a1b4 77c0 29d4 973f 4257 c03f af80 a53f
00000230: 515f 0f40 4a8b 0640 77eb afbf 089d 27bf
00000240: ca19 aec0 8968 0840 f834 1940 6dd3 9940
00000250: a6bf 4540 5cc5 3540 0270 5ac0 8bfa c8bf
00000260: aede 9ac0 54f2 9a3f 349e e5bf 32da 4340
00000270: 4c61 8040 0b8b 5b40 dfe4 37c0 3534 a8bf
00000280: 7dbe 94be ab0f aa3e 6f56 583e 5103 e8be
00000290: bb25 ab3e 151a 15bd 6e0e 053e 829a e83e
000002a0: 9ea0 b53e 64c9 7e3e 7735 f63d c67f 25bf
000002b0: 331b 8fbe 4edf 913c 1dd3 4f3e 8ffd 0d3e
000002c0: 2c6b c3bc c62f 86be 20a6 fcbe b1be 603e
000002d0: 0ec6 5fbe 28ee 3c3e ad2d 933d 4f63 b3be
000002e0: cfdc a63f a7ea 9ebe 14e8 81bc ad10 393e
000002f0: 57d0 83bf 4ef2 8ebe 5b6a 263f f235 ffbe

transformer_encoder.layers.0.self_attn.o_proj.weight f4 [8, 8]
0.28823844 0.1241399 -0.84006876 0.46707663 0.13327794 0.5564335 -0.424673 0.9122004
0.3253588 0.05631585 0.80045885 -0.7509971 0.24168327 -0.50314564 -0.09368231 0.47868577
0.41281858 -0.055306297 0.78325504 -1.036811 -0.026830107 -0.30606553 0.22043712 -0.64997077
-0.09061211 -0.13976777 0.35108688 -0.9326332 0.12093611 0.24242707 0.102043204 -0.21864533
0.078631975 -0.39774218 0.5372864 -0.38162088 -0.45713922 0.09992268 0.0953313 0.60052276
-1.0118945 -0.8646035 0.42559233 -0.04829874 -0.1692732 -0.05586899 -0.63820827 -0.0948394
-0.8236311 -0.39264566 -0.42563635 0.77477187 0.46495476 0.007083471 0.113304175 -0.91461676
0.6548242 0.39250198 -0.5463943 -0.009426483 -0.019275155 -0.6874798 0.24184425 -0.37091127
00000000: fd93 933e 0f3d fe3d bf0e 57bf ab24 ef3e
00000010: 037a 083e 6d72 0e3f bd6e d9be f785 693f
00000020: 6e95 a63e 73ab 663d dfea 4c3f 5941 40bf
00000030: d27b 773e 27ce 00bf 83dc bfbd 4d16 f53e
00000040: f55c d33e db88 62bd 6783 483f 39b6 84bf
00000050: d0ca dbbc 9fb4 9cbe 45ba 613e 7c64 26bf
00000060: d892 b9bd 481f 0fbe a9c1 b33e 0dc1 6ebf
00000070: 5aad f73d cd3e 783e 07fc d03d 90e4 5fbe
00000080: cd09 a13d dda4 cbbe 9a8b 093f d063 c3be
00000090: 270e eabe 43a4 cc3d 0e3d c33d dcbb 193f
000000a0: c285 81bf a856 5dbf 3de7 d93e e6d4 45bd
000000b0: f455 2dbe e2d6 64bd 9e61 23bf 293b c2bd
000000c0: 7dd9 52bf da08 c9be 02ed d9be 7357 463f
000000d0: 8d0e ee3e 761c e83b 050c e83d 5324 6abf
000000e0: 8fa2 273f 05f6 c83e 7fe0 0bbf 8971 1abc
000000f0: eee6 9dbc adfe 2fbf 05a6 773e 15e8 bdbe

transformer_encoder.layers.0.self_attn.o_proj.bias f4 [8]
0.23464416 0.84514356 0.56639034 0.691468 0.8840603 0.19080818 -1.0866028 -0.99958205
00000000: 8f46 703e 545b 583f f5fe 103f 0c04 313f
00000010: c751 623f 3863 433e cd15 8bbf 9ce4 7fbf

transformer_encoder.layers.0.linear_net.0.weight f4 [16, 8]
0.095453575 -0.4639486 -0.6431946 -0.49874035 -0.78941566 -0.49408522 0.59718615 0.45691997
-0.29982185 -0.6809301 -0.24569799 -0.11408094 0.22571583 -0.083602615 0.44487205 0.2806652
-0.22065862 -0.86010075 -0.28432217 -0.78100306 -0.4310492 -0.8303479 0.5037086 0.6276831
0.05764254 -0.30519462 0.49684885 0.5112113 -1.3579893 -0.6836467 0.68165433 0.52869564
0.3884019 -0.79146767 0.09169707 0.4083516 0.0046385364 -0.9865514 0.9029847 3.0700498
-1.5190238 -2.3087406 1.0412567 2.168024 -3.1747038 -1.0849512 3.134657 2.4940763
0.3735634 -0.30493876 -0.015904102 0.70313215 -0.9714951 -0.5912571 0.8089444 1.1633286
-0.2106763 -0.27645844 -0.00062369544 0.52733874 -0.020195363 0.15296549 0.8461201 1.5164481
0.7202389 -1.1299609 0.38659522 -1.2158339 -1.4732261 -0.8802927 0.8377927 1.2978579
-0.18475097 -0.12713847 -0.06928698 0.4177418 0.20374283 0.24408843 1.0569245 1.6934903
-0.46596518 -1.3698385 -1.123474 -0.7135923 -1.0738486 0.08037403 1.9211308 1.5355749
0.7475806 -0.3768993 -0.926248 -0.7370606 -0.03985706 0.51841664 0.12186209 -0.16557756
-0.59064925 -0.4836262 -0.1624342 -0.18375869 0.1268426 0.1330916 0.44171095 1.505351
-1.0462911 -1.4195405 0.38651472 -2.0018694 -2.6329863 -1.485203 1.969827 1.4876484
0.13822643 -0.28780612 -0.31710565 -0.49106136 -1.1668915 -0.39180717 0.50811434 0.4140482
0.21484676 0.46677306 0.58426994 -0.48514387 -1.0190718 0.14141881 1.7156456 2.6740026
00000000: 2a7d c33d ac8a edbe 67a8 24bf e55a ffbe
00000010: 2517 4abf bdf8 fcbe 31e1 183f 6af1 e93e
00000020: 4082 99be 6f51 2ebf 4198 7bbe 45a3 e9bd
00000030: 0d22 673e d937 abbd 45c6 e33e 59b3 8f3e
00000040: 55f4 61be 902f 5cbf ad92 91be d1ef 47bf
00000050: 7bb2 dcbe ae91 54bf 0cf3 003f d7af 203f
00000060: 961a 6c3d 7842 9cbe f962 fe3e bede 023f
00000070: 98d2 adbf 7803 2fbf e680 2e3f 9958 073f
00000080: 9ddc c63e a09d 4abf accb bb3d 7613 d13e
00000090: ddfe 973b a28e 7cbf 012a 673f b27b 4440
000000a0: 5f6f c2bf 68c2 13c0 e647 853f e8c0 0a40
000000b0: 592e 4bc0 aedf 8abf 389e 4840 f29e 1f40
000000c0: b443 bf3e ef20 9cbe 5249 82bc 7800 343f
000000d0: e7b3 78bf a05c 17bf fb16 4f3f f4e7 943f
000000e0: 87bb 57be f68b 8dbe 7e7f 23ba acff 063f
000000f0: bf70 a5bc fca2 1c3e 549b 583f f91a c23f
00000100: 9461 383f 8fa2 90bf cfef c53e 72a0 9bbf
00000110: ac92 bcbf dd5a 61bf 9579 563f 3520 a63f
00000120: 5c2f 3dbe 9630 02be 55e6 8dbd 41e2 d53e
00000130: f6a1 503e 51f2 793e 4d49 873f 4ac4 d83f
00000140: fd92 eebe de56 afbf ffcd 8fbf fcad 36bf
00000150: df73 89bf 249b a43d 9de7 f53f b88d c43f
00000160: 7161 3f3f f2f8 c0be 971e 6dbf 01b0 3cbf
00000170: 2841 23bd f4b6 043f d592 f93d 2a8d 29be
00000180: ca34 17bf da9d f7be 2755 26be 3d2b 3cbe
00000190: 07e3 013e 2a49 083e f027 e23e 57af c03f
000001a0: deec 85bf 81b3 b5bf 42e5 c53e a11e 00c0
000001b0: d982 28c0 221b bebf 4b23 fc3f 436b be3f
000001c0: 3b8b 0d3e 535b 93be ac5b a2be 656c fbbe
000001d0: b35c 95bf f39a c8be c813 023f 20fe d33e
000001e0: ca00 5c3e e1fc ee3e b792 153f c764 f8be
000001f0: f270 82bf 18d0 103e 469a db3f dc22 2b40

transformer_encoder.layers.0.linear_net.0.bias f4 [16]
-0.923678 -0.6323777 -0.8481441 -0.43656752 -2.7365792 -4.688237 -0.55299467 -1.0788764
-0.3319655 -0.6347128 -1.0692496 0.1763443 -0.98757094 -5.4808664 -0.765267 -1.6133611
00000000: 2976 6cbf 81e3 21bf f91f 59bf c785 dfbe
00000010: 1d24 2fc0 0a06 96c0 0f91 0dbf 9f18 8abf
00000020: 62f7 a9be 8a7c 22bf 2cdd 88bf 9a93 343e
00000030: 73d1 7cbf 4263 afc0 8ae8 43bf 9e82 cebf

transformer_encoder.layers.0.linear_net.3.weight f4 [8, 16]
0.14135328 -0.37645072 0.39045104 -0.9128344 0.06853199 -0.005547714 -0.6314496 -0.77198845
-1.1652216 -0.8412692 0.4977972 -0.38891813 -0.75801045 -1.9865637 -0.5154584 -0.5175286
-0.6175121 -0.08730533 -0.30956164 0.563978 1.0256239 1.7360607 0.041430686 0.47582278
-0.5253554 0.37144178 -0.4864025 -0.114963256 0.14997528 -1.0414102 -0.2274416 0.44124952
-0.35748342 0.27952194 -0.35794693 0.03758057 0.8961467 0.2680321 0.06316545 0.39177075
0.8200902 0.59187514 -0.12808982 0.42227396 0.089257374 0.29495773 -0.087729126 0.72133005
-0.62783873 -0.3067803 -0.4843919 0.21221994 -0.9290678 1.2612499 0.10159047 0.6333972
-0.58139414 0.59333223 -0.56518734 -0.0032080011 0.23170093 2.2752233 0.033107314 0.80724627
-0.31382516 -0.16624562 -0.5471552 0.71297383 -0.16254985 0.7270762 0.28395206 0.56316286
-0.029904636 0.42851302 -0.00776213 -0.49788582 0.46330792 0.84445906 -0.16574878 0.6578946
-2.6346197 0.2892384 -0.53902537 0.63349843 -1.29941 2.626767 0.78993326 0.5365468
1.0892026 0.4376499 -1.8587887 -0.21418734 0.51723 1.2818261 0.238155 0.62443596
0.35216895 -0.069813915 0.18061833 -0.4338107 -0.97433287 0.030028699 -0.29504213 -0.4974277
1.3610566 -0.22261532 0.15500003 0.25307232 0.12447202 1.7327698 0.3486562 -0.7296542
0.7870655 0.25628483 0.95268446 -0.25626948 -1.1891809 -0.15620835 -0.34083018 -0.36268383
0.3617077 -0.6849231 0.8131032 0.40409636 -0.32877788 -1.7992774 0.08043139 -0.46709025
00000000: eabe 103e 26be c0be 33e9 c73e 84af 69bf
00000010: 805a 8c3d 99c9 b5bb aea6 21bf 09a1 45bf
00000020: fb25 95bf 6b5d 57bf 46df fe3e 4720 c7be
00000030: f90c 42bf b847 febf 15f5 03bf c17c 04bf
00000040: 4615 1ebf 23cd b2bd dd7e 9ebe dd60 103f
00000050: a547 833f 3d37 de3f 39b3 293d 0b9f f33e
00000060: b17d 06bf 9e2d be3e c009 f9be db71 ebbd
00000070: 1f93 193e ee4c 85bf 73e6 68be 75eb e13e
00000080: 1108 b7be 801d 8f3e d244 b7be 15ee 193d
00000090: df69 653f 813b 893e e35c 813d 2d96 c83e
000000a0: 6ef1 513f 2185 173f fa29 03be 4b34 d83e
000000b0: 92cc b63d b304 973e 54ab b3bd 16a9 383f
000000c0: 0aba 20bf 4f12 9dbe 3702 f8be 2f50 593e
000000d0: 63d7 6dbf a370 a13f aa0e d03d 5226 223f
000000e0: 3fd6 14bf 9fe4 173f 1eb0 10bf 543d 52bb
000000f0: 0243 6d3e 429d 1140 899b 073d b1a7 4e3f
00000100: b1ad a0be 4b3c 2abe 5d12 0cbf 7485 363f
00000110: 7873 26be aa21 3a3f 2a62 913e 712b 103f
00000120: 91fa f4bc 0f66 db3e 7759 febb e4ea febe
00000130: b236 ed3e 782e 583f 0cba 29be c86b 283f
00000140: 9c9d 28c0 0e17 943e 91fd 09bf f42c 223f
00000150: 1153 a6bf f31c 2840 1139 4a3f 225b 093f
00000160: fe6a 8b3f a613 e03e caec edbf ed53 5bbe
00000170: 2f69 043f e112 a43f e8de 733e 09db 1f3f
00000180: 7d4f b43e 99fa 8ebd 03f4 383e 701c debe
00000190: e16d 79bf bffe f53c c30f 97be d8ae febe
000001a0: 1a37 ae3f 45f5 63be 54b8 1e3e b292 813e
000001b0: 30eb fe3d 67cb dd3f 1183 b23e 9eca 3abf
000001c0: 207d 493f c437 833e 21e3 733f c135 83be
000001d0: 1437 98bf 15f5 1fbe 4b81 aebe b2b1 b9be
000001e0: c031 b93e 1f57 2fbf 8827 503f b8e5 ce3e
000001f0: 9355 a8be b94e e6bf 36b9 a43d 7426 efbe

transformer_encoder.layers.0.linear_net.3.bias f4 [8]
0.07716726 -0.026210483 -0.2514424 0.05363899 0.15708423 -0.027670251 -0.20442337 0.39326277
00000000: de09 9e3d 5eb7 d6bc 0fbd 80be 8fb4 5b3d
00000010: b0da 203e b9ac e2bc 5c54 51be bd59 c93e

final_linear.weight f4 [1, 8]
-0.21390091 0.019687213 0.2200886 -0.020732565 -0.049250104 0.05483527 0.13131669 -0.042937923
00000000: d708 5bbe 1447 a13c e85e 613e 57d7 a9bc
00000010: 7aba 49bd f39a 603d e277 063e addf 2fbd

exp_avg f4 [8, 2]
-5.646932e-05 0.00076584023 -4.5885223e-05 5.7174988e-05 -0.00012219617 0.00016388271 4.9626695e-05 3.7203936e-05
4.2738953e-05 -0.00031171128 0.00014129873 -0.00030214273 6.0574217e-05 -0.0001559491 -4.8133184e-05 -0.00027915442
00000000: 78d9 6cb8 abc2 483a e274 40b8 2dcf 6f38
00000010: c921 00b9 eed7 2b39 4226 5038 6c0b 1c38
00000020: 9a42 3338 2e6d a3b9 9729 1439 e968 9eb9
00000030: 1211 7e38 4586 23b9 9de2 49b8 795b 92b9

exp_avg_sq f4 [8, 2]
0.000103037084 0.00017247118 6.3673992e-06 2.020157e-05 1.947144e-05 3.0981857e-05 4.525552e-06 1.1798629e-05
1.7960898e-05 3.054438e-05 2.016988e-05 3.4670353e-05 7.875739e-06 3.6036272e-05 1.9887004e-05 3.1438198e-05
00000000: 9d15 d838 61d9 3439 8ba7 d536 8b76 a937
00000010: 9956 a337 84f2 0138 32da 9736 baf2 4537
00000020: bcaa 9637 c71c 0038 7d32 a937 026b 1138
00000030: 0b22 0437 a725 1738 04d3 a637 82dc 0338

exp_avg f4 [8]
0.001151533 -0.0001224764 3.0589057e-05 0.00011777585 -0.00058560853 -0.000307035 3.5468423e-05 -0.000489367
00000000: 09ef 963a 026d 00b9 c04c 0038 6efe f638
00000010: 8683 19ba 8af9 a0b9 eec3 1438 dd48 00ba

exp_avg_sq f4 [8]
0.0006610436 5.100461e-05 0.0001573408 3.779801e-05 0.000105858766 0.00012573546 5.2202653e-05 0.00012241489
00000000: e349 2d3a c8ed 5538 d9fb 2439 4e89 1e38
00000010: 7e00 de38 dbd7 0339 2cf4 5a38 7f5c 0039

exp_avg f4 [24, 8]
3.910757e-06 -1.239501e-05 -5.6378535e-06 9.974414e-06 -5.753872e-06 -2.327612e-06 1.7541446e-05 1.0458304e-05
6.879889e-06 -2.7972792e-05 -9.099536e-06 2.193038e-05 -1.3491137e-05 -4.748167e-06 4.020924e-05 2.499325e-05
3.834262e-06 -3.422921e-05 -2.2592085e-06 2.5428102e-05 -1.7860013e-05 -4.785512e-06 5.068288e-05 3.3859214e-05
-1.1026331e-05 2.8130435e-05 1.667417e-05 -2.3316461e-05 1.2538401e-05 5.9569375e-06 -3.911859e-05 -2.2200573e-05
2.0161583e-06 1.1844929e-07 2.3046439e-06 -1.7914793e-06 -3.2496541e-06 -2.0121406e-06 9.7338216e-08 -8.7974826e-07
2.208762e-06 2.1219284e-07 2.6922974e-06 -2.095595e-06 -3.633641e-06 -2.2344816e-06 9.248424e-09 -1.0263482e-06
1.3802335e-05 -2.7126207e-06 9.394838e-06 -7.0526175e-06 -1.9883368e-05 -1.2605893e-05 4.882089e-06 -2.991494e-06
-1.7474595e-06 5.8914475e-07 -4.4410126e-07 3.0076512e-07 2.0428706e-06 1.5322412e-06 -8.391132e-07 2.6037867e-07
0.00014559741 2.8712653e-05 8.817544e-06 -8.575435e-05 -0.00012332622 -0.00010117779 -6.689369e-05 -0.000117331954
7.74913e-05 1.7720775e-05 1.5349477e-05 -5.1259776e-05 -7.1182374e-05 -5.6636592e-05 -3.7769765e-05 -6.3839776e-05
-4.7803056e-05 -1.6017346e-05 -5.5123775e-05 5.3016214e-05 7.4039635e-05 5.042719e-05 1.2133174e-05 2.7037897e-05
-6.1442144e-05 -3.402336e-06 4.632385e-05 9.918811e-06 2.0600128e-05 2.6679241e-05 3.4761313e-05 5.8691752e-05
2.9719297e-07 3.4989418e-07 4.049389e-07 -5.84622e-07 -3.9319588e-07 -2.3834714e-07 -4.459049e-07 -4.5734674e-07
2.2679764e-07 2.77039e-07 3.0601205e-07 -4.5387907e-07 -2.9426798e-07 -1.791325e-07 -3.5518363e-07 -3.5953255e-07
3.5196592e-07 4.234653e-07 4.769793e-07 -6.9940904e-07 -4.6049757e-07 -2.798114e-07 -5.415687e-07 -5.5114856e-07
3.9418603e-07 4.4388815e-07 5.434005e-07 -7.599149e-07 -5.333417e-07 -3.2175782e-07 -5.61379e-07 -5.853879e-07
-9.2883425e-08 6.226907e-09 -8.543662e-08 6.592744e-08 1.4269247e-07 8.815732e-08 -1.9128489e-08 2.986137e-08
-1.1203518e-07 2.434744e-08 -7.050567e-08 5.2616826e-08 1.5824585e-07 1.0166964e-07 -4.195754e-08 2.2488617e-08
-1.1909573e-07 2.5029937e-08 -7.660415e-08 5.730918e-08 1.6893219e-07 1.0830918e-07 -4.3648566e-08 2.458171e-08
4.5934527e-08 -5.4484108e-08 -5.7258717e-08 4.966654e-08 -2.8081857e-08 -2.9380473e-08 6.709391e-08 2.6402834e-08
-4.0870367e-05 -8.180699e-06 8.0941e-06 2.164552e-05 2.9737981e-05 2.5916268e-05 1.5456606e-05 2.9343684e-05
9.194117e-05 1.787805e-05 8.691153e-06 -5.7691213e-05 -8.484144e-05 -6.692315e-05 -2.6473503e-05 -5.891902e-05
-1.6422018e-05 9.392673e-06 -1.0826276e-05 3.5418234e-06 2.798708e-05 1.8024828e-05 -2.1766267e-05 -9.994368e-06
0.00023724567 7.021781e-05 1.6808015e-05 -0.00016607689 -0.00020245442 -0.00016557303 -0.00011541846 -0.00018762246
00000000: 2639 8336 2af4 4fb7 cb2c bdb6 c857 2737
00000010: 6211 c1b6 1234 1cb6 f825 9337 1376 2f37
00000020: ccd9 e636 1da7 eab7 36aa 18b7 22f7 b737
00000030: fe57 62b7 7252 9fb6 58a6 2838 98a8 d137
00000040: 0fa8 8036 5691 0fb8 e89c 17b6 6f4e d537
00000050: 16d2 95b7 3c93 a0b6 5494 5438 0e04 0e38
00000060: bbfd 38b7 a6f9 eb37 82df 8b37 b897 c3b7
00000070: 065c 5237 b4e1 c736 4413 24b8 5e3b bab7
00000080: 564d 0736 305e fe33 7ba9 1a36 c372 f0b5
00000090: a214 5ab6 5008 07b6 4008 d133 d727 6cb5
000000a0: 3e3a 1436 20d7 6334 51ad 3436 0ca2 0cb6
000000b0: 7ad9 73b6 1af4 15b6 00e3 1e32 0ec1 89b5
000000c0: 9490 6737 780a 36b6 869e 1d37 86a5 ecb6
000000d0: 35cb a6b7 e67d 53b7 d3d0 a336 7ac1 48b6
000000e0: 408a eab5 b825 1e35 d06c eeb4 d878 a134
000000f0: 4018 0936 68a7 cd35 6c3f 61b5 2cca 8b34
00000100: 82ab 1839 f4db f037 10ef 1337 04d7 b3b8
00000110: 2151 01b9 6a2f d4b8 4749 8cb8 1d10 f6b8
00000120: d382 a238 13a7 9437 c0c2 8037 c4ff 56b8
00000130: bf47 95b8 148d 6db8 fa6a 1eb8 b8e1 85b8
00000140: 2480 48b8 fd5c 86b7 b434 67b8 ba5d 5e38
00000150: ba45 9b38 c881 5338 968f 4b37 71cf e237
00000160: 80da 80b8 b053 64b6 db4b 4238 f868 2637
00000170: 70ce ac37 3ccd df37 adcc 1138 ca2b 7638
00000180: e48d 9f34 17d9 bb34 6166 d934 ebee 1cb5
00000190: 6e18 d3b4 5dec 7fb4 b464 efb4 4289 f5b4
000001a0: a985 7334 f3bb 9434 fa49 a434 aaac f3b4
000001b0: e2fb 9db4 9157 40b4 11b0 beb4 c705 c1b4
000001c0: d4f5 bc34 a158 e334 c509 0035 06bf 3bb5
000001d0: 4e3a f7b4 fc38 96b4 5160 11b5 a4f2 13b5
000001e0: 84a0 d334 864f ee34 33de 1135 f4fc 4bb5
000001f0: f62a 0fb5 0fbe acb4 acb1 16b5 8d23 1db5
00000200: 3477 c7b3 74f4 d531 4779 b7b3 fe93 8d33
00000210: 0237 1934 0051 bd33 fe4f a4b2 ec40 0033
00000220: fe97 f0b3 9624 d132 e768 97b3 d0fc 6133
00000230: 4aea 2934 7a55 da33 ce34 34b3 fe2c c132
00000240: 92c1 ffb3 6a01 d732 9481 a4b3 1c24 7633
00000250: ba63 3534 9a97 e833 1b78 3bb3 c027 d332
00000260: 8c49 4533 e901 6ab3 a0ec 75b3 f050 5533
00000270: a838 f1b2 5860 fcb2 4415 9033 72cc e232
00000280: 396c 2bb8 d63f 09b7 e5cb 0737 6693 b537
00000290: d475 f937 c366 d937 cfa8 8137 1527 f637
000002a0: 8ad0 c038 d2f8 9537 38d0 1137 78f9 71b8
000002b0: e7ec b1b8 1859 8cb8 6a13 deb7 d11f 77b8
000002c0: 04c2 89b7 3995 1d37 80a2 35b7 10b0 6d36
000002d0: ccc5 ea37 0634 9737 b496 b6b7 7cad 27b7
000002e0: 26c5 7839 e641 9338 f0fe 8c37 ed24 2eb9
000002f0: f249 54b9 ac9d 2db9 d00c f2b8 85bc 44b9

exp_avg_sq f4 [24, 8]
1.0996842e-07 7.061168e-08 1.5357566e-06 2.3130614e-08 3.469198e-08 1.3764166e-07 6.439583e-08 1.8999648e-07
8.063209e-08 5.361414e-08 7.1307494e-07 3.7690917e-08 7.92753e-08 1.5460313e-07 9.861426e-08 2.2826626e-07
2.4214685e-07 1.218336e-07 2.2711436e-06 6.8373524e-08 1.5656258e-07 4.3549358e-07 1.8202932e-07 6.4293783e-07
3.5695063e-08 3.8163034e-08 2.7239915e-07 2.7726932e-08 6.1001195e-08 7.575256e-08 8.594059e-08 1.3448813e-07
3.0120916e-08 6.6505684e-10 1.9367695e-08 8.27692e-09 6.528859e-08 3.169986e-08 9.1709196e-10 1.0297694e-09
2.5840084e-08 2.45266e-10 1.5558125e-08 6.1400622e-09 4.985307e-08 2.1075978e-08 4.781686e-10 1.1187249e-09
3.9496392e-08 6.429577e-10 2.3617037e-08 1.0058846e-08 7.650985e-08 3.480519e-08 1.0475917e-09 1.4994105e-09
4.2586626e-07 2.8360756e-09 2.584608e-07 1.0632052e-07 7.9523505e-07 3.500856e-07 3.870413e-09 1.7173317e-08
1.3868691e-06 6.122678e-07 4.6241043e-06 8.153275e-07 3.6753397e-06 1.9329038e-06 1.3074646e-06 3.8228945e-06
5.3901215e-07 2.5899632e-07 1.8039403e-06 3.701551e-07 6.911862e-07 4.886991e-07 6.170488e-07 1.4308654e-06
1.2401538e-06 3.1439797e-07 4.1885323e-06 4.684361e-07 2.2526e-06 1.5109836e-06 5.6385016e-07 2.2898178e-06
1.6358032e-06 4.3317422e-07 8.160363e-06 1.0857093e-06 1.9728543e-06 2.4674912e-06 6.4537994e-07 3.2109479e-06
1.10951985e-08 1.9771684e-09 5.891182e-09 3.999598e-09 1.7525448e-08 8.1758404e-09 2.0051618e-09 7.155415e-09
4.1167345e-09 7.206621e-10 1.2233589e-09 1.3131788e-09 8.03933e-09 3.84045e-09 1.0008545e-09 3.3473246e-09
1.0012811e-08 1.6906825e-09 2.8569587e-09 3.1638903e-09 1.7569555e-08 9.049366e-09 1.9779087e-09 7.3442976e-09
3.3438422e-08 6.5181216e-09 2.6489401e-08 1.524436e-08 3.3522475e-08 1.689888e-08 3.4314664e-09 1.5965075e-08
2.4010006e-08 7.67348e-09 1.9826713e-08 4.6980544e-09 4.5685205e-08 1.8760469e-08 2.9282556e-09 6.3330794e-09
2.7910032e-08 8.911021e-09 2.295725e-08 5.4193627e-09 5.3092716e-08 2.1780968e-08 3.4015444e-09 7.3722246e-09
3.4730224e-08 1.1114119e-08 2.8654284e-08 6.772061e-09 6.607131e-08 2.7120995e-08 4.241349e-09 9.184932e-09
3.8847844e-08 1.2423538e-08 3.2054164e-08 7.559357e-09 7.400945e-08 3.0379947e-08 4.7347433e-09 1.0249708e-08
6.3954093e-07 3.7049406e-07 4.152001e-06 4.993783e-07 1.247414e-06 1.227144e-06 5.363954e-07 1.8340514e-06
3.304033e-07 2.2804241e-07 1.2737214e-06 4.820559e-07 1.2030206e-06 4.529619e-07 5.0040217e-07 1.3276282e-06
4.9977564e-07 2.3164633e-07 1.9946392e-06 3.3725087e-07 5.4389005e-07 4.191503e-07 3.1473294e-07 1.027276e-06
1.6345656e-06 7.5381405e-07 6.9621715e-06 9.756891e-07 2.8740396e-06 1.5215534e-06 1.4086634e-06 3.4291393e-06
00000000: c727 ec33 2ea3 9733 3220 ce35 c2b0 c632
00000010: 3c00 1533 a7ca 1334 fb49 8a33 d601 4c34
00000020: f627 ad33 5f45 6633 236a 3f35 9ae1 2133
00000030: 0f3e aa33 fc00 2634 c3c5 d333 5a19 7534
00000040: 6900 8234 5dd1 0234 f369 1836 bed4 9233
00000050: 981b 2834 c8cd e934 d773 4334 5a96 2c35
00000060: 234f 1933 b3e8 2333 413e 9234 2b2c ee32
00000070: c3ff 8233 69ad a233 578e b833 d167 1034
00000080: 4c5e 0133 37cf 3630 035e a632 4732 0e32
00000090: c834 8c33 5d26 0833 9c16 7c30 ca87 8d30
000000a0: f2f6 dd32 1fd6 862f aea4 8532 8ff8 d231
000000b0: 081e 5633 910a b532 2070 0330 a2c1 9930
000000c0: bea2 2933 20bc 3030 6ade ca32 46cf 2c32
000000d0: bc4d a433 b67c 1533 dbfa 8f30 d113 ce30
000000e0: 9da2 e434 c5e4 4231 95c2 8a34 5352 e433
000000f0: 2378 5535 66f3 bb34 83fc 8431 8684 9332
00000100: 7624 ba35 b95a 2435 c128 9b36 e1dc 5a35
00000110: dba5 7636 09b7 0136 247c af35 6a46 8036
00000120: a2b0 1035 2f0c 8b34 eb1e f235 bbb9 c634
00000130: f489 3935 252f 0335 45a3 2535 290c c035
00000140: 5c73 a635 87ca a834 388b 8c36 5e7d fb34
00000150: 602b 1736 00cd ca35 7d5b 1735 c5aa 1936
00000160: c58d db35 038f e834 7ee8 0837 b0b8 9135
00000170: 6165 0436 2d97 2536 2c3e 2d35 aa7b 5736
00000180: 339d 3e32 b7de 0731 636b ca31 d66c 8931
00000190: de8a 9632 ba75 0c32 2ecb 0931 b2db f531
000001a0: 2e73 8d31 1618 4630 1d23 a830 5f7b b430
000001b0: 591d 0a32 f5f4 8331 708e 8930 c206 6631
000001c0: cf04 2c32 9a5d e830 2654 4431 bf6b 5931
000001d0: dceb 9632 8877 1b32 bdeb 0731 2059 fc31
000001e0: ef9d 0f33 01f6 df31 cf8a e332 b4f2 8232
000001f0: 5afa 0f33 0829 9132 ffce 6b31 9223 8932
00000200: 903e ce32 52d4 0332 674f aa32 866c a131
00000210: 6a37 4433 b526 a132 6b3a 4931 5b9a d931
00000220: cfbe ef32 1617 1932 8733 c532 3835 ba31
00000230: 0f08 6433 db18 bb32 9ac0 6931 c64e fd31
00000240: 492a 1533 6af0 3e32 7023 f632 aeaf e831
00000250: 16e3 8d33 b3f7 e832 4dbb 9131 c2cb 1d32
00000260: a8d9 2633 4c6f 5532 edab 0933 67de 0132
00000270: 20ef 9e33 1b7b 0233 3eaf a231 b116 3032
00000280: ebac 2b35 51e8 c634 6b51 8b36 040d 0635
00000290: d26c a735 59b4 a435 d0fc 0f35 8729 f635
000002a0: 4962 b134 d2db 7434 bcf4 aa35 a166 0135
000002b0: 7977 a135 9c2e f334 6053 0635 f530 b235
000002c0: 5228 0635 75ba 7834 a4db 0536 680f b534
000002d0: d7ff 1135 9407 e134 91f8 a834 efe0 8935
000002e0: 3f63 db35 b559 4a35 999c e936 6cf4 8235
000002f0: a0df 4036 2d38 cc35 4e11 bd35 2a20 6636

exp_avg f4 [8, 8]
-0.00014123521 -5.4254895e-05 -9.743606e-05 0.00014469231 -3.341177e-05 7.9247315e-05 -1.0467411e-05 0.00017060847
-4.123706e-05 -1.11655245e-05 -1.9072271e-05 3.41289e-05 -1.7292281e-05 1.1855162e-05 1.21471985e-05 4.0895e-05
0.00013306599 5.4705204e-05 8.345724e-05 -0.0001295608 2.7435168e-05 -7.4116295e-05 1.4745081e-05 -0.00015706482
-0.00013780803 -4.2071828e-05 -6.6311164e-05 0.0001128169 -3.0839343e-05 3.2802498e-05 2.0398002e-05 7.8832294e-05
-7.347516e-05 -2.5487112e-05 -3.6669266e-05 6.296391e-05 -2.0285092e-05 2.8524566e-05 5.750332e-06 7.145374e-05
0.00012046741 3.6493446e-05 7.951968e-05 -0.00011521263 1.85127e-05 -3.3417302e-05 -8.603018e-06 -5.9022248e-05
0.00017553409 5.9566926e-05 0.00010488849 -0.00016443235 4.6928963e-05 -7.233618e-05 -1.0938009e-05 -0.00017145374
-4.4988312e-05 -1.3423667e-05 -3.336429e-05 4.417041e-05 3.6081074e-06 6.650258e-06 -1.6842623e-06 -8.171279e-06
00000000: 8a18 14b9 c08f 63b8 9656 ccb8 8cb8 1739
00000010: 9d23 0cb8 9431 a638 309d 2fb7 5de5 3239
00000020: f5f5 2cb8 9053 3bb7 64fd 9fb7 a125 0f38
00000030: e40e 91b7 88e5 4637 d2cb 4b37 ac86 2b38
00000040: a187 0b39 4473 6538 c405 af38 b6da 07b9
00000050: 9324 e637 e26e 9bb8 a461 7737 c4b1 24b9
00000060: 9080 10b9 4876 30b8 8910 8bb8 1d98 ec38
00000070: 7e59 01b8 6a95 0938 601c ab37 c452 a538
00000080: ad16 9ab8 28cd d5b7 53cd 19b8 7e0b 8438
00000090: e729 aab7 0a48 ef37 faf2 c036 6fd9 9538
000000a0: 73a3 fc38 8a10 1938 cec3 a638 4f9e f1b8
000000b0: b84b 9b37 8e29 0cb8 ae55 10b7 a88e 77b8
000000c0: 930f 3839 80d7 7938 94f7 db38 796b 2cb9
000000d0: 97d5 4438 31b3 97b8 6482 37b7 43c8 33b9
000000e0: d5b1 3cb8 3636 61b7 a2f0 0bb8 9e43 3938
000000f0: d022 7236 4825 df36 d00e e2b5 6017 09b7

exp_avg_sq f4 [8, 8]
1.6939229e-06 5.1194235e-07 5.1069986e-07 5.3710505e-07 2.3024322e-06 2.5161128e-07 1.0422542e-06 2.7123506e-06
2.437447e-06 2.80556e-07 8.153729e-07 5.852025e-07 1.7526779e-06 5.499668e-07 9.862691e-07 2.777041e-06
1.8029206e-06 2.2833356e-07 4.5393253e-07 3.5195114e-07 1.1689918e-06 2.614376e-07 7.776952e-07 1.9681777e-06
1.1650632e-06 2.7537183e-07 2.7736274e-07 2.5273798e-07 9.0027146e-07 3.2775557e-07 4.589959e-07 1.7317601e-06
8.791076e-07 2.8799556e-07 3.2867322e-07 4.3338235e-07 1.0593089e-06 2.1093194e-07 3.3540496e-07 1.8612963e-06
5.053778e-07 3.0217572e-07 1.7927435e-07 2.5992432e-07 3.1641318e-07 9.3146035e-08 1.6075505e-07 9.3394095e-07
3.5379107e-06 6.453008e-07 1.2059669e-06 1.0316127e-06 3.821021e-06 1.0304066e-06 1.7474872e-06 4.657058e-06
1.4272019e-06 2.093325e-07 6.4073487e-07 5.7595724e-07 9.593847e-07 2.4653792e-07 3.822782e-07 2.0749019e-06
00000000: bf5a e335 696c 0935 0717 0935 942d 1035
00000010: 7c83 1a36 3115 8734 95e3 8b35 d405 3636
00000020: 0593 2336 539f 9634 00e0 5a35 cf16 1d35
00000030: 8e3d eb35 6ea1 1335 f35f 8435 335d 3a36
00000040: e1fb f135 da2b 7534 03b4 f334 ccf3 bc34
00000050: 41e6 9c35 b65b 8c34 cfc2 5035 0915 0436
00000060: 445f 9c35 d1d6 9334 72e8 9434 0bb0 8734
00000070: 2faa 7135 62f6 af34 eb6b f634 d36e e835
00000080: d0fb 6b35 cf9d 9a34 8174 b034 9eab e834
00000090: 942d 8e35 887c 6234 b511 b434 a7d1 f935
000000a0: 4ca9 0735 b73a a234 8f7e 4034 ba8b 8b34
000000b0: 7fdf a934 9307 c833 039c 2c34 efb3 7a35
000000c0: d86c 6d36 bc38 2d35 b5dc a135 f175 8a35
000000d0: 5236 8036 804c 8a35 348b ea35 d343 9c36
000000e0: 498e bf35 e1c4 6034 f7fe 2b35 7b9b 1a35
000000f0: 35c4 8035 ea5b 8434 ea3b cd34 8b3e 0b36

exp_avg f4 [8]
0.000110205554 7.672564e-05 -7.666583e-05 0.00016569585 7.999529e-05 -0.00012461575 -0.00019568704 2.162908e-05
00000000: 281e e738 c4e7 a038 a7c7 a0b8 a4be 2d39
00000010: 25c3 a738 49ab 02b9 5731 4db9 1870 b537

exp_avg_sq f4 [8]
3.7245993e-06 5.329776e-06 2.7828426e-06 1.8416284e-06 3.0400695e-06 1.6381408e-06 7.3888414e-06 4.2725674e-06
00000000: 21f4 7936 6dd6 b236 dfc0 3a36 df2d f735
00000010: ff03 4c36 17de db35 aaed f736 135d 8f36

exp_avg f4 [16, 8]
-2.0203728e-11 4.852282e-11 -4.9502402e-11 2.83969e-11 1.400243e-10 4.526203e-11 -9.0510856e-11 -4.0705463e-11
1.3268764e-10 -3.6555002e-11 -1.7453396e-10 -5.4997437e-11 6.880968e-11 7.913905e-11 -2.1109088e-11 -1.2722458e-10
7.2614345e-11 2.2695316e-11 -1.66784e-11 -4.738872e-11 2.2101111e-11 -3.8579327e-11 -7.748765e-11 -4.2863754e-11
3.070613e-07 7.8114044e-07 8.13748e-07 2.0396607e-07 2.1183496e-07 -1.2711902e-06 -1.5445852e-06 3.2364602e-07
4.6429895e-07 7.105536e-07 6.4637874e-07 1.879758e-07 1.8381628e-07 -1.4298885e-06 -1.573098e-06 4.5076365e-07
2.9310737e-15 2.9170277e-15 -7.659137e-15 -2.5817441e-15 4.850445e-15 8.346504e-15 -3.4412014e-15 4.54403e-16
-2.2648142e-28 -1.1571305e-28 -9.260882e-29 7.114874e-29 -6.493375e-29 7.2373655e-29 2.44619e-28 -1.0329001e-28
-6.052056e-11 5.2736433e-11 4.8803007e-11 4.796366e-11 5.6892227e-11 -1.2015669e-11 -5.876038e-11 1.5979305e-11
1.510273e-08 1.6147565e-08 -1.15766365e-08 -1.3881517e-09 3.6210196e-08 -9.43564e-09 -3.9581508e-08 -9.476672e-09
3.363078e-17 4.779858e-17 -1.3229673e-16 -2.6349096e-17 9.83861e-17 1.3885436e-16 -5.907483e-17 8.953067e-18
-3.5390355e-24 -1.7649495e-24 -7.824435e-25 1.0427199e-24 -3.3726109e-25 4.328693e-25 3.1806625e-24 -1.8868525e-24
-0.00017550134 -5.1564974e-05 0.0002660297 -3.9190814e-05 -0.00029198837 -0.0001228678 0.00019199739 0.0003498512
-2.3119282e-25 -1.1812059e-25 -9.453675e-26 7.262918e-26 -6.628318e-26 7.388048e-26 2.497073e-25 -1.0543863e-25
-8.366157e-24 1.5649788e-24 6.633984e-24 1.7945452e-24 -5.4884366e-24 -3.1796064e-24 4.3715938e-24 -7.251729e-24
-1.5362431e-24 -7.845526e-25 -6.257368e-25 4.8140005e-25 -4.4086724e-25 4.904467e-25 1.6587512e-24 -7.0156635e-25
-7.235566e-29 -8.857823e-31 7.262893e-29 -3.475339e-30 2.2055993e-31 -1.5035764e-29 1.6621033e-29 -2.420877e-29
00000000: c0b6 b1ad d767 552e c0b6 59ae 22c8 f92d
00000010: 56f5 192f 8410 472e 1509 c7ae 4706 33ae
00000020: 40e4 112f 46c5 20ae f1e6 3faf 9ce1 71ae
00000030: 6850 972e 5307 ae2e 71ad b9ad 89e2 0baf
00000040: 3eae 9f2e 4fa1 c72d 6bb4 92ad f56a 50ae
00000050: 4767 c22d 76ac 29ae ab65 aaae 4c84 3cae
00000060: 2fda a434 90af 5135 5670 5a35 c401 5b34
00000070: c074 6334 c39d aab5 8b4f cfb5 92c1 ad34
00000080: c344 f934 dfbc 3e35 cf82 2d35 65d6 4934
00000090: 095f 4534 98ea bfb5 3c23 d3b5 7c00 f234
000000a0: c434 5327 aa31 5227 89f9 09a8 c608 3aa7
000000b0: 75c1 ae27 755b 1628 f6f6 77a7 06f9 0226
000000c0: b68c 8f91 08af 1291 90ca ea90 2c62 b410
000000d0: 6aa0 a490 307d b710 b40b 9b11 86ef 0291
000000e0: 0c16 85ae f2ef 672e 4da3 562e 48f2 522e
000000f0: f436 7a2e c361 53ad 2737 81ae 328e 8c2d
00000100: 41bb 8132 dfb4 8a32 96e2 46b2 3fc9 beb0
00000110: 8885 1b33 621a 22b2 5400 2ab3 d8ce 22b2
00000120: 3818 1b24 9a6e 5c24 1a87 18a5 0b07 f3a3
00000130: e7dc e224 9316 2025 a037 88a4 aa27 2523
00000140: e9e8 8898 6d8e 0898 9027 7297 645a a117
00000150: 27c1 d096 70f7 0517 8317 7618 f7fc 1198
00000160: c806 38b9 7847 58b8 e779 8b39 d160 24b8
00000170: 0416 99b9 13d6 00b9 e852 4939 3c6c b739
00000180: f719 8f96 e939 1296 c90f ea95 36d2 b315
00000190: f51b a495 51eb b615 b38f 9a16 d686 0296
000001a0: 34d3 2199 332b f217 e651 0019 a1d8 0a18
000001b0: d852 d498 9802 7698 2b1e a918 d344 0c99
000001c0: dcb8 ed97 a9ce 7297 faa7 4197 71fc 1417
000001d0: 1a71 0897 31c9 1717 f456 0018 d01f 5997
000001e0: 8271 b790 f5b9 8f8d df22 b810 fcf9 8c8e
000001f0: ce26 8f0c 137b 988f ab8e a80f 8f81 f58f

exp_avg_sq f4 [16, 8]
4.445883e-10 4.402551e-08 1.3256943e-08 1.5124876e-08 2.7894595e-08 3.3631697e-08 9.318946e-08 6.695952e-08
8.665822e-08 9.34726e-08 1.669249e-07 3.9404668e-08 9.539091e-07 3.5687825e-07 5.361304e-07 7.607026e-07
2.0979227e-08 4.9145065e-08 2.0325109e-08 2.5035378e-08 1.7945119e-07 1.0399233e-07 1.581593e-07 2.1866363e-07
5.8506484e-09 7.471995e-08 3.7495308e-08 2.8376077e-08 5.0164676e-08 6.4085064e-08 1.6239677e-07 1.1622916e-07
1.9742301e-09 5.0770865e-08 1.12316904e-07 9.3023594e-08 3.604547e-10 3.6496821e-09 2.3603603e-08 1.1082897e-08
3.9565053e-09 3.2806007e-09 2.352211e-08 2.9775609e-09 9.252711e-09 2.6329078e-08 4.475926e-09 3.143282e-10
1.5284188e-08 1.07602474e-07 5.6818696e-08 3.9666357e-08 6.9274186e-08 9.017969e-08 2.3007188e-07 1.6798046e-07
1.9676422e-08 7.1781634e-09 8.5944855e-08 1.4627112e-08 2.9628238e-08 5.173045e-08 5.07935e-08 1.0693163e-08
3.1098367e-07 1.4486488e-07 6.2739836e-08 1.8214666e-07 2.0408741e-07 2.3397962e-07 8.187176e-07 2.5696747e-07
1.080276e-08 7.2136492e-09 4.740981e-08 1.4018226e-08 1.6409091e-08 3.053849e-08 2.449906e-08 7.3343833e-09
1.230813e-09 4.0661425e-09 5.761663e-09 4.8098814e-09 2.3020643e-09 3.2889196e-09 7.666368e-09 4.252586e-09
2.339301e-06 1.1092427e-06 1.5164092e-06 6.5797985e-07 4.7776603e-06 2.3114758e-06 4.249763e-06 5.1306974e-06
1.933442e-08 1.40237e-08 8.5300854e-08 1.3895441e-08 3.0776828e-08 5.439677e-08 6.656001e-08 2.172849e-08
3.1271842e-08 1.5652157e-08 8.943739e-08 8.232957e-09 1.8874347e-08 2.8985886e-08 2.1427795e-09 1.4341336e-08
1.263649e-07 3.8661378e-07 7.1371154e-08 4.5524626e-08 2.0986961e-07 1.9735224e-07 3.2405748e-07 3.1727336e-07
1.5905456e-10 5.171386e-11 2.3001083e-10 6.3781214e-10 3.437163e-10 6.0651574e-11 1.0240442e-10 1.809162e-10
00000000: 3e6a f42f 8f16 3d33 a7c0 6332 f4eb 8132
00000010: dd9c ef32 7172 1033 731f c833 63cb 8f33
00000020: dc18 ba33 1bbb c833 f83b 3334 e43d 2933
00000030: 1108 8035 f998 bf34 9aea 0f35 1633 4c35
00000040: cf35 b432 9213 5333 6397 ae32 610d d732
00000050: 2baf 4034 6352 df33 7fd2 2934 cdc9 6a34
00000060: d906 c931 ba75 a033 870a 2133 a7bf f332
00000070: a574 5733 239f 8933 495f 2e34 a899 f933
00000080: 06ab 0731 280f 5a33 df32 f133 43c4 c733
00000090: 7d29 c62f e3cd 7a31 dfc0 ca32 1967 3e32
000000a0: caf1 8731 f070 6131 ab0d ca32 ce9d 4c31
000000b0: daf5 1e32 412a e232 a9ca 9931 c3cd ac2f
000000c0: 494a 8332 1613 e733 d108 7433 9f5d 2a33
000000d0: e3c3 9433 cfa8 c133 ad09 7734 1e5e 3434
000000e0: e904 a932 cba3 f631 af90 b833 b84a 7b32
000000f0: 2f81 fe32 3b2e 5e33 0b28 5a33 07b5 3732
00000100: 45f5 a634 288c 1b34 97bb 8633 1894 4334
00000110: 1f23 5b34 d43b 7b34 d8c5 5b35 57f5 8934
00000120: 0a97 3932 eedb f731 a39f 4b33 cfd4 7032
00000130: f9f3 8c32 6d29 0333 0172 d232 eb01 fc31
00000140: 6229 a930 2bb6 8b31 20f8 c531 2a44 a531
00000150: 5832 1e31 4903 6231 0bb5 0332 241e 9231
00000160: e3fc 1c36 4ae1 9435 6c87 cb35 08a0 3035
00000170: ca4f a036 da1e 1b36 3099 8e36 5b28 ac36
00000180: d714 a632 e3ec 7032 a42e b733 ccb8 6e32
00000190: 7b2f 0433 e2a1 6933 c1ef 8e33 74a5 ba32
000001a0: c14f 0633 7573 8632 ba10 c033 ee70 0d32
000001b0: 2121 a232 a3fc f832 2d40 1331 dd61 7632
000001c0: ebae 0734 cb8f cf34 b544 9933 db86 4333
000001d0: 8558 6134 c5e7 5334 1ffa ad34 b855 aa34
000001e0: e1e1 2e2f a170 632e 4be6 7c2f 0a52 2f30
000001f0: c5f5 bc2f cd5f 852e 9030 e12e 62eb 462f

exp_avg f4 [16]
2.3916022e-11 2.7589233e-11 2.1159447e-11 3.8672235e-07 3.894131e-07 1.979336e-15 9.6774345e-29 2.438955e-11
1.0631077e-08 3.3484844e-17 1.6385006e-24 -0.00019061564 9.8788533e-26 5.2131423e-24 6.566341e-25 1.6263839e-29
00000000: 185e d22d 6ead f22d d71e ba2d b79e cf34
00000010: 8710 d134 4ea0 0e27 245a f510 6288 d62d
00000020: f9a3 3632 ed6b 1a24 b28b fd17 ffdf 47b9
00000030: ac96 f415 76ac c918 ea37 4b17 57ef a40f

exp_avg_sq f4 [16]
3.634256e-08 5.086917e-07 9.7238676e-08 8.522631e-08 4.5439794e-08 1.6774829e-09 1.1808008e-07 1.7768008e-07
2.2194935e-07 9.0800256e-08 4.043494e-09 2.2577183e-06 1.7955317e-07 4.0633445e-08 4.0144982e-07 3.50696e-10
00000000: 1117 1c33 078d 0835 87d1 d033 a905 b733
00000010: 9529 4333 2f8d e630 3693 fd33 54c8 3e34
00000020: f950 6e34 f8fd c233 f3ee 8a31 4e83 1736
00000030: 33cb 4034 f284 2e33 d886 d734 13cc c02f

exp_avg f4 [8, 16]
-1.2736881e-10 -3.4323794e-12 2.9682403e-13 -1.530061e-08 -1.5459999e-07 9.27469e-16 3.9377767e-26 -2.7231505e-12
1.0369875e-08 -8.1987435e-20 1.0926189e-24 0.0008634043 4.3755538e-26 9.56231e-25 4.7340042e-26 8.485841e-29
5.542747e-12 8.736794e-14 -4.3215878e-13 1.4261864e-09 1.8869411e-08 -7.749939e-17 -2.0183625e-25 2.8040596e-13
-5.377807e-10 5.943758e-21 -5.5014777e-24 -5.9892875e-05 -2.2426845e-25 -8.775724e-25 -2.4290955e-25 3.394175e-29
5.7929255e-11 1.1849043e-12 -1.1670959e-12 1.3761946e-08 1.6254005e-07 -1.5849864e-16 -3.597723e-25 1.3345744e-12
-3.834098e-09 1.10941924e-20 -9.895297e-24 -0.0008630382 -3.9976125e-25 -3.3388205e-25 -4.328988e-25 -8.665239e-30
1.8155704e-11 1.4242187e-12 2.7941148e-13 -4.700673e-09 -1.9973879e-08 -6.294578e-16 -4.6713474e-26 7.4645894e-13
-3.2036933e-09 5.4585836e-20 -1.2991128e-24 9.006656e-05 -5.1904755e-26 -4.98674e-25 -5.6212465e-26 -2.3114537e-29
-4.7197164e-12 -1.031966e-13 -3.1004878e-13 -3.1052825e-09 -3.7676696e-08 4.557457e-16 -9.6045116e-26 -1.4634794e-13
1.8917591e-10 -4.0526195e-20 -2.6031682e-24 0.00017797906 -1.0671813e-25 -1.1613927e-24 -1.156009e-25 2.3379839e-29
3.1315756e-11 1.324172e-12 3.2759353e-13 6.817297e-09 4.7848314e-08 -6.7056136e-16 3.2205118e-25 7.333421e-13
-2.3806592e-09 5.793159e-20 8.9121356e-24 -0.00017445447 3.578457e-25 7.0241674e-25 3.875279e-25 -1.6790757e-29
5.1999485e-11 1.5857577e-12 1.3151909e-13 8.085481e-09 8.569101e-08 -3.9814458e-16 4.5106756e-25 1.0238468e-12
-4.101679e-09 3.5844043e-20 1.238418e-23 -0.0005695935 5.011992e-25 2.4419e-24 5.428596e-25 -7.830505e-29
8.622432e-12 1.3281225e-13 3.134659e-14 -4.2191455e-09 -3.8682312e-08 1.3948272e-16 1.0869769e-25 4.0155758e-13
-8.1026297e-10 -1.1550861e-20 2.9679071e-24 9.769245e-05 1.2077909e-25 -1.4015413e-25 1.307796e-25 1.3384395e-29
00000000: 220b 0caf 4088 71ac da18 a72a 666e 83b2
00000010: 1f00 26b4 91a9 8526 40fd 4215 eb9f 3fac
00000020: 3127 3232 5d96 c19f 1813 a917 1556 623a
00000030: bcaa 5815 36f8 9317 a26a 6a15 4224 d710
00000040: a004 c32c 30bc c429 a548 f3aa 7903 c430
00000050: 4616 a232 91b3 b2a4 76dc 7996 c2da 9d2a
00000060: f4d2 13b0 808c e01d ffd3 d498 7c35 7bb8
00000070: c1d0 8a96 39cc 8797 8e5a 9696 e91a 2c10
00000080: 8bc6 7e2e adc2 a62b 1041 a4ab ae6d 6c32
00000090: ab86 2e34 8bbc 36a5 32b0 de96 1cd3 bb2b
000000a0: 15bd 83b1 3990 511e 2367 3f99 833d 62ba
000000b0: b370 f796 b9a9 ce96 c7f9 0597 7ec0 2f8f
000000c0: 03b3 9f2d e370 c82b 704b 9d2a 8f83 a1b1
000000d0: 0693 abb2 ca6d 35a6 5d50 6795 091c 522b
000000e0: f827 5cb1 1de3 801f 2907 c997 1ee2 bc38
000000f0: 8c82 8095 0655 1a97 e22c 8b95 c568 ea8f
00000100: 6d0f a6ac ca60 e8a9 bd8a aeaa b564 55b1
00000110: f7d1 21b3 195c 0326 d3cb ed95 ecc5 24aa
00000120: 4900 502f 2a61 3f9f 0f69 4998 e49f 3a39
00000130: 531c 0496 81b7 b397 631b 0f96 8819 ed0f
00000140: 68ba 092e 535c ba2b 346b b82a 943d ea31
00000150: c781 4d33 b246 41a6 0c57 c716 de6a 4e2b
00000160: 0099 23b1 7fc9 881f c262 2c19 c4ed 36b9
00000170: ea7e dd16 3063 5917 3fde ef16 4c47 aa8f
00000180: 37b2 642e f12c df2b cc13 142a 52e8 0a32
00000190: 2205 b833 c583 e5a5 4199 0b17 f817 902b
000001a0: c0ee 8cb1 ca44 291f 7d8b 6f19 c650 15ba
000001b0: 171d 1b17 d0ee 3c18 c501 2817 e286 c690
000001c0: fbaf 172d 8688 152a 282c 0d29 fff7 90b1
000001d0: a723 26b3 08d0 2025 ac8f 0616 8c0e e22a
000001e0: 30b9 5eb0 8930 5a9e 75a1 6518 3ce0 cc38
000001f0: 6c84 1516 9e80 2d96 b6e5 2116 e0bb 870f

exp_avg_sq f4 [8, 16]
3.8299974e-10 1.1546612e-07 6.356598e-08 2.9830797e-08 5.023614e-10 3.9234535e-10 1.1318787e-08 3.520056e-09
3.34865e-07 1.6618419e-08 2.3136446e-09 5.4971756e-06 2.1275588e-09 9.583987e-10 1.3693558e-07 5.032043e-09
6.940908e-09 4.5859116e-07 2.4721223e-07 4.0591942e-07 6.444878e-09 3.312099e-11 1.2794636e-07 4.8014208e-08
3.9483233e-08 2.2173397e-07 1.1168169e-08 8.4693784e-07 3.0669476e-08 3.3948636e-10 8.2388334e-07 6.8404795e-08
3.7021066e-09 3.5824326e-07 1.830419e-07 1.3409046e-07 3.4770649e-09 1.3647572e-11 5.167789e-08 1.4699734e-08
2.9140223e-08 6.896146e-08 6.0566427e-09 4.5537163e-06 1.0736993e-08 1.3133031e-09 5.038362e-07 2.077412e-08
3.5962429e-09 1.6839876e-07 1.063984e-07 1.3202599e-07 1.7002302e-09 1.2640548e-10 5.1267293e-08 1.4273945e-08
3.6238944e-07 6.608525e-08 8.015308e-09 7.266409e-07 1.0145769e-08 1.8165602e-10 3.9898734e-07 2.0420755e-08
2.29328e-09 5.994074e-08 2.380621e-08 9.557815e-07 1.3687566e-10 8.95757e-11 2.0652145e-07 1.2478047e-07
5.8069904e-08 5.7612283e-07 3.9380894e-09 4.2688868e-07 6.623123e-08 6.592673e-10 2.938653e-07 1.7933421e-07
3.2906573e-11 5.6471322e-08 2.4633557e-08 1.7873694e-07 5.246053e-10 1.4117663e-10 3.5658662e-08 2.376191e-08
6.143806e-08 1.0985917e-07 3.2517025e-10 7.856169e-07 1.2369067e-08 2.1046655e-10 5.3857875e-08 3.4103362e-08
5.591912e-09 4.8286404e-07 2.4713472e-07 2.5330144e-07 1.6515163e-08 1.8136663e-10 8.613365e-08 2.9905394e-08
1.0656977e-07 1.3873418e-07 8.933287e-09 2.8516602e-06 2.1488162e-08 2.0121527e-09 6.696182e-07 4.1476625e-08
2.8310614e-09 9.579145e-08 4.383044e-08 1.0530267e-06 4.8145705e-09 1.1154945e-11 2.2853413e-07 1.3765592e-07
9.589602e-08 6.352414e-07 4.7670095e-09 3.3503335e-07 7.3827756e-08 9.266895e-11 3.4235072e-07 1.9736859e-07
00000000: 6c8e d22f 2cf6 f733 c481 8833 4f1f 0033
00000010: 8a16 0a30 b3b1 d72f 8d74 4232 7be5 7131
00000020: 7fc7 b334 4ac0 8e32 11fe 1e31 6174 b836
00000030: 6934 1231 a8b8 8330 9108 1334 51e6 ac31
00000040: df7c ee31 4a34 f634 97b8 8434 24ed d934
00000050: bf71 dd31 ebaa 112e a161 0934 2e38 4e33
00000060: 4694 2933 c515 6e34 20de 3f32 2059 6335
00000070: 72b9 0333 75a2 ba2f d528 5d35 efe5 9233
00000080: 2668 7e31 9454 c034 2d8a 4434 81fa 0f34
00000090: 2cf1 6e31 3317 702d 71f4 5d33 1d8a 7c32
000000a0: 0750 fa32 f717 9433 cb1a d031 20cc 9836
000000b0: cb75 3832 bf7f b430 5c3f 0735 c672 b232
000000c0: c621 7731 19d1 3434 247d e433 07c3 0d34
000000d0: 88ad e930 fbfb 0a2f fc30 5c33 7939 7532
000000e0: 6d8e c234 c0ea 8d33 b3b3 0932 620e 4335
000000f0: 904d 2e32 a0bb 472f 6734 d634 b769 af32
00000100: cf97 1d31 c5b8 8033 697e cc32 6748 8035
00000110: 137f 162f a3fa c42e 2fc0 5d34 65fb 0534
00000120: 8968 7933 dca6 1a35 cd4f 8731 222f e534
00000130: 013b 8e33 d037 3530 8ac4 9d34 038f 4034
00000140: 82b9 102e e08a 7233 c499 d332 d6ea 3f34
00000150: d133 1030 b039 1b2f 1d27 1933 fe1c cc32
00000160: eeef 8333 b8eb eb33 a5c3 b22f 2fe3 5235
00000170: bb7f 5432 1169 672f 5c51 6733 0b79 1233
00000180: fa22 c031 2a9e 0135 f0ad 8434 7cfd 8734
00000190: 3add 8d32 2b6a 472f 7af8 b833 5471 0033
000001a0: 5adb e433 f6f6 1434 0379 1932 265f 3f36
000001b0: f894 b832 2a46 0a31 d0bf 3335 0824 3233
000001c0: 8f8c 4231 e8b5 cd33 1440 3c33 b955 8d35
000001d0: 696d a531 683d 442d fc62 7534 92ce 1334
000001e0: 65ef cd33 7585 2a35 0fcb a331 a2de b334
000001f0: 3d8b 9e33 fbc7 cb2e 53cc b734 44ec 5334

exp_avg f4 [8]
0.00021785387 -8.625215e-06 -0.00021063263 2.7570815e-05 4.83611e-05 -4.379928e-05 -0.00015104919 1.9210223e-05
00000000: b46f 6439 04b5 10b7 44dd 5cb9 e047 e737
00000010: 56d7 4a38 1eb5 37b8 f562 1eb9 a425 a137

exp_avg_sq f4 [8]
3.9050155e-06 3.6884094e-06 3.1373718e-06 2.0016496e-06 3.1700026e-06 1.3452459e-06 5.1983798e-06 3.2451626e-06
00000000: d407 8336 6486 7736 a38b 5236 1454 0636
00000010: 3bbc 5436 4c8e b435 be6d ae36 78c7 5936

exp_avg f4 [1, 8]
-0.0014508172 0.0008561842 0.0020013102 -1.5521866e-05 -0.00037053443 0.00078975124 0.00076629047 -0.0005685721
00000000: 5929 beba 8d71 603a 6a28 033b f434 82b7
00000010: 4a44 c2b9 4f07 4f3a e2e0 483a 3a0c 15ba

exp_avg_sq f4 [1, 8]
6.459038e-05 0.0003074874 0.0001324583 3.918457e-05 0.00024919168 0.00010713699 0.0005482362 0.00031462515
00000000: b274 8738 4336 a139 81e4 0a39 1d5a 2438
00000010: f1a5 8239 bcae e038 82b7 0f3a 46f4 a439
